scripts/abr_clustering/audiometric_deep_clustering/experiments/full_pipeline_test_minimal/20250618_174959_evident/checkpoints/pretrain/best_pretrain.pt (torch, 341223 bytes, 213 tensors)

encoder.abr_encoder.abr_projection.weight f4 [16, 6]
0.09376509 0.4793922 0.3424529 0.0441904 -0.072624475 0.22312145 -0.49552783 -0.20250776
0.43487626 0.014718686 -0.034661 -0.39369294 -0.32934678 0.059671786 -0.39325467 -0.14186211
-0.25921664 0.1801914 0.025674362 -0.5337957 0.14346899 -0.09645671 -0.28801352 0.34244645
-0.3675808 -0.51454633 0.105219744 -0.29823887 -0.17403984 -0.39781034 -0.20350772 0.33499235
-0.47977298 -0.42536262 -0.14183712 -0.40565005 0.12000103 -0.091289505 0.414023 -0.49824703
0.033288065 0.24760269 0.10483769 -0.104511894 0.4949042 -0.36110327 0.5246822 0.18144989
0.26999876 0.3980959 0.089217626 0.08998814 -0.07166892 -0.4407358 0.23596776 0.4232664
0.21385424 -0.040871564 -0.45052928 0.014955746 0.13835184 -0.3888187 0.4315575 0.00901099
0.15242955 0.505453 0.25025165 -0.2377508 0.18936342 0.36440134 0.3151956 -0.19006418
0.0043600397 -0.4360587 -0.10456782 -0.40560493 0.23496321 0.45795354 -0.49818912 -0.3010601
-0.15948026 -0.39644948 0.46763968 -0.37101817 -0.25115293 -0.43627346 0.0684031 -0.35470363
-0.28068092 0.568635 0.27291715 0.23511967 0.36680377 0.13095309 0.13431434 -0.33828735
00000000: e907 c03d e572 f53e fd55 af3e fe00 353d
00000010: 24bc 94bd f379 643e d3b5 fdbe 325e 4fbe
00000020: 1aa8 de3e a526 713c b1f8 0dbd 1f92 c9be
00000030: 24a0 a8be 676a 743d ad58 c9be 4d44 11be
00000040: 0bb8 84be 1884 383e 0a53 d23c d6a6 08bf
00000050: 89e9 123e 188b c5bd 8276 93be 2455 af3e
00000060: 8d33 bcbe 4fb9 03bf 737d d73d c4b2 98be
00000070: 8037 32be ccad cbbe 5464 50be 1e84 ab3e
00000080: cea4 f5be 21c9 d9be c03d 11be 5db1 cfbe
00000090: 1ac3 f53d fef5 babd d3fa d33e 3c1a ffbe
000000a0: 1159 083d 8f8b 7d3e 25b5 d63d 550a d6bd
000000b0: 1564 fd3e 87e2 b8be 9351 063f 00ce 393e
000000c0: 473d 8a3e 3ad3 cb3e bbb7 b63d b44b b83d
000000d0: 28c7 92bd 1fa8 e1be 88a1 713e 60b6 d83e
000000e0: 9bfc 5a3e f168 27bd c6ab e6be f208 753c
000000f0: 1bac 0d3e 3f13 c7be 1bf5 dc3e d5a2 133c
00000100: 7e16 1c3e 5e65 013f fc20 803e f274 73be
00000110: 7ce8 413e d092 ba3e 5161 a13e 2fa0 42be
00000120: aade 8e3b 1643 dfbe a727 d6bd 73ab cfbe
00000130: 329a 703e e378 ea3e a512 ffbe 8d24 9abe
00000140: cb4e 23be 6dfb cabe 786e ef3e 18f6 bdbe
00000150: 1e97 80be 3c5f dfbe ed16 8c3d b79b b5be
00000160: 69b5 8fbe 1092 113f ccbb 8b3e 36c3 703e
00000170: b4cd bb3e 9118 063e b389 093e 0034 adbe

encoder.abr_encoder.abr_projection.bias f4 [16]
0.00011458353 8.64078e-05 8.279979e-05 -7.157845e-05 -5.0758106e-05 -2.1342846e-06 -0.00017890024 -0.00029134142
0.000113925584 -0.00016166105 5.7664474e-05 -5.1402432e-05 0.00011670426 -5.23318e-05 -0.00016591833 5.5372268e-05
00000000: 904c f038 d635 b538 cca4 ad38 631c 96b8
00000010: 1ae5 54b8 bb3a 0fb6 2b97 3bb9 2fbf 98b9
00000020: 55eb ee38 8f83 29b9 c2dc 7138 f198 57b8
00000030: 1fbf f438 d87e 5bb8 5dfa 2db9 853f 6838

encoder.abr_encoder.abr_norm.weight f4 [16]
0.979648 1.083141 1.0073125 1.0412148 1.1019711 1.0535172 0.9664076 0.963141
1.0016345 0.9588435 0.97338784 1.0249829 1.0053297 1.0979081 1.1122557 0.9873298
00000000: 36ca 7a3f 5da4 8a3f 9eef 803f 8746 853f
00000010: 640d 8d3f a7d9 863f 7d66 773f 6990 763f
00000020: 8f35 803f c576 753f f22f 793f a432 833f
00000030: a5ae 803f 4188 8c3f 655e 8e3f a5c1 7c3f

encoder.abr_encoder.abr_norm.bias f4 [16]
-0.07421535 -0.08780186 -0.037739925 -0.07895858 -0.06705102 -0.04292487 -0.07007987 -0.047536355
-0.0514543 -0.07182667 -0.03540765 -0.061895285 -0.06127269 -0.044191003 -0.0727579 -0.063146986
00000000: 38fe 97bd 76d1 b3bd 2e95 1abd 09b5 a1bd
00000010: 0c52 89bd fdd1 2fbd 0986 8fbd 7bb5 42bd
00000020: bec1 52bd dc19 93bd 9d07 11bd e985 7dbd
00000030: 12f9 7abd a001 35bd 1802 95bd 3553 81bd

encoder.abr_encoder.abr_norm.running_mean f4 [16]
-0.24557622 0.15013766 0.19830908 0.08938008 0.36688125 0.29750413 -0.048147444 -0.18728147
-0.07289327 -0.08601605 -0.18889938 -0.1575746 0.05548149 0.28069323 0.15413368 -0.17923696
00000000: 5578 7bbe b0bd 193e 8911 4b3e e70c b73d
00000010: dcd7 bb3e 7652 983e 4136 45bd b7c6 3fbe
00000020: 1149 95bd 2f29 b0bd d76e 41be 3c5b 21be
00000030: 8f40 633d 06b7 8f3e 38d5 1d3e e589 37be

encoder.abr_encoder.abr_norm.running_var f4 [16]
0.22663458 0.097404286 0.15070017 0.044538483 0.49440947 0.3349958 0.024395913 0.1493567
0.032222077 0.039985992 0.14769068 0.09993523 0.029194726 0.29758513 0.10719685 0.12598374
00000000: e512 683e e67b c73d 2551 1a3e fc6d 363d
00000010: 3d23 fd3e 9284 ab3e f0d9 c73c f6f0 183e
00000020: 4cfb 033d 5ac8 233d 3a3c 173e d8aa cc3d
00000030: c729 ef3c 145d 983e 068a db3d e201 013e

encoder.abr_encoder.attention.q_projection.weight f4 [16, 1]
0.15515307 -0.47541878 0.008430035 -0.33181578 -0.32506353 -0.33571038 -0.27521807 -0.34175092
-0.2328242 -0.21446852 -0.5409099 0.4741121 0.19799124 -0.56273913 -0.58340245 -0.2954855
00000000: 72e0 1e3e 176a f3be 211e 0a3c c2e3 a9be
00000010: ba6e a6be 3be2 abbe 62e9 8cbe faf9 aebe
00000020: 7869 6ebe a39d 5bbe 1279 0abf d2be f23e
00000030: 37be 4a3e ac0f 10bf dd59 15bf e049 97be

encoder.abr_encoder.attention.q_projection.bias f4 [16]
-0.032952834 -0.032817915 0.032471437 -0.032787103 0.032933272 0.0330316 0.033086967 0.032907214
-4.1229894e-05 -0.00086167664 -0.0008710746 0.00087230804 0.00086332776 -0.0007804723 -0.000842558 -0.00085404865
00000000: 8df9 06bd 146c 06bd c500 053d c54b 06bd
00000010: 0ae5 063d 254c 073d 3386 073d b7c9 063d
00000020: 43ee 2cb8 24e2 61ba d458 64ba 9aab 643a
00000030: f250 623a 9c98 4cba 1cdf 5cba 3ce2 5fba

encoder.abr_encoder.attention.k_projection.weight f4 [16, 1]
0.21769087 0.55513567 -0.100902386 0.3648463 -0.30893946 -0.11184251 -0.08062589 -0.566872
0.0027521816 0.15588854 0.36101082 -0.45826164 -0.17733249 0.021994192 0.06251324 0.09933194
00000000: 5bea 5e3e 5f1d 0e3f e9a5 cebd 22cd ba3e
00000010: 502d 9ebe b00d e5bd 301f a5bd 861e 11bf
00000020: f25d 343b 3fa1 1f3e 69d6 b83e 45a1 eabe
00000030: a696 35be 2a2d b43c f106 803d 8b6e cb3d

encoder.abr_encoder.attention.k_projection.bias f4 [16]
8.630006e-05 -0.00014721019 9.005348e-06 -0.00013648502 -0.000113519614 -0.0001158313 -5.943797e-05 -0.00012635252
-2.6522687e-06 -3.4664297e-06 -9.4937195e-06 8.892415e-06 3.736903e-06 -1.3689223e-05 -9.304799e-06 -5.39205e-06
00000000: fefb b438 6f5c 1ab9 ad15 1737 6b1d 0fb9
00000010: 6111 eeb8 75ea f2b8 094d 79b8 7f7d 04b9
00000020: a1fd 31b6 cfa0 68b6 3747 1fb7 a230 1537
00000030: 81c7 7a36 c4aa 65b7 cf1b 1cb7 5bed b4b6

encoder.abr_encoder.attention.v_projection.weight f4 [16, 1]
-0.44084823 0.46077803 -0.5362474 -0.2052978 0.29511082 -0.14775825 -0.2838908 -0.5860017
0.36501056 0.03156105 0.24337962 0.13986322 -0.41478077 -0.2552402 0.38108164 -0.3360451
00000000: dcb6 e1be 19eb eb3e 8247 09bf 9639 52be
00000010: c418 973e f04d 17be 235a 91be 3504 16bf
00000020: aae2 ba3e 2946 013d 8238 793e 4e38 0f3e
00000030: 255e d4be d8ae 82be 221d c33e 1a0e acbe

encoder.abr_encoder.attention.v_projection.bias f4 [16]
0.06168658 -0.061594762 0.061601445 -0.0645334 0.06206371 -0.063534856 -0.06500511 0.061413176
0.020174619 -0.020246286 0.019760521 -0.020792987 -0.010683754 0.02098042 0.019008622 0.020859528
00000000: 11ab 7c3d ca4a 7cbd cc51 7c3d 162a 84bd
00000010: 8436 7e3d 901e 82bd 6621 85bd 628c 7b3d
00000020: 3e45 a53c 8adb a5bc d1e0 a13c 0e56 aabc
00000030: ea0a 2fbc 21df ab3c f8b7 9b3c 9ae1 aa3c

encoder.abr_encoder.attention.output_projection.weight f4 [1, 16]
-0.28924236 0.3405297 -0.27014646 0.11912292 -0.30507612 0.21168293 0.07679624 -0.4829436
-0.40668398 0.23212825 -0.15098198 0.3720257 -0.013087295 -0.24877726 -0.05947983 -0.31599653
00000000: 9317 94be e959 ae3e a350 8abe b8f6 f33d
00000010: f032 9cbe 69c3 583e 5947 9d3d 6244 f7be
00000020: e238 d0be 07b3 6d3e 059b 1abe 277a be3e
00000030: 186c 56bc 77bf 7ebe 1fa1 73bd 4cca a1be

encoder.metadata_encoder.metadata_projection.weight f4 [24, 12]
0.17455736 0.272962 -0.010823852 -0.28883547 0.27175316 0.32168353 0.268568 -0.014878516
0.104387775 -0.0035045494 -0.14181776 -0.3904388 -0.01466835 0.19562754 0.1894927 0.1064452
0.17258514 0.21931915 -0.055928476 0.23408443 -0.008808251 -0.12391118 -0.21075852 -0.21844009
-0.27623454 0.14209022 0.32275137 0.08547995 0.017420873 -0.1542791 -0.17215471 -0.14289105
0.17303234 0.06694367 -0.23395663 0.04323769 -0.042034242 0.020060029 0.2211371 -0.14733471
0.3716374 -0.21331625 0.32076436 0.14194481 0.1942179 -0.09532109 -0.14196828 -0.25359923
-0.3568566 0.2552096 0.36073276 0.09501076 -0.16300151 0.060574934 -0.03449701 -0.37083173
-0.3203898 0.13249108 -0.13445999 -0.07798341 -0.19279589 0.15612188 -0.23922041 -0.13930373
0.22879463 0.35454997 0.33963048 0.18193588 0.0077145235 0.3031932 0.40151083 0.16996242
0.11110489 0.06252124 0.041413363 0.21654333 0.11340168 -0.34114704 -0.29200205 -0.3812298
-0.12464597 -0.006949691 -0.14486264 -0.34871146 -0.26706755 0.17838037 -0.038678266 -0.07426339
0.06918694 -0.08415714 -0.2296115 -0.18928012 -0.17223111 -0.35091898 -0.40164292 -0.14378047
0.14019406 0.39727882 -0.0057647554 0.259929 0.15954353 -0.3524395 -0.20557243 -0.12208216
-0.31901482 0.046939347 0.09467697 -0.32296246 -0.07507136 -0.31913644 0.33427328 0.25316945
-0.13778022 0.28318053 -0.24415182 0.30477113 -0.15154482 0.13284308 0.3327683 0.15301438
0.12475145 -0.057776302 0.031204313 0.30621874 -0.124197595 -0.16314615 0.022146178 -0.13567662
-0.06585248 0.010880029 0.30565932 0.111543745 -0.21838611 0.21009475 -0.13509844 0.06325451
-0.004185619 0.25835383 -0.08656523 -0.15746453 -0.06411636 -0.011852865 -0.20716116 0.26316184
-0.20618892 0.051767297 -0.35190773 -0.07990014 -0.09172484 -0.20930178 0.16219941 -0.33512554
0.054938745 -0.033127036 -0.2384405 0.2548244 0.25596422 0.09813696 0.008883305 0.18057209
-0.20859218 -0.32484037 0.34373882 -0.15679605 0.07550839 0.037698306 0.39050004 0.32127622
-0.2516656 -0.008851005 -0.33508965 0.20448704 0.3910106 -0.17947412 0.03695112 -0.10457694
-0.092115 0.29824755 -0.33422467 -0.07800326 0.016610127 -0.31101367 0.1397097 0.28854868
-0.3072161 0.15307312 -0.013542915 0.34274164 -0.3540197 0.3271533 -0.17451239 0.31942657
-0.16764018 0.07204012 0.04315327 0.21125631 0.17430578 0.120748684 -0.100250386 -0.31409535
0.015710382 0.3416618 0.38720426 -0.21955827 0.2461661 0.15968035 -0.074412495 0.20283203
-0.020216806 0.046357196 -0.28336167 -0.054480176 0.3865157 0.24764144 -0.34172958 -0.028753739
0.22722772 -0.17381002 -0.06442503 0.15588893 0.31702366 0.2841679 -0.27730253 -0.3682499
0.15019985 -0.018179072 0.40327656 0.25256038 -0.1283449 0.099744745 0.12105491 -0.1432946
0.36343548 0.011499023 -0.13450627 -0.35897452 0.29932752 -0.3898305 0.3319592 -0.12699796
-0.027928514 0.06856504 0.36250296 -0.2866507 -0.28709796 0.16967878 -0.20026106 -0.15126927
0.22723399 -0.20031188 0.23018079 -0.17382678 0.29969415 0.35353038 0.018298894 -0.18868509
00000000: 2abf 323e adc1 8b3e 8756 31bc 3ee2 93be
00000010: 3b23 8b3e b4b3 a43e bf81 893e 05c5 73bc
00000020: 42c9 d53d 95ac 65bb ad38 11be 98e7 c7be
00000030: 8553 70bc 9652 483e 600a 423e f1ff d93d
00000040: 29ba 303e 3395 603e 4215 65bd d4b3 6f3e
00000050: 7b50 10bc 25c5 fdbd 15d1 57be c2ae 5fbe
00000060: 9d6e 8dbe 1980 113e ab3f a53e 1d10 af3d
00000070: 38b6 8e3c 57fb 1dbe 5349 30be 0852 12be
00000080: 642f 313e c319 893d 5492 6fbe 011a 313d
00000090: 192c 2cbd ee54 a43c c471 623e e9de 16be
000000a0: 4247 be3e 936f 5abe 3a3b a43e fb59 113e
000000b0: 0fe1 463e b437 c3bd 2260 11be c2d7 81be
000000c0: e9b5 b6be d5aa 823e f7b1 b83e 0095 c23d
000000d0: dee9 26be 6c1d 783d bd4c 0dbd a8dd bdbe
000000e0: 220a a4be beab 073e e1af 09be c4b5 9fbd
000000f0: 496c 45be 6ade 1f3e 32f6 74be a3a5 0ebe
00000100: 2449 6a3e 9387 b53e 0ce4 ad3e 664d 3a3e
00000110: 1dca fc3b 243c 9b3e d492 cd3e a10a 2e3e
00000120: f68a e33d 230b 803d 0fa1 293d 89bd 5d3e
00000130: 243f e83d d3aa aebe 4b81 95be 8d30 c3be
00000140: 6346 ffbd 3cba e3bb df56 14be 4f8a b2be
00000150: 14bd 88be 58a9 363e 1a6d 1ebd 6717 98bd
00000160: e2b1 8d3d 945a acbd 471f 6bbe a6d2 41be
00000170: 5a5d 30be a7ab b3be 24a4 cdbe 303b 13be
00000180: 088f 0f3e 2168 cb3e 46e6 bcbb 6a15 853e
00000190: 615f 233e f372 b4be 9481 52be 3606 fabd
000001a0: e955 a3be 7943 403d 00e6 c13d 565b a5be
000001b0: 03bf 99bd da65 a3be de25 ab3e 6d9f 813e
000001c0: 4216 0dbe 0afd 903e ef02 7abe f60a 9c3e
000001d0: 912e 1bbe 0408 083e 9b60 aa3e cdaf 1c3e
000001e0: b07d ff3d d8a6 6cbd 30a0 ff3c b4c8 9c3e
000001f0: 4f5b febd c90f 27be e76b b53c d0ee 0abe
00000200: aadd 86bd 2642 323c 617f 9c3e 0c71 e43d
00000210: 9ca0 5fbe 1423 573e 3f57 0abe 958b 813d
00000220: 8427 89bb f446 843e 1c49 b1bd 623e 21be
00000230: 704f 83bd 8532 42bc 0e22 54be 26bd 863e
00000240: 3023 53be f209 543d 402d b4be afa2 a3bd
00000250: 3cda bbbd 3553 56be 9a17 263e 9395 abbe
00000260: 7307 613d 37b0 07bd bf29 74be 5878 823e
00000270: be0d 833e 08fc c83d 488b 113c e4e7 383e
00000280: 3099 55be 7a51 a6be 89fe af3e 258f 20be
00000290: 25a4 9a3d 8a69 1a3d 9fef c73e 517e a43e
000002a0: 50da 80be ce03 11bc df90 abbe 0d65 513e
000002b0: 8b32 c83e 10c8 37be 0f5a 173d 6f2c d6bd
000002c0: caa6 bcbd e7b3 983e 7f1f abbe 2cc0 9fbd
000002d0: f611 883c 2f3d 9fbe 0f10 0f3e a7bc 933e
000002e0: 6e4b 9dbe 33bf 1c3e 1ae3 5dbc d57b af3e
000002f0: 1242 b5be a380 a73e 60b3 32be e18b a33e
00000300: dea9 2bbe c589 933d 7cc1 303d 9353 583e
00000310: 377d 323e 164b f73d 1350 cdbd 1bd1 a0be
00000320: 0fb3 803c 4cee ae3e a33f c63e e2d3 60be
00000330: f712 7c3e 3f83 233e 9465 98bd 33b3 4f3e
00000340: b79d a5bc 0be1 3d3d c814 91be 9b26 5fbd
00000350: 63e5 c53e b895 7d3e 2ef7 aebe f68c ebbc
00000360: 62ae 683e 41fb 31be 45f1 83bd 59a1 1f3e
00000370: ed50 a23e 747e 913e 99fa 8dbe 408b bcbe
00000380: fdcd 193e 47ec 94bc 447a ce3e 984f 813e
00000390: d86c 03be f946 cc3d a3eb f73d d2bb 12be
000003a0: 3714 ba3e 6666 3c3c 03bc 09be 82cb b7be
000003b0: 7541 993e dd97 c7be 8ef6 a93e c10b 02be
000003c0: 57ca e4bc d46b 8c3d fd99 b93e e1c3 92be
000003d0: 81fe 92be 46c0 2d3e 3c11 4dbe 55e6 1abe
000003e0: 07b0 683e 8f1e 4dbe 83b4 6b3e a6ff 31be
000003f0: 8371 993e ef01 b53e 90e7 953c aa36 41be

encoder.metadata_encoder.metadata_projection.bias f4 [24]
-0.022329062 -0.038115535 -0.026976619 -0.061372407 -0.046163656 -0.032476496 -0.044453837 -0.013035232
-0.018622303 -0.061682884 -0.019703934 -0.025532493 -0.048006326 -0.043626167 -0.049432337 -0.008821012
-0.084798045 -0.01684074 -0.04544406 -0.00990374 -0.0444484 -0.07501148 -0.01562736 -0.013113797
00000000: 70eb b6bc 091f 1cbd 12fe dcbc a261 7bbd
00000010: 1a16 3dbd 1306 05bd 3a15 36bd ba91 55bc
00000020: cd8d 98bc 31a7 7cbd 256a a1bc 8529 d1bc
00000030: 48a2 44bd 5ab1 32bd 9079 4abd 0286 10bc
00000040: 99aa adbd 97f5 89bc 8d23 3abd 4c43 22bc
00000050: 870f 36bd 9e9f 99bd f304 80bc 40db 56bc

encoder.encoder_layers.0.0.weight f4 [64, 40]
-0.1952807 0.11192218 -0.16341908 0.08604948 0.15551488 0.24765687 -0.20049764 0.17645147
0.020256614 0.19078618 0.23297995 -0.059290033 0.016853787 -0.014203566 0.26258874 -0.10715887
0.16207641 0.09915017 0.23741412 0.17785676 0.1982114 -0.19153318 -0.09492035 -0.12220023
0.11217279 0.058090333 0.09791942 0.0916861 0.04637932 0.10124055 -0.0945327 0.1448308
-0.19796914 -0.18274848 0.08304745 0.23257588 -0.08849327 0.23342906 -0.05686515 -0.17889288
0.0004390922 0.18200102 -0.063842334 0.26645884 -0.040489227 -0.042889956 -0.0649457 -0.1542926
0.22499794 -0.12536451 -0.070862316 -0.046735067 0.25508636 0.17373638 0.15252885 -0.03606793
0.12970391 0.046315227 0.17319521 0.019529505 0.13154274 0.18155698 0.06732674 -0.18829063
0.05284149 -0.16609958 0.09279194 -0.043920163 0.18460058 -0.117799304 -0.1952969 0.08899485
0.13940476 -0.0047737765 0.1273745 0.2099303 0.012529382 -0.023073016 0.13606384 0.24408007
-0.02301072 0.19533584 0.080127 0.007962278 0.033029724 -0.1705073 0.11356583 -0.09177105
-0.19366488 -0.029317528 -0.07504309 -0.1257385 -0.010409647 0.022388373 0.14465709 0.04522884
0.005421242 0.10312172 -0.11719933 0.21466684 0.14527972 0.16067116 -0.17109771 0.20674698
0.03740327 -0.2225479 0.23897794 0.022011058 0.062791124 0.19224092 0.17741363 0.19664429
-0.21822885 0.25516838 0.07573747 0.014364248 -0.16749349 -0.11226603 0.24541013 0.19526331
0.17416564 -0.050798237 -0.18093224 0.028111678 -0.15943743 -0.1988284 0.07663659 0.19958608
-0.16728292 -0.21089278 0.03376747 -0.07621911 -0.12326144 -0.09181575 -0.061901998 -0.059673317
0.17040896 0.09766329 0.031436168 -0.09809817 -0.04808127 0.16411065 -0.013083463 -0.2726195
0.040220995 0.11779565 -0.035116658 -0.106889896 -0.09117252 0.13900721 0.16181283 -0.22724715
0.16480958 0.030999033 0.099372424 -0.122818366 -0.107549936 0.21447892 0.015075635 -0.024036769
-0.0056220507 0.24993102 -0.020645188 0.18154584 -0.01210639 0.08047731 0.08072982 -0.069663264
0.030386515 0.08145634 -0.20163794 0.030663181 0.024033869 0.23525843 0.113124765 -0.14146355
-0.051120657 0.22579244 -0.020938143 0.14964357 -0.00076674356 0.18223761 -0.11145455 0.2686028
0.0890942 -0.042757805 0.2182812 0.10466827 -0.13753268 0.005473554 0.1563114 0.051962994
-0.07605692 -0.10503258 -0.12418479 0.15972833 0.13309348 -0.15602422 -0.050156858 0.055652104
-0.19153097 0.18061075 -0.03918896 -0.081631616 0.006150211 0.05564901 0.037446495 0.22988811
0.1652216 -0.034719568 0.07014896 0.086298205 -0.05178233 -0.21917218 -0.030945372 -0.06884841
-0.21940398 0.03653251 -0.14280179 0.17157398 0.03719637 0.12713109 0.04552793 0.070548065
0.23468538 0.17412274 0.050947476 -0.09322583 0.03490241 -0.08146643 -0.035217278 0.006321882
0.15534045 -0.23221286 0.13593167 -0.029966645 -0.12170252 -0.08216791 -0.058105912 0.156447
-0.26346812 0.043435805 0.240589 -0.13764559 0.051124983 -0.08254846 0.007260125 0.06752063
-0.17832252 0.023554234 0.19110842 -0.028201044 -0.18788776 0.008756214 0.04732834 0.036697336
00000000: aaf7 47be 7537 e53d 5557 27be b63a b03d
00000010: 4b3f 1f3e c399 7d3e 414f 4dbe b2af 343e
00000020: 33f1 a53c 745d 433e 4c92 6e3e 1bda 72bd
00000030: f410 8a3c 13b6 68bc 0872 863e 1c76 dbbd
00000040: 5cf7 253e 3f0f cb3d b01c 733e 1520 363e
00000050: eef7 4a3e 4621 44be 9a65 c2bd 1d44 fabd
00000060: d9ba e53d 21f0 6d3d fa89 c83d ecc5 bb3d
00000070: 3ef8 3d3d 3557 cf3d 5c9a c1bd 864e 143e
00000080: 6cb8 4abe 6b22 3bbe c814 aa3d 5f28 6e3e
00000090: f63b b5bd 0708 6f3e 6eeb 68bd b22f 37be
000000a0: f535 e639 7a5e 3a3e c5bf 82bd 4b6d 883e
000000b0: 08d8 25bd 61ad 2fbd 4002 85bd e1fe 1dbe
000000c0: dc65 663e 8e5f 00be 4320 91bd 456d 3fbd
000000d0: ae9a 823e f3e7 313e 8630 1c3e f7bb 13bd
000000e0: 1ad1 043e 09b5 3d3d 165a 313e 57fc 9f3c
000000f0: 24b3 063e 13ea 393e 9ae2 893d 42cf 40be
00000100: 5170 583d 0216 2abe b309 be3d a1e5 33bd
00000110: ef07 3d3e c340 f1bd e9fb 47be ef42 b63d
00000120: 1fc0 0e3e 576d 9cbb 766e 023e f8f7 563e
00000130: 0948 4d3c 9f03 bdbc 5254 0b3e 20f0 793e
00000140: fa80 bcbc 1e06 483e a019 a43d 3774 023c
00000150: 2d4a 073d 7799 2ebe 3495 e83d 76f2 bbbd
00000160: 1650 46be 502b f0bc 31b0 99bd 98c1 00be
00000170: 398d 2abc d267 b73c fd20 143e e041 393d
00000180: ada4 b13b 7b31 d33d 3406 f0bd a0d1 5b3e
00000190: 35c4 143e fb86 243e 3d34 2fbe 7bb5 533e
000001a0: 2c34 193d 99e3 63be a2b6 743e 8950 b43c
000001b0: a298 803d ceda 443e ebab 353e 1f5d 493e
000001c0: 6277 5fbe 6ea5 823e 3f1c 9b3d 0658 6b3c
000001d0: 6a83 2bbe bbeb e5bd cb4c 7b3e 1bf3 473e
000001e0: 7a58 323e d011 50bd 4d46 39be 764a e63c
000001f0: 9143 23be ac99 4bbe a5f3 9c3d 4b60 4c3e
00000200: 374c 2bbe 47f4 57be c24f 0a3d c418 9cbd
00000210: 7e70 fcbd e509 bcbd f38c 7dbd 026c 74bd
00000220: b07f 2e3e b103 c83d 36c3 003d b1e7 c8bd
00000230: def0 44bd 9f0c 283e 055c 56bc c894 8bbe
00000240: c5be 243d d93e f13d 7cd6 0fbd 17e9 dabd
00000250: a8b8 babd e857 0e3e 43b2 253e 7ab3 68be
00000260: d8c3 283e aff1 fd3c c583 cb3d 3288 fbbd
00000270: 2443 dcbd 5da0 5b3e ccff 763c c2e8 c4bc
00000280: 2e39 b8bb ebed 7f3e 1920 a9bc 27e7 393e
00000290: e159 46bc 4ad1 a43d ad55 a53d 9dab 8ebd
000002a0: 24ed f83c 95d2 a63d 2d7a 4ebe 5a31 fb3c
000002b0: ade2 c43c 96e7 703e f5ad e73d d2db 10be
000002c0: e563 51bd 2236 673e 7886 abbc 2a3c 193e
000002d0: 4aff 48ba 7f9c 3a3e 4842 e4bd 4e86 893e
000002e0: 0577 b63d cf22 2fbd 1b85 5f3e 515c d63d
000002f0: 5ed5 0cbe 805b b33b 1810 203e 26d7 543d
00000300: bbc3 9bbd 521b d7bd 9854 febd d38f 233e
00000310: a849 083e d0c4 1fbe 4771 4dbd 76f3 633d
00000320: b220 44be 06f2 383e 9a84 20bd 7a2e a7bd
00000330: b687 c93b 37f0 633d 7f61 193d ca67 6b3e
00000340: da2f 293e 1b36 0ebd 42aa 8f3d 1dbd b03d
00000350: b519 54bd ac6e 60be 2681 fdbc 6500 8dbd
00000360: 70ab 60be 1da3 153d a23a 12be 17b1 2f3e
00000370: 395b 183d a72e 023e 7f7b 3a3d 817b 903d
00000380: 5d51 703e 3b4d 323e 4dae 503d 2fed bebd
00000390: d4f5 0e3d dfd7 a6bd fe3f 10bd ca27 cf3b
000003a0: 9111 1f3e 35c9 6dbe ac31 0b3e 9c7c f5bc
000003b0: 2c3f f9bd a647 a8bd 7700 6ebd a433 203e
000003c0: 4be5 86be bee9 313d f65c 763e f7f2 0cbe
000003d0: 6e68 513d 2b0f a9bd 58e6 ed3b 4248 8a3d
000003e0: 2e9a 36be cff4 c03c edb1 433e e005 e7bc
000003f0: a665 40be 3976 0f3c 5ddb 413d f24f 163d

encoder.encoder_layers.0.0.bias f4 [64]
1.2265251e-05 4.873913e-05 6.6035122e-06 -1.1823322e-05 -6.882259e-05 -6.499524e-05 2.7146754e-05 2.7468885e-05
4.586334e-06 -1.3968954e-05 -1.1309935e-05 2.5245754e-05 -7.2791563e-06 -2.1309654e-05 -5.784025e-06 -2.6518652e-05
-3.1153242e-05 3.992297e-06 0.00013919559 -1.3941479e-05 0.00018871123 1.4563764e-05 -1.11590925e-05 -3.487209e-05
-2.579251e-05 -2.6197888e-05 -7.13442e-05 2.037174e-05 -1.306447e-05 3.3355078e-05 -3.4478606e-05 4.74023e-07
-4.3581444e-05 -4.4634715e-05 5.2189018e-05 3.4230536e-05 2.3580558e-05 -2.2729155e-06 -2.4341489e-05 2.4950226e-05
9.810616e-06 -8.738756e-05 -1.9209167e-05 2.1580416e-05 -3.404376e-05 6.7952988e-06 -5.390091e-05 -7.630748e-05
-3.7788628e-05 3.84854e-05 -3.2233274e-05 1.6898077e-05 2.000538e-06 -1.4906634e-05 1.490409e-05 3.1511088e-06
-3.556529e-05 -3.834297e-06 -5.964851e-06 -0.00014602137 -6.273287e-05 8.963168e-06 6.2142008e-06 6.70182e-06
00000000: dac6 4d37 3e6d 4c38 bd93 dd36 c85c 46b7
00000010: d954 90b8 0e4e 88b8 36b9 e337 fb6c e637
00000020: 4fe4 9936 335c 6ab7 cdbf 3db7 d8c6 d337
00000030: 7a3f f4b6 22c2 b2b7 6514 c2b6 5f74 deb7
00000040: 8aaa 02b8 92f5 8536 08f5 1139 32e6 69b7
00000050: c9e0 4539 e456 7437 f037 3bb7 9f43 12b8
00000060: fe5c d8b7 89c3 dbb7 a09e 95b8 fbe3 aa37
00000070: 792f 5bb7 bee6 0b38 1f9d 10b8 3a7d fe34
00000080: 38cb 36b8 2936 3bb8 88e5 5a38 c292 0f38
00000090: ddce c537 6488 18b6 f330 ccb7 344c d137
000000a0: 4698 2437 d743 b7b8 5f23 a1b7 9707 b537
000000b0: 35ca 0eb8 2c03 e436 a913 62b8 4407 a0b8
000000c0: 3b7f 1eb8 626b 2138 3732 07b8 58c0 8d37
000000d0: fb40 0636 8117 7ab7 940c 7a37 a377 5336
000000e0: f02b 15b8 5ca8 80b6 ae25 c8b6 501d 19b9
000000f0: 748f 83b8 8360 1637 9483 d036 32e0 e036

encoder.encoder_layers.0.1.weight f4 [64]
1.0400331 1.0679362 0.9987626 0.958527 1.0681642 1.0040777 0.9996935 0.970765
0.94732344 0.97466105 1.0153568 0.9871979 1.1743934 0.9516271 1.1053567 0.9679808
0.97332865 1.0215147 1.0042135 0.9316804 1.0379679 1.0437826 1.1039737 0.98083293
0.9138705 0.97766244 0.9557543 0.9774078 1.0040021 1.0778601 0.9622319 0.9159731
0.95607585 0.98495746 0.99529284 0.92822134 1.0282044 0.94164157 0.93007755 1.0602202
0.9527443 0.97883433 0.966212 0.9270993 1.0555073 1.0050535 1.0025647 0.9743495
1.0646971 0.9317239 1.0124811 0.93166757 1.0797 0.98827237 0.97409135 0.9906483
1.0560316 0.95743126 1.0597044 0.9700612 1.024271 0.9751606 1.0409925 0.9957547
00000000: ce1f 853f 22b2 883f e8ae 7f3f 0762 753f
00000010: 9bb9 883f 9e85 803f eaeb 7f3f 0e84 783f
00000020: ca83 723f 6383 793f 36f7 813f 00b9 7c3f
00000030: 8652 963f d59d 733f 547c 8d3f 97cd 773f
00000040: 112c 793f fec0 823f 118a 803f 9b82 6e3f
00000050: 22dc 843f ab9a 853f 034f 8d3f de17 7b3f
00000060: 6bf3 693f 1648 7a3f 50ac 743f 6637 7a3f
00000070: 2483 803f 52f7 893f d454 763f 377d 6a3f
00000080: 63c1 743f 2c26 7c3f 83cb 7e3f ea9f 6d3f
00000090: 349c 833f 6c0f 713f 9019 6e3f 4cb5 873f
000000a0: 0de7 733f e394 7a3f ab59 773f 6156 6d3f
000000b0: dd1a 873f 98a5 803f 0a54 803f f86e 793f
000000c0: ff47 883f 7585 6e3f fb98 813f c481 6e3f
000000d0: 9c33 8a3f 6bff 7c3f 0d5e 793f 219b 7d3f
000000e0: 0b2c 873f 371a 753f 65a4 873f ee55 783f
000000f0: 501b 833f 20a4 793f 3e3f 853f c8e9 7e3f

encoder.encoder_layers.0.1.bias f4 [64]
-0.069907375 -0.009527447 -0.06386538 -0.04612324 -0.07854817 -0.0133175105 0.05248979 -0.035604402
-0.06314981 -0.035820566 -0.013317914 -0.0185781 0.02970872 -0.08308593 -0.024855439 -0.06455234
-0.02753524 -0.020559628 -0.05189578 -0.07629964 -0.02676362 -0.08076258 -0.0065530255 -0.024595952
-0.09185167 0.0004769747 0.007714954 -0.012371794 -0.07415133 -0.022992758 -0.045750596 -0.08391067
-0.06555167 -0.11602869 -0.05853913 -0.047141217 -0.08204632 -0.021101745 -0.053396977 -0.0681759
-0.06545463 -0.063119225 -0.07722888 -0.07472719 0.01151179 -0.030814296 -0.062111963 -0.014024823
-0.005006173 -0.09438564 -0.036351614 -0.03115399 -0.0593532 0.010419792 -0.08329169 -0.03621861
-0.032077234 -0.09661405 0.056238495 -0.08095811 0.0064391815 -0.0020917784 0.01912846 -0.07101344
00000000: 992b 8fbd 0219 1cbc dacb 82bd b9eb 3cbd
00000010: dddd a0bd b031 5abc 89ff 563d ecd5 11bd
00000020: b054 81bd 96b8 12bd 6133 5abc 1931 98bc
00000030: b45f f33c f528 aabd a29d cbbc 0434 84bd
00000040: 9591 e1bc aa6c a8bc ab90 54bd fc42 9cbd
00000050: 613f dbbc da66 a5bd c3ba d6bb 737d c9bc
00000060: ba1c bcbd 7612 fa39 bacd fc3b 11b3 4abc
00000070: a7dc 97bd 4f5b bcbc fa64 3bbd 5bd9 abbd
00000080: f43f 86bd 73a0 edbd bac6 6fbd 2617 41bd
00000090: e707 a8bd 91dd acbc cab6 5abd ce9f 8bbd
000000a0: 140d 86bd a744 81bd 2d2a 9ebd 920a 99bd
000000b0: f29b 3c3c 436e fcbc 1d69 7ebd 5fc8 65bc
000000c0: d30a a4bb 424d c1bd 6ee5 14bd a736 ffbc
000000d0: 571c 73bd c6b7 2a3c d594 aabd f759 14bd
000000e0: 6b63 03bd 96dd c5bd 565a 663d 5ecd a5bd
000000f0: c5ff d23b 3816 09bb 4ab3 9c3c 7f6f 91bd

encoder.encoder_layers.0.1.running_mean f4 [64]
0.52153313 0.53631663 0.54667795 -0.18977024 0.5038977 0.13836822 -0.17114593 0.030861447
-0.3746295 0.18854596 0.23079966 -0.39376855 0.48987925 -0.009214113 0.53200406 -0.09723937
-0.29037416 0.50228053 0.27682996 -0.23988941 0.27974534 0.43053508 0.59353894 0.10434265
-0.15055855 -0.5359503 -0.3518189 0.11716677 0.1984277 0.41345754 -0.42784625 -0.4240282
-0.0021586716 0.14974879 0.22251722 -0.5139964 0.2657517 -0.45904723 -0.3585842 0.6807461
-0.12077228 0.12873666 0.10574804 -0.07143831 0.53706956 0.33688545 0.43835273 -0.3934198
0.45173407 -0.4666829 0.6222194 -0.462151 0.33844525 -0.17687556 0.058054905 0.36006323
0.20352353 0.15662904 0.3356241 -0.011991886 0.29549116 -0.26654437 0.64723206 0.34433138
00000000: 3283 053f 0c4c 093f 16f3 0b3f 2153 42be
00000010: 71ff 003f 66b0 0d3e e140 2fbe 25d1 fc3c
00000020: 70cf bfbe 3112 413e bf56 6c3e 089c c9be
00000030: 74d1 fa3e caf6 16bc 6b31 083f 6f25 c7bd
00000040: ecab 94be 7595 003f a8bc 8d3e 92a5 75be
00000050: c83a 8f3e 186f dc3e 2bf2 173f 99b1 d53d
00000060: 052c 1abe 0a34 09bf 9b21 b4be 22f5 ef3d
00000070: a230 4b3e b5b0 d33e aa0e dbbe 391a d9be
00000080: 8078 0dbb bf57 193e 8edb 633e 4595 03bf
00000090: 9b10 883e 3d08 ebbe 5998 b7be 6045 2e3f
000000a0: 7557 f7bd 8bd3 033e 6e92 d83d 404e 92bd
000000b0: 647d 093f 407c ac3e c56f e03e 526e c9be
000000c0: b049 e73e 10f1 eebe c549 1f3f 0e9f ecbe
000000d0: b248 ad3e de1e 35be fbca 6d3d 355a b83e
000000e0: 7968 503e 5d63 203e ecd6 ab3e 9e79 44bc
000000f0: 9e4a 973e 8178 88be 00b1 253f 344c b03e

encoder.encoder_layers.0.1.running_var f4 [64]
0.28554416 0.34055734 0.4676732 0.5413418 0.39276272 0.35488594 0.34911862 0.33852825
0.35781106 0.25040892 0.5278865 0.45867145 0.43263727 0.14947838 0.76495165 0.10403646
0.47597754 0.5813793 0.28345868 0.22071876 0.55061966 0.5173429 0.5060364 0.5903758
0.22371654 0.96867883 0.42422676 0.26507658 0.4820806 0.54466116 0.2690899 0.43786713
0.47429794 0.37046787 0.25385827 0.31343424 0.43707135 1.0559481 0.16839431 0.84589046
0.2780601 0.121978134 0.18114527 0.26244712 0.51057625 0.4819108 0.46098804 0.32550812
0.56057113 0.3459485 0.62267804 0.31563103 0.47624853 0.6977569 0.25125322 0.2083007
0.6929005 0.18180363 0.5336503 0.29567325 0.855073 0.32354423 0.5942566 0.3900438
00000000: d832 923e 885d ae3e dd72 ef3e 6095 0a3f
00000010: 3218 c93e 9cb3 b53e adbf b23e 9353 ad3e
00000020: 0333 b73e 9935 803e 9223 073f fcd6 ea3e
00000030: a282 dd3e dc10 193e dfd3 433f 1111 d53d
00000040: 54b3 f33e 46d5 143f 7f21 913e 1904 623e
00000050: 69f5 0c3f 9670 043f 9a8b 013f de22 173f
00000060: f315 653e 56fb 773f 4034 d93e 1eb8 873e
00000070: 45d3 f63e ea6e 0b3f 27c6 893e 1f30 e03e
00000080: 2ed7 f23e f7ad bd3e b6f9 813e 747a a03e
00000090: d1c7 df3e 4f29 873f 8f6f 2c3e 478c 583f
000000a0: e55d 8e3e accf f93d 257e 393e 785f 863e
000000b0: 20b5 023f 03bd f63e a006 ec3e 00a9 a63e
000000c0: 9781 0f3f 2920 b13e d467 1f3f 649a a13e
000000d0: d9d6 f33e 32a0 323f 43a4 803e c74c 553e
000000e0: ed61 313f bb2a 3a3e 4e9d 083f 7c62 973e
000000f0: 10e6 5a3f 97a7 a53e 3321 183f d2b3 c73e

encoder.encoder_layers.1.0.weight f4 [32, 64]
0.1966382 -0.054528162 0.026336187 -0.05254527 -0.006312621 0.009751955 -0.23189889 -0.099512294
0.001190993 0.080043405 0.22475623 -0.14364253 0.1374066 0.10404134 -0.06527505 0.025096526
-0.10058962 -0.029544434 -0.10336723 -0.05156479 -0.085637756 0.27457386 0.1312668 -0.22340116
0.038151115 0.14659661 -0.13559408 -0.08330197 -0.057405766 -0.13150616 -0.05914378 0.0055577825
-0.1480385 -0.19634186 -0.1282554 -0.14513949 0.08509901 0.03757859 0.10686967 0.3096985
0.11396478 -0.111945756 -0.04649751 -0.060423408 0.22483374 0.055901654 0.10789601 -0.11866655
0.23927821 -0.1661439 0.181214 -0.20217001 0.18701899 -0.10952033 -0.20132074 0.11820653
0.25782278 -0.008447033 0.15841621 0.18308918 -0.20813823 0.058367513 0.113794826 -0.09044899
0.17809649 0.26669365 0.16072586 -0.14341179 0.25133568 0.20410596 0.04054817 -0.043221153
0.20287195 -0.16215748 -0.16279031 0.08771565 0.18090628 -0.023018874 0.22246645 0.16513817
0.09442441 0.20270535 0.26569664 0.13007054 0.18381104 0.02532628 0.21277893 0.15064652
-0.099607736 0.10411147 -0.05190995 -0.057082973 0.20063774 0.066750936 0.25749198 -0.015775625
0.0725352 0.1480156 0.001936877 0.1695807 -0.110030964 -0.10715178 -0.011971732 0.18390685
0.140988 0.22901966 -0.115210086 -0.014035176 -0.017555688 0.2393827 0.25531012 0.05474517
-0.1709898 -0.106744 0.0585682 -0.22078076 -0.089666605 -0.20321505 0.11930147 -0.037922718
-0.16559781 0.17722262 -0.2238147 0.0067910836 0.24284552 0.033925187 -0.1912702 0.05724077
-0.051510695 0.12676844 0.18019895 0.19406548 -0.030168576 0.124460444 -0.26676735 0.15920661
0.14193746 -0.2098167 -0.079567716 -0.13441008 -0.14816582 0.105125844 -0.097954385 0.14227073
-0.0819671 0.21473445 -0.079702556 -0.076216154 -0.0464991 -0.019125504 -0.103344366 -0.16495064
-0.20685379 0.093494914 -0.06231517 -0.17964235 0.15354712 0.020192325 -0.058156192 -0.09589864
0.00017700797 0.1972644 -0.19970965 -0.12526032 -0.21901464 -0.22076388 0.023498641 0.118931234
0.07301167 0.17993036 0.057291374 -0.010389239 -0.24414793 0.22418201 0.22512181 -0.03369723
0.01956543 0.07999898 0.23026744 -0.074707694 -0.051532216 -0.16345303 0.049129106 0.10424369
-0.22414687 0.12229207 0.02429891 0.09141871 0.1121835 -0.11567056 0.028997991 -0.18499419
0.18485013 -0.14470915 -0.15763871 -0.20915577 -0.060849823 -0.010712163 0.18931256 -0.042997718
0.13990524 -0.021774584 0.23171924 0.16608554 0.23034297 0.09162655 -0.07036453 0.24178703
-0.26828262 -0.20452248 -0.17569973 -0.075953655 0.07638632 0.09324017 -0.15725024 0.21592726
0.19028415 0.15349291 -0.18833767 0.17041628 0.045216728 0.07435984 -0.2509039 0.23029996
-0.023999905 -0.2208358 0.16983488 0.028603423 0.1073519 0.1771818 0.06765707 -0.0075987517
-0.06210481 0.1979998 -0.044495188 -0.20173822 -0.13228157 -0.23088655 -0.018829381 0.20120487
0.19452919 0.017427685 0.13502097 -0.114257276 0.2895456 0.13741295 -0.19820054 -0.18874426
-0.1415706 -0.06797968 0.23496073 -0.012168262 -0.15605116 0.03655841 -0.12687044 0.1158808
00000000: 865b 493e ec58 5fbd fdbe d73c b639 57bd
00000010: 1ada cebb aac6 1f3c e776 6dbe 1acd cbbd
00000020: 181b 9c3a cced a33d 7f26 663e 0717 13be
00000030: 51b4 0c3e a013 d53d edae 85bd 3b97 cd3c
00000040: ee01 cebd 2b07 f2bc 33b2 d3bd 9a35 53bd
00000050: d962 afbd f294 8c3e ce6a 063e 46c3 64be
00000060: 5844 1c3d 6c1d 163e 2dd9 0abe 399a aabd
00000070: 4f22 6bbd 8da9 06be c040 72bd 0f1e b63b
00000080: 6897 17be d70d 49be 6255 03be 729f 14be
00000090: 6448 ae3d 02ec 193d 7cde da3d cd90 9e3e
000000a0: 5e66 e93d d143 e5bd 2c74 3ebd 897e 77bd
000000b0: d13a 663e 22f9 643d 95f8 dc3d 7307 f3bd
000000c0: 5905 753e a021 2abe 2a90 393e a805 4fbe
000000d0: e881 3f3e 324c e0bd 0627 4ebe 4416 f23d
000000e0: 5901 843e 6d65 0abc dc37 223e bb7b 3b3e
000000f0: 3022 55be c612 6f3d 430d e93d 523d b9bd
00000100: ed5e 363e 128c 883e 5295 243e 8ada 12be
00000110: 12af 803e 2701 513e d715 263d aa08 31bd
00000120: aabd 4f3e 9c0c 26be 81b2 26be 43a4 b33d
00000130: 7f3f 393e 1492 bcbc 3fce 633e fb19 293e
00000140: 9661 c13d fe91 4f3e 6409 883e 3631 053e
00000150: f638 3c3e 0f79 cf3c b8e2 593e 1543 1a3e
00000160: 24ff cbbd 6538 d53d 879f 54bd d6cf 69bd
00000170: fb73 4d3e b7b4 883d fdd5 833e e23b 81bc
00000180: 568d 943d 6791 173e cfde fd3a 90a6 2d3e
00000190: ea57 e1bd 6472 dbbd 1525 44bc 1452 3c3e
000001a0: 295f 103e 2184 6a3e 44f3 ebbd cbf3 65bc
000001b0: f2d0 8fbc bd20 753e 02b8 823e 793c 603d
000001c0: f317 2fbe 999c dabd 35e5 6f3d 5a14 62be
000001d0: 20a3 b7bd 9b17 50be 5454 f43d da54 1bbd
000001e0: 7992 29be d979 353e ae2f 65be bd87 de3b
000001f0: 7fac 783e 23f5 0a3d 56dc 43be 4c75 6a3d
00000200: e1fc 52bd 96cf 013e 1386 383e 1ab9 463e
00000210: 1724 f7bc 1ee5 fe3d bb95 88be 0f07 233e
00000220: 0e58 113e 30da 56be 66f4 a2bd cca2 09be
00000230: c8b8 17be 384c d73d 4f9c c8bd 6baf 113e
00000240: 5ede a7bd 59e3 5b3e 183b a3bd 3717 9cbd
00000250: d775 3ebd 17ad 9cbc 36a6 d3bd d2e8 28be
00000260: 7bd1 53be 437a bf3d 313e 7fbd 2af4 37be
00000270: 753b 1d3e 606a a53c 3035 6ebd 8266 c4bd
00000280: 379b 3939 aeff 493e b080 4cbe 3e44 00be
00000290: 6045 60be ed0f 62be 3980 c03c 3892 f33d
000002a0: 2487 953d aa3f 383e 5caa 6a3d a037 2abc
000002b0: ea01 7abe f88f 653e 5586 663e 1b06 0abd
000002c0: ae47 a03c 81d6 a33d 3acb 6b3e 5900 99bd
000002d0: 7213 53bd 3b60 27be 9a3b 493d b77d d53d
000002e0: c286 65be 4474 fa3d 820e c73c bc39 bb3d
000002f0: 76c0 e53d b0e4 ecbd 328d ed3c 1e6f 3dbe
00000300: 5a49 3d3e a32e 14be 0b6c 21be ee2c 56be
00000310: aa3d 79bd 1182 2fbc 27db 413e 601e 30bd
00000320: 5243 0f3e 9d60 b2bc cf47 6d3e 5412 2a3e
00000330: 07df 6b3e b3a6 bb3d 471b 90bd 0597 773e
00000340: 575c 89be 576e 51be a1ea 33be 978d 9bbd
00000350: 6e70 9c3d b4f4 be3d 3506 21be 091c 5d3e
00000360: d9d9 423e 3f2d 1d3e 97db 40be 9b81 2e3e
00000370: 2d35 393d f949 983d 7a76 80be c1d3 6b3e
00000380: 739b c4bc c822 62be 32e9 2d3e ba51 ea3c
00000390: 50db db3d 256f 353e ca8f 8a3d f3fe f8bb
000003a0: 9d61 7ebd 76c0 4a3e 9640 36bd 7794 4ebe
000003b0: d274 07be 866d 6cbe 1340 9abc a608 4e3e
000003c0: a932 473e 81c4 8e3c f042 0a3e b8ff e9bd
000003d0: 523f 943e fbb5 0c3e 15f5 4abe 2d46 41be
000003e0: e2f7 10be ee38 8bbd 8c99 703e 645d 47bc
000003f0: e0cb 1fbe 45be 153d 53ea 01be ea52 ed3d

encoder.encoder_layers.1.0.bias f4 [32]
-2.534621e-05 5.5362092e-05 1.7331424e-05 -1.6253009e-05 -1.462713e-05 -7.7460145e-06 2.3389075e-06 2.4116238e-05
1.2702311e-05 4.8539518e-05 -1.6344613e-05 -2.6675501e-05 -1.9394232e-05 3.5307185e-05 -3.8118207e-05 5.1495545e-06
6.3028847e-06 -8.537272e-05 6.779454e-06 2.1697729e-06 -7.951892e-05 5.9863413e-07 8.89688e-06 -4.235327e-06
3.6020663e-06 -8.439435e-06 -5.2898185e-06 3.521521e-05 2.4703257e-05 -2.1837793e-06 4.98817e-05 -3.7913975e-05
00000000: 929e d4b7 9834 6838 f362 9137 1257 88b7
00000010: 0c67 75b7 e1f4 01b7 20f6 1c36 3a4d ca37
00000020: 031c 5537 e996 4b38 ca1b 89b7 34c5 dfb7
00000030: ccb0 a2b7 cd16 1438 1de1 1fb8 56ca ac36
00000040: 5e7d d336 210a b3b8 117b e336 6a9c 1136
00000050: 65c3 a6b8 d3b1 2035 cf43 1537 2f1d 8eb6
00000060: 07bb 7136 1997 0db7 327f b1b6 0bb4 1338
00000070: d739 cf37 0b8d 12b6 1138 5138 d205 1fb8

encoder.encoder_layers.1.1.weight f4 [32]
1.1298443 1.0182066 0.97140944 0.95149064 1.1728138 1.16546 1.0259055 0.977915
0.9544266 0.99688506 0.9372314 0.9034092 0.9932615 0.97632354 0.9072521 1.0362542
0.9237244 0.92732704 0.9284895 0.906762 0.94372094 0.8707377 0.83907455 1.123632
1.1550683 0.8345277 0.9169886 0.9308829 1.0235119 1.0940981 1.003462 1.0539778
00000000: bd9e 903f 9854 823f 4aae 783f e494 733f
00000010: c31e 963f cb2d 953f df50 833f a358 7a3f
00000020: 4d55 743f dc33 7f3f 66ee 6f3f d345 673f
00000030: 6346 7e3f 57f0 793f ac41 683f faa3 843f
00000040: 3479 6c3f 4e65 6d3f 7db1 6d3f 8e21 683f
00000050: b297 713f aae8 5e3f 97cd 563f 2cd3 8f3f
00000060: 47d9 933f 9ba3 553f c4bf 6a3f 574e 6e3f
00000070: 7002 833f 680b 8c3f 7171 803f bfe8 863f

encoder.encoder_layers.1.1.bias f4 [32]
0.048287347 0.04572178 -0.021429965 -0.03830875 0.050151255 0.12897788 -0.04243996 -0.08104761
-0.04184308 -0.07147041 -0.10748135 -0.1404036 -0.06961278 -0.11123248 -0.03404012 -0.10293203
-0.10066498 -0.02855522 -0.122850046 -0.021058274 -0.094242 -0.1425354 -0.16672386 0.025411818
0.13804986 -0.19429 -0.11652484 -0.07069616 -0.06157572 -0.075952664 0.024367608 0.035300408
00000000: f4c8 453d c346 3b3d e58d afbc a3e9 1cbd
00000010: 676b 4d3d c712 043e 86d5 2dbd 4afc a5bd
00000020: a663 2bbd 145f 92bd 2f1f dcbd f6c5 0fbe
00000030: 2591 8ebd dbcd e3bd a76d 0bbd 07ce d2bd
00000040: 7129 cebd a3ec e9bc ce98 fbbd 6782 acbc
00000050: f301 c1bd cdf4 11be a9b9 2abe 722c d03c
00000060: f15c 0d3e f5f3 46be 93a4 eebd 26c9 90bd
00000070: d236 7cbd 128d 9bbd 949e c73c 2997 103d

encoder.encoder_layers.1.1.running_mean f4 [32]
0.2531139 1.200163 -0.2255396 0.33485782 0.5795843 0.54310465 1.1076969 0.21720564
0.3357385 0.43850887 0.22468948 0.22367704 0.4438176 0.61114174 -0.58318466 0.56058216
-0.5210539 -1.0308412 0.4746461 -0.7733638 -0.17632209 -0.82662976 -0.66070753 0.44023648
0.8059204 -0.711958 0.28445292 -0.32685813 0.8386559 1.0137577 0.26678774 0.27733245
00000000: 2598 813e f19e 993f daf3 66be 7c72 ab3e
00000010: a35f 143f e808 0b3f 03c9 8d3f 286b 5e3e
00000020: ebe5 ab3e 3c84 e03e 0015 663e 980b 653e
00000030: 0f3c e33e c973 1c3f 974b 15bf 5082 0f3f
00000040: ca63 05bf 9bf2 83bf d004 f33e 2cfb 45bf
00000050: c78d 34be 029e 53bf 2124 29bf ad66 e13e
00000060: cd50 4e3f e142 36bf d0a3 913e f359 a7be
00000070: 27b2 563f d0c2 813f 6798 883e 85fe 8d3e

encoder.encoder_layers.1.1.running_var f4 [32]
3.0006099 2.9482563 2.0195673 1.9851779 3.4266775 5.22689 4.059226 1.5034964
1.714978 0.9542104 1.5100272 0.77322984 3.4434137 1.6714104 1.541657 1.9998722
1.7893715 3.2414587 1.8384769 2.7530649 2.2219787 1.3760358 1.5661242 3.5435176
4.0342965 1.0857115 0.5731612 3.001082 1.8544635 1.9292034 3.0485225 1.6987467
00000000: fe09 4040 3bb0 3c40 9740 0140 4f1a fe3f
00000010: af4e 5b40 af42 a740 2ee5 8140 9272 c03f
00000020: 6684 db3f 2247 743f 9248 c13f 64f2 453f
00000030: e460 5c40 c7f0 d53f 0455 c53f d0fb ff3f
00000040: 200a e53f 0f74 4f40 3653 eb3f 3732 3040
00000050: e634 0e40 f121 b03f c276 c83f fec8 6240
00000060: f518 8140 98f8 8a3f b1ba 123f ba11 4040
00000070: 0f5f ed3f 23f0 f63f fe1a 4340 8870 d93f

encoder.encoder_layers.2.0.weight f4 [16, 32]
-0.14259687 -0.038455978 0.15940198 0.0123946015 -0.3240866 -0.41447553 0.06575501 -0.24027485
0.093546726 -0.41034812 0.09110616 0.13087606 -0.1595412 -0.2307584 0.063035876 0.15303642
0.25200748 0.093021296 -0.06747673 0.26385042 0.06617453 0.26469767 0.26068795 -0.31831127
-0.3695586 -0.0058516557 -0.11628008 0.26031038 -0.30989438 0.033352207 0.14785685 -0.027054006
-0.36070716 -0.35760635 -0.013746185 0.12357638 -0.028334595 0.10817999 0.13743347 -0.42698723
0.120973624 0.15137762 -0.24226448 -0.2776962 -0.28051668 -0.43724278 0.15168001 -0.0071717347
-0.14175384 -0.15550734 -0.46030116 0.21271065 0.19324468 0.1322923 -0.094223775 0.045418013
-0.06280971 0.042727362 0.10986981 -0.16779701 -0.22931933 0.0049420297 0.053219903 0.16950364
-0.3808105 0.16528286 -0.22559305 0.048035845 -0.42070547 -0.30464318 -0.31598255 0.25633177
0.28834283 -0.106559515 -0.08551298 -0.35741508 -0.25697514 -0.15789591 0.004604869 -0.4294034
-0.10263198 0.0153167 -0.05936502 0.07448838 0.09802268 0.20302929 -0.18651329 -0.3654661
0.08851549 0.027522832 0.2703531 0.25680986 -0.35973635 -0.051226594 -0.2594177 0.049461633
0.060839985 -0.41245142 -0.2382321 0.08897143 0.045357868 -0.1741726 -0.04112888 -0.22573635
0.12859727 0.08994916 0.031224668 -0.09668814 -0.0029015108 -0.39012837 0.19769979 -0.04983883
-0.020561496 0.002917816 -0.40597534 0.18837748 0.18720564 0.1446805 0.042658474 -0.008239929
-0.040998496 0.028680978 0.049327582 0.035327394 0.027074726 -0.3617129 -0.12463078 0.0990497
0.14444302 -0.3409067 -0.0040151053 -0.10662732 0.014251525 0.05456423 -0.22376521 0.17156427
0.1972759 0.19262902 0.05478989 0.0847806 0.058586765 -0.3301696 0.16915727 -0.18178517
0.04055408 -0.09830597 -0.19124427 -0.14188577 -0.14638476 0.1050182 0.09924648 -0.058993716
0.11114512 0.108174466 -0.1944765 -0.38282907 0.20171498 -0.50912917 -0.43703836 -0.28432196
-0.33874732 -0.098897345 0.08454185 -0.104350165 0.18237904 -0.42753297 -0.30218288 -0.3572162
-0.3664962 0.04518842 -0.33668512 -0.11598526 -0.22950788 0.041786063 -0.1011619 0.13655135
-0.032223474 -0.040852766 0.1438225 0.33161053 0.33022022 0.008711998 -0.08990866 -0.16212405
-0.09366247 -0.043082472 -0.10445683 0.034914315 0.083098456 0.13860524 0.37769845 -0.17221642
-0.2841428 -0.31961212 0.16087095 -0.15934497 -0.45920727 -0.08123538 -0.23367068 -0.22007811
0.2220917 -0.25165462 0.09792053 0.2019614 0.10805267 -0.10926805 0.1715008 -0.34857094
0.2401081 -0.021810025 -0.16191812 0.038856823 0.26719305 0.040822465 0.19090404 -0.04015801
-0.37063202 -0.14343612 0.2615719 0.35937795 0.1118641 0.27726588 -0.2554275 -0.26133233
-0.07632915 -0.36492625 -0.24339148 0.037635848 -0.018108495 0.10926175 -0.15544792 0.22310306
0.072508276 0.13663007 0.17586556 0.01763944 0.21075028 0.021642124 -0.07225911 -0.03023422
-0.10667574 0.15224883 -0.20988177 -0.12649615 -0.22722015 -0.15748571 0.18250778 -0.10543891
-0.10736534 0.056554668 -0.07906959 -0.40309116 0.11145611 -0.4080672 -0.41743404 -0.20543174
00000000: ea04 12be 0484 1dbd 463a 233e ba12 4b3c
00000010: aeee a5be 2336 d4be 90aa 863d 9c0a 76be
00000020: 6d95 bf3d 2619 d2be de95 ba3d 6004 063e
00000030: c55e 23be ee4b 6cbe f418 813d 94b5 1c3e
00000040: 2007 813e f381 be3d 3d31 8abd 6717 873e
00000050: 8386 873d 7486 873e e478 853e b2f9 a2be
00000060: c936 bdbe 3fbf bfbb 4024 eebd 6747 853e
00000070: 7aaa 9ebe 539c 083d c967 173e 5da0 ddbc
00000080: 9cae b8be 2e18 b7be ae37 61bc 9d15 fd3d
00000090: f41d e8bc 788d dd3d 5cbb 0c3e 129e dabe
000000a0: 05c1 f73d bc02 1b3e 2e14 78be 322e 8ebe
000000b0: e29f 8fbe 49de dfbe 0152 1b3e df00 ebbb
000000c0: eb27 11be 513d 1fbe 98ac ebbe d2d0 593e
000000d0: efe1 453e a277 073e 65f8 c0bd 3d08 3a3d
000000e0: 61a2 80bd e302 2f3d 6c03 e13d fbd2 2bbe
000000f0: b0d2 6abe c0f0 a13b 1dfd 593d 5d92 2d3e
00000100: 98f9 c2be e93f 293e dd01 67be 3cc1 443d
00000110: b566 d7be 31fa 9bbe 77c8 a1be eb3d 833e
00000120: aca1 933e e03b dabd 6e21 afbd 1cff b6be
00000130: 3f92 83be 77af 21be 71e4 963b c3da dbbe
00000140: b730 d2bd e5f2 7a3c bc28 73bd 5d8d 983d
00000150: 1dc0 c83d e9e6 4f3e 57fd 3ebe 5f1e bbbe
00000160: 9c47 b53d 9077 e13c b96b 8a3e 957c 833e
00000170: 5d2f b8be fad2 51bd 66d2 84be 4898 4a3d
00000180: 5933 793d d52c d3be 1ef3 73be a736 b63d
00000190: 2cc9 393d 4d5a 32be c276 28bd 6e27 67be
000001a0: 01af 033e 4437 b83d e0ca ff3c 6e04 c6bd
000001b0: 4627 3ebb e8be c7be d071 4a3e cd23 4cbd
000001c0: 9570 a8bc d438 3f3b 00dc cfbe 07e6 403e
000001d0: d6b2 3f3e 2027 143e a7ba 2e3d c400 07bc
000001e0: 0aee 27bd 5ff4 ea3c b80b 4a3d 75b3 103d
000001f0: d1cb dd3c 6f32 b9be 6c3e ffbd 92da ca3d
00000200: dfe8 133e 538b aebe 2591 83bb 6d5f dabd
00000210: 3a7f 693c be7e 5f3d b522 65be 8bae 2f3e
00000220: b202 4a3e 8b40 453e 5d6b 603d 74a1 ad3d
00000230: adf8 6f3d fd0b a9be 9037 2d3e e425 3abe
00000240: 091c 263d a454 c9bd 8ad5 43be 814a 11be
00000250: e3e5 15be c813 d73d bd41 cb3d 65a3 71bd
00000260: 0da0 e33d 938a dd3d d924 47be 2c02 c4be
00000270: 5f8e 4e3e 4a56 02bf 7ec3 dfbe a692 91be
00000280: 4a70 adbe b18a cabd 4724 ad3d 8ab5 d5bd
00000290: 92c1 3a3e 9ae5 dabe b7b7 9abe 0be5 b6be
000002a0: 64a5 bbbe 7e17 393d fe61 acbe ae89 edbd
000002b0: 1d04 6bbe dd27 2b3d f82d cfbd 1ed4 0b3e
000002c0: c3fc 03bd 3b55 27bd 3546 133e dbc8 a93e
000002d0: a012 a93e c5bc 0e3c 0822 b8bd d903 26be
000002e0: 1cd2 bfbd 3f77 30bd 76ed d5bd 5002 0f3d
000002f0: 862f aa3d 88ee 0d3e b161 c13e 8059 30be
00000300: 2a7b 91be 33a4 a3be 5bbb 243e 542b 23be
00000310: 371d ebbe bc5e a6bd 5e47 6fbe 285c 61be
00000320: 026c 633e e0d8 80be 8f8a c83d f8ce 4e3e
00000330: b84a dd3d edc7 dfbd e89d 2f3e e477 b2be
00000340: e6de 753e f0aa b2bc ddcd 25be 5528 1f3d
00000350: 87cd 883e 7535 273d 597c 433e ba7c 24bd
00000360: 7bc3 bdbe ebe0 12be c1ec 853e 6300 b83e
00000370: 0119 e53d cbf5 8d3e 65c7 82be 5acd 85be
00000380: 7552 9cbd 9dd7 babe 9e3b 79be 0c28 1a3d
00000390: 4458 94bc a0c4 df3d bd2d 1fbe 2175 643e
000003a0: 387f 943d c1e8 0b3e 1a16 343e 9680 903c
000003b0: ecce 573e d34a b13c 96fc 93bd c1ad f7bc
000003c0: cf78 dabd 1ee7 1b3e 3feb 56be 3588 01be
000003d0: 66ac 68be ef43 21be 52e3 3a3e 5bf0 d7bd
000003e0: 5ce2 dbbd dea5 673d 3def a1bd f761 cebe
000003f0: 1a43 e43d 2fee d0be eab9 d5be b35c 52be

encoder.encoder_layers.2.0.bias f4 [16]
2.1607008e-05 -2.593438e-05 9.10259e-06 -4.7284877e-05 0.00013707868 2.1497235e-05 -6.38712e-05 -2.2205308e-05
4.9398855e-05 -7.050833e-05 -8.303289e-06 1.9032695e-05 6.379439e-05 -0.00010276284 0.00015600983 -1.944544e-05
00000000: b240 b537 a88d d9b7 54b7 1837 c053 46b8
00000010: c7bc 0f39 f654 b437 97f2 85b8 8945 bab7
00000020: 9e31 4f38 dfdd 93b8 5b4e 0bb7 67a8 9f37
00000030: 5ac9 8538 6182 d7b8 9296 2339 c41e a3b7

encoder.encoder_layers.2.1.weight f4 [16]
0.8086067 0.8307875 0.8097304 0.80357915 0.84564203 0.8648094 0.84270394 0.8190713
0.8622567 0.86391044 0.84968615 0.8591533 0.8294319 0.8573564 0.82572514 0.8183769
00000000: d900 4f3f 7dae 543f 7e4a 4f3f 5db7 4d3f
00000010: ff7b 583f 2664 5d3f 72bb 573f a8ae 513f
00000020: dbbc 5c3f 3c29 5d3f 0885 593f 78f1 5b3f
00000030: a655 543f b67b 5b3f b962 533f 2681 513f

encoder.encoder_layers.2.1.bias f4 [16]
-0.26756546 -0.21297762 -0.24097283 -0.26508296 -0.16908196 -0.113470234 -0.19467536 -0.18324934
-0.15221001 -0.118089356 -0.17086034 -0.16836926 -0.21845193 -0.14330031 -0.19459178 -0.23585805
00000000: 57fe 88be ce16 5abe 95c1 76be f4b8 87be
00000010: d223 2dbe 1563 e8bd fa58 47be b7a5 3bbe
00000020: f1dc 1bbe d5d8 f1bd 03f6 2ebe fe68 2cbe
00000030: ddb1 5fbe 51bd 12be 1143 47be c684 71be

encoder.encoder_layers.2.1.running_mean f4 [16]
-0.5132103 -0.59585816 -0.99878544 -0.39402628 -0.6126199 -0.5743082 -0.5663423 -0.69572896
-0.52522445 -0.33074132 -0.7782175 -0.49082974 -0.58633894 -0.25994128 -0.5343555 -0.5663212
00000000: c061 03bf 298a 18bf 67b0 7fbf d0bd c9be
00000010: a8d4 1cbf dd05 13bf cffb 10bf 4b1b 32bf
00000020: 1c75 06bf ed56 a9be 4339 47bf 094e fbbe
00000030: 4f1a 16bf 0617 85be 86cb 08bf 6dfa 10bf

encoder.encoder_layers.2.1.running_var f4 [16]
4.602671 1.7249259 4.6799126 1.5875771 2.9299283 4.340553 3.49129 2.0890975
4.8080635 3.7728255 2.6414084 2.3823986 2.6548162 2.4164555 2.3468316 3.3770971
00000000: 1549 9340 5fca dc3f d8c1 9540 ba35 cb3f
00000010: f283 3b40 cfe5 8a40 4c71 5f40 c6b3 0540
00000020: a8db 9940 f975 7140 d60c 2940 3879 1840
00000030: 82e8 2940 35a7 1a40 7d32 1640 5c22 5840

encoder.mu_head.weight f4 [10, 16]
0.1307709 -0.0463568 -0.24723005 0.22421654 -0.11697486 0.2548584 0.022640279 0.24607216
-0.0013452214 -0.098082006 0.14151587 0.019770855 0.2922629 0.059571233 -0.18293837 -0.16374932
0.0024341096 -0.012731033 -0.118157096 0.33185372 -0.14983195 0.09782394 0.26249227 0.100567035
0.0295025 0.12760124 -0.088757165 -0.31814998 0.22450502 -0.19585761 -0.24772619 -0.1943664
0.21692939 -0.1439453 0.18543187 0.2903752 0.18647903 -0.30830425 -0.35585836 -0.18010846
0.09528941 -0.29162985 -0.07847091 -0.068123 -0.16004996 -0.0677426 -0.21067424 0.23312026
-0.2920664 -0.109827325 -0.27397797 0.24324867 -0.056043647 -0.24431932 0.091807544 0.08714823
0.1673156 -0.06717547 0.009581747 -0.22196746 -0.334675 -0.04446456 0.08798665 0.27416188
-0.2688454 0.00030727434 0.11657202 0.1309319 0.07728716 0.065444835 -0.25800666 -0.10540417
0.34513637 -0.16604932 -0.15817605 0.26474303 0.037017226 8.568741e-05 -0.01637735 0.10543925
0.11660361 0.21036893 0.015738709 -0.31312355 -0.33623135 0.097857974 0.03668546 0.12554237
0.24077308 0.3268554 0.25713181 0.38764244 -0.2398782 0.072666325 -0.17982514 0.26354504
-0.007565432 0.24569874 -0.028368631 -0.29209027 0.18706067 -0.11026218 -0.27551228 0.40358916
-0.3971996 -0.4018599 -0.25091654 -0.41750655 -0.08292946 -0.2756782 0.37138867 0.1816413
0.08524848 0.24106596 -0.21454124 -0.15931171 0.22711971 0.16768762 0.033615086 0.09633167
0.024002122 -0.09469909 -0.0015358451 0.115162544 -0.20784949 0.26987472 -0.23430203 -0.20262645
0.34717903 -0.11663677 -0.09649961 0.01120468 -0.2636684 0.010388156 0.021996828 0.03673419
-0.0009837279 -0.25021923 0.0035764112 -0.0058984254 -0.33242807 -0.23838662 0.41003147 -0.31118646
-0.011000704 -0.13001601 0.2855481 0.19257593 0.08152531 -0.07709947 -0.24118064 -0.06938452
0.14062442 -0.0122339 -0.15456878 -0.23335943 0.27788892 0.016185192 0.15844394 -0.2544976
00000000: cfe8 053e a1e0 3dbd e029 7dbe 0599 653e
00000010: 8490 efbd cd7c 823e 1b78 b93c 57fa 7b3e
00000020: 2452 b0ba 38df c8bd 89e9 103e 7df6 a13c
00000030: 7ca3 953e f700 743d 3254 3bbe e7ad 27be
00000040: 9585 1f3b d395 50bc 59fc f1bd bbe8 a93e
00000050: 8c6d 19be eb57 c83d 6365 863e 17f6 cd3d
00000060: 3aaf f13c e6a9 023e 51c6 b5bd 8ee4 a2be
00000070: a5e4 653e e68e 48be efab 7dbe fc07 47be
00000080: bd22 5e3e 6666 13be dae1 3d3e 0fac 943e
00000090: 5cf4 3e3e 0eda 9dbe 1133 b6be 5a6e 38be
000000a0: 1827 c33d 8250 95be 5bb5 a0bd 1284 8bbd
000000b0: 23e4 23be a2bc 8abd fdba 57be 14b7 6e3e
000000c0: ba89 95be 26ed e0bd d746 8cbe 2e16 793e
000000d0: 068e 65bd d82e 7abe 9805 bc3d c57a b23d
000000e0: c854 2b3e 4b93 89bd c3fc 1c3c 704b 63be
000000f0: 865a abbe 7820 36bd 5832 b43d f25e 8c3e
00000100: 1ba6 89be aa19 a139 50bd ee3d 0313 063e
00000110: bb48 9e3d f107 863d 7319 84be 24de d7bd
00000120: b7b5 b03e d508 2abe e7f8 21be 668c 873e
00000130: 609f 173d 14b3 b338 cb29 86bc 89f0 d73d
00000140: e0cd ee3d f46a 573e 77ee 803c bb51 a0be
00000150: 8426 acbe c369 c83d 7e43 163d 2e8e 003e
00000160: 388d 763e 9759 a73e c8a6 833e 1279 c63e
00000170: a2a2 75be 15d2 943d 1524 38be 60ef 863e
00000180: 72e7 f7bb 7398 7b3e 5565 e8bc db8c 95be
00000190: d58c 3f3e 23d1 e1bd f20f 8dbe 3da3 ce3e
000001a0: bf5d cbbe 95c0 cdbe 2278 80be 6bc3 d5be
000001b0: ecd6 a9bd b125 8dbe a826 be3e 2d00 3a3e
000001c0: c196 ae3d ffd9 763e b3b0 5bbe 9c22 23be
000001d0: 1292 683e 4eb6 2b3e f9af 093d 8a49 c53d
000001e0: 19a0 c43c 99f1 c1bd 694e c9ba 57da eb3d
000001f0: 7fd6 54be 052d 8a3e dfec 6fbe 4f7d 4fbe
00000200: 73c1 b13e 42df eebd 96a1 c5bd d693 373c
00000210: 8bff 86be 1633 2a3c b132 b43c 9776 163d
00000220: 6ef0 80ba bc1c 80be 3962 6a3b 9447 c1bb
00000230: 0334 aabe 9f1b 74be a5ef d13e d553 9fbe
00000240: 4c3c 34bc eb22 05be 5c33 923e a032 453e
00000250: bef6 a63d 54e6 9dbd 0ff8 76be 7919 8ebd
00000260: d9ff 0f3e b270 48bc 4747 1ebe c6f5 6ebe
00000270: 7547 8e3e cf96 843c 213f 223e 824d 82be

encoder.mu_head.bias f4 [10]
-0.08415643 0.040700212 0.16779743 0.11663582 -0.028035467 -0.20553175 0.23327096 -0.078850396
0.14744557 0.040118076
00000000: 355a acbd 44b5 263d 17d3 2b3e c3de ee3d
00000010: a3aa e5bc ea76 52be 95de 6e3e 517c a1bd
00000020: f9fb 163e da52 243d
