scripts/abr_clustering/audiometric_deep_clustering/experiments/full_pipeline_test_minimal/20250618_174959_evident/checkpoints/pretrain/pretrain_epoch_0.pt (torch, 341980 bytes, 213 tensors)

encoder.abr_encoder.abr_projection.weight f4 [16, 6]
0.093385346 0.46895257 0.36272675 0.019750664 -0.08269003 0.20934619 -0.4816661 -0.17167711
0.44378293 0.04599535 -0.016131459 -0.40593246 -0.33988354 0.082410894 -0.39209282 -0.13955908
-0.24821527 0.1734545 0.052550312 -0.5221718 0.15891325 -0.068529524 -0.27260947 0.36166504
-0.34520504 -0.49850494 0.063855015 -0.27345055 -0.2007572 -0.44645235 -0.1534219 0.38780177
-0.4739937 -0.38702098 -0.10804362 -0.41865417 0.10860594 -0.10220027 0.40005425 -0.51379275
0.02292576 0.23271339 0.07482372 -0.134668 0.49971455 -0.3947352 0.4833866 0.15200986
0.2509504 0.3800328 0.065262504 0.06521522 -0.091670714 -0.464392 0.24042742 0.3991555
0.23433919 -0.061016597 -0.452908 0.0061892252 0.14965168 -0.4025926 0.438215 -0.017934222
0.14547923 0.47392008 0.24512748 -0.27342403 0.2077214 0.30873525 0.27726308 -0.22301233
0.03383135 -0.40773824 -0.08479303 -0.38076147 0.2702586 0.48516318 -0.51073855 -0.25103894
-0.18645027 -0.36915946 0.48136595 -0.39095506 -0.28256798 -0.44253778 0.023454262 -0.39710242
-0.317052 0.5274186 0.24738595 0.2244292 0.3687333 0.09881145 0.10155669 -0.37720883
00000000: d140 bf3d 8d1a f03e 52b7 b93e 25cc a13c
00000010: 6459 a9bd d95e 563e f09c f6be 20cc 2fbe
00000020: 8437 e33e 9f65 3c3d 1f26 84bc 61d6 cfbe
00000030: 3705 aebe 0bc7 a83d 64c0 c8be 93e8 0ebe
00000040: 252c 7ebe 0e9e 313e ff3e 573d 0dad 05bf
00000050: 28ba 223e 3559 8cbd 7893 8bbe 292c b93e
00000060: b7be b0be 0a3c ffbe 6bc6 823d b601 8cbe
00000070: 4c93 4dbe 6795 e4be a11a 1dbe f48d c63e
00000080: 4daf f2be 9d27 c6be f945 ddbd d759 d6be
00000090: cb6c de3d 604e d1bd e9d3 cc3e ec87 03bf
000000a0: cece bb3c 6b4c 6e3e 2e3d 993d 68e6 09be
000000b0: 96da ff3e bb1a cabe 737e f73e 79a8 1b3e
000000c0: 927c 803e a993 c23e 59a8 853d 8f8f 853d
000000d0: dbbd bbbd cac4 edbe 9b32 763e 1c5e cc3e
000000e0: 9df6 6f3e 8aec 79bd 8fe3 e7be fcce ca3b
000000f0: 4a3e 193e 9e20 cebe b75d e03e caea 92bc
00000100: 82f8 143e a7a5 f23e b302 7b3e 3cfe 8bbe
00000110: ebb4 543e 8c12 9e3e 6df5 8d3e 585d 64be
00000120: be92 0a3d 11c3 d0be f8a7 adbd 2bf3 c2be
00000130: 565f 8a3e 4f67 f83e c3bf 02bf 2d88 80be
00000140: d2ec 3ebe 7802 bdbe 9975 f63e 432b c8be
00000150: c0ac 90be 5094 e2be 2723 c03c 0251 cbbe
00000160: a454 a2be e804 073f be52 7d3e c5d0 653e
00000170: 9cca bc3e a85d ca3d f4fc cf3d 8421 c1be

encoder.abr_encoder.abr_projection.bias f4 [16]
-6.468302e-05 0.00015800199 0.00012538547 5.1842744e-05 -0.00015714625 -1.8972602e-05 1.437722e-05 8.65021e-06
7.7482226e-05 1.4137585e-06 -0.00011793751 -3.7461582e-06 0.0009686515 0.000103470535 0.00020559331 0.00012044418
00000000: 6fa6 87b8 56ad 2539 e879 0339 b971 5938
00000010: a0c7 24b9 5a27 9fb7 b135 7137 5e20 1137
00000020: f47d a238 5fc0 bd35 3855 f7b8 8266 7bb6
00000030: 1aed 7d3a 52fe d838 8994 5739 fa96 fc38

encoder.abr_encoder.abr_norm.weight f4 [16]
0.98916495 1.023004 1.0065882 1.0013922 1.0450125 1.0319047 0.99362046 0.99361956
1.0205224 0.98903847 0.99592006 1.017427 0.99623597 1.0359529 1.0212129 0.9868659
00000000: ea39 7d3f ccf1 823f e2d7 803f 9f2d 803f
00000010: f8c2 853f 7415 843f e95d 7e3f da5d 7e3f
00000020: 7aa0 823f a031 7d3f 9ef4 7e3f 0c3b 823f
00000030: 5209 7f3f 1b9a 843f 1bb7 823f 3ea3 7c3f

encoder.abr_encoder.abr_norm.bias f4 [16]
-0.023374248 -0.025547331 -0.0099607045 0.0021141164 -0.008246882 -0.01742473 -0.0017470274 -0.013124552
0.019094324 -0.01664785 0.014257564 -0.0020590734 -0.004135763 0.00229084 -0.01926217 -0.0125147505
00000000: 5a7b bfbc a348 d1bc 3932 23bc fd8c 0a3b
00000010: ee1d 07bc 4fbe 8ebc 83fc e4ba 5c08 57bc
00000020: b36b 9c3c 1261 88bc 8f98 693c 85f1 06bb
00000030: 4b85 87bb eb21 163b b3cb 9dbc ab0a 4dbc

encoder.abr_encoder.abr_norm.running_mean f4 [16]
-0.097636394 0.054560352 0.07740312 0.026342476 0.15555501 0.10280116 -0.012019005 -0.060011268
-0.018591458 -0.033455186 -0.06984791 -0.04810545 0.0077015497 0.11213653 0.081415 -0.059575364
00000000: 97f5 c7bd ad7a 5f3d 8785 9e3d 2dcc d73c
00000010: d049 1f3e 6a89 d23d 5ceb 44bc 60ce 75bd
00000020: 1d4d 98bc 4e08 09bd 6c0c 8fbd 380a 45bd
00000030: 485d fc3b d6a7 e53d e8bc a63d 4c05 74bd

encoder.abr_encoder.abr_norm.running_var f4 [16]
0.2427391 0.08980987 0.16030581 0.033620358 0.6029861 0.28623194 0.02060457 0.11329481
0.02238622 0.04155945 0.14262962 0.07054484 0.021260696 0.3294689 0.18657133 0.099411264
00000000: 9990 783e 3dee b73d 3527 243e 80b5 093d
00000010: 4c5d 1a3f fe8c 923e eaca a83c 1c07 e83d
00000020: 4e63 b73c 3e3a 2a3d 800d 123e d079 903d
00000030: e92a ae3c 26b0 a83e 8e0c 3f3e 2298 cb3d

encoder.abr_encoder.attention.q_projection.weight f4 [16, 1]
0.14944395 -0.48161882 0.014989139 -0.3380802 -0.31927088 -0.33038142 -0.27014852 -0.3358416
-0.29699594 -0.21426985 -0.5407229 0.47354662 0.19756971 -0.58258015 -0.5897072 -0.29663405
00000000: d607 193e be96 f6be 0195 753c d918 adbe
00000010: 7977 a3be c127 a9be e850 8abe 6ef3 abbe
00000020: da0f 98be 8e69 5bbe d16c 0abf b474 f23e
00000030: b74f 4a3e f923 15bf 0df7 16bf 6be0 97be

encoder.abr_encoder.attention.q_projection.bias f4 [16]
-0.027009305 -0.027496878 0.028043138 -0.02756676 0.027112857 0.026668359 0.026397577 0.027226714
0.0020953792 0.0025835172 0.0025845063 -0.0025846115 -0.0025837114 0.0025604407 0.0025802737 0.0025824583
00000000: 9e42 ddbc 2241 e1bc b9ba e53c b0d3 e1bc
00000010: c81b de3c 9a77 da3c bb3f d83c 8f0a df3c
00000020: a152 093b 3a50 293b d260 293b 9662 29bb
00000030: 7c53 29bb 11cd 273b cf19 293b 763e 293b

encoder.abr_encoder.attention.k_projection.weight f4 [16, 1]
0.21202035 0.5613251 -0.10965522 0.37107503 -0.3030756 -0.10595538 -0.07477297 -0.56102455
0.0011779326 0.15518694 0.36016822 -0.45766374 -0.17677796 0.020609215 0.061211586 0.09827468
00000000: dd1b 593e 00b3 0f3f ea92 e0bd 8cfd bd3e
00000010: ba2c 9bbe 22ff d8bd 9222 99bd 4e9f 0fbf
00000020: dc64 9a3a 53e9 1e3e f867 b83e e752 eabe
00000030: 4805 35be a8d4 a83c 00b9 7a3d 3c44 c93d

encoder.abr_encoder.attention.k_projection.bias f4 [16]
-7.473558e-05 -6.031221e-05 -2.074516e-06 4.5822002e-05 9.085165e-05 0.00012277944 1.961564e-05 5.5926568e-05
-1.1717406e-05 -6.6760995e-06 -2.8045166e-05 2.1902111e-05 7.2193143e-06 -1.6702834e-05 -2.5977743e-05 -1.5882599e-05
00000000: 5cbb 9cb8 bef7 7cb8 ea37 0bb6 0031 4038
00000010: 9c87 be38 5bbe 0039 448c a437 b292 6a38
00000020: e095 44b7 4203 e0b6 8942 ebb7 6dba b737
00000030: 703d f236 101d 8cb7 c7ea d9b7 9f3b 85b7

encoder.abr_encoder.attention.v_projection.weight f4 [16, 1]
-0.46049905 0.48028636 -0.55600226 -0.18696775 0.2767395 -0.12892413 -0.26683095 -0.6052972
0.38459045 0.0110810995 0.26249197 0.11955804 -0.41867876 -0.23476145 0.39930734 -0.3157204
00000000: 88c6 ebbe 18e8 f53e 2a56 0ebf 7974 3fbe
00000010: cdb0 8d3e b004 04be 119e 88be c2f4 1abf
00000020: 0ae9 c43e 808d 353c 5965 863e d8da f43d
00000030: 105d d6be 4e65 70be 0372 cc3e 1ba6 a1be

encoder.abr_encoder.attention.v_projection.bias f4 [16]
0.02420755 -0.02414359 0.024229102 -0.022408169 0.023374634 -0.023161717 -0.021116175 0.024035752
0.011391359 -0.0116020795 0.011103308 -0.011831071 -0.003957917 0.011959983 0.010559351 0.0118734175
00000000: e94e c63c c7c8 c5bc 1c7c c63c 5691 b7bc
00000010: 297c bf3c a4bd bdbc d4fb acbc a0e6 c43c
00000020: d3a2 3a3c a616 3ebc a6ea 353c 1cd7 41bc
00000030: 6ab1 81bb cef3 433c 2101 2d3c b988 423c

encoder.abr_encoder.attention.output_projection.weight f4 [1, 16]
-0.29476708 0.34673968 -0.2782112 0.08140588 -0.27213538 0.16880263 0.043730732 -0.49214044
-0.42602378 0.20487015 -0.17003924 0.35043478 0.006326724 -0.22799873 -0.078810915 -0.29545894
00000000: b6eb 96be dd87 b13e b371 8ebe 20b8 a63d
00000010: 5455 8bbe 99da 2c3e ff1e 333d d5f9 fbbe
00000020: ca1f dabe 7bc9 513e c41e 2ebe 306c b33e
00000030: 6850 cf3b 8078 69be 9e67 a1bd 6546 97be

encoder.metadata_encoder.metadata_projection.weight f4 [24, 12]
0.20979503 0.3276325 -0.020727647 -0.25512108 0.28026164 0.3249871 0.29299748 -0.013570117
0.10448139 0.012843207 -0.13650243 -0.41037333 -0.05175925 0.16707978 0.22816254 0.09372353
0.16860496 0.2348811 -0.056192406 0.24823448 -0.01260708 -0.12912616 -0.18233584 -0.23824923
-0.31042752 0.10172251 0.36793882 0.08422288 0.052379362 -0.1585355 -0.14646554 -0.12229876
0.16378072 0.0882414 -0.19981527 0.066090904 -0.08081823 -0.0031108966 0.2687116 -0.15638573
0.37534198 -0.21580696 0.35668182 0.16110569 0.18113934 -0.07719794 -0.12900577 -0.2930813
-0.39919174 0.27305374 0.37542868 0.11375109 -0.15601723 0.09588324 -0.031399954 -0.3698436
-0.32732546 0.16136168 -0.13021325 -0.08127901 -0.23063755 0.17715654 -0.21604413 -0.11631435
0.2307642 0.39416888 0.3565645 0.18435156 0.011187898 0.32210618 0.37437385 0.1801175
0.13264766 0.0874136 0.02424522 0.2538314 0.13116342 -0.36014953 -0.26572195 -0.36717084
-0.11296445 0.01293547 -0.14792585 -0.35307613 -0.28649437 0.17407729 -0.0349554 -0.073366515
0.089545354 -0.07119113 -0.22865564 -0.20050672 -0.17122182 -0.37216648 -0.36782146 -0.14392023
0.15293775 0.3881924 -0.010422201 0.25586736 0.13777694 -0.324091 -0.2214427 -0.13344632
-0.32609925 0.029073747 0.08267508 -0.31872353 -0.09598889 -0.34925157 0.39583248 0.2703379
-0.14411868 0.37529433 -0.23804577 0.31285927 -0.14443485 0.13349101 0.31168282 0.17945158
0.10732794 -0.044230223 0.012630404 0.31581393 -0.12633324 -0.1555206 0.020707196 -0.1599246
-0.07750094 0.021005435 0.2977543 0.13164653 -0.26160103 0.23018709 -0.12944423 0.08321401
0.010168763 0.28448063 -0.08838057 -0.1549097 -0.07134511 0.0017411702 -0.20397605 0.2605265
-0.24286832 0.057603136 -0.3387481 -0.048919264 -0.085366756 -0.17105037 0.19989637 -0.36833292
0.043481708 -0.0274093 -0.2017938 0.30846217 0.26735902 0.13096374 -0.0006462183 0.23014855
-0.20634414 -0.3139148 0.3852724 -0.15869804 0.096565485 0.022700677 0.35832432 0.3964181
-0.26154134 -0.0021709213 -0.34201148 0.24335976 0.3815515 -0.17136522 0.06060866 -0.09186751
-0.10190182 0.3158996 -0.3519972 -0.05951908 -0.010752386 -0.3437936 0.15595557 0.2720078
-0.32281697 0.12418784 -0.016136354 0.37707746 -0.3630462 0.35061496 -0.15582132 0.3426228
-0.20234299 0.057281695 0.0899229 0.23532325 0.18385495 0.20607002 -0.09365481 -0.32087827
0.0052302047 0.37020373 0.352693 -0.23778796 0.28229696 0.1890447 -0.08585532 0.21344186
-0.03135942 0.044045106 -0.27831775 -0.050966717 0.39425936 0.23890586 -0.31693488 -0.02724943
0.253605 -0.15850663 -0.070101306 0.18221118 0.32404295 0.36219206 -0.31093886 -0.40104443
0.21562397 -0.04661484 0.35827926 0.2793755 -0.17550325 0.10725711 0.14449501 -0.14079538
0.377464 0.049711205 -0.13043517 -0.3777201 0.31560788 -0.3816547 0.32720965 -0.13747345
-0.05700527 0.058955714 0.38442943 -0.28267825 -0.28412125 0.21452674 -0.20566744 -0.15521844
0.23211813 -0.19281037 0.23070358 -0.17656651 0.314246 0.397343 0.017735254 -0.1465079
00000000: 82d4 563e 72bf a73e 07cd a9bc 3b9f 82be
00000010: 747e 8f3e b664 a63e c403 963e 3255 5ebc
00000020: 57fa d53d 516c 523c 4bc7 0bbe 741c d2be
00000030: 8201 54bd f616 2b3e 71a3 693e 1ff2 bf3d
00000040: c7a6 2c3e ac84 703e 022a 66bd 2e31 7e3e
00000050: ed8d 4ebc a639 04be 3fb6 3abe 9bf7 73be
00000060: 5bf0 9ebe e453 d03d 7a62 bc3e 0c7d ac3d
00000070: be8b 563d 2157 22be 10fb 15be c677 fabd
00000080: 22b6 273e e8b7 b43d 609c 4cbe ab5a 873d
00000090: 0784 a5bd 2fe0 4bbb 9194 893e 9523 20be
000000a0: d32c c03e 80fc 5cbe 009f b63e e4f8 243e
000000b0: 977c 393e f419 9ebd 171a 04be c10e 96be
000000c0: dc62 ccbe b3cd 8b3e 3038 c03e 55f6 e83d
000000d0: fbc2 1fbe 6f5e c43d 3d9d 00bd 245c bdbe
000000e0: 3497 a7be ff3b 253e 9f56 05be 9c75 a6bd
000000f0: 402c 6cbe 8668 353e ac3a 5dbe 3836 eebd
00000100: 734d 6c3e 81d0 c93e 9f8f b63e a8c6 3c3e
00000110: 724d 373c 1aeb a43e eead bf3e b970 383e
00000120: cad4 073e e705 b33d e99d c63c 30f6 813e
00000130: b44f 063e 8565 b8be b50c 88be d1fd bbbe
00000140: e859 e7bd 4bef 533c e079 17be 65c6 b4be
00000150: 64af 92be 5141 323e 652d 0fbd 2f41 96bd
00000160: 8e63 b73d a8cc 91bd b424 6abe a251 4dbe
00000170: c654 2fbe 9b8c bebe 1853 bcbe d35f 13be
00000180: b79b 1c3e 27c1 c63e e1c1 2abc 0c01 833e
00000190: 6615 0d3e 41ef a5be e0c1 62be 27a6 08be
000001a0: 7bf6 a6be 112c ee3c 8d51 a93d bb2f a3be
000001b0: d395 c4bd 1ad1 b2be 8eaa ca3e bb69 8a3e
000001c0: d993 13be 9426 c03e 45c2 73be 172f a03e
000001d0: bbe6 13be deb1 083e e494 9f3e 28c2 373e
000001e0: c0ce db3d c02a 35bd c1ef 4e3c 5db2 a13e
000001f0: 805d 01be cb40 1fbe 23a2 a93c 46c3 23be
00000200: d0b8 9ebd 9713 ac3c 4073 983e 59ce 063e
00000210: 92f0 85be 2ab6 6b3e 078d 04be 1b6c aa3d
00000220: e29a 263c 72a7 913e df00 b5bd a6a0 1ebe
00000230: 631d 92bd fa37 e43a 19df 50be bb63 853e
00000240: 79b2 78be 44f1 6b3d 6470 adbe 915f 48bd
00000250: c4d4 aebd d427 2fbe a2b1 4c3e 2296 bcbe
00000260: e019 323d 7889 e0bc 09a3 4ebe c1ee 9d3e
00000270: 48e3 883e 5c1b 063e fa66 29ba 10ac 6b3e
00000280: e14b 53be 71b9 a0be 6d42 c53e bd81 22be
00000290: 20c4 c53d c5f6 b93c 4976 b73e 50f7 ca3e
000002a0: bfe8 85be 0446 0ebb 211c afbe 4d33 793e
000002b0: b85a c33e 5d7a 2fbe c940 783d 0825 bcbd
000002c0: e7b1 d0bd 98bd a13e fa38 b4be 47ca 73bd
000002d0: c72a 30bc b705 b0be d1b2 1f3e 9b44 8b3e
000002e0: 4448 a5be 3256 fe3d 6330 84bc 4c10 c13e
000002f0: 31e1 b9be ce83 b33e a08f 1fbe 416c af3e
00000300: 0033 4fbe 36a0 6a3d 7f29 b83d 94f8 703e
00000310: 7944 3c3e 0504 533e 18ce bfbd 284a a4be
00000320: 2362 ab3b 588b bd3e 2d94 b43e b07e 73be
00000330: 3a89 903e ef94 413e ead4 afbd 8190 5a3e
00000340: bc72 00bd a468 343d aa7f 8ebe 7ac2 50bd
00000350: 5ddc c93e bda3 743e 4a45 a2be 323a dfbc
00000360: 84d8 813e 904f 22be 4691 8fbd 9195 3a3e
00000370: f5e8 a53e 3d71 b93e 6133 9fbe b255 cdbe
00000380: 88cc 5c3e 34ef 3ebd 6170 b73e 4e0a 8f3e
00000390: 20b7 33be 9ea9 db3d 80f6 133e aa2c 10be
000003a0: f642 c13e fa9d 4b3d cc90 05be 8764 c1be
000003b0: 5b97 a13e 3f68 c3be 0688 a73e d7c5 0cbe
000003c0: 5c7e 69bd 8c7b 713d efd3 c43e 34bb 90be
000003d0: 5778 91be e6ac 5b3e 7c9a 52be 95f1 1ebe
000003e0: 60b0 6d3e 1570 45be 8f3d 6c3e dacd 34be
000003f0: dae4 a03e 8b70 cb3e 8649 913c 2b06 16be

encoder.metadata_encoder.metadata_projection.bias f4 [24]
-0.00011661418 -0.016693164 0.007460536 -0.012653881 -0.019305153 0.002433388 -0.022671705 -0.009478993
-0.025349377 0.0150984265 -0.025605535 -0.0040125027 -0.015492057 -0.0042079017 -0.022434784 -0.007619992
-0.018481141 -0.014391737 -0.02888557 0.011441054 -0.02372864 -0.03545286 0.01386859 -0.01709072
00000000: c38e f4b8 1ac0 88bc 8377 f43b 3952 4fbc
00000010: d725 9ebc 7a79 1f3b 03ba b9bc c74d 1bbc
00000020: 7fa9 cfbc 645f 773c b3c2 d1bc 507b 83bb
00000030: 66d2 7dbc 70e2 89bb 27c9 b7bc 20b1 f9bb
00000040: c365 97bc 52cb 6bbc 6ea1 ecbc 4273 3b3c
00000050: 9162 c2bc 0537 11bd 1539 633c d601 8cbc

encoder.encoder_layers.0.0.weight f4 [64, 40]
-0.19529267 0.08867 -0.18355508 0.05757453 0.13372637 0.23667079 -0.19475803 0.18137957
0.02771367 0.20210905 0.2392889 -0.05730721 -0.0061680754 -0.029573906 0.22366843 -0.10547266
0.14814606 0.09222303 0.23322842 0.17132993 0.20624882 -0.1931218 -0.11998378 -0.15054643
0.10848238 0.05837914 0.09931252 0.087912865 0.03731648 0.098972455 -0.11063 0.16331121
-0.19080424 -0.21248384 0.09327296 0.23922117 -0.075561576 0.21341951 -0.079119936 -0.17814371
-0.03161887 0.16003715 -0.090747796 0.2362518 -0.083065115 -0.079355426 -0.090317905 -0.17370106
0.22220138 -0.1363514 -0.10727031 -0.06526116 0.21888612 0.14532734 0.11335694 -0.056747917
0.128934 0.05082744 0.19944836 0.05239965 0.1698849 0.15598734 0.05209721 -0.21453634
0.03355924 -0.19043413 0.043896873 -0.03461466 0.19164011 -0.1663793 -0.20118335 0.11085511
0.1442279 -0.032396797 0.076233454 0.19068862 0.012494481 -0.055214632 0.14907095 0.22557738
-0.04430786 0.16574197 0.048198428 -0.033314332 -0.003508769 -0.19788197 0.106369205 -0.11640304
-0.21128076 -0.037771516 -0.102560215 -0.16032046 -0.026935516 -0.009563078 0.10580572 0.02231649
-0.015806517 0.0847817 -0.12870234 0.20856781 0.14079149 0.1449983 -0.19746767 0.17916526
0.029129239 -0.2407235 0.2226497 0.021893034 0.0624414 0.19099686 0.17733027 0.21519117
-0.23034985 0.25160137 0.058411326 -0.0014425552 -0.19368286 -0.11855934 0.24174374 0.16707514
0.16760908 -0.04272934 -0.1661675 0.028411835 -0.14736553 -0.1850837 0.06343018 0.18129568
-0.18213046 -0.21289037 0.020037169 -0.08583236 -0.13202456 -0.081361644 -0.04922191 -0.06427264
0.17991485 0.114762485 0.040270887 -0.10932208 -0.03688823 0.15264419 -0.0042404206 -0.26453847
0.030985417 0.11775995 -0.061830293 -0.0768372 -0.06610515 0.14458913 0.16453809 -0.21534835
0.15439792 0.062617995 0.08232321 -0.15039504 -0.14695589 0.23312505 0.031470843 -0.06460075
-0.024113597 0.20836653 -0.04840653 0.15632896 -0.043750998 0.064557016 0.081911795 -0.0851992
0.028139122 0.07748895 -0.22158669 -0.0002819666 0.01673067 0.21259208 0.07672771 -0.15755275
-0.07628461 0.21756063 -0.019732185 0.17450882 0.018797671 0.18482162 -0.13008115 0.2378109
0.05523178 -0.034389146 0.20739628 0.09904986 -0.15111202 0.0005170183 0.16695727 0.07688566
-0.062110014 -0.14788614 -0.13890761 0.15294386 0.12993759 -0.20411946 -0.058099084 0.07535688
-0.20963228 0.17869516 -0.054585345 -0.10026986 -0.002527189 0.049110744 0.04641802 0.22431631
0.13418311 -0.033152353 0.04158246 0.06567147 -0.078414984 -0.23443395 -0.04920283 -0.09911468
-0.24615055 0.04513639 -0.14629407 0.20412067 0.045565676 0.11102398 0.03824563 0.06170478
0.15626366 0.18646428 -0.0024374938 -0.0951456 0.031421266 -0.10824024 -0.041244395 0.053198654
0.114048995 -0.24846978 0.09238493 -0.087226205 -0.16016185 -0.098720975 -0.048915084 0.13291013
-0.23852956 0.03644814 0.21655436 -0.14519314 0.036369953 -0.115393564 0.029171072 0.09274232
-0.1627593 0.039261054 0.21257813 -0.001839931 -0.19139998 -0.0089556025 0.034115776 0.056974858
00000000: cdfa 47be 9e98 b53d ddf5 3bbe 45d3 6b3d
00000010: 91ef 083e d459 723e a66e 47be 91bb 393e
00000020: c707 e33c adf5 4e3e 2608 753e f7ba 6abd
00000030: 911d cabb fa44 f2bc 5609 653e 0d02 d8bd
00000040: 9ab3 173e 6edf bc3d 6ed3 6e3e 1d71 2f3e
00000050: e432 533e b9c1 45be 0eba f5bd d828 1abe
00000060: 032c de3d f71e 6f3d 5d64 cb3d a90b b43d
00000070: 2ad9 183d 12b2 ca3d fb91 e2bd 0e3b 273e
00000080: 3062 43be 5d95 59be e505 bf3d 65f6 743e
00000090: 07c0 9abd a58a 5a3e a209 a2bd 4e6b 36be
000000a0: ca82 01bd c7e0 233e fbd9 b9bd feeb 713e
000000b0: 0b1e aabd 1985 a2bd 98f8 b8bd b1de 31be
000000c0: c288 633e b49f 0bbe 89b0 dbbd a5a7 85bd
000000d0: af23 603e b1d0 143e af27 e83d 8170 68bd
000000e0: 4607 043e 6f30 503d 313c 4c3e 04a1 563d
000000f0: 4ff6 2d3e 25bb 1f3e e263 553d 6aaf 5bbe
00000100: 6a75 093d 2a01 43be 35cd 333d 1ac8 0dbd
00000110: 4e3d 443e 565f 2abe 0203 4ebe 0108 e33d
00000120: 7bb0 133e 81b2 04bd 4920 9c3d e143 433e
00000130: a7b5 4c3c bd28 62bd 0ea6 183e c2fd 663e
00000140: 297c 35bd 43b8 293e b76b 453d 9c74 08bd
00000150: 60f3 65bb 92a1 4abe 19d8 d93d b864 eebd
00000160: fc59 58be 4eb6 1abd 170b d2bd 0c2b 24be
00000170: dfa7 dcbc 75ae 1cbc abb0 d83d 12d1 b63c
00000180: ab7c 81bc 07a2 ad3d 8cca 03be cd92 553e
00000190: a52b 103e 6f7a 143e f734 4abe 1977 373e
000001a0: 71a0 ee3c 3980 76be 48fe 633e 0559 b33c
000001b0: 8ec2 7f3d ae94 433e 1196 353e 135b 5c3e
000001c0: d5e0 6bbe e5d1 803e b740 6f3d 1f14 bdba
000001d0: cd54 46be 3dcf f2bd ac8b 773e bf15 2b3e
000001e0: b7a1 2b3e f604 2fbd d027 2abe f0bf e83c
000001f0: fde6 16be 9586 3dbe afe7 813d 93a5 393e
00000200: 6880 3abe efff 59be fd24 a43c e0c8 afbd
00000210: 7231 07be efa0 a6bd ea9c 49bd 60a1 83bd
00000220: 993b 383e 9808 eb3d 16f3 243d 41e4 dfbd
00000230: 1d18 17bd c24e 1c3e 3af3 8abb 9671 87be
00000240: 21d5 fd3c 212c f13d c341 7dbd d25c 9dbd
00000250: 2362 87bd 2c0f 143e ac7c 283e 4784 5cbe
00000260: 7d1a 1e3e dd3d 803d 1299 a83d 2801 1abe
00000270: 9b7b 16be 55b8 6e3e 92e7 003d 664d 84bd
00000280: e189 c5bc 095e 553e ed45 46bd b314 203e
00000290: 3f34 33bd 7836 843d 5fc1 a73d eb7c aebd
000002a0: 0484 e63c 87b2 9e3d 9fe7 62be ebd4 93b9
000002b0: c20e 893c bdb1 593e 6b23 9d3d 8255 21be
000002c0: 1b3b 9cbd 37c8 5e3e 64a5 a1bc 71b2 323e
000002d0: 93fd 993c e141 3d3e fe33 05be b384 733e
000002e0: b83a 623d a2db 0cbd b15f 543e a7da ca3d
000002f0: 1cbd 1abe 8388 073a d9f6 2a3e 3b76 9d3d
00000300: 1267 7ebd 776f 17be cc3d 0ebe 519d 1c3e
00000310: 5c0e 053e b104 51be 4ef9 6dbd b554 9a3d
00000320: d8a9 56be ddfb 363e e294 5fbd 495a cdbd
00000330: 329f 25bb 5928 493d d220 3e3d 2db3 653e
00000340: 4c67 093e c3ca 07bd 5f52 2a3d c37e 863d
00000350: 0998 a0bd 740f 70be e888 49bd a3fc cabd
00000360: e40e 7cbe efe0 383d 1dce 15be 0205 513e
00000370: 13a3 3a3d 8a60 e33d 73a7 1c3d 27be 7c3d
00000380: 9503 203e 7ef0 3e3e 5cbe 1fbb b2db c2bd
00000390: 96b3 003d 0fad ddbd e2ef 28bd d5e6 593d
000003a0: 8592 e93d dd6e 7ebe 4f34 bd3d a7a3 b2bd
000003b0: 7801 24be 392e cabd 2f5b 48bd 9819 083e
000003c0: 1841 74be a54a 153d 6dc0 5d3e 83ad 14be
000003d0: a9f8 143d 7653 ecbd 2cf8 ee3c afef bd3d
000003e0: 60aa 26be 33d0 203d 15ae 593e d729 f1ba
000003f0: 5bfe 43be 85ba 12bc fcbc 0b3d 785e 693d

encoder.encoder_layers.0.0.bias f4 [64]
-3.778769e-05 -4.5396235e-05 2.0999943e-05 7.018684e-06 4.0028408e-05 0.000104108636 -0.00010183498 -6.2715408e-06
-3.695983e-05 -0.00011305807 2.2569553e-05 3.51952e-05 0.000109436514 3.7738144e-05 -3.844932e-05 -0.00016943263
-9.457937e-05 5.4355398e-05 -1.6827187e-05 -3.922622e-06 -8.351606e-05 -1.6839665e-05 7.2137016e-05 2.882874e-05
2.1493548e-05 -3.5893292e-05 -6.587146e-05 6.814843e-05 1.3743413e-05 1.4231626e-06 -0.0001730217 -4.364235e-06
-3.0851243e-05 3.0951778e-06 0.000114026974 -2.3519626e-05 -1.5884647e-05 4.462203e-05 2.5963272e-05 4.58338e-05
-3.2682554e-05 1.8602062e-05 0.00014412632 1.1463938e-05 4.7553185e-05 1.3065239e-05 2.7210679e-06 -5.6756185e-06
-4.9583865e-05 -7.485559e-05 4.5491604e-05 8.193122e-05 -8.438715e-05 -3.5827696e-05 0.00011354139 -2.5897773e-05
-4.5264693e-05 0.000108570865 -2.7384836e-05 5.733686e-08 -1.3054212e-05 4.0586412e-05 0.0001248984 2.8765762e-05
00000000: 397e 1eb8 d667 3eb8 0929 b037 0982 eb36
00000010: 2de4 2738 e654 da38 3d90 d5b8 2070 d2b6
00000020: 5105 1bb8 9719 edb8 bf53 bd37 8f9e 1338
00000030: 4881 e538 0649 1e38 a544 21b8 baa9 31b9
00000040: ea58 c6b8 aafb 6338 1c28 8db7 119f 83b6
00000050: 5825 afb8 e842 8db7 4448 9738 3fd5 f137
00000060: 0b4d b437 218c 16b8 7924 8ab8 e9ea 8e38
00000070: 8293 6637 7f03 bf35 296d 35b9 7e70 92b6
00000080: 4566 01b8 c0b6 4f36 c421 ef38 034c c5b7
00000090: 0540 85b7 8a28 3b38 b4cb d937 ab3d 4038
000000a0: a014 09b8 a00b 9c37 9d20 1739 3d55 4037
000000b0: d873 4738 c632 5b37 979b 3636 3171 beb6
000000c0: 45f8 4fb8 cafb 9cb8 3dce 3e38 7dd2 ab38
000000d0: 02f9 b0b8 b245 16b8 121d ee38 0b3f d9b7
000000e0: 98da 3db8 8ab0 e338 7db8 e5b7 8b42 7633
000000f0: 6a03 5bb7 543b 2a38 29f7 0239 014e f137

encoder.encoder_layers.0.1.weight f4 [64]
1.0483221 1.0171778 0.99030393 0.9864464 1.0270016 0.9858696 1.0071026 0.99804646
0.9679879 0.9867847 0.9758471 1.0121717 1.0875229 0.9905156 1.0627885 0.99916315
0.9992581 1.0153933 1.0087802 0.96963125 1.0112425 1.0056697 1.0629618 0.97948414
0.9865267 0.9904705 1.0040745 0.99763215 1.0153373 1.0159172 0.9865891 0.9725289
0.96929765 1.0050224 0.99174356 0.9827184 0.9974423 0.9701217 0.97692126 1.0559177
0.985971 0.98365235 0.9806544 0.9630635 1.0198768 0.9987935 1.0011101 0.97744846
1.0207108 0.9720364 0.9982435 0.9878038 0.9984423 0.9866321 1.0037382 0.9894233
1.0203272 1.0066774 1.0101178 0.99287325 1.0086378 0.9907398 1.016486 1.0020337
00000000: 6b2f 863f e232 823f 8f84 7d3f c087 7c3f
00000010: ca74 833f f361 7c3f bde8 803f f97f 7f3f
00000020: 0ece 773f ec9d 7c3f 1ed1 793f d88e 813f
00000030: f333 8b3f 6e92 7d3f 7409 883f 28c9 7f3f
00000040: 61cf 7f3f 68f8 813f b61f 813f c139 783f
00000050: 6570 813f c9b9 803f 220f 883f 79bf 7a3f
00000060: 048d 7c3f 7a8f 7d3f 8385 803f d264 7f3f
00000070: 93f6 813f 9309 823f 1a91 7c3f a7f7 783f
00000080: e423 783f 93a4 803f e8e2 7d3f 6f93 7b3f
00000090: 6158 7f3f e559 783f 8317 7a3f 5028 873f
000000a0: 9868 7c3f a4d0 7b3f 2b0c 7b3f 548b 763f
000000b0: 538b 823f eeb0 7f3f 6024 803f 103a 7a3f
000000c0: a7a6 823f 61d7 783f e38c 7f3f b6e0 7c3f
000000d0: ea99 7f3f ec93 7c3f 7e7a 803f d84a 7d3f
000000e0: 159a 823f ceda 803f 8a4b 813f f12c 7e3f
000000f0: 0b1b 813f 20a1 7d3f 371c 823f a442 803f

encoder.encoder_layers.0.1.bias f4 [64]
0.021443747 0.03320429 -0.014636671 0.004894459 -0.017870488 -0.0064520393 0.028299587 0.021269197
-0.029562496 -0.008466969 -0.04763105 0.0049868077 0.06864482 -0.027140144 0.0416708 -0.021648958
0.01356383 0.010778958 -0.0073828725 -0.02722501 -0.029542524 -0.015676847 0.040737346 -0.017818637
-0.012873517 0.013273794 0.021358509 -0.0005334799 -0.021348806 0.0001294105 0.005662276 -0.018265992
-0.04349542 -0.05213248 -0.036402214 0.0077511123 -0.027246006 -0.0053480933 -0.010634234 0.012706505
-0.02386026 -0.01702819 -0.037173774 -0.03147423 0.03147936 0.0025949695 -0.02691179 -0.024668982
0.024130037 -0.04608991 -0.02145909 0.0069836564 -0.029603174 0.01113617 -0.018430429 -0.00802473
0.0015401869 -0.015467371 0.02189713 -0.010757821 0.025506983 -0.013394362 0.0383253 -0.014423638
00000000: ccaa af3c 3901 083d a6ce 6fbc b361 a03b
00000010: 2165 92bc a16b d3bb 89d4 e73c bd3c ae3c
00000020: 0c2d f2bc 0bb9 0abc c718 43bd 6068 a33b
00000030: a895 8c3d 0255 debc 00af 2a3d 2859 b1bc
00000040: d43a 5e3c 3a9a 303c 06ec f1bb fc06 dfbc
00000050: 2a03 f2bc bb6c 80bc 34dc 263d 64f8 91bc
00000060: 72eb 52bc 547a 593c 0af8 ae3c 3bd9 0bba
00000070: b1e3 aebc 5eb2 0739 9d8a b93b 90a2 95bc
00000080: 4128 32bd de88 55bd 7d1a 15bd 0bfd fd3b
00000090: 0433 dfbc 0f3f afbb 363b 2ebc f22e 503c
000000a0: 9876 c3bc b47e 8bbc 8743 18bd 1feb 00bd
000000b0: 80f0 003d 5d10 2a3b 1d76 dcbc 9b16 cabc
000000c0: 5bac c53c c6c8 3cbd f9ca afbc 28d7 e43b
000000d0: 5b82 f2bc 7b74 363c 69fb 96bc 287a 03bc
000000e0: 19e0 c93a db6a 7dbc 9c61 b33c 9241 30bc
000000f0: 05f4 d03c 0774 5bbc fdfa 1c3d 1f51 6cbc

encoder.encoder_layers.0.1.running_mean f4 [64]
0.4807623 0.32498488 0.3212305 -0.13596156 0.35970396 -0.0067402977 -0.12541787 -0.10807852
-0.39768028 0.11047095 0.12875223 -0.38462862 0.29954052 -0.06012778 0.32889548 -0.15249082
-0.33520788 0.44632348 0.26247394 -0.16801386 0.12535325 -0.06379226 0.63812876 0.01700757
-0.08117462 -0.669059 -0.20466977 0.24384424 0.14919959 0.08419779 -0.6112849 -0.4799279
-0.0898964 0.15887919 0.1957466 -0.5675082 -0.112895034 -0.5473595 -0.35571635 0.6158352
0.023025231 0.15271129 0.06381725 0.021685006 0.49712655 0.24731672 0.3028185 -0.4787712
0.34835738 -0.48231772 0.52143526 -0.51185745 -0.026851961 -0.24708031 0.11056644 0.3073061
0.010339697 -0.018270416 0.14498232 -0.08911801 0.15573148 -0.012556732 0.54288846 0.19976746
00000000: 7a26 f63e 6b64 a63e 5378 a43e 8239 0bbe
00000010: 1e2b b83e b7dd dcbb 8b6d 00be 4558 ddbd
00000020: c09c cbbe 983e e23d a0d7 033e 0bee c4be
00000030: 605d 993e 8c48 76bd fd64 a83e 8e26 1cbe
00000040: 5ea0 abbe 8384 e43e fc62 863e d30b 2cbe
00000050: 9a5c 003e 84a5 82bd 685c 233f 7653 8b3c
00000060: e13e a6bd 7347 2bbf f494 51be 4eb2 793e
00000070: c7c7 183e e46f ac3d 2b7d 1cbf 1cb9 f5be
00000080: 9b1b b8bd 3ab1 223e cc71 483e 3848 11bf
00000090: 8335 e7bd c11f 0cbf 7420 b6be 60a7 1d3f
000000a0: 699f bc3c 5960 1c3e 9eb2 823d c1a4 b13c
000000b0: 5f87 fe3e 9840 7d3e 070b 9b3e 8021 f5be
000000c0: e65b b23e 59f2 f6be c87c 053f 1709 03bf
000000d0: a5f8 dbbc 9f02 7dbe a870 e23d 3a57 9d3e
000000e0: d567 293c d7ab 95bc 3f76 143e 8183 b6bd
000000f0: 1378 1f3e c0ba 4dbc bdfa 0a3f d78f 4c3e

encoder.encoder_layers.0.1.running_var f4 [64]
0.1884137 0.32484916 0.50106937 0.35589883 0.31082672 0.23247021 0.19442642 0.26248357
0.32121423 0.15845382 0.27815107 0.2912332 0.17654929 0.1705774 0.53287774 0.12462989
0.2894449 0.5514556 0.26377812 0.21622862 0.2732623 0.67456627 0.4987387 0.5239843
0.23324353 0.7901163 0.31626132 0.18109633 0.3931281 0.2919871 0.19600633 0.34318548
0.31791446 0.26046178 0.15176447 0.35373956 0.26103002 0.7919321 0.17573312 0.46322677
0.18643135 0.17835638 0.16729043 0.2515755 0.28026214 0.34812346 0.3426616 0.22933096
0.31536216 0.2878901 0.38852072 0.24514925 0.21494183 0.45357275 0.2213741 0.22292264
0.37058383 0.16341808 0.48827818 0.29705635 0.8145025 0.27017426 0.31701618 0.19312796
00000000: 85ef 403e a152 a63e 1546 003f 5f38 b63e
00000010: ae24 9f3e ac0c 6e3e b817 473e 3f64 863e
00000020: 3176 a43e b841 223e d169 8e3e 851c 953e
00000030: 56c9 343e d8ab 2e3e ad6a 083f f53d ff3d
00000040: 1f32 943e 322c 0d3f ed0d 873e 096b 5d3e
00000050: 09e9 8b3e 60b0 2c3f ae5a ff3e d623 063f
00000060: 64d7 6e3e 1045 4a3f 01ed a13e 5171 393e
00000070: 1648 c93e 557f 953e e2b5 483e 02b6 af3e
00000080: afc5 a23e 3f5b 853e 2568 1b3e 5a1d b53e
00000090: baa5 853e 10bc 4a3f 62f3 333e 0f2c ed3e
000000a0: dce7 3e3e 0ea3 363e 2f4e 2b3e 81ce 803e
000000b0: 857e 8f3e 3d3d b23e 5771 af3e bcd5 6a3e
000000c0: 2677 a13e 5566 933e 30ec c63e 6808 7b3e
000000d0: b619 5c3e b03a e83e e4af 623e d545 643e
000000e0: 2abd bd3e 1257 273e 99ff f93e c517 983e
000000f0: 3c83 503f 4854 8a3e f24f a23e 56c3 453e

encoder.encoder_layers.1.0.weight f4 [32, 64]
0.21063086 -0.08304979 -0.01100011 -0.041197974 -0.02248783 0.03265064 -0.22593994 -0.11283696
-0.041556966 0.07665494 0.21192029 -0.14749214 0.09901917 0.12494625 -0.09141152 0.039863084
-0.103417605 0.003955159 -0.10424838 -0.06703169 -0.08123803 0.2409929 0.107696705 -0.2176591
0.044620518 0.15441176 -0.12794699 -0.09532999 -0.04319871 -0.16202472 -0.0809502 0.011735803
-0.16065955 -0.19551462 -0.10843073 -0.15747805 0.05593395 0.06945195 0.108355924 0.30186775
0.13921122 -0.09679308 -0.021599175 -0.074759 0.20380744 0.07013038 0.13245821 -0.14378773
0.2219073 -0.18845949 0.17678663 -0.2093773 0.17129958 -0.12081396 -0.19309577 0.13896419
0.23795746 -0.006546099 0.1364615 0.21760161 -0.18991125 0.09522014 0.099579714 -0.11198846
0.17098829 0.24750225 0.19303972 -0.17579952 0.2520736 0.19392954 0.075840965 -0.029379288
0.17584427 -0.15947476 -0.14413233 0.14764199 0.19819579 -0.022153724 0.2438064 0.13717051
0.10469706 0.20421523 0.24960962 0.16128248 0.18646994 0.04468289 0.2178658 0.14000925
-0.12381684 0.13884798 -0.0037828092 -0.06605746 0.17475931 0.080717765 0.22410487 0.0040794453
0.08754214 0.15997185 -0.037717864 0.1516106 -0.11296547 -0.05243991 -0.0071177883 0.18795012
0.11607848 0.23737392 -0.14101245 -0.015015748 -0.009433517 0.211554 0.25043562 0.07175127
-0.18004005 -0.15822843 0.064818405 -0.22188823 -0.079476416 -0.17090714 0.13176951 -0.032747302
-0.15506916 0.17923471 -0.21202886 -0.018720498 0.24718525 0.10629828 -0.20917043 0.050531156
-0.073155284 0.07699254 0.17645091 0.18936636 -0.05836003 0.109558284 -0.2721244 0.1611391
0.122810766 -0.21237965 -0.09743304 -0.12853654 -0.16339079 0.07439313 -0.11442565 0.10679304
-0.076525636 0.17532597 -0.10883467 -0.049303498 -0.086884655 -0.022165472 -0.12859951 -0.19892555
-0.2530895 0.11743458 -0.013997072 -0.19489622 0.10895986 -0.003671668 -0.09984196 -0.033665042
-0.003993046 0.17867365 -0.25453886 -0.18505809 -0.2365345 -0.21731931 0.0017499996 0.0966388
0.055700894 0.09538928 0.03645746 -0.026205054 -0.25899738 0.19620547 0.21801683 -0.0022205906
0.008083986 0.05305975 0.21834442 0.0139584355 -0.06046811 -0.1619276 0.047112137 0.08484373
-0.23561886 0.080434345 0.019807493 0.08720853 0.096223645 -0.10202751 0.014874562 -0.20831656
0.14813082 -0.19078557 -0.2106593 -0.20549123 -0.11872636 0.005534071 0.1817808 -0.08109503
0.16547231 -0.039734866 0.2154127 0.14511116 0.18117604 0.0941633 -0.1128324 0.2583273
-0.25195 -0.18402281 -0.16853204 -0.06582697 0.09898445 0.04448334 -0.20058188 0.22479367
0.22998983 0.13093956 -0.21895687 0.14488862 0.063348666 0.037005737 -0.23502919 0.21514478
-0.06849255 -0.1976567 0.18626124 0.074952126 0.05749519 0.17837547 0.09850035 -0.05309713
-0.057162788 0.21729879 -0.0445358 -0.20026775 -0.16642934 -0.21104947 -0.0038209523 0.17814206
0.15073146 0.030434038 0.09884353 -0.13175774 0.24245927 0.11155407 -0.17667174 -0.18969172
-0.20356902 -0.08092589 0.19370018 -0.009425127 -0.13728322 0.06676529 -0.17817208 0.09012573
00000000: 9eaf 573e 0216 aabd ce39 34bc 35bf 28bd
00000010: 6638 b8bc adbc 053d cd5c 67be 1017 e7bd
00000020: a337 2abd 44fd 9c3d a201 593e 2e08 17be
00000030: 90ca ca3d d2e3 ff3d f735 bbbd 7947 233d
00000040: 9ccc d3bd 479a 813b 2d80 d5bd e947 89bd
00000050: 2060 a6bd d8c6 763e 1790 dc3d 07e2 5ebe
00000060: 01c4 363d 1e1e 1e3e 8904 03be 5f3c c3bd
00000070: 21f1 30bd cfe9 25be 38c9 a5bd 8747 403c
00000080: f083 24be fc34 48be ee10 debd ed41 21be
00000090: ff1a 653d d33c 8e3d b6e9 dd3d 698e 9a3e
000000a0: 638d 0e3e 733b c6bd c1f0 b0bc 3f1b 99bd
000000b0: e6b2 503e 84a0 8f3d 20a3 073e 173d 13be
000000c0: ab3b 633e 86fb 40be 8e07 353e 0167 56be
000000d0: 2869 2f3e 4f6d f7bd e6ba 45be a14c 0e3e
000000e0: 1fab 733e a980 d6bb 90bc 0b3e f5d2 5e3e
000000f0: 1878 42be c702 c33d 73f0 cb3d 355a e5bd
00000100: 8e17 2f3e 3b71 7d3e 34ac 453e ca04 34be
00000110: ca0f 813e 7795 463e 8252 9b3d d5ac f0bc
00000120: 8510 343e 5a4d 23be 6d97 13be 762f 173e
00000130: d6f3 4a3e ba7b b5bc 63a8 793e 6d76 0c3e
00000140: 6a6b d63d cc1d 513e aa99 7f3e 3c27 253e
00000150: faf1 3e3e 6805 373d 3618 5f3e 965e 0f3e
00000160: af93 fdbd 2a2e 0e3e 02e9 77bb 2249 87bd
00000170: 1bf4 323e 5b4f a53d bf7b 653e deac 853b
00000180: 4b49 b33d a9cf 233e 0c7e 1abd cf3f 1b3e
00000190: 715a e7bd 3bcb 56bd 563c e9bb ff75 403e
000001a0: 8eba ed3d 2612 733e 9165 10be 9d04 76bc
000001b0: 0a8f 1abc 9da1 583e 1939 803e 54f2 923d
000001c0: 6b5c 38be a206 22be 83bf 843d ab36 63be
000001d0: 88c4 a2bd 4802 2fbe 96ee 063e 0922 06bd
000001e0: 73ca 1ebe 4e89 373e 181e 59be bb5b 99bc
000001f0: 211e 7d3e eab2 d93d c630 56be c2f9 4e3d
00000200: 70d2 95bd 44ae 9d3d 8caf 343e 41e9 413e
00000210: ed0a 6fbd 1860 e03d e453 8bbe a601 253e
00000220: 3684 fb3d 0d7a 59be f98a c7bd 159f 03be
00000230: ea4f 27be 6d5b 983d ff57 eabd 4fb6 da3d
00000240: 79b9 9cbd a788 333e b6e4 debd 77f2 49bd
00000250: 95f0 b1bd 5d94 b5bc 97af 03be 24b3 4bbe
00000260: f294 81be 8b81 f03d fa53 65bc e092 47be
00000270: 5926 df3d 5ea0 70bb f179 ccbd 5be4 09bd
00000280: 19d8 82bb 3af6 363e eb52 82be de7f 3dbe
00000290: 1a36 72be f488 5ebe 3e60 e53a 90ea c53d
000002a0: 9f26 643d 745b c33d 6b54 153d fbab d6bc
000002b0: 4e9b 84be 16ea 483e ce3f 5f3e 5487 11bb
000002c0: b272 043c 2e55 593d ae95 5f3e ecb1 643c
000002d0: 69ad 77bd 59d0 25be a8f8 403d 8dc2 ad3d
000002e0: 1246 71be c3ba a43d 5343 a23c 639a b23d
000002f0: e710 c53d cdf3 d0bd 6fb4 733c f050 55be
00000300: 9baf 173e 4b5d 43be 12b7 57be 4b6c 52be
00000310: ce26 f3bd 2757 b53b bf24 3a3e 2715 a6bd
00000320: 9371 293e 07c1 22bd 2695 5c3e 0598 143e
00000330: 3686 393e b0d8 c03d ac14 e7bd 7a43 843e
00000340: 97ff 80be 7a70 3cbe aa93 2cbe 4ad0 86bd
00000350: 5cb8 ca3d 2a34 363d 5665 4dbe 5030 663e
00000360: 7482 6b3e 0515 063e 3b36 60be af5d 143e
00000370: f2bc 813d 5493 173d 7eab 70be ea4e 5c3e
00000380: d245 8cbd 8566 4abe 44bb 3e3e 8080 993d
00000390: 1480 6b3d 0fa8 363e 8dba c93d 607c 59bd
000003a0: 8723 6abd 9383 5e3e 2c6b 36bd fd12 4dbe
000003b0: 746c 2abe 5a1d 58be f168 7abb df6a 363e
000003c0: 5959 1a3e ce50 f93c 7a6e ca3d 80eb 06be
000003d0: 3e47 783e 7676 e43d 70e9 34be 8c3e 42be
000003e0: 6674 50be 79bc a5bd 5759 463e d96b 1abc
000003f0: f993 0cbe 3ebc 883d be72 36be d793 b83d

encoder.encoder_layers.1.0.bias f4 [32]
3.7816862e-05 -0.000106100946 -8.3029945e-06 -6.925277e-05 1.2323883e-05 -9.037651e-07 1.6712283e-05 -4.928181e-05
0.00011934568 4.291074e-06 5.641968e-05 -1.0768083e-05 -8.641991e-05 -7.103903e-05 -5.377101e-07 4.3542128e-05
-6.8984e-06 2.4832658e-05 -8.714526e-05 -0.00013228854 3.6599966e-05 9.4609706e-05 -3.4715115e-06 2.7051956e-05
4.7823905e-05 -0.00012934548 -2.5235187e-05 3.2122302e-06 -3.5842193e-05 2.9252578e-05 -4.81135e-05 4.9083555e-05
00000000: 8c9d 1e38 8382 deb8 174d 0bb7 cc3b 91b8
00000010: adc2 4e37 449a 72b5 5b31 8c37 f1b3 4eb8
00000020: 3949 fa38 0cfc 8f36 2ca4 6c38 90a8 34b7
00000030: 563c b5b8 cafa 94b8 2857 10b5 01a1 3638
00000040: ce78 e7b6 ba4f d037 c1c1 b6b8 efb6 0ab9
00000050: ea82 1938 3369 c638 1df8 68b6 a2ed e237
00000060: 8796 4838 eaa0 07b9 27b0 d3b7 b291 5736
00000070: 4355 16b8 6f63 f537 7acd 49b8 11df 4d38

encoder.encoder_layers.1.1.weight f4 [32]
1.0760707 1.0026407 0.987617 0.9828103 1.1031963 1.0612237 1.0077143 0.9806363
1.00999 0.9846249 0.95144755 0.95732814 0.9702983 1.0024796 0.9959231 0.9980041
0.9805177 1.03065 0.98930633 1.0219289 0.989551 0.94615793 0.9472369 1.0529597
1.0751657 0.9415172 0.9749716 0.9918867 0.9929358 1.0373932 0.9957316 1.0220194
00000000: afbc 893f 8856 803f 78d4 7c3f 7599 7b3f
00000010: 8935 8d3f 2ed6 873f c8fc 803f fb0a 7b3f
00000020: 5a47 813f 6110 7c3f 1192 733f 7513 753f
00000030: 7865 783f 4051 803f d1f4 7e3f 327d 7f3f
00000040: 3503 7b3f 57ec 833f 2e43 7d3f 91ce 823f
00000050: 3753 7d3f 6837 723f 1e7e 723f 62c7 863f
00000060: 089f 893f 4507 713f bd97 793f 49ec 7d3f
00000070: 0a31 7e3f 4dc9 843f 44e8 7e3f 88d1 823f

encoder.encoder_layers.1.1.bias f4 [32]
0.063329555 -0.0039053573 0.04240774 -0.017415244 0.07834929 0.050397534 -0.0026443764 -0.033627197
0.024930475 -0.04212876 -0.05490743 -0.05353362 -0.033460166 -0.033408463 0.042798717 -0.034580152
0.014537547 0.03964784 -0.027824463 0.07151855 -0.019301388 -0.05307813 -0.034333877 0.0004055325
0.058405433 -0.06312183 -0.037984587 0.023941394 0.00331534 -0.06901258 -0.007924354 0.0103989635
00000000: edb2 813d 06f1 7fbb bdb3 2d3d 6aaa 8ebc
00000010: 9875 a03d a56d 4e3d 464d 2dbb acbc 09bd
00000020: ff3a cc3c 358f 2cbd 9de6 60bd 1246 5bbd
00000030: 870d 09bd 50d7 08bd b54d 2f3d eba3 0dbd
00000040: e42e 6e3c c665 223d 21f0 e3bc 5178 923d
00000050: f21d 9ebc 7468 59bd aea1 0cbd a79d d439
00000060: 893a 6f3d 0546 81bd ba95 1bbd be20 c43c
00000070: 2d46 593b 7856 8dbd 26d5 01bc 6a60 2a3c

encoder.encoder_layers.1.1.running_mean f4 [32]
0.07157926 1.3479064 -0.49245095 0.000696808 0.50192255 0.19049032 0.95930254 -0.09830944
-0.1145578 0.10792536 -0.11975161 0.06772919 -0.11352728 0.1273957 -0.6901861 0.14576727
-0.5359533 -0.82817745 -0.010458643 -0.79101825 -0.31427196 -0.6041456 -0.50688934 0.14424877
0.72127676 -0.60790634 -0.107771285 -0.23633794 0.17935586 0.6415399 0.384795 0.006196012
00000000: 2698 923d 3288 ac3f 8822 fcbe fea9 363a
00000010: ff7d 003f e50f 433e da94 753f 7656 c9bd
00000020: 489d eabd f907 dd3d 5540 f5bd 9ab5 8a3d
00000030: fe80 e8bd 0574 023e 09b0 30bf 0444 153e
00000040: 3c34 09bf 7003 54bf ba5a 2bbc 2c80 4abf
00000050: 41e8 a0be 49a9 1abf 80c3 01bf f3b5 133e
00000060: 98a5 383f c09f 1bbf 31b7 dcbd 9302 72be
00000070: 10a9 373e f53b 243f da03 c53e ea07 cb3b

encoder.encoder_layers.1.1.running_var f4 [32]
1.5589088 1.822003 1.2852875 0.73565423 1.5593654 2.4085758 1.4320792 0.6370473
0.7481161 0.5387225 0.9754629 0.44765398 1.5884863 0.9338822 1.0249681 1.0416961
1.0662048 1.3206636 0.53600216 1.3126891 1.1384436 0.71869177 1.183212 1.3089371
1.5169226 0.8527249 0.43307966 1.4329464 1.3653395 1.0921261 1.5459955 0.5509712
00000000: 538a c73f 6537 e93f 4d84 a43f d653 3c3f
00000010: 4999 c73f 1b26 1a40 5f4e b73f 8815 233f
00000020: 8984 3f3f b8e9 093f f0b7 793f e732 e53e
00000030: 8553 cb3f e712 6f3f 2832 833f 4c56 853f
00000040: 6679 883f 810b a93f 7037 093f 3206 a83f
00000050: 85b8 913f 2ffc 373f 7e73 973f 408b a73f
00000060: 852a c23f 2e4c 5a3f 9ebc dd3e ca6a b73f
00000070: 72c3 ae3f caca 8b3f 2ee3 c53f 730c 0d3f

encoder.encoder_layers.2.0.weight f4 [16, 32]
-0.08490862 -0.0021313839 0.15753768 0.033018608 -0.26758516 -0.34915918 0.11041433 -0.18263793
0.123663664 -0.35302782 0.13572803 0.16084358 -0.091471836 -0.2700267 0.0013485026 0.20559661
0.25908467 0.070450306 -0.029072864 0.33015212 0.069396935 0.30940625 0.29952836 -0.26627108
-0.31726947 -0.04989427 -0.07111485 0.30752882 -0.25710264 0.08964848 0.19822347 0.022774126
-0.342623 -0.3244881 0.015790643 0.12785837 0.009032033 0.14469272 0.16545863 -0.37883613
0.15717852 0.18526994 -0.2206201 -0.26636332 -0.25366485 -0.39759037 0.18514273 0.034314033
-0.19280808 -0.2283229 -0.4028093 0.2812542 0.15329957 0.113329165 -0.06925966 0.0885558
-0.03174459 0.11103922 0.10661068 -0.2187335 -0.20791952 0.06325596 0.06627397 0.20714197
-0.3422039 0.17158894 -0.29200774 0.0582763 -0.37127256 -0.25602987 -0.26772234 0.27721506
0.30809113 -0.1063718 -0.061366457 -0.34273094 -0.22991335 -0.1676085 0.009611126 -0.38147417
-0.09352932 0.054463655 -0.026407473 0.06780069 0.07204284 0.28353408 -0.22233596 -0.32146734
0.11929703 0.07105218 0.2843556 0.2652948 -0.31612447 -0.055125646 -0.29816806 0.07613144
0.112336434 -0.35486314 -0.2568298 0.1548902 0.08530456 -0.18271384 -0.010079089 -0.23380914
0.18848495 0.106909074 0.06980009 -0.06390174 0.04470602 -0.32582396 0.2870256 -0.021648647
-0.012017685 0.01061939 -0.39980236 0.14996625 0.25667438 0.16889624 0.093872525 0.044462692
0.0054739835 0.027749067 0.108279474 0.08252304 0.07823512 -0.28129917 -0.08127322 0.14420153
0.15677115 -0.28115007 0.056119468 -0.15265843 0.03416645 0.071505435 -0.24768896 0.18667647
0.25711226 0.21669708 0.05700444 0.101503305 0.062872924 -0.26604402 0.18217407 -0.20976695
0.059028357 -0.11769269 -0.20206769 -0.200118 -0.12916255 0.1713796 0.12562548 -0.046010215
0.14990716 0.20378312 -0.20966725 -0.34241378 0.22580266 -0.4232307 -0.35712278 -0.32168686
-0.304766 -0.18645413 0.042143837 -0.0993374 0.20205086 -0.39586926 -0.30734107 -0.36702174
-0.35032904 0.0319024 -0.32171082 -0.12103257 -0.18013021 -0.035026614 -0.086748265 0.15919009
-0.09288087 -0.09513802 0.13866718 0.35841185 0.31300613 0.027544366 -0.022492953 -0.15735781
-0.0682921 0.01860544 -0.16041228 -0.025264487 0.10874918 0.099196464 0.35876033 -0.13463931
-0.23437762 -0.36551577 0.1463516 -0.13122281 -0.41414735 -0.026141511 -0.20154174 -0.20877953
0.25059992 -0.22165272 0.12693284 0.23696165 0.16784872 -0.16299392 0.22807355 -0.31071433
0.233314 -0.017210077 -0.15503629 0.040340297 0.27624896 -0.009150029 0.26756868 0.015462235
-0.33283967 -0.18488549 0.2716152 0.32181665 0.1659908 0.27587655 -0.2646293 -0.22139317
-0.102273256 -0.2924178 -0.1602189 0.08196983 -0.0015444375 0.14073062 -0.1563607 0.28142
0.0868387 0.18731737 0.21311826 -0.015182375 0.25505087 0.113272175 -0.1536734 -0.011447146
-0.14414023 0.16444756 -0.20802507 -0.12209097 -0.17230625 -0.2572316 0.25720307 -0.12358319
-0.13114348 0.042541288 -0.025339575 -0.34517246 0.13834798 -0.32759696 -0.3475995 -0.23772405
00000000: 92e4 adbd b0ae 0bbb 8f51 213e 853e 073d
00000010: ec00 89be fec4 b2be e920 e23d 7005 3bbe
00000020: 6043 fd3d 10c0 b4be 4afc 0a3e 2eb4 243e
00000030: 9655 bbbd f140 8abe 3dc0 b03a eb87 523e
00000040: bfa6 843e 4048 903d 372a eebc b309 a93e
00000050: fb1f 8e3d 7f6a 9e3e c85b 993e af54 88be
00000060: 2571 a2be ef5d 4cbd aaa4 91bd 6b74 9d3e
00000070: f5a2 83be 9f99 b73d 18fb 4a3e ce90 ba3c
00000080: 486c afbe 4e23 a6be 615b 813c 4eed 023e
00000090: 18fb 133c 542a 143e fd6d 293e cff6 c1be
000000a0: 68f3 203e 67b7 3d3e 3cea 61be c660 88be
000000b0: 5ce0 81be f790 cbbe 0e96 3d3e df8c 0c3d
000000c0: 7b6f 45be 7acd 69be 053d cebe 8d00 903e
000000d0: 90fa 1c3e 1f19 e83d 02d8 8dbd be5c b53d
000000e0: 9d06 02bd 8868 e33d b356 da3d adfb 5fbe
000000f0: dbe8 54be 578c 813d a6ba 873d 061d 543e
00000100: 5935 afbe 03b5 2f3e 0a82 95be 21b3 6e3d
00000110: 7017 bebe 5916 83be e712 89be 22ef 8d3e
00000120: 1fbe 9d3e 75d9 d9bd 655b 7bbd 6e7a afbe
00000130: 686e 6bbe 90a1 2bbe fc77 1d3c 9550 c3be
00000140: 4d8c bfbd 4815 5f3d 7c54 d8bc 17db 8a3d
00000150: 328b 933d 612b 913e 0aac 63be 5e97 a4be
00000160: 0052 f43d ce83 913d 0f97 913e b8d4 873e
00000170: 11db a1be 6ecb 61bd 7ca9 98be cdea 9b3d
00000180: a510 e63d 9fb0 b5be 327f 83be 899b 1e3e
00000190: 28b4 ae3d 5619 3bbe c322 25bc aa6b 6fbe
000001a0: 3302 413e 25f3 da3d 59f3 8e3d eade 82bd
000001b0: a91d 373d 66d2 a6be 05f5 923e 8158 b1bc
000001c0: d3e5 44bc f3fc 2d3c e5b2 ccbe c190 193e
000001d0: d36a 833e 23f3 2c3e 3d40 c03d 831e 363d
000001e0: 1a5f b33b 0352 e33c a1c1 dd3d d701 a93d
000001f0: bc39 a03d 7206 90be 9372 a6bd 91a9 133e
00000200: 9e88 203e e7f2 8fbe 87dd 653d 7e52 1cbe
00000210: 1ff2 0b3d 7171 923d 2da2 7dbe 1e28 3f3e
00000220: 38a4 833e d7e5 5d3e 7d7d 693d f7e0 cf3d
00000230: 85c3 803d ec36 88be d78b 3a3e 26cd 56be
00000240: b8c7 713d dd08 f1bd d5ea 4ebe bceb 4cbe
00000250: 3043 04be 227e 2f3e f7a3 003e 3575 3cbd
00000260: 4381 193e 86ac 503e 03b3 56be dc50 afbe
00000270: d038 673e b2b1 d8be ccd8 b6be 24b4 a4be
00000280: 4a0a 9cbe d5ed 3ebe 049f 2c3d 6871 cbbd
00000290: 6ce6 4e3e 60af cabe cf5b 9dbe 46ea bbbe
000002a0: 545e b3be 17ac 023d 48b7 a4be eddf f7bd
000002b0: 0e74 38be 1178 0fbd 13a9 b1bd ba02 233e
000002c0: 5338 bebd b9d7 c2bd c5fe 0d3e c281 b73e
000002d0: 5742 a03e b9a4 e13c 2443 b8bc 6822 21be
000002e0: bbdc 8bbd 706a 983c 1e43 24be 78f7 cebc
000002f0: e4b7 de3d 8427 cb3d 6faf b73e e3de 09be
00000300: b000 70be e224 bbbe 32dd 153e 465f 06be
00000310: 1f0b d4be b926 d6bc f560 4ebe 4dca 55be
00000320: a24e 803e eef8 62be affa 013e 13a6 723e
00000330: 89e0 2b3e e1e7 26be 1d8c 693e f315 9fbe
00000340: dde9 6e3e 26fc 8cbc d5c1 1ebe de3b 253d
00000350: 8170 8d3e 01ea 15bc c3fe 883e 5055 7d3c
00000360: f669 aabe 9f52 3dbe 2611 8b3e 27c5 a43e
00000370: 7ef9 293e b13f 8d3e 7e7d 87be e4b4 62be
00000380: a474 d1bd c9b7 95be 6c10 24be ccdf a73d
00000390: b96e caba b01b 103e 051d 20be 4816 903e
000003a0: 7dd8 b13d 20d0 3f3e ac3b 5a3e 7fbf 78bc
000003b0: 0796 823e 3efb e73d 8f5c 1dbe cf8c 3bbc
000003c0: 7f99 13be f164 283e 8604 55be d50a fabd
000003d0: 0d71 30be dcb3 83be 1fb0 833e 2f19 fdbd
000003e0: 7a4a 06be c63f 2e3d f194 cfbc 72ba b0be
000003f0: 18ab 0d3e caba a7be 90f8 b1be ef6d 73be

encoder.encoder_layers.2.0.bias f4 [16]
5.5380002e-05 0.00018729392 0.00018633701 -0.00010851735 3.38945e-05 -4.9366696e-05 9.417831e-05 8.733443e-05
1.6623235e-05 -0.00010025843 0.0002485685 0.00016957396 0.00042472855 -9.6683616e-05 0.00011221288 0.00010100571
00000000: d347 6838 5464 4439 7663 4339 cf93 e3b8
00000010: f129 0e38 160f 4fb8 9881 c538 5127 b738
00000020: 2072 8b37 d641 d2b8 4d52 8239 aacf 3139
00000030: 1aae de39 9fc2 cab8 d553 eb38 07d3 d338

encoder.encoder_layers.2.1.weight f4 [16]
0.9173947 0.9094584 0.90536195 0.90849984 0.9118089 0.9176849 0.90882474 0.8953188
0.9112707 0.9111524 0.907927 0.9102455 0.91079164 0.90494436 0.9055301 0.89523584
00000000: 61da 6a3f 44d2 683f cdc5 673f 7293 683f
00000010: 4f6c 693f 66ed 6a3f bda8 683f 9d33 653f
00000020: 0949 693f 4941 693f e76d 683f d905 693f
00000030: a429 693f 6faa 673f d2d0 673f 2d2e 653f

encoder.encoder_layers.2.1.bias f4 [16]
-0.08844112 -0.09917699 -0.10493861 -0.10288192 -0.0951951 -0.06774379 -0.09912459 -0.10503827
-0.09725854 -0.10093142 -0.10235116 -0.102083705 -0.09851377 -0.099165365 -0.096731335 -0.11089237
00000000: 9e20 b5bd 4e1d cbbd 0eea d6bd c2b3 d2bd
00000010: a6f5 c2bd 42bd 8abd d501 cbbd 4e1e d7bd
00000020: 7c2f c7bd 22b5 cebd 7c9d d1bd 4311 d1bd
00000030: 96c1 c9bd 3617 cbbd 141b c6bd 8a1b e3bd

encoder.encoder_layers.2.1.running_mean f4 [16]
0.07132264 -0.4126404 -0.7397444 0.06963001 -0.40427107 -0.56908894 -0.18815582 -0.5061609
-0.2864984 -0.024937617 -0.3710432 -0.15186949 -0.084389925 0.29066148 -0.35264117 -0.125404
00000000: 9b11 923d 9a45 d3be e45f 3dbf 2e9a 8e3d
00000010: 9efc cebe d0af 11bf ebab 40be c393 01bf
00000020: ebaf 92be f949 ccbc 60f9 bdbe ad83 1bbe
00000030: a0d4 acbd 95d1 943e 628d b4be e869 00be

encoder.encoder_layers.2.1.running_var f4 [16]
1.7085154 0.9032363 2.4811218 1.1320785 2.1380978 1.9045488 2.1529405 1.3153892
2.0848114 1.3190591 0.85653067 1.1732715 1.3205432 0.94217515 1.5143692 0.8924002
00000000: a2b0 da3f 7f3a 673f b3ca 1e40 f3e7 903f
00000010: 98d6 0840 41c8 f33f c7c9 0940 ac5e a83f
00000020: 8d6d 0540 eed6 a83f 9845 5b3f c32d 963f
00000030: 8f07 a93f 6432 713f dad6 c13f 5774 643f

encoder.mu_head.weight f4 [10, 16]
0.13548961 -0.123354636 -0.36828563 0.26971635 -0.059287377 0.34358034 -0.051938068 0.33153054
-0.057202607 -0.15016663 0.18303807 0.041428715 0.3511138 0.0050149574 -0.2755428 -0.24434151
-0.03706605 -0.016045878 -0.17183883 0.4007968 -0.18203527 0.11393572 0.3254461 0.16266324
0.059773214 0.17845464 -0.16169935 -0.38737404 0.21536481 -0.26096487 -0.31851715 -0.2560692
0.2976005 -0.22862367 0.28069934 0.2901042 0.13497178 -0.26333854 -0.36756766 -0.2681504
0.21189468 -0.27872172 -0.04357165 0.035110533 -0.106474414 0.018262858 -0.28343892 0.2943473
-0.2847011 -0.18734251 -0.3084371 0.27102485 -0.14500414 -0.15521184 0.21930128 0.04121515
0.29842263 0.05199169 0.019137457 -0.23575547 -0.3716955 0.07459458 0.09342852 0.33662543
-0.34551713 0.016505502 0.119611934 0.1818207 0.15229943 0.040076546 -0.3662438 -0.10604917
0.4602199 -0.26900774 -0.23023915 0.35746992 0.016833644 -0.07746944 -0.0013216034 0.12665936
0.0082777385 0.28798318 -0.073860385 -0.2839461 -0.29139456 -0.07640496 -0.12479301 0.22848022
0.15192327 0.2867519 0.2781357 0.3335656 -0.38574386 -0.07103987 -0.13402537 0.26154667
0.07033232 0.23910075 0.03338533 -0.37609267 0.09818519 0.05852909 -0.21386056 0.42651874
-0.3079296 -0.32432815 -0.25101754 -0.35619628 -0.015618538 -0.17895731 0.37934878 0.28927684
0.1361398 0.33062366 -0.30532625 -0.21196093 0.32347235 0.24947348 0.018500375 0.17635797
0.052916814 -0.08340758 -0.081658885 0.10430366 -0.30048442 0.36813396 -0.32188642 -0.28374985
0.4228188 -0.18282275 -0.13605097 -0.025994293 -0.3267395 0.075129874 0.025771556 -0.0029657527
0.08068147 -0.23264167 0.0072532617 0.028483404 -0.38125783 -0.26017147 0.44320193 -0.3598155
-0.032381628 -0.19873276 0.38853258 0.26116884 0.14796549 -0.14374413 -0.3270503 -0.065167405
0.23305225 0.028188594 -0.21352531 -0.33711955 0.34018275 0.0504579 0.23498873 -0.3162065
00000000: cabd 0a3e 5ba1 fcbd ef8f bcbe 4318 8a3e
00000010: 52d7 72bd c3e9 af3e 03bd 54bd 5fbe a93e
00000020: 484d 6abd 48c5 19be 556e 3b3e 28b1 293d
00000030: 30c5 b33e 8354 a43b f213 8dbe a934 7abe
00000040: 92d2 17bd a572 83bc 85f6 2fbe 3d35 cd3e
00000050: 7467 3abe 2157 e93d dfa0 a63e 3191 263e
00000060: c2d4 743d d0bc 363e 8494 25be e455 c6be
00000070: 9888 5c3e 309d 85be ae14 a3be 811b 83be
00000080: 185f 983e 531c 6abe d3b7 8f3e 8a88 943e
00000090: 0b36 0a3e 4fd4 86be d431 bcbe 024b 89be
000000a0: ebfa 583e 9db4 8ebe 3078 32bd 10d0 0f3d
000000b0: 420f dabd fd9b 953c e81e 91be b0b4 963e
000000c0: 58c4 91be b7d6 3fbe 78eb 9dbe c5c3 8a3e
000000d0: f77b 14be daef 1ebe 8490 603e 38d1 283d
000000e0: daca 983e 3df5 543d 28c6 9c3c e269 71be
000000f0: df4e bebe 0bc5 983d 7457 bf3d 2b5a ac3e
00000100: 9fe7 b0be 8c36 873c 1af7 f43d 352f 3a3e
00000110: 62f4 1b3e 4e27 243d 4f84 bbbe 4f30 d9bd
00000120: f1a1 eb3e 62bb 89be d0c3 6bbe 4c06 b73e
00000130: b6e6 893c 4ca8 9ebd a739 adba feb2 013e
00000140: 5a9f 073c 8872 933e 1d44 97bd 6261 91be
00000150: ab31 95be 347a 9cbd 7a93 ffbd b8f6 693e
00000160: c691 1b3e 25d1 923e cd67 8e3e 1cc9 aa3e
00000170: 3880 c5be 5a7d 91bd f23d 09be 72e9 853e
00000180: 640a 903d d4d6 743e 0ebf 083d 388f c0be
00000190: 5115 c93d 33bc 6f3d 43fe 5abe aa60 da3e
000001a0: f3a8 9dbe 570e a6be 5f85 80be 5c5f b6be
000001b0: e5e4 7fbc 9640 37be 013a c23e 181c 943e
000001c0: 3b68 0b3e 8147 a93e b953 9cbe 490c 59be
000001d0: 2b9e a53e fa75 7f3e 198e 973c 2f97 343e
000001e0: 4dbf 583d 98d1 aabd c63c a7bd 289d d53d
000001f0: 18d9 99be 0e7c bc3e 4cce a4be a947 91be
00000200: b57b d83e e335 3bbe f250 0bbe fcf1 d4bc
00000210: 664a a7be b1dd 993d df1e d33c 135d 42bb
00000220: 543c a53d 9e39 6ebe c5ac ed3b 0756 e93c
00000230: 3a34 c3be 3235 85be 5deb e23e bd39 b8be
00000240: 99a2 04bd 9a80 4bbe beed c63e ecb7 853e
00000250: 4484 173e a931 13be 2373 a7be 7d76 85bd
00000260: 40a5 6e3e c4eb e63c 61a6 5abe ef9a acbe
00000270: 6f2c ae3e f1ac 4e3d e3a0 703e d2e5 a1be

encoder.mu_head.bias f4 [10]
-0.07801186 0.08845505 0.045796502 0.07395772 -0.011495278 -0.08945041 0.09060744 -0.07394704
0.103478104 0.0074761035
00000000: afc4 9fbd ec27 b53d 1d95 3b3d 2577 973d
00000010: b156 3cbc c731 b7bd 6590 b93d 8c71 97bd
00000020: 54ec d33d 1afa f43b
