scripts/abr_clustering/audiometric_deep_clustering/experiments/full_scale_audiometric_clustering_memory_optimized/20250619_164613_evident/checkpoints/pretrain/final_pretrain.pt (torch, 710478 bytes, 213 tensors)

encoder.abr_encoder.abr_projection.weight f4 [32, 6]
000000 a0 ba 7b bd 51 52 94 3d 8e 7b a8 bd 0b 97 52 be
       -0.061457276 0.07242263 -0.08226691 -0.20565431
000010 fc cc 92 be ab 9a a3 be f0 a9 16 bd d9 a9 1f 3d
       -0.28672016 -0.3195394 -0.03678316 0.03898034
000020 cb 9b 64 bd b9 7c f2 be 86 9a 81 bd 54 f4 bb 3e
       -0.05581264 -0.4736078 -0.06328301 0.36709845
000030 5b 65 5e be 18 c3 8d be 44 58 35 3e 26 d0 19 be
       -0.21718352 -0.27687907 0.17709452 -0.15020809
000040 ce 59 39 bd 9f 5f a6 be 64 5b b4 be a8 5b 91 3d
       -0.04525166 -0.32494828 -0.35225976 0.0709756
000050 b3 c6 90 3e fa f1 29 be f1 4d ac bd 96 03 06 3e
       0.28276595 -0.16596213 -0.08413304 0.13087305
000060 42 f8 23 3e 66 d8 76 be 09 9d 9c be cc 25 27 3e
       0.16012672 -0.24105987 -0.30588558 0.16323012
000070 80 89 f2 be c4 7b 92 be e9 f8 29 be 8b 2f 92 3e
       -0.4737053 -0.2861005 -0.16598858 0.28551897
000080 90 67 70 3e 4b 98 f9 3e 3a b1 be 3d c8 c9 0f be
       0.23477006 0.48749003 0.09311147 -0.14041817
000090 00 47 9a 3e a3 05 a8 3e eb 43 18 3e 29 66 94 3e
       0.30132294 0.328168 0.14869659 0.28984192
0000a0 7f 47 0d be 74 10 91 3d 3a 93 aa 3e a6 94 e2 3d
       -0.13796805 0.07083216 0.3331545 0.11063509
0000b0 a4 00 90 be 73 c1 df 3e 61 d4 47 3e 2f b3 ca 3e
       -0.2812549 0.43702278 0.1951461 0.3958983
0000c0 be 50 a3 3e 54 1f 85 3e cd a3 d5 3e 20 36 8e 3e
       0.3189754 0.26000464 0.41726533 0.2777567
0000d0 e4 d1 39 be 26 a7 20 bd 53 41 5f be 80 08 b0 be
       -0.18146473 -0.039221905 -0.21802263 -0.34381485
0000e0 be c8 46 be 48 5b 99 be 6e 55 c3 bd b3 f5 50 bd
       -0.19412515 -0.29952455 -0.09537779 -0.051015567
0000f0 92 3a 35 3d 6d 75 97 be 7a 07 e3 bc 2d c6 4f be
       0.04424531 -0.29581776 -0.027713526 -0.20290442
000100 7e b6 97 bd 33 ba ac be c8 f1 92 be 09 06 0a 3e
       -0.074078545 -0.3373581 -0.2870009 0.13478865
000110 b2 16 ac be 8f 04 29 bd 2c 8a 02 be 63 86 b2 be
       -0.33611065 -0.041264113 -0.12748021 -0.34868154
000120 fa cd e6 3d 0e cd f4 3d 35 c7 06 3f 16 e4 36 be
       0.11269756 0.119531736 0.52647716 -0.17860445
000130 b6 11 40 bd 13 78 6b be 60 34 98 bd 0c 44 01 3e
       -0.04689189 -0.22995023 -0.07431865 0.12623614
000140 fd 27 44 3e 18 65 57 3d 77 5a b9 3e 06 2d 15 3e
       0.1915588 0.052586645 0.36201832 0.14567956
000150 5c 09 9b 3d aa 0e 39 3e fd 8f ae 3e 15 bf 95 3e
       0.075701445 0.18072 0.3409423 0.29247347
000160 c0 ee b1 bc bf e2 f5 3b fc 9b 11 3f ba ce ba 3e
       -0.02172029 0.007503837 0.5687864 0.36485845
000170 28 7a cb 3e c3 fd c8 bd 45 fc 61 be 77 95 e0 bd
       0.39741635 -0.09814026 -0.2206889 -0.10966008
000180 a7 97 f1 3d 96 d8 1d 3f cf 4d f0 bd 1b c8 55 be
       0.117965035 0.6165861 -0.11733591 -0.20877115
000190 8b 37 1c be f2 ac 36 3e f8 cd 05 bd 3d 05 6f be
       -0.15255563 0.17839411 -0.03266713 -0.23341842
0001a0 8d 5e ea bd 97 88 83 be f9 9a ce bd 93 ad a8 be
       -0.114438154 -0.25690147 -0.100881524 -0.32944927
0001b0 c5 ed 80 3e a1 a3 6c bd d9 92 24 be 83 51 b1 bd
       0.25181404 -0.057773236 -0.16071643 -0.08658125
0001c0 11 60 73 3e 03 c4 80 be bc 65 f9 3c c7 e6 01 3d
       0.23767115 -0.25149545 0.030444019 0.031714227
0001d0 9c b1 22 3c ee ed 7b 3d db 7f e3 be 7f 59 87 3d
       0.009930041 0.061506204 -0.44433483 0.06608867
0001e0 6d d4 ea be ba 1d 10 3e bf 3b d2 be 30 f9 71 be
       -0.45865193 0.1407384 -0.41061208 -0.23630214
0001f0 42 75 71 bd 9b 46 fe 3c b8 b2 ae bd 3b ac 75 be
       -0.058949716 0.031039527 -0.08530182 -0.23991482
000200 d3 e6 92 bd 08 df c7 bd 3b 25 d4 3e b0 26 a4 3e
       -0.071729325 -0.09759337 0.41434655 0.32060766
000210 15 a6 f9 3e 16 43 33 be 52 c6 b7 3c db 05 ba bd
       0.48759523 -0.1750606 0.022433434 -0.09083148
000220 d2 ee d8 3e 48 ca ab 3e 65 b1 49 be e6 fd 06 be
       0.42369705 0.33552766 -0.19696577 -0.13182792
000230 2a 32 d2 3e c4 73 97 3c 92 d1 ba 3e 83 8c 34 be
       0.41053897 0.018487819 0.36488014 -0.17631726
000240 f2 16 e2 be 3e 58 8e be 85 d9 51 be 54 f1 f3 3d
       -0.4415813 -0.27801698 -0.20493133 0.11911264
000250 a6 b6 18 be 71 b3 cf bd 4a 24 13 bf 86 0d a6 3e
       -0.14913425 -0.101416476 -0.5747725 0.32432193
000260 72 05 bd 3c 65 9a fa bd 07 48 96 bb f7 4e c6 3d
       0.023073886 -0.1223648 -0.004586223 0.0968303
000270 c8 ff 9d bd da a6 71 3e ae d3 11 be 8c fe e4 3e
       -0.07714802 0.23598805 -0.14240906 0.44725454
000280 aa 33 21 3e 58 37 a9 3e 26 bb a9 3d 27 5b 05 be
       0.15742365 0.33050036 0.08287649 -0.13023053
000290 49 91 1a 3e 8f ff 8f 3e 11 b3 bc 3d 06 62 e8 3d
       0.15094484 0.28124663 0.09213842 0.113468215
0002a0 80 23 ed 3d 53 94 a1 be 64 96 bc bd a6 48 c8 bd
       0.11579037 -0.31558475 -0.09208372 -0.097794816
0002b0 7e 89 b6 bd 4a 7c b8 be 12 6d 73 3d 32 07 8e 3d
       -0.08912943 -0.36032325 0.05943019 0.06934966
0002c0 59 72 bf be f6 19 2d 3d 41 cf 3d 3d 3a 4e 2d 3b
       -0.37391928 0.042261086 0.04634023 0.0026444332
0002d0 38 95 27 3d 3e 9c 06 bf 43 6b 5f bb b1 49 4e 3e
       0.04091379 -0.52582157 -0.0034091033 0.20145299
0002e0 36 61 09 bc d8 91 05 3c e6 95 90 be 02 30 35 be
       -0.008384993 0.008152448 -0.28239363 -0.17694095
0002f0 43 ae dc bc c9 6c ea bd 4d 2d 62 3a f8 3c e1 bd
       -0.026938563 -0.1144653 0.0008627966 -0.10997957

encoder.abr_encoder.abr_projection.bias f4 [32]
000000 31 d9 2f b8 8c 5d 41 b8 72 ea e3 37 14 8e 89 38
       -4.1925527e-05 -4.6101908e-05 2.716968e-05 6.559133e-05
000010 06 ac ba 37 aa b0 2b b6 cb b8 65 36 89 10 e7 b7
       2.2253033e-05 -2.5583818e-06 3.4231223e-06 -2.7545046e-05
000020 15 50 78 37 59 aa 99 37 de 6e 96 b6 32 1f a4 b7
       1.48005975e-05 1.8318346e-05 -4.483255e-06 -1.956485e-05
000030 4d 82 2e b8 59 2a bc 37 ea 61 a9 37 f6 e9 e9 37
       -4.1606185e-05 2.2431066e-05 2.0191965e-05 2.7884711e-05
000040 9b 7d 85 36 f3 4e ea 36 37 2d 45 b7 a7 0f aa 37
       3.9783313e-06 6.9829343e-06 -1.1752642e-05 2.0272868e-05
000050 ab 41 20 37 bc 82 8d b8 9f 5b d3 b6 60 74 8f 37
       9.552033e-06 -6.747755e-05 -6.298956e-06 1.710112e-05
000060 18 c8 0f 37 85 f3 14 b8 c9 b8 a8 37 50 62 ea b7
       8.570052e-06 -3.5512745e-05 2.0113208e-05 -2.7940754e-05
000070 cb d1 94 b7 3a 10 d5 b8 f8 c3 41 38 70 4d d8 b7
       -1.7740667e-05 -0.00010159654 4.6197296e-05 -2.5785266e-05

encoder.abr_encoder.abr_norm.weight f4 [32]
000000 b2 6d 58 3f 56 46 4a 3f ea 6d 49 3f 9d 87 3f 3f
       0.8454238 0.79013574 0.7868334 0.74816304
000010 5d 4a 52 3f 26 38 45 3f 6c 71 3f 3f 92 ed 69 3f
       0.8214472 0.770388 0.74782443 0.9137813
000020 2f 3d 3a 3f 5f 80 70 3f ae 60 4b 3f 20 62 65 3f
       0.7274961 0.9394588 0.79444396 0.8960285
000030 a8 0f 4e 3f fa 7f 50 3f 81 e9 48 3f 8c be 51 3f
       0.8049264 0.81445277 0.784813 0.81931376
000040 db 3c 50 3f 55 12 6d 3f c5 f2 42 3f 79 e2 46 3f
       0.8134286 0.926061 0.76151687 0.7768932
000050 35 9d 57 3f 6e 56 3d 3f d6 d2 48 3f c6 ae 40 3f
       0.84224254 0.73960006 0.7844671 0.75266683
000060 d3 9a 77 3f f9 28 42 3f df f8 68 3f 05 98 54 3f
       0.9672062 0.7584377 0.9100475 0.83044463
000070 8f 34 3e 3f 2f e2 4c 3f 3b 27 55 3f 5c 68 65 3f
       0.7429895 0.8003263 0.83262986 0.89612365

encoder.abr_encoder.abr_norm.bias f4 [32]
000000 86 b0 84 be 68 c2 d2 be eb a7 04 bf 2e cb f0 be
       -0.25915927 -0.41163945 -0.5181872 -0.47030014
000010 06 92 90 be df 70 d6 be 23 f4 f8 be d3 23 0b be
       -0.28236407 -0.4188299 -0.48623762 -0.13587885
000020 4a 32 27 be 63 ec b3 bd 4c e5 fb be fe 4e 63 3d
       -0.16327778 -0.087853216 -0.49198377 0.055495255
000030 44 97 65 be f5 7b cf be db 12 3a be 4d db c1 be
       -0.22420985 -0.4052426 -0.18171255 -0.37862626
000040 3d 41 cd be ad d7 e8 bd ff a3 d6 be 5b ac 15 bf
       -0.40088835 -0.11369262 -0.41921994 -0.5846612
000050 49 f9 c1 be 36 d1 c8 be 3f 89 c9 be 9e a6 dc be
       -0.37885502 -0.39222115 -0.39362523 -0.4309587
000060 0a fc ab bd 7b d8 f8 be 51 32 a9 be 3d 27 aa be
       -0.08397682 -0.48602661 -0.330462 -0.3323306
000070 a2 55 be be 2b 04 0d bf 09 29 07 bf 77 38 2a be
       -0.37174708 -0.55084485 -0.5279699 -0.16623102

encoder.abr_encoder.abr_norm.running_mean f4 [32]
000000 bd 8a 37 be ee fd 4b bd 12 a4 28 be 55 cf b7 bc
       -0.17924018 -0.049802713 -0.16468838 -0.02243773
000010 25 07 4b be c8 b7 28 3e 4a 0b 4f 3e c5 9e 73 3e
       -0.19826944 0.16476357 0.2021915 0.23791035
000020 c3 d8 5d 3e 97 8a 7a be 2b 4d 36 be 89 2d 53 be
       0.2166472 -0.2446693 -0.17802875 -0.20622839
000030 96 b3 87 3d 3a 06 28 3e 34 cd 38 3e 7f 1e 3c 3e
       0.0662605 0.16408625 0.18047029 0.18371008
000040 9d 67 a3 3d d5 7f 5c be 42 ca 35 bc ef c3 4b bd
       0.07978747 -0.21533139 -0.011095585 -0.049747404
000050 78 55 54 be 4a c5 43 3d 10 00 50 3e bc 52 83 3d
       -0.20735729 0.04779557 0.20312524 0.06412265
000060 61 09 5b be ec 89 64 bd 8e da 42 3e 03 12 fb 3d
       -0.21390297 -0.055795595 0.19028684 0.12259295
000070 42 a5 2a be 0e 50 0a bd 7e f4 59 bd 0a b1 12 be
       -0.16664603 -0.033767752 -0.05321168 -0.14325348

encoder.abr_encoder.abr_norm.running_var f4 [32]
000000 e4 88 81 3f 87 2f fc 3d fd ef 63 3f fb ad 5c 3d
       1.0119901 0.123137526 0.8903807 0.05387686
000010 4b e4 a1 3f 48 a6 5d 3f aa ec a4 3f 12 c0 ea 3f
       1.2647794 0.8658185 1.2884724 1.8339865
000020 58 8e bb 3f 5c 6e ec 3f 67 4a 82 3f aa 6b aa 3f
       1.4652815 1.8471179 1.0178956 1.3314106
000030 ce b0 35 3e 4d 06 57 3f 09 7a 80 3f 90 d3 8d 3f
       0.17743227 0.8399399 1.0037242 1.1080189
000040 7c 2a 96 3e 66 47 ba 3f d8 7d 19 3d 3e 46 d3 3d
       0.29329288 1.4553039 0.03747353 0.10316132
000050 48 7d aa 3f 10 83 03 3e 6e 13 aa 3f d9 f6 2c 3e
       1.3319483 0.12842965 1.328718 0.1689104
000060 b9 e4 b6 3f ec 56 25 3e 72 37 97 3f 0b 1c f1 3e
       1.4288551 0.1614644 1.1813796 0.47091708
000070 56 ce 66 3f a8 a9 59 3d e2 a8 14 3e bc 06 25 3f
       0.90158594 0.053140312 0.14517549 0.644634

encoder.abr_encoder.attention.q_projection.weight f4 [64, 1]
000000 be 90 92 3e a2 91 26 3e d5 85 17 b9 5c 1d 8c 3d
       0.28626055 0.16266492 -0.00014450338 0.06841537
000010 6c b2 1f 3c 90 33 a9 bd 7a 94 44 3d 08 22 1f 3e
       0.009747129 -0.08261788 0.04799316 0.15540326
000020 bd f0 4c 38 f4 9e 51 3e f4 13 3b 3d 39 3f 2d be
       4.8861595e-05 0.20470792 0.045673326 -0.16918649
000030 e5 e6 e2 3d df 3d 13 3d c0 52 17 3e da 65 5a be
       0.11079196 0.035947677 0.1477766 -0.21327916
000040 32 d4 87 be 2f 76 bc bd c1 96 92 b9 e3 c9 15 be
       -0.2652908 -0.09202229 -0.0002795961 -0.14627795
000050 bc 8a 01 bd 89 9b 49 be b4 83 51 be a9 97 82 3d
       -0.031626448 -0.19688238 -0.20460397 0.06376583
000060 97 a6 a4 3d 87 4e f7 3a 57 20 0d 3e e8 97 a8 bc
       0.08039587 0.0018868007 0.13781868 -0.020580247
000070 7e aa d8 3c ed 53 8f 3a c1 ae 35 3d 4e 3d 69 3d
       0.026448485 0.0010935046 0.04435611 0.05694323
000080 11 42 06 39 e2 b7 6d 3c ee 58 a4 3d 1b 13 1c 3e
       0.00012803847 0.014509173 0.080247745 0.15241663
000090 48 fd 52 be ba ff bb bc ab 74 fc bd cb f1 99 be
       -0.20604432 -0.022949088 -0.1232694 -0.30067286
0000a0 4b 9a 96 be bb a8 e6 3d 40 74 74 be 3a ff 51 be
       -0.2941459 0.112626515 -0.23872471 -0.20507517
0000b0 1e f6 45 bd 87 85 ab bd b4 53 f7 3c 4f 4a 23 be
       -0.04833042 -0.08375078 0.03019128 -0.15946315
0000c0 de 6a fd bd 3f 26 20 bd 27 63 0e 3d 8c e2 57 36
       -0.12373899 -0.039098974 0.034762528 3.2169364e-06
0000d0 03 35 fa bc f6 df 19 be 9e d1 82 bd ed cd 82 3a
       -0.030542856 -0.1502684 -0.063876376 0.0009979584
0000e0 9b c4 03 be 89 2c bf bc 83 7e 17 be 07 64 8c 3d
       -0.12867968 -0.023336666 -0.14794354 0.06855016
0000f0 6b 58 11 be e4 75 99 3a 19 08 78 be ff c7 90 3b
       -0.14193885 0.0011708108 -0.24221839 0.0044183726

encoder.abr_encoder.attention.q_projection.bias f4 [64]
000000 3f 3a af 3c dc ff fc bc 17 10 86 39 86 ab f6 bc
       0.021390079 -0.030883722 0.0002557046 -0.030111086
000010 01 14 c0 bc d4 19 f9 3c 3c 66 f1 bc 3c 96 bd 3c
       -0.023447039 0.030407824 -0.029467694 0.023142926
000020 44 b4 98 b8 12 db d2 3c 96 0d eb bc 35 69 d0 bc
       -7.281502e-05 0.025739226 -0.028693002 -0.025440792
000030 e8 28 bc 3c b7 bd cc bc b9 40 00 bd 69 34 ba bc
       0.022968724 -0.024992807 -0.031311724 -0.02273007
000040 79 31 4d bc 4e d1 b1 3c b9 16 dd 3a d9 f7 68 3c
       -0.012524002 0.02170625 0.0016867734 0.014219248
000050 e8 76 aa 3c 6c 8d e3 bb 26 d3 ec bb cf 69 af bc
       0.020808652 -0.006944349 -0.0072273193 -0.021412758
000060 48 61 bc bc fe 09 01 bc 2f 65 bf bc 5b e7 a4 3c
       -0.022995606 -0.0078759175 -0.023363678 0.02012985
000070 bc d5 1d 3b 95 4b 84 bb d7 e8 df bc 57 9e ae bc
       0.0024083694 -0.0040373304 -0.027332706 -0.021315737
000080 9a 4e 52 b9 94 b3 0a bc 83 51 77 bd 66 b4 46 3d
       -0.00020056442 -0.008465666 -0.06038047 0.048511885
000090 97 14 80 3d d0 53 67 3d 10 91 88 bc 96 e9 37 bd
       0.06253927 0.056476414 -0.016670734 -0.0449005
0000a0 5b 86 4a bd 57 aa 7b bd 88 fa 48 bd 0c 64 20 bd
       -0.049444538 -0.061441746 -0.04906705 -0.039157912
0000b0 45 7f 73 3d 5f c0 3f bd 81 0f 43 bd 61 94 83 3d
       0.059447546 -0.04681432 -0.047622208 0.064247854
0000c0 34 c6 87 3c 45 c2 c5 bb d6 d5 ba bc 1b 9a ae 38
       0.016574003 -0.0060351216 -0.022807043 8.325671e-05
0000d0 01 9c 39 bb 71 2a 83 3c 0f ef 91 3c 8a 97 86 bb
       -0.0028321745 0.016011449 0.017814187 -0.0041074203
0000e0 1c 69 6e 3c 12 66 aa 3c aa f9 03 bc 45 cb 9d bc
       0.014551427 0.020800624 -0.00805513 -0.019261966
0000f0 05 d8 00 bc dc 55 8b bb f0 bc 07 bc f7 9d f2 bb
       -0.007864003 -0.0042521786 -0.008284792 -0.007404085

encoder.abr_encoder.attention.k_projection.weight f4 [64, 1]
000000 c1 96 09 3e 24 f2 22 be 5b 11 59 39 6c 17 c3 bd
       0.13436414 -0.15912682 0.00020701198 -0.09525952
000010 65 a2 ca bc 59 a1 87 3d 63 f7 a0 bd 8a 21 32 3e
       -0.024735639 0.066225715 -0.07859685 0.17395607
000020 c2 8f 10 b9 fe 13 8d 3e e9 2d 0d bd 08 36 87 be
       -0.00013786464 0.27554315 -0.03446761 -0.2640841
000030 e2 af 35 3e 9c 5a e2 bb 60 b2 6f bd 51 dc 23 be
       0.17742875 -0.006907774 -0.05851972 -0.16002013
000040 8d aa 86 3e b9 f4 28 be b7 ad 49 3a a4 b1 37 3d
       0.26301995 -0.16499604 0.0007693427 0.044847146
000050 90 e9 f6 bc 4f 23 1c 3e 58 f3 1f 3e 1a d5 f3 3d
       -0.030140668 0.15247844 0.15620172 0.1190588
000060 25 e1 14 3d 26 e7 49 37 ba 6d 53 3d 68 8a 40 bc
       0.036347527 1.2034352e-05 0.051618315 -0.011751749
000070 72 4a ab bd 2f dd 2e b6 f1 cc 2f 3b f4 1b cd 3d
       -0.08363809 -2.6056766e-06 0.0026825035 0.10015097
000080 77 02 cd b7 fe 0a 40 3b 6e eb be bc fc 0f 88 3e
       -2.4439052e-05 0.0029303427 -0.023305621 0.26574695
000090 2d b5 35 3e f6 4c fc 3d ff 71 58 bd 91 bf 46 be
       0.17744894 0.12319367 -0.05284309 -0.19409014
0000a0 a7 f6 91 be f2 3c 41 be 2e 48 8d be b5 8e 0b be
       -0.28508493 -0.18870905 -0.2759413 -0.13628657
0000b0 4d 2d dd 3d 58 0f 72 be 3a 95 07 bc 74 f7 29 3d
       0.10799656 -0.23638666 -0.0082753245 0.041495755
0000c0 5f 95 f5 3d c2 e9 ca bc 42 24 bb bc 37 d9 df 37
       0.11991381 -0.024769668 -0.022844438 2.668482e-05
0000d0 2b cd 64 bd b7 eb 08 3e 79 e1 d0 3d 06 33 9b 37
       -0.055859726 0.13371168 0.101992555 1.85012e-05
0000e0 ec 6e 37 3e 47 f0 06 3d 2c e7 52 be 62 1c 96 bd
       0.17913407 0.03294399 -0.20595998 -0.07329632
0000f0 b1 3a 3a be 4a 36 95 38 22 b4 59 be e9 3e 3a 3a
       -0.18186451 7.114986e-05 -0.21260121 0.0007104711

encoder.abr_encoder.attention.k_projection.bias f4 [64]
000000 46 1a ce b5 08 f2 50 b6 2f 64 63 af 64 1f b1 34
       -1.5355843e-06 -3.1135296e-06 -2.0681122e-10 3.299166e-07
000010 cd 0b 06 33 cb 70 84 33 bb a9 c4 34 89 11 a0 b5
       3.121004e-08 6.167246e-08 3.663134e-07 -1.1926032e-06
000020 d0 19 5e 2d d7 ca c2 b5 5e 6a ab b4 1f 6c 49 36
       1.26249705e-11 -1.451316e-06 -3.1928624e-07 3.0014269e-06
000030 59 86 9a b5 52 7e 98 33 02 04 35 35 bd aa ab 36
       -1.1512994e-06 7.101029e-08 6.7433587e-07 5.1160737e-06
000040 7d dc 6d b6 0e db b9 b4 80 68 59 b2 16 e6 8b b5
       -3.5444093e-06 -3.4618319e-07 -1.2654823e-08 -1.0423271e-06
000050 01 41 7a b5 44 1a 8f b6 59 f3 e3 35 79 4e d4 b3
       -9.322685e-07 -4.26479e-06 1.6983641e-06 -9.8862934e-08
000060 19 de 0b 36 a8 42 24 b4 07 fa 0a 36 f5 31 20 b5
       2.0841892e-06 -1.529794e-07 2.0709138e-06 -5.967734e-07
000070 76 86 1a 35 02 78 a6 32 2e b8 ad 34 53 3f e4 34
       5.7565137e-07 1.9379517e-08 3.235777e-07 4.2514384e-07
000080 db b0 42 b1 89 c7 5c b2 5f 49 b4 35 fb 00 47 34
       -2.8331246e-09 -1.2851054e-08 1.3432399e-06 1.8533676e-07
000090 09 98 37 b5 b8 b1 7f 34 02 f5 6b b6 79 d2 22 b6
       -6.839405e-07 2.381338e-07 -3.5160342e-06 -2.4262392e-06
0000a0 d5 11 4e 33 22 89 f4 b5 f7 f5 8e b6 ac a5 a3 33
       4.797933e-08 -1.8219328e-06 -4.260564e-06 7.6204145e-08
0000b0 73 a5 87 b5 0b a0 b5 b5 0c ab 40 b2 b8 d1 e9 b5
       -1.0106436e-06 -1.353213e-06 -1.12147625e-08 -1.7420889e-06
0000c0 5c 76 35 b5 b6 18 62 b5 87 aa 6b 35 47 a5 b5 30
       -6.759999e-07 -8.422752e-07 8.779247e-07 1.3216458e-09
0000d0 ea 41 7b b5 87 cb 4e b4 85 9a da b4 0c 49 b5 b2
       -9.3600704e-07 -1.9259288e-07 -4.0718092e-07 -2.1104391e-08
0000e0 f0 5a f5 b5 15 d6 45 b4 b0 aa a7 b6 b7 35 3c 35
       -1.8280389e-06 -1.8424937e-07 -4.9968585e-06 7.0113623e-07
0000f0 6d 77 f0 b5 95 d1 42 b1 52 bb de b6 8a 32 63 33
       -1.7916151e-06 -2.834985e-09 -6.6379225e-06 5.289852e-08

encoder.abr_encoder.attention.v_projection.weight f4 [64, 1]
000000 c0 78 28 be 96 96 3a 3e cf 3e e9 bd 5f 45 4d bc
       -0.16452312 0.18221506 -0.11388933 -0.012528746
000010 27 a0 0a be 12 b5 05 3e dd 3f ed bd c9 51 94 3b
       -0.13537656 0.13057354 -0.115844466 0.004526351
000020 3b 06 2a 3d 59 18 26 be 9f 22 3f 3b 10 15 52 3e
       0.041509848 -0.16220225 0.0029164923 0.20515847
000030 32 7e 48 be b8 92 91 3e a7 ce 9c 3c 1f dc 36 3e
       -0.1957939 0.2843225 0.019141508 0.17857407
000040 66 23 fc bd 66 99 87 3e a6 3f f5 bd e2 1f 36 be
       -0.12311439 0.2648422 -0.119750306 -0.177856
000050 9e 6b 84 3e 29 bb 65 be d0 18 92 3e 23 4e bd bb
       0.25863355 -0.22434677 0.28534555 -0.005777137
000060 13 17 e7 bc e1 a2 a3 3e 2e af 8c 3e e8 8a bf 3c
       -0.028209245 0.31960204 0.27477401 0.023381665
000070 91 da a4 be b3 b2 68 bc 53 86 03 3c 8f 34 69 3d
       -0.32198003 -0.014202761 0.008027631 0.05693489
000080 0b 6a 75 bb ca 6b 97 ba 2d 31 b9 be 07 5b 37 be
       -0.003744724 -0.0011552509 -0.3617033 -0.17905818
000090 d9 14 86 3d fb 9a 97 be 50 65 97 3d a7 47 8a be
       0.06546945 -0.29610428 0.07392371 -0.2700779
0000a0 98 f1 81 bd cd 79 0f 3b 7c e5 37 3c 38 1b 08 3c
       -0.063449085 0.0021892667 0.011224147 0.008307271
0000b0 35 a5 29 3c 00 b9 1f bb 17 13 36 3e c0 8d db 3d
       0.01035433 -0.0024371743 0.1778072 0.10720396
0000c0 17 02 3b 3b 81 e3 77 3e de 19 a2 3e ae 51 82 3e
       0.0028535181 0.2420788 0.3166036 0.25452942
0000d0 73 01 58 3d 52 e0 17 be e1 4b a6 3d 88 89 8a bb
       0.052735757 -0.14831665 0.081199415 -0.004227821
0000e0 dd a9 54 3e 11 a8 bf 3e 62 df a6 3b b3 2c 22 bd
       0.20767923 0.37432912 0.0050925473 -0.03959341
0000f0 63 7c 81 39 ba a9 97 3b b7 06 74 3e 93 15 72 bb
       0.00024697473 0.0046283873 0.23830687 -0.0036939129

encoder.abr_encoder.attention.v_projection.bias f4 [64]
000000 79 e4 dd 3c 29 ad 1d 3d f7 d2 97 3c 31 46 09 bc
       0.027086483 0.038495217 0.018533213 -0.008378551
000010 15 e9 14 bd 06 ae 17 3d 2e 00 0b bd 02 cf 0e 3b
       -0.036355097 0.037031196 -0.03393572 0.0021790867
000020 0a 4a e2 3c c3 ee 18 bd f8 30 c7 3a 70 3a 1f 3d
       0.027623195 -0.037337076 0.0015197089 0.03887409
000030 a0 4a 1e bd 27 2d 23 3d 88 8f 25 3c 2a e2 1c 3d
       -0.038645387 0.039837983 0.010105021 0.038301624
000040 b1 61 23 bd fd 77 38 3d 9b 20 11 3d 3a e9 2e bd
       -0.039888088 0.045036305 0.035431486 -0.04270289
000050 ac 43 38 3d df bb 35 bd ad fb 39 3d 3c f7 f6 bb
       0.044986412 -0.04436862 0.045406032 -0.007536797
000060 db 7e db bc af ec 3b 3d 70 30 39 3d ef a1 43 bc
       -0.026793888 0.045880016 0.04521221 -0.011940463
000070 23 be 3a bd b0 40 e0 bc 2c ec f0 3b 56 4b fb 3c
       -0.045591485 -0.027374595 0.0073523726 0.030675571
000080 3e 7d e0 3a f4 60 9c 3a 14 29 50 bd 70 68 48 bd
       0.0017127169 0.001193075 -0.050820425 -0.048927724
000090 36 d2 80 bb ae 76 4e bd e6 85 24 3d d8 f7 5b bd
       -0.003931309 -0.05040615 0.040166758 -0.05370316
0000a0 a3 f1 18 bd b9 7e 48 ba 23 72 ae bb b7 c0 dc 3b
       -0.037339818 -0.00076482777 -0.0053236648 0.0067368406
0000b0 7f f6 05 bb 18 74 e7 b9 86 04 57 3d 56 e0 3a 3d
       -0.0020441113 -0.0004414625 0.05249455 0.0456241
0000c0 64 44 87 3b b9 ac 1a 3d a0 44 39 3d e1 69 19 3d
       0.004128026 0.037762377 0.04523146 0.03745449
0000d0 c2 4c 61 3c b7 65 12 bd 5b f7 a5 bc 15 6d cf 3b
       0.013751211 -0.035741534 -0.02025955 0.0063301423
0000e0 77 42 2b 3d 55 7c 13 3d e9 37 f0 ba 59 df c7 3c
       0.041811433 0.036007244 -0.0018327209 0.024398493
0000f0 b3 61 6a 38 f0 1d e1 ba 4a 72 27 3d 05 fe 17 ba
       5.5880937e-05 -0.001717506 0.04088048 -0.0005798045

encoder.abr_encoder.attention.output_projection.weight f4 [1, 64]
000000 22 a3 f5 3d 4a 1b 53 3e 23 c9 7b 3d 11 2b 69 39
       0.11994006 0.20615879 0.061471116 0.00022236655
000010 84 4e c5 bd 9c fa 3f 3e d1 6b 34 bd fa f8 d8 b9
       -0.09634116 0.18747944 -0.044048134 -0.00041384232
000020 97 17 c7 3d fa b9 9c bd ea b9 5f ba a4 19 0a 3e
       0.09721296 -0.0765266 -0.0008534478 0.13486344
000030 d6 30 f7 bd 59 bf 5a 3e e1 51 d1 ba 06 e3 1f 3e
       -0.120698616 0.21362056 -0.0015969836 0.15613946
000040 76 fc 2f be ab 37 20 3e 0c a4 02 3e ea f2 25 be
       -0.1718615 0.15646236 0.12757891 -0.16205946
000050 e8 62 a4 3e c8 2d 65 be 4f f3 18 3e 70 ce 41 bb
       0.3210671 -0.22380745 0.14936565 -0.002957251
000060 3e 8c 4e bc c0 ec 28 3e 7a 6b 0d 3e 9b fd 7a bc
       -0.0126066785 0.16496563 0.1381053 -0.015319253
000070 c7 79 98 be 43 53 90 bd eb 76 5f bb 3f 08 a9 3c
       -0.2978041 -0.07047131 -0.003409798 0.020633815
000080 70 b2 24 3b c9 3d 8e 3a c4 93 9f be e1 91 95 be
       0.002513077 0.0010852154 -0.31167424 -0.2921286
000090 29 e7 ce bb 3c b3 9f be eb a8 aa 3d 36 99 18 be
       -0.0063141775 -0.31191432 0.08333 -0.14902195
0000a0 6a e4 82 bd 60 1b ba ba 42 a3 16 bc 6b bf bb 3b
       -0.06391223 -0.0014198832 -0.009194197 0.005729606
0000b0 60 e4 a2 bb 04 62 a5 b8 b6 e8 e0 3d 4d 54 51 3e
       -0.004971072 -7.88607e-05 0.10981886 0.20442314
0000c0 9d 8e 23 3b 92 40 41 3e 4b 07 ce 3d 31 b8 54 3e
       0.002495683 0.18872288 0.10059985 0.20773388
0000d0 40 59 a9 3c c9 98 3a be ca c9 ea bc ac 46 b9 3b
       0.02067244 -0.18222345 -0.028660674 0.0056541767
0000e0 c0 15 d0 3d 42 93 c1 3e 3f 37 06 3b ef d1 ae 3d
       0.101603985 0.3780766 0.0020479707 0.085361354
0000f0 8a 6b de 38 b0 69 03 3b 4c 47 f9 3d 52 7a de ba
       0.000106058156 0.0020052008 0.12171802 -0.001697371

encoder.metadata_encoder.metadata_projection.weight f4 [48, 12]
000000 dd 5d 8a 3d a2 cd 7e bd 92 fa 82 bc 6c 54 4f 3d
       0.06756184 -0.062207825 -0.015988622 0.05061762
000010 f0 09 90 be 47 74 c8 be a0 1f b0 be ef c1 83 ba
       -0.28132582 -0.39151213 -0.34399128 -0.0010052304
000020 8d 80 93 29 dd 1a e2 3d 5c 6a c2 3e e7 e4 e0 3d
       6.5504114e-14 0.1104028 0.3797177 0.1098116
000030 72 d7 6c 3c 30 66 a6 38 5b 30 cd 3d d0 de b3 3d
       0.014455663 7.934531e-05 0.10018989 0.087827325
000040 ed 92 a3 3d a8 ed 9b 3d 21 d8 ed 3d 30 9d 87 39
       0.07987008 0.07613689 0.11613489 0.0002586632
000050 ec 1b 25 3e b5 50 ff 3d a8 ef 98 be c5 8f 15 bc
       0.16123933 0.124665655 -0.29870343 -0.009128516
000060 57 e6 a5 bd 3f 4d b9 bc 1c 48 89 3d be 99 22 3e
       -0.081005745 -0.022619842 0.06703207 0.1587896
000070 90 c0 d2 bc a5 58 1b 3e b7 1d 0d 3e 77 45 1d bd
       -0.025726587 0.15170534 0.13780867 -0.038396325
000080 7b 1c e1 bc 62 a6 89 be 77 33 7e be 67 5f 6c 3d
       -0.0274794 -0.26884753 -0.2482432 0.05770817
000090 c4 57 5c bc 33 25 72 bc 32 5c 5c 3e 06 2a 95 3e
       -0.013448659 -0.014779377 0.21519545 0.29133624
0000a0 23 f5 14 bd c5 9d 11 3e 73 32 f3 3d 5a 15 2b 3d
       -0.036366593 0.1422034 0.11874857 0.04176841
0000b0 5d 5a b5 3c 06 25 d1 3d 87 e3 8c be b1 cc 5b 3d
       0.022137815 0.1021214 -0.2751734 0.053662006
0000c0 dd e2 f7 bc 47 b3 3f 3c 90 0b 9f be 66 7b 8e be
       -0.030259544 0.011700458 -0.3106351 -0.2782852
0000d0 be 9b 66 be 68 26 9d be 27 0e 99 be 1a cf 4b bd
       -0.22520348 -0.30693364 -0.2989361 -0.049758054
0000e0 94 5c 64 3c 32 0d aa 3d c4 60 e4 be 55 9c 0b 3c
       0.013938088 0.08303298 -0.44605076 0.008521159
0000f0 a7 b4 03 3c 58 d6 1d b9 52 04 28 3e d1 44 99 3d
       0.008038676 -0.00015052536 0.16407898 0.07483829
000100 b9 a0 7b bd 31 10 92 3d c2 32 9f 3d de 25 f8 bb
       -0.061432574 0.071319945 0.07773353 -0.0075728735
000110 b6 9f 37 be aa e0 82 bc 31 8f d7 3e 7f 63 11 3d
       -0.17932019 -0.015976269 0.42101434 0.035495277
000120 54 53 86 bd fb bc b7 bc ac 27 c2 be 58 a2 62 be
       -0.06558862 -0.02242898 -0.37920892 -0.22132242
000130 c0 5d 17 be 8b e3 2e be 16 d6 f3 be 2c 5c df 3c
       -0.14781857 -0.17078988 -0.47624272 0.02726563
000140 af c4 39 b4 ce a8 28 3e c8 ad cd 3e 09 36 14 3e
       -1.730102e-07 0.16470644 0.40171647 0.14473738
000150 70 f3 3a bd 36 ec 1e 3c 6b 6f 37 be 21 8d 32 3c
       -0.045642316 0.009699872 -0.17913596 0.010897906
000160 3b 83 bc be 81 d0 96 be a8 12 5c be ca 90 dc ba
       -0.3681887 -0.2945595 -0.21491492 -0.0016827818
000170 81 89 c5 bc 56 b4 dd 3c 54 e9 85 3e ea 67 a1 3b
       -0.024113419 0.02706353 0.26154578 0.0049257176
000180 47 22 fc 3c b0 58 5d bb e3 ed 23 bd 1d 09 91 3d
       0.030778063 -0.0033774786 -0.04002179 0.07081816
000190 4a 40 8e 3d d6 2f 48 be cd 3a 7a bd ee e9 09 bc
       0.06945856 -0.19549498 -0.061091233 -0.00841759
0001a0 86 00 be bd 13 c4 63 3d d1 3a fa 3e c5 31 24 3d
       -0.092774436 0.055606913 0.48872998 0.040086526
0001b0 f5 07 ac bb 4a 36 2e 3c 9d b1 79 3e 9d a5 74 3c
       -0.005249972 0.010633061 0.2438416 0.014932063
0001c0 55 a5 30 3e 16 c5 3e be aa 2e 6e be 30 28 64 bc
       0.17250569 -0.1862987 -0.23259988 -0.013925597
0001d0 90 5e 23 3e 44 92 bb 3b d8 96 a9 be af 7e 93 bc
       0.15954041 0.0057242233 -0.33122897 -0.018004743
0001e0 d8 7a 83 bd e9 be fc 3c 68 d7 89 3d a3 e1 3b be
       -0.06419915 0.030852752 0.067305386 -0.18347792
0001f0 a0 95 dc 3b 23 73 dc bd b4 71 23 be 21 cb a3 3d
       0.006731704 -0.10764148 -0.15961343 0.07997728
000200 ee b7 15 be df 85 38 be 7d e3 ba 3e 8a 01 45 bd
       -0.14620945 -0.18019818 0.36501685 -0.04809717
000210 cb a3 39 3d 20 1e 97 bc f4 1b 56 be b5 b0 5d be
       0.04532222 -0.018446982 -0.20909101 -0.2164944
000220 8b 24 10 be fc 67 1f 3e 9a 65 e7 3d 61 a2 2c 3d
       -0.1407644 0.1556701 0.11298676 0.042147044
000230 98 2c 09 bd e6 74 4d 3e 72 fa c9 3e 22 5a 70 3c
       -0.033489794 0.20064124 0.39448887 0.014669927
000240 a8 95 09 bd 9e 15 01 3d 53 fd 3d 3e 21 c1 0b 3e
       -0.03358999 0.031514756 0.18553667 0.13647892
000250 32 32 01 be 5b 1d 20 3d 84 99 9c 3d a9 4b ac bb
       -0.12616804 0.039090496 0.07646468 -0.005258043
000260 d9 6e 21 bc a0 24 ae bd db 9a 8a be ed b2 53 3d
       -0.009853088 -0.085030794 -0.2707127 0.05168431
000270 0c 35 05 3c b1 4f 34 3d 60 47 2f be 00 83 80 be
       0.008130323 0.044021312 -0.17117071 -0.25099945
000280 de 1e bb be 1f 7e 2d be b8 51 37 be 69 a9 91 3d
       -0.36546987 -0.16942643 -0.17902267 0.071123905
000290 79 be 29 bd 8a 42 1d 3e c7 2e ba 3e 01 41 d5 3c
       -0.041441415 0.15357414 0.36363813 0.026031973
0002a0 b5 c7 b8 bb c3 62 18 bd 84 6e b4 3b 0c 47 d5 3d
       -0.0056390413 -0.03720356 0.0055063386 0.10413942
0002b0 04 cf c5 3c 9b 6c e8 bd 68 dd c4 bd 8a 2f 69 bd
       0.024146564 -0.1134884 -0.096125424 -0.056930102
0002c0 9e b0 37 3e ba be 24 3e 71 41 11 bf ec e9 98 bd
       0.17938468 0.16088381 -0.5674048 -0.07466492
0002d0 c7 0d 90 bc 34 cb aa bd a7 72 f3 be 56 9d 95 be
       -0.017584695 -0.08339539 -0.4754841 -0.292216
0002e0 ee ea 0d bd 95 cb bb bd f0 7f 86 be 6b f2 e6 bb
       -0.034647875 -0.091696896 -0.26269484 -0.0070479414
0002f0 f5 c8 ca 3a 78 70 1e be d0 33 aa 3e 79 0c 5b 3d
       0.0015471267 -0.15472591 0.33242655 0.05347869
000300 ab 09 c0 bd ff 2f 80 3d 85 11 25 be 46 22 ef bd
       -0.09376844 0.062591545 -0.16119964 -0.11676459
000310 17 2d 40 be d7 5c 3b be 7e 86 4d be f0 af 12 3c
       -0.187672 -0.18297134 -0.20070836 0.00895308
000320 b8 a5 2a 3b fa 42 c6 bd e7 b1 d3 3e 6c ed 64 3e
       0.0026038717 -0.096807435 0.41346666 0.22356194
000330 48 a3 ae 3c da 0c c8 3c 68 00 10 be 6f 9b 84 be
       0.021318093 0.02442019 -0.14062655 -0.25899836
000340 8c b6 dd bd 71 0f 5d be 34 e5 02 be 52 bd 19 3d
       -0.10825834 -0.21587922 -0.12782747 0.037534066
000350 0a fa 21 38 dd 8a d4 bc fb ba 98 3e 10 22 ed 3d
       3.861826e-05 -0.025945121 0.29830155 0.115787625
000360 9f 67 41 3d a8 88 68 bb 0c 8b 64 3e e4 65 6c 3e
       0.04721796 -0.0035481844 0.22318667 0.23085743
000370 dd f3 5f be e0 a3 81 be 55 33 81 be 5c 74 d3 3c
       -0.2187037 -0.2532034 -0.25234476 0.02581232
000380 94 ac db 3c db 32 85 3b 1d 5b b3 3e 2f 91 db 3c
       0.02681569 0.0040649003 0.3503045 0.026802627
000390 b3 82 00 bd 47 af 9d 3d da d7 48 be e6 a4 8f be
       -0.031374644 0.07699447 -0.19613591 -0.28055495
0003a0 f8 16 4a be e0 71 d1 bd a8 93 5f 3d 8f b6 fa 3c
       -0.19735324 -0.10226798 0.054584175 0.030604629
0003b0 82 ee 09 bd ed 7d 64 be 91 41 ce 3e e8 14 28 bd
       -0.033674724 -0.22313662 0.40284398 -0.041035563
0003c0 f9 04 b3 bc d4 e3 a7 3d 5f d0 5d bd e5 c1 b3 be
       -0.021852957 0.08197752 -0.054153796 -0.35108867
0003d0 51 8b 2a be 0b 30 a2 be 18 b8 42 be fd 40 0f 3d
       -0.16654707 -0.3167728 -0.19015539 0.034974087
0003e0 7b 99 e1 bc f2 c0 e1 3d 55 d6 a6 3e 58 e9 18 3e
       -0.027539006 0.110231295 0.32585397 0.14932764
0003f0 93 af 04 ba 72 77 a6 3d 3e 3f ca bd 25 c7 18 be
       -0.0005061563 0.08128251 -0.09875344 -0.14919718

encoder.metadata_encoder.metadata_projection.bias f4 [48]
000000 21 15 97 be 42 54 8c bd dc db 06 3d 73 e5 da bc
       -0.29508308 -0.068520084 0.032924518 -0.026720738
000010 2d 38 30 be 62 5e 4c be 7e 60 e7 be 69 bc 1e be
       -0.1720893 -0.19957879 -0.45190805 -0.1550156
000020 ca 29 4f be 58 2d 7a 3c 06 35 2c be 5e 34 32 be
       -0.20230785 0.0152696 -0.16817102 -0.17402789
000030 bd 4c 04 be c2 c3 53 be 98 3a 1c 3c f2 ac 7b be
       -0.12919898 -0.20680144 0.009535454 -0.24577692
000040 04 be b3 be da a6 af be 1d 7a e0 bd b9 63 1d be
       -0.35105908 -0.34306985 -0.10960791 -0.15370072
000050 02 03 ea be e0 b4 d5 bd 0b 13 91 be 28 38 94 3c
       -0.4570542 -0.1043489 -0.2833484 0.018093184
000060 92 65 d0 bd 54 0f bc be b3 e6 42 bd 0f 90 94 be
       -0.10175623 -0.36730444 -0.047583293 -0.29016158
000070 0e e8 89 be c4 07 d9 bd d8 46 77 be 97 5e 76 be
       -0.26934856 -0.10597184 -0.24148118 -0.2405952
000080 39 2d 5b be 8a 1b e8 bd d0 9e c1 bd 86 e2 23 3d
       -0.2140397 -0.11333378 -0.09454119 0.04001095
000090 e4 b0 b3 be 19 29 13 bd 6a 1d 1c be 66 de 0e be
       -0.35095894 -0.035927866 -0.15245596 -0.13952026
0000a0 bd 30 31 be fc 94 04 be 85 4e aa bd c2 01 81 be
       -0.17303748 -0.12947458 -0.08315758 -0.25196654
0000b0 bb 23 4d bc d3 ea a2 be ff 1f 45 bd 9c c0 02 be
       -0.012520726 -0.31819782 -0.048126217 -0.12768787

encoder.encoder_layers.0.0.weight f4 [128, 80]
000000 42 ea 8f bd 0b 43 84 bb 2d fb 2e bc af e7 80 bc
       -0.07027103 -0.0040363125 -0.010680002 -0.015735475
000010 72 35 0f 3e d8 44 94 ba ee 9e 68 bd 9e 26 01 bd
       0.13985232 -0.0011312021 -0.056792192 -0.03153097
000020 45 91 81 3b fa 5c a4 bd 1b 9f 47 bd 22 e9 51 bd
       0.003954085 -0.08025546 -0.04873572 -0.051247723
000030 0e af 11 3e 66 a2 5c 3e 5b 39 5c bd d5 6f 32 3e
       0.14226934 0.21546325 -0.053765636 0.17425473
000040 31 fb e6 bb b1 ad 25 bd b6 73 1e bd 32 2b 23 bd
       -0.0070489873 -0.04044885 -0.03868457 -0.039836116
000050 66 64 89 bd f2 82 25 bd 16 0d 36 3c 66 69 8c 3d
       -0.067086026 -0.040408082 0.011111518 0.06856041
000060 1f e8 99 bd 09 0f 54 bd 94 49 2f 3e 84 90 9b bc
       -0.07514977 -0.05177215 0.17117912 -0.018989809
000070 e6 a5 7a bd 03 db 61 3c 2b 38 51 3e ac ca c5 3b
       -0.06119337 0.013785127 0.20431583 0.0060361233
000080 ad c9 43 bc e1 9a 6c be ed 45 f2 bd f5 65 67 bd
       -0.011949939 -0.23105957 -0.118297435 -0.05649372
000090 70 83 cb bd a3 23 5e 3c 7b cc 64 3d 30 9f 93 3d
       -0.09937179 0.013558301 0.05585907 0.07208097
0000a0 c8 87 e3 3d e3 59 04 be b4 e0 50 3e df 34 2c 3e
       0.111098826 -0.12924914 0.20398217 0.16817044
0000b0 10 4f 77 be e0 f0 50 3e 31 54 f8 bd 36 be 02 3e
       -0.24151254 0.20404387 -0.12125433 0.12767872
0000c0 c6 e9 76 3d 35 bd 4c 3e 5d 5c 94 3d 3b 90 70 3e
       0.060281537 0.19994052 0.072441794 0.2349252
0000d0 5c c4 68 3d 4f 28 e0 bd ef a0 44 3e 9a 3a b8 bc
       0.056827888 -0.10945188 0.19202016 -0.02248888
0000e0 45 15 ce bc 3d 36 1b 3e f9 b2 90 bd b3 b1 36 3e
       -0.025156626 0.15157409 -0.07065386 0.17841224
0000f0 91 36 a9 bd 7f 17 a2 3c 1d a8 42 3e 7a c6 2f 3b
       -0.08262361 0.019786594 0.19009443 0.0026821182
000100 2f 2a 19 3e e9 07 06 3d 4e 05 5a bd 47 cd 50 be
       0.14957498 0.032722387 -0.053227715 -0.20390807
000110 85 70 37 3d e1 95 1d bd 30 ac 33 bd 1f 19 20 3e
       0.04478504 -0.038473014 -0.043865383 0.15634583
000120 dc 46 fb 3d 86 07 75 3e dc e8 15 bd f0 a6 a8 3d
       0.12269375 0.23928651 -0.036599025 0.08234966
000130 72 c7 7a be a6 67 01 3e 1b e0 35 be 7c 6b c6 3d
       -0.24490145 0.12637195 -0.1776127 0.0968847
000140 d6 c7 e8 bc 3b 37 14 3e dd e8 64 3d ce 98 34 3e
       -0.028415602 0.14474194 0.05588614 0.17636415
000150 2f 27 c8 3d 67 85 f3 bd d7 47 53 bd 4e 48 60 bd
       0.09773099 -0.11890679 -0.051582184 -0.054756455
000160 d1 93 e6 bd be 01 49 3e 1b 93 0d 3d 47 f0 41 3e
       -0.112586625 0.19629571 0.03456412 0.18939315
000170 5c c1 7b bc 55 c2 9a 3d 0a 0c 8d 3d 13 3a 5b 3d
       -0.015365925 0.07556597 0.06887062 0.05352218
000180 53 2a 06 be 55 f5 3d 3e f3 bf 0e 3b 8f dc 93 3d
       -0.13102083 0.18550618 0.002178189 0.072198026
000190 c6 14 a8 bd 69 98 d5 bd a3 8a 23 3d 4b 30 c4 3d
       -0.08207087 -0.104294606 0.039927136 0.09579524
0001a0 16 e9 f1 3d 36 96 70 bd 58 7f bd bd da e5 0b be
       0.11812036 -0.058737002 -0.092528045 -0.136619
0001b0 0d 06 33 bd 8b 1b ab 3d 1a df 05 3d 8c 6c 51 3d
       -0.043706942 0.08354863 0.03268347 0.05112891
0001c0 42 66 59 bd 71 3e f9 3d d4 5e 3f 3d f5 b3 65 bd
       -0.053076036 0.12170113 0.046721295 -0.056079824
0001d0 6b 17 ec 3d 68 ff 32 bd 89 9b 27 3d 37 fe 75 bc
       0.11527904 -0.043700606 0.040919814 -0.015014223
0001e0 17 3f 07 be 04 1c 06 bc 10 5a 85 3d 87 11 3e bd
       -0.1320766 -0.00818539 0.06511319 -0.046403434
0001f0 e6 34 58 3d 25 ac 86 3d 22 36 30 3e be 3c 32 be
       0.052784823 0.06575803 0.1720815 -0.17405984
000200 75 4c a2 bb 07 be e5 bd e5 60 ec bd 39 6f ca 3c
       -0.004952962 -0.112178855 -0.11541919 0.024711238
000210 a0 06 bb bd 85 9d 0e 3e aa 5b 85 bd 34 b6 82 3e
       -0.09132123 0.13927276 -0.06511624 0.25529635
000220 69 93 b1 3c 23 22 6e 3d c1 ee 7d bc 9e bf 9c bd
       0.021676736 0.058138024 -0.015498818 -0.076537356
000230 58 e2 96 bd 11 2d eb bd 3d 6b 07 be 9c ab e7 bd
       -0.073673904 -0.11483205 -0.13224502 -0.11312029
000240 18 0b 23 be b4 d6 09 3d e0 17 b3 3d 88 3a 57 3e
       -0.159222 0.033652022 0.08744788 0.21018422
000250 c7 21 94 3c bd 38 3d 3e 34 97 ae bd a5 1b 8b be
       0.018082513 0.18478675 -0.085249335 -0.2716953
000260 62 40 5b bd 65 74 19 3d 82 d4 c6 3d b6 bb 33 be
       -0.053528197 0.037464518 0.097085014 -0.17552075
000270 21 09 5b bd b5 e1 be bd 70 15 ea 3c e8 05 e0 bc
       -0.053475503 -0.09320394 0.028574675 -0.027346566
000280 81 a7 76 3c f8 b5 8a 3d 68 3b 9c bd 8d b9 0b 3d
       0.0150545845 0.06772989 -0.07628518 0.034112502
000290 b4 fd be 3d 81 ac b9 3c af a0 26 3e f0 55 af bd
       0.09325734 0.022665264 0.16272233 -0.08561313
0002a0 d9 a8 af bc b2 8b 41 3d c6 25 80 3b 57 94 48 3d
       -0.021442818 0.047252364 0.003910753 0.048969593
0002b0 41 4f 9b 3d 94 52 34 3e 00 ab 85 3d be a1 97 3d
       0.07583476 0.17609626 0.06526756 0.07403897
0002c0 26 a6 b7 3d 2d c2 bc bd 07 13 9e 3d 4f 02 9f 3d
       0.08967237 -0.092167236 0.07718473 0.07764112
0002d0 50 d0 42 3d 9e f1 b8 bc 5e e8 f7 3d 53 7c 93 3d
       0.047561944 -0.02257615 0.121048674 0.07201447
0002e0 12 1b 6d 3d e0 bc 95 bd 2f 0f 21 3e b2 b2 e2 bd
       0.057887144 -0.07311416 0.15728448 -0.1106924
0002f0 da 75 ea 3c 1f 1b 04 3e f9 70 dc 3d 55 0b f0 bc
       0.02862065 0.12900971 0.10763735 -0.029302279
000300 bc 93 db 3c 6f 45 0f be 43 4c d9 bd 92 1c 11 be
       0.026803844 -0.1399133 -0.10610249 -0.14171055
000310 84 d3 2f bd a9 a2 09 3e a1 39 3a 3d bd 7f 41 3e
       -0.042926326 0.13440956 0.045465115 0.18896385
000320 c4 24 b5 ba 81 3c e4 bc cd 24 70 3e fc 05 b8 bd
       -0.0013820161 -0.027860882 0.23451538 -0.089855164
000330 56 e2 c9 bd 00 ac 7e 3e fd 05 5f bd df e4 4a 3e
       -0.09857623 0.248703 -0.05444907 0.1981387
000340 97 15 40 3e 61 6c 62 3e e8 11 85 bd a6 c5 00 bd
       0.18758236 0.22111656 -0.06497556 -0.031438492
000350 6c 19 2d 3e 61 d4 de bd 1f a4 bf 3c 15 0e 3c 3d
       0.16904229 -0.10880352 0.023393689 0.045911867
000360 d8 30 46 3b 86 b5 5f 3e fd 91 77 bc e3 78 84 3d
       0.0030241515 0.2184659 -0.01511049 0.0646837
000370 ca 6a 1f 3e b1 b3 3c 3e 29 15 36 bb b7 5d 33 3e
       0.1556808 0.18427922 -0.0027783609 0.17516218
000380 87 4d 5f 3d 44 12 b1 3d ae c9 13 be d5 c3 ce 3c
       0.054517295 0.08646062 -0.14432403 0.025239864
000390 e9 e7 71 3e 7b 89 99 3c 58 b8 16 3e 71 72 87 bd
       0.23623623 0.018742314 0.14718759 -0.06613625
0003a0 16 e6 be 3c 20 fb c5 bb 61 2a 1c be ec cd 48 3d
       0.023303073 -0.0060418993 -0.15250541 0.049024507
0003b0 11 90 6f bd a8 fa 89 bd bd fe be 3c 25 7d 31 3e
       -0.058487 -0.06737262 0.023314828 0.17332895
0003c0 8c f4 83 bd 1e cd 06 be df d2 a8 3c 1f ff 95 3d
       -0.06443128 -0.13164183 0.020608364 0.07324051
0003d0 36 4a cd bc a3 2d 42 3e 97 d7 dd 3c d4 70 a7 3d
       -0.0250598 0.18962722 0.02708034 0.08175817
0003e0 34 82 25 3e d1 cc 9e bd 42 0f 31 3e fc 28 0f be
       0.1616295 -0.077539094 0.17290977 -0.13980478
0003f0 41 d2 9b 3d bf ff ab 3d 20 28 90 bc 1e c1 37 3e
       0.07608462 0.08398389 -0.017597258 0.17944762

encoder.encoder_layers.0.0.bias f4 [128]
000000 d3 8e 3a b6 3e 80 a5 b7 29 50 6b b7 c9 c1 5d 38
       -2.7799294e-06 -1.972925e-05 -1.4025755e-05 5.2870982e-05
000010 17 b3 93 b6 53 e6 bf b7 74 9d 80 b6 25 46 a3 b5
       -4.40179e-06 -2.2876227e-05 -3.833027e-06 -1.2164861e-06
000020 e2 61 64 b7 aa 23 99 b5 ba 80 24 b5 db 0c ce 36
       -1.3612649e-05 -1.1409768e-06 -6.128208e-07 6.140775e-06
000030 0d 18 e0 35 71 66 95 b6 e1 f2 b3 37 96 f9 33 b7
       1.66963e-06 -4.452472e-06 2.1451562e-05 -1.0727343e-05
000040 f5 ab 88 b7 2e 11 18 37 b5 8c b9 b7 bc 0b 99 37
       -1.6292537e-05 9.063906e-06 -2.211924e-05 1.8244486e-05
000050 0d e4 0b b5 29 d8 87 b8 cd 7e 0f 38 18 c5 3c b7
       -5.211339e-07 -6.4775646e-05 3.421195e-05 -1.1251563e-05
000060 6b 7d a7 36 58 74 a8 36 43 38 62 36 85 01 de b7
       4.9915884e-06 5.0203344e-06 3.3709373e-06 -2.646517e-05
000070 ca 7b 0e 38 5a 81 86 36 fb 26 1d 37 14 5b ef 36
       3.3970726e-05 4.0085697e-06 9.367005e-06 7.133358e-06
000080 2d 8b 44 b8 8a 81 e7 b5 ac 33 5d 37 d0 8f b0 b7
       -4.685966e-05 -1.7248542e-06 1.3184657e-05 -2.1047803e-05
000090 67 71 0f b7 71 bb 16 36 5f b9 6d 36 36 f0 1e b8
       -8.549868e-06 2.2460847e-06 3.5423652e-06 -3.789385e-05
0000a0 e6 f9 25 b7 8d 8e 22 37 b2 bd 93 b5 bd 28 78 37
       -9.89295e-06 9.689143e-06 -1.1007562e-06 1.4791437e-05
0000b0 8a 06 47 b7 86 52 ee b7 98 03 8e 37 2d ef fe 35
       -1.1862847e-05 -2.8410239e-05 1.6929393e-05 1.8994084e-06
0000c0 25 d6 ad b7 b5 68 22 b8 c9 10 82 b6 b9 bb 40 37
       -2.0722926e-05 -3.8721326e-05 -3.876256e-06 1.1487799e-05
0000d0 67 b3 48 37 e9 c9 2e 37 c8 8a b4 37 50 1b ac b7
       1.1962699e-05 1.0418219e-05 2.1522297e-05 -2.0516716e-05
0000e0 09 e1 ce 36 62 f3 41 b6 2d 21 8d b6 b1 a5 02 37
       6.165476e-06 -2.8900909e-06 -4.2059896e-06 7.787182e-06
0000f0 67 ee c1 37 8f f3 3c b6 3b c2 a3 35 bb cc 3c b5
       2.3118408e-05 -2.8155953e-06 1.2200975e-06 -7.033338e-07
000100 32 5c 5d 38 32 c3 8e b6 39 ef 6f b7 1d b8 71 37
       5.277637e-05 -4.2546535e-06 -1.43012085e-05 1.4407587e-05
000110 0c a0 8c 37 6f 1c 2c b6 aa 3a de 36 96 22 4c b7
       1.6763828e-05 -2.5646548e-06 6.622945e-06 -1.21674e-05
000120 48 ea 04 37 0a 3a 2b 36 b5 94 9e b6 d0 a4 f9 b6
       7.922361e-06 2.5514769e-06 -4.7260787e-06 -7.439965e-06
000130 5c 1b 5f b8 45 7e 63 b7 97 99 b6 b5 70 e9 0c 36
       -5.3192824e-05 -1.3559654e-05 -1.3604757e-06 2.0997504e-06
000140 d5 b7 13 37 6f 0f ed b5 88 06 e4 b7 f8 3e 94 b7
       8.8046845e-06 -1.7662368e-06 -2.718276e-05 -1.7672297e-05
000150 4e 81 64 b5 07 82 fc b6 5f f4 57 37 b3 14 99 37
       -8.512478e-07 -7.5253224e-06 1.2871896e-05 1.824866e-05
000160 69 ca 06 38 a0 7b 9d b6 a1 11 4a 37 54 cc da 36
       3.21366e-05 -4.6933565e-06 1.2044243e-05 6.520693e-06
000170 2b 7d 2b 36 b9 01 a5 b6 38 b3 ff 36 7b 6d 0e 38
       2.5553843e-06 -4.9175837e-06 7.620456e-06 3.39574e-05
000180 e4 94 6a b7 1c 0e c9 36 df f9 37 b7 fc b6 0e b6
       -1.3982153e-05 5.9919093e-06 -1.0965828e-05 -2.126616e-06
000190 99 f0 df 34 d4 de 90 b6 34 dc 94 37 5b e7 6b b7
       4.1712045e-07 -4.317475e-06 1.7745515e-05 -1.4060958e-05
0001a0 34 5e 5a b7 c1 ae 2e b7 c8 e2 ab b7 62 44 b0 b7
       -1.3015746e-05 -1.0411896e-05 -2.0490392e-05 -2.1012678e-05
0001b0 d8 f7 eb b7 6b ae e0 36 9a ef 90 37 d9 d0 f5 37
       -2.8129594e-05 6.696025e-06 1.727771e-05 2.9303528e-05
0001c0 80 19 14 35 9c 58 5a b7 39 65 44 b7 4a 30 a4 b6
       5.5171404e-07 -1.30144435e-05 -1.1706078e-05 -4.8932025e-06
0001d0 3a b1 7b b6 e1 cb e0 37 74 2b 88 36 8a f7 80 35
       -3.7505074e-06 2.679782e-05 4.0581745e-06 9.608787e-07
0001e0 aa 7b 8c b6 10 f4 21 38 9e 3c f3 b1 08 0d 2e 37
       -4.1867215e-06 3.8612692e-05 -7.079122e-09 1.0374242e-05
0001f0 58 5d c3 35 aa 2c 4e 36 75 2a e7 37 4c 06 a5 b7
       1.4555799e-06 3.072239e-06 2.7557116e-05 -1.9672465e-05

encoder.encoder_layers.0.1.weight f4 [128]
000000 33 30 87 3f 9d 54 7c 3f 95 6f 6f 3f e0 66 6e 3f
       1.0561584 0.9856661 0.93529636 0.93125725
000010 9f db 6f 3f 5e 87 73 3f c9 e3 65 3f 22 0c 74 3f
       0.9369449 0.9512843 0.898007 0.95331013
000020 bd 7b 82 3f df 1a 5b 3f d8 c8 71 3f 6c 6c 7b 3f
       1.0194012 0.8558788 0.9444709 0.98212314
000030 15 25 76 3f 1e c2 60 3f 05 30 82 3f 03 5d 6c 3f
       0.9615033 0.877962 1.0170904 0.92329425
000040 34 5a 74 3f 15 73 66 3f ae 07 8b 3f ba 53 83 3f
       0.9545014 0.9001935 1.0861719 1.0259926
000050 1a 65 78 3f 2f 3d 6d 3f 8f 13 74 3f 2b da 7e 3f
       0.9702927 0.92671484 0.95342344 0.9955165
000060 c7 90 85 3f a7 b5 70 3f 2e 28 88 3f 09 db 73 3f
       1.0434808 0.9402718 1.0637262 0.95256096
000070 c4 45 83 3f 12 31 7a 3f 85 ff 7b 3f b1 4e 73 3f
       1.0255666 0.97731125 0.98436767 0.9504195
000080 d9 00 80 3f f2 db 80 3f 21 69 67 3f bc 2b 7e 3f
       1.0000259 1.0067122 0.9039479 0.99285483
000090 6d e6 78 3f 53 86 66 3f 0f 4c 65 3f 77 6a 71 3f
       0.972266 0.9004871 0.8956918 0.9430308
0000a0 48 2a 73 3f e9 40 7e 3f cf 1e 67 3f 06 2a 7d 3f
       0.9498639 0.99317795 0.90281385 0.9889225
0000b0 67 ca 6b 3f 89 61 84 3f c6 e1 7e 3f 8f bd 86 3f
       0.92105716 1.0342265 0.9956325 1.0526599
0000c0 35 c4 6d 3f 64 7d 73 3f ed ce 6c 3f f6 3b 80 3f
       0.92877513 0.95113206 0.92503244 1.0018299
0000d0 34 78 79 3f e9 1b 63 3f 97 a6 7c 3f 0c 9d 85 3f
       0.9744904 0.8871446 0.98691696 1.0438552
0000e0 f0 cc 5b 3f 76 2f 6a 3f 23 79 78 3f cd 54 89 3f
       0.85859585 0.9147867 0.9705984 1.0729004
0000f0 1d 18 7a 3f b2 08 78 3f ca 1e 81 3f f9 74 66 3f
       0.97693044 0.9688827 1.0087521 0.90022236
000100 28 eb 76 3f b8 0e 76 3f df 75 75 3f 1d 19 6a 3f
       0.9645257 0.9611621 0.9588298 0.9144457
000110 6c 3a 6f 3f a2 e5 6e 3f 7b 87 81 3f 6a 99 79 3f
       0.9344852 0.9331914 1.011947 0.97499716
000120 b3 f9 75 3f 44 81 7d 3f 67 9c 77 3f 45 08 6c 3f
       0.96084136 0.9902537 0.96723026 0.9220012
000130 65 43 6b 3f 20 1c 79 3f 58 fb 80 3f 68 d8 75 3f
       0.9189971 0.9730854 1.0076704 0.96033335
000140 7c fb 7e 3f 55 80 69 3f 9a 2c 6c 3f b7 69 7a 3f
       0.99602485 0.91211444 0.92255557 0.9781756
000150 0c 3e 7e 3f ce 50 66 3f db 57 7f 3f 04 f6 8c 3f
       0.99313426 0.8996705 0.9974343 1.1012578
000160 c7 8e 7e 3f 24 ba 72 3f 66 2d 87 3f ca 9a 81 3f
       0.9943661 0.9481528 1.056073 1.0125363
000170 c7 32 7e 3f 44 6a 70 3f ea ba 62 3f 40 43 7f 3f
       0.9929623 0.9391215 0.8856646 0.9971199
000180 3d 82 71 3f c4 0d 5f 3f 4d 2d 72 3f 29 cf 74 3f
       0.9433935 0.8713038 0.94600374 0.956286
000190 2a 03 6e 3f 53 a4 7b 3f b9 77 6f 3f 48 f2 6e 3f
       0.9297358 0.98297614 0.9354206 0.9333844
0001a0 29 20 72 3f 2e f5 59 3f 3e 7d 80 3f b8 2d 78 3f
       0.9458032 0.8513974 1.0038221 0.9694476
0001b0 a1 cd 82 3f 10 75 72 3f d1 b9 89 3f 24 81 64 3f
       1.0219003 0.94709873 1.0759832 0.8925955
0001c0 62 e7 68 3f b5 f3 78 3f d6 35 88 3f 0b 9e 6c 3f
       0.9097806 0.9724687 1.064143 0.92428654
0001d0 34 7a 64 3f 33 07 60 3f 6e 22 6a 3f 8c b0 65 3f
       0.8924897 0.87510985 0.91458786 0.89722514
0001e0 66 0d 89 3f 61 3a 80 3f e3 b2 70 3f 8b d9 63 3f
       1.0707214 1.0017816 0.9402296 0.8900382
0001f0 71 79 61 3f b5 c0 6a 3f 4b 90 70 3f 05 68 65 3f
       0.8807593 0.917003 0.93970174 0.89611846

encoder.encoder_layers.0.1.bias f4 [128]
000000 37 71 d9 3c 04 c3 86 3d c3 d1 45 be 2f 57 28 be
       0.026543243 0.06580165 -0.19318299 -0.16439508
000010 c1 5b 4f be d9 ff c3 bd 9e ca 35 be 01 83 93 3d
       -0.20249845 -0.095702834 -0.17753074 0.072027214
000020 eb 5f 9f 3d 02 0a 4f be ba 6e c5 3d 60 89 f1 bc
       0.07781967 -0.20218661 0.0964026 -0.02948445
000030 e8 6c 04 be 05 8e 0b be b6 bd 3c 3d 38 28 90 bc
       -0.1293217 -0.13628395 0.04607936 -0.017597303
000040 a0 1f 82 bd 31 52 b1 bd fa 22 e0 bd 3d 17 a6 3d
       -0.06353688 -0.08658255 -0.10944171 0.08109901
000050 ae c5 13 3d 1e a0 5e be 12 82 69 be 5d 5b 0a 3d
       0.036077194 -0.21740767 -0.22803524 0.033778537
000060 71 b2 2c 3e 90 ea 12 be 07 f8 1c 3e 24 77 c1 3d
       0.16864945 -0.14347291 0.1532899 0.094465524
000070 f7 b9 00 3d 49 ab 9f bd 67 5c 13 bd fd 91 c9 bd
       0.03142735 -0.07796342 -0.035976794 -0.09842298
000080 1f d3 22 be f1 0b 41 be 30 e8 1a 3c 7a 2c 22 be
       -0.15900849 -0.18852212 0.009454772 -0.15837279
000090 6c 48 00 bd 58 ac 63 3d 0b 50 5b bd 78 38 90 3c
       -0.031319067 0.05558428 -0.05354313 0.017605051
0000a0 96 c0 97 3d b7 03 34 be bf 49 28 3d 9f 1a b5 bd
       0.0740978 -0.17579542 0.041085955 -0.08842968
0000b0 3d 1b 35 bd c0 d8 e0 bd ec fe 8e bd 5d 5e 58 3d
       -0.04421543 -0.10978842 -0.06982216 0.052824367
0000c0 5e 9c 9d bb 71 86 1e be ee 25 cf bc a9 1b 14 3d
       -0.0048099 -0.15480973 -0.025286641 0.03615919
0000d0 d4 7a 19 bc f4 d5 d6 3c 8d 96 a9 bd 87 fc 11 3c
       -0.009367663 0.026225068 -0.082806684 0.008910305
0000e0 e7 01 da bd 3d e4 99 bd e4 97 0e be 9f 62 a7 3d
       -0.10644894 -0.07514236 -0.13925129 0.08173107
0000f0 32 ca 54 be 1a eb 2a bd f9 ae 0d be 38 3a b8 be
       -0.20780256 -0.041728117 -0.13836278 -0.35981917
000100 e1 e5 a6 bd 8a a8 a8 bd 5b 3c 49 bd cb 8a 73 be
       -0.08149315 -0.08235271 -0.049129825 -0.23783414
000110 8d 0d 14 be 6f df 4a 3c bf b4 4c bd 8b 65 57 bd
       -0.14458294 0.012382372 -0.04997706 -0.052587073
000120 22 7d ce bd cc fd 8b be 18 cd 05 3d 47 2f b7 bc
       -0.10082461 -0.2734207 0.032666296 -0.02236141
000130 04 db 3b be 05 7c 5b bb 11 b1 fc 3d 47 da 06 3d
       -0.18345267 -0.003349067 0.1233846 0.03292301
000140 3b 61 07 3d 72 e5 e3 bb 5b 4e c1 bd 1c ce c6 bd
       0.03305171 -0.0069548422 -0.09438773 -0.09707281
000150 70 63 c5 3d 4e 0d bc bd 45 a6 a7 3c d2 f5 28 be
       0.09638107 -0.09182225 0.020465026 -0.16500023
000160 d8 fc ec 3c f3 d7 86 bd d0 8b 00 3e 19 46 ce bd
       0.028929159 -0.06584158 0.12553334 -0.10071964
000170 d5 d5 9f be 15 e6 2d 3d 44 6a a0 bd 4b 92 b1 bd
       -0.31217828 0.04245575 -0.078327686 -0.08670481
000180 1b 95 bb 3d 92 4a 9b be 9c 09 67 3c 93 60 99 bd
       0.09159299 -0.3033033 0.014101412 -0.07489123
000190 ef 8b 54 3e 5d fd 7d bd 35 84 9a bd e7 84 df bc
       0.20756505 -0.062009204 -0.07544748 -0.027285052
0001a0 1d 84 68 bd e9 f5 a2 3d e2 7e e2 bd c0 8c 87 3d
       -0.056766618 0.0795706 -0.11059357 0.06618643
0001b0 48 3c de bd e0 08 38 3d b3 a0 13 3e fa 5b 61 bc
       -0.108513415 0.04493034 0.1441677 -0.013754839
0001c0 e6 3b 1b bd 1a 7e 20 3d ea 28 97 3d d9 64 65 3d
       -0.03789892 0.03918276 0.073808506 0.05600438
0001d0 4c 5c c6 bd 3e 72 49 be ed dc 05 3d 9c 70 29 be
       -0.09685573 -0.19672486 0.032681394 -0.16546863
0001e0 51 87 cd 3d fe af 7e be c3 8c 07 be 4b a0 08 be
       0.10035575 -0.24871823 -0.1323729 -0.13342397
0001f0 17 52 65 be 90 f3 9b bd 10 cf b3 bd a2 e0 69 be
       -0.22394596 -0.07614815 -0.087797284 -0.22839597
