scripts/abr_clustering/audiometric_deep_clustering/experiments/full_pipeline_test_minimal/20250618_174959_evident/checkpoints/joint/final_joint.pt (torch, 342943 bytes, 215 tensors)

encoder.abr_encoder.abr_projection.weight f4 [16, 6]
00000000: bfb4 d73d 3c93 f43e 3bbb b23e f2ec 2f3d
00000010: 7bee 59bd ea36 5c3e 63ba 08bf 8080 80be
00000020: 0f6a d93e e06b f7bc 536e 8bbd eff3 a8be
00000030: 9a14 a5be 91c8 d23c 7af9 afbe 3c52 33be
00000040: 42dc 86be 1184 673e fb06 063d 8da7 f4be
00000050: 8e6b 323e 0771 bdbd a984 79be eb2f ca3e
00000060: 4f6a c2be bf0e 0cbf 55fa 0a3e 296e acbe
00000070: d073 38be ac94 a7be 7272 7cbe 5822 933e
00000080: 4923 f5be 1c5b f5be d289 3cbe 8d40 babe
00000090: 9738 dc3d 4f9e c6bd db6d cf3e 01c3 00bf
000000a0: 27a0 d83c 8a36 823e 8c1d f33d 73b3 bdbd
000000b0: 07a8 f63e 1f65 b4be c8ae 093f ff15 453e
000000c0: b898 8f3e c3b9 cc3e a9d2 e23d 2053 d33d
000000d0: 96d3 65bd a9f2 dcbe bafe 733e d728 da3e
000000e0: 1f16 673e 2ac8 06bd ad33 e3be 8cc2 093d
000000f0: 1a5c 023e 2666 ccbe 76a4 d53e 4a3e 703b
00000100: 337d 243e 2031 003f bc13 853e 1b87 65be
00000110: 5c5f 373e a682 c13e a313 ad3e e42a 26be
00000120: 625c 68bc 6316 ddbe a260 c0bd 5a1d c8be
00000130: c194 5b3e 57a4 f63e a567 04bf d8df b3be
00000140: 3f9e 1cbe d84f e2be 45ed e23e 3940 a1be
00000150: 58b0 45be 1f74 b5be 9279 093e 4fac 93be
00000160: 7ee2 5cbe 6e4b 253f 6c4c 8e3e db22 723e
00000170: 8814 bc3e 62a0 023e 368d 163e 629a aabe
0.105325215 0.4776858 0.3490847 0.042950578 -0.05320595 0.21505323 -0.53409404 -0.25098038
0.4246373 -0.030202806 -0.06808152 -0.32998607 -0.3224228 0.025730403 -0.34370023 -0.17511839
-0.26339918 0.22608973 0.0327215 -0.4778408 0.17423841 -0.09250074 -0.24367012 0.39489684
-0.37971732 -0.5471 0.13572057 -0.33677796 -0.18012929 -0.32730615 -0.24653032 0.2873714
-0.47878483 -0.47921073 -0.1841195 -0.36377373 0.10752981 -0.09698164 0.405135 -0.5029755
0.026443554 0.25432235 0.1187087 -0.09262743 0.4817507 -0.352334 0.5378232 0.19246672
0.28046203 0.39985475 0.110753365 0.10318589 -0.056109987 -0.43153885 0.23827639 0.42609283
0.22567032 -0.032905735 -0.44375363 0.0336328 0.12730446 -0.39921683 0.41727036 0.003665822
0.16063385 0.5007496 0.2599162 -0.2241482 0.1790747 0.3779499 0.33804044 -0.16227299
-0.014182182 -0.43181142 -0.09393431 -0.39084893 0.21443464 0.48172256 -0.5172065 -0.35131717
-0.15294741 -0.4420154 0.44321647 -0.3149431 -0.19305551 -0.35440156 0.13425282 -0.288424
-0.21570775 0.6456822 0.2779268 0.23646109 0.36734414 0.12756494 0.14702305 -0.3332091

encoder.abr_encoder.abr_projection.bias f4 [16]
00000000: 2935 d0b8 32b3 61b8 67f6 4f38 e00a a1b9
00000010: 544d cc36 35d2 06b7 1a06 67b9 2ee8 2038
00000020: d305 1737 f7dc 1eb9 ca92 90b7 fb88 4c36
00000030: 8105 1439 0ac6 5d38 5f47 dcb9 1921 bd38
-9.928115e-05 -5.381107e-05 4.9582126e-05 -0.00030716415 6.088676e-06 -8.035965e-06 -0.0002203215 3.8363207e-05
9.001657e-06 -0.0001515037 -1.7234492e-05 3.0478102e-06 0.0001411643 5.2874944e-05 -0.00042014846 9.018387e-05

encoder.abr_encoder.abr_norm.weight f4 [16]
00000000: f2a2 773f 9c6b 873f 3ce8 7f3f 01ba 8e3f
00000010: 61da 893f 1e0e 813f 96dd 753f 74e8 783f
00000020: 31c5 7a3f 8447 6e3f 6739 753f 235f 813f
00000030: 2e95 833f 17f0 893f dd51 993f 868b 7b3f
0.9673301 1.0579715 0.99963737 1.1150514 1.0769769 1.0082433 0.9604124 0.97229695
0.9795714 0.93077874 0.95790714 1.0107158 1.0279901 1.0776395 1.1978108 0.9825977

encoder.abr_encoder.abr_norm.bias f4 [16]
00000000: a820 84bd 3527 14be 6ffc d0bd 3817 16be
00000010: d4b7 0ebe bfeb adbd 8e9a 50bd 17fa ccbb
00000020: 79df 9cbd fb28 55bd b795 b2bd c411 d1bc
00000030: c347 10be c4a9 d1bd 8cca 14be 9e83 8f3b
-0.06451541 -0.14468081 -0.10204398 -0.14657295 -0.13937312 -0.084922306 -0.050928645 -0.006255399
-0.076598115 -0.052041035 -0.08719962 -0.025521167 -0.14089875 -0.10237458 -0.1453039 0.0043797037

encoder.abr_encoder.abr_norm.running_mean f4 [16]
00000000: 63ac 83be 38fa 363e 8adc 463e 3ed9 3f3d
00000010: e940 be3e 0abc ab3e 17cd 2abd 9e77 4ebe
00000020: 2c08 babd a3fd ccbd 49e2 3dbe ede0 33be
00000030: 853f 5c3d 2639 9b3e dd53 7d3d dab2 3fbe
-0.25717458 0.17868888 0.19420066 0.046838038 0.37158898 0.335419 -0.041699495 -0.20162818
-0.0908359 -0.10009315 -0.18543352 -0.17566271 0.053771514 0.30317038 0.061847556 -0.1872057

encoder.abr_encoder.abr_norm.running_var f4 [16]
00000000: 1d7f 6b3e 37f5 033e b8d5 0a3e 99e6 c43c
00000010: c291 f63e c823 c73e f11b a93c 8ee2 1c3e
00000020: 8aa7 2e3d 00f8 483d e213 053e f9b7 ea3d
00000030: 417a f43c c3d0 aa3e 1ab8 1b3d d73d 043e
0.22997709 0.12886511 0.1355809 0.024035739 0.4815808 0.38894486 0.020643206 0.15320799
0.042640246 0.049064636 0.12995866 0.11460871 0.029843451 0.33362398 0.03801737 0.12914215

encoder.abr_encoder.attention.q_projection.weight f4 [16, 1]
00000000: 2a42 0a3e cbd1 fdbe 7216 f83c 1954 b4be
00000010: fb1a 9cbe 79a1 a1be 4fb6 82be d8a0 a4be
00000020: a17d 05be 0feb 44be 1c7e 04bf 611d e83e
00000030: 7876 353e d830 ecbe d46d 05bf eda7 87be
0.13501802 -0.49574122 0.03028414 -0.3522041 -0.30489334 -0.31568506 -0.25529715 -0.32153964
-0.13036205 -0.19230293 -0.5175493 0.45334914 0.17720973 -0.46131015 -0.5212071 -0.26495305

encoder.abr_encoder.attention.q_projection.bias f4 [16]
00000000: 691f a3bd d47c a4bd f22c a83d d8b6 a4bd
00000010: 2f4a a33d 24ca a13d 97ed a03d 08a7 a33d
00000020: d010 ca3b eb50 fc3b 3dbd ff3b 041e 00bc
00000030: 86f1 fcbb d734 e43b 751e f53b b56c f93b
-0.079649754 -0.080316216 0.08211698 -0.08042687 0.07973134 0.078998834 0.07857817 0.07990843
0.006166555 0.007700076 0.0078045414 -0.007819656 -0.0077192215 0.006964307 0.0074804374 0.007611836

encoder.abr_encoder.attention.k_projection.weight f4 [16, 1]
00000000: e5c4 503e 8bcb 133f 2679 1fbe ab98 c63e
00000010: 1d56 95be ac95 c1bd ab08 83bd caa5 0cbf
00000020: 1fe8 28bc ac5d 0c3e 0c3f af3e 0528 e0be
00000030: bf59 21be 9601 f23b 5a75 413d 4775 a93d
0.2038761 0.57732457 -0.15573558 0.3878835 -0.29167262 -0.09452376 -0.06398138 -0.54940474
-0.010309248 0.13707608 0.34227788 -0.43780532 -0.15756892 0.007385443 0.047231056 0.08274322

encoder.abr_encoder.attention.k_projection.bias f4 [16]
00000000: 73f9 d035 5ebd 1638 9140 23b7 ece7 0d37
00000010: d287 4fb7 a0db acb7 05fa a936 c4c5 8a36
00000020: ff2b 2035 8c1e 5135 c891 3e36 1c2a f6b5
00000030: b427 7bb5 0446 0836 051d 2636 1c0b d935
1.5569807e-06 3.593915e-05 -9.73059e-06 8.458253e-06 -1.2369785e-05 -2.0606269e-05 5.0656986e-06 4.1357434e-06
5.966867e-07 7.790302e-07 2.8397062e-06 -1.8340684e-06 -9.356256e-07 2.0306334e-06 2.475282e-06 1.6170993e-06

encoder.abr_encoder.attention.v_projection.weight f4 [16, 1]
00000000: 1f41 e3be fc7c ed3e c006 0abf 82fd 4dbe
00000010: 4229 953e f76f 13be 09ea 8ebe d9d1 16bf
00000020: cf18 be3e 3b90 cb3c 8f72 7f3e aa7b 083e
00000030: 80e8 cabe d887 7ebe 68eb c53e dfa8 a8be
-0.4438562 0.46384418 -0.5391655 -0.20116237 0.2913304 -0.1439818 -0.2791293 -0.5891395
0.37128302 0.024849048 0.24946044 0.13328424 -0.39630508 -0.24856508 0.38656163 -0.32941338

encoder.abr_encoder.attention.v_projection.bias f4 [16]
00000000: 5e0d 863d 60cd 85bd ebe3 853d 338b 8abd
00000010: 6010 863d 7bf0 88bd f5e1 8abd a652 853d
00000020: dd4f 0d3c 515b 0ebc d6c7 053c 7434 18bc
00000030: 2b88 a1bc 6886 1b3c a4e9 ef3b 3f71 193c
0.06545518 -0.06533313 0.065376125 -0.067648314 0.06546092 -0.06686493 -0.06781379 0.065099046
0.008624998 -0.008688764 0.00816532 -0.00928985 -0.01971825 0.009492494 0.0073215533 0.009365379

encoder.abr_encoder.attention.output_projection.weight f4 [1, 16]
00000000: 91dd 97be 73f6 b13e f990 8dbe 9ddd f23d
00000010: 8a91 9bbe d4a7 583e 7637 9b3d 1748 fabe
00000020: c9e3 d2be 85eb 5a3e e76a 1fbe 668a b93e
00000030: ebfc debb 485f 76be a5cd 84bd b5d0 9dbe
-0.2966123 0.34758338 -0.27649668 0.11858676 -0.30384475 0.21157771 0.07578938 -0.48883125
-0.4118941 0.21378906 -0.15568124 0.36238402 -0.0068050525 -0.24059784 -0.06484536 -0.30823293

encoder.metadata_encoder.metadata_projection.weight f4 [24, 12]
00000000: 6781 133e d899 853e 015e 59bc cb86 9dbe
00000010: 54b3 863e e1d3 a93e 30f7 743e 090a 6bbc
00000020: fb52 f73d 2a41 123c fdd5 15be e0ae c1be
00000030: 1f1a 0d3d 17c8 613e ecaa 203e 953e da3d
00000040: c010 303e 769e 583e d2d5 a0bd 005e 583e
00000050: 491b 78bc 5344 1abe e8bb 55be 4e6a 62be
00000060: 1e2f 81be f936 2a3e 52c9 963e e874 713d
00000070: 6f58 c83c c4ed 2dbe b47b 4fbe 1653 3bbe
00000080: 7916 313e 493f 563d 8bbd 85be 3e63 e03c
00000090: a726 c3bc eb13 163d 416f 3f3e 7839 2fbe
000000a0: 411d b43e 6c41 56be 94f5 8f3e a8f5 f43d
000000b0: e6ab 3d3e 29dd e9bd bf87 d4bd c376 87be
000000c0: 17c1 a8be bd33 783e 77c0 ae3e 16c5 b43d
000000d0: 86fc 23be d7fe 143d 5109 42bd ef10 c1be
000000e0: 1744 9ebe df38 053e 4f99 06be 039b 02bd
000000f0: 06f9 30be 5f4a 203e 9b34 67be 124b f0bd
00000100: 0c98 6b3e c5e2 b93e edcb b73e 3192 493e
00000110: 3c9b e739 edb7 933e d8e1 cb3e 2b89 0f3e
00000120: 28f0 da3d 2167 5f3d 331a 363d db9c 5e3e
00000130: a89f ea3d a2fa b2be 9e5f 94be d8f3 bfbe
00000140: 3934 b8bd b7d2 c93b 9e1c 3bbe 9e48 a9be
00000150: 62fc 4bbe 9d2c 503e 8630 b1bd a36a f0bd
00000160: f0cb 793d cf25 00be f99a 89be 34d0 63be
00000170: 60e4 2abe 0941 c7be 0548 cfbe 5b54 09be
00000180: e980 323e 08c1 c83e 55d2 b0bc 2628 893e
00000190: f071 223e 3cf1 acbe 07c6 72be 9f69 9fbd
000001a0: 351a a2be 03de 863c 85a7 683d 1ec5 9bbe
000001b0: c21b a7bd 9691 a0be 47aa a43e ae13 853e
000001c0: 1f3b 12be 6c1a 913e 0293 65be 05c6 903e
000001d0: a99a 12be 1a74 023e 666f a43e 3d85 0d3e
000001e0: d4a7 f83d 59ba 4abd 883e 3f3d 78e0 af3e
000001f0: 4324 d5bd 18db 27be ace4 773d 80e0 eabd
00000200: 54f3 0dbd 4d13 e63c ec89 a13e 915c bb3d
00000210: b614 69be 97c6 4e3e 118a c2bd 031c 6f3d
00000220: 6c91 45bc 7682 843e 0a5f 9abd 17dd 13be
00000230: 25c0 48bd ae31 b83c 9df6 71be 0028 813e
00000240: 1555 2fbe 79ab 353d cf7c cbbe 2e0e d1bd
00000250: 46c0 c5bd baa6 5fbe efb3 eb3d b119 adbe
00000260: 5c40 403d ebcd 6dbd 917d 6ebe eb6b 613e
00000270: 13d1 873e 3b30 c33d 6809 7b3c 1a94 443e
00000280: b76c 4bbe b6c0 9fbe adb6 b03e 9e61 12be
00000290: 95ef 8e3d 7370 d23c cd21 c23e e675 9a3e
000002a0: 682c 73be 1531 5ebc 78ed aabe 6c64 403e
000002b0: c1b7 c03e d10d 39be f2e7 343c 5771 abbd
000002c0: 3ac9 d3bd ef1f 983e 1f41 b0be c088 adbd
000002d0: 4213 f0ba a8bc 92be 9c0a 133e dd75 943e
000002e0: 2c80 9fbe 08a0 2b3e a0f3 88bc 5d78 ad3e
000002f0: 4ebb afbe 8f77 b43e 4a39 5dbe f5b2 a33e
00000300: a98d 34be 98e4 ab3d 586c 173d 7a1b 6c3e
00000310: a418 323e accb cd3d 9b88 99bd c108 9fbe
00000320: a037 3e3c 1f4b ae3e cb7f cc3e 0ed4 5cbe
00000330: 7c67 873e 2ae3 fe3d 34d6 bdbd 14c2 103e
00000340: 5610 4ebd 1073 003c f8fd 9cbe f9a3 c3bd
00000350: 5075 c83e 0a82 5f3e 13ac a8be d071 47bd
00000360: 17d1 713e a997 2cbe 76bb 86bd 92eb 2a3e
00000370: d82d b03e 9576 843e 437b 82be 70a4 b6be
00000380: 3eae 7b3d bfa9 06bd 3151 c93e 97e3 6f3e
00000390: 4e69 d4bd 2a93 eb3d e0e1 0e3e d530 d4bd
000003a0: 2f1b cf3e cb4d 863c 167c c6bd ea9d acbe
000003b0: d7b8 973e 3078 d3be 27b0 ab3e bf26 1abe
000003c0: 5e58 c9bc a49e ac3d 1003 be3e 603c 7bbe
000003d0: abf1 8fbe 76b9 293e 17b7 19be da76 22be
000003e0: b2ee 503e 8f2c 4dbe 9fa8 7d3e ffeb 3cbe
000003f0: ea75 9b3e 369f ae3e 2173 3bbb a34a 3ebe
0.14404832 0.26093936 -0.013267041 -0.307669 0.26308692 0.33169463 0.2392242 -0.014345654
0.12076374 0.008926669 -0.14632411 -0.37828732 0.03444874 0.22048984 0.15690202 0.10656468
0.1719389 0.21154198 -0.07853283 0.21129608 -0.015143224 -0.15065126 -0.20872462 -0.22110865
-0.2523126 0.16622533 0.2945047 0.05894938 0.02445623 -0.16985232 -0.20262033 -0.18293414
0.17293729 0.052306447 -0.26121172 0.027391072 -0.023822142 0.03664009 0.18694784 -0.17111766
0.3517857 -0.20923394 0.2811705 0.11960918 0.18522605 -0.11419136 -0.10377454 -0.26457796
-0.32959816 0.24238487 0.34131214 0.08826654 -0.16014299 0.036375847 -0.047372166 -0.37708232
-0.30911323 0.13009976 -0.1314442 -0.031886112 -0.17282495 0.1565337 -0.22578661 -0.117330685
0.2300722 0.36305824 0.3589777 0.19684674 0.00044175412 0.28851262 0.39820743 0.14017169
0.106903374 0.05454171 0.04445858 0.21739523 0.11456233 -0.34956843 -0.289792 -0.37490726
-0.08994336 0.0061591524 -0.18272635 -0.33063215 -0.19920495 0.20329519 -0.08651833 -0.11739089
0.060985506 -0.12514423 -0.26876047 -0.22247392 -0.1668868 -0.38916805 -0.40484634 -0.13411085
0.17431988 0.3920977 -0.02158467 0.26788443 0.15863776 -0.33777797 -0.23708354 -0.077838175
-0.3166062 0.016463285 0.056800384 -0.30423826 -0.08159591 -0.31361073 0.3216116 0.25991577
-0.14280365 0.2834047 -0.2241936 0.28276077 -0.1431681 0.12739602 0.3211624 0.13820358
0.12141386 -0.04949412 0.046690494 0.34350944 -0.10407307 -0.16392171 0.060520813 -0.11468601
-0.034655884 0.028085375 0.3155054 0.09148515 -0.22761807 0.20192944 -0.0949899 0.058376323
-0.012058597 0.25880784 -0.075376585 -0.14439808 -0.04901137 0.022484627 -0.23629232 0.2522583
-0.171223 0.044352982 -0.3974366 -0.10207783 -0.09655814 -0.21840945 0.11508929 -0.33808663
0.046936378 -0.058057707 -0.23290087 0.22013824 0.26526698 0.095306836 0.015322067 0.19197121
-0.1986569 -0.31201714 0.3451437 -0.1429505 0.069792904 0.025688386 0.37916413 0.30168074
-0.23747408 -0.013561507 -0.333843 0.18788308 0.37640193 -0.18071677 0.011041628 -0.08371227
-0.10341115 0.29711863 -0.34424683 -0.084733486 -0.0018316286 -0.28659558 0.14359516 0.28996173
-0.31152475 0.16760266 -0.016717732 0.33880892 -0.3432259 0.35247466 -0.21603885 0.3197247
-0.17632164 0.0839321 0.03696856 0.23057356 0.17392212 0.10048613 -0.074967586 -0.31061366
0.011609942 0.34041688 0.39941248 -0.21565267 0.2644614 0.12445672 -0.09269372 0.14136535
-0.050308548 0.007839933 -0.30662513 -0.0955276 0.39152002 0.2182695 -0.32943782 -0.048692524
0.23614918 -0.16854729 -0.06578724 0.16691425 0.34409976 0.2587172 -0.25484666 -0.3567233
0.061445467 -0.032876726 0.39319757 0.23426662 -0.10371648 0.11502679 0.13953352 -0.103608765
0.40450427 0.016394516 -0.09691636 -0.3371423 0.2963321 -0.41302633 0.3353283 -0.15053843
-0.02457827 0.08428696 0.37111712 -0.2453475 -0.28114066 0.16574654 -0.1501125 -0.15865651
0.20403555 -0.20036529 0.24771355 -0.184494 0.303634 0.34105843 -0.0028602558 -0.18583159

encoder.metadata_encoder.metadata_projection.bias f4 [24]
00000000: ff31 14bd f587 6ebd 4e6b 8abd bc56 debd
00000010: 08a8 8bbd 76dc 9dbb f516 35bd 47ef 90bd
00000020: 875a 8cbc 32e6 87bd 504c 8b3c d782 d7bb
00000030: 09ea aebd d5d3 d7bc 9d44 76bd 0ae4 8dbb
00000040: e0fd 99bd ab7e a6bd 39b0 14bd c207 063d
00000050: 4d07 68bc 2d42 b2bd 180a 7cbd c93f 9a3c
-0.036180492 -0.058235127 -0.06758748 -0.10856387 -0.06819159 -0.0048175408 -0.044211347 -0.070768885
-0.01713301 -0.06635703 0.017004162 -0.0065768766 -0.085407324 -0.026346127 -0.06012403 -0.004330163
-0.07519126 -0.08129629 -0.03630087 0.032722242 -0.014161897 -0.08704028 -0.061533064 0.018829243

encoder.encoder_layers.0.0.weight f4 [64, 40]
00000000: 16b7 42be cddd bd3d f6de 1ebe 615d e53d
00000010: 514b 103e 7456 7b3e 1c20 3fbe f7ba 3b3e
00000020: 9c0c 793c a8a0 4d3e ae69 763e 1f55 5abd
00000030: 3c8a 6e3d 204a ab3a 9528 9a3e 2db1 c9bd
00000040: 3787 253e d16b eb3d ab8b 5e3e 1afc 173e
00000050: 87cb 463e b2ec 39be 8805 6ebd 1c3b aabd
00000060: b297 093e 597c 863d 92fe db3d 9570 af3d
00000070: 34d1 323d c172 e83d c790 bebd 1ce4 f33d
00000080: 4ca9 43be 3edc 23be 7a1b b93d 91a4 6e3e
00000090: da53 b2bd f070 833e 99ae 81bd 2ef1 2ebe
000000a0: 13be 003c af5c 2c3e 262d 79bd 24c7 943e
000000b0: 1614 31bd dd6e 60bd 9d10 0bbd a4ba 14be
000000c0: 5522 6d3e d203 ebbd e160 4ebd 2fc3 d6bc
000000d0: 60c4 843e e045 163e f457 3b3e 5201 aebc
000000e0: 10af db3d b938 d83c 44ab 083e 6889 49bb
000000f0: 7e97 ab3d e730 423e b704 9c3d ac59 44be
00000100: 6f0a 9a3d ec24 17be 71ab e83d 5aa0 9fbd
00000110: 6bae 303e 7a7c cdbd ce4f 51be 18a5 2f3d
00000120: d20c 1e3e cf84 e6bb 52af 083e 606d 653e
00000130: 3653 a03c 6f7e 92bc 802c d33d d24f 893e
00000140: ab91 afbc c007 403e 6580 a53d cbb0 973d
00000150: a6c8 2b3d 01c8 41be e087 ec3d d990 b0bd
00000160: 50e7 40be c879 f9bc d470 79bd afbf e7bd
00000170: 7a21 533c 66cb 083c 40c5 643e b9c8 483d
00000180: f3ac 4f3c 8223 933d bd4b 22be 43c6 3b3e
00000190: cdbc af3d 8f73 273e 23ed 0abe 27fe 543e
000001a0: e3ae 883d f232 4fbe 2e7b 863e 3365 4e3b
000001b0: beca c33d 3d91 573e c24f 243e f113 183e
000001c0: ccbe 58be df28 853e 8e51 ab3d 7ff1 953c
000001d0: cd06 1fbe c10c adbd 28df 563e 7156 653e
000001e0: 6704 223e 9b06 6fbd bc88 54be 35c5 6e3c
000001f0: e354 37be b3b1 66be 5f15 923d 2090 3c3e
00000200: b97a 3cbe 2ef3 69be 2910 4e3c de79 c5bd
00000210: 5ecd 12be 634f e7bd 8add 95bd 2ed8 98bd
00000220: 5685 483e bfd5 e33d b31f 3c3c d31f a8bd
00000230: fc27 f1bc 24ac 173e abd6 e43b 6ded 96be
00000240: dde5 2e3d 1ef4 d13d 71ad 64bd 2f3f e4bd
00000250: bd1f f5bd 0eb4 de3d 42eb 193e ad9f 7fbe
00000260: e974 143e e3a9 a53c 8b31 b23d c052 09be
00000270: 601d f3bd df0f 563e 7d94 033d 8920 e0bc
00000280: 9c7a 60bc ff97 783e bd5c 48bc 9a3b 5f3e
00000290: fda9 84bc 753a 8d3d 1293 ae3d 4611 a4bd
000002a0: 7290 743c 8288 963d 8453 58be c2e3 bd3c
000002b0: bfb0 673d 8870 543e 5257 223e 7cff 12be
000002c0: fbad 09bd a859 603e 80ee 1cbd bf60 0d3e
000002d0: 7262 53bc 26f1 2a3e 9e69 cebd 06be 8c3e
000002e0: c019 e03d a3c8 54bd 1df9 593e f28c ae3d
000002f0: 6954 24be 061c 07bb 1d55 0a3e f3d3 b53c
00000300: dbb3 b7bd f788 e4bd 5c33 07be b36f 173e
00000310: c8c2 f43d 8541 ecbd 22c8 80bd 8093 463d
00000320: 866f 49be 0543 3e3e d292 4dbd 42e2 bdbd
00000330: dc85 9cba 5029 4e3d a92c 263d 7697 7d3e
00000340: d26e 153e 4981 2bbd 24a7 923d fa56 913d
00000350: f1f6 67bd fbb0 6cbe e12d 24bd 5e12 91bd
00000360: 1d74 5ebe e0f2 0c3d 3af7 1fbe 354a 353e
00000370: 35ae cd3c 853b 033e 3119 2a3d eb14 873d
00000380: 7d87 733e 4245 0e3e 0fa3 683d 5bae d7bd
00000390: 0c69 003d fae8 a9bd 60c9 1abd 4974 c4ba
000003a0: 626f 193e fb86 7dbe a858 0c3e 7727 d6bc
000003b0: ca1f 06be 2bf7 bcbd e31f 67bd 3fa9 143e
000003c0: 5153 80be 22cd a03d 329c 7f3e 9dca 10be
000003d0: a7e6 9e3d 1420 4bbd 8a5b b03c 4a1d 9c3d
000003e0: 5812 25be 6b35 173d dba7 543e 28f0 b0bc
000003f0: e7ab 31be 938c e93c 747c 3f3d 97d0 3f3d
-0.19015154 0.09270821 -0.1551474 0.11199451 0.14091231 0.24544698 -0.18664593 0.1833304
0.01520076 0.20080817 0.24063751 -0.053303834 0.0582373 0.0013068356 0.30109087 -0.09848247
0.16164862 0.11495174 0.21732967 0.14842263 0.19413577 -0.18156698 -0.058110744 -0.083120555
0.13436773 0.06566686 0.10741915 0.08566395 0.043656543 0.113500126 -0.09304958 0.11908743
-0.1910755 -0.16001984 0.09038444 0.23304965 -0.087074 0.25672102 -0.0633213 -0.1708419
0.007857817 0.16832231 -0.060834073 0.29058182 -0.043232046 -0.054793227 -0.03395139 -0.14524323
0.23157628 -0.11475338 -0.05038536 -0.026216118 0.25931072 0.14675093 0.1829527 -0.021240864
0.1072675 0.026394235 0.13346583 -0.0030752067 0.08378504 0.18963967 0.07618087 -0.19174832
0.07521521 -0.14760178 0.11360825 -0.077942565 0.17254035 -0.10033508 -0.204406 0.042882055
0.15434578 -0.007034875 0.1334813 0.22405005 0.019570928 -0.017882554 0.10311222 0.2681871
-0.021431765 0.18752956 0.0808113 0.074067675 0.0419394 -0.18923952 0.115493536 -0.086213775
-0.18838239 -0.030453578 -0.060898617 -0.113158576 0.012886399 0.008349275 0.2234087 0.04901955
0.012675512 0.07184507 -0.15849204 0.1833735 0.08580933 0.16352676 -0.13567023 0.20800076
0.06673982 -0.20234278 0.26265854 0.0031493425 0.095601544 0.21051498 0.1604605 0.14851357
-0.21166533 0.26007745 0.08365165 0.01830363 -0.15529938 -0.08449698 0.20983565 0.22396256
0.15821992 -0.05835591 -0.20755285 0.014573385 -0.17903475 -0.22528724 0.071329825 0.18414354
-0.1840619 -0.22846672 0.012577095 -0.09642385 -0.14336154 -0.11294439 -0.07317646 -0.07463108
0.19582114 0.11124753 0.011482167 -0.08209195 -0.029438011 0.1481176 0.006983598 -0.29478016
0.042699683 0.1025164 -0.05582947 -0.11144864 -0.11968944 0.108741865 0.1503115 -0.24963255
0.14497723 0.02022261 0.08700856 -0.13410473 -0.11870837 0.20904492 0.03212403 -0.027359264
-0.013701107 0.24276732 -0.012229142 0.2180008 -0.016194338 0.068959154 0.08524145 -0.08011107
0.014927017 0.073502555 -0.21125609 0.023179892 0.056565043 0.20746052 0.15853623 -0.14355272
-0.033613186 0.21909201 -0.03831339 0.13806437 -0.012901889 0.16693553 -0.10078739 0.27488726
0.109424114 -0.051949155 0.21286435 0.08522977 -0.16047825 -0.0020616069 0.1350903 0.022195792
-0.089698516 -0.111589365 -0.13203186 0.14788704 0.11951214 -0.11535934 -0.06288172 0.04848051
-0.19671449 0.18580253 -0.050188847 -0.09271671 -0.0011941749 0.050332367 0.040569935 0.24764809
0.14593056 -0.041871343 0.07160786 0.070966676 -0.056631986 -0.23114388 -0.040082816 -0.070835814
-0.21723981 0.03441131 -0.15621653 0.17704089 0.025107482 0.12815674 0.04152793 0.06595787
0.23782153 0.13893607 0.05679613 -0.105313025 0.03135018 -0.0829639 -0.037789702 -0.0014988269
0.14983895 -0.24758522 0.13705695 -0.026141865 -0.13098064 -0.09226831 -0.056426894 0.14517687
-0.25063565 0.07851626 0.24961928 -0.14139791 0.07758837 -0.04959114 0.021528024 0.07622774
-0.16120279 0.036916178 0.20767157 -0.02159889 -0.17350732 0.028509414 0.046749547 0.046829786

encoder.encoder_layers.0.0.bias f4 [64]
00000000: 969a ce37 c6ca 46b7 9f54 5e36 89e2 28b7
00000010: 8dbe 5f37 1170 d1b7 3207 4638 5cfb 01b8
00000020: 8403 2538 26e5 dbb5 232b 1937 d7d2 0338
00000030: f6da 13b8 8ed7 adb6 d6f5 4337 58b2 b2b7
00000040: 554f cdb6 1171 dfb7 6f45 b9b8 543c f7b7
00000050: 2dcd 5d37 0430 c7b7 a2c3 bcb7 9706 dcb7
00000060: 01e1 33b8 9019 8fb7 fb83 d0b7 f35e 0038
00000070: 7695 9037 b5f4 33b7 3a7b c038 17e2 6737
00000080: f375 6736 6e57 62b6 5542 2238 6352 dc35
00000090: 7139 04b8 9af5 8637 d71c 0f33 6422 a6b7
000000a0: 9a5d 94b5 380b 39b7 fda6 0db8 0f26 12b8
000000b0: c5f9 40b8 e757 0737 e2cd 88b6 f5ac 3c37
000000c0: c4c2 f937 c7ef 8138 25fd 53b7 1b8f 3eb7
000000d0: 8b42 1236 cb39 3238 f1ea 75b6 1921 93b7
000000e0: e391 f6b7 9dae 8d37 f6a9 2ab8 749c a436
000000f0: fd79 9036 8927 51b7 2b54 b7b6 4fd4 32b7
2.4629098e-05 -1.18489315e-05 3.3129834e-06 -1.0066325e-05 1.3336202e-05 -2.4966927e-05 4.721358e-05 -3.0990093e-05
3.934234e-05 -1.6383462e-06 9.129554e-06 3.1429194e-05 -3.5251454e-05 -5.1808956e-06 1.1680144e-05 -2.1302301e-05
-6.1187116e-06 -2.6636322e-05 -8.8344204e-05 -2.9472787e-05 1.3220398e-05 -2.3745008e-05 -2.2502445e-05 -2.6229112e-05
-4.2886477e-05 -1.7058832e-05 -2.485699e-05 3.0606006e-05 1.7235736e-05 -1.0726207e-05 9.178226e-05 1.3821314e-05
3.4490338e-06 -3.3727515e-06 3.8685586e-05 1.6415255e-06 -3.152475e-05 1.6088412e-05 3.332101e-08 -1.9804756e-05
-1.1054101e-06 -1.1029471e-05 -3.377254e-05 -3.4844557e-05 -4.6008983e-05 8.067093e-06 -4.0770838e-06 1.1245943e-05
2.9773808e-05 6.195861e-05 -1.263552e-05 -1.1358202e-05 2.1794428e-06 4.249233e-05 -3.6644599e-06 -1.7539178e-05
-2.9393419e-05 1.688982e-05 -4.0689447e-05 4.9057944e-06 4.3057357e-06 -1.2466576e-05 -5.4636234e-06 -1.0659059e-05

encoder.encoder_layers.0.1.weight f4 [64]
00000000: fd1e 853f 61a5 893f 979e 7a3f 44a5 6d3f
00000010: 948b 883f 4663 793f 1f1e 833f 1a8b 6c3f
00000020: 0839 6c3f 43e4 773f dca7 7b3f 5c6c 7d3f
00000030: 33d4 983f 5202 6c3f 13ff 8d3f 5399 773f
00000040: df64 743f e141 823f 7f28 7e3f fc0e 6e3f
00000050: ae4c 843f 014e 883f 4fb4 913f bad4 743f
00000060: 0240 733f 15c1 753f 6d4c 823f 60fc 763f
00000070: daa3 863f fb06 893f 3f7c 6e3f b14f 663f
00000080: e310 793f 4e75 7b3f 332b 7d3f 6e0e 683f
00000090: 52ce 853f a03e 7b3f 90a8 713f de54 863f
000000a0: 8202 753f e457 7b3f f35e 6d3f b78e 6a3f
000000b0: 7b10 883f 5c52 7d3f 778b 7c3f dda8 7e3f
000000c0: 8a07 8f3f 997b 783f 4ca5 803f bd5c 7b3f
000000d0: 5526 8b3f 223f 823f 8db9 753f de89 813f
000000e0: a9de 883f adb6 733f 0feb 8a3f 6c7b 6f3f
000000f0: 4772 7e3f 9269 793f d0a0 853f 01de 813f
1.0400082 1.0753595 0.9789824 0.928303 1.0667596 0.97417104 1.0243567 0.9239975
0.9227452 0.96832675 0.9830301 0.9899347 1.1939758 0.9219104 1.1093467 0.9671833
0.9546642 1.0176355 0.9928054 0.92991614 1.0335901 1.0648805 1.1383151 0.95637095
0.95019543 0.95997745 1.0179573 0.96478844 1.0518754 1.0705255 0.93158334 0.8996535
0.9729139 0.9822587 0.9889404 0.9064702 1.0453589 0.98142433 0.9439783 1.049465
0.9570695 0.98180985 0.92723006 0.91624016 1.063003 0.98953795 0.98650306 0.99476415
1.1174176 0.97063595 1.0050445 0.9818838 1.0871073 1.0175517 0.95986253 1.0120199
1.069295 0.95200616 1.0852984 0.935477 0.99393123 0.9742671 1.0439701 1.0145875

encoder.encoder_layers.0.1.bias f4 [64]
00000000: fb27 eebd 701e 87bd 4b82 1bbe 8439 85bd
00000010: 7cf3 18be 5fcd 85bd 93da 373d 05a0 80bd
00000020: e0e7 b5bd 4a37 c8bd 1aba cabd c9cb 38bc
00000030: ed08 5dbd a579 c1bd deda d3bd f1ee 54bd
00000040: 2fd7 4fbd 8925 13bd 5c1c 08bd 54d4 a3bd
00000050: de5e 033c c819 21be c491 ccbd 4e5e 66bd
00000060: f34c 39bd 3c6d b5bc 452f 5c3d fc4b 4ebd
00000070: d512 90bd a09f cfbd 97f5 b5bd c6ed f7bd
00000080: 5063 b8bd 0aca d9bd fc17 9dbd 8216 87bd
00000090: cbd5 0ebe d94c 5c3a 684f 7abc c5e3 0dbe
000000a0: ed76 3fbd 3d89 a4bd d2b1 d7bd bd19 93bd
000000b0: 875a 30bd 96ed a5bc 023b c8bc 144c bbbc
000000c0: d8c3 cebd d26b c5bc aa55 c6bd ccc7 ba3c
000000d0: 4f0c f6bd 718b 0ebd 6f08 c0bd 68ee 7cbd
000000e0: 8e4f d7bd 1e16 14be 1c3e a8bc be98 00be
000000f0: 350e 0bbd 1244 f8b8 1836 9dbd f10d 42bd
-0.116287194 -0.06597602 -0.15186422 -0.06505111 -0.14936632 -0.06533312 0.044886183 -0.06280521
-0.08882117 -0.097761706 -0.09898777 -0.011279055 -0.05396359 -0.0944703 -0.1034448 -0.051985685
-0.050742324 -0.03592447 -0.03323017 -0.07999483 0.008018224 -0.15732491 -0.0998874 -0.05624228
-0.0452394 -0.022146814 0.053756017 -0.050365433 -0.07034842 -0.10137868 -0.08884733 -0.121058986
-0.09003317 -0.10634239 -0.0767059 -0.0659609 -0.13948743 0.0008403785 -0.015277721 -0.13856418
-0.046744276 -0.080339886 -0.105319634 -0.071826436 -0.043055084 -0.020254891 -0.0244422 -0.022863425
-0.10095948 -0.024099264 -0.09684308 0.022800349 -0.120140664 -0.03480095 -0.093766086 -0.0617508
-0.10513221 -0.14461562 -0.020537429 -0.12558267 -0.033949096 -0.000118382406 -0.07676333 -0.047376577

encoder.encoder_layers.0.1.running_mean f4 [64]
00000000: 3ae5 0b3f 85ef 023f 9168 063f 1ec8 9cbe
00000010: a601 e53e 9951 b53d 9c89 03bd 1112 1cbe
00000020: eee0 81be 80fc 8c3e 5a80 f53e cd91 e2be
00000030: b8a3 ea3e 59f2 5fbe b3d7 253f 0e5f 1dbe
00000040: 2aa6 b6be 2595 f43e 2067 463d cd44 52be
00000050: 2258 8c3d 370d d53e c92c dd3e 2e40 213c
00000060: 2b4b efbd b987 e1be 4610 7bbe 001f 843e
00000070: 6a3a c83e 1ce6 1a3f 0b9b f2be 5c7e 48be
00000080: c827 803e 0c6d b33d 91d6 8b3e 73f2 81be
00000090: bbd7 ae3e c123 81be 8064 9dbe 9cf0 373f
000000a0: 263d dc3c febb 253e 0fa7 ff3d 6613 1bbe
000000b0: 8e80 193f f991 4f3e d834 463e 1971 7cbe
000000c0: 596b d83e 1d27 23bf 473f 313f c9ad e8be
000000d0: 298c dc3e 034b 003e 10e7 a9bc 4396 ef3e
000000e0: 1874 a23e 02c7 173e f186 df3e fc68 dabd
000000f0: 82ba 513e 96fb 9fbe c9a5 033f 3fce a13e
0.54646647 0.5114673 0.52503306 -0.30621427 0.4472782 0.08853454 -0.032113656 -0.15241267
-0.2536692 0.27536392 0.47949487 -0.44251862 0.45828032 -0.21869792 0.64782256 -0.15368292
-0.35673648 0.47770038 0.04843819 -0.20534058 0.068527475 0.41611645 0.4319823 0.009841962
-0.11684259 -0.4404886 -0.24517927 0.258049 0.39107066 0.6050737 -0.47383913 -0.19579452
0.2503035 0.087610334 0.2731214 -0.25380287 0.34148964 -0.2522259 -0.30740738 0.71851516
0.026884627 0.16184995 0.12483036 -0.15144119 0.59961784 0.20270528 0.19356096 -0.24652518
0.422694 -0.6373156 0.6923718 -0.45445088 0.43075684 0.12528615 -0.020740062 0.46794328
0.31729198 0.14822009 0.4365764 -0.106645554 0.20481303 -0.31246632 0.51424843 0.31602666

encoder.encoder_layers.0.1.running_var f4 [64]
00000000: dbb7 a23e f9d0 a43e 727e c03e 86b7 e93e
00000010: ec9b c63e d931 b33e 8d97 d43e 2011 e03e
00000020: 81f2 8c3e 5e8c c63e 9b15 0c3f ce56 473f
00000030: a775 d23e 9b42 493e 8831 2a3f 9012 003e
00000040: 8610 f73e 4533 2d3f e745 c23e 142d 9b3e
00000050: d485 583f 62dd ed3e f525 b33e 0d28 023f
00000060: b052 fb3e bb9b 6c3f 18d1 1e3f 9607 db3e
00000070: 1832 183f 6558 033f a9db 8b3e 12b5 dc3e
00000080: d2a2 de3e 28ed ff3e 113d 853e d928 823e
00000090: 18e0 c23e 645b 9f3f cc25 833e 5416 573f
000000a0: 538b 743e 6097 103e a981 ff3d 6fe1 de3e
000000b0: f9d2 0e3f a87c 1e3f c839 383f eff7 c63e
000000c0: 627b ee3e 2995 e43e c261 333f 88a5 693f
000000d0: 31d1 073f 9e32 cb3e f699 873e f8d2 b83e
000000e0: 5917 173f b604 353e 34d1 c43e 2b9e 793e
000000f0: e0b7 763f 6da9 e73e 5a10 db3e 84c4 ab3e
0.31780896 0.32190683 0.3759647 0.4564783 0.38790834 0.34998968 0.41521874 0.43763065
0.27528766 0.38778967 0.5472047 0.7786683 0.41105387 0.19654314 0.6648183 0.12507081
0.48254794 0.67656356 0.37943956 0.3030783 0.84579206 0.46457964 0.34989896 0.5084236
0.49086523 0.92425126 0.620378 0.42779225 0.59451437 0.51306754 0.27316025 0.43106896
0.43483597 0.49985623 0.26023152 0.2542179 0.38061595 1.2449765 0.25614774 0.84018445
0.23881273 0.14120245 0.124759026 0.43531367 0.5579067 0.6190896 0.7196317 0.38861033
0.4657851 0.4464505 0.7007104 0.91268206 0.53053576 0.39687055 0.2648465 0.36098456
0.5902 0.17677578 0.3844086 0.24376743 0.9637432 0.4524645 0.42785913 0.33548367

encoder.encoder_layers.1.0.weight f4 [32, 64]
00000000: 6764 493e 5b64 01bd fe33 483d c09d 08bd
00000010: 42bd b03c b5f6 753c e339 8bbe e5e9 d5bd
00000020: b27b 243d a8c7 983d cb46 4a3e 049b 43be
00000030: 4d6d 2b3e dd36 a43d a41f 29bd 884f 5a3d
00000040: 000f a2bd 1958 10bd 5571 cebd 231d ccbd
00000050: 131b a0bd 601e 9a3e 46ce 333e 8673 50be
00000060: 34a9 84bb de39 c53d 7731 42be 7906 9abd
00000070: ccdc 5dbd dc7a 01be 383a bdbc 3c58 fcbc
00000080: a442 2cbe 30e6 3cbe 18d5 07be e829 e3bd
00000090: a1e5 f73d 54be dabc e10b 8e3d 49e5 a03e
000000a0: 7d24 e63d 6597 f9bd 8b7e 6ebd 545a c0bd
000000b0: fc63 3c3e 91dc 7f3d 1980 db3d 103c e9bd
000000c0: 6eb4 8f3e 16a8 f4bd 0275 263e ab11 6ebe
000000d0: 79a8 4e3e 4a82 0ebe a422 3dbe 7939 e93d
000000e0: 68f4 803e a4b1 aabc 0e3d 253e 6d99 3e3e
000000f0: 006c 46be facc 953a f5a4 0f3e 08c9 a1bd
00000100: 99f8 3f3e 6c49 773e f5f0 0a3e 7903 cbbd
00000110: 2121 743e 2970 523e 5fe9 a03c 0031 93bd
00000120: c5de 3c3e e59c 39be ab97 42be fa29 943d
00000130: 636c 193e 4291 2cbc 3730 423e a423 273e
00000140: 0f0f e23d 827b 5e3e 92c0 823e 327c 043e
00000150: b1e7 3b3e 488b c9ba 8893 3a3e 59c6 2c3e
00000160: 35bc c4bd 184c 883d ac98 a3bd 1d5a 9ebd
00000170: 83c8 513e fb2c 5d3d bf73 873e c1ae 34bd
00000180: 1735 653d 9213 053e 1f43 703c 8c99 3e3e
00000190: cb91 10be 9db7 f4bd 4b77 b7bc de02 2e3e
000001a0: 2de1 353e cd71 5d3e a726 d7bd 6ba0 f0bc
000001b0: 589c d7bc 6c57 7a3e cc19 843e c4bf 263d
000001c0: b1d9 42be d33e c0bd a11e 063d 3282 78be
000001d0: 3a5f eabd 61ba 7abe 0cdf f93d 6ef6 c5bc
000001e0: 1859 3fbe 7da3 483e 251f 81be 25dc fb3c
000001f0: 23ea 783e 95f0 e53c f8a2 75be 1019 193d
00000200: c178 93bd d768 cb3d 44c7 173e f9aa 3a3e
00000210: b382 72bd 305f c63d 482a 96be 3638 033e
00000220: 2117 103e 4367 70be ad78 e6bd 73b4 27be
00000230: ccdd 33be a7d9 b83d 6694 02be 34f8 0c3e
00000240: 2ec7 babd 674b 453e 5410 cebd e17a 94bd
00000250: e5de 8abd 38dd 46bd 5883 02be 5575 3ebe
00000260: e55b 57be 3ed7 833d b4a4 20bd 3bc2 55be
00000270: 218f 083e e25d 58bc ce80 a5bd fca7 b3bd
00000280: 1b2d 04bd a85d 2e3e c82d 5fbe ce96 d2bd
00000290: fc42 7bbe c926 6bbe a0a8 5b3d e335 b83d
000002a0: dd48 4e3d cdb3 383e cca6 d93c f6a6 19bc
000002b0: 884b 8cbe eea1 463e 6b35 503e fbb6 84bd
000002c0: 1d81 e8bb d1f1 893d 294c 483e a574 30bd
000002d0: 277d adbd d23b 47be eeff d73c ef23 af3d
000002e0: bc54 81be 5708 c63d 9728 b6bb 3345 783d
000002f0: ab05 ad3d e509 b4bd 80e5 1cbb 8935 5cbe
00000300: bb18 663e 9fad b1bd 57e4 e0bd 3d62 1dbe
00000310: ebc5 a8bc 6617 2f3d 21fa 143e b810 febc
00000320: ebcc 593e 735d 51bc 5e31 833e 5a15 043e
00000330: 250e 8e3e c27f df3d dc8c 9cbc 7b01 8a3e
00000340: 88d1 59be d090 10be 1390 edbd eaf5 b4bd
00000350: 04db 043e dfe0 0a3e d9fc dcbd e290 873e
00000360: 8cf3 123e d43c d03d fa7c 61be 2969 4e3e
00000370: 00e9 b63d d6dd ea3d 79ba 44be 537c 443e
00000380: e6e8 9bbc 40c5 26be b317 583e e7e4 e2bb
00000390: 0efc 213e cbcc f93d 04ea 0a3d 5105 e73c
000003a0: 9f3c a7bc 3f67 4a3e 29c6 4dbd df2a 4fbe
000003b0: f869 e2bd b900 3ebe 1191 c03c a096 523e
000003c0: e846 783e 6e6c 913d b77a 2e3e 4bff 25be
000003d0: 3ef6 a43e 45ac 253e 97a4 18be 7ec1 febd
000003e0: 21bc ddbd 99a7 09bd 2bae 893e 929e ea3c
000003f0: 5eba cabd 9ab6 e6bc 6e78 cbbd b95d 2a3e
0.19667207 -0.031589847 0.04887771 -0.033353567 0.02157462 0.015012433 -0.27192602 -0.104450025
0.040157028 0.074599564 0.19753568 -0.19102103 0.16740914 0.08018277 -0.04128994 0.053298503
-0.07913017 -0.035240266 -0.1008021 -0.09966495 -0.07817664 0.301013 0.17559156 -0.20356569
-0.004048491 0.09630178 -0.18964182 -0.07520766 -0.054165646 -0.12644523 -0.02309905 -0.030803792
-0.16822296 -0.18447185 -0.13264883 -0.11091977 0.12104345 -0.026702084 0.069358595 0.3142493
0.11237428 -0.12187079 -0.05822615 -0.09392229 0.18397516 0.062466208 0.10717792 -0.11388409
0.28067344 -0.11946122 0.16255572 -0.23248927 0.20181455 -0.13916889 -0.18470246 0.11387915
0.25186467 -0.020836659 0.16136572 0.18613215 -0.19377136 0.0011428886 0.1402777 -0.07899672
0.18747176 0.24149102 0.1356848 -0.09912772 0.23840763 0.20550598 0.01964253 -0.071870804
0.18444355 -0.18126257 -0.19003169 0.07234569 0.14982753 -0.010532679 0.18963705 0.1632219
0.110380284 0.21726802 0.25537544 0.12938002 0.18350102 -0.0015376592 0.18220341 0.16872539
-0.0960621 0.06655139 -0.07988104 -0.077320315 0.20486645 0.053997975 0.26455495 -0.04411197
0.055958834 0.12995747 0.01466444 0.18613261 -0.14118116 -0.11949084 -0.02239575 0.16993281
0.17761679 0.21625443 -0.10505419 -0.029373368 -0.026319668 0.24447411 0.2580093 0.040710226
-0.19028355 -0.09386983 0.032744054 -0.24268416 -0.11443944 -0.2448516 0.12200746 -0.024165358
-0.1868633 0.19593616 -0.25219074 0.030744622 0.24308066 0.02806882 -0.23987949 0.037377417
-0.07200766 0.09932106 0.14822108 0.18229283 -0.059206676 0.09686124 -0.29329133 0.12814412
0.14071323 -0.23476891 -0.11253486 -0.1637743 -0.17565078 0.09025889 -0.12751922 0.13766557
-0.09120022 0.19267045 -0.10061708 -0.0725 -0.06780795 -0.048550814 -0.12745416 -0.18599446
-0.21031149 0.064375386 -0.039219573 -0.20874874 0.1333585 -0.013205977 -0.08081208 -0.08772275
-0.03226958 0.17027915 -0.21794808 -0.1028267 -0.24537271 -0.22964014 0.05362761 0.08994653
0.050362457 0.18037339 0.026568793 -0.0093781855 -0.27401376 0.19397709 0.20332877 -0.06480213
-0.0070954696 0.06735576 0.19560303 -0.04307999 -0.084711365 -0.19456413 0.026367154 0.08551776
-0.2525996 0.096695594 -0.005559038 0.06061287 0.08448347 -0.0879095 -0.0023940504 -0.21504797
0.22470371 -0.08675694 -0.10981052 -0.15369506 -0.020602187 0.042746924 0.14548542 -0.031013831
0.21269576 -0.012778628 0.25623602 0.1289877 0.27745166 0.1091304 -0.019110136 0.26954255
-0.21271336 -0.14117742 -0.115997456 -0.08835967 0.12974173 0.13562344 -0.10790414 0.26477724
0.14350718 0.10167852 -0.22020331 0.20157303 0.0893116 0.11468093 -0.19211759 0.19188051
-0.019031953 -0.16286182 0.2110279 -0.00692426 0.15818807 0.12197264 0.03391458 0.028200777
-0.020414649 0.19765948 -0.05023781 -0.20231198 -0.11055368 -0.18554963 0.023506673 0.20565271
0.24245799 0.071007594 0.17039 -0.16210668 0.32219118 0.16178997 -0.14906536 -0.124392495
-0.10826898 -0.0336071 0.26890692 0.028640065 -0.09898828 -0.028163243 -0.099350795 0.16637315

encoder.encoder_layers.1.0.bias f4 [32]
00000000: c4d0 0f37 348f f0b7 3785 e837 3db6 d936
00000010: fa82 9d34 b100 9036 ee10 2937 04c4 88b7
00000020: 49ab 3b37 0e94 bcb6 ee96 02b7 693c 10b8
00000030: 8c26 8db7 1f91 8ab7 884c ea37 3033 a7b7
00000040: 3f94 deb7 0d51 81b7 4eb6 54b8 3370 ddb6
00000050: e2e3 c7b7 5db8 0a38 9697 1db7 3275 7fb5
00000060: 2897 19b7 1541 3f37 c4c1 18b7 4269 1b38
00000070: 1948 8ab7 4aa0 8837 d725 17b8 9f9f ff37
8.572071e-06 -2.8676914e-05 2.7718588e-05 6.4883193e-06 2.9338827e-07 4.291615e-06 1.0077127e-05 -1.630374e-05
1.1185949e-05 -5.6200724e-06 -7.783745e-06 -3.4388537e-05 -1.682646e-05 -1.651846e-05 2.7930611e-05 -1.9931787e-05
-2.6533495e-05 -1.541574e-05 -5.0714523e-05 -6.599375e-06 -2.3828765e-05 3.3073466e-05 -9.393223e-06 -9.5165444e-07
-9.1547045e-06 1.139964e-05 -9.105021e-06 3.705291e-05 -1.6484455e-05 1.6287104e-05 -3.6036447e-05 3.0472698e-05

encoder.encoder_layers.1.1.weight f4 [32]
00000000: 750f 953f 92cc 803f c3f1 733f 6b72 753f
00000010: c203 9b3f 713a 9c3f b49e 813f f46c 823f
00000020: b25c 7c3f 1399 7d3f deac 7d3f e7e6 633f
00000030: ddd8 853f 6472 773f 8bb2 5d3f a7ca 833f
00000040: 4d2c 5b3f 2a44 5e3f 586d 683f 3881 593f
00000050: 674e 723f 97d8 493f b500 623f aa53 913f
00000060: a957 973f c55b 553f 0147 693f a823 753f
00000070: 2a39 823f 791c 893f e340 7a3f 25f4 843f
1.1645342 1.006243 0.95290774 0.9587771 1.2110522 1.2205335 1.0126557 1.01895
0.9857894 0.990617 0.990919 0.89024204 1.0456806 0.9665892 0.8660056 1.029622
0.8561447 0.8682276 0.90791845 0.849628 0.9465088 0.78846115 0.8828233 1.1353657
1.1823627 0.83343154 0.9112397 0.9575753 1.0173695 1.0711814 0.9775526 1.0387007

encoder.encoder_layers.1.1.bias f4 [32]
00000000: 5cf8 07bd 3d0d 223d 8fee cebc b31c eebd
00000010: d95b 6dbc 29c4 903d 407f 20be 9f3c f2bb
00000020: 21c7 e83b c5f8 d9bc c744 c2bd eec2 0abe
00000030: ecc8 52bd c4b6 d0bd b65a 89bd 9afd 29be
00000040: 7ba4 02be 2d88 8fbd 8098 3cbe 01f9 5cbd
00000050: 508f a6bd d799 59be fe7d c5bd ddca 51bd
00000060: c382 3a3d 89bb 3cbe 3341 07be a970 11bd
00000070: 9b4c dfbc 2928 8dbd c725 8dbb 6105 a6bd
-0.03319584 0.039563406 -0.025260238 -0.11626568 -0.01448723 0.070686646 -0.15673542 -0.0073924805
0.007103816 -0.02660788 -0.094857745 -0.13550922 -0.051461145 -0.1019111 -0.06706755 -0.16600648
-0.12758057 -0.07008395 -0.18417549 -0.053948406 -0.081328034 -0.21250091 -0.09643172 -0.051218856
0.04553486 -0.18430914 -0.13208465 -0.03550783 -0.027258208 -0.068924256 -0.004307482 -0.08106495

encoder.encoder_layers.1.1.running_mean f4 [32]
00000000: bef7 bb3d d425 703f 5425 26bf 4377 553f
00000010: e81d cf3e 3655 be3e ac54 8b3f 4c0f 883e
00000020: 2d90 0f3f 49ca 023f 59dd aa3e 2ff7 173e
00000030: e636 193f e362 133f 4362 54be 2735 df3e
00000040: b076 39bf 76d6 74bf 023b d43e 9998 6dbf
00000050: 2c8b 0abf fd74 3fbf 3025 26bf 881a 063f
00000060: 43dd 1f3f 37c4 42bf 24be ca3e 9d73 40bf
00000070: ae2e 303f fe71 513f c074 21bd 00c8 193e
0.091781124 0.9380772 -0.6490071 0.83385104 0.40452504 0.37174386 1.0885215 0.2657417
0.5607937 0.5108991 0.33372 0.14840387 0.59849393 0.57572764 -0.20740609 0.4359524
-0.7244673 -0.9563974 0.4145127 -0.9281097 -0.5411861 -0.74787885 -0.64900494 0.52384233
0.62446994 -0.7608065 0.3959819 -0.7517641 0.6882123 0.81814563 -0.039417982 0.150177

encoder.encoder_layers.1.1.running_var f4 [32]
00000000: 6965 3f40 8f76 7a40 7d9c 7a40 831a 4440
00000010: 9279 6c40 4b7c 9e40 4717 7d40 b5ec 2940
00000020: 3d83 4b40 0e11 1d40 81cf e43f 210d 7b3f
00000030: 9ba8 7e40 f4ec f23f 9d11 f83f 8d21 0940
00000040: ac60 2040 86e8 6640 7eaa f63f ecbb 8040
00000050: 433a 3740 6349 ae3f dd7d 2340 c01c 3a40
00000060: 3dd2 9040 bdb6 9a3f 3008 823f 4c34 5a40
00000070: b21d 1540 3368 4040 5883 8d40 957c c73f
2.9905646 3.9134862 3.9158013 3.0641181 3.69492 4.9526725 3.9545457 2.6550725
3.1798851 2.454166 1.7875825 0.9806691 3.9790409 1.8978562 1.9380375 2.1426728
2.5059004 3.607942 1.927078 4.0229397 2.862931 1.3616146 2.554557 2.9080048
4.525664 1.2087017 1.0158749 3.409442 2.3299375 3.0063598 4.422283 1.5584894

encoder.encoder_layers.2.0.weight f4 [16, 32]
00000000: 075c 21be ae1e ddbb af52 553e 142d 8ebd
00000010: 65d2 a1be 5dcb d2be ac0b 153d 396d 7abe
00000020: d6b6 5f3d 06bf cbbe 0566 713d 2823 c73d
00000030: 0773 33be 6db1 3ebe ed27 b0bb 2e90 163e
00000040: 6d55 813e 6993 003e ee37 8abd 4531 7f3e
00000050: 1583 e43d 6f66 4d3e 7590 3d3e 02ab a5be
00000060: a2e3 cabe 6a2d 40bd c3fb f2bd b421 933e
00000070: 3e2a acbe c57d 443d e649 413e 9001 04bd
00000080: 7aa3 abbe 3f09 dbbe 540d 9bbd d07b 193e
00000090: 2212 1abb 6b0c f03d 7d4c 233e 9267 c7be
000000a0: de19 f43d 40c1 253e 02e0 59be a0bb 7fbe
000000b0: 6fe1 84be 1c39 f9be c865 383e 2a2f b93c
000000c0: aa3f 1ebe 48d6 3dbe bf53 ccbe 23b1 133e
000000d0: 6b81 123e 7825 1f3e 76d5 aabd 33e2 803d
000000e0: 6b02 36bd 2c82 6d3d a37f 003e 9579 73be
000000f0: a925 54be 1191 34bd c8c0 ba3b 3839 3b3e
00000100: da25 d3be 49dd 2d3e 5628 45be 3961 f93c
00000110: 4f40 e9be e869 b7be 96c5 b2be 89fa 763e
00000120: a0ea 8b3e 13b5 ecbd 68d7 d8bd dc71 cbbe
00000130: 5fa8 91be ded2 17be 8526 7bbc bf88 eebe
00000140: d0fa 05be 1884 933c b5f8 b3bd 95d0 713d
00000150: 4cbe d93d f3fe 223e 7bbd 51be 9ed3 d8be
00000160: e988 613d 8c47 ae3c 5c6d 833e ee03 873e
00000170: 5822 bfbe dd04 78bd 4c18 58be 541c 893b
00000180: 88c1 0f3d 153f dfbe 0f76 4ebe bb93 763d
00000190: 0c86 cc3c 6464 45be f5d1 51bd 1ad5 7bbe
000001a0: 4b77 ee3d 14ee a03d 764d cc3b 698b e4bd
000001b0: 87b7 8abc 5006 d6be 6300 213e 3a5e 86bd
000001c0: dd1e 77bb 3f3c c33c 7340 dabe 5917 5c3e
000001d0: 52cb 593e 51d1 0c3e fc96 a13c 8e52 16bd
000001e0: c57c 6dbd 5644 94ba 3051 043d e665 8c3d
000001f0: 803a 3d3b 282f c3be 6f53 b4bd fae7 9e3d
00000200: 330a 103e 142c bfbe 27d4 f3bd e066 a5bd
00000210: c7cf 9f3c 7f3b 7e3d ae0a 45be 279f 213e
00000220: 3328 283e d974 333e 1788 333d 8026 d63d
00000230: ffb1 483d 4abd a2be 323d 403e fb22 22be
00000240: f326 1dbb 64fb 2bbe 1a8c 1fbe 072d 57be
00000250: dab4 89be 5d60 103e b538 053e 0f72 50bd
00000260: ee59 e33d ed84 003e 3cda 29be 2711 05bf
00000270: 3915 433e 8783 fbbe 158c 11bf 208e 78be
00000280: b41b bebe 9526 17be eb7d 353d e565 0bbe
00000290: 951f 183e 1f41 edbe 8280 abbe c162 cabe
000002a0: c8b1 cfbe 7714 863c 4776 c0be bb48 11be
000002b0: 8054 89be ee52 883b 0a8a 8abd 1717 d23d
000002c0: 644d 1fbd f5ad 62bd a5b6 e93d 7d71 9f3e
000002d0: 635f 983e ecdb 563d e919 2cbd 1386 4abe
000002e0: c1d9 00be 592b 85bb a7a9 0bbe 83c2 ea3b
000002f0: 3d2f 483d 0947 c13d 633a a83e c993 4abe
00000300: 0cd5 a2be e727 abbe cb16 053e fbc3 0bbe
00000310: 6f73 00bf 53fc debd a874 8abe 8b7d 82be
00000320: 2088 603e ac0f 8fbe cb9f a43d 345a 493e
00000330: aafe b13d a1f1 02be e788 4f3e 6b03 c4be
00000340: 22eb 483e 6920 59bd c3ab 3ebe 212e ea3b
00000350: f051 723e 2a0e 8b3d aee1 5c3e 42b0 59bd
00000360: ebe7 c8be 72ff e1bd b13b 7c3e f5aa a73e
00000370: 4e8d b93d a49a 833e 782a 91be 6a16 93be
00000380: 23c8 58bd 24b8 d4be abc2 a6be e9ed 503d
00000390: 511b 9bbb b841 f73d 6b69 e5bd 1c24 683e
000003a0: 5179 943d 0f05 183e 1126 353e f98e 523d
000003b0: fced 5f3e c291 f83c 554e 4bbd b97e 183b
000003c0: 767d 07be 3a7f e13d f218 26be 8e04 22be
000003d0: 8be8 97be 28d9 05be 13d2 283e de55 87bd
000003e0: fd5a 9ebd 78c7 4a3d 8174 16bd a9c6 f7be
000003f0: d817 063e 96e1 d3be c8e4 06bf 2c08 16be
-0.15757762 -0.006748042 0.20832323 -0.06942192 -0.3160583 -0.4117078 0.036388084 -0.24455728
0.054617725 -0.39794177 0.058935184 0.097235024 -0.17524348 -0.1862237 -0.0053758533 0.14703438
0.25260487 0.12556233 -0.06748949 0.24921139 0.111578144 0.20058607 0.18512137 -0.3235703
-0.39626795 -0.04691831 -0.11864426 0.2873665 -0.33625978 0.047971506 0.18875846 -0.032228053
-0.3352316 -0.42780492 -0.075709015 0.14988637 -0.0023509343 0.117211185 0.15947147 -0.38946205
0.11918996 0.16187 -0.21276858 -0.24973917 -0.25953242 -0.48676383 0.18007576 0.022605497
-0.15453973 -0.18538773 -0.39907643 0.14423041 0.14307182 0.15541637 -0.08341496 0.06293144
-0.0444359 0.05798547 0.1254869 -0.23776849 -0.20717491 -0.04408366 0.005699251 0.18283546
-0.41239816 0.16978945 -0.19253668 0.030441867 -0.45556876 -0.35822988 -0.3491637 0.24119009
0.27327442 -0.11557975 -0.105879605 -0.39735305 -0.2844877 -0.14826533 -0.015329008 -0.46588704
-0.13083959 0.018007323 -0.087876715 0.05903681 0.106319994 0.15917568 -0.20482437 -0.4234895
0.05506221 0.02127435 0.25669372 0.26370186 -0.3733089 -0.060551513 -0.21103019 0.004184285
0.035096675 -0.43602815 -0.20162223 0.06019948 0.024966262 -0.19276577 -0.05122562 -0.2459301
0.11643847 0.0785791 0.00623482 -0.11159403 -0.016933216 -0.4180169 0.15722804 -0.06560941
-0.0037707605 0.023832439 -0.42627296 0.21493281 0.21268967 0.13751723 0.019725315 -0.036699824
-0.057980318 -0.001131187 0.03230399 0.06855373 0.002887398 -0.38121915 -0.08804976 0.0775909
0.1406639 -0.37338316 -0.11905699 -0.080762625 0.019508256 0.06206846 -0.19242355 0.15783368
0.16421585 0.17525043 0.043830957 0.10456562 0.048997875 -0.3178504 0.18773344 -0.15833656
-0.0023979514 -0.16795117 -0.15580788 -0.2101327 -0.2689579 0.1409926 0.13009913 -0.050890025
0.11101137 0.12550707 -0.16587156 -0.519793 0.19051065 -0.49123785 -0.56854373 -0.24272966
-0.3713051 -0.14760812 0.044309538 -0.13613088 0.14855798 -0.46338746 -0.3349648 -0.39528468
-0.40565324 0.01636718 -0.37590238 -0.141879 -0.2682228 0.0041602766 -0.0676461 0.1025831
-0.038892165 -0.05534168 0.1141179 0.31141272 0.29760274 0.052455828 -0.042016897 -0.19777708
-0.12583067 -0.0040640053 -0.13638936 0.007164301 0.048873175 0.09437377 0.32857046 -0.19782938
-0.31803167 -0.3342888 0.12996976 -0.1364898 -0.5017614 -0.10887971 -0.27042127 -0.25486407
0.21926928 -0.27941644 0.080382906 0.19663316 0.086911514 -0.12787487 0.20267068 -0.38283858
0.19620946 -0.053009424 -0.1862021 0.0071466123 0.23664069 0.06789811 0.21570465 -0.05314661
-0.3923944 -0.110350505 0.24632145 0.32747617 0.09060155 0.2570392 -0.28352714 -0.28728038
-0.05292524 -0.41546738 -0.32570395 0.05100814 -0.004733481 0.12073082 -0.112017475 0.22670025
0.07249702 0.1484568 0.17690302 0.05140588 0.21868128 0.03034294 -0.04963525 0.0023268892
-0.13231453 0.11010595 -0.16220453 -0.1582205 -0.29669604 -0.1307112 0.16486387 -0.06608175
-0.077321984 0.049506634 -0.0367322 -0.48393753 0.13095033 -0.41383046 -0.5269284 -0.14651555

encoder.encoder_layers.2.0.bias f4 [16]
00000000: 4e11 fc38 419e 5e38 49ff 35b8 ace0 2239
00000010: 9d98 8eb7 e80e a238 960d 6638 f8ed 2439
00000020: 52f7 bfb7 f80d 15b7 af51 2ab8 f8e7 eab8
00000030: 60bf 10b8 8cb7 1337 072b f3b8 2d86 c237
0.000120195196 5.307631e-05 -4.3391516e-05 0.0001553322 -1.6998785e-05 7.7275385e-05 5.4848926e-05 0.00015728909
-2.2884142e-05 -8.884344e-06 -4.0607232e-05 -0.00011201197 -3.4510507e-05 8.804618e-06 -0.000115951574 2.3189083e-05

encoder.encoder_layers.2.1.weight f4 [16]
00000000: 5a47 603f d468 6f3f 758c 623f f4de 4d3f
00000010: d78b 6c3f 2dd1 503f ca72 473f 417f 623f
00000020: c5d2 4b3f 7fbe 4b3f a179 443f 8154 4b3f
00000030: 0a55 453f 2623 473f a386 5f3f da15 683f
0.87608874 0.9351933 0.8849557 0.80418324 0.9240088 0.81569177 0.7790953 0.88475424
0.79618484 0.7958755 0.7674809 0.7942582 0.77082884 0.7778801 0.87314814 0.9065834

encoder.encoder_layers.2.1.bias f4 [16]
00000000: faac 3ebe d864 c0bd e803 19be 17d9 81be
00000010: e8eb 54bd 421d 2dbe 634e 88be 6939 9abd
00000020: e08f 70be 8050 53be 68fd 83be 348f 7cbe
00000030: d2ee 8dbe 184a 75be 4826 fbbd a712 07be
-0.18620673 -0.093942344 -0.14942896 -0.2536094 -0.05198279 -0.16905692 -0.26622304 -0.07530481
-0.23492384 -0.20636177 -0.2577927 -0.24664003 -0.27721268 -0.23954046 -0.12263161 -0.13190709

encoder.encoder_layers.2.1.running_mean f4 [16]
00000000: 614f f5be a756 22bf 4091 76bf 0b08 00bf
00000010: a891 37bf fe25 43bf 8e61 0fbf bfef 1cbf
00000020: 5bcc 20bf d08f f1be c7a9 39bf b282 eebe
00000030: 405b 1dbf 96f1 17bf d01d 3dbf b522 26bf
-0.47912124 -0.6341347 -0.96315384 -0.5001227 -0.7170663 -0.76229846 -0.5600823 -0.61303324
-0.6281182 -0.47180033 -0.72524685 -0.46584088 -0.6146736 -0.59353006 -0.73873615 -0.6489671

encoder.encoder_layers.2.1.running_var f4 [16]
00000000: 9fd4 dc40 d04f b63f 945b 0441 2f17 e83f
00000010: 842b 4e40 4818 fe40 240c a240 afc2 1c40
00000020: ffc1 f240 5ac1 c340 c8a6 6840 600d 6c40
00000030: df66 7a40 426e bf40 4bad 2c40 d1b7 cb40
6.9009547 1.4243107 8.272358 1.8132075 3.221406 7.940464 5.063982 2.4493825
7.586181 6.1173525 3.6351795 3.6883163 3.9125288 5.982209 2.698077 6.3661885

encoder.mu_head.weight f4 [10, 16]
00000000: d965 ed3d 515c 26bc b258 66be 355f 863e
00000010: 7211 e6bd b155 543e c7c3 f639 1094 353e
00000020: f081 8dbd 1a8c 37be d426 bb3d b29c c5bc
00000030: f9b5 873e daa6 213d 613e f2bd a28a 0bbe
00000040: 51bb 1f3d 74b8 b33b 8332 a4bd d4be af3e
00000050: 0315 29be 6008 013e 8fca 8c3e da1b 3e3d
00000060: 46db 5d3d f75a 193e 8b28 acbd 7c54 91be
00000070: 7d0d 7a3e 1999 22be cce3 50be 079b 09be
00000080: 5fdb 943e 4b48 3ebd f7c2 8b3e b5f5 b43e
00000090: 1c30 733e 54fa 74be daf5 9bbe 2f5a babd
000000a0: 9a9d 293e 1541 56be dd9c 73bc c4ae 82bc
000000b0: 12ad ddbd 580b 23bc 11b4 02be ca21 9a3e
000000c0: 91ec 6bbe 1053 a1bd d0d7 5ebe 4bcf 563e
000000d0: 2462 bbbc a277 41be c4f2 053e 3b7c db3d
000000e0: 251e 673e f2c1 46ba 11ad 773d 93d7 30be
000000f0: da76 97be 2ff4 133b 27ba 983d 85cf 973e
00000100: fa3c 9abe 477f 64bb da18 9a3d efa9 093e
00000110: 2a81 923d 9ba5 b23a 1eaa 92be 9b85 b8bd
00000120: b25a 863e d5e0 70be 0bac 50be 7ad8 573e
00000130: 99c3 953b 54c9 23bd abf5 32bc 53d5 683d
00000140: c12f 583c 6b47 9b3d afe4 dcbd 83ca ddbe
00000150: 1604 ddbe 4774 bf3c 0476 99bc a574 cfb9
00000160: bc74 313e 7815 833e fc20 443e 5901 aa3e
00000170: 2504 98be f2c6 943b 1f6a 92be 65c7 173e
00000180: 06c6 a43d 9011 bf3e 04d6 b03d 8b8b 2bbe
00000190: 4e95 993e c47d 2dbd 502c 66be 48b9 073f
000001a0: c34e acbe 7445 aebe bc10 3fbe be83 babe
000001b0: 5933 dbbc 9be7 58be 822d f33e 8585 8b3e
000001c0: 7d23 003d f2fe 493e 51e7 80be 2fb9 1fbe
000001d0: a964 1f3e e8c4 de3d d8d2 79bb 024f 5d3d
000001e0: 8446 45bd 45b5 2fbe 3865 53bd 8777 8e3d
000001f0: c364 77be ecd0 643e 8884 60be da0d 67be
00000200: bc4a c83e 8f8f abbd b5ef 19bd 9fb4 8fbb
00000210: 36a5 6dbe 5afa 853d 43af 813d 97dd 0a3d
00000220: 767e 6e3d 687c 3abe 7b89 613d 46d2 2d3d
00000230: f3fb 91be 4758 42be 01bd c03e 3b33 7dbe
00000240: e5c4 4bba d3c8 d8bd e0d2 923e f3cf 373e
00000250: 4221 ca3d 6ee7 57bd 7367 51be 057f b1bc
00000260: e292 1b3e 0035 0bbb 4ffd e8bd 6e86 46be
00000270: b7cb 9b3e 29e1 283d 550b 193e af9b 6cbe
0.115916915 -0.010153846 -0.22494772 0.26244512 -0.11233796 0.20735814 0.00047066642 0.17732263
-0.06909549 -0.17924538 0.09138265 -0.02412257 0.26506022 0.039465763 -0.11828304 -0.13627103
0.038997 0.005484635 -0.08017447 0.34325278 -0.16511922 0.12600851 0.2749829 0.04641328
0.054164194 0.14976107 -0.084061705 -0.2838477 0.24419208 -0.15878715 -0.20399398 -0.13438044
0.29073617 -0.046455663 0.27297184 0.3534371 0.23748821 -0.23923618 -0.30461007 -0.090992324
0.16564026 -0.20923264 -0.014868942 -0.015952475 -0.10824026 -0.009951435 -0.12764002 0.30103904
-0.23039462 -0.07877171 -0.21762013 0.20977513 -0.022873946 -0.18893293 0.13080889 0.107170545
0.22570093 -0.00075820007 0.060467783 -0.17269735 -0.29582864 0.0022575965 0.07457381 0.29650512
-0.30124646 -0.0034865902 0.07524271 0.13443731 0.07153542 0.0013629677 -0.28645414 -0.09009858
0.2624107 -0.23523267 -0.20378129 0.21078673 0.004570436 -0.039986923 -0.01092283 0.056844067
0.013194979 0.07581981 -0.107858054 -0.43318567 -0.4316718 0.023370875 -0.018733032 -0.00039569024
0.17329687 0.25602317 0.19153208 0.33204153 -0.29690662 0.0045403177 -0.2859659 0.14822157
0.080455825 0.37318087 0.0863457 -0.1675245 0.29996723 -0.042356268 -0.22477841 0.5301709
-0.3365384 -0.34037364 -0.18658727 -0.36428636 -0.026757883 -0.211821 0.47495657 0.27250305
0.031283844 0.1972616 -0.2517648 -0.15597986 0.15565743 0.10877401 -0.0038120057 0.054030426
-0.048162952 -0.17158993 -0.0516102 0.06956392 -0.24159531 0.22345322 -0.21925557 -0.22563878
0.39119518 -0.08376991 -0.037582118 -0.0043855454 -0.23207554 0.065418914 0.06332257 0.03390273
0.05822607 -0.1821152 0.055062752 0.04243686 -0.28512534 -0.18978988 0.376442 -0.24726574
-0.0007773175 -0.10585179 0.2867651 0.1795042 0.09869625 -0.052710943 -0.20449619 -0.021667013
0.1519275 -0.0021241307 -0.1137644 -0.19387218 0.3042886 0.041230354 0.14945729 -0.23106264

encoder.mu_head.bias f4 [10]
00000000: 966f f7bd cbdd 1b3d d420 8f3e e19a 453e
00000010: 6b74 acbd e62c adbe 59ee ba3e fd47 23be
00000020: d98b 683e 375a a63d
-0.1208183 0.038053315 0.27954733 0.19297363 -0.084206425 -0.33823317 0.3650997 -0.1594543
0.22709598 0.08122676
