scripts/abr_clustering/audiometric_deep_clustering/experiments/full_pipeline_test_minimal/20250618_174959_evident/checkpoints/joint/joint_epoch_0.pt (torch, 343411 bytes, 215 tensors)

encoder.abr_encoder.abr_projection.weight f4 [16, 6]
00000000: e86e c83d bfc5 f53e 9c76 b23e dd3a 153d
00000010: 1647 7cbd 560d 5c3e 4185 06bf 9fa0 77be
00000020: e0af db3e e38f a1bc 4744 7cbd 23c7 aebe
00000030: 7f98 a8be a4c9 123d 882b aebe 756d 32be
00000040: 476c 85be 032c 663e 3d42 243d e491 f5be
00000050: 1c75 353e 1962 adbd bc5b 77be 8cdc c93e
00000060: 0b20 c3be 14d0 0abf 9268 053e 6ce5 a8be
00000070: 2143 36be a16b aebe be14 77be 19b9 963e
00000080: 3bae f5be ca4e f1be 9dcf 36be 25d8 bdbe
00000090: a360 e13d 3619 c3bd 0bd2 cf3e 45ff 00bf
000000a0: 8379 ec3c 74bf 7f3e 3dd1 f33d 3e9c bcbd
000000b0: 7413 f83e ab39 b5be 3050 093f 6d66 403e
000000c0: 280b 8a3e 2cc7 c83e 8b27 cc3d 2957 b93d
000000d0: 4df1 8abd 52e5 e2be 866a 703e 4da0 d93e
000000e0: 9ae2 613e f50d 18bd ece6 e4be 8e83 fa3c
000000f0: 487a 043e e83c cebe ec40 d43e 88ff 85bb
00000100: a11b 243e 7f82 fe3e 6c22 823e cb0f 73be
00000110: 3e34 363e 2cbe b93e 3920 a93e c4e9 39be
00000120: 745a 39bc 5a3c debe b927 bebd f31f c8be
00000130: 1fdb 623e dc21 f43e 7ff0 03bf 09c4 aebe
00000140: 15a2 12be f908 e0be 493b e83e d63e a1be
00000150: 82b8 45be 1c5f b9be 9f6e 0e3e 1769 93be
00000160: 184b 5bbe 6876 243f 8720 8d3e a7d7 733e
00000170: 883f bc3e bd3d fe3d 0ddb 103e 4e31 acbe
0.09786779 0.4800243 0.34856117 0.03643309 -0.06159123 0.21489462 -0.5254708 -0.24182366
0.4290762 -0.01972193 -0.06158855 -0.34136304 -0.32928845 0.03583683 -0.34017587 -0.17424567
-0.26059172 0.22477727 0.040102232 -0.47962868 0.17720455 -0.08465976 -0.24156088 0.39426076
-0.38110384 -0.5422375 0.13028172 -0.32987535 -0.17799045 -0.3406649 -0.24129006 0.29438093
-0.4798449 -0.47130424 -0.17852636 -0.37078968 0.1100476 -0.09526293 0.40589938 -0.5038951
0.028866535 0.24975377 0.119051434 -0.09209488 0.48452342 -0.3539556 0.5363798 0.18789072
0.26961637 0.39214456 0.0996848 0.090498276 -0.06784306 -0.44315583 0.23478135 0.42505112
0.22059098 -0.037122685 -0.4470743 0.030580308 0.12937272 -0.40280843 0.4145578 -0.0040892996
0.16026165 0.49708936 0.25416887 -0.23736493 0.17793366 0.36277902 0.33032396 -0.18155581
-0.01131307 -0.4340542 -0.0928492 -0.39086875 0.221539 0.47682083 -0.5153884 -0.34133938
-0.14319642 -0.43756846 0.4535773 -0.31493253 -0.19308665 -0.36205375 0.13909386 -0.28791115
-0.21415365 0.64243174 0.2756388 0.23812734 0.3676722 0.124141194 0.14146061 -0.33631366

encoder.abr_encoder.abr_projection.bias f4 [16]
00000000: 3ea7 1239 22aa 7539 8206 b737 fedf 1cb9
00000010: 37b8 bc38 1850 f838 a613 8eb9 ff0d a935
00000020: 0a4e 5d38 b01d d4b8 1862 95b8 737c ae38
00000030: 63fc e8b9 57b0 5239 40a6 adb9 1d92 23b9
0.00013985948 0.000234284 2.181833e-05 -0.00014960763 8.998851e-05 0.0001184048 -0.0002709899 1.2595555e-06
5.2763186e-05 -0.000101144775 -7.123145e-05 8.320147e-05 -0.0004443853 0.00020092852 -0.00033120997 -0.00015599323

encoder.abr_encoder.abr_norm.weight f4 [16]
00000000: ff3e 763f 2526 873f 7f83 813f a937 8d3f
00000010: 7d29 8b3f 3000 813f d79a 763f ae90 7b3f
00000020: 7a1e 7b3f 1b03 723f 9584 733f 0dbb 803f
00000030: 041e 833f e92b 8a3f 6e7c 963f 8f24 7d3f
0.96189874 1.0558516 1.0118254 1.1032611 1.0872036 1.0078182 0.96330017 0.9826764
0.9809338 0.9453599 0.9512418 1.0057083 1.0243535 1.079465 1.1756723 0.9888391

encoder.abr_encoder.abr_norm.bias f4 [16]
00000000: 1a15 92bd 74cc 17be 84ba c8bd 0df8 0fbe
00000010: 92c4 05be 19d5 b7bd 6085 45bd 3894 533b
00000020: 77d6 86bd 6ce4 20bd f259 a2bd 213c ebbc
00000030: 0ee1 06be b426 d2bd 00ce 0fbe 8592 08bc
-0.07132931 -0.14824086 -0.098012 -0.14059468 -0.13063267 -0.08976192 -0.0482229 0.003228439
-0.06583875 -0.03928034 -0.07927312 -0.028715195 -0.13171789 -0.10261288 -0.14043427 -0.008335714

encoder.abr_encoder.abr_norm.running_mean f4 [16]
00000000: 2705 55be d152 113e b9c4 243e f007 233d
00000010: ae41 9d3e 119b 8a3e b88e 1dbd 0171 2abe
00000020: 0211 82bd 0ba8 a1bd 1b21 17be 71eb 09be
00000030: dd51 383d 74f1 773e f197 6d3d 4dbb 1dbe
-0.20802747 0.14191748 0.16090669 0.03980249 0.30714172 0.2707143 -0.038466185 -0.1664467
-0.063509 -0.0789338 -0.14758722 -0.1346872 0.044999946 0.24213201 0.05800623 -0.15403481

encoder.abr_encoder.abr_norm.running_var f4 [16]
00000000: 33cb 853e 20c2 103e e1b3 1d3e 3e20 c33c
00000010: 8822 113f 1c50 e23e 89ae d03c f872 3a3e
00000020: 4026 113d 0f4e 513d 8be7 173e a20f e73d
00000030: 1ad3 fa3c fd72 ba3e abf6 253d 0bb5 113e
0.2613159 0.14136553 0.1540065 0.023819085 0.56693316 0.44201744 0.02547385 0.1820792
0.03543687 0.051099833 0.1483442 0.112822786 0.03061824 0.36415854 0.040518444 0.14229219

encoder.abr_encoder.attention.q_projection.weight f4 [16, 1]
00000000: 9f86 083e 7fd2 febe 8b5f 053d fa59 b5be
00000010: 6c39 9bbe d3e5 a0be 1210 82be 7ab6 a3be
00000020: bea3 21be 8e41 4abe a2f5 05bf e38e ea3e
00000030: 9449 3a3e 4c43 fcbe 3937 0abf cade 8bbe
0.13332604 -0.4976997 0.03256182 -0.3542021 -0.30317247 -0.31425342 -0.25402886 -0.31975156
-0.15785119 -0.1975157 -0.5232793 0.4581214 0.1819213 -0.49270093 -0.53990513 -0.27318412

encoder.abr_encoder.attention.q_projection.bias f4 [16]
00000000: 2e26 9dbd 4b12 9ebd 6c29 a13d be3c 9ebd
00000010: 8b3d 9d3d 193c 9c3d 94ae 9b3d ae7c 9d3d
00000020: debd b93b a5b4 203c 5179 223c caa4 22bc
00000030: 43ed 20bc 7d3d 133c 89b9 1d3c 4e95 1f3c
-0.07673298 -0.07718333 0.07869229 -0.077264294 0.07677754 0.0762865 0.076016575 0.076897964
0.005668386 0.009808694 0.009916619 -0.009926984 -0.009822193 0.008986828 0.009626755 0.009740187

encoder.abr_encoder.attention.k_projection.weight f4 [16, 1]
00000000: 5772 4e3e bd3e 143f df2f 1fbe ac77 c73e
00000010: 3949 94be 6a5d bdbd 286f 7dbd 0621 0cbf
00000020: 6deb 09bc 1674 103e a64d b13e 958a e2be
00000030: 8ccb 25be 906f 213c e999 4c3d b8f8 af3d
0.20160805 0.5790823 -0.15545605 0.3895849 -0.28962114 -0.09246333 -0.061873585 -0.5473789
-0.008417946 0.14106783 0.34629554 -0.44246355 -0.16190928 0.009853259 0.049951468 0.08592361

encoder.abr_encoder.attention.k_projection.bias f4 [16]
00000000: b33a 0938 bf6d 23b9 ab88 f136 7c98 acb8
00000010: 18c1 70b8 c982 d1b8 fa57 7fb8 1db2 c3b8
00000020: 05dd 15b5 aea1 51b4 57d8 b1b5 da24 6a34
00000030: 382b 0135 0d53 83b5 1627 09b6 f256 2cb5
3.2718013e-05 -0.00015585775 7.19827e-06 -8.2300015e-05 -5.740029e-05 -9.990257e-05 -6.0878672e-05 -9.331501e-05
-5.582845e-07 -1.952346e-07 -1.3250491e-06 2.1806355e-07 4.8119136e-07 -9.784432e-07 -2.0437342e-06 -6.4201515e-07

encoder.abr_encoder.attention.v_projection.weight f4 [16, 1]
00000000: 9cee e6be 7728 f13e f7de 0bbf 95da 46be
00000010: bc92 913e 903c 0cbe 386a 8bbe 66a6 18bf
00000020: 0dd0 bd3e 3da8 d03c e5ee 7e3e 0b20 093e
00000030: ca93 ccbe 2133 7fbe 1dbf c53e 8afd a8be
-0.4510392 0.47101185 -0.5463709 -0.1941932 0.28432262 -0.13694978 -0.27229476 -0.59628904
0.37072793 0.025470847 0.24895819 0.1339113 -0.39956504 -0.24921848 0.3862237 -0.33005935

encoder.abr_encoder.attention.v_projection.bias f4 [16]
00000000: 44bc 6c3d 003f 6cbd 726e 6c3d bb91 75bd
00000010: 68bc 6c3d 266e 72bd 7d2e 76bd 144f 6b3d
00000020: 20b1 963b c2c9 99bb dca7 883b 14ba abbb
00000030: d20a c9bc 850d b23b 00d4 5d3b cff2 ad3b
0.05779673 -0.05767727 0.057722516 -0.059953433 0.057796866 -0.059187077 -0.06010293 0.05744846
0.0045987517 -0.004693241 0.004170401 -0.005240688 -0.024541292 0.0054337406 0.0033848286 0.005308486

encoder.abr_encoder.attention.output_projection.weight f4 [1, 16]
00000000: 7f19 9bbe 323c b53e 57e9 90be c190 e33d
00000010: e2c9 97be 94f3 503e a60c 8c3d b7ae fdbe
00000020: 7e95 d2be f044 5b3e 53cb 1ebe 8bd3 b93e
00000030: 9745 fcbb 16f3 76be 5d93 83bd 641c 9ebe
-0.3029289 0.35397488 -0.28303024 0.11111594 -0.29646212 0.20405418 0.0683835 -0.4954736
-0.41129678 0.21413016 -0.1550725 0.36294207 -0.0076987254 -0.24116167 -0.06424592 -0.30881035

encoder.metadata_encoder.metadata_projection.weight f4 [24, 12]
00000000: 2d68 0d3e 50c0 853e 6431 86bc 8193 9cbe
00000010: a59e 863e 605a a63e f06d 793e ad87 57bc
00000020: dd61 fa3d 96f4 903c 18a6 15be 8815 c5be
00000030: 1ccf 1f3d eb56 673e 58d9 1d3e 37dd d13d
00000040: 9437 333e f7f4 543e eb7f a5bd feef 543e
00000050: 2cea 57bc b2f5 1fbe 809a 46be 07bd 63be
00000060: 8f55 7fbe 0d6f 363e fb6f 903e cf6e 863d
00000070: 539b d63c b0ed 33be 84ae 55be 0630 38be
00000080: 9545 363e b448 4a3d 888a 83be 356a 8c3c
00000090: 28e1 a8bc c869 f23c adab 453e 1dd6 31be
000000a0: 1c0e b43e cb2d 61be de62 923e 8d2c 003e
000000b0: 84c3 3e3e ae78 e1bd baff c9bd 1f19 8bbe
000000c0: c006 acbe 6460 793e edf9 ad3e 4147 b13d
000000d0: 2888 29be ef33 2e3d 78e5 58bd 2400 c2be
000000e0: 0d60 9ebe 383a fe3d 6f9f febd 60f4 39bd
000000f0: 31bc 32be e991 213e 6a69 62be 50bb fbbd
00000100: c673 613e bb21 bf3e 5931 b63e d1fd 413e
00000110: 2e58 70ba 7aff 963e dc36 c83e 05ea 133e
00000120: 40c1 de3d 2daa 6e3d 99e5 363d a5b1 633e
00000130: e191 e83d 6920 afbe 331c 95be 7127 bebe
00000140: af60 c1bd c5e2 b93b 620a 35be 9b12 adbe
00000150: 0886 4dbe 6f27 533e ef41 bbbd 1f34 e9bd
00000160: fa15 823d 4693 f4bd c834 8dbe d55d 62be
00000170: 8714 29be d4f6 c8be b357 ccbe 3b46 0fbe
00000180: 016b 333e 6bd4 c93e 83b1 68bc d2b5 863e
00000190: 7c66 233e bed8 afbe f9ca 6ebe 19f6 a2bd
000001a0: 9596 a0be dba2 b03c e6aa 843d ccdd 9bbe
000001b0: ddf2 a8bd a1f9 a4be 4c46 a93e 6b36 873e
000001c0: 55e2 10be cb21 953e c91e 66be f0ed 943e
000001d0: cde9 10be 2036 0b3e d199 a63e 4e60 193e
000001e0: 7814 023e f00e 55bd 181e 603d 31ab af3e
000001f0: 152e dcbd aed0 18be 0ddf 743d 0ce8 efbd
00000200: 0f19 07bd c5c8 013d 5dda 9f3e b404 c83d
00000210: 1b26 68be 1f92 573e a5b8 debd 82e3 6f3d
00000220: f144 7fbc e451 823e 1c6c a9bd 0df6 14be
00000230: 1a59 5abd 6855 663c b7f2 6ebe 9870 793e
00000240: 4881 2fbe e65e 313d 5a88 cabe f509 d1bd
00000250: f355 c4bd 1e0a 66be feed f13d 45d4 abbe
00000260: 34eb 433d 34e6 60bd 752d 6bbe b0a6 6c3e
00000270: 4ec7 843e e430 c63d e4b1 a13c aeba 443e
00000280: 5d3b 4dbe 88fa a0be 80fb b33e b4bb 12be
00000290: b41f 8b3d 59b5 f83c 7d12 c33e d550 a33e
000002a0: 0053 7dbe 75bf 1abc 8fc7 a9be 9f3f 4c3e
000002b0: 6af2 c33e 73db 3bbe fdaf c43c bb92 abbd
000002c0: d723 c8bd 9119 9a3e 6bf3 b3be 1a4e b4bd
000002d0: a0f6 a13a 19f7 96be a9be 193e 204c 963e
000002e0: 24d8 9cbe 544f 2e3e 2010 7abc 667a b13e
000002f0: 9f3d b0be a1ae b73e 9b80 5fbe 4674 a53e
00000300: 2b77 31be e22b a23d 3f81 3e3d 11b8 623e
00000310: 8f6e 2e3e d403 db3d 5e4b a3bd efcf 9ebe
00000320: 557a 253c ec63 af3e 3f4b c33e 22d3 62be
00000330: 7c89 883e b649 113e 9220 d5bd d78b 193e
00000340: 1ebd 38bd 2cc6 bb3b 4764 9fbe 1ff8 b6bd
00000350: 0a61 c93e 39a2 5b3e f21e a9be 9c88 6ebd
00000360: 74c2 763e 1e54 26be a995 84bd 38c2 2c3e
00000370: 1752 af3e 371d 8c3e 2dd8 84be b0c8 bcbe
00000380: 0ecc 863d a8e5 f9bc d90d c93e fd7e 763e
00000390: a37e d4bd c1db ec3d 3af9 163e 9741 dcbd
000003a0: 5bfa cc3e e6df b03c 1038 c2bd d5d6 adbe
000003b0: d610 993e 9f21 cfbe bbe6 a93e e2d6 15be
000003c0: 1276 63bc e8b0 af3d 1c8e c03e f2ce 7fbe
000003d0: 0979 91be fcd8 313e a26e 1ebe 47f7 22be
000003e0: 933b 4f3e a589 4ebe 5dd7 793e ad63 3cbe
000003f0: 4ee7 a13e 24e8 b23e b876 ddb9 8c85 38be
0.13809271 0.26123285 -0.016380973 -0.30581287 0.2629291 0.32490826 0.24358344 -0.013154906
0.12225697 0.017694753 -0.14614141 -0.3849299 0.039015874 0.2259175 0.15414941 0.102472715
0.1750167 0.20796572 -0.08081039 0.20794675 -0.0131783895 -0.15621069 -0.19394875 -0.22240077
-0.24934982 0.178158 0.28210434 0.06564104 0.026197111 -0.1757114 -0.20867354 -0.1798707
0.17799981 0.04938574 -0.25691628 0.017140487 -0.020615175 0.029591456 0.1930377 -0.17366834
0.35167015 -0.21990125 0.28591055 0.12516995 0.18629271 -0.11009346 -0.09863229 -0.27167603
-0.335989 0.24353176 0.3397974 0.08656169 -0.16555846 0.042529996 -0.052953213 -0.37890732
-0.30932656 0.12413448 -0.12432753 -0.04539907 -0.17454602 0.15778317 -0.22110525 -0.122915864
0.2201682 0.37330422 0.35584524 0.1894448 -0.0009168413 0.29491788 0.39104354 0.1444474
0.10876703 0.05826776 0.044652555 0.22235735 0.11355949 -0.34204414 -0.29123077 -0.37139466
-0.09442269 0.005672785 -0.17679742 -0.33803257 -0.2007066 0.20620511 -0.09143435 -0.113868944
0.06351848 -0.11942153 -0.2757933 -0.22106107 -0.16511737 -0.39250815 -0.3991066 -0.13991635
0.17521288 0.39419875 -0.014202478 0.26310593 0.15957063 -0.3434505 -0.23319615 -0.07957096
-0.31364885 0.02156203 0.06477909 -0.30442655 -0.082494475 -0.32221702 0.33061445 0.26408705
-0.14148839 0.29127344 -0.22472681 0.29087782 -0.14151688 0.13594866 0.32539228 0.14978144
0.1270312 -0.0520162 0.0547162 0.34310296 -0.10750977 -0.14923355 0.05978303 -0.11714181
-0.032982882 0.03168561 0.31221285 0.09766522 -0.22670786 0.21051835 -0.10875062 0.058566578
-0.015580402 0.25453103 -0.08272573 -0.14546986 -0.05330763 0.014058448 -0.23334776 0.24359357
-0.1713916 0.043303393 -0.39557153 -0.10206977 -0.09586706 -0.22464797 0.118129715 -0.33560386
0.04783173 -0.05490704 -0.22966559 0.23110461 0.25933307 0.09677294 0.019738145 0.19211838
-0.20042177 -0.3144114 0.35152817 -0.14329416 0.06793156 0.03035991 0.38100043 0.31897607
-0.24738693 -0.009445061 -0.33160064 0.19946145 0.38270885 -0.18345432 0.024009699 -0.08377596
-0.09772461 0.3009763 -0.3514665 -0.08803959 0.0012356825 -0.29485396 0.15014137 0.29354954
-0.30633652 0.17022449 -0.015262634 0.34663695 -0.34422013 0.3587542 -0.21826403 0.32315272
-0.17330615 0.07918526 0.046509977 0.22140528 0.17034362 0.106940895 -0.079733595 -0.31018016
0.010099967 0.34255922 0.38143346 -0.22150853 0.26667392 0.14188275 -0.10406603 0.14994751
-0.04510223 0.005730411 -0.31131193 -0.08934044 0.39331847 0.21448602 -0.33031422 -0.05823575
0.24097615 -0.16243026 -0.06473858 0.16870964 0.34242317 0.2736604 -0.2594618 -0.36871862
0.06581889 -0.030505016 0.39268377 0.2407188 -0.103757165 0.11565352 0.1474351 -0.10754698
0.40034756 0.021591138 -0.09483349 -0.33952966 0.29895657 -0.40455338 0.33183846 -0.14632753
-0.013883131 0.08578664 0.3760842 -0.24981287 -0.28412655 0.17367929 -0.1547189 -0.15914641
0.2023757 -0.20169695 0.24398561 -0.18397398 0.31621784 0.34942734 -0.00042240857 -0.18019694

encoder.metadata_encoder.metadata_projection.bias f4 [24]
00000000: 2e2b 17bd 4a65 82bd 3234 96bd 0bd3 d5bd
00000010: 5b2d 91bd b367 aabb 6033 22bd 74b0 92bd
00000020: 6251 93bc 196f 56bd fa1d c93c 7598 81bc
00000030: 3bca acbd 4585 b0bc cddf 47bd ff13 7b3b
00000040: 6c4f 99bd 3c4e a6bd 0c1d 0abd 8352 143d
00000050: 3bc9 47bc 724a a5bd 672f 7ebd f6b5 a33c
-0.036906414 -0.063669756 -0.07334174 -0.10440644 -0.07088729 -0.00520035 -0.039599776 -0.07162562
-0.017983142 -0.052352045 0.024550427 -0.015819767 -0.0843701 -0.021547923 -0.048797417 0.003831148
-0.07485852 -0.08120391 -0.033719108 0.0362115 -0.012193973 -0.0807084 -0.062056925 0.019984227

encoder.encoder_layers.0.0.weight f4 [64, 40]
00000000: a388 3bbe d97e bc3d 39a3 25be 4a21 f13d
00000010: 52ba 0c3e 721c 6e3e 6d4d 3ebe 4211 423e
00000020: 69e4 b83c 8cf0 543e 7fbc 7b3e b89f 3abd
00000030: 8f79 6a3d 1a4c 4cbb 8519 973e 7350 bdbd
00000040: a6d8 213e ecdf ce3d 1e9e 543e 21db 123e
00000050: 82a1 373e a18e 31be 222a 8bbd 3936 c3bd
00000060: bfd8 073e 9fc6 9a3d 6401 f33d 78d6 ac3d
00000070: 8b10 253d 166e f73d 4938 d4bd fe7e f83d
00000080: 92e6 3bbe d13c 27be dd15 ce3d fb8f 7a3e
00000090: 2dab a3bd 632f 833e bac2 93bd a9de 27be
000000a0: 8286 0d3c 1e04 2a3e 319c 8bbd 2215 943e
000000b0: 6c35 3dbd ecff 7abd 490a 20bd 1584 16be
000000c0: 8297 6c3e 300d eebd d5bb 62bd 8804 dabc
000000d0: 970d 823e 9219 133e 2f09 333e ff8c c7bc
000000e0: 75eb eb3d 712f ab3c cf9a 0b3e 0340 f4ba
000000f0: 258c b33d f8ab 423e d81f 933d 4d2b 4dbe
00000100: 2dc1 9d3d a7c3 23be 93b7 e33d 6560 8fbd
00000110: 6345 363e 8786 d0bd 6ea3 4cbe 9774 373d
00000120: 415a 1c3e add7 85bb d0a1 083e d1ee 623e
00000130: ed0b b73c 4ec0 6dbc d4a3 d63d afdc 873e
00000140: 0b8d 80bc cee9 413e ef10 9d3d cbda 853d
00000150: 789b 2b3d b860 40be c547 f03d 899c a3bd
00000160: 6273 3cbe ff6e bdbc df66 68bd e7c4 debd
00000170: 8cc7 ed3b 1ce4 543c e01f 563e 8192 683d
00000180: 14e5 413c bbd1 a13d e125 24be ce06 403e
00000190: b33b c33d 4d86 2d3e 9970 09be 23ac 573e
000001a0: 11e0 853d d261 51be 821b 883e c756 d53a
000001b0: 0bf8 bc3d 1d98 5d3e fdf1 233e c81a 133e
000001c0: a3a5 53be b0f6 863e d51d bb3d 389e e83c
000001d0: 0293 17be 2a52 a5bd d363 5b3e 66e1 653e
000001e0: f74f 233e 69d1 55bd d27d 4abe 92bb b63c
000001f0: 2a2b 30be 33c9 5cbe 3824 9f3d c41a 3d3e
00000200: 2c5c 37be d71f 64be 3427 813c 010b c1bd
00000210: 675a 0abe 046b d6bd 1607 8bbd 2a53 9ebd
00000220: 4e8a 4d3e ebb0 f03d 1861 d03c 1632 a4bd
00000230: 43fe bcbc 6bca 1a3e 7b83 363c df9c 92be
00000240: fc01 363d 705b ce3d d546 6fbd f3f3 d6bd
00000250: f1b7 e1bd c0b5 eb3d 925a 273e 596d 80be
00000260: 3ae2 1a3e 8c43 db3c 1066 a73d 2423 0ebe
00000270: 7403 01be a6f7 583e de6f 293d b1a5 15bd
00000280: 371a 0abc e5ff 7d3e fdef b1bc 14f4 563e
00000290: f2bd 65bc 9d65 843d 4fb1 b63d 9709 96bd
000002a0: f3c0 9f3c 0120 aa3d f269 53be 0d76 f53c
000002b0: c707 3b3d b6a9 5b3e 429d 143e de5e 0ebe
000002c0: c4eb 11bd c84f 583e 808f 29bd 5bf0 133e
000002d0: 874d 88bc f286 333e 9e00 cfbd 4ee0 893e
000002e0: a1de da3d 3a11 40bd 75e1 633e 8429 a63d
000002f0: 463f 21be 3db8 f73b f2df 083e f618 5a3c
00000300: 99ad a7bd 7925 e5bd e0f0 febd 8e94 1f3e
00000310: 2a49 053e 6f09 fdbd 5173 75bd 9bae 5c3d
00000320: 7adc 50be 2c73 343e 93ac 76bd 497e d1bd
00000330: 02f2 18bc 361d 2c3d fd2c 313d 04ac 773e
00000340: 777d 133e c54e 4abd f9d8 853d 8725 803d
00000350: 4682 8cbd f589 74be 8c17 50bd 4403 a1bd
00000360: 0a43 5ebe 3bfa f43c a212 26be 50aa 373e
00000370: fea8 d03c b3a7 ef3d be39 153d ba61 693d
00000380: 765e 6c3e 7a1d 123e 0348 313d e5e0 ddbd
00000390: 8185 b43c 7f14 b9bd 6808 3bbd cd3d 17bb
000003a0: 12bb 113e f9f1 81be 7331 0a3e 838a 22bd
000003b0: c8a7 07be 8a76 babd 99cf 71bd 6f73 113e
000003c0: 37fb 79be 3725 9e3d c929 843e 4c9e 03be
000003d0: d4a2 a33d b0cc 53bd e7e9 c23c 4710 a83d
000003e0: c1a5 23be 6094 203d d61a 593e 5fc5 76bc
000003f0: 40fb 26be 8b95 193d f780 7f3d 4b2f 5a3d
-0.18313842 0.09203882 -0.16175546 0.117739275 0.1374295 0.23253039 -0.18584223 0.18951896
0.022569852 0.20794886 0.24583624 -0.045562476 0.057244834 -0.003117329 0.29511657 -0.0924386
0.15805301 0.101013035 0.20763442 0.14341404 0.17932704 -0.17339565 -0.067951456 -0.095318265
0.13266276 0.07557415 0.118654996 0.08439344 0.04029898 0.12081544 -0.10362298 0.12133597
-0.18349674 -0.16331793 0.10062764 0.24468987 -0.079916336 0.2562209 -0.072148755 -0.16393532
0.008638026 0.16603133 -0.068169005 0.28922373 -0.046193525 -0.061279222 -0.03907231 -0.14698823
0.2310467 -0.11623609 -0.05535491 -0.026613489 0.25400993 0.14365223 0.17483972 -0.024359224
0.11519519 0.020896645 0.13633274 -0.00186348 0.08766965 0.19010913 0.07183808 -0.20036049
0.07702861 -0.15992604 0.111189984 -0.07000808 0.17799906 -0.10181909 -0.19984218 0.044788923
0.15268804 -0.0040845484 0.13342977 0.22161414 0.022344554 -0.014511181 0.104804665 0.26535556
-0.015692255 0.18936846 0.076692455 0.06535872 0.041896313 -0.18786895 0.11732439 -0.07988841
-0.1840339 -0.023124216 -0.05673873 -0.108774 0.007256454 0.012993839 0.20910597 0.056780342
0.011834402 0.07901331 -0.16030075 0.18752596 0.09532871 0.16945763 -0.13421859 0.21061759
0.06536878 -0.20447472 0.26583487 0.0016276472 0.09226998 0.21640058 0.1601028 0.14365685
-0.20668654 0.26360083 0.091365494 0.028395757 -0.14802173 -0.08072312 0.21424799 0.22449264
0.15948473 -0.052201662 -0.19774559 0.022306237 -0.17203966 -0.21561126 0.0777058 0.18467242
-0.17906255 -0.22277771 0.015765764 -0.09425927 -0.13511048 -0.1046963 -0.06788461 -0.07730706
0.2007229 0.117524944 0.025436923 -0.08017366 -0.02307046 0.15116279 0.011139746 -0.28635308
0.044435486 0.10076034 -0.05841716 -0.10495748 -0.11021412 0.115092754 0.16343144 -0.25083426
0.15125361 0.026765607 0.08173764 -0.13880593 -0.12598974 0.2118822 0.04136645 -0.03653497
-0.008429102 0.24804647 -0.02172088 0.20991546 -0.014022337 0.06464694 0.08920538 -0.07326048
0.019501185 0.083068855 -0.20645884 0.029963518 0.045661714 0.21451458 0.14513114 -0.13903376
-0.035625234 0.21124184 -0.041396618 0.14447157 -0.01663853 0.17531946 -0.101075396 0.26928943
0.10686994 -0.04689143 0.22253974 0.08113387 -0.15746793 0.0075598047 0.13366678 0.013311615
-0.08187408 -0.11188788 -0.12448287 0.15584013 0.13016191 -0.12355315 -0.059924427 0.053877454
-0.20396605 0.1762206 -0.060223173 -0.10229165 -0.009335043 0.042020045 0.043255795 0.24186713
0.1440333 -0.049391527 0.06535525 0.06257158 -0.06860785 -0.23880751 -0.050803706 -0.07861951
-0.21705261 0.029904475 -0.16218045 0.17936063 0.025471207 0.11701908 0.03643202 0.056977965
0.23082909 0.14269057 0.043281566 -0.10833911 0.022036316 -0.090371124 -0.045662314 -0.0023077608
0.14231518 -0.25379923 0.13495426 -0.039682876 -0.13247597 -0.09104641 -0.05903587 0.1420419
-0.24412237 0.07721942 0.2581313 -0.12853354 0.079900414 -0.051708877 0.023793174 0.0820623
-0.15981199 0.039204 0.21201643 -0.015061705 -0.16306782 0.03749613 0.06237885 0.05326776

encoder.encoder_layers.0.0.bias f4 [64]
00000000: bfd3 bcb8 389d a7b8 3871 8ab8 9496 19b8
00000010: 154e 31b8 fb58 1f38 c47f 1a38 7c5e 64b8
00000020: 9b3b 0339 5457 ddb7 4967 bc37 ffe2 4137
00000030: 0493 73b7 3902 a9b7 ea9d 3838 dabc 15b8
00000040: 1b21 4e38 d213 8bb8 0a18 4838 739e 8238
00000050: dd59 aeb7 f2b0 1db8 9623 4138 6741 afb7
00000060: 3efa 48b8 3d33 c136 0c54 ee37 8c97 80b8
00000070: 32d7 a1b8 b553 beb7 84f6 1b39 04ef ed37
00000080: 02a3 80b8 b3e3 2a38 dd79 4d38 e2c0 0837
00000090: 0def 40b7 f6b1 54b7 99f8 c4b7 dacb b737
000000a0: 6451 2937 584b fd38 93c6 1b38 1c88 60b8
000000b0: 9b76 64b7 91a7 bab7 7f02 cab6 b209 97b8
000000c0: ef00 2938 05f1 f8b7 6f69 8335 ca28 b0b7
000000d0: dd03 02b8 35e3 cb37 a62d 28b8 6b1f aab7
000000e0: eb1d a6b7 09d1 25b8 8e70 e537 a6e3 7838
000000f0: 0d1c 5438 a9ca 9eb7 a8ca e337 160a 8837
-9.003979e-05 -7.992465e-05 -6.6014414e-05 -3.661828e-05 -4.2272808e-05 3.7991424e-05 3.6835452e-05 -5.444743e-05
0.00012515338 -2.6385918e-05 2.2459442e-05 1.1556548e-05 -1.4518158e-05 -2.0147405e-05 4.4016087e-05 -3.570025e-05
4.914506e-05 -6.631728e-05 4.7706104e-05 6.2283965e-05 -2.0784262e-05 -3.759651e-05 4.6047928e-05 -2.0892081e-05
-4.7916772e-05 5.757813e-06 2.8410948e-05 -6.1317434e-05 -7.7171615e-05 -2.2688744e-05 0.00014873786 2.8363902e-05
-6.133878e-05 4.074322e-05 4.8989303e-05 8.151141e-06 -1.149975e-05 -1.2677619e-05 -2.3480783e-05 2.1910226e-05
1.0092135e-05 0.00012078014 3.7139816e-05 -5.3532523e-05 -1.3617474e-05 -2.2250957e-05 -6.0203597e-06 -7.202047e-05
4.029361e-05 -2.9676137e-05 9.790946e-07 -2.0999829e-05 -3.0998013e-05 2.4305287e-05 -4.0096835e-05 -2.028021e-05
-1.9802674e-05 -3.9533745e-05 2.735134e-05 5.933982e-05 5.0570863e-05 -1.8929439e-05 2.7154878e-05 1.621716e-05

encoder.encoder_layers.0.1.weight f4 [64]
00000000: 3889 863f 3962 893f 70d6 7b3f 769a 6c3f
00000010: be56 883f 0c1f 783f 67e0 833f 74a8 6f3f
00000020: 6a08 6c3f 3e07 793f 02d4 7d3f 3900 803f
00000030: d047 993f 5186 6f3f 9bb6 8e3f f965 763f
00000040: c1f9 733f 6332 813f 3c3f 7c3f 5269 6e3f
00000050: c107 833f a8b7 863f 1247 923f 3fbb 753f
00000060: 50de 743f 6ede 723f c6dd 803f d569 7b3f
00000070: 0322 863f d737 8a3f 2d5a 6e3f 4c21 673f
00000080: 1371 773f 6d71 783f dafa 7b3f c6b5 6c3f
00000090: e750 873f a817 7b3f 7ca2 733f fc6f 863f
000000a0: 6b5d 753f 6272 7b3f 22ce 6f3f 7382 693f
000000b0: 9e90 883f 8d64 7b3f ed6a 7b3f 40dc 7e3f
000000c0: 161c 8e3f f083 743f de55 823f aae4 7c3f
000000d0: a179 8c3f 6e58 823f c694 753f db00 803f
000000e0: 4039 893f 581a 743f 49c9 8a3f 7eb2 703f
000000f0: 65cb 7c3f 8d32 743f e558 863f fe3c 823f
1.0510626 1.07331 0.9837408 0.9242319 1.0651472 0.96922374 1.0302857 0.93616414
0.9220034 0.97276676 0.99151623 1.0000068 1.197504 0.93564326 1.1149477 0.9624935
0.9530297 1.0093502 0.9853399 0.93129456 1.0236741 1.0524797 1.1427939 0.9598884
0.9565172 0.9487065 1.006768 0.9820836 1.047913 1.0798291 0.9310635 0.9028518
0.9665691 0.97048074 0.98429644 0.92464864 1.0571564 0.9808297 0.95169806 1.0502925
0.9584567 0.9822141 0.9367391 0.91214675 1.0669134 0.98200303 0.9821003 0.99554825
1.1102321 0.9551382 1.0182455 0.98786414 1.0974618 1.0183237 0.95930135 1.0000261
1.0720596 0.953527 1.0842677 0.9402236 0.98747855 0.95389634 1.0495878 1.0174863

encoder.encoder_layers.0.1.bias f4 [64]
00000000: d072 e9bd 32a4 81bd 6d4c 0ebe 1554 9fbd
00000010: 685b 0bbe e35e 7dbd 4e44 3d3d 4053 43bd
00000020: 639c a9bd 9475 bdbd 61aa adbd 4810 77bc
00000030: d6e4 2ebd a9cf 9cbd 7d60 c6bd 608a 4ebd
00000040: 28b6 5cbd 0e97 03bd b9b8 49bd 0cf2 a5bd
00000050: edac 53bb 0036 1dbe 7f43 a7bd 2acd 50bd
00000060: 25f8 26bd 8e62 02bd 5ba6 1b3d 5254 43bd
00000070: 43b0 58bd 43a7 b8bd bad3 bcbd 2dd4 f7bd
00000080: 7287 cdbd 0830 dcbd f6c6 a0bd ff3b 42bd
00000090: 7321 06be 6dfa 993b 5ade 56bc e981 08be
000000a0: 47eb 3dbd 2b7e 9cbd 899c d2bd 4a0f a8bd
000000b0: 3555 0dbd 1129 abbc 0fd7 09bd c75d cabc
000000c0: 1da8 adbd 6875 2ebd 42b1 bcbd 42ef a93c
000000d0: 5c6c e4bd f67c 06bd 4a9e c1bd 54cc 48bd
000000e0: a03b c5bd a161 0cbe 463a 0abc 4bba f7bd
000000f0: ad38 10bd 2be1 96bc c63e 57bd 8a44 5fbd
-0.11398852 -0.06330146 -0.13896342 -0.07779709 -0.13609087 -0.06185807 0.04620772 -0.047686815
-0.082817815 -0.09250942 -0.08479763 -0.015079565 -0.042698704 -0.076567955 -0.096863724 -0.050424933
-0.053884655 -0.03212648 -0.04924843 -0.081028074 -0.0032299117 -0.1535263 -0.08167171 -0.05097691
-0.040763993 -0.03183227 0.038000446 -0.047687836 -0.05290247 -0.09016278 -0.09220071 -0.12101016
-0.100356 -0.10751349 -0.07850449 -0.047420498 -0.13098697 0.0046990425 -0.013114536 -0.13330807
-0.046366956 -0.07641252 -0.10283763 -0.08206041 -0.034505088 -0.020893605 -0.03365236 -0.02470292
-0.08479331 -0.042592436 -0.09213497 0.02074397 -0.111534804 -0.032834016 -0.09454019 -0.049022987
-0.09630513 -0.13709117 -0.008436745 -0.120960794 -0.0352103 -0.018417915 -0.0525501 -0.054508723

encoder.encoder_layers.0.1.running_mean f4 [64]
00000000: e045 0f3f 5cef fe3e 15c8 0f3f 3c94 83be
00000010: 866d f13e 7ee6 c43c 12af 133c f5c9 47be
00000020: 09d9 8abe f338 693e f46a f83e 701d bdbe
00000030: 89d1 f13e d2fe 49be e73a 2d3f db62 48be
00000040: 2c6a bfbe 6d97 dc3e a2f1 993d 74c9 1abe
00000050: c35d bc3c ca34 db3e 9fa6 e33e a737 f53c
00000060: de23 f4bd 4c54 e2be 6edd 69be c268 8d3e
00000070: 9101 9f3e ef57 1c3f 7065 f8be d897 30be
00000080: 2621 733e a1fd b13c 9ba6 913e b5c0 9ebe
00000090: 1cd0 b03e 62f7 8ebe 2032 9abe 5a91 3d3f
000000a0: d798 18bc 82f7 db3d b5b3 173e 98e7 0abe
000000b0: cad3 123f ebcc 2f3e c41a 643e 7f80 54be
000000c0: 1c00 f03e 3859 1ebf d067 373f b4b5 dbbe
000000d0: 85d8 ec3e 3977 e43d 42ba 3f3c 323a da3e
000000e0: 4390 a73e b227 bd3d 71ca f23e eb0c f2bd
000000f0: ab12 4a3e 00ab 86be ef60 0a3f 4d8f a63e
0.55965996 0.49791992 0.56164676 -0.2569903 0.47153872 0.024035688 0.009013908 -0.19510634
-0.2711871 0.2277563 0.485191 -0.36936522 0.47230175 -0.19726112 0.67668 -0.1956896
-0.3738569 0.4308428 0.07516791 -0.15115911 0.022993928 0.42813712 0.4446306 0.029933764
-0.119209036 -0.44204938 -0.22838375 0.27618986 0.31055883 0.61071676 -0.4851489 -0.17245424
0.23743114 0.021727385 0.28447422 -0.310064 0.34533775 -0.27923113 -0.30116367 0.74049914
-0.009313784 0.10740568 0.14814647 -0.13564909 0.57354414 0.17168014 0.22275835 -0.20752142
0.46875083 -0.61854887 0.7164278 -0.42912066 0.4625894 0.111555524 0.011702122 0.42622524
0.3272725 0.09236087 0.47420076 -0.1181887 0.19733684 -0.26302338 0.5405416 0.32531205

encoder.encoder_layers.0.1.running_var f4 [64]
00000000: e438 8c3e dea5 9a3e a3f2 af3e a02c e03e
00000010: 45b8 a43e 706c bd3e 2b6c cd3e 5bf8 c73e
00000020: 35e8 803e e87b a93e 1ced 043f 91c9 333f
00000030: f932 a53e d652 4d3e d065 1e3f 5c7a f63d
00000040: 7226 cd3e 0faf 433f ba6f b03e 7da9 913e
00000050: ecb9 4b3f ad60 e93e a021 a63e ddc1 0b3f
00000060: 160f 033f 839b 7a3f 8e72 123f 908d b53e
00000070: b52c 163f 35eb fc3e d5ef 5a3e 950f b93e
00000080: 0b89 be3e 7444 fd3e 9eda 633e 9a1b 903e
00000090: 6ff0 b23e 6c52 ab3f b07b 8f3e 7a0d 3f3f
000000a0: 50c8 6f3e 062a 053e 0991 f83d f7ee c83e
000000b0: 69f9 103f 1348 113f e46f 373f be13 b33e
000000c0: d418 cd3e cf88 e03e 242b 1e3f ef94 4e3f
000000d0: 8036 ea3e 822f dc3e 9fbc 693e f0ec a73e
000000e0: d0b0 113f 10ed 223e 83c0 c63e 134a 663e
000000f0: d356 823f 8fb4 f43e 4e43 cb3e 9e01 9d3e
0.27387154 0.30204672 0.34364805 0.43784046 0.32171836 0.36996794 0.40121588 0.39056668
0.2517716 0.33102345 0.519243 0.7022944 0.32265452 0.2005113 0.61874104 0.12035057
0.40068394 0.76438993 0.3446024 0.28449622 0.7958057 0.4558157 0.3244753 0.54592687
0.51194894 0.9789354 0.57206047 0.35459566 0.5866197 0.493982 0.21380551 0.361447
0.3721393 0.49466288 0.22251365 0.28146058 0.3494906 1.3384528 0.28024054 0.7462994
0.23416257 0.13004312 0.12137038 0.39244816 0.5663057 0.567506 0.71655107 0.34976
0.40058005 0.43854377 0.6178458 0.80696005 0.45744705 0.43004996 0.2282586 0.32797956
0.5691042 0.15910745 0.3881875 0.22489195 1.0182747 0.47794005 0.39699787 0.30665296

encoder.encoder_layers.1.0.weight f4 [32, 64]
00000000: 1ab6 523e 2db4 c9bc d0f9 4c3d 7c6b e5bc
00000010: c99a 793c 19b2 c53c e888 8abe fa43 e0bd
00000020: dab9 443d 05f4 953d fcd9 4e3e 78e3 41be
00000030: 9d99 263e 2350 ad3d 8208 28bd ce66 4d3d
00000040: 66ff 9dbd 9d93 d0bc fcfd b9bd b6a0 c2bd
00000050: 3653 95bd 68b8 943e 5d8e 2f3e 33e9 4bbe
00000060: 9625 87bb 4a08 c83d e785 3ebe 90fd 95bd
00000070: f0fb 44bd 475c ffbd 5d8c 95bc f93e f4bc
00000080: d8b7 2abe 2b81 36be ec30 fcbd 5fe9 e9bd
00000090: f3b8 fa3d 5bd3 97bc 895d 8a3d 7d34 a13e
000000a0: 40be 013e ba63 f6bd cbd4 67bd d37d c4bd
000000b0: 1de1 3a3e a07b 853d 7e2e ee3d ffb7 f7bd
000000c0: baf1 8a3e 35ba f1bd da23 313e f36b 73be
000000d0: d960 4d3e d45d 0fbe 252d 3fbe e1cc fb3d
000000e0: 56db 803e 0bf8 5fbc 2785 223e a7e0 4b3e
000000f0: 670c 44be 16f3 053c 322f 0c3e 1344 a2bd
00000100: e08e 353e 22ed 773e 8a25 0c3e 6bf0 e3bd
00000110: b3e6 723e 810c 4d3e 8dbc 523c deb9 91bd
00000120: 47c1 473e a8a0 3cbe 8559 4bbe f850 933d
00000130: e3c4 163e b6b6 1bbc fe05 443e 8304 213e
00000140: 1b60 e23d 4766 5f3e 8148 833e b1c8 023e
00000150: 5db5 343e 4e83 41bb 7342 413e ed58 2a3e
00000160: 82b7 cbbd 9597 853d ea62 a1bd bbb0 98bd
00000170: 464b 583e d905 3f3d 753e 843e f004 32bd
00000180: 8eb0 433d f0e5 023e 393c 223c 526a 3b3e
00000190: 4490 12be 2450 00be 127e afbc b4d7 273e
000001a0: 222b 273e 2c1c 623e 6c21 dfbd 973f e9bc
000001b0: c9ed 03bd 8a3e 763e 4f17 833e 9d9c 383d
000001c0: 2248 4cbe 6b19 bfbd aa98 eb3c d3c7 78be
000001d0: 6c26 f8bd 3a3d 79be 3df0 f43d 9fa2 ffbc
000001e0: ec62 42be 666d 433e f47e 83be 06b9 c23c
000001f0: 8b51 743e 6b6e b53c 50fb 72be 865e 123d
00000200: a3e9 9fbd 6e2e c83d 6635 173e 0dc1 303e
00000210: 4bb4 7fbd d33e bb3d 7720 93be 2900 083e
00000220: d7a6 0f3e 8385 72be 061f e6bd 1d20 1dbe
00000230: 8467 39be fb07 bf3d 57b1 06be 11e1 053e
00000240: d60c c7bd 79d7 433e 6a91 d8bd 0641 7cbd
00000250: 90d6 94bd 2db4 4ebd d542 09be 319c 43be
00000260: 2b1d 4bbe f842 973d 252b d3bc fdef 56be
00000270: 12fb 053e f60c 53bc 8e04 afbd 3d3e a3bd
00000280: d52b f4bc 0eb9 273e 52c8 64be 2095 bebd
00000290: a8bd 80be 1bfa 61be e7a1 623d 1084 b53d
000002a0: 9e3b 4d3d 2510 373e 9e1b fb3c 5c62 a8bb
000002b0: 103f 8dbe 7009 453e 959b 4d3e 2225 79bd
000002c0: 5f7d 4ebc ca44 773d 0fe2 4a3e 701a 30bd
000002d0: 1021 acbd 26c1 47be 8ff8 ca3c 0394 a73d
000002e0: 101a 83be 747f cc3d 0d24 c5bb 68f4 813d
000002f0: 1ba2 a13d dc25 a5bd 6e71 2fbb 572d 5fbe
00000300: 7b7c 623e e461 c5bd 938d efbd 271a 25be
00000310: cfbe a8bc eea8 0f3d 17fe 183e d4d5 84bc
00000320: 98cf 4e3e 06b8 d5bb b075 823e 1729 0a3e
00000330: 320d 8b3e ff1f e23d 70be d7bc 5e92 893e
00000340: d0e2 64be 6f3f 1ebe d050 01be 5500 c6bd
00000350: 7707 f43d c8f9 093e 3db3 e2bd db47 833e
00000360: 0734 193e 53e2 e83d 92d9 60be 8fbd 513e
00000370: df93 a73d 5eef eb3d 6588 51be a6a5 413e
00000380: f9e0 44bc fd18 33be 6b25 4f3e aab0 c139
00000390: 8d2c 203e 7d43 013e 4f79 023d 9762 e73c
000003a0: 2a0b 00bd 28ac 433e d1d5 40bd 21b1 48be
000003b0: 89b0 d5bd d288 45be ccc2 623c 79fa 563e
000003c0: cb3a 763e c206 7a3d faba 283e d822 21be
000003d0: 47aa a53e c893 203e 20de 22be 177d 0ebe
000003e0: ce2d e0bd 2e84 2fbd 41a2 863e 88c1 993c
000003f0: 5917 e5bd d34e 8bbc 9f50 c7bd fd43 233e
0.20577279 -0.024622047 0.050042927 -0.028005354 0.015234658 0.024132775 -0.27057576 -0.109504655
0.048028804 0.07321934 0.20200342 -0.18934429 0.16269536 0.084625505 -0.04102374 0.05014687
-0.07714729 -0.025461012 -0.09081647 -0.095033094 -0.07291262 0.2904694 0.17144151 -0.19913177
-0.0041243536 0.09767206 -0.18605767 -0.07323754 -0.04809183 -0.124687724 -0.018255407 -0.029815184
-0.16671693 -0.17822711 -0.123140186 -0.11421465 0.122423075 -0.0185334 0.06756122 0.31485358
0.12670231 -0.1203074 -0.05659942 -0.095943116 0.18249936 0.0651772 0.116299614 -0.12095641
0.27137548 -0.11803094 0.17298833 -0.23771648 0.20056476 -0.14000636 -0.18669565 0.12294937
0.2516734 -0.013669978 0.15871106 0.19909917 -0.19145356 0.008175632 0.13689879 -0.079231404
0.17730284 0.24211553 0.13686195 -0.111298405 0.23720817 0.20024301 0.012862337 -0.071155295
0.19507323 -0.1842066 -0.19858368 0.07193178 0.14723544 -0.009504011 0.19142911 0.15724377
0.11053487 0.2181636 0.25641254 0.1277187 0.1764731 -0.0029527727 0.18873005 0.16635485
-0.09947111 0.065230526 -0.078801945 -0.07455584 0.21122465 0.046636436 0.258289 -0.04346174
0.047775798 0.12783027 0.0099020535 0.18302277 -0.14312845 -0.12530571 -0.02142242 0.16390878
0.16325048 0.22081059 -0.108950466 -0.028472705 -0.03220919 0.24047294 0.2560372 0.045071233
-0.19949391 -0.0933102 0.02875932 -0.24294977 -0.121167034 -0.24339762 0.11959884 -0.031205473
-0.18983048 0.19084701 -0.25682795 0.023769867 0.23859231 0.022147378 -0.2372868 0.035734676
-0.078082345 0.09774481 0.14766464 0.17261143 -0.0624278 0.09142842 -0.28735706 0.13281311
0.14028488 -0.23683743 -0.11236386 -0.15344281 -0.18105894 0.09327694 -0.13153587 0.13074137
-0.09719245 0.19125165 -0.105746105 -0.06158545 -0.07267487 -0.050464798 -0.134044 -0.19102551
-0.19835345 0.0738582 -0.025777409 -0.20989986 0.13084057 -0.012881508 -0.085457906 -0.079708554
-0.029806057 0.16379187 -0.22342041 -0.09305787 -0.25144696 -0.22068064 0.055330183 0.088630795
0.050105684 0.17877252 0.030652817 -0.0051386785 -0.27587175 0.19241881 0.20078881 -0.06082643
-0.012603133 0.060368337 0.19812797 -0.042993963 -0.08404744 -0.19507274 0.024776725 0.08182528
-0.25605822 0.09985247 -0.0060162605 0.06345445 0.07892247 -0.08063862 -0.002677049 -0.2179464
0.22117798 -0.09637812 -0.11696925 -0.16123258 -0.020598797 0.035073213 0.14940678 -0.016215242
0.20196378 -0.0065221814 0.25480413 0.13492237 0.27158505 0.11041259 -0.026335925 0.26869482
-0.22352147 -0.15453885 -0.12628484 -0.09668032 0.11915486 0.1347419 -0.11069343 0.2564076
0.14961253 0.11371293 -0.21957996 0.20482467 0.08182501 0.11520265 -0.20462187 0.18910846
-0.012016528 -0.17490001 0.20229118 0.00036943454 0.15641995 0.12623401 0.03185397 0.028245253
-0.031260647 0.19108641 -0.04707891 -0.1959882 -0.10434062 -0.19290474 0.0138403885 0.20993985
0.24045865 0.0610416 0.16477576 -0.15735948 0.32356474 0.15681374 -0.15905046 -0.13914905
-0.109462366 -0.042850666 0.26295665 0.01876904 -0.11186094 -0.01700536 -0.09732174 0.15943904

encoder.encoder_layers.1.0.bias f4 [32]
00000000: 94fb f4b6 3def 9438 16a5 d1b8 a8f0 eab7
00000010: 6ae7 34b7 11b1 7137 bb03 d3b7 b6bc d1b7
00000020: 465a 65b7 cc2b 65b7 38ad ad36 09ca 5038
00000030: 38e2 fb37 648b ca37 da29 fdb5 e0e7 b337
00000040: d246 43b8 92c5 29b6 2c2f 57b8 a283 1838
00000050: 2802 7bb8 4614 9e38 3995 f6b7 b18d 4cb6
00000060: 0f64 0138 b83b ca36 6be5 0339 2f8d f0b8
00000070: beb9 7b38 6468 5536 4892 9037 7096 56b8
-7.301054e-06 7.1017515e-05 -9.996646e-05 -2.8007038e-05 -1.0782716e-05 1.4405946e-05 -2.5154897e-05 -2.5002617e-05
-1.3670482e-05 -1.3659661e-05 5.175967e-06 4.9779224e-05 3.0026873e-05 2.4145185e-05 -1.8862149e-06 2.1446438e-05
-4.655758e-05 -2.5297963e-06 -5.1303927e-05 3.6362217e-05 -5.984507e-05 7.537803e-05 -2.9394972e-05 -3.0480844e-06
3.0849184e-05 6.0270213e-06 0.00012578598 -0.00011470389 6.001605e-05 3.1800237e-06 1.7234255e-05 -5.116168e-05

encoder.encoder_layers.1.1.weight f4 [32]
00000000: 79d2 953f c4e2 7b3f b269 703f 268f 743f
00000010: 72e9 9a3f c59a 9b3f 9b2a 843f e3e2 823f
00000020: 1ac7 7d3f cb9f 7d3f 29a8 7e3f 9cbc 673f
00000030: 11ca 843f 6a5e 733f 48d8 5f3f 10c5 843f
00000040: 9e40 613f 2e24 653f d98b 703f d668 5f3f
00000050: e14a 6d3f 9416 4f3f 9994 643f 49e6 913f
00000060: 733e 983f 8821 563f dad0 6e3f 6f95 6f3f
00000070: ce8b 813f a022 873f 1432 773f 0a34 883f
1.1704856 0.9839289 0.9391128 0.9553093 1.2102492 1.2156607 1.0325502 1.022549
0.9913193 0.9907195 0.9947534 0.9052217 1.0374166 0.9506594 0.87439394 1.0372639
0.87989223 0.8950833 0.9396339 0.8726934 0.9269238 0.80893826 0.8928924 1.1398402
1.1894058 0.83644915 0.9328743 0.9358739 1.012079 1.0557442 0.9656079 1.0640881

encoder.encoder_layers.1.1.bias f4 [32]
00000000: 093b 44bc aaa2 d13c 1d8f 59bd 380d e0bd
00000010: e5a5 e4bb c9a6 9d3d d6fe 05be 093f 7bbc
00000020: 20a7 5ebc 91ec 0fbd e236 adbd ac24 efbd
00000030: 8bcc 93bd f503 ccbd 707a 82bd 4427 1ebe
00000040: 15a4 cfbd c69f 2cbd ccff 16be a696 07bd
00000050: 79c8 debd 01cd 46be 393f d3bd a4ff 2fbd
00000060: f66c 823d 8fe1 42be e23d dabd d2a7 7fbd
00000070: 4d5d 23bd 6c13 94bd 8a32 a3bc 6da4 5bbd
-0.011976966 0.02559026 -0.053115 -0.10940021 -0.006977784 0.07697827 -0.13085493 -0.015334853
-0.01358965 -0.035137717 -0.08457734 -0.116769165 -0.07216748 -0.09961692 -0.06371009 -0.15444666
-0.10138718 -0.04214456 -0.14746016 -0.033102654 -0.10878081 -0.1941414 -0.10314793 -0.042968407
0.06368439 -0.19031356 -0.106563345 -0.062415905 -0.0398839 -0.07230267 -0.01992156 -0.053623606

encoder.encoder_layers.1.1.running_mean f4 [32]
00000000: 05af 253e 1ecf 5c3f feab 27bf 32ba 433f
00000010: b896 d73e 1999 d63e 6def 863f 4386 973e
00000020: 4ef3 0b3f de73 103f 9f60 9c3e e908 c63d
00000030: 5c14 1e3f 045f 003f df5c 67be 20be de3e
00000040: e953 41bf 718c 87bf 96d1 dd3e f763 6cbf
00000050: 703b 07bf ebad 53bf 58d9 12bf 438a 013f
00000060: 146e 413f 4c22 37bf 1bf8 a53e d976 31bf
00000070: 81fe 263f 07cd 433f c307 bfbd a59c 473e
0.16180046 0.86253536 -0.65496814 0.76455986 0.42107177 0.4191368 1.0541817 0.2959462
0.5466813 0.564268 0.30542466 0.09669668 0.61749816 0.5014498 -0.22594021 0.4350443
-0.7551866 -1.0589734 0.43323964 -0.92340034 -0.5282507 -0.8268725 -0.5736289 0.50601596
0.7555859 -0.7153671 0.32415852 -0.6932197 0.6523209 0.7648472 -0.09327652 0.19493349

encoder.encoder_layers.1.1.running_var f4 [32]
00000000: 3a7d 2a40 b40b 5840 2a8b 7240 3071 4840
00000010: 8439 4f40 6550 8940 1bec 8540 5032 0040
00000020: 1269 1b40 b514 1240 1a02 b83f c498 5c3f
00000030: 5569 6d40 1212 b63f a233 d53f 2a42 ee3f
00000040: 7f92 1e40 30ea 7940 a00b df3f 6abe 6240
00000050: 5c08 3340 d9bb a73f 61f1 ee3f 7375 3b40
00000060: c613 8740 891f 813f b394 4c3f 43ce 5a40
00000070: 12f4 0240 e357 2240 61ec 7f40 95dc a43f
2.6638932 3.3757143 3.789744 3.1319084 3.2378855 4.291064 4.1850715 2.0030708
2.428288 2.2825139 1.4375641 0.861706 3.709554 1.4224265 1.6656382 1.8613942
2.4776914 3.9049187 1.7425423 3.542872 2.7973852 1.3104202 1.8667413 2.9290435
4.2211637 1.0087749 0.79914397 3.4188392 2.0461469 2.5366142 3.9988024 1.2879816

encoder.encoder_layers.2.0.weight f4 [16, 32]
00000000: 4559 0dbe e514 96bc 02b3 4d3e 7f10 57bd
00000010: dbce 97be 0cbf c6be cbd4 703d 33ce 64be
00000020: 83d5 953d 27a8 c3be 94d9 9f3d 67b0 c73d
00000030: f47d 20be a4a3 4ebe f5a5 cdba 6c3f 1e3e
00000040: 1b5b 893e 5fd5 0b3e fdd6 5abd 713b 873e
00000050: 999b f03d dcdc 563e 4799 513e 3e09 a1be
00000060: 5f95 bfbe d61b 21bd 5222 f4bd 36e8 973e
00000070: 9a71 9fbe 36e3 2d3d ee75 383e f8fd a6bc
00000080: 3d6c b4be 1990 d3be 2d82 62bd 4841 103e
00000090: 6d6b 09bc cc24 ea3d 5902 1e3e b058 ccbe
000000a0: 02d1 ed3d 24b6 203e 3cd9 5fbe 2b5f 87be
000000b0: 1f66 8abe b75f eebe c989 283e d220 933c
000000c0: 65f7 16be 6eba 33be d54f d2be a003 323e
000000d0: 85b1 243e 6229 173e 51ee aebd a92f 663d
000000e0: 00e5 5bbd 7e59 7f3d d1a3 f23d 685e 5cbe
000000f0: f9e2 57be cbcf a3bc 6b4e c63c cec9 313e
00000100: f5fd c8be f547 3c3e ec6e 48be 2206 eb3c
00000110: bce6 d8be 0936 aabe 27f9 a2be 93f9 783e
00000120: 1f63 8e3e 8759 c3bd 1d2b c8bd 2d32 c7be
00000130: 6366 8ebe d004 0bbe 8acf 9fbc ac0c e2be
00000140: b6c1 f0bd 6fdb d33c a7df 81bd 5e79 953d
00000150: 274f ec3d d816 353e f513 4abe fb73 ccbe
00000160: 6c61 833d 5c74 ec3c 1c17 8e3e 39dd 903e
00000170: cb6b b9be 28e9 48bd 6ccb 62be edde f43c
00000180: 9473 163d 10d4 dcbe 1615 51be 9303 783d
00000190: 9d0b f33c 2b41 3ebe 870b 4bbd ff89 79be
000001a0: 6541 df3d 4080 a63d b9d7 ec3b 0695 f0bd
000001b0: af9c 93bc 6282 cebe 0fcb 1d3e 18cb 83bd
000001c0: 9637 523c a744 003d 18b0 d5be 2c57 6b3e
000001d0: 5f7f 623e 7c6a 0d3e f898 f93c 3ce1 e6bc
000001e0: f6eb 74bd 15f4 ee3b 5b0d ff3c 7ce9 983d
000001f0: 511b 933b 9927 bebe 4d92 c7bd 2c53 aa3d
00000200: 8e95 113e e2f0 acbe ab3c a9bd 61e9 b5bd
00000210: a389 ad3c 2576 863d 5d4c 53be 6e1d 2a3e
00000220: e9b0 3c3e 2f9a 3e3e 4a80 363d 00b8 d23d
00000230: 185e 4c3d ca80 9abe 6241 453e dd83 33be
00000240: a3ce 183c 29b5 1bbe e141 2fbe 1fce 40be
00000250: bbfe 72be 3c3a 0f3e 7814 0d3e ad90 62bd
00000260: 418e e33d bd09 083e 09bb 3abe 1e85 f7be
00000270: acdb 493e c9f5 eebe d663 07bf 9fae 86be
00000280: 5a5a bebe d0c0 0dbe 5d73 363d 8af6 05be
00000290: 2d5d 183e 828c edbe 04c6 abbe 23a3 c9be
000002a0: 2bb8 cdbe b54e 8a3c 9bec bfbe f6c1 0dbe
000002b0: f050 87be b234 1a3c 3577 64bd 2dcf d33d
000002c0: 3a8c 5abd 1cc5 86bd f35c e83d c3af 9a3e
000002d0: 7728 963e 46f2 593d dc8a 16bd 74c5 45be
000002e0: 07f2 fdbd 1a34 1c3b ab7f 07be 3dd5 7a3a
000002f0: 2cfc 523d da8b d53d 0a09 ac3e 9fe6 4ebe
00000300: 18b7 a1be 3005 adbe 72bc 023e 2aed 08be
00000310: 7cd2 ffbe 5544 dcbd 555b 87be 5c25 81be
00000320: 5ccd 693e 3502 90be c9e8 a63d 20b9 4b3e
00000330: 4543 be3d d76f 06be e033 5a3e c2e8 c3be
00000340: 3577 473e d8a5 60bd 4d9a 43be 7c46 9c3b
00000350: 63fd 6c3e 3514 9a3d 6a8c 683e 34f5 5dbd
00000360: 6ac0 c8be 56fa d1bd bb2f 7e3e 00f2 a43e
00000370: 3f6c be3d 7ed0 813e 2779 92be ade8 93be
00000380: 973a 9abd 2cbb c3be 1a6b 8cbe c0cb e33c
00000390: f69e ccbc 03de e43d afcb 14be 4555 653e
000003a0: 443a 933d 5b4e 123e 96c4 313e 4623 c63c
000003b0: a7ed 5b3e e9f1 193d 6e4a 99bd aeca 91bc
000003c0: 2ea6 ebbd a9cb 103e 2ad5 48be d73b 02be
000003d0: 2c85 7ebe dd46 18be 31ae 333e 3664 bcbd
000003e0: afbd cebd 469c 353d 77a6 73bd 3d65 dcbe
000003f0: bb0c eb3d def4 cfbe e2cd f3be 9d6a 3cbe
-0.13803585 -0.01832051 0.20087817 -0.052505966 -0.29650006 -0.38817632 0.058796685 -0.22344284
0.07316115 -0.38214228 0.078051716 0.09750443 -0.15673047 -0.20179611 -0.0015689718 0.15453881
0.2682732 0.13655613 -0.053427685 0.26412538 0.11748428 0.20982689 0.20468627 -0.31452364
-0.3741865 -0.039333187 -0.119206086 0.2966935 -0.3114136 0.042453013 0.18013737 -0.020384774
-0.3523883 -0.41320875 -0.055299927 0.14087403 -0.008387429 0.114328 0.15430583 -0.39911413
0.11612131 0.15694481 -0.21860212 -0.26439795 -0.27031037 -0.465574 0.16458811 0.017959986
-0.14742811 -0.17551586 -0.41076532 0.17384195 0.16083343 0.1476188 -0.08541549 0.056197796
-0.05368519 0.062341206 0.11847652 -0.21520388 -0.21082677 -0.019996544 0.024207314 0.17362139
-0.39256254 0.18386824 -0.19573563 0.028689448 -0.42363536 -0.3324435 -0.31830713 0.24313955
0.27809998 -0.0953856 -0.09773848 -0.3890547 -0.2781249 -0.13576055 -0.019508142 -0.44150293
-0.117556974 0.02586147 -0.063414864 0.072985396 0.115385346 0.17684495 -0.19734176 -0.39932236
0.06415066 0.028864078 0.27752006 0.2829378 -0.36215052 -0.04905048 -0.22147912 0.029891456
0.036731318 -0.4313054 -0.204182 0.060550284 0.029668624 -0.18579547 -0.04957154 -0.24369048
0.10901145 0.081299305 0.0072278646 -0.11747174 -0.018019048 -0.4033385 0.15409492 -0.064352214
0.0128306355 0.031315472 -0.4173591 0.22982472 0.221189 0.13810152 0.030468449 -0.028183572
-0.059795342 0.0072922804 0.031134298 0.074664086 0.0044893404 -0.37139586 -0.097447015 0.08316645
0.14217207 -0.3377753 -0.082635246 -0.08882404 0.021183794 0.06565503 -0.20634599 0.16612789
0.18426861 0.18613504 0.04455594 0.102890015 0.049894422 -0.30176383 0.19263223 -0.1753077
0.00932661 -0.15205826 -0.17114975 -0.18828629 -0.23729984 0.13987058 0.1377734 -0.055313755
0.11111117 0.13284965 -0.18235411 -0.48343748 0.19712704 -0.46671894 -0.5288671 -0.263051
-0.37178308 -0.13843083 0.044543613 -0.13082328 0.14879294 -0.4639626 -0.3354951 -0.39382276
-0.40179572 0.016883234 -0.37485203 -0.13843521 -0.26428938 0.009411978 -0.055777747 0.1034225
-0.053356387 -0.065805644 0.11345854 0.3021222 0.29327747 0.053209566 -0.03675352 -0.19313604
-0.12399679 0.0023834766 -0.13232295 0.0009568518 0.05151002 0.10427065 0.33600646 -0.20205162
-0.31585002 -0.3379302 0.12767199 -0.13371721 -0.49965274 -0.10755221 -0.26436868 -0.25223815
0.22832245 -0.28126684 0.08149869 0.19894838 0.092901744 -0.13128601 0.21308851 -0.38263518
0.19479068 -0.05484566 -0.1910183 0.0047691446 0.23143534 0.075233854 0.22709814 -0.054188922
-0.392093 -0.10252826 0.24822895 0.3221588 0.0929799 0.2535438 -0.28608057 -0.28888455
-0.075307064 -0.38228738 -0.27425462 0.027807117 -0.024978142 0.11175158 -0.14530824 0.22395809
0.07188848 0.14287703 0.17360148 0.024186742 0.21477376 0.03758422 -0.074848995 -0.01779684
-0.11506306 0.1414019 -0.19612566 -0.1271814 -0.24855489 -0.14870782 0.17546917 -0.09198801
-0.10094773 0.044338487 -0.059484925 -0.4304599 0.114770375 -0.40616506 -0.47618014 -0.18400045

encoder.encoder_layers.2.0.bias f4 [16]
00000000: 19a5 2239 6fa6 3d39 d883 b537 29a3 2139
00000010: 58b6 2d39 b95d 62b8 dc8a 9fb8 d531 8bb9
00000020: 88bd 9e37 4291 5eb9 790b 55b9 6c3a cf37
00000030: 450b c538 e636 b638 9962 9bb8 a13b 8bb7
0.00015511028 0.00018086446 2.1638276e-05 0.00015414938 0.00016566494 -5.3969885e-05 -7.6075754e-05 -0.00026549274
1.8923325e-05 -0.00021225683 -0.00020317537 2.4703528e-05 9.395791e-05 8.688662e-05 -7.409341e-05 -1.6597858e-05

encoder.encoder_layers.2.1.weight f4 [16]
00000000: 8c13 613f b66c 6a3f 7599 633f b135 4f3f
00000010: 9037 6d3f 43e1 4e3f 130e 483f 03a1 5c3f
00000020: 6a17 4c3f 22f0 4c3f 1c3f 473f 224d 4c3f
00000030: 19c2 453f 9834 4a3f 06ef 633f f043 673f
0.8792045 0.9157213 0.8890603 0.809413 0.92662907 0.8081247 0.78146476 0.86183184
0.7972323 0.80053914 0.7783067 0.79805195 0.77249295 0.789865 0.89036596 0.9033804

encoder.encoder_layers.2.1.bias f4 [16]
00000000: 3e37 43be b02b f6bd 6410 1ebe 2768 82be
00000010: 3ba8 96bd 81b1 3abe 07e1 86be f281 fcbd
00000020: 62ae 6cbe c10d 4dbe a5d1 7bbe ae61 77be
00000030: 2085 8dbe 87a9 64be 89ca f3bd e594 14be
-0.19064042 -0.120200515 -0.1543594 -0.25470087 -0.07356306 -0.18231775 -0.26343557 -0.123294726
-0.23113397 -0.20024778 -0.24591692 -0.24158356 -0.2764063 -0.22330295 -0.11903865 -0.14509924

encoder.encoder_layers.2.1.running_mean f4 [16]
00000000: 79b5 ccbe 6385 21bf bc57 5dbf 0c9e e9be
00000010: d102 18bf 4e3e 44bf 1594 10bf 4398 1bbf
00000020: 3c58 32bf 0d15 f8be 0697 36bf e964 f4be
00000030: 7cca 16bf ad00 0ebf 9321 37bf 1c38 febe
-0.39982203 -0.63094157 -0.86462 -0.45628393 -0.593793 -0.7665757 -0.56475955 -0.6077921
-0.69665885 -0.4845356 -0.71324193 -0.47733238 -0.58902717 -0.5546978 -0.71535605 -0.49652183

encoder.encoder_layers.2.1.running_var f4 [16]
00000000: 19ee bb40 a825 c63f 2fa9 d940 99f0 ce3f
00000010: 1ec8 1540 d781 f540 8cde a340 d648 be3f
00000020: b485 fd40 9081 c040 088d 4a40 bff7 6d40
00000030: dbb3 7c40 d5a1 b440 ed54 2040 dcd0 8c40
5.8728147 1.5480242 6.8019023 1.6167175 2.3403392 7.6720996 5.1209164 1.4865978
7.922571 6.0158157 3.1648579 3.7182462 3.9484775 5.644755 2.5051835 4.4004955

encoder.mu_head.weight f4 [10, 16]
00000000: a4b8 bc3d 5341 72bd 6a33 89be cd6d 673e
00000010: d16c 00be c7d4 523e ba26 0fbc f3ba 543e
00000020: e4c6 55bd 8348 1fbe 17e6 be3d 7470 bdbc
00000030: dfc0 823e 45dc c33c c06a 26be f065 37be
00000040: e1f4 b33c 18a5 8e3b e294 c1bd dfc8 b23e
00000050: da40 24be 4631 ea3d 5a0e 8d3e 7004 9d3d
00000060: 8e6a 263d 54f3 0e3e f2fa bfbd 9cf9 97be
00000070: 39c1 753e 19d9 2cbe bd8b 61be 666d 28be
00000080: ef1e 963e fc00 4fbd a78d 8c3e b38c be3e
00000090: 5f59 803e f314 7bbe ffb2 9bbe a2ce d2bd
000000a0: 992c 1c3e d2e1 6dbe ffda 92bc 7064 8fbc
000000b0: 7e91 dabd 18db 28bc 5e91 f8bd cd80 a23e
000000c0: 5076 68be 32a3 5fbd 979e 4fbe f489 7d3e
000000d0: d395 8bbc 4907 41be 8290 0c3e 1334 f73d
000000e0: 0877 603e a3a9 6bbc 009d 783d 6be6 32be
000000f0: 83bb 95be 92b9 cd3b 0eb9 e53d 4ea2 a93e
00000100: 5f55 9ebe 77a4 adbc a6a2 883d e605 f83d
00000110: 1c5b 763d b3be 2f3c 2037 95be 4bd0 ebbd
00000120: 627b 933e 24b3 60be 54b1 4ebe a7bd 5e3e
00000130: 7be6 b83a 2afd 3bbd 3b07 f3bc f782 713d
00000140: 8432 0b3d c734 e63d 11f2 a3bd 44be cfbe
00000150: d24b d3be bd4b 0b3d d90c 80bc bbf4 203d
00000160: dc20 3a3e 7400 893e c216 493e 4bf8 ab3e
00000170: 15cf 95be 6d2c 493c a9c3 88be 7df1 2e3e
00000180: 9a33 933d caea ad3e 09ee 823d 241e 4fbe
00000190: 9004 863e b5ce 42bd 296a 66be 2d88 f83e
000001a0: 6fd4 adbe fbad b0be d62e 43be cca9 bbbe
000001b0: 045e f8bc 0feb 5dbe 73a8 e83e 6b66 893e
000001c0: 249a 073d c8b6 353e 4801 8cbe bbc6 44be
000001d0: 390f 243e 238e f13d 0943 bfbb 7530 4b3d
000001e0: 7081 d7bc 32d7 14be eb4c 49bd 4c2a 913d
000001f0: d790 7dbe faaa 643e 4e46 86be 9c55 7cbe
00000200: d1ab cf3e b1b5 6dbd 91b5 e2bc fd50 d73c
00000210: 66c5 62be a08e 833d 2ffc 893d 04e9 853d
00000220: d5f1 4c3d 2880 48be 65ba 623d c36b 2c3d
00000230: 2db9 90be 4eaa 41be 6fd5 d63e 7269 79be
00000240: c1d1 e73c d6fd b1bd ab66 a33e ecf2 563e
00000250: 49c0 e63d dc0c 21bd f764 4dbe 31a5 e9bc
00000260: 669a 2d3e 3bb3 833c ccd9 dabd c573 44be
00000270: 16b8 9f3e 917d 613d 1575 393e 3a53 59be
0.09214905 -0.05914433 -0.26797038 0.2260048 -0.1254151 0.2058898 -0.0087372605 0.2077444
-0.05219163 -0.15555005 0.0932123 -0.02312491 0.25537774 0.023908744 -0.1625166 -0.1790998
0.021967353 0.004353177 -0.09452225 0.34918877 -0.16040364 0.114351794 0.27550012 0.07666862
0.040628962 0.1396001 -0.09374036 -0.29682624 0.2399949 -0.16879691 -0.22025962 -0.16447982
0.29320475 -0.05053805 0.27451822 0.3721672 0.25068185 -0.2451971 -0.3041 -0.10293318
0.15251388 -0.23230675 -0.017926691 -0.017503947 -0.10672282 -0.010306142 -0.121371016 0.31738892
-0.22701383 -0.054598995 -0.20275341 0.24759656 -0.017039215 -0.18850435 0.13727 0.12070479
0.21920407 -0.014383706 0.060696602 -0.1747071 -0.29244623 0.006278225 0.11216937 0.3313164
-0.30924508 -0.021196587 0.06671648 0.121105 0.060145482 0.010726619 -0.2914362 -0.11514338
0.2880507 -0.21943337 -0.20184833 0.21752034 0.0014106774 -0.045895733 -0.029666534 0.05896279
0.033983722 0.11240535 -0.08005155 -0.4057485 -0.41268784 0.034007777 -0.015631126 0.039295893
0.18176597 0.26758158 0.19637588 0.3358787 -0.29259554 0.012278658 -0.26711777 0.17084308
0.071875766 0.33968192 0.06393058 -0.20226341 0.26175356 -0.047560412 -0.22501434 0.48541394
-0.33951136 -0.34507737 -0.19060835 -0.36652982 -0.030318268 -0.21671699 0.45441017 0.2683595
0.033105984 0.17745507 -0.27344728 -0.19216435 0.16021432 0.117946886 -0.0058368486 0.04960676
-0.026306838 -0.14535215 -0.04914562 0.070881456 -0.24762283 0.22330847 -0.26225513 -0.24642032
0.40560773 -0.058034603 -0.027674468 0.026283735 -0.22145614 0.06423688 0.06737553 0.06538585
0.050035316 -0.19580138 0.05535354 0.042094957 -0.28266278 -0.18912622 0.41959712 -0.2435663
0.02829826 -0.086909935 0.31914267 0.20991105 0.11267144 -0.039318904 -0.20058046 -0.028521152
0.1695343 0.016076675 -0.10686073 -0.19184788 0.31195134 0.05505139 0.1811107 -0.21223155

encoder.mu_head.bias f4 [10]
00000000: 8e1d 10be 09a9 123d 505c 873e 8274 4b3e
00000010: 1cfa b4bd 636e 9cbe b2bd aa3e fc6c 20be
00000020: f40a 6a3e 2951 d03d
-0.14073774 0.035805736 0.26437616 0.19868663 -0.08836767 -0.30552968 0.3334785 -0.15666574
0.22855741 0.1017173
