scripts/abr_clustering/audiometric_deep_clustering/experiments/full_scale_audiometric_clustering_memory_optimized/20250619_170021_evident/checkpoints/pretrain/pretrain_epoch_20.pt (torch, 709763 bytes, 213 tensors)

encoder.abr_encoder.abr_projection.weight f4 [32, 6]
00000000: 705c bfbc 6b0e 043e 5522 13be 4b90 12be
00000010: 983f c0be 81b0 83be 74b9 cdbd 700d cc3c
00000020: e840 99bd 1689 dabe 89a0 ccbd 59c3 ba3e
00000030: 3a3c 89be a4ce a8be 0221 4c3e be63 99bd
00000040: fe39 e1bc 6e57 68be 06f9 a4be f34c 9d3d
00000050: c8bb 883e 604f 36be 868b dcbd 8260 1a3e
00000060: b344 553e 643b 4fbe 5923 ddbe 8dcd 5a3e
00000070: 6771 c9be acc6 95be 4c81 35be 62dc 8a3e
00000080: d848 803e f588 e93e 5eb0 e23d 5742 26be
00000090: 996a ad3e 2bc6 ae3e faef 213e 3aee 3e3e
000000a0: 6bdb 40be 8dde 2139 d393 c63e 44a1 903d
000000b0: d19b 9abe a18e c03e 24e9 943e 9cbd ba3e
000000c0: 5f7c 983e fcd7 473e 56e6 df3e 579d 663e
000000d0: 8639 8fbe 321a a5bd eb0b 06be 48ed dfbe
000000e0: f0bd 7fbe d34a 85be 7614 3fbe 8802 c43d
000000f0: 4fab bc3d 48ae bebe 8b4e 29be e10d d1bd
00000100: e859 22be 8fd7 57be 4d41 66be 82f4 4c3e
00000110: 5a36 ecbe 7068 cfbc 9225 3dbe e97f 98be
00000120: da91 1c3e 9fbc 653e 9edd ec3e 8633 14be
00000130: 5200 d8b9 c74d 70be c66a f7bd 362e cf3d
00000140: 0a03 5d3e 1979 8a3a 8ca5 b43e 4f94 9c3d
00000150: 30ad b6bc 0e17 1a3e ce47 bc3e 7498 7e3e
00000160: d4c1 a3bd 1fbf b7bd 0a96 f13e 32e4 bd3e
00000170: 9a0e b93e e935 1dbe 7b18 98be b2a8 41be
00000180: 9eab 383e 48c7 003f edba f1bd 6fe4 8bbe
00000190: 8515 3cbe 83e9 5d3e 7849 c43d 1d80 4bbe
000001a0: 5adf efbd bf3b 9cbe b579 32be 07bc a0be
000001b0: 1068 843e 74e2 acbd 26fb 11be 4f5f b6bd
000001c0: f6ad 473e e946 6fbe e115 38bd c2bb a33d
000001d0: 59a6 06bc b705 cc3d 5db7 bfbe 7f5d 083d
000001e0: e84a 98be dee9 7c3e f1d8 edbe 844e 86be
000001f0: dc6d 17be 47a6 e43d 7d7d 02be b3d4 6ebe
00000200: 4a40 6bbd a505 9abd 0f28 d53e bb2e 933e
00000210: dab3 d83e 3165 72be cee6 a4bc b9bb 33be
00000220: 9384 e23e a102 943e 0411 72be 205e 52be
00000230: 5fff a73e 787c 42bd 9574 993e 9990 82be
00000240: 3ac1 d9be 4757 6bbe db9b 6bbe dbc8 6a3e
00000250: 4aff 40be 88fa 8bbd 90eb f9be 65f4 ac3e
00000260: 1088 043d 725a 44be db54 97bd a3ce c03d
00000270: 1b2a d5bd 039d 883e 723f f3bd ecf9 db3e
00000280: 26cb 1f3e a0ab a23e c95c 1e3d 1ce3 08be
00000290: c7c1 013e d8e4 823e 2cec 283d 6e5d 243e
000002a0: 596c 5a3e d725 96be a3e2 12be 1113 adbb
000002b0: 8fc6 91bd 1730 a4be 7dcf d73d f8a6 b13d
000002c0: 5154 9cbe ed2c f73c dd8a 5b3d 4b57 713c
000002d0: 0e97 8b3d 5355 ebbe 09c1 c7bc 68c8 783e
000002e0: b4f2 1e3c 181e 76bb aa1d 98be 0b55 3cbe
000002f0: f2ad ba3a 5230 b3bd 4593 99bd 6b5a b9ba
-0.023359507 0.12896125 -0.14368565 -0.14312856 -0.37548518 -0.257206 -0.10045138 0.024908751
-0.07483083 -0.42682713 -0.09991557 0.36477163 -0.26803762 -0.32970154 0.19934466 -0.074897274
-0.027493473 -0.22689602 -0.3222124 0.076806925 0.26705766 -0.17803717 -0.107687995 0.15075877
0.20826988 -0.202375 -0.4319103 0.21367474 -0.39344332 -0.29253137 -0.17725104 0.27121264
0.25055575 0.45612302 0.110687956 -0.16236244 0.3387039 0.34135565 0.158142 0.18645564
-0.18833701 0.00015437063 0.38784656 0.07062009 -0.30197003 0.37608817 0.29084122 0.36472785
0.29782388 0.19515985 0.4373042 0.22520958 -0.27973574 -0.08061637 -0.13090484 -0.4373572
-0.24974799 -0.2603365 -0.18660149 0.09570795 0.09212362 -0.3724234 -0.16533868 -0.10207725
-0.15854609 -0.21078323 -0.22485848 0.20015147 -0.46135217 -0.025318354 -0.18471363 -0.29785088
0.15290013 0.22435234 0.4626283 -0.1447278 -0.0004119897 -0.2346717 -0.12080912 0.10116236
0.2158319 0.0010564654 0.35282552 0.07645475 -0.02229938 0.15047857 0.36773533 0.24862844
-0.07995954 -0.08972 0.47184783 0.37088162 0.36143953 -0.15352596 -0.29706177 -0.18912008
0.18034217 0.5030408 -0.118032314 -0.27322719 -0.18367584 0.21671109 0.095843256 -0.1987309
-0.11712523 -0.30514333 -0.1742924 -0.31393453 0.25860643 -0.0844163 -0.14255962 -0.089048974
0.19499955 -0.23366894 -0.04494274 0.07994796 -0.008218371 0.099620275 -0.37444583 0.03329229
-0.2974465 0.24698588 -0.46454576 -0.26231778 -0.14788002 0.111645274 -0.12743182 -0.23323326
-0.057434358 -0.07520608 0.41632125 0.2874659 0.42324716 -0.23671414 -0.020129588 -0.1755208
0.4424177 0.28908256 -0.23639303 -0.20543718 0.3281202 -0.047481984 0.29971758 -0.25500944
-0.42530233 -0.22982512 -0.23008673 0.22928183 -0.18847385 -0.068348944 -0.48812532 0.33780208
0.03235632 -0.19175127 -0.07389232 0.09414413 -0.104084216 0.2668229 -0.118773356 0.42964113
0.15604839 0.31771564 0.038662706 -0.13367885 0.12671576 0.2556522 0.041240856 0.16051266
0.21330394 -0.29325745 -0.14344268 -0.005281814 -0.0711795 -0.3206794 0.10537622 0.08674425
-0.30533078 0.03017279 0.053599227 0.014730285 0.06815921 -0.45963535 -0.024384039 0.24295199
0.00970142 -0.0037554558 -0.29710132 -0.18391816 0.0014242514 -0.08749451 -0.074987926 -0.0014141327

encoder.abr_encoder.abr_projection.bias f4 [32]
00000000: 7d4b f3b7 5ddf 1c37 9d49 6f37 51e3 38b9
00000010: 6ea6 ea36 464c 48b7 9823 17b7 8da2 cd37
00000020: 74b3 b5b4 9b7a 3b36 6649 0a38 83c5 9c37
00000030: 20bc 94b7 2acb fe36 61c4 0fb7 1ed2 6038
00000040: 6a6c 55b8 da14 a9b8 fcf1 3fb8 b36d 3138
00000050: 6ccd 49b8 d14a 60b7 9a18 bfb7 68c5 2938
00000060: e6f0 a8b8 1f75 21b8 ae5e e0b6 554d 8c37
00000070: 47e7 0f37 55b7 12b9 15dd abb6 94a1 0d38
-2.900301e-05 9.35033e-06 1.42626495e-05 -0.0001763229 6.9931184e-06 -1.1938688e-05 -9.008589e-06 2.4513598e-05
-3.3844447e-07 2.7936537e-06 3.297012e-05 1.8688623e-05 -1.7730577e-05 7.5934413e-06 -8.569187e-06 5.360145e-05
-5.0884126e-05 -8.062432e-05 -4.5763314e-05 4.2302254e-05 -4.811345e-05 -1.336886e-05 -2.278043e-05 4.047659e-05
-8.055735e-05 -3.849447e-05 -6.6867424e-06 1.6725311e-05 8.577313e-06 -0.00013991942 -5.1219345e-06 3.37675e-05

encoder.abr_encoder.abr_norm.weight f4 [32]
00000000: bc29 5f3f 40e1 663f a605 593f d0c2 593f
00000010: 241c 693f 6c82 693f 8bc0 603f 876c 743f
00000020: 821d 5a3f 67cf 753f c09a 573f 9019 763f
00000030: fd9e 6d3f 80df 6a3f 142b 623f 027b 693f
00000040: 89f2 633f 04f9 773f 4668 583f b9f0 583f
00000050: e3b5 6a3f f69f 543f bafc 683f a8f9 603f
00000060: 0351 823f 3e7b 623f 4e05 813f 768b 6d3f
00000070: 168a 573f 907e 693f 0f3a 6f3f fca2 743f
0.87173057 0.90187454 0.84774244 0.85062885 0.91058564 0.91214633 0.877938 0.954781
0.85201275 0.96019596 0.84220505 0.96132755 0.9282072 0.91747284 0.8834698 0.9120332
0.89041954 0.9686434 0.8453411 0.84742314 0.9168379 0.8305658 0.9101063 0.87880945
1.0180973 0.884693 1.0079744 0.92790926 0.8419508 0.91208744 0.93447965 0.95561194

encoder.abr_encoder.abr_norm.bias f4 [32]
00000000: 8011 5abe 49a3 80be bf25 c2be 5b48 acbe
00000010: 03a0 1ebe e90a 64be e52e a6be 545e 11be
00000020: a868 44be 37aa da3c a249 b8be fed6 ac3c
00000030: 3cac 43be b886 8ebe bf25 1cbe c77e 8ebe
00000040: a91a 58be cda1 ad3d 299d a3be b6ea ccbe
00000050: 9836 6abe 05da 71be a51a 92be cac3 77be
00000060: 501c 0d3d c6d7 93be f3fe 4dbe e479 47be
00000070: 7b71 44be 98f5 9cbe 65d3 b2be 1607 e1bd
-0.21295738 -0.25124577 -0.37919423 -0.33648953 -0.15490727 -0.22269787 -0.32457653 -0.1419614
-0.19180548 0.026692493 -0.35993677 0.02109861 -0.19108671 -0.27837157 -0.15248774 -0.27831098
-0.2110392 0.08478127 -0.3195584 -0.4002282 -0.22872388 -0.23618324 -0.28535953 -0.24195781
0.03445083 -0.2887556 -0.20116787 -0.19480091 -0.19183914 -0.30656123 -0.34926906 -0.1098768

encoder.abr_encoder.abr_norm.running_mean f4 [32]
00000000: 1519 93bd 4536 f8bc 85a1 86bd 6b08 13bc
00000010: 52ea abbd 0c7d 8f3d 5bb5 9d3d 5a0e d53d
00000020: fa78 953d 0524 e1bd 93eb acbd 4235 b3bd
00000030: 4fed 3f3d 5e04 6f3d ce62 5a3d cd23 643d
00000040: 25ba 003d 36ef b7bd b72b d3bb 4f92 b1bc
00000050: a350 96bd eda9 853c 88af 823d 7e91 e7bb
00000060: 2de1 b0bd 7046 c9bc 9208 ab3d 5471 293d
00000070: 9659 65bd 4c73 afba e5ef 99bc 37d4 74bd
-0.071825184 -0.030299315 -0.06573776 -0.008974175 -0.083943024 0.07006273 0.077006064 0.10403128
0.07298465 -0.10993198 -0.0844337 -0.087503925 0.046857174 0.058353774 0.053316884 0.055698205
0.03142752 -0.08981173 -0.00644442 -0.02167621 -0.07339599 0.016316378 0.06381136 -0.0070669046
-0.08636699 -0.02456972 0.08351244 0.041367844 -0.05599364 -0.0013385802 -0.018791148 -0.059772696

encoder.abr_encoder.abr_norm.running_var f4 [32]
00000000: ac6d 243f 2f5f 053e 1cc3 053f 8afe 143d
00000010: 0317 513f 2818 113f 55ff 303f c3ba af3f
00000020: e060 243f 186c a83f 04e0 4f3f 4886 753f
00000030: f069 6f3e 8832 c33e bc7d ab3e a069 bb3e
00000040: 40ad 163e aa13 7b3f cd48 f23c 8536 783d
00000050: e1e9 283f d396 973d 6f39 093f 531c 433d
00000060: d9bd 513f 4759 f13d 087b 603f 1ce4 703e
00000070: f936 c63e 564d 4a3c 6ac5 4e3d 4737 ce3e
0.64229846 0.13024591 0.5225084 0.03637556 0.8167574 0.56677485 0.69139606 1.372887
0.6421032 1.3157988 0.81201196 0.9590802 0.23380256 0.3812449 0.33494365 0.36604023
0.14714527 0.9807688 0.02957573 0.06059887 0.6598187 0.07401814 0.5360326 0.047634434
0.8193031 0.117846064 0.8768773 0.23524517 0.38713816 0.01234754 0.050481237 0.40276548

encoder.abr_encoder.attention.q_projection.weight f4 [64, 1]
00000000: bd87 923e d7df 5d3e 3a66 c539 820f f63d
00000010: c816 633d 85cc 10be dedb c93d cb3e 0b3e
00000020: 96dd 14bc c567 383e 0f97 d83d 8f22 13be
00000030: ba6a b43d 397a ec3d 9dd6 603e fa04 4dbe
00000040: f0b9 87be 249c f2bd a805 743c 1d70 43be
00000050: 1e2a 8fbd 5209 50be 2eeb 57be 96d6 ba3d
00000060: a215 0a3e ebfe 033d 1754 473e 9200 86bd
00000070: 1c69 de3c b764 fc3d 5de8 483e 8c1d af3d
00000080: 0e66 1bbe 36e2 aa3d 1ddc 1b3e bfec 143e
00000090: 32be 78be df7c 49bd 845b 28be 1413 9dbe
000000a0: 7f4e 95be f1e7 123e 9440 70be 12e7 5bbe
000000b0: 1aa4 a3bd 4bd7 99bd 68e5 e63d e4c8 6bbe
000000c0: 9794 03be 796d 4db9 8f99 723d 554b 1abd
000000d0: 9cd1 81bd e415 1fbe c081 84bd 3e9e d13d
000000e0: 0ad3 01be ca0e 05bd 3beb 36be 5ed5 9b3d
000000f0: 4620 32be 0a93 3d3d 176a 8ebe 2444 a63d
0.28619185 0.2166742 0.00037650933 0.12014677 0.055441648 -0.14140518 0.098563895 0.13598172
-0.009086033 0.18008335 0.10575687 -0.14368652 0.08809419 0.115467496 0.21956868 -0.2002143
-0.26509047 -0.11846188 0.014893927 -0.19085737 -0.06990455 -0.20316055 -0.21085808 0.0912296
0.13484815 0.03222553 0.19465671 -0.065430775 0.02714973 0.12323897 0.1961989 0.085505575
-0.1517565 0.083439276 0.15220685 0.14543436 -0.24291304 -0.049191352 -0.1644116 -0.30678618
-0.2916145 0.14346291 -0.23462135 -0.21474865 -0.07990284 -0.07511767 0.112742245 -0.23025852
-0.12849651 -0.00019591105 0.059228476 -0.0376695 -0.06338808 -0.15535694 -0.0647006 0.102352604
-0.12678161 -0.032484807 -0.17863171 0.07609056 -0.17395124 0.046282806 -0.27815315 0.081184655

encoder.abr_encoder.attention.q_projection.bias f4 [64]
00000000: dce9 cdbb 5cf0 b73b 038f beba 9687 a93b
00000010: ec26 783b 1d9d a3bb e89d a23b ec5a c6bb
00000020: 2a96 ac39 1ed3 c8bb fa9f 903b 7eac c73b
00000030: dcf9 c2bb fc09 513b 9ef5 a33b db83 c93b
00000040: 6229 c6bc 3137 de3c 7d76 a2bc cdd7 51bc
00000050: 4239 d93c e8fa b6bc 36cc b7bc 28c8 dcbc
00000060: e18b e0bc a4d2 c4bc 46e9 e3bc 1221 d73c
00000070: 3de7 a33c de82 e2bc c322 e5bc 2b4b dcbc
00000080: 0e17 e03c 7421 16bc 1108 86bc 4170 b73b
00000090: f5df 433c 3bcf 3d3c 79c9 f53b b188 6bbb
000000a0: 0885 b5bb 5f09 3fbc 3ae7 b3bb a3de b8ba
000000b0: 9a9d 483c 2e12 bdbb acfc 91bc c409 7e3c
000000c0: c151 11bc b5b2 84ba 4d43 913a cc0f 843c
000000d0: 2981 303c dde2 18bc e977 e0bb 9b66 26bc
000000e0: 75a5 21bc ebd4 e1ba 0d9f 3d3c 57d1 cf3b
000000f0: ee81 3c3c ab29 1fbc c5d7 3e3c 8e84 22bc
-0.0062839817 0.00561337 -0.001453847 0.005173634 0.0037864996 -0.0049930946 0.0049626715 -0.006053319
0.00032918277 -0.0061286828 0.004413602 0.0060935607 -0.0059501957 0.003189682 0.005003645 0.0061497516
-0.024189655 0.027125927 -0.01983189 -0.012807799 0.02651656 -0.022336438 -0.022436243 -0.02695091
-0.02741045 -0.024026223 -0.027821194 0.026260886 0.020007724 -0.027650293 -0.027970677 -0.026891312
0.027354743 -0.009163249 -0.016361268 0.0055980985 0.011955251 0.011585052 0.007500824 -0.0035939629
-0.00553954 -0.011659949 -0.005490211 -0.0014104437 0.012244606 -0.0057699895 -0.017820679 0.015505258
-0.008869589 -0.001012406 0.0011082679 0.016120814 0.010772982 -0.009331432 -0.006850232 -0.010156299
-0.009866108 -0.0017229592 0.011573565 0.006342094 0.011505587 -0.009714524 0.011648123 -0.009919299

encoder.abr_encoder.attention.k_projection.weight f4 [64, 1]
00000000: 7ac0 de3d 3a22 5dbe b0a8 e539 e659 26be
00000010: 9f80 e5bd 0cf5 ff3d b593 1abe 58b0 263e
00000020: eb6e 5e3d 6fd9 863e 5063 c4bd 81b8 83be
00000030: dbe1 373e cd92 69bd dbca ddbd 2e8d 0fbe
00000040: 25fc 873e e423 62be b3a0 bd3c 8b23 3d3d
00000050: fb4e cbbd 547e 1f3e d0cd 223e 1441 3d3e
00000060: b8e0 9a3d 19a1 483d e06e aa3d 0b90 a0bd
00000070: 8efc 1fbe 815a ed3b 34ee de3c 80b9 2b3e
00000080: ad88 e53a cc21 163d 81d5 57bd e2f3 8e3e
00000090: 75b6 583e f24e 5c3e 85e6 64bd e032 41be
000000a0: 08e6 90be c2f3 70be c919 8ebe 1cca 09be
000000b0: fa53 2b3e bbb0 8dbe df61 0ebd 50e7 8c3d
000000c0: b72a 043e e9b6 a139 c1cb 32bd 8c1d e93b
000000d0: 1adc 0fbe 6ff0 0e3e 0655 053e d523 e63c
000000e0: af00 463e 8fff 9f3d 4161 81be b6f2 bcbd
000000f0: 220f 69be f246 853d d50c 7ebe 7d36 323d
0.10876556 -0.21595088 0.00043803966 -0.16245231 -0.11206173 0.12497911 -0.15095408 0.16278207
0.054305 0.26337764 -0.09589255 -0.25726703 0.17957251 -0.057024766 -0.10829707 -0.140187
0.2655956 -0.22084004 0.023147916 0.046176475 -0.09927174 0.15575534 0.15898824 0.18481857
0.07562393 0.04898176 0.08321929 -0.07839974 -0.15623686 0.007243455 0.027213193 0.16769981
0.0017512046 0.036653325 -0.052693848 0.27920443 0.21163352 0.2151449 -0.055883903 -0.18867064
-0.283005 -0.23530486 -0.27754048 -0.13456005 0.16731253 -0.27673897 -0.034761306 0.06880057
0.1290692 0.00030844592 -0.043651346 0.007114118 -0.14048806 0.13958906 0.13020715 0.028093258
0.19336198 0.07812416 -0.2526951 -0.09225981 -0.22759679 0.06507672 -0.24809583 0.043508995

encoder.abr_encoder.attention.k_projection.bias f4 [64]
00000000: 5457 2eb7 1b2d 25b7 d342 86b2 1bda 15b7
00000010: 2837 05b6 9571 0a37 15b3 32b6 0f68 93b6
00000020: 0a68 2035 066a fbb6 a890 01b7 48c6 bd36
00000030: 3fa4 a7b6 037f 9fb6 38fa 1db7 dbf3 5f37
00000040: 8dd5 8cb6 4ae5 0d36 4733 8b33 aedf 1536
00000050: ade8 2636 e0d8 a434 816f f4b6 2ef1 bbb4
00000060: 3530 5633 fa87 77b5 c1e4 5236 e4ae f035
00000070: b843 8eb5 1d0f 30b6 360e 1ab6 edfd 0336
00000080: bbe4 fdb6 e5e4 2835 fd54 0437 aa89 9236
00000090: ae9b 65b7 c46f 1cb6 7927 19b7 c3c7 9bb7
000000a0: 2e4b 27b7 6b7c 4f36 eb6b 15b7 6c1d e3b6
000000b0: b659 5ab6 c7ed 92b5 1088 ad36 c0fa 44b7
000000c0: 8222 9f35 bd5f 6132 942c 8fb4 9864 3a35
000000d0: 9cf7 5235 e692 d135 37b8 a835 6882 a2b5
000000e0: 159e 6736 b95f 0d34 eb64 6b36 4edf cdb5
000000f0: 0a88 6035 75de 3bb5 2267 2d36 b1fe b2b5
-1.0391541e-05 -9.845268e-06 -1.5630041e-08 -8.931874e-06 -1.985065e-06 8.251886e-06 -2.6628306e-06 -4.3930554e-06
5.975604e-07 -7.4927257e-06 -7.72268e-06 5.655722e-06 -4.9961086e-06 -4.7533554e-06 -9.416188e-06 1.3348613e-05
-4.1971857e-06 2.11441e-06 6.482019e-08 2.233293e-06 2.4871363e-06 3.0705178e-07 -7.2847474e-06 -3.5006946e-07
4.9869602e-08 -9.221254e-07 3.142559e-06 1.7932293e-06 -1.0599533e-06 -2.623484e-06 -2.295606e-06 1.9668325e-06
-7.5666153e-06 6.291796e-07 7.887601e-06 4.3671653e-06 -1.3685711e-05 -2.3310868e-06 -9.128701e-06 -1.8570461e-05
-9.97148e-06 3.0917824e-06 -8.906219e-06 -6.7685523e-06 -3.253675e-06 -1.094705e-06 5.1716415e-06 -1.1740893e-05
1.1856466e-06 1.3118492e-08 -2.666826e-07 6.943678e-07 7.8591415e-07 1.5614467e-06 1.2570589e-06 -1.2107894e-06
3.4513698e-06 1.3166472e-07 3.507647e-06 -1.533868e-06 8.3644466e-07 -6.9986646e-07 2.583904e-06 -1.3336158e-06

encoder.abr_encoder.attention.v_projection.weight f4 [64, 1]
00000000: 13c3 3cbe 3228 503e 9e89 13be 8af8 24be
00000010: 4e0e 2abe e3f9 183e d659 27be 8dc7 553d
00000020: abcd 6d3d befb 4fbe 9c12 cc3c 2df1 713e
00000030: 0c27 6abe 3155 9f3e f6da 34ba b2fe 503e
00000040: 587b bdbd cfa8 803e 3577 38be 3b6f 1dbe
00000050: 586d 673e 631f 49be 0c73 8d3e 827f 80bd
00000060: 4ddb fcbd 3b89 9e3e 8c61 893e 6ab3 a13d
00000070: 8951 96be 430d c73c bf03 debb 53d6 123e
00000080: 2094 fa3c 0dbe 7938 6ad4 b0be 9646 20be
00000090: 884d 2c3e 9de6 8dbe 0405 8a3d 84fa 89be
000000a0: c254 7ebd 4eda fabc 96f7 fabb 7d41 d23c
000000b0: 621e 11bd 701f 79bd 6189 373e e8d9 b03d
000000c0: 644d c8bd eed0 453e 8e87 a23e 04ae 503e
000000d0: 5539 cf3d 5ee1 bfbd eaee 363e ad7e 95bd
000000e0: ee3e 3c3e 32f1 a13e ab27 ba3b 99a9 f4bd
000000f0: 74b0 203d 4a01 8e38 8fcb 543e ddf2 92bd
-0.1843379 0.20327833 -0.14407966 -0.16110435 -0.1660702 0.14939074 -0.16342863 0.05219226
0.05805747 -0.20310876 0.024911217 0.23627158 -0.22866458 0.31119683 -0.0006899083 0.20409659
-0.092520416 0.2512879 -0.18014224 -0.15374462 0.22600305 -0.1964088 0.27626836 -0.0627432
-0.12346516 0.30964074 0.26832235 0.07895549 -0.2935908 0.024298316 -0.006775349 0.1433957
0.03058821 5.9543225e-05 -0.3453706 -0.15651926 0.16826451 -0.27715006 0.06739238 -0.2694894
-0.06209255 -0.030621674 -0.007658909 0.025665993 -0.035429366 -0.060820997 0.179235 0.08635312
-0.09780386 0.19317982 0.31744045 0.20378882 0.10118357 -0.09369157 0.17864576 -0.07299552
0.18383381 0.3162933 0.0056809983 -0.11946411 0.03923078 6.771328e-05 0.20780776 -0.07175229

encoder.abr_encoder.attention.v_projection.bias f4 [64]
00000000: 06d4 483c 8296 403c b176 433c c015 6a3c
00000010: a810 2bbc 094d 3a3c 0997 0dbc fe70 27bc
00000020: 5993 113c d433 28bc 1d9e 793b 5cac 3a3c
00000030: 4ca3 37bc a37d 453c 774a 4fba 1081 3b3c
00000040: 21ab 96bc d931 ac3c 8da3 923c 8fc1 a2bc
00000050: de02 a73c 7f98 a6bc 8542 ae3c 6297 463c
00000060: 9402 a4bc 21a5 ae3c afc6 ae3c e2bb 72bc
00000070: 5e2c a9bc c38e 82bc c310 62ba e188 a33c
00000080: b788 0a3b 416f 5d38 deba 1ebc 1e3d 17bc
00000090: 9b88 99bb 4820 1dbc 716c e63b 5dd8 35bc
000000a0: 6eaa d8bb 7bb1 10bb 4594 243a b684 a13b
000000b0: 6ca6 9cbb c774 823b 6c93 363c fcec 063c
000000c0: e33e 053c e1a3 c33c de4c f33c db63 c13c
000000d0: 563e 833c 5762 bbbc 9495 87bc 5d14 853c
000000e0: c743 e43c c2ec b73c 2f4e 7a3c 93f9 943c
000000f0: 93bc 563c 6894 7c3c 7f57 d93c ae2b 1437
0.012257582 0.011754634 0.011930154 0.014287412 -0.010440983 0.011370906 -0.008641967 -0.0102198105
0.008885228 -0.010266263 0.0038088628 0.011393633 -0.011208367 0.01205388 -0.00079075195 0.011444345
-0.018392147 0.021019863 0.017900253 -0.019867687 0.02038711 -0.020336388 0.021271953 0.012121053
-0.02002076 0.021318974 0.021334974 -0.014815303 -0.020651039 -0.015937215 -0.00086237135 0.01996273
0.0021138617 5.279412e-05 -0.009688107 -0.00923088 -0.004685474 -0.009590216 0.00703197 -0.011098948
-0.0066121137 -0.0022078443 0.00062781974 0.0049291505 -0.004780581 0.003981206 0.011143547 0.008235212
0.008132669 0.023881854 0.02969974 0.023607185 0.016020935 -0.02287404 -0.016550817 0.016245062
0.02786435 0.022451762 0.0152774295 0.018185413 0.013106483 0.015416242 0.02653098 8.831657e-06

encoder.abr_encoder.attention.output_projection.weight f4 [1, 64]
00000000: d7d9 123e 94c2 7b3e 80c7 b13d c29e 33bc
00000010: 05be 0abe 65ba 723e c59d a5bd 58d8 ecbc
00000020: 7fd8 393e 5647 dfbd 3ae9 443d 4f4c 2a3e
00000030: c0ef 1bbe 7ab7 773e 023b 6838 ed56 453e
00000040: fda2 38be c26b 053e 2bbd 443e 9feb 18be
00000050: e92d 9c3e 80d4 53be 5f0a f83d 9471 1f3d
00000060: 2cdc 6abc 104c 0a3e 9b91 e13d 8ae1 99bd
00000070: 2a0e 8cbe 6e32 10be d4fc 263a 7e5c 8b3c
00000080: 519a 2e3c 0844 f1b7 9dc0 96be 58c8 97be
00000090: 5a72 56bd 903b 99be 0ea5 e13d 1e8f 05be
000000a0: 6b70 bfbd 68e1 2fbc a29e d7ba 3f0d 8b3d
000000b0: 0efe 1bbc be00 1e3d f55f c93d 6296 6c3e
000000c0: c6d0 133d 97ce 123e 33ad 323d 52c8 253e
000000d0: 329e 9a3b 31e6 24be 6484 febd 059c f23d
000000e0: caf9 5e3d 0e39 a83e 1c2e 923d 68f9 523e
000000f0: 4d7a d4ba 365a b23d 08d1 933d 91bf 823c
0.14340912 0.24585944 0.0868063 -0.010963144 -0.13549049 0.23703916 -0.08086733 -0.028911754
0.18148993 -0.10902278 0.048073985 0.16630672 -0.15228176 0.24191085 5.5368066e-05 0.19271441
-0.18030925 0.13029388 0.19212787 -0.14933632 0.30503777 -0.20686531 0.12111353 0.038926676
-0.01433472 0.13505578 0.110141 -0.07513721 -0.27354556 -0.14081737 0.0006370072 0.017011877
0.010656909 -2.8761118e-05 -0.29443827 -0.29645038 -0.052355148 -0.29928255 0.1101781 -0.13042876
-0.09347614 -0.010734893 -0.0016450475 0.06789636 -0.009521021 0.038574927 0.098327555 0.23104241
0.036087774 0.1433662 0.043622207 0.16189697 0.0047185654 -0.16103436 -0.12427595 0.118461646
0.054437436 0.3285603 0.07137701 0.20602953 -0.0016210765 0.087086126 0.07217604 0.015960487

encoder.metadata_encoder.metadata_projection.weight f4 [48, 12]
00000000: 1b6c 9a3d 3cee afbd f848 033e 1b94 b83d
00000010: 8e87 59be 2b5d a8be 32b6 7abe f06b 85bc
00000020: 6865 643a 5a06 173e 0744 cc3e 51e4 293e
00000030: 2769 00bc 6c9b 8ebc f505 203e 0e44 a43d
00000040: 9da0 9c3d 2d57 9e3d 475d 243e 379c d33c
00000050: 5e68 d93d 8f96 313e 73e1 45be f76e d33c
00000060: 525a 18be b0ba b9bd a60d 953d 4c41 023e
00000070: 11ad 72bc e4ab 1a3e f3ee ea3d 8f27 8d3c
00000080: a02f b7bd f6fe 4abe 0036 3cbe b46d 1d3d
00000090: 618e d93c fa6f 01be 98c2 523e e6a9 a83e
000000a0: 384c dfbc 42b2 423e d389 d03d 19d5 eebb
000000b0: b7cc 08bd 81f9 823e 9740 4fbe 9784 853c
000000c0: 71df 07bc 8b2a 9d3c c439 8dbe 5c55 7dbe
000000d0: 71c0 0dbe a329 9cbe 204e 87be 898e d8ba
000000e0: 7a5a d8bd 2b24 913c 8f05 e1be 469c 93bc
000000f0: a36f 90bd 039b 863d baa0 293e 292f f73d
00000100: 8429 e1bd 14a5 273e 6780 533d b128 bb3a
00000110: 76b2 28be 29e9 17bd d23d b83e 7f8a 9e3c
00000120: 3b9e b8bd d130 2dbb c063 77be 6241 54bd
00000130: 49aa b0bd af67 9cbd 7e55 8abe a6ed 173d
00000140: 8826 31bc b415 7b3e 7222 e03e 4007 073e
00000150: b820 00bc 0e91 0bbc 9e26 d5bd e96c e73d
00000160: 9d30 60be 669d 8fbe 133d c6bd af17 4ebd
00000170: 62c8 0dbe 6258 683d 3a23 833e 0659 5fbc
00000180: 5798 2bbd 1030 b13d c22a 51bd ae5e 153e
00000190: d3bb 873d b2cb 23be 6e9f 9ebc 7a73 4cbd
000001a0: ac84 28be 186a f53d 13cf f63e b958 e23d
000001b0: 61e8 fabc 7ff4 96bd 9110 9f3e 4347 b1bd
000001c0: b93c a93e 46ef 3ebe 9294 83be 8312 25bd
000001d0: e1a0 b53d a3ae 02be 1fe9 71be fb65 21bd
000001e0: cb23 45bd 1d55 613c 0789 033e 47fa 45be
000001f0: de4a 743d f89d 81bd 36d9 12be 247b 523d
00000200: 2c41 50be 03e9 22be 866c ba3e d7ac cfbc
00000210: c86d 033e 50cd b3bd e5a5 1dbe 61e3 68be
00000220: 6ea5 32bb f3fb 5a3e c55d d83d 9e3d 35bd
00000230: d07a 3b3d c599 733e 6ab6 a33e b2fb a33d
00000240: 53e8 3cbd 95a6 593c 1a20 443e 6b20 0a3e
00000250: b86f 04be 6987 943d c40a 573d 98c0 c2bc
00000260: d4d8 24be 6625 6bbd 3ef0 27be 5e71 153e
00000270: 2520 233d f3cf 4a3d 6fc8 d9bd 9c1e 82be
00000280: eaa9 a6be 33c2 03be 9e6e 21be 021a 943d
00000290: fa59 023d f31a 483e 5abb 963e f66f e63b
000002a0: bc48 483d 84f3 13be 6c2f 2fbd ba3e 273e
000002b0: a1b3 f83d ea84 f1bd 60fc d0bd e07a 05bd
000002c0: e970 543e ed91 7a3e 6db3 fbbe d5a8 93bd
000002d0: cb4d 983c 2239 17be af1f b9be a4c2 18be
000002e0: 5261 203e fb77 a4bb 72ca efbd 1cc4 41b8
000002f0: 4012 fc3d a862 f0bd 4db8 a93e a081 123d
00000300: beda 4cbe c74b a03d b310 9dbd 6e7f 77bc
00000310: fc0f 34bd 9d3c bbbd df41 fabd 1f84 b83c
00000320: 8242 b33d e595 84bd 668c a83e 1e23 883e
00000330: c30d d73c ca4a 603d 5a88 31bd b238 12be
00000340: e213 a93c 9ffd 43be 88eb d93c 94cc 483c
00000350: 6512 0f3c de3f e3bc c809 643e 3f1c eb3d
00000360: 473d ed3c c910 72bc 726c 843e 72d1 963e
00000370: d1c3 84be 9bbc 70be f32b 39be 3a84 80bb
00000380: 75ed dd3d 12a3 e13d 230c a33e 37a8 13bd
00000390: 78c6 203d 68f7 bc3d e42c 29be b1bb 80be
000003a0: 59b5 2cbe f966 19be bc9f 053e 2404 cc3b
000003b0: 67df b03d a1b1 4cbe 662c bd3e 195d a4bc
000003c0: dd60 9bbd 87f6 b73d 826e b13d 7abb 87be
000003d0: da47 c0ba 7b6c 88be f0d0 13bd 9d7b b83d
000003e0: da53 e1bd 6eef 4b3e 3fa1 b23e 3a59 d93d
000003f0: bf83 8dbd 36e7 123e 6885 4abd 132d 03be
0.07540151 -0.085903615 0.12820804 0.09012624 -0.21243116 -0.32883582 -0.24483564 -0.01628682
0.00087126205 0.14748517 0.3989565 0.16591002 -0.00783757 -0.017408095 0.15627272 0.08020793
0.07647822 0.07731471 0.16051207 0.025831325 0.106156096 0.1734259 -0.19324283 0.025809748
-0.14878204 -0.09068811 0.07277994 0.12720221 -0.01481177 0.15104634 0.11471357 0.017230777
-0.089446306 -0.19823822 -0.18379974 0.0384347 0.02655715 -0.12640372 0.20582044 0.32942122
-0.027258024 0.19013312 0.10182538 -0.007288587 -0.033398356 0.2558098 -0.20239483 0.016298575
-0.008293019 0.019185325 -0.27583134 -0.24739593 -0.13842942 -0.30500516 -0.26426792 -0.0016521971
-0.10564132 0.017717442 -0.43949553 -0.018018853 -0.07052543 0.06572535 0.16565219 0.12069542
-0.109942466 0.16371566 0.051636126 0.0014279095 -0.16474327 -0.037087593 0.35984665 0.01935315
-0.09014555 -0.0026426802 -0.24159145 -0.051820166 -0.08626229 -0.076369636 -0.2701835 0.037091874
-0.010812409 0.24519998 0.4377628 0.1318636 -0.007820301 -0.00851847 -0.10407756 0.1130007
-0.21893544 -0.28049773 -0.09679618 -0.050315555 -0.13845971 0.056724913 0.25612813 -0.013632065
-0.04189333 0.08651745 -0.051066168 0.14586899 0.066276215 -0.15995672 -0.019363131 -0.049914815
-0.1645686 0.119831264 0.4820486 0.11052079 -0.030628385 -0.07370853 0.31067327 -0.0865617
0.3305414 -0.18645963 -0.25699288 -0.040300857 0.08868576 -0.12761931 -0.23624085 -0.039403897
-0.048129838 0.013753203 0.1284524 -0.19333754 0.05964171 -0.06328958 -0.14340672 0.051386967
-0.20337361 -0.159092 0.36410922 -0.025350971 0.12834847 -0.087793946 -0.15395315 -0.22742988
-0.0027259248 0.21385173 0.1056476 -0.044248216 0.04577142 0.23789127 0.31975108 0.080069914
-0.04612 0.013284345 0.19152871 0.13488929 -0.12933242 0.0725239 0.0525005 -0.023773476
-0.16098338 -0.057408713 -0.16400239 0.14594027 0.039825577 0.049514722 -0.10633933 -0.25413978
-0.3255151 -0.1286705 -0.15764853 0.07231523 0.03182409 0.1954153 0.29439813 0.0070323898
0.04889749 -0.14448363 -0.042769834 0.16332522 0.121436365 -0.117929295 -0.10204387 -0.032587886
0.20746197 0.24469729 -0.49160329 -0.072099365 0.018591782 -0.14767888 -0.36156985 -0.14918
0.15662125 -0.0050191856 -0.11708535 -4.6197427e-05 0.123081684 -0.11737567 0.33148423 0.03576815
-0.20005319 0.078269534 -0.07669201 -0.015106065 -0.043960556 -0.091424204 -0.12219595 0.022523938
0.0875292 -0.064739026 0.32919616 0.26589292 0.02625168 0.054758824 -0.043342926 -0.1427944
0.020639364 -0.19139718 0.026601568 0.0122558065 0.008732413 -0.027740415 0.22269356 0.11479997
0.028959883 -0.01477451 0.25863987 0.2945667 -0.25930646 -0.23509447 -0.18083172 -0.0039220126
0.10836307 0.11017431 0.31845197 -0.036049094 0.039251775 0.092268765 -0.1652103 -0.25143197
-0.16866054 -0.14980687 0.13049215 0.0062260795 0.086363606 -0.19989635 0.36947936 -0.020063924
-0.075868346 0.08982568 0.08663656 -0.2651022 -0.0014669851 -0.26645264 -0.03608793 0.09007952
-0.110023215 0.19915554 0.34888646 0.10612722 -0.06909894 0.14346012 -0.049443632 -0.12810163

encoder.metadata_encoder.metadata_projection.bias f4 [48]
00000000: 565d 1abe 8453 efbc df86 613c 19b9 abba
00000010: 9b93 ffbd 0c08 27be 76a6 4cbe 983b 73bc
00000020: 81ab 15be f72f e53c 3872 f3bd 5836 08be
00000030: e855 03be b901 1ebe f366 ae3c 080b fdbc
00000040: e733 49be e4d8 2bbe ed85 f9bc 89d5 d4bd
00000050: 227f 87be 3185 3cbd 1af7 53be 941e 873d
00000060: f46a bbbd eeee 8bbe 68e7 19bd af1e 54be
00000070: 89de 48be d136 bebd a5ac 4ebe 80b2 26be
00000080: 7d61 0fbe 33dd b6bd 3431 2b3c e2e6 583c
00000090: 2fe7 25be 3624 8abb c8c6 0abe 3633 0bbe
000000a0: 8f87 2bbe 3091 d0bd 65c1 7fbd e4b8 c7bd
000000b0: 7db4 5ebc a3d8 7cbe 5cdf 31bd e52a 47be
-0.15074667 -0.029214628 0.013765066 -0.0013101428 -0.124793254 -0.16311663 -0.19985375 -0.014845751
-0.14616205 0.027976973 -0.1188702 -0.1330198 -0.1282574 -0.15430345 0.021289324 -0.03088905
-0.19648705 -0.16781956 -0.030459369 -0.10392291 -0.26464182 -0.04602546 -0.2069973 0.06597629
-0.09151259 -0.27330726 -0.0375742 -0.2071483 -0.1961614 -0.09287799 -0.20183046 -0.1627903
-0.14002033 -0.08928909 0.010448743 0.0132386405 -0.16201471 -0.0042157425 -0.13552392 -0.13593754
-0.1675093 -0.10183942 -0.062440295 -0.09752062 -0.013592836 -0.24692015 -0.043425903 -0.19449957

encoder.encoder_layers.0.0.weight f4 [128, 80]
00000000: 7f4d 77bd a257 3dbd 09a4 bf3c 496e 03bb
00000010: dfd4 363e 4be4 44bb 7dc7 88bd 2742 b1bc
00000020: 800e 173c 2f5b 99bd 4adb 03bc 3154 08bd
00000030: 97bf 363e a165 3b3e 245a 73bd 58c7 233e
00000040: e722 713c cf32 0cbd 237b a8bd 6ef0 82bd
00000050: fce5 5dbd 611f 73bd 6019 f8bc 64b2 f13c
00000060: 4238 8cbd 16e0 66bd e7c4 143e 4878 a4bd
00000070: e2ca 26bd a08e 7b3c 1f4e 463e 4a26 8d3c
00000080: aa34 03bd bf13 2cbe c0d7 81bd f361 9b3c
00000090: 0097 fdbd b257 a0bc e332 00bd 89df a73d
000000a0: 337f 9b3d a7cc d0bd 82cb 3f3e 8968 ea3d
000000b0: 8128 3cbe f6cf 5a3e cadd e4bd 170f eb3d
000000c0: 7a4c 553d 23b7 253e 39ee 753d 400f 423e
000000d0: 4fa7 a03d e623 ebbd bb5a 453e a3ef 3b3d
000000e0: 449a 47bd 86c1 343e 5efc f4bc cdc9 113e
000000f0: 3ae7 7dbd e3a8 67bd 50a2 383e d456 d4bc
00000100: 98bd 403e 7f55 0b3b 6876 b4bd bc50 42be
00000110: 199c 393c 74dc 4bbd 02a1 ccbd c43f 463e
00000120: aba9 c03d cc0a 913e d368 8ebb 3df6 1e3d
00000130: 0f38 67be b9c5 a93d 6588 2cbe 85b9 923d
00000140: 6f28 67bd dcad 323e 97e0 363d 969c 343e
00000150: 9e8d 9e3d ef0a d9bd fddf dbbc 60aa 24bd
00000160: 7a58 d7bd 1b62 1e3e f43a 0b3d 2a1c 353e
00000170: 23f7 313c 609b b93d 2d5f c83d a951 733d
00000180: 03c3 debd 8c5a 0a3e 77bc 8a3b 18b1 8e3d
00000190: ab85 a2bd a075 a1bd ae23 4c3d ccbc b13d
000001a0: ca04 c73d 3df3 8fbd 8652 b0bd 9301 efbd
000001b0: 333d 76bd fd26 d33d 7acf 0f3d 05d8 e33c
000001c0: 6ac4 6ebd aaae eabc 016f 62bb 9739 d0bd
000001d0: 14f8 2e3e cf34 4e3b acb3 743d 9795 e63c
000001e0: fbb2 09be 66ab a9bd 6ead 873d 7645 31bd
000001f0: abcf ca3d dbe8 c63d bc99 c63d c2f1 42be
00000200: e1e6 ed3b 7b84 fdbd 0b11 d2bd 2800 f23c
00000210: 8873 9dbd 9ad7 073e 40c1 78bd e1e0 2f3e
00000220: f9e4 8dbb 8840 a63d ef24 0ebc 3ac0 b5bd
00000230: 35c6 86bd 217c 08be 12a4 05be 88c4 debd
00000240: 4669 1dbe 8494 463d b5b3 e93d a6c3 563e
00000250: b870 0b3d 5d38 143e 8615 6fbc bc6b 70be
00000260: 04b4 7ebd 9319 583d 04bc c43c 568f 2abe
00000270: c87e bd3c 40b5 c8bd 5078 11bd 84b3 483c
00000280: 1154 233d a65e c83d e190 dcbd 6538 413d
00000290: 7f77 0e3e 633c a53d 9ebf 113e a519 98bd
000002a0: fec3 b53c 6fd0 ab3d 075b da3c baa1 c73d
000002b0: cc02 ef3d a5c0 1d3e e14b b43d ed43 cd3d
000002c0: 5736 3a3d e7c4 ccbd 5b77 f33d 433a 943d
000002d0: acd9 cc3d 210d 5cbd 5cf3 0d3e 19f6 b23d
000002e0: 7d7b b33d 73cd a5bd 917d 3a3e d330 abbd
000002f0: fa92 8c3d 3e50 153e 9da1 bb3d 8e4d b9bb
00000300: 2192 81bb 81f7 ddbd bd1b 43bd 541f d2bd
00000310: 4e64 4b3c 33db e83d a98b 433d 9f15 2f3e
00000320: caa7 963d 26f4 293d f91a 623e 6e22 cbbd
00000330: 0b7d 3ebd 4508 483e 7bdc acba 82ee 213e
00000340: dfc4 1a3e a4f7 ef3d b141 dcbc 9f82 613d
00000350: 41fc 1e3e 2c80 63bd 7944 5c3c 8b21 d63d
00000360: c622 bbbc 81d1 533e edc6 2a3d add9 633d
00000370: e75a fd3d b2c2 4a3e 736b dcbc 09d8 1b3e
00000380: c891 973d 5938 d33d 9f3b 2dbe a3bb d03d
00000390: 2063 193e 31db d63d 74a9 f23d 0fea 02bd
000003a0: 0a90 113d cb4f 47bd 7ad6 13be f360 573d
000003b0: f636 c6ba 3513 1ebd 89f4 df3d 4541 283e
000003c0: 5045 9dbd 1a4a 1bbe b185 d3bc b6fa 2e3b
000003d0: 58ab 2eba 4753 1c3e ceee 933b a43f eaba
000003e0: f49f ea3d 2299 06bd ffd4 183e a9e6 99bd
000003f0: 7878 95bc 1c69 2d3d f044 e0bd 08f6 193e
-0.06037664 -0.04622615 0.023393648 -0.0020054749 0.17854641 -0.00300433 -0.06678674 -0.02163799
0.009219766 -0.07488095 -0.008047888 -0.033283416 0.17846523 0.18300487 -0.059412137 0.15994012
0.014717794 -0.034228142 -0.082266115 -0.063935146 -0.05417441 -0.059356097 -0.030285537 0.029504009
-0.06846668 -0.05636605 0.14528237 -0.08030754 -0.040720828 0.015353829 0.19365738 0.017230172
-0.032032646 -0.16804408 -0.06339979 0.018967604 -0.123823166 -0.019573066 -0.03129853 0.08196933
0.07592621 -0.10195284 0.18729976 0.1144572 -0.18374826 0.21368393 -0.111751154 0.114774875
0.052074887 0.16183142 0.06004164 0.1895113 0.078444116 -0.114814565 0.19272892 0.045882832
-0.048731104 0.17651948 -0.029905494 0.14237137 -0.061988093 -0.056557547 0.18030667 -0.02592031
0.18822324 0.0021260676 -0.08811647 -0.1897611 0.0113287205 -0.049770787 -0.09991647 0.19360262
0.094073616 0.2832855 -0.004345992 0.03880905 -0.22579978 0.08289666 -0.16848905 0.07164291
-0.056435045 0.17449135 0.04464778 0.17637858 0.07741855 -0.105977885 -0.026840204 -0.040201545
-0.105149224 0.15467112 0.03399177 0.17686525 0.010862145 0.090628386 0.09783778 0.05940405
-0.10877039 0.13511103 0.0042338925 0.06967372 -0.079356514 -0.07883763 0.049838714 0.08678588
0.0971771 -0.07028816 -0.0860949 -0.11670222 -0.060116958 0.10310171 0.035109974 0.027812967
-0.058292784 -0.02864774 -0.0034551027 -0.101672344 0.17086822 0.0031464582 0.05974166 0.028147502
-0.13447182 -0.08284645 0.06624876 -0.043279134 0.09902891 0.097123824 0.09697291 -0.19037536
0.007260189 -0.12378784 -0.10257157 0.02954109 -0.076880515 0.13265839 -0.060731173 0.17175628
-0.004330274 0.08117777 -0.008675798 -0.08874555 -0.06580774 -0.13328601 -0.13050869 -0.10877329
-0.1537219 0.04848148 0.114112295 0.20973071 0.034043044 0.14474626 -0.014592534 -0.23478597
-0.062183395 0.052758764 0.024015434 -0.16656241 0.023131743 -0.09800196 -0.03551513 0.012249831
0.039875094 0.09783678 -0.10769821 0.047172923 0.13912772 0.080681585 0.14233252 -0.07426766
0.022188183 0.08389365 0.026654733 0.09747644 0.11670455 0.1540552 0.08803535 0.100227214
0.04546198 -0.09998494 0.118879996 0.07237675 0.10002455 -0.05372346 0.13862365 0.08738346
0.08763788 -0.08095827 0.18211962 -0.08358922 0.06863971 0.14581391 0.09161685 -0.005654997
-0.0039541875 -0.10838223 -0.047633875 -0.102598816 0.012414051 0.11369934 0.047740612 0.17098092
0.07356222 0.041492604 0.22080602 -0.09918676 -0.04650597 0.19534405 -0.0013188267 0.1581364
0.15114163 0.117171556 -0.026886793 0.05505621 0.15525915 -0.055542156 0.0134440595 0.104556166
-0.02284373 0.20685388 0.041693617 0.055627514 0.12370854 0.19800833 -0.026906705 0.1521913
0.074008524 0.10313482 -0.16917275 0.10192039 0.1497922 0.10491026 0.11848727 -0.031961497
0.035537757 -0.04866008 -0.14437285 0.052582692 -0.0015122581 -0.038592536 0.10935313 0.16431148
-0.07679236 -0.15164986 -0.025820585 0.0026699728 -0.00066631055 0.15266143 0.0045145517 -0.001787175
0.1145629 -0.032860883 0.14925002 -0.07514698 -0.01824592 0.04233657 -0.10950649 0.1503526

encoder.encoder_layers.0.0.bias f4 [128]
00000000: c1e7 84b6 ccac 3037 628c 6334 6311 72b7
00000010: 58a0 3bb7 c789 5f36 da2e fa36 7abd cab6
00000020: 8150 84b7 0474 2b37 f300 0537 2607 dbb6
00000030: dc64 5a36 1cde 93b5 bfba 1337 daf4 c1b7
00000040: 1edf 0d35 023b a2b7 5cbb 8fb6 dcc0 bb36
00000050: 94ab 6937 e739 1337 fba9 ea37 1a2f d7b7
00000060: d77c 5238 4ca0 fbb6 4241 96b7 7751 c035
00000070: 394c c7b7 5be8 5e37 5d66 8b37 c5d8 7036
00000080: 63d2 15b5 0206 5837 032b 3837 ec16 e9b5
00000090: c7f2 9b37 2a14 0db6 1375 a3b4 a171 0638
000000a0: 79f7 11b6 a7fc ed36 5410 3b36 6bd6 59b7
000000b0: 8905 ef37 c124 ee37 25de ee37 a308 31b7
000000c0: 96a8 9d36 4b15 1838 c848 8ab6 4fc8 1eb7
000000d0: 2f82 61b5 3a53 afb7 084a 4f37 970e 5a37
000000e0: b249 0b37 0559 3ab6 9bd5 bfb6 97ad 3a35
000000f0: f517 eeb5 7b40 6437 4843 26b7 d261 a337
00000100: 401b 0ab7 eec8 0135 c673 d0b6 e532 b338
00000110: c1e9 deb7 d981 fcb6 895b 30b6 1981 9837
00000120: 12a7 bbb7 e9a3 2637 35e4 9cb7 fd27 0937
00000130: f206 d137 75b5 5eb6 c7f7 9a37 3d7b fc36
00000140: de26 df36 35ce 5537 e92d eeb7 bb4f 6cb7
00000150: 86cf 46b6 ccdd 1037 6176 e536 a866 d137
00000160: 5567 23b5 36cd 53b7 9780 93b7 bd90 0537
00000170: 070c be36 e9b9 1836 0be7 87b7 ec36 beb6
00000180: 319b 96b7 47af 9eb7 6b76 c834 3240 9db7
00000190: 4de1 ac36 b852 2637 0056 93b7 6537 da36
000001a0: d751 9f36 912d 0737 e916 18b8 0618 1cb7
000001b0: d2ab 36b6 98e0 3c37 0984 41b8 ef71 9637
000001c0: bd22 6eb7 5ded 86b7 86c8 adb4 298c 3a37
000001d0: 2c25 f136 ad59 1136 32ce 1938 20a7 9bb6
000001e0: 97b6 4938 a12e 0d38 dd69 2eb7 368b c7b7
000001f0: 98b0 0538 fa88 6236 b289 91b7 5a7d 4a37
-3.9608863e-06 1.053065e-05 2.1192093e-07 -1.4428372e-05 -1.11834015e-05 3.3309786e-06 7.456035e-06 -6.042127e-06
-1.5773114e-05 1.0219406e-05 7.927639e-06 -6.527541e-06 3.254324e-06 -1.1016996e-06 8.805363e-06 -2.312141e-05
5.285127e-07 -1.9339383e-05 -4.2835436e-06 5.595486e-06 1.3927831e-05 8.775364e-06 2.7974127e-05 -2.565193e-05
5.0184168e-05 -7.499044e-06 -1.7911781e-05 1.4328824e-06 -2.3758143e-05 1.3286331e-05 1.6617758e-05 3.5888963e-06
-5.581298e-07 1.2876002e-05 1.0977269e-05 -1.7366524e-06 1.8590492e-05 -2.1022374e-06 -3.04463e-07 3.2053915e-05
-2.1750732e-06 7.092563e-06 2.7874676e-06 -1.2984131e-05 2.8493598e-05 2.8388926e-05 2.8475255e-05 -1.0552033e-05
4.6985906e-06 3.6259455e-05 -4.1211933e-06 -9.464172e-06 -8.4008474e-07 -2.0900381e-05 1.2355398e-05 1.29972095e-05
8.302204e-06 -2.7767976e-06 -5.7171105e-06 6.9543006e-07 -1.7739354e-06 1.3604872e-05 -9.910036e-06 1.9476665e-05
-8.231786e-06 4.8348636e-07 -6.212361e-06 8.544865e-05 -2.6573312e-05 -7.5253015e-06 -2.6279324e-06 1.8179928e-05
-2.2369935e-05 9.932534e-06 -1.8702916e-05 8.175147e-06 2.4917976e-05 -3.31862e-06 1.847361e-05 7.524532e-06
6.6504426e-06 1.2743801e-05 -2.839319e-05 -1.408526e-05 -2.9625094e-06 8.63471e-06 6.838513e-06 2.4962545e-05
-6.08726e-07 -1.2624359e-05 -1.7583645e-05 7.961117e-06 5.6638414e-06 2.275798e-06 -1.6200842e-05 -5.668835e-06
-1.795366e-05 -1.8916688e-05 3.7339063e-07 -1.8745752e-05 5.152228e-06 9.9136305e-06 -1.7563812e-05 6.503355e-06
4.7480967e-06 8.057236e-06 -3.626096e-05 -9.303918e-06 -2.7220126e-06 1.12579655e-05 -4.6137753e-05 1.7934448e-05
-1.4193994e-05 -1.6084576e-05 -3.236966e-07 1.11190975e-05 7.186687e-06 2.1658882e-06 3.6670077e-05 -4.638816e-06
4.8092184e-05 3.3660446e-05 -1.0395856e-05 -2.3787474e-05 3.1874137e-05 3.3756355e-06 -1.7349466e-05 1.2069324e-05

encoder.encoder_layers.0.1.weight f4 [128]
00000000: 9570 873f b94f 7f3f 74a2 7c3f bdb8 6f3f
00000010: 9dfd 813f 01c8 723f 031c 6c3f f72e 7a3f
00000020: 8626 7b3f 7f0d 5f3f 4e0e 783f 4c98 843f
00000030: f3d7 753f e507 6c3f 394a 853f 7194 6e3f
00000040: 734f 793f ee78 673f f8d7 6e3f 9f49 813f
00000050: 6bce 7c3f 9c2e 653f 541a 643f 6798 823f
00000060: 3b3a 873f 729e 7d3f 9383 8c3f e463 7f3f
00000070: f8b3 873f 41be 793f 150e 813f 39e8 843f
00000080: cf2e 7f3f 6990 843f 8605 733f 8538 783f
00000090: 862e 803f 5775 783f 638f 743f 3c42 7c3f
000000a0: 8313 723f 67b4 7d3f 74dc 7a3f 4ac7 7b3f
000000b0: 450c 713f 201a 723f 8e5b 7c3f 7b89 843f
000000c0: 1d0a 5d3f 790a 6a3f 43ff 703f fd1e 6c3f
000000d0: b8c4 803f 360e 683f 9b80 783f 2adc 863f
000000e0: 1bb2 713f c361 793f 40a8 7c3f 73eb 883f
000000f0: 18c6 7a3f 5c3f 813f 5d43 753f 0ea3 733f
00000100: 8f4d 763f d49b 7a3f 5be0 7e3f d067 673f
00000110: a94b 733f 6d24 723f bdc4 833f b24d 813f
00000120: a74a 803f e3a6 8a3f 7970 803f 2e8c 733f
00000130: d401 6b3f 593c 7e3f d006 843f a3a1 803f
00000140: 1a2a 813f 31be 6f3f 059c 673f 9a1c 7f3f
00000150: 1097 803f cda4 703f dea9 823f 99ae 7c3f
00000160: 4b10 783f 774a 753f a35b 893f 5618 8b3f
00000170: a372 843f cc59 783f 9a6e 743f 3332 823f
00000180: 39b9 803f 2c6a 633f a953 7c3f 1c3b 7e3f
00000190: 2b65 763f 2b3e 803f ce14 793f 4351 733f
000001a0: 349c 6a3f 0bdd 673f 05c6 803f 2b42 7c3f
000001b0: f491 873f 7596 7d3f 5577 8c3f 14df 713f
000001c0: 56b0 793f 3360 823f 66d6 873f 9b56 783f
000001d0: 65c1 783f d4ec 6c3f da8b 6e3f 8376 7a3f
000001e0: 8fd9 893f 6817 7b3f d1e1 803f 0683 673f
000001f0: a043 773f a1a5 6d3f a693 6b3f 41ae 6d3f
1.0581232 0.9973102 0.98685384 0.93641263 1.0155522 0.9483643 0.9223024 0.9772791
0.9810566 0.8712997 0.9689683 1.0358977 0.9603264 0.92199546 1.0413276 0.93195254
0.97386855 0.904189 0.9329829 1.0100592 0.9875247 0.89524245 0.89102674 1.020276
1.0564646 0.99069893 1.0977653 0.99761796 1.0601797 0.9755593 1.0082422 1.0383369
0.996808 1.035657 0.94930303 0.9696124 1.0014198 0.97054046 0.9553129 0.98538566
0.9456102 0.991034 0.97992635 0.98350966 0.94159347 0.94571114 0.985772 1.0354456
0.86343557 0.9142223 0.941395 0.92234784 1.0060034 0.90646684 0.97071236 1.0535939
0.9441239 0.974148 0.9869423 1.0696853 0.9795852 1.0097461 0.95805913 0.95170677
0.96212095 0.97894025 0.9956109 0.9039278 0.95037323 0.9458683 1.0294415 1.0101836
1.0022782 1.083218 1.0034324 0.9513577 0.91799664 0.99310833 1.0314579 1.0049328
1.0090973 0.93649584 0.9047244 0.9965302 1.0046101 0.94001466 1.0208089 0.98703915
0.9689986 0.9581675 1.073109 1.0866802 1.0347484 0.9701202 0.95481265 1.017157
1.0056525 0.8883388 0.98565155 0.99308944 0.9624812 1.0018972 0.9729737 0.9504587
0.916446 0.9057166 1.0060431 0.98538464 1.0591416 0.99057704 1.0973917 0.94481015
0.9753469 1.0185608 1.0612304 0.9700715 0.97170097 0.9254887 0.93182147 0.97837085
1.0769519 0.9808259 1.0068914 0.904343 0.9658756 0.92830855 0.9202217 0.92844015

encoder.encoder_layers.0.1.bias f4 [128]
00000000: 5580 6a3d 49bf 7d3d ae86 24be d4a0 cbbd
00000010: 1d3b 0bbe 940d c1bd 42a3 7bbd c3dc 0e3d
00000020: 093b 8f3d d373 66be e535 d93d 9db6 e0ba
00000030: cb66 d6bd 9678 b7bd ad8f fe3d 6096 973c
00000040: 3996 86bd bb02 b1bd 96ed fcbd 8d71 053e
00000050: 1755 8d3d 4c9a 47be 82e0 43be ad27 673d
00000060: f3ca 3d3e 74f6 aabd aa79 2f3e 2b6a e63d
00000070: 1327 863d dffb d7bc b284 343d 56c1 c6bd
00000080: 57d9 d1bd af70 c5bd 9e2e 093d 5008 38bb
00000090: e492 c33c 35e3 7f3d 2ccd c8bc f36c 55bc
000000a0: 3b71 453d 3a01 60bd 04d1 303d 6c2d 14bd
000000b0: c61a 97bd 20a3 f23c f614 f6bc ab23 933d
000000c0: 4808 2c3d 6b4f 31be 839a ecbc 9916 873d
000000d0: d79c 283d f296 263c a5f2 a9bd c5ed b73d
000000e0: 18a1 34bd 863d b6bd 2ea0 c3bd 0da2 c03d
000000f0: 1f15 fcbd 14cd 8abb 900e 1dbd 2830 8dbe
00000100: bf68 9fbd 7500 c7bc 3825 e8bc 07d9 57bd
00000110: 16a0 1fbe d2ff 3b3d ba88 9f3d 8cb2 f6bc
00000120: a69e 5cbd 06bd 16be 2033 673d 1fdb 5abc
00000130: 0fdd fabd 3027 923d f25a c53d de31 12bd
00000140: 735a c93d 7135 5abc e895 85bd 3d61 13be
00000150: 0a33 c53d b656 693c a089 773d aca7 debd
00000160: 43f5 913d 790f 86bc 5f7a 1d3e d7e3 a4bd
00000170: 723e 61be 9f72 66bb 23f8 dbbd dd97 60bd
00000180: 2306 b93d 3781 6dbe dbcf 1a3c 16ca 3a3d
00000190: d57f 243e b866 8dbd 75b3 09bc a0aa 6bbd
000001a0: 456e b5bd bb01 483d e176 8cbd ebd0 903d
000001b0: 89c5 ecbd 9f20 873d 3a79 fb3d e502 24bc
000001c0: 6675 32bd e9a4 893d 5998 653d 3b49 363d
000001d0: b0c5 fbbd 2e24 4cbe c869 8c3d 9f55 4fbe
000001e0: 9d92 ae3d 0747 52be 1658 72bc f0d6 fcbd
000001f0: 4126 c4bd d49c 80bd 2726 d2bd deb7 a6bd
0.057251293 0.061950002 -0.16067001 -0.09942785 -0.13596769 -0.09426418 -0.06143499 0.034878504
0.06993682 -0.22505121 0.10605983 -0.0017144267 -0.10468825 -0.08958547 0.12429748 0.018504322
-0.065716214 -0.08643099 -0.123500034 0.13031597 0.06900995 -0.19492453 -0.19128612 0.056434322
0.1853445 -0.083477885 0.17136255 0.11250719 0.065504216 -0.026365219 0.04407186 -0.09704845
-0.102465324 -0.09640633 0.033491723 -0.0028081127 0.023873754 0.06247254 -0.024511896 -0.013026464
0.048203688 -0.05468867 0.043168083 -0.03617613 -0.073781535 0.0296188 -0.030039292 0.071845375
0.042000085 -0.17315452 -0.02888227 0.06596107 0.0411652 0.010167824 -0.08298234 0.08980898
-0.044098943 -0.088984534 -0.09552036 0.09405909 -0.12308716 -0.004235873 -0.038343966 -0.27575803
-0.077836506 -0.02429221 -0.02833806 -0.052697208 -0.15588412 0.045898266 0.077897504 -0.030114435
-0.053862236 -0.14720544 0.05644524 -0.013357907 -0.12249195 0.07136381 0.09636487 -0.03569209
0.09831705 -0.0133184055 -0.06522733 -0.14392562 0.096288756 0.014241865 0.060433984 -0.108718246
0.07126858 -0.0163648 0.15378712 -0.080512695 -0.21996477 -0.0035163534 -0.10740688 -0.054832328
0.090343736 -0.23193823 0.009448971 0.04560288 0.16064389 -0.06904358 -0.008404602 -0.057535768
-0.08858923 0.048829775 -0.06858612 0.07071098 -0.11561114 0.06598019 0.122789815 -0.010010456
-0.04356899 0.06720907 0.056053493 0.04450343 -0.12293565 -0.19935676 0.06856114 -0.20247506
0.08524058 -0.20534907 -0.014791509 -0.123456836 -0.09577609 -0.062799126 -0.10261183 -0.08140539

encoder.encoder_layers.0.1.running_mean f4 [128]
00000000: 69cf 943d 10dc 093e a62b 5a3f 460a 933e
00000010: 1d23 203f 900b a1be 4ff7 c93e 4640 3d3f
00000020: c7be 14bf 9f6e 263f 6107 653e e3f3 3e3f
00000030: 665e 373f 9cba 843e 4915 50be 8108 2b3e
00000040: 2570 753f c2df 1bbe 8b88 0bbf 44a7 d3bc
00000050: 731f e7be 4991 f5bc b779 a83d 1610 893e
00000060: 0b1b 63bd 308a 023f f215 88bd 5ae1 39be
00000070: 4324 c33e aa3e b33e 2111 86bd b108 823f
00000080: c7f4 4b3e 1f6e 263f 7554 833e 8567 76bf
00000090: 6712 c23d ef68 243d 35b6 553e 62a6 1dbe
000000a0: 54bc a3be 1504 843e db4a cd3e c710 8a3c
000000b0: b1c8 453d 2b00 27bf 219f 06bf 1ceb 8a3e
000000c0: e285 31bf f188 0d3e 8619 3ebd d000 cbbe
000000d0: 299c 893d f197 60be dced d2bd d4d4 66be
000000e0: 152e e13e 936c 2d3f 2fcc cb3e d88b 5c3e
000000f0: 3d77 183e b13a 0c3f eef9 4ebf 8c3c 253f
00000100: 388a 393e 27b8 663e dcc1 903f 989a 7e3d
00000110: a395 bcbd b855 cdbe b6fc 98be 4dc6 91be
00000120: 3242 6c3e ba99 0c3f 1e42 ec3d 97bd 073f
00000130: 28a0 5abc b3c4 3bbe 6e5e 793e f354 333f
00000140: 3380 483d 3d30 e5be 91c4 48bd 131b 713f
00000150: 1cec 57be d982 d83e c826 a43e bd49 75bf
00000160: 5909 51bc d3e2 743e 95a1 e63d 4437 813f
00000170: 7403 403f 9623 163f 03ce 213f a0b0 173f
00000180: c32b f53e b8bc c73d ff4d e6bc 79d1 5ebe
00000190: 2700 0c3e da2f 853f 51ea 13be 56b8 583f
000001a0: 144d 84be 5ad3 1e3f f842 e53d 2d8b bcbe
000001b0: 0136 183f 8892 ae3e ce64 ef3e 8254 52be
000001c0: 42a8 7b3f c4c5 003f 4318 ea3e dfca 0cbd
000001d0: 4994 573f d5cf a13d 3f9a 1abe c4cf 2d3f
000001e0: 8d2e 5b3e 4f30 56bd 1582 b63e f2d0 03bf
000001f0: 3f90 943e a926 f53e 85f6 373f 836c c13c
0.07266123 0.13462853 0.8522285 0.28718776 0.6255358 -0.31454134 0.39446494 0.739262
-0.58103603 0.65012544 0.22366096 0.7459089 0.71628416 0.25923622 -0.2032062 0.16702463
0.95874244 -0.15222076 -0.54505223 -0.025836594 -0.4514118 -0.029976504 0.0822634 0.26770085
-0.055445712 0.5099211 -0.06644811 -0.18152371 0.38113603 0.35008746 -0.06546236 1.0158902
0.19917594 0.6501178 0.25650373 -0.9625171 0.09476166 0.040139135 0.20870288 -0.15395501
-0.3197962 0.25784364 0.40096173 0.016853703 0.048287097 -0.6523463 -0.5258656 0.271325
-0.69344914 0.1382177 -0.04641106 -0.39649057 0.06719238 -0.21932961 -0.10299274 -0.22542125
0.4398047 0.67743796 0.39804217 0.21537721 0.14889236 0.54777056 -0.8085011 0.6454551
0.18119133 0.22531186 1.1309161 0.06215915 -0.092082284 -0.4010446 -0.29880303 -0.28471604
0.23072127 0.5492207 0.11536048 0.53023666 -0.013343848 -0.18336754 0.24352428 0.700515
0.048950385 -0.44763365 -0.049015585 0.94181937 -0.21086162 0.4228733 0.32060838 -0.9581564
-0.012758576 0.23914652 0.11261288 1.0094991 0.7500527 0.5864805 0.63204974 0.59253883
0.4788495 0.09752792 -0.028113363 -0.21759595 0.13671933 1.0405228 -0.14444853 0.84656274
-0.25840056 0.62041247 0.11194414 -0.36824933 0.59457403 0.3409617 0.46756595 -0.2054005
0.98303616 0.50301766 0.45721635 -0.03437316 0.8421064 0.07900969 -0.15097903 0.6789515
0.21404476 -0.052292164 0.3564612 -0.514907 0.290163 0.47881058 0.71860534 0.023611313

encoder.encoder_layers.0.1.running_var f4 [128]
00000000: a0f1 4040 0078 cf3f f612 2f40 ea26 693f
00000010: c19f 2340 4e48 cf3f 593b f73f d7c9 8c3f
00000020: 0597 8e40 ef00 0b3f f1cf 2f40 c837 4940
00000030: 274c a53f c548 9f3f 4172 1a40 0491 0140
00000040: 50d6 ce3f 8f67 d33f afc6 f83e a291 3340
00000050: 755a 2840 1add f83d 171c f63d cf66 a23f
00000060: cdac 4c40 7f0a 1d40 131c 0440 00e9 3c40
00000070: 676b ab3f 0788 c43f a579 2740 7c3e c13f
00000080: b5d8 5a3f a492 2740 253e 3640 d374 e43f
00000090: 854f 3a40 1093 db3f ce88 ca3f 6479 1540
000000a0: 7a51 2b40 5d78 593f 2b3d 2640 93be 3040
000000b0: 7e5c 013f 9ded ea3f 48c9 0040 6207 bb3f
000000c0: 284c b73f 888b 0c3e d8ee 0540 0027 fe3f
000000d0: 95fb 1840 60f9 f23f 5958 c23f 1dcd 2440
000000e0: a398 b03f b71b 773f cabb c63f 62f9 2c40
000000f0: 1169 403f 68a1 3a40 2353 bf3f 873f b03f
00000100: 30e5 c73e 00eb c43f 9d45 683f e3ec 2e3e
00000110: b0b3 3d3f 3d20 b13f b5f4 0b40 bde7 ad3f
00000120: f543 2840 c584 0a40 b545 9a3f b20d 3140
00000130: 7683 cb3d e7ee dc3f 1bc6 da3f d3eb b13f
00000140: ab5d 3440 00c3 3d40 40ef 0d3e 5c27 e13f
00000150: 081e 7e40 80f3 a63f ee8d 893f d0c9 d63f
00000160: f7da 0640 21a5 753f a754 3540 ebac 2240
00000170: 3ff3 1b40 5101 e33f 7f19 ae3f 9941 ad3f
00000180: 4ff6 1d40 5a97 bb3e 8e8c 1740 dbea ee3f
00000190: c696 9b3f d6d1 e03f cddd 9f3f c310 a93f
000001a0: 5ac7 bb3f 3a83 be3f 86bd 543f 52b1 3b40
000001b0: 9fd4 d73f 1163 0140 e3fb d93f 6054 a33f
000001c0: 22e5 f63f 8813 3440 4051 a43f 2545 3d40
000001d0: e6a4 8f3f 2f52 293e 9c66 e03f c433 db3f
000001e0: 2989 0840 c9d7 003e bda8 1e40 0d53 e33f
000001f0: f32a a83f e55b f73f f583 583f cc89 053f
3.0147476 1.6208496 2.7355323 0.91075003 2.5566256 1.6193941 1.9314986 1.0999097
4.455935 0.542983 2.7470667 3.1440296 1.2913865 1.2444082 2.4132235 2.024476
1.6159153 1.6515979 0.48589084 2.8057637 2.630521 0.12151547 0.120170765 1.2687625
3.198047 2.4537656 2.0642135 2.9517212 1.3392152 1.5354012 2.6167996 1.5097194
0.8548692 2.6183252 2.847543 1.7848152 2.9111035 1.7154255 1.5823 2.335534
2.676848 0.84949285 2.5974834 2.7616317 0.50531757 1.8353764 2.0122852 1.4611628
1.4320116 0.13725102 2.0927029 1.9855652 2.3903553 1.8982353 1.5183212 2.5750191
1.3796581 0.96526664 1.5526059 2.702721 0.7516032 2.9161015 1.4947246 1.3769387
0.39042044 1.5384216 0.9073122 0.17082553 0.74102306 1.3837963 2.1868107 1.3586346
2.6291478 2.1643536 1.2052523 2.766461 0.099371836 1.7260407 1.7091707 1.3900093
2.818217 2.9650269 0.13860798 1.7590137 3.970583 1.304306 1.0746439 1.6780338
2.1071146 0.9595509 2.8332918 2.541804 2.4367216 1.7734777 1.3601531 1.3535644
2.4681585 0.3663891 2.3679538 1.8665422 1.2155387 1.7564037 1.2489563 1.320824
1.4670212 1.4883797 0.8310169 2.9326978 1.6861762 2.0216715 1.7029995 1.2760124
1.9288676 2.813692 1.2837296 2.9573452 1.1222198 0.16535257 1.7531314 1.7125173
2.1333716 0.12582316 2.479049 1.775972 1.3138107 1.9324919 0.8457635 0.52163386
