scripts/abr_clustering/audiometric_deep_clustering/experiments/full_scale_audiometric_clustering_memory_optimized/20250619_170021_evident/checkpoints/joint/best_joint.pt (torch, 766145 bytes, 223 tensors)

encoder.abr_encoder.abr_projection.weight f4 [32, 6]
000000 0d 87 ff bd 66 05 3a bd 82 69 c8 bd e1 63 58 be
       -0.12476931 -0.045415305 -0.09785749 -0.21131851
000010 1a 31 54 be 1a 23 a1 be b2 ae 3a bc 13 78 bf bc
       -0.20721856 -0.31472093 -0.01139419 -0.023372686
000020 f4 78 5e bd ad 7b 17 bf 43 79 06 bd c9 8e 9d 3e
       -0.05431457 -0.5917309 -0.032830488 0.30773
000030 c6 98 4c be 75 44 27 be 57 95 5e 3e ad cf 6f bc
       -0.19980153 -0.16334708 0.21736656 -0.014636916
000040 c4 44 50 3c 22 be d6 be c3 55 ea be 84 cf 1b 3d
       0.0127117075 -0.41941935 -0.45768556 0.0380397
000050 a2 97 82 3e 0c ad 03 be bd 82 df bd 10 3e c0 3d
       0.25506312 -0.12858981 -0.10913608 0.093868375
000060 5b 11 4f 3e 10 04 eb bd 74 1b 62 be a6 77 35 3e
       0.20221464 -0.11475384 -0.22080785 0.17721424
000070 a8 37 0c bf 77 89 3f be 71 4d 24 be 27 28 49 3e
       -0.54772425 -0.18704782 -0.16045167 0.19644223
000080 21 f2 fe 3d fb 65 24 3f 09 7a 24 3d a4 3c 23 be
       0.12448526 0.6421811 0.040155444 -0.15941101
000090 9f 47 b5 3e 86 37 7e 3e dc 37 21 3e 5f 99 ac 3e
       0.35406205 0.24825868 0.15743965 0.33710763
0000a0 4c d8 2a bd 8e d8 d8 3d c0 96 91 3e 09 c5 51 3e
       -0.041710183 0.105881795 0.28435326 0.20485319
0000b0 7b cb 26 be c3 a3 04 3f 67 5e 1c 3e c7 77 be 3e
       -0.16288559 0.5181238 0.15270387 0.37200758
0000c0 98 29 c1 3e 6e 72 67 3e 5f 8d b2 3e 73 54 8e 3e
       0.37727046 0.22602245 0.34873483 0.27798805
0000d0 7b 62 af 3d b4 ef 2d bb d1 c2 53 be eb 2b 8b be
       0.085637055 -0.002654058 -0.20679785 -0.27181944
0000e0 72 4f 49 be 0c 8d 84 be 43 58 d4 bd eb 00 52 bd
       -0.19659212 -0.2588886 -0.10368397 -0.051270407
0000f0 fc 71 b1 bd 7e b5 6c be 49 76 9e bd 48 49 80 be
       -0.08664319 -0.23116109 -0.07737405 -0.2505591
000100 02 91 65 bd e1 29 a1 be a1 9f 69 be 18 e2 f2 bd
       -0.056046493 -0.31477264 -0.228148 -0.1185953
000110 fc e8 87 be e2 8d c1 bd 60 9b 63 be a7 98 88 be
       -0.2654494 -0.0945089 -0.2222724 -0.26678964
000120 a0 cc 10 3d 8a bd da bc 85 96 1e 3f 82 5b 2f be
       0.035351396 -0.026701707 0.61948425 -0.17124751
000130 dd 35 5b bd b2 2d 41 be 0a 6b 08 3d e2 72 d1 3d
       -0.053518165 -0.18865088 0.033305205 0.1022699
000140 3e 75 36 3e 4a 6f 5c 3d e3 36 be 3e 6c eb 55 3e
       0.17818162 0.05381707 0.3715125 0.20890588
000150 86 cf 2f 3e 81 d1 4a 3e c6 d5 8b 3e 7c ad 7b 3e
       0.17169008 0.19806482 0.27311534 0.24577898
000160 0d 78 8e 3d fd cd 13 3e c5 a2 21 3f 91 5c b0 3e
       0.069564916 0.14434047 0.6313899 0.34445623
000170 f3 07 bf 3e 51 4b c9 bc ba 09 d1 bd 70 b3 6b bc
       0.37310752 -0.024572046 -0.10206933 -0.014386043
000180 22 1a 44 3d c1 fa 2b 3f 72 79 28 be 5d 80 69 be
       0.047876485 0.67179495 -0.16452578 -0.22802873
000190 e4 9b f3 bd 03 0c 05 3d cb 63 1f bd 42 3c 1c be
       -0.11894968 0.03248216 -0.03891353 -0.15257362
0001a0 68 f1 5e be 62 69 86 be 05 39 bc bd 9c 54 7a be
       -0.21771777 -0.26252276 -0.09190563 -0.24446338
0001b0 33 d8 78 3e 3f 09 92 bd 10 c4 44 be 28 c3 03 be
       0.24301223 -0.0713067 -0.19215417 -0.12867415
0001c0 18 58 88 3e 75 81 71 be 5e 2b 99 3d 2d fd 8e ba
       0.2662971 -0.2358454 0.07478975 -0.0010909192
0001d0 0e 4c 19 3d d7 65 cf 3d 18 08 f3 be 5e 97 17 3d
       0.037426047 0.10126846 -0.47467113 0.03700959
0001e0 e8 16 fd be 5a 1c cc 3d f3 5a c3 be aa 1c 08 be
       -0.4943154 0.09966345 -0.38155326 -0.13292184
0001f0 6b 3a 2f bd f8 1b f2 bb f3 b9 00 be 2e a1 60 be
       -0.04278032 -0.007388588 -0.12570934 -0.21936485
000200 1a 13 0c be c2 1d 09 be 59 ab d3 3e d6 ac ab 3e
       -0.13679162 -0.13390258 0.41341665 0.335303
000210 00 7a 01 3f 3f 7d 22 be a8 87 f7 bb 9d ca bb bd
       0.5057678 -0.1586809 -0.0075540133 -0.09169505
000220 2e bd db 3e ec 08 87 3e 57 ed 3f be 85 bd cc bd
       0.4291777 0.26373994 -0.18742882 -0.099970855
000230 b5 16 c6 3e b8 a1 d8 3c db 20 f6 3e d4 36 bb bd
       0.386892 0.026444301 0.48071942 -0.09141317
000240 f7 38 97 be e0 4c a3 be 5c 33 78 be 8d d7 cf 3d
       -0.29535648 -0.31894588 -0.24238342 0.10148535
000250 bc 2f 0e be e1 83 9c bd 4f 25 28 bf f5 be 93 3e
       -0.13885397 -0.076423414 -0.6568193 0.28856626
000260 c0 05 f7 3b 10 60 33 bd 8f 72 cb 3c f5 12 b1 3d
       0.0075385273 -0.043792784 0.0248349 0.08646194
000270 1b eb a9 bd dc 60 67 3e 66 6f 04 be 65 ad e1 3e
       -0.08296796 0.22595543 -0.1293312 0.44077602
000280 15 7d 71 3e 8a 13 9d 3e 6b 1e 3e 3e e4 f6 ad bd
       0.23582871 0.3067897 0.18566291 -0.08494356
000290 2d 4f a8 3d bc 0c 6c 3e fc 60 3a 3e a4 e1 3a 3e
       0.082182266 0.23051733 0.18201059 0.18250138
0002a0 1e cf 99 3b 62 4c 97 be cb 8a b4 bd c8 c6 2e be
       0.0046938797 -0.29550463 -0.08815535 -0.17068017
0002b0 ca 61 a7 bc 29 f9 b2 be 60 6c 3e 3d 1e ad 7c 3d
       -0.020432372 -0.3495572 0.046490073 0.061688535
0002c0 0a fb db be 32 ab a8 3d 3a ad 86 3d 2b 6e 44 3c
       -0.42964965 0.08235778 0.06576009 0.011989157
0002d0 a2 6a 88 3d bd e7 13 bf 04 e1 10 3d e2 c7 33 3e
       0.066609636 -0.5777548 0.03537084 0.17556718
0002e0 80 54 1e bb f3 11 8e 3c 68 c7 85 be 22 36 51 be
       -0.0024159253 0.017342543 -0.26128697 -0.20430806
0002f0 10 1d 13 bd a9 ae 11 be 0f 30 f4 bc 6d 4b d7 bd
       -0.035916388 -0.14226784 -0.029808072 -0.10512433

encoder.abr_encoder.abr_projection.bias f4 [32]
000000 1f 96 08 38 54 c8 b2 b5 ec 2d 86 37 8b 88 3a 37
       3.2564738e-05 -1.3320337e-06 1.5995429e-05 1.1118255e-05
000010 ba 92 ac b6 cb 71 45 b7 6e aa 8d 37 88 b6 fa b5
       -5.1430807e-06 -1.17686095e-05 1.6887872e-05 -1.8679575e-06
000020 2e 5a e7 36 54 67 5f b7 15 0c be b6 91 6f df b7
       6.8948348e-06 -1.3315894e-05 -5.663848e-06 -2.6635624e-05
000030 6b 80 e9 37 fd c2 8b b7 a6 bc 89 36 5f b5 01 b4
       2.7835564e-05 -1.666089e-05 4.1048797e-06 -1.2080044e-07
000040 b1 42 99 37 4c 31 67 37 8f c2 71 b8 fe 7c a5 36
       1.8270077e-05 1.3780151e-05 -5.7640074e-05 4.931934e-06
000050 cb d1 8d b7 e0 d0 40 b8 69 4a 46 36 89 9d 6e b7
       -1.6906202e-05 -4.5970897e-05 2.9547612e-06 -1.42225845e-05
000060 cb f2 08 37 8e 26 db 36 67 e4 35 36 d4 b6 9e b7
       8.162761e-06 6.531197e-06 2.710405e-06 -1.8920204e-05
000070 17 f1 5f b7 aa b9 4b 38 23 cd 26 38 12 46 39 b7
       -1.3347969e-05 4.8571885e-05 3.9768533e-05 -1.1043174e-05

encoder.abr_encoder.abr_norm.weight f4 [32]
000000 70 96 4a 3f ee aa 40 3f 8e 0e 46 3f 88 29 37 3f
       0.791358 0.7526082 0.7736596 0.71547747
000010 47 d6 44 3f cc 4a 21 3f 46 90 26 3f ae 71 42 3f
       0.7688946 0.63004756 0.65063894 0.7595471
000020 46 e0 1e 3f ea ed 6c 3f 18 fd 45 3f ec 7f 55 3f
       0.62060964 0.9255053 0.77339315 0.8339832
000030 bb ab 2e 3f ac a8 31 3f 7c dc 26 3f 2e 04 2c 3f
       0.6823079 0.69398 0.6518018 0.6719388
000040 18 1c 33 3f 3e 35 64 3f b9 ae 31 3f ab 50 3d 3f
       0.6996474 0.8914374 0.6940723 0.73951215
000050 be af 4f 3f 4e 3a 1b 3f 1e b0 1d 3f d0 7a 22 3f
       0.81127536 0.6063584 0.6159686 0.63468647
000060 42 b4 68 3f 9a 70 3d 3f 43 8f 40 3f 43 0c 3a 3f
       0.9090005 0.7399994 0.752186 0.7267496
000070 61 96 36 3f 72 d6 47 3f 17 05 4b 3f 17 63 54 3f
       0.7132321 0.7806159 0.7930464 0.829637

encoder.abr_encoder.abr_norm.bias f4 [32]
000000 00 61 a7 be 63 13 ea be b5 a0 0f bf 7b fe fa be
       -0.32691193 -0.45717916 -0.56104594 -0.49022278
000010 b8 49 c2 be f6 cc 1f bf 64 ce 0c bf 23 1b 7a be
       -0.37946868 -0.6242212 -0.5500243 -0.24424414
000020 8d 9b 54 bd 30 14 56 bd d5 4c 07 bf a8 41 85 3d
       -0.051906157 -0.052265346 -0.5285161 0.065066636
000030 68 90 c7 be 28 01 0a bf 7e 0a 7f be b1 47 ef be
       -0.3897736 -0.53908014 -0.24906346 -0.46734384
000040 fe d8 13 bf 75 13 29 be 9e 26 01 bf cf da 24 bf
       -0.5775298 -0.16511329 -0.5044955 -0.64396375
000050 a5 d5 e2 be b7 4f 0c bf 12 f3 17 bf d8 58 1c bf
       -0.44303623 -0.54809135 -0.5935527 -0.61073065
000060 5b 2c db bd 12 1d f9 be 38 de fa be d2 99 d5 be
       -0.107018195 -0.4865499 -0.48997664 -0.41718918
000070 8d c4 d8 be 68 dd 1c bf 10 78 17 bf cc 64 8a be
       -0.42337456 -0.6127534 -0.59167576 -0.27030027

encoder.abr_encoder.abr_norm.running_mean f4 [32]
000000 eb 70 69 be 3d 41 b7 bd cb 16 00 be 75 48 85 bd
       -0.22796981 -0.0894799 -0.12508695 -0.06507961
000010 c4 59 27 be 5d 78 1c 3e 3a 52 83 3e e0 15 9c 3e
       -0.16342837 0.1528029 0.2564867 0.3048544
000020 28 ef 95 3e d3 43 78 be d2 9b 69 be 4a ee 8a be
       0.29284024 -0.24244623 -0.22813347 -0.27134925
000030 78 91 57 3d d5 23 5f 3e 36 87 7d 3e 43 63 87 3e
       0.052628964 0.21791013 0.2475861 0.26442918
000040 e4 fd 32 3d 1d cb 69 be 35 9a e1 bc 54 54 63 bd
       0.04369916 -0.22831388 -0.027539352 -0.055500343
000050 2b 21 5c be 81 7f 1a 3d ae 3a 5c 3e 47 d7 00 3e
       -0.21497028 0.037719253 0.2150676 0.12582122
000060 03 52 5d be 69 43 80 bd 91 81 65 3e 2f d6 35 3e
       -0.21613316 -0.062628575 0.22412707 0.17757486
000070 d2 74 53 be b6 b6 1f bd 90 9c 6c bd 6c da 2f be
       -0.20650032 -0.038992606 -0.057766497 -0.17173165

encoder.abr_encoder.abr_norm.running_var f4 [32]
000000 8a c8 ed 3f 2c 96 c5 3e 9a 9e 1f 3f 27 26 68 3e
       1.8576825 0.38591135 0.6235138 0.22670804
000010 49 02 7b 3f 05 86 76 3f 48 24 1d 40 27 23 5c 40
       0.9805036 0.9629825 2.4553394 3.4396455
000020 20 a7 49 40 4e 09 0a 40 7f 5c f4 3f 3d 64 28 40
       3.1508255 2.156818 1.9090728 2.631118
000030 3e 9b 3a 3e f7 0d d7 3f b7 d1 0e 40 18 c7 2c 40
       0.18223283 1.6801137 2.23155 2.6996517
000040 b6 89 5a 3e 42 d8 f1 3f e1 58 af 3d 63 3d 11 3e
       0.21341595 1.8894122 0.08561874 0.14183573
000050 96 d6 db 3f a0 21 e7 3d 95 af d7 3f c5 ec 18 3f
       1.7174861 0.1128571 1.6850458 0.5973628
000060 f4 61 dd 3f ca 83 8a 3e 0b 74 ef 3f 1e 67 90 3f
       1.7295518 0.27053672 1.8707289 1.1281469
000070 76 d0 ca 3f e8 3a b8 3d 41 ef 63 3e e1 58 8c 3f
       1.5844867 0.089956105 0.22259237 1.0964624

encoder.abr_encoder.attention.q_projection.weight f4 [64, 1]
000000 f8 73 60 3e 8a 20 0a 3e a5 91 57 38 92 1f f9 3c
       0.21919239 0.13488975 5.1395637e-05 0.030410562
000010 51 56 6f 34 3b aa da bc ce c7 75 3b da e3 ef 3d
       2.2290011e-07 -0.0266925 0.0037503126 0.11713381
000020 e5 e1 2c b7 4c 0e 34 3e 0f 73 9e 36 20 20 11 be
       -1.0304594e-05 0.17583579 4.7221615e-06 -0.14172411
000030 84 c2 9d 3d 4e 8a c9 3a 37 7b 9e 3d b5 5e 29 be
       0.077031165 0.0015376301 0.07738345 -0.16540034
000040 9e 24 89 be 6e 94 3d bd b6 b5 b8 3b a6 76 a7 bd
       -0.2678575 -0.04628413 0.005636896 -0.08176927
000050 09 f2 49 bb c8 8b 42 be b1 9e 4a be 01 dc 77 3c
       -0.003081443 -0.18998635 -0.19787098 0.015128137
000060 b3 ab 29 39 ce 1b d2 3c 48 59 99 3c c6 0e a2 b9
       0.00016181059 0.025648024 0.01871933 -0.00030910055
000070 f4 2f 86 3b 6e e0 3f 3d 90 58 c5 3a 52 9d 0f 3c
       0.004095072 0.046844892 0.0015056301 0.008765535
000080 2e fb f5 b7 39 b9 9e b7 a7 7d 91 35 3f ce ff 3d
       -2.932324e-05 -1.8921319e-05 1.0839912e-06 0.1249051
000090 f7 da 3a be 88 bf 76 bb 42 0e 54 bc 6b fb 81 be
       -0.18247591 -0.0037650783 -0.012942852 -0.2538713
0000a0 ee 20 85 be 1d 69 c6 3d 1d ef 53 be d8 45 1c be
       -0.26001686 0.096880175 -0.20696683 -0.15261018
0000b0 56 80 55 bc aa 24 6e bd fd ca f6 37 4e 4c 73 bd
       -0.013031086 -0.058140434 2.9420009e-05 -0.05939894
0000c0 e5 76 b9 bd 17 30 36 b8 af f6 7c b6 51 a9 09 38
       -0.090558805 -4.343697e-05 -3.7694515e-06 3.2821034e-05
0000d0 56 a0 99 38 de 37 f3 bd c0 ad cb bc 10 0a 26 39
       7.3254734e-05 -0.1187589 -0.024863124 0.00015834742
0000e0 56 30 db bd ac fb 19 38 22 77 fc bd fe 07 47 3c
       -0.10702579 3.671243e-05 -0.1232741 0.012147902
0000f0 92 c6 ea bd de 14 52 39 92 56 59 be 91 fa 16 b9
       -0.114636555 0.00020034934 -0.2122443 -0.00014398458

encoder.abr_encoder.attention.q_projection.bias f4 [64]
000000 6a 93 d6 bb 4b b1 ac bc d5 95 fe b9 ea b1 b0 bc
       -0.006548335 -0.021080634 -0.0004855829 -0.021569211
000010 94 80 98 35 89 e8 ae 3c 19 d9 33 bc 9a 8d 34 bb
       1.1362304e-06 0.021351116 -0.010977053 -0.0027550221
000020 b1 94 bf b8 ce d9 84 3b e2 54 9a 37 f5 86 5a bb
       -9.135286e-05 0.0040542847 1.8397757e-05 -0.00333446
000030 d2 0e 52 bb f5 d2 db bb 7f ee c0 bc f9 86 72 3b
       -0.003205229 -0.0067084976 -0.023551224 0.003700672
000040 b5 ff 5e bd 35 7f 8b 3d 7d 30 07 3d a8 ae 06 3b
       -0.05444308 0.06811372 0.033005226 0.002055088
000050 fc f4 b3 bc 70 00 2c bd 46 e6 2e bd 36 8c 4a bd
       -0.021967404 -0.041992605 -0.042700075 -0.04945012
000060 84 82 61 39 f4 20 d7 bc 8c 57 2d bd 2d 2e cc ba
       0.00021506293 -0.02626083 -0.04231982 -0.0015577726
000070 79 b3 bf 3c 5a 85 4b bc 60 f1 0c bc 38 1d 07 bd
       0.023401009 -0.01242193 -0.00860247 -0.03298685
000080 5f a6 b6 39 eb 7e c5 b9 e4 97 95 35 c8 32 8f 3b
       0.000348377 -0.0003766933 1.1145571e-06 0.0043700673
000090 10 b7 fa 3c 2e a1 4c 3c a2 f2 c4 3c 0e e1 54 3b
       0.03060487 0.0124896 0.024041478 0.0032482776
0000a0 52 c9 c7 bb 02 07 f8 bc 71 4f af bb 42 76 65 3c
       -0.0060969973 -0.03027678 -0.0053500463 0.014005246
0000b0 f3 5c da 3c bf fc b0 ba 37 04 47 39 d9 32 d9 3c
       0.02665565 -0.0013503059 0.00018979689 0.026513504
0000c0 ab f8 3c bb 38 b5 9f 39 75 a1 0c 38 ea 90 76 39
       -0.002883474 0.00030461862 3.352897e-05 0.00023514373
0000d0 a1 7f a2 3a 86 c7 a5 bb b6 89 c0 3b c1 93 c5 3a
       0.0012397656 -0.0050591854 0.0058757914 0.0015073941
0000e0 6d 05 0b bc 5f 3a 6b b9 d7 90 e8 3c 89 bb 4d bc
       -0.00848518 -0.00022433091 0.028389378 -0.012556919
0000f0 8b 74 ee 3c a5 85 04 3b 90 c2 e6 3c 2d d4 cd 3b
       0.029108306 0.002022126 0.028168947 0.006281397

encoder.abr_encoder.attention.k_projection.weight f4 [64, 1]
000000 35 1c db 3d dc 68 00 be 41 27 12 b9 ab 71 d2 bc
       0.106987394 -0.1254 -0.00013938268 -0.025688967
000010 57 20 25 35 3b 57 4b 3c 8c 97 90 ba 36 45 fc 3d
       6.151435e-07 0.012410934 -0.0011031493 0.123178884
000020 6d df 89 b7 5d 72 68 3e 30 d8 1c 37 16 8c 54 be
       -1.6435713e-05 0.22699876 9.34866e-06 -0.20756564
000030 4b 33 da 3d 17 ea 74 ba d8 ba f7 bc 23 f1 fb bd
       0.106543146 -0.00093427434 -0.030240461 -0.123018526
000040 14 74 87 3e 2e 37 9d bd ac 75 66 3c 39 7e 0a 3d
       0.26455748 -0.0767654 0.014066141 0.03381178
000050 54 b6 07 bc c0 cd 1b 3e 2e 58 20 3e 3c 27 27 3c
       -0.0082832165 0.15215206 0.15658638 0.010202225
000060 ac 18 23 39 15 d4 64 3c ba 4f 20 3a 5e bb 22 ba
       0.00015554082 0.01396658 0.0006115396 -0.00062077295
000070 c8 d3 39 3c dd f8 10 3d 60 aa 95 ba ba 45 dd ba
       0.0113419965 0.035393585 -0.0011418574 -0.0016881742
000080 3b 3a 80 39 01 5a a2 b8 e9 a6 e9 34 dc 4f 54 3e
       0.00024457448 -7.7415265e-05 4.3521075e-07 0.20733589
000090 d2 56 1b 3e 0f d8 b1 ba f8 0c 72 bb a5 1d 27 be
       0.15169838 -0.0013568419 -0.0036934 -0.16319902
0000a0 b3 dd 7e be 82 b3 07 be de d6 6f be fc fe cb bd
       -0.24889259 -0.1325207 -0.23421809 -0.09960744
0000b0 20 8c 57 3a de ef 14 be 6b e7 01 38 96 7b 65 3c
       0.00082224794 -0.14544627 3.097152e-05 0.014006516
0000c0 36 df a2 3d 4f dd ab 38 e9 01 19 37 0d 35 97 38
       0.0795273 8.195137e-05 9.119955e-06 7.2101226e-05
0000d0 37 49 06 3a 56 95 cc 3d 49 cf bf 3c 90 4e de 39
       0.0005122604 0.09989421 0.023414271 0.00042401673
0000e0 80 e9 0a 3e 0d a9 74 b8 21 5d 24 be 1a 29 95 bb
       0.13565636 -5.8331574e-05 -0.16051151 -0.004552019
0000f0 7e 2b 0c be e5 64 12 3a f6 01 3c be d5 1a 8a 3a
       -0.13688466 0.00055844925 -0.18360123 0.0010536561

encoder.abr_encoder.attention.k_projection.bias f4 [64]
000000 77 fa b8 b6 4d a4 0a b5 4a 4c 8a af 57 7c 28 b5
       -5.5127853e-06 -5.1648095e-07 -2.515626e-10 -6.2765815e-07
000010 c8 96 92 ac 0c 73 a5 33 11 c5 c4 b1 e8 e7 89 b5
       -4.1663097e-12 7.704338e-08 -5.7267546e-09 -1.0274789e-06
000020 07 ed 4e ac 06 22 12 b6 b7 bb 3c af bc e3 1b 35
       -2.9405937e-12 -2.17755e-06 -1.716519e-10 5.8073397e-07
000030 e0 39 b7 34 e0 f9 2f 33 6f ff 63 b5 06 3f c9 35
       3.4128516e-07 4.0972623e-08 -8.4935795e-07 1.4994009e-06
000040 95 f4 95 36 dc 12 35 b4 85 2c a7 b4 dc 38 89 35
       4.469019e-06 -1.68638e-07 -3.1138566e-07 1.0223844e-06
000050 df ff 02 34 0f 8a 3b 36 8c 77 6a b5 e4 4a f8 b4
       1.2200279e-07 2.7945532e-06 -8.7345757e-07 -4.624809e-07
000060 1b e0 4e 30 46 88 76 34 96 0d 35 35 5d eb cf 32
       7.5260836e-10 2.2960111e-07 6.7447525e-07 2.4205002e-08
000070 79 11 9e b4 ce 7b cb 34 14 8b b1 33 60 6d 91 34
       -2.9442506e-07 3.7901776e-07 8.267503e-08 2.7087935e-07
000080 8a 90 63 b1 56 74 0e 31 04 37 0f 2b 69 b7 8b b5
       -3.3115009e-09 2.072985e-09 5.0880155e-13 -1.0409686e-06
000090 7f ea 26 35 5d 17 cf b3 4b 4e d7 b3 07 d6 4c b5
       6.2181056e-07 -9.6434384e-08 -1.0025959e-07 -7.6307373e-07
0000a0 78 ec 81 b5 70 9f 00 b5 8b 16 b0 b5 0a 89 8a b5
       -9.68007e-07 -4.791573e-07 -1.3119583e-06 -1.0321685e-06
0000b0 43 52 25 b4 26 d9 96 b4 c0 c4 92 b0 0a 4b 89 b5
       -1.5396749e-07 -2.8097674e-07 -1.0678818e-09 -1.0229135e-06
0000c0 2f 1c 25 b6 cb 6c 97 2f 61 03 42 2f d9 a0 20 31
       -2.460332e-06 2.7544042e-10 1.7645398e-10 2.3374496e-09
0000d0 b9 1e 2a 32 fa 10 f0 b6 2f e7 6e b5 70 5f d1 32
       9.902288e-09 -7.1545337e-06 -8.8998326e-07 2.4374202e-08
0000e0 f8 86 c0 b6 69 bc 93 af a0 42 93 b6 77 ef d7 34
       -5.7377583e-06 -2.6873018e-10 -4.3886976e-06 4.0221104e-07
0000f0 8b 17 9d b6 1c 8d 86 32 43 4a fe b6 06 f8 09 33
       -4.6817054e-06 1.5663822e-08 -7.578435e-06 3.2123374e-08

encoder.abr_encoder.attention.v_projection.weight f4 [64, 1]
000000 43 33 1a bd b6 28 73 3e 8e a2 0f 3c 80 14 41 3c
       -0.037646543 0.23745999 0.008766783 0.011784673
000010 71 25 30 be ff 84 3f 3e e3 57 ef bd 0c f8 49 bc
       -0.17201783 0.18703078 -0.11686685 -0.012327205
000020 b8 90 9b 3d 00 87 3f be 81 d7 36 b9 12 15 7c 3e
       0.07595962 -0.18703842 -0.00017437154 0.24617413
000030 75 9d 6f be 17 6d aa 3e 35 6c 83 bb 3a 20 68 3e
       -0.23399909 0.33286354 -0.004010702 0.22668543
000040 95 f1 1b be 6f 62 8d 3e 70 b3 19 bd b9 96 4c be
       -0.15228875 0.2761416 -0.03752464 -0.19979371
000050 19 3a 95 3e 4e 9c 80 be dd b5 95 3e 03 1a f1 b9
       0.29145887 -0.2511925 0.29240313 -0.00045986482
000060 f9 6b 9b b9 cb 8f a7 3e 70 1f 8f 3e 9d 0d c4 bc
       -0.0002964435 0.32726893 0.27953672 -0.023932273
000070 a6 de b2 be ef 12 bd ba fa 73 5a 3b 1b 9d 02 bd
       -0.34935492 -0.0014425198 0.0033333288 -0.03188811
000080 87 82 5d 37 b0 65 80 3a 90 75 b9 be 4f 91 42 be
       1.3203017e-05 0.000979593 -0.36222506 -0.19000743
000090 0b da a2 b9 f5 f6 99 be 29 98 64 3d 7a 4c 81 be
       -0.00031061503 -0.30071226 0.055809174 -0.2525366
0000a0 32 3d e5 bc 2f 81 96 bd fe f2 26 39 83 d8 32 3d
       -0.027983282 -0.073488586 0.00015921515 0.043663513
0000b0 e1 36 ef ba 52 16 b2 3c 1b 50 23 3e 69 43 f0 3d
       -0.0018250608 0.021739159 0.15948527 0.117316075
0000c0 69 6f 6c bd 04 ad 87 3e 6b 8a 9c 3e 0b be 8e 3e
       -0.057723437 0.26499188 0.30574355 0.27879366
0000d0 41 27 d2 3c d7 e5 37 be b4 82 67 38 e8 36 cd 3c
       0.025653483 -0.1795877 5.519642e-05 0.025050595
0000e0 7a 03 5c 3e 84 35 cf 3e 65 2a c5 3c 4d a6 81 3c
       0.21485701 0.40470517 0.024068067 0.015826369
0000f0 dc 6d d6 3c 6e b1 cd 3c c9 d4 7d 3e 6d ef 37 3a
       0.026175432 0.02510902 0.24788202 0.0007016573

encoder.abr_encoder.attention.v_projection.bias f4 [64]
000000 a8 a2 ea 3a 55 aa 4d 3d 33 14 82 bc e9 81 47 bc
       0.0017901259 0.05021127 -0.015878772 -0.012176969
000010 69 ce 39 bd 7c cc 40 3d 18 2f 12 bd 43 f4 99 3c
       -0.045362864 0.04707001 -0.035689443 0.01879323
000020 73 d6 c3 3c 37 1a 42 bd 1c 78 12 39 01 c8 51 3d
       0.023905968 -0.04738828 0.00013968389 0.05121613
000030 d6 b9 4f bd 0e a1 59 3d 17 db 66 bb aa 63 4c 3d
       -0.050714336 0.05313211 -0.0035225803 0.049899735
000040 b5 73 37 bd 2d 4a 70 3d 6e 4a cd 3c 7f 69 55 bd
       -0.04478808 0.05866449 0.025059905 -0.052102562
000050 39 36 76 3d 09 ba 6c bd 0f 01 74 3d 62 ab fe b7
       0.060110305 -0.057794604 0.059571322 -3.0358966e-05
000060 a1 c7 02 37 e9 b8 7a 3d 75 9b 70 3d b7 80 8b ba
       7.795084e-06 0.0612115 0.058742005 -0.0010643218
000070 c3 5c 7c bd 27 f9 9d b8 c5 82 10 39 39 3a 1b 3c
       -0.061611902 -7.5327516e-05 0.00013781626 0.009474331
000080 b5 d4 e7 b5 94 fb 08 39 da e8 65 bd bf 9c 52 bd
       -1.7272747e-06 0.00013063691 -0.056130268 -0.051419016
000090 68 ed 60 38 ec c5 61 bd 51 81 94 3c 7d cc 5f bd
       5.3626864e-05 -0.055120394 0.01812807 -0.054638375
0000a0 e1 e7 12 bc cc f1 7a 3d f4 ee 2b b8 d9 7e 9f bc
       -0.008966417 0.06126575 -4.099212e-05 -0.019469665
0000b0 e9 d4 b7 b9 2f 7a 18 3c 69 97 3f 3d 81 29 2f 3d
       -0.0003506311 0.009306475 0.046775255 0.04276419
0000c0 be 2f 9f bc 4a 8f 86 3d e6 ae 92 3d fe 3b 87 3d
       -0.019431945 0.06570299 0.071622655 0.066032395
0000d0 31 34 51 3c 8b 97 74 bd 24 33 01 38 69 d5 4b 3c
       0.012768791 -0.059714835 3.0803625e-05 0.012441018
0000e0 6a 07 83 3d b6 0e 89 3d dc 64 43 3c 3d d8 66 3c
       0.063978985 0.06692259 0.011925902 0.014089641
0000f0 f2 68 55 3c 08 56 4c 3c c5 b8 87 3d db 76 a9 39
       0.013025509 0.012471683 0.06627039 0.00032322746

encoder.abr_encoder.attention.output_projection.weight f4 [1, 64]
000000 b0 d9 8a 3a 87 80 6a 3e e7 cc f3 3b 60 03 d7 3b
       0.001059344 0.22900592 0.0074401977 0.0065616816
000010 5d 00 e4 bd 25 ed 42 3e 1d 68 47 bd 0b 8e 3a bc
       -0.11132882 0.19035776 -0.048683275 -0.011386405
000020 ae 18 2e 3d 81 df d0 bd cd 30 06 39 9b 28 2d 3e
       0.042504005 -0.1019888 0.00012797416 0.16910021
000030 e3 3a 1d be 1a cd 83 3e 9f 18 d5 ba 76 56 3a 3e
       -0.15354495 0.25742418 -0.0016257948 0.18197045
000040 59 d3 0d be 54 26 32 3e 8a 65 31 3d 34 da 20 be
       -0.13850154 0.17397434 0.043309726 -0.15708238
000050 0f fc a6 3e b8 ab 69 be 67 97 2e 3e 4b a0 43 39
       0.3261418 -0.22819412 0.17049943 0.00018656363
000060 b8 d7 08 39 d6 5d 42 3e 1d f3 21 3e 71 5b 02 3b
       0.00013050332 0.18981108 0.15815397 0.001989093
000070 b4 87 a1 be b3 5b 32 3a 25 31 94 ba 87 8b 75 bc
       -0.31548846 0.00068038254 -0.001130615 -0.014986879
000080 d7 f1 a5 36 e4 52 9c 39 a9 9e 98 be 7a a6 7a be
       4.945537e-06 0.00029816397 -0.29808548 -0.24477568
000090 97 68 e5 b8 75 42 94 be af 6b b1 3b f5 1f 07 be
       -0.00010939052 -0.28956953 0.005414448 -0.13195784
0000a0 e1 bb 07 3c b4 aa 88 bd cd e0 1c 38 76 2c 47 3c
       0.00828454 -0.06673184 3.740266e-05 0.012156596
0000b0 4f 7d f9 b9 01 d1 ac bb e5 71 9c 3d 44 bf 0b 3e
       -0.00047586343 -0.0052739386 0.07638911 0.13647181
0000c0 dd 02 43 bb ae c1 52 3e 6e fe 08 3e 6f c0 66 3e
       -0.0029756345 0.20581695 0.13378307 0.22534345
0000d0 55 a5 d7 ba 63 99 2f be d5 cd a7 37 56 ac cc ba
       -0.0016452471 -0.17148356 2.00038e-05 -0.0015615325
0000e0 44 4a f0 3d 29 16 cc 3e ca 54 bc ba f6 c1 13 3c
       0.11732915 0.39860657 -0.0014368531 0.009018412
0000f0 16 22 db ba 2e 39 ce ba f0 f5 12 3e 02 c4 93 39
       -0.0016718532 -0.0015733594 0.1435163 0.00028184062

encoder.metadata_encoder.metadata_projection.weight f4 [48, 12]
000000 2c 62 16 3d 4f 71 10 bd 49 19 83 bd c4 76 9c bc
       0.036714718 -0.03526431 -0.06401307 -0.0190996
000010 73 80 a9 be cc e5 d8 be ae 61 ca be 00 cb 50 bd
       -0.3310581 -0.4236282 -0.3952765 -0.050974846
000020 30 7b 05 80 44 51 1f 3e 3e 1e c7 3e 44 dd be 3d
       -5.03369e-40 0.15558344 0.3889026 0.09319547
000030 69 1a cf bc 10 fa ba 3c 7a 59 98 3d ce 5e de 3d
       -0.025281148 0.022824317 0.07438941 0.10857926
000040 6f 95 89 3d 28 44 b6 3d a6 bd cc 3d fe 3c ab 3c
       0.06717955 0.088997185 0.0999711 0.020903107
000050 32 ab 18 3e 1d 06 0d 3e c4 ba b4 be ea cf 6b bd
       0.14909056 0.13771863 -0.3529874 -0.05757133
000060 e6 7b 9b bd 1f 7f bf bc b9 9f d5 3d 0a 55 e8 3d
       -0.07591991 -0.023376046 0.10430855 0.11344345
000070 4c 5e cf bc d2 91 01 3e b5 24 1d 3e 0a 44 8b 3c
       -0.025313519 0.12653282 0.15346034 0.017000217
000080 50 74 e5 3c 98 d0 96 be 39 a9 8d be fe 3a 80 3d
       0.028009564 -0.2945602 -0.2766817 0.06261252
000090 7d e2 28 bd d8 11 bb bb 89 9d 87 3e bb 29 71 3e
       -0.04123162 -0.0057089143 0.26487377 0.23551075
0000a0 b2 da 8f 3d e3 8a d2 3d f8 73 07 3e 3d 57 20 bd
       0.07024135 0.10280397 0.13227832 -0.039145697
0000b0 55 cd 9f bb 00 f5 e6 3c 22 46 9c be 1b 3a ef 3d
       -0.0048767724 0.028192997 -0.30522257 0.116810046
0000c0 a5 8f 68 bd b6 97 ad 3c d3 98 aa be a6 6b 9e be
       -0.056777615 0.021190505 -0.3331972 -0.30941504
0000d0 9d 82 6f be a2 9b 94 be 39 45 b2 be 5b cd f7 bd
       -0.23389669 -0.29024988 -0.34818438 -0.12099715
0000e0 05 d4 1f 3e 51 00 00 3e f0 3a d7 be 7f 1c eb bc
       0.15608223 0.1250012 -0.42037153 -0.028700111
0000f0 ce 29 e2 3c 5b 76 bc 38 19 63 d8 3d 58 03 af 3d
       0.027607825 8.986584e-05 0.105657764 0.0854556
000100 df df 93 bc 3a 80 98 3d 15 8f c6 3c 7a 26 27 bd
       -0.018051086 0.07446332 0.024238149 -0.04080818
000110 da 47 98 bd 00 a1 1a bd eb 0a e0 3e 1f 94 32 3d
       -0.074355796 -0.037751198 0.4375833 0.04359829
000120 b9 58 32 bd 38 b6 56 bd 2c 07 ef be 75 d2 bb be
       -0.043541644 -0.05241987 -0.4668516 -0.36684003
000130 af 10 56 be eb 15 79 be 22 51 1b bf bc 75 98 bb
       -0.20904802 -0.24324767 -0.60670674 -0.004652707
000140 d9 2b 06 00 d8 69 38 3e 6a d8 c3 3e d8 2e 43 3e
       5.66743e-40 0.18009126 0.38251048 0.19060838
000150 db 64 81 bb ae d7 84 3b ee a1 16 be d8 79 13 bd
       -0.0039487905 0.0040540313 -0.14710209 -0.03600487
000160 da 58 9b be 49 0a 68 be 02 9a 88 be 7b cd 75 bd
       -0.30341226 -0.22660173 -0.2668 -0.060010415
000170 5d 07 50 bb 4e 7b 47 3d d1 3f 99 3e 1f e7 27 3d
       -0.003174267 0.048701577 0.299315 0.0409919
000180 9e b2 88 bd 7e 10 56 bc b3 3a 51 bd 4c 85 fd bc
       -0.066746935 -0.0130654555 -0.05108137 -0.03094735
000190 5b 2e 2b bd c5 90 39 be f6 70 12 be d9 ea 3e bd
       -0.041792255 -0.18121631 -0.14300904 -0.046610687
0001a0 1f 16 99 3b 94 15 ba 3d 06 3d f2 3e 4e 2c 94 bb
       0.0046718265 0.09086147 0.47312182 -0.004521883
0001b0 83 06 b1 bc 1c 10 3b 3d 50 c4 45 3e 95 5b d5 3d
       -0.02160955 0.04566966 0.19313169 0.104178585
0001c0 fe fb a2 3d 46 74 35 be 63 3a 45 be 78 4c a4 bb
       0.0795822 -0.17720136 -0.19260554 -0.0050139986
0001d0 7b fa 19 3d 1d 21 7e 3d c7 28 b6 be 15 00 32 bd
       0.037592392 0.062043298 -0.35577986 -0.04345711
0001e0 cd b1 c5 3c 00 fd 12 bb 5b d7 cb 3a 47 d8 4a be
       0.024132634 -0.0022428632 0.0015551852 -0.19809066
0001f0 8d ed 20 bd a5 47 15 be ff ff 4a be 3d e6 15 bd
       -0.039289046 -0.14578111 -0.19824217 -0.036596525
000200 82 d6 c5 bd b7 d0 cd bd e6 c1 c0 3e b7 ef 2b bc
       -0.09660055 -0.10049575 0.37647933 -0.010494164
000210 b6 6c 17 3d 55 79 a5 3c 0e b2 96 be 38 50 55 be
       0.03696891 0.020199457 -0.2943272 -0.20831382
000220 a0 14 7a bd 5f 32 bf 3d 1b b3 98 3d 4f 29 ce 3b
       -0.061054826 0.093357794 0.07456037 0.0062915455
000230 c2 78 ed bb 5b 1b 29 3e 3d cc c9 3e 2d 1e ee 3c
       -0.0072470615 0.16514342 0.39413634 0.029067123
000240 46 c8 8b bd 22 d6 c9 bc 40 2d 1d 3e 3c 14 14 3e
       -0.068253085 -0.02463824 0.15349293 0.14460844
000250 16 f2 04 bd 44 69 12 3d 2d b4 62 3d 38 73 87 bd
       -0.032457434 0.03574492 0.05534761 -0.06613773
000260 85 67 df bc 4e da b8 bd cf fa a3 be bf ce 29 3d
       -0.027271042 -0.09026013 -0.3202729 0.041456934
000270 54 e7 3d bc d6 fd 23 3b 0c 21 64 be 41 42 8f be
       -0.011590797 0.0025023124 -0.22278231 -0.27980235
000280 e2 b2 d0 be b7 4c 41 be c3 e9 61 be f9 d1 36 bd
       -0.40761477 -0.1887692 -0.2206183 -0.04463384
000290 b3 06 03 0e 60 29 62 3e c8 17 bc 3e 31 87 39 3d
       1.6150222e-30 0.22086096 0.36736894 0.045294944
0002a0 4d ca 61 bd e8 92 47 bb 03 37 72 3d ca 54 b5 3d
       -0.05512457 -0.0030452553 0.059134495 0.08854063
0002b0 57 d1 a6 bd aa 06 a7 bd 8c cc 79 bd fc 9f 89 bc
       -0.08145397 -0.08155568 -0.060986087 -0.01679992
0002c0 65 11 0c 3e 85 d2 39 3e 7f f9 21 bf 87 4a 22 bd
       0.1367851 0.18146713 -0.63271326 -0.039621856
0002d0 31 4c c3 bc e0 18 ce ba 87 21 17 bf 14 69 b1 be
       -0.023840042 -0.0015723966 -0.59035534 -0.3465048
0002e0 31 c0 92 bd 0c 64 1d be cd 55 be be d8 3a b1 bc
       -0.07165564 -0.15370196 -0.37174836 -0.021634504
0002f0 ae a9 05 80 fa 22 11 be 52 68 ac 3e 0d 2a 08 3e
       -5.20047e-40 -0.14173499 0.3367334 0.13297291
000300 a6 f0 b1 bc ad 59 47 3c 1b 21 65 be 5e 3d 93 be
       -0.021721195 0.0121673765 -0.2237591 -0.28757757
000310 ef b5 49 be 1c 40 9b be d3 a8 a1 be 95 54 48 3b
       -0.19698308 -0.3032235 -0.31574115 0.0030567993
000320 05 c7 05 00 29 af 16 bd 1c 48 d6 3e 8c aa e0 3d
       5.30572e-40 -0.03678814 0.4185189 0.10970029
000330 da 71 01 bb cb 22 85 3c 68 3c 51 be 5f a1 9a be
       -0.0019751699 0.016251942 -0.204332 -0.3020124
000340 7c c6 39 be c5 fe 99 be ab 89 1e be b4 81 ac bc
       -0.18142122 -0.30077186 -0.15482204 -0.021057941
000350 4a 24 06 80 7d 8e ae 3b 5d 14 a4 3e 33 6c 83 3d
       -5.64031e-40 0.0053270445 0.32046786 0.06417122
000360 5b 33 70 3d aa 33 df 3b 6a 61 59 3e 9e 09 68 3e
       0.058642726 0.0068115788 0.21228567 0.22659919
000370 c5 bf 21 be 76 4a 88 be 92 82 81 be f3 f1 64 bd
       -0.1579581 -0.2661931 -0.2529493 -0.055894803
000380 0f c6 03 bd 7b 2a 63 bd 5a ad ea 3e 5c ab 87 3c
       -0.032171305 -0.055460434 0.45835382 0.016561203
000390 db 2f 30 bd b1 6b 6b 3d 9d ee 28 be 13 87 8f be
       -0.04301439 0.05747575 -0.16497274 -0.2803274
0003a0 03 2a 1a be 4e a8 88 bd 3d 01 61 3d fb 47 32 bd
       -0.15055089 -0.066727266 0.05493282 -0.043525677
0003b0 8c 8f db bc d3 5d 21 bd 9f 6b e1 3e 17 4d 40 bd
       -0.026801847 -0.03939612 0.4402742 -0.04694852
0003c0 c6 47 82 bc 0a 44 bc 3d f0 22 e2 bd 89 79 bd be
       -0.015903365 0.09192665 -0.1104182 -0.37006786
0003d0 25 1a 78 be 3b b1 b1 be b5 9f 62 be 8f bc 1c bd
       -0.24228723 -0.3470553 -0.22131236 -0.03826576
0003e0 a2 d0 05 00 d7 00 4a 3e 19 e9 c2 3e e4 19 ce 3d
       5.34021e-40 0.19726883 0.38068464 0.10063532
0003f0 bf b2 a4 bc e9 51 84 3c 81 d3 a6 bd d2 1d ea bd
       -0.020104764 0.016152339 -0.0814581 -0.11431469

encoder.metadata_encoder.metadata_projection.bias f4 [48]
000000 97 ad c2 be c8 f5 88 bd 1d 06 00 3d a6 93 cc bc
       -0.38023064 -0.06687504 0.03125583 -0.024972748
000010 93 b4 58 be 9d c3 75 be 57 7a 23 bf c1 1e 31 be
       -0.21162634 -0.24000402 -0.6385855 -0.17296888
000020 5d b2 92 be c7 78 13 3d 33 bf 6b be 5c 01 71 be
       -0.28651705 0.036003854 -0.23022155 -0.23535675
000030 52 5e 0d be f0 59 8a be ca 9c 1a 3d 72 32 cc be
       -0.13805512 -0.27021742 0.037747182 -0.39882237
000040 d9 b0 07 bf 82 13 df be c9 23 f3 bd e8 d6 05 be
       -0.53004223 -0.4356957 -0.1187206 -0.13070261
000050 35 51 06 bf ac 6f 86 bd 84 77 aa be 56 fa b6 3c
       -0.5246766 -0.065642685 -0.33294308 0.022336166
000060 7f 73 e4 bd b1 8d d7 be bc b5 20 bd 29 fe 99 be
       -0.11154842 -0.4210029 -0.039235815 -0.3007672
000070 2d 94 c5 be a7 a9 31 be 8b 90 92 be 34 3d 7e be
       -0.38589612 -0.17349873 -0.28625903 -0.24828035
000080 ab 41 8d be 7c a1 20 be 8e 61 e1 bd bc cb fe 3c
       -0.27589163 -0.15686601 -0.11004935 0.031103007
000090 32 a4 05 bf c1 87 b7 bd a7 b7 33 be ab ec 39 be
       -0.5220367 -0.0896144 -0.17550527 -0.18156688
0000a0 c7 5b 35 be 2b 28 23 be db 80 fd bc aa a2 88 be
       -0.17710792 -0.15933292 -0.030945232 -0.26686603
0000b0 cb 2d b8 3b b7 79 b7 be 76 75 dc bc ba 9f 4a be
       0.0056206933 -0.3583505 -0.026911478 -0.19787493

encoder.encoder_layers.0.0.weight f4 [128, 80]
000000 f0 23 bb bd 04 d3 d5 3c 9e 7c 2b bd bc a5 79 b9
       -0.09137714 0.026101597 -0.04186689 -0.00023808231
000010 ca 21 bb 3d 8d 47 44 bc 23 35 e5 bd 47 47 0d 3b
       0.09137304 -0.01197995 -0.11191776 0.0021557377
000020 db 71 44 3d 63 90 cb bd f9 29 72 bd ea 45 bc bd
       0.047960144 -0.09939649 -0.05912206 -0.091930225
000030 f8 17 23 3e 21 ad 38 3e 62 82 c6 3c 8d da c7 3d
       0.15927112 0.18034793 0.024232093 0.09758482
000040 8e 35 13 bc 43 0f 6a bd ef 0c 3a bd 5b c7 07 3d
       -0.008984936 -0.05714346 -0.04542249 0.033149105
000050 6f 7f 96 bd 73 5d 20 bc ce 6b 43 bb 7b eb 94 3d
       -0.07348525 -0.009787905 -0.0029818895 0.07271477
000060 6d b0 bf bd 17 0f 4e 3d 78 15 0f 3e b9 1b af ba
       -0.093598224 0.05030736 0.13973033 -0.0013359702
000070 0b 91 96 bd 61 fb 40 bd c3 61 49 3e 9c bf 6b bc
       -0.073518835 -0.047114734 0.196662 -0.014388945
000080 92 9a 91 3a 8d 70 90 be 38 e5 2e be 34 40 f8 bd
       0.0011108688 -0.2821087 -0.17079628 -0.12121621
000090 98 dc 9e 3b 5a 50 ca 3d fd 32 a9 3d d6 66 37 3b
       0.004848074 0.09878607 0.08261678 0.002798488
0000a0 64 1a f8 3d 68 a2 02 be 04 98 57 3e 1f ae 3c 3e
       0.121144086 -0.12757266 0.21054083 0.18425797
0000b0 83 bb 8b be da 3b f8 3d 22 7a 1d be 0c 70 1a 3e
       -0.27291498 0.12120791 -0.15378621 0.15081805
0000c0 42 ca de 3d d3 e7 01 3e 78 64 19 3e ae af 54 3e
       0.10878421 0.1268609 0.14979732 0.20770141
0000d0 9b 6f c7 3d 61 3f e7 bd e3 09 99 3d 1f 63 d9 bd
       0.09738084 -0.112913854 0.07472589 -0.10614609
0000e0 be 4c c9 3c 99 bf 82 3d 38 54 9d bd d9 65 23 3e
       0.024572726 0.063842006 -0.07682079 0.1595682
0000f0 b3 c3 79 bd 12 19 a0 3d c9 f7 20 3e 2b 69 6f bc
       -0.06097765 0.07817282 0.15719523 -0.014612476
000100 e8 8d 0c 3e 6d c4 3b 3d 79 c4 33 3c b6 25 6e be
       0.13726008 0.045841623 0.010972136 -0.23256573
000110 d9 4a 80 3d c1 1f 0c bc 90 6d 2d 3d 5a 94 29 3e
       0.06264276 -0.008552493 0.042340815 0.16560498
000120 61 71 37 3e d5 40 72 3e 44 eb 01 be 3f 2f 11 3e
       0.17914344 0.23657544 -0.12687403 0.14178179
000130 35 bb 8b be b9 d2 50 3d 03 a5 46 be cf 57 1e 3e
       -0.27291265 0.05098221 -0.19398884 0.15463184
000140 e7 ef 08 3d 50 84 1b 3e 19 cb 91 3d e8 a5 10 3e
       0.033431914 0.15187192 0.07118816 0.14125788
000150 80 b2 19 3e 0c 3e 8d bd 67 e2 0b 3b 50 c3 a2 bc
       0.15009499 -0.068966 0.0021344663 -0.019868523
000160 11 e6 a5 bd b5 ab 7e 3e b6 53 4d 3d 2d e6 6c 3e
       -0.08100522 0.24870189 0.05012866 0.2313468
000170 73 37 ac 3c d8 42 a4 3d bb 23 8e 3d 91 e3 46 3d
       0.021022534 0.08020562 0.06940409 0.048556868
000180 79 0c ab bd 2a 91 86 3e 7a e5 95 3c aa c4 b0 3d
       -0.08351988 0.26282626 0.0182979 0.08631261
000190 5a 1f 16 bd 30 79 71 bd a6 54 63 3d d5 ac df 3d
       -0.036650993 -0.058953464 0.05550065 0.10921637
0001a0 fd 41 3e 3e f9 01 e0 bc 6b 7d 6e bd 63 4e c8 bd
       0.1857986 -0.02734469 -0.058225077 -0.09780576
0001b0 a0 b4 a0 3c ff 48 e3 3d 60 fc 26 3d 48 27 ae 3d
       0.019617379 0.11097907 0.040768027 0.08503586
0001c0 68 17 36 bd aa 01 b6 3d d6 ea bf 3d 00 f7 06 bd
       -0.044455916 0.08887036 0.09370963 -0.0329504
0001d0 fc 2b e3 3d 21 dd 0b bd 25 c7 7c 3d c1 38 e6 3c
       0.11092374 -0.03414643 0.061713357 0.028103234
0001e0 6e 54 f4 bd 49 fe ab 3d 7f 2a 3c 3d 41 8f 0f bd
       -0.11930166 0.083981104 0.045938965 -0.035048727
0001f0 19 18 d6 3d a4 5d 42 3d 79 a9 43 3e 48 7e 90 bd
       0.10453815 0.047452584 0.19107617 -0.07055336
000200 0c 7f b2 3c f8 31 69 bd ad d7 ea bd 13 2f 03 3d
       0.021789096 -0.05693242 -0.11466918 0.032027315
000210 e3 79 8a bd 36 b4 55 3e cb 75 b7 bc e8 15 94 3e
       -0.06761529 0.20869526 -0.022395035 0.28922963
000220 c2 57 8c bd 4b 40 a0 3d b8 27 87 3d 4b f1 29 bd
       -0.06852676 0.07824763 0.065993726 -0.04148988
000230 8b 61 d5 bc 02 b2 c0 bd 93 aa e1 bd 22 94 a8 bd
       -0.026047489 -0.09408952 -0.110188626 -0.08231379
000240 6a 69 bd bd bb b7 24 3d e8 92 9f 3d 95 bb 37 3e
       -0.09248622 0.04021428 0.07791692 0.1794265
000250 fa fb 4a 3d 9e 68 89 3e 7e 08 9b bd 74 e7 84 be
       0.04955671 0.2683763 -0.07569979 -0.25957835
000260 28 56 4e bd a1 fa 9f 3c ed 7b 2e 3e ff 7a db bd
       -0.050375134 0.019528689 0.17039461 -0.10716819
000270 90 de e2 bd 7f 58 a1 bd 7d 3b f7 3c 80 93 12 bd
       -0.11077607 -0.078782074 0.030179733 -0.0357852
000280 98 65 70 3d 24 3a 1c 3e 4c 17 03 3d 5f e9 98 3d
       0.058690637 0.15256554 0.03200464 0.07466387
000290 1e c9 0a 3e 74 f8 21 3d 71 ce 58 3e e0 7a 14 bb
       0.13553283 0.039543584 0.21172501 -0.0022656247
0002a0 6c db 8c bd fb c7 ca 3d 2a 04 ae 3d 39 3c db 3d
       -0.06877789 0.099014245 0.08496888 0.10704846
0002b0 b5 ab 07 3e 13 b3 23 3e ca 22 9c 3c 31 70 a3 3d
       0.13249095 0.1598628 0.019059557 0.07980383
0002c0 d5 25 1e 3e c0 39 ba bb b1 51 a7 3d 81 69 12 3e
       0.1544412 -0.005683154 0.08169878 0.14298059
0002d0 a4 c3 ca 3d a4 e0 58 3c 36 b8 41 3e a6 c9 ae 3d
       0.09900597 0.013237152 0.18917927 0.08534555
0002e0 d1 09 db 3d a2 bf 6c bd 2f 98 f9 3d a6 a6 c1 bd
       0.10695232 -0.057799943 0.1218723 -0.09455614
0002f0 63 53 b5 3d d2 5d d1 3d ac 68 15 3e dc 9b 74 3d
       0.088537954 0.10222973 0.1459071 0.05971895
000300 de 56 6a 3d bf 85 f2 bd 40 b3 ca bd e7 85 16 be
       0.05721175 -0.11841916 -0.098974705 -0.14699517
000310 22 2e 83 bc 1e 3e f6 3d 4d 92 e5 3d c4 06 70 3e
       -0.016013209 0.12023567 0.11209545 0.23440081
000320 39 57 a8 3d 5a f4 93 bc 1a cd 5d 3e 05 9b c7 bd
       0.082197614 -0.018060852 0.21660271 -0.097463645
000330 47 56 8d bd 39 83 83 3e ea ab 6d bd ef 25 78 3e
       -0.06901222 0.25686052 -0.05802528 0.2423322
000340 bb 69 78 3e 3c bd 68 3e b7 1f 66 3c ba 47 9a bc
       0.24259083 0.22728437 0.014045647 -0.01883303
000350 5d d9 4e 3e e9 73 a4 bd e0 e5 85 3d d3 16 19 3d
       0.20200105 -0.080299206 0.06537986 0.037375282
000360 be 19 c7 3d 57 66 43 3e 25 73 e9 bc 81 7b 6a bb
       0.09721707 0.19082008 -0.028497288 -0.003577918
000370 db b7 83 3e b7 af 64 3e 39 81 c2 bc 13 79 67 3e
       0.25726208 0.22332655 -0.023743259 0.2260478
000380 dd 04 73 3e f7 93 78 3c 15 fa 1e bd ea 43 9a 3c
       0.23732324 0.015171996 -0.038812716 0.018831212
000390 1b 63 61 3e eb 0b 38 3c 02 1f c2 3d bd 81 a1 bd
       0.22010462 0.01123331 0.094785705 -0.07886074
0003a0 a1 b9 aa 3b 4b d6 9f bd 2d 4c e3 bd c1 ee 59 3d
       0.005210117 -0.07804545 -0.11098514 0.05320621
0003b0 39 c8 72 bd a7 e1 96 3a 9d c5 fd 3b 76 b4 19 3e
       -0.05927298 0.0011511341 0.0077445046 0.15010247
0003c0 9e 79 18 bd 3c ea d0 bc b2 e0 30 3d 0e 6c ce 3d
       -0.03722536 -0.025502317 0.043183036 0.100792035
0003d0 ee 0a 33 bc 14 fd 22 3e 89 25 89 3d 7b d9 cf 3d
       -0.010927899 0.15916854 0.066966124 0.10148903
0003e0 6e 27 53 3e 68 82 b5 bd fc f2 3c 3e 04 60 ba bd
       0.2062051 -0.08862764 0.18452066 -0.09100345
0003f0 11 ab 0f 3e 7d 6b c7 3d e2 ad 01 3c cf b3 61 3e
       0.140301 0.09737299 0.007914992 0.22041248

encoder.encoder_layers.0.0.bias f4 [128]
000000 19 52 90 b5 94 a8 40 36 34 2d eb 35 a4 68 af b7
       -1.075273e-06 2.8708355e-06 1.752202e-06 -2.0910353e-05
000010 be cd 0b b7 89 44 a5 b7 34 a7 72 b6 06 d2 72 b6
       -8.332949e-06 -1.9701447e-05 -3.6158135e-06 -3.618306e-06
000020 ac 28 ec 37 81 5c 3a b6 b8 bf c6 36 34 ee 4b 36
       2.8152332e-05 -2.7770004e-06 5.923179e-06 3.038801e-06
000030 94 c8 77 33 2a 72 bb 36 cb 87 27 36 c1 09 60 37
       5.7691594e-08 5.5863247e-06 2.496398e-06 1.3353711e-05
000040 9e 19 5f b6 99 54 d4 37 a6 06 d3 b7 15 d6 a8 36
       -3.32445e-06 2.5311763e-05 -2.5156256e-05 5.0317126e-06
000050 8e 7f 84 b7 65 24 c5 37 d2 b8 7f b8 f1 2a f4 b4
       -1.5795024e-05 2.3501178e-05 -6.0968865e-05 -4.5479786e-07
000060 07 bc 91 b7 f1 46 32 b7 d7 26 9a 37 f3 8c 54 37
       -1.7372904e-05 -1.0626144e-05 1.8376317e-05 1.2669002e-05
000070 88 be 29 b7 7d 52 03 b7 48 43 5d b7 fa 8c ea b5
       -1.01175465e-05 -7.827414e-06 -1.3188292e-05 -1.7475388e-06
000080 89 bc a8 b4 49 1b e5 b6 e2 52 cc 37 d2 6f 0c 38
       -3.1429616e-07 -6.8279082e-06 2.435729e-05 3.3482742e-05
000090 0b 2a 14 b7 19 06 7f b7 05 90 91 36 82 67 e4 36
       -8.831276e-06 -1.5200604e-05 4.338103e-06 6.8069794e-06
0000a0 c8 54 2a b8 b1 7a 9f b6 0a 2d 84 b5 92 50 b5 36
       -4.0610117e-05 -4.7528524e-06 -9.847874e-07 5.4036e-06
0000b0 b9 62 7e b6 df 9d 1b b8 a5 fc db b7 e3 e4 5e b7
       -3.7906414e-06 -3.710191e-05 -2.6224481e-05 -1.3285523e-05
0000c0 a7 69 4e 37 94 f7 6b b6 10 f7 fd b7 98 43 b4 36
       1.2303156e-05 -3.5161838e-06 -3.0274998e-05 5.372287e-06
0000d0 e8 03 d1 b5 ea 21 f4 37 0b 9f a1 37 cd 16 3f 37
       -1.557285e-06 2.910286e-05 1.9266756e-05 1.1389796e-05
0000e0 18 fe 56 37 b3 cf 30 b7 0d a6 a5 b5 6f 98 7c b7
       1.2814555e-05 -1.0538776e-05 -1.2341785e-06 -1.5055862e-05
0000f0 d3 97 02 b8 9b 98 20 37 e8 ee 25 38 4b c8 84 36
       -3.1135813e-05 9.572274e-06 3.9561564e-05 3.9572237e-06
000100 13 cd 35 b7 d4 e3 a9 37 d8 d3 a4 b7 6e 04 e8 b5
       -1.0836188e-05 2.025246e-05 -1.9648971e-05 -1.7286636e-06
000110 d7 91 20 b6 a4 73 2d b6 e0 57 00 36 1d 74 19 36
       -2.3926748e-06 -2.584632e-06 1.9124636e-06 2.2866363e-06
000120 89 a7 e0 b7 ba 05 bc b6 3d c5 0a b7 33 c0 b6 b6
       -2.6780895e-05 -5.6035033e-06 -8.271364e-06 -5.4463976e-06
000130 8a 95 16 37 f6 54 65 b7 a5 d2 dc 37 cb a1 b5 36
       8.975514e-06 -1.3669245e-05 2.6324133e-05 5.4130555e-06
000140 20 bf 01 b7 a2 7f 1e 37 5d 73 01 37 e3 9a 05 b7
       -7.733499e-06 9.447251e-06 7.715859e-06 -7.96348e-06
000150 88 74 82 37 91 db 23 36 0a bb e0 34 e4 66 24 b8
       1.5551472e-05 2.4416697e-06 4.185934e-07 -3.919647e-05
000160 c4 2f 17 b7 ff ae 9e b7 bf fb 20 b7 e5 36 05 36
       -9.011423e-06 -1.8916557e-05 -9.595357e-06 1.9850497e-06
000170 e8 c5 dd 36 d6 cc 7e b5 64 3a 83 36 c6 97 e1 b7
       6.6093526e-06 -9.492045e-07 3.910902e-06 -2.6892765e-05
000180 13 7f 2b 36 d2 10 d2 37 c7 65 1e 36 86 ee 5e 37
       2.5554953e-06 2.5041783e-05 2.3603077e-06 1.3287767e-05
000190 63 4f a1 b7 a1 fc 12 37 91 9b 5f b7 00 cb a1 b6
       -1.9229663e-05 8.761098e-06 -1.3328056e-05 -4.821806e-06
0001a0 05 66 40 36 13 06 5e 36 55 65 3a 35 03 75 a9 36
       2.8669613e-06 3.3084114e-06 6.9437857e-07 5.0502144e-06
0001b0 b2 33 97 b5 74 9b 85 36 08 0b 93 37 0e 6f d1 b6
       -1.1265422e-06 3.981806e-06 1.7528902e-05 -6.241614e-06
0001c0 5e d8 70 b7 df cc 6b b5 89 7e 0a b7 b7 97 21 b7
       -1.4355492e-05 -8.784245e-07 -8.254902e-06 -9.631672e-06
0001d0 71 4e e5 36 21 38 b8 37 95 15 f1 37 41 f5 e4 b5
       6.8338636e-06 2.1960646e-05 2.8739489e-05 -1.7058702e-06
0001e0 e4 07 a2 b4 80 bc c5 b8 93 86 34 35 a2 4c 12 b7
       -3.0180593e-07 -9.428803e-05 6.7251057e-07 -8.720121e-06
0001f0 37 47 67 37 99 fc b6 35 9f b4 eb b6 8f 67 11 38
       1.3785254e-05 1.3633572e-06 -7.024573e-06 3.466714e-05

encoder.encoder_layers.0.1.weight f4 [128]
000000 dc 48 7f 3f 8e d0 76 3f 71 7c 66 3f ae eb 72 3f
       0.9972055 0.9641198 0.9003363 0.9489087
000010 15 4c 5d 3f 94 54 73 3f 82 c5 5a 3f 8f 56 56 3f
       0.86444217 0.9505093 0.85457623 0.8372583
000020 1f 9a 84 3f 99 ed 42 3f fa 09 6c 3f b9 2b 75 3f
       1.0359534 0.76143795 0.92202723 0.9576984
000030 16 0b 54 3f d8 bf 63 3f 14 83 80 3f ef a9 66 3f
       0.82829416 0.88964605 1.0040002 0.9010305
000040 ed 4f 60 3f 1b 9b 57 3f 40 4e 8d 3f ef aa 81 3f
       0.8762196 0.8422105 1.1039505 1.013029
000050 c1 48 74 3f be 31 86 3f 3e ca 86 3f 36 5c 76 3f
       0.95423514 1.048393 1.053047 0.9623445
000060 c6 fc 7c 3f a3 c5 5a 3f 0e d2 83 3f 32 d7 6f 3f
       0.988232 0.8545782 1.0298479 0.93687737
000070 b9 a6 7e 3f 6e 8d 7e 3f a1 e7 75 3f 14 67 61 3f
       0.9947315 0.99434555 0.9605656 0.8804791
000080 ca c8 78 3f b1 ff 5a 3f 7f 90 5e 3f 67 d1 8c 3f
       0.9718138 0.85546404 0.86939234 1.1001405
000090 d7 f1 6f 3f 34 05 5f 3f 53 5d 4f 3f f1 9e 70 3f
       0.93728393 0.87117314 0.81001776 0.93992525
0000a0 aa 46 72 3f 6c 43 80 3f 77 d3 5a 3f 04 09 7a 3f
       0.94639075 1.0020576 0.8547892 0.97670007
0000b0 56 24 5e 3f ea ef 8f 3f 4f e0 7c 3f 02 89 87 3f
       0.86774194 1.1245091 0.9877977 1.0588686
0000c0 74 19 76 3f 0c 31 76 3f 0e ee 71 3f a5 d5 87 3f
       0.9613259 0.9616859 0.9450387 1.0612074
0000d0 5c cf 6b 3f fe 45 64 3f 42 59 74 3f 04 2b 87 3f
       0.9211328 0.891693 0.95448697 1.0560002
0000e0 eb b4 54 3f 66 86 5f 3f 19 fd 61 3f d7 39 87 3f
       0.8308856 0.8731445 0.8827682 1.0564526
0000f0 99 5b 83 3f 37 9b 6c 3f ae bf 89 3f e7 f4 57 3f
       1.0262328 0.9242434 1.0761621 0.84358066
000100 5c e5 84 3f 1b dd 8d 3f e3 7c 5f 3f 7c 82 6f 3f
       1.0382495 1.1083101 0.87299937 0.9355848
000110 b3 97 69 3f cb 57 5f 3f 78 88 80 3f d5 cc 6a 3f
       0.912471 0.87243336 1.0041647 0.917188
000120 4f fa 6f 3f 2e d4 63 3f 0a 41 6b 3f 67 42 55 3f
       0.93741316 0.88995636 0.91896117 0.83304447
000130 80 9f 6e 3f d3 dd 73 3f ea da 74 3f 8b 3d 69 3f
       0.9321213 0.9526035 0.95646536 0.9110953
000140 25 dc 71 3f 39 75 67 3f f9 4f 86 3f be 21 73 3f
       0.9447654 0.9041324 1.0493156 0.9497336
000150 eb 39 71 3f 76 f2 54 3f 88 a2 4f 3f ad f2 93 3f
       0.94229 0.83182466 0.8110738 1.1558434
000160 b2 59 7a 3f e6 c1 6d 3f a0 83 81 3f 10 e1 6d 3f
       0.97793114 0.9287399 1.0118294 0.92921543
000170 2d 5e 6c 3f 2c fa 61 3f 4c 48 5b 3f 84 9d 80 3f
       0.923312 0.88272357 0.8565719 1.004807
000180 db c3 59 3f e7 35 50 3f 4d ba 7a 3f 80 94 7a 3f
       0.85064477 0.8133225 0.9794052 0.97882843
000190 85 26 65 3f 3c 44 68 3f d9 10 75 3f 8d eb 5f 3f
       0.895119 0.9072912 0.9572883 0.87468797
0001a0 ae 38 67 3f 75 a9 4a 3f 8b 74 84 3f 9a c0 73 3f
       0.9032086 0.7916482 1.0348066 0.9521576
0001b0 1f 8c 68 3f 22 ca 5a 3f 1b b0 85 3f 09 a8 5f 3f
       0.9083881 0.8546468 1.0444368 0.87365776
0001c0 16 ce 54 3f 70 30 5c 3f 85 86 89 3f d5 f5 5e 3f
       0.8312696 0.8601141 1.0744177 0.8709386
0001d0 6f e2 54 3f aa 81 65 3f 31 6a 61 3f ba dd 55 3f
       0.8315801 0.89650977 0.8805266 0.8354145
0001e0 8c 84 88 3f d8 da 79 3f fb 7a 60 3f ad 5f 68 3f
       1.066545 0.97599554 0.87687653 0.9077099
0001f0 85 d4 5f 3f 3a 94 5c 3f 77 a5 5a 3f 44 27 62 3f
       0.87433654 0.86163676 0.8540873 0.88341165

encoder.encoder_layers.0.1.bias f4 [128]
000000 94 24 4b bd 84 c2 88 3d dc 45 78 be 27 99 1d be
       -0.04959543 0.06677726 -0.24245399 -0.15390454
000010 81 84 57 be 8f bd ec bd 15 b5 65 be 63 12 da 3d
       -0.2104664 -0.11559593 -0.22432359 0.10648038
000020 69 db a2 3c d2 f0 34 be be c3 10 3d 12 ab 36 bd
       0.019880014 -0.1766999 0.035342924 -0.04459674
000030 2c 4b 29 be 19 63 20 be c1 83 98 3b ad e4 44 3b
       -0.16532582 -0.15662803 0.004654378 0.0030043528
000040 93 3f ab bd 20 56 e3 bd ed 7f 5d be d3 5a 51 bc
       -0.08361735 -0.111004114 -0.21630831 -0.012778002
000050 3b 2d 42 3d 16 0f 59 be bf 83 96 be f3 44 10 3d
       0.047406416 -0.21197161 -0.2939739 0.035222005
000060 d0 e3 05 3e c2 de 8a be 32 18 18 3e 04 6d 43 3d
       0.13075185 -0.27123076 0.1485298 0.047711387
000070 e7 2f 95 3c 9e 0c 57 bd ac cd 8e bd 8f 30 a9 bd
       0.018211318 -0.052502267 -0.069728225 -0.08261215
000080 5a a8 59 be 5c c2 a1 be a5 e3 e7 bc 65 f4 57 be
       -0.21255627 -0.31593597 -0.028306792 -0.21089323
000090 74 cb bb bd eb 27 06 3d 33 14 2a bd c6 b0 a4 bb
       -0.09169665 0.032752912 -0.04152317 -0.005025956
0000a0 3d fe 26 3e 9c 49 7b be f4 48 69 3c a1 d2 18 be
       0.16307922 -0.24539798 0.014238585 -0.14924099
0000b0 ca c9 75 bd a6 94 31 be eb 47 02 be c4 71 3b 3c
       -0.060006894 -0.17341861 -0.12722747 0.011440698
0000c0 ca 80 cf bd 58 dc 1b be 1c 45 f0 bc 34 6c 9e bd
       -0.101319864 -0.15220773 -0.029329829 -0.07735482
0000d0 06 5f 95 ba 8b e5 09 3d 73 94 a9 bd 44 98 af bd
       -0.0011396117 0.033666175 -0.082802676 -0.08573964
0000e0 0d 39 b4 bd a5 44 61 bd 17 b5 38 be 0c 6e e6 3d
       -0.08799944 -0.054997105 -0.1803783 0.112514585
0000f0 f8 0a 51 be ce 8b c4 bd a0 5f 38 be 45 27 dd be
       -0.2041434 -0.09596978 -0.18005228 -0.43194023
000100 fe 75 0b 3d 59 2f 4c bd 86 af 52 bd 5a 6b 76 be
       0.034048073 -0.04984984 -0.051436923 -0.24064389
000110 01 5d 37 be 09 46 a2 3d c9 6f b6 bd 7a d5 b2 bd
       -0.17906572 0.079235144 -0.0890804 -0.08732124
000120 38 0b e6 bd 71 5b b7 be a4 96 2c 3d 66 1f 2e bd
       -0.112326086 -0.35811952 0.04213585 -0.042510413
000130 da 3e 84 be 01 85 46 bd 4e be 06 3e ec 90 6e 3c
       -0.25829202 -0.048466686 0.13158533 0.014560919
000140 54 4b 0a bc 84 1d 4f ba 63 88 57 be b7 40 77 bd
       -0.008440811 -0.00079008215 -0.21048121 -0.06036445
000150 42 23 a9 3d 49 03 2f be 19 97 dc 3c ec b9 70 be
       0.08258678 -0.17091097 0.026927518 -0.23508424
000160 e1 51 ad 3b 40 74 02 be 02 d7 29 3e 07 68 96 bd
       0.0052893017 -0.12739658 0.16585925 -0.073440604
000170 ba d0 bd be d7 c6 97 3d eb 89 2e bc c5 f0 84 bd
       -0.37073308 0.074109726 -0.010652999 -0.06491236
000180 2e 99 83 3d 2c ae c4 be 3f a3 ed bc 2c 5e 4e bd
       0.06425701 -0.38414133 -0.029008506 -0.050382778
000190 86 20 69 3e 42 ef 11 bd 66 3d 37 bd 4c 03 6d 3c
       0.22766313 -0.035628565 -0.04473629 0.014466118
0001a0 51 25 ab bd a9 13 b2 3d 71 56 ae bd 6f 22 8b 3d
       -0.08356727 0.08695156 -0.08512581 0.06793677
0001b0 49 dd ca bd 1c 03 65 3d e0 78 10 3e f3 7e 2a bc
       -0.09905488 0.05591117 0.1410861 -0.010406244
0001c0 b3 89 6d bc f0 aa 11 3d 58 b1 00 3e 3e cc 94 3d
       -0.014498162 0.03556341 0.12567651 0.072655186
0001d0 73 20 59 bd d9 7f 89 be db 35 9d 3c f0 6e 46 be
       -0.05300946 -0.26855353 0.01919072 -0.19378257
0001e0 92 31 17 3e 4b 9d a0 be 7b 83 3d be 39 17 36 be
       0.14765003 -0.31370005 -0.18507187 -0.17782296
0001f0 ef 5d 1f be bf ca 3b bd 74 6a e0 bd 6c 7f a5 be
       -0.15563177 -0.04584765 -0.10957804 -0.32323778
