scripts/abr_clustering/audiometric_deep_clustering/experiments/full_scale_audiometric_clustering_memory_optimized/20250619_170021_evident/checkpoints/joint/joint_epoch_25.pt (torch, 765081 bytes, 223 tensors)

encoder.abr_encoder.abr_projection.weight f4 [32, 6]
000000 01 2b d4 bd 0f fc 13 3d a0 2e d8 bd 7c d4 85 be
       -0.10359765 0.036129054 -0.10555768 -0.26138675
000010 bc 9e 71 be 8c 0d 8d be 0e d8 e8 bc 4e 77 a7 bc
       -0.23595709 -0.27549398 -0.028423335 -0.020442631
000020 1d 99 89 bd 2e 31 13 bf e9 7c 68 bd 97 15 9c 3e
       -0.06718657 -0.5749692 -0.05675975 0.30485222
000030 00 41 73 be 72 81 49 be a1 8b 1a 3e c4 78 f5 bd
       -0.23755264 -0.19678286 0.15092327 -0.11985925
000040 7b 57 b0 bc 6c 8e d4 be d9 df d9 be ea c3 14 3d
       -0.021526089 -0.4151491 -0.42553595 0.03631965
000050 a3 9b 7a 3e 50 e1 2e be dc e6 f7 bd b0 2c d3 3d
       0.24473433 -0.17078137 -0.1210458 0.10311258
000060 99 63 6a 3e 37 64 d5 bd e0 14 90 be 6b c6 34 3e
       0.22889556 -0.10419505 -0.28140926 0.17653815
000070 34 50 ff be 71 5d 52 be 1d f9 07 be 79 e0 94 3e
       -0.49865878 -0.20543458 -0.13278623 0.2907751
000080 eb 82 06 3e 75 77 1a 3f a5 e3 9a 3d 34 54 ef bd
       0.13135879 0.60338527 0.07562951 -0.11685982
000090 ee 21 a6 3e 37 41 90 3e ac 8a eb 3d 1a 62 af 3e
       0.3244776 0.28174755 0.11501059 0.34254533
0000a0 51 8a dd bd 9a 19 c1 3d 5c ec b0 3e 91 c7 22 3e
       -0.108173974 0.09428711 0.34555328 0.15896441
0000b0 0d 4b 62 be 21 00 ea 3e e2 de 17 3e b8 0d cb 3e
       -0.22098942 0.45703223 0.14831117 0.39658904
0000c0 41 a8 df 3e a3 cd 81 3e cb e2 a3 3e 41 6e 88 3e
       0.43683055 0.253522 0.32008967 0.26646617
0000d0 73 7c 03 bd 9a 54 09 3c 6b 91 80 be c7 26 7b be
       -0.032101106 0.008381987 -0.25110945 -0.24526511
0000e0 84 96 4a be b2 75 9a be ba f0 05 bd fd 8b a3 bd
       -0.1978398 -0.3016792 -0.032700278 -0.07985685
0000f0 ea 00 40 bd a5 57 73 be f4 ff a4 bd ee d6 73 be
       -0.04687587 -0.23763902 -0.08056632 -0.23812458
000100 fd 05 0f be af f7 9b be 8e 5d 84 be 26 aa 72 bd
       -0.13967128 -0.30462405 -0.25852627 -0.059244297
000110 0b 1d 51 be 64 01 d5 bd ec 52 3f be e3 0b c2 be
       -0.20421235 -0.10400656 -0.18683976 -0.37899694
000120 07 93 88 3d a0 ed 77 3b 35 33 18 3f 64 4a 24 be
       0.06668668 0.0037830845 0.59453136 -0.16044003
000130 ab fe db bd 22 73 4f be 65 90 a4 3d a5 f7 0d 3e
       -0.107419334 -0.20258763 0.080353536 0.13864
000140 2c 9d 46 3e 47 6d be 3d 41 e1 9b 3e d2 3c 64 3e
       0.19395894 0.09298187 0.30445293 0.22288826
000150 c2 bb 35 3e 42 90 76 3e 31 63 77 3e 6c b8 87 3e
       0.17747405 0.24078467 0.24158932 0.2650789
000160 56 aa ad 3c 1e d7 d6 3d c3 17 23 3f af 63 c3 3e
       0.021199387 0.10490249 0.6370813 0.3816199
000170 ec ba ae 3e a7 25 70 bd 1d 6a 0c be 13 99 ca bc
       0.34126985 -0.058629658 -0.13712354 -0.024731195
000180 44 50 89 3d d9 85 27 3f e8 18 21 be ba 1e 6d be
       0.067047626 0.6543861 -0.15732157 -0.23156253
000190 1c 8a 00 be 72 b4 8b 3d aa 7f af bc 2b ec 3e be
       -0.12552685 0.068215266 -0.02142318 -0.18644778
0001a0 0f f5 2e be d8 00 78 be fe 64 bb bd d5 15 99 be
       -0.1708567 -0.24219072 -0.09150122 -0.2989947
0001b0 88 b7 5e 3e 29 9b cb bd 38 ee 60 be e9 27 14 be
       0.21749699 -0.09941704 -0.21965873 -0.1446835
0001c0 0d 78 6c 3e e8 eb 79 be 84 71 41 3d 39 2a bb bb
       0.2309267 -0.24406397 0.047227398 -0.0057118204
0001d0 b9 f8 a3 3c c7 8a 9c 3d 9c 24 f5 be c1 22 3a 3d
       0.020016061 0.07643657 -0.47879493 0.0454433
0001e0 2f 8f ed be 96 98 3a 3e 7a 90 b9 be 98 37 26 be
       -0.46398303 0.1822227 -0.3624304 -0.16232145
0001f0 1b ba 17 bd f5 38 e5 3c 16 a1 fd bd 37 64 6f be
       -0.03704272 0.02798126 -0.1238424 -0.23378073
000200 ed a1 26 be f3 fd 05 be 00 b5 cc 3e e1 e2 a1 3e
       -0.16272707 -0.13085155 0.39981842 0.31618407
000210 4b 51 0d 3f ec 5e 0c be c8 4e b1 bc 4f 92 ce bd
       0.5520217 -0.13708085 -0.021644011 -0.100865
000220 9b f2 af 3e 9e d3 a6 3e ef 47 43 be 1f da ca bd
       0.3436478 0.32583326 -0.19070409 -0.099048845
000230 89 34 d8 3e b1 f6 12 3d de cb da 3e a2 c3 da bd
       0.4222758 0.035879795 0.42733663 -0.10681845
000240 3c e9 a8 be 39 fb 99 be 7d a1 87 be 02 e9 b6 3d
       -0.32990444 -0.3007448 -0.26490393 0.089311615
000250 4c a7 0c be 1a 06 c7 bd c4 97 19 bf b2 be a8 3e
       -0.13735694 -0.09717961 -0.599972 0.3295799
000260 6f b0 b4 3c 72 c4 6a bd 28 aa 11 3d dd 04 f1 3d
       0.022056786 -0.05731625 0.035562664 0.11768506
000270 e1 eb a5 bd df bc 69 3e 0f cd 32 be 79 dd e7 3e
       -0.08101631 0.22825955 -0.17461036 0.45286158
000280 3f f2 3f 3e b4 77 93 3e a0 dc 32 3e c4 20 ed bd
       0.18744753 0.28802264 0.17466974 -0.11578515
000290 ba 53 52 3d fa 93 73 3e 02 5c e3 3d 7b 71 61 3e
       0.05134938 0.23786917 0.111015335 0.22015946
0002a0 61 ba 5b 3d f8 cf 89 be c8 32 d7 bd b6 a7 30 be
       0.05364454 -0.2691648 -0.10507733 -0.17251477
0002b0 ed 1d 91 bd 60 d7 b8 be 3e 04 23 3d 20 c4 ae 3d
       -0.07085786 -0.36101818 0.039798968 0.085335016
0002c0 87 26 d8 be cd 79 62 3d 1a 59 48 3d 5b 9f 7b b9
       -0.42216894 0.05529194 0.0489131 -0.0002399659
0002d0 8e 0b 98 3d 0c 5c 0e bf 93 6d f1 3c e4 87 35 3e
       0.07424079 -0.556092 0.029471194 0.1772762
0002e0 b0 36 1c bb 9c 28 7e 3d 4d bd 6c be 6c cc 1f be
       -0.0023836307 0.062050447 -0.23119088 -0.15605325
0002f0 10 0f 0b bd 8d 7f 36 be 89 2b 13 bd 36 a5 24 be
       -0.03394991 -0.17822094 -0.03593019 -0.16078648

encoder.abr_encoder.abr_projection.bias f4 [32]
000000 4b bd 0a b7 e7 f2 0b b5 22 ab fa 37 7e 81 1c 38
       -8.269514e-06 -5.2135005e-07 2.9882012e-05 3.7313897e-05
000010 6a 0d 80 b7 c4 19 78 b7 2d bd 4d b6 9f 26 3b 37
       -1.5265035e-05 -1.4787951e-05 -3.0657495e-06 1.1155061e-05
000020 e6 34 09 b7 09 3c a9 b6 13 5a 2c b7 66 78 fd b6
       -8.178153e-06 -5.0435815e-06 -1.0272971e-05 -7.554004e-06
000030 c4 a3 fc b5 26 68 1e 36 f3 99 7f b7 d3 16 0d b5
       -1.8823125e-06 2.3604457e-06 -1.52350285e-05 -5.2559807e-07
000040 e1 7f b1 37 12 76 f3 b7 c5 96 9b b6 45 cb 4c b7
       2.1159593e-05 -2.9022838e-05 -4.636912e-06 -1.2206675e-05
000050 7b 68 c7 37 56 d1 82 b6 da 54 8e 36 a0 64 dc 37
       2.3771301e-05 -3.898672e-06 4.241808e-06 2.62729e-05
000060 18 7b b0 37 92 3b 43 36 63 31 d8 37 fe d5 6c b6
       2.1038155e-05 2.9091939e-06 2.5772204e-05 -3.52913e-06
000070 4b dc de 37 95 82 dc 38 29 4a cc b8 0c fc 32 38
       2.6567044e-05 0.0001051474 -9.7412914e-05 4.2673244e-05

encoder.abr_encoder.abr_norm.weight f4 [32]
000000 d7 1b 50 3f 52 33 3d 3f 5c 1f 3f 3f 98 86 35 3f
       0.8129248 0.73906434 0.74657226 0.709085
000010 ba 32 4b 3f dd 7e 2f 3f b9 51 2d 3f 97 cd 4a 3f
       0.7937428 0.68552953 0.67702824 0.79219955
000020 1e fb 2a 3f e3 82 6c 3f 23 22 46 3f 50 86 58 3f
       0.66789424 0.9238722 0.7739584 0.84579945
000030 a5 c3 2f 3f f1 92 3d 3f 5f ad 32 3f b3 78 3a 3f
       0.68657905 0.7405234 0.69795793 0.7284042
000040 2d 74 37 3f 69 0f 68 3f b9 ff 36 3f 5d 54 40 3f
       0.71661645 0.90648514 0.7148395 0.7512873
000050 3d 6d 53 3f 10 ea 1d 3f 75 73 27 3f 9e eb 25 3f
       0.8258856 0.61685276 0.6541055 0.6481265
000060 be 21 6c 3f 40 0a 3e 3f 5a e7 49 3f eb 64 48 3f
       0.92238986 0.7423439 0.7886864 0.7827899
000070 d5 15 36 3f 41 48 46 3f f2 cf 54 3f 99 d9 57 3f
       0.71127063 0.77454 0.831298 0.843164

encoder.abr_encoder.abr_norm.bias f4 [32]
000000 a8 3b 97 be 49 96 f4 be ce 66 15 bf d1 bb 03 bf
       -0.29537702 -0.47770908 -0.5835999 -0.5145846
000010 4b 8a ad be f6 f6 0d bf 0d 96 0c bf 01 57 64 be
       -0.33894572 -0.5545496 -0.5491646 -0.22298814
000020 50 be f5 bd 87 14 c8 bd 7d 0e 06 bf 26 d5 86 3d
       -0.1199919 -0.0976954 -0.5236586 0.065836236
000030 a7 38 b4 be f0 f7 f7 be 65 d6 7c be bb 57 e0 be
       -0.35199472 -0.4843135 -0.2469116 -0.43816933
000040 af 28 0c bf fe e6 0c be 02 04 04 bf 39 9c 22 bf
       -0.5474958 -0.13759992 -0.51568615 -0.63519627
000050 a5 7d d8 be f6 e2 0b bf b4 64 04 bf e6 93 0f bf
       -0.4228336 -0.5464319 -0.5171616 -0.5608505
000060 95 ad 93 bd f2 f2 fc be 56 a6 e6 be c2 61 ba be
       -0.072108425 -0.49404103 -0.4504878 -0.36402708
000070 a0 9d db be b3 43 1e bf b8 9d 08 bf f1 4c 78 be
       -0.42893696 -0.6182205 -0.5336566 -0.24248101

encoder.abr_encoder.abr_norm.running_mean f4 [32]
000000 25 5c 6a be 1d 69 c7 bd 60 b8 52 be 4e 73 a0 bd
       -0.22886713 -0.09736846 -0.20578146 -0.078344926
000010 61 6f 2f be 46 bc 4a 3e 22 92 81 3e cc bb 9d 3e
       -0.17132331 0.19798383 0.25306803 0.3080734
000020 81 5c 9c 3e dc 97 89 be 31 24 82 be c6 45 96 be
       0.30539325 -0.26873672 -0.25418237 -0.29350108
000030 58 c6 5e 3d 4f c8 81 3e 1b a8 82 3e 30 26 91 3e
       0.054388374 0.25348136 0.2551888 0.28349447
000040 bb d2 90 3d c7 80 7b be 8f cf 81 bd 8f da 91 bd
       0.07071444 -0.24560843 -0.06338417 -0.07121765
000050 01 e3 4c be f3 19 7d 3c 3b c8 75 3e 30 e6 f4 3d
       -0.2000847 0.015448081 0.24002163 0.11957967
000060 0e c0 84 be e7 bc 10 bd 8d e8 59 3e 3c b0 27 3e
       -0.25927776 -0.0353364 0.21280117 0.16375822
000070 2c 10 67 be d1 21 4b bd 2a 13 68 bd 31 78 46 be
       -0.22564763 -0.049592797 -0.0566589 -0.19381787

encoder.abr_encoder.abr_norm.running_var f4 [32]
000000 79 8b c4 3f d6 cc ce 3e b9 5d a0 3f 57 0f 7f 3e
       1.5355064 0.40390652 1.2528602 0.24908195
000010 4d d9 5e 3f 53 de a4 3f 5c 4d f3 3f bd 46 38 40
       0.87050325 1.2880348 1.9007983 2.8793175
000020 73 2e 2d 40 2a c7 06 40 84 45 f0 3f 4e 44 1c 40
       2.70596 2.105906 1.8771214 2.441669
000030 82 67 1e 3e c8 3c ea 3f 32 8b f1 3f 69 d5 13 40
       0.15469173 1.8299799 1.8870604 2.3099005
000040 3e 0b 6d 3e 34 76 df 3f 04 4a 1f 3e 06 30 3e 3e
       0.2314882 1.7457948 0.15555578 0.18573007
000050 cc 1e 98 3f ef 39 9e 3d 9e 86 d6 3f 10 78 f1 3e
       1.1884398 0.07725894 1.6759832 0.47161913
000060 de 37 f1 3f 7d f2 fa 3d 84 3e b7 3f 87 fc 4c 3f
       1.8845174 0.12253282 1.4315953 0.80072826
000070 81 25 bd 3f cb 5d c9 3d 5d 8a 18 3e 4e f7 8b 3f
       1.477707 0.09832343 0.14896531 1.0934846

encoder.abr_encoder.attention.q_projection.weight f4 [64, 1]
000000 fc db 5b 3e 5f 07 2d 3e 4c 3a 7b bc 27 10 85 3d
       0.21470636 0.16897343 -0.015333723 0.064972214
000010 a8 ed e5 bb cc fc 86 bd 0c ce 01 3d 4f a7 d5 3d
       -0.007016856 -0.06591186 0.031690642 0.10432302
000020 84 8b ba 3b 94 e1 22 3e c3 ab cf bb df 7e ff bd
       0.005692901 0.15906364 -0.0063376143 -0.124753706
000030 22 ca 82 3d 6f 00 03 3d 41 0f fa 3d 41 d6 1e be
       0.0638621 0.031982835 0.12209941 -0.15511419
000040 25 b5 8d be 8b 96 64 bd 1e 7e 08 bb 4d a6 e4 bd
       -0.27677265 -0.05580763 -0.0020827125 -0.11164532
000050 f5 cc a1 bb 60 fc 4e be ff 01 57 be f1 28 dd 3c
       -0.004937763 -0.20213461 -0.20996855 0.026997061
000060 34 ab 3f 3c 5d 8f 57 3d 02 cf 6d 3d 53 50 9a bc
       0.011698533 0.052626956 0.058058746 -0.01883713
000070 94 a6 50 3b 32 c8 89 3d 16 46 43 3c 0d 0e a2 3c
       0.003183757 0.06727637 0.011918565 0.01978209
000080 68 76 19 b9 5d 92 01 b8 23 eb 4b 3b 18 2d fd 3d
       -0.00014635327 -3.0892308e-05 0.0031115494 0.123621166
000090 74 e0 4e be e4 ba 88 bc 04 9d 3d bd 52 9d 84 be
       -0.2020281 -0.016690679 -0.04629232 -0.25901276
0000a0 99 71 85 be b3 13 e9 3d 4f d6 53 be 34 3e 24 be
       -0.2606323 0.113807105 -0.20687221 -0.16039354
0000b0 8b 6c 1c bd 85 20 69 bd b7 2d b9 36 cc 9a d8 bd
       -0.038189452 -0.05691578 5.5187515e-06 -0.105764
0000c0 b8 95 dc bd 90 2d 15 b9 25 e2 c2 b9 c3 43 19 b9
       -0.10770744 -0.0001422672 -0.00037171054 -0.0001461646
0000d0 28 32 bd b8 d5 66 0a be 7c bd 3a bd 4d 93 19 37
       -9.0215646e-05 -0.1351579 -0.045590863 9.153807e-06
0000e0 cd bb f6 bd 58 d0 20 3b 82 d0 fc bd 91 74 22 3d
       -0.12047539 0.0024538245 -0.12344457 0.039661948
0000f0 21 e8 ec bd 6e 54 b8 38 64 83 5a be 32 27 77 b8
       -0.115677126 8.78953e-05 -0.21339184 -5.8925893e-05

encoder.abr_encoder.attention.q_projection.bias f4 [64]
000000 88 90 8c bb 9c f1 8e bc 71 b4 8d bc 03 05 97 bc
       -0.0042896904 -0.017449193 -0.017297955 -0.018435007
000010 34 79 20 3a d5 a9 96 3c f5 ea 8b bc 64 dc 23 ba
       0.00061215763 0.01839153 -0.01707981 -0.00062507973
000020 08 4f b8 38 0d f2 9b 3b 3d 19 f8 ba 41 f9 8a bb
       8.7885244e-05 0.0047590793 -0.001892842 -0.004241139
000030 6f 54 2a ba 7e c4 81 bc 46 b5 98 bc 83 96 d6 3a
       -0.0006497567 -0.015840765 -0.018641125 0.001637176
000040 ce 04 17 bd 39 1a 45 3d b6 96 7d 3b d2 7d 11 3a
       -0.036869816 0.04812071 0.0038694567 0.000555006
000050 6c 4e 19 3b 30 a6 e6 bc fc 8d ea bc e9 57 29 bd
       0.002339269 -0.028155416 -0.028632157 -0.041343603
000060 ed 3e 82 bc ce f0 4e 3c d1 24 20 bd c7 0f 08 bb
       -0.015899146 0.0126306545 -0.03909761 -0.0020761357
000070 cb 50 6d bb 9c e0 00 3d 91 c9 3c ba 58 d5 13 bd
       -0.0036211486 0.031464204 -0.00072016666 -0.036092132
000080 99 14 5e 3a 05 11 bc 38 f9 27 f3 bb e8 68 1b 3d
       0.0008471697 8.967709e-05 -0.0074205366 0.037941843
000090 6c 82 7a 3d 4b 8b 19 3d db 9d 5b 3c c7 0d 00 bd
       0.061159536 0.037486356 0.013404335 -0.03126314
0000a0 cf ef 22 bd aa a6 75 bd 8a ea 1f bd 01 22 aa bc
       -0.03977948 -0.059973396 -0.039042033 -0.020768167
0000b0 93 c9 51 3d 6a a9 0d bd b7 1d 77 b7 13 f5 57 3d
       0.051217627 -0.034585394 -1.4729266e-05 0.052723955
0000c0 fd d8 20 3c 58 62 19 ba f7 a8 19 bb 98 02 d4 3a
       0.009817359 -0.0005851141 -0.0023446658 0.0016175089
0000d0 b5 6b b1 3a 5d dc 10 3c f0 fb 44 3c 42 fa a4 3a
       0.0013536128 0.008841601 0.012022957 0.001258679
0000e0 cc 5b da 3b 93 38 9a bb c9 fb e5 3b 51 ed 62 bc
       0.006663775 -0.004706451 0.0070185405 -0.013850526
0000f0 c8 57 f7 3b 49 ea 74 3a b2 34 df 3b 36 30 80 39
       0.007548306 0.00093427725 0.0068117017 0.00024449982

encoder.abr_encoder.attention.k_projection.weight f4 [64, 1]
000000 40 94 b8 3d e7 32 25 be 2a 21 64 3c 46 ee 89 bd
       0.090126514 -0.16132699 0.013923923 -0.067349
000010 3d fc b5 bb cf 60 47 3d 40 40 d8 bc 71 a8 e9 3d
       -0.005553751 0.04867631 -0.026397824 0.11409081
000020 16 fa de 3a ad 8a 5d 3e e0 8b a2 bb 6f 65 4c be
       0.0017011787 0.21634932 -0.004960522 -0.19960569
000030 5e 29 d6 3d 51 bb 7b bc e6 f5 80 bd c9 c0 df bd
       0.10457109 -0.015364484 -0.062969014 -0.10925443
000040 39 d3 8b 3e de 26 d5 bd a8 19 28 ba 93 48 3c 3d
       0.27309588 -0.10407804 -0.00064125145 0.04596765
000050 a7 b6 67 bb 25 06 25 3e e5 58 29 3e fe e1 46 3d
       -0.0035356672 0.16115625 0.16537817 0.048555367
000060 17 85 96 3b f2 d3 36 3d 09 a0 87 3c 2a 30 64 bc
       0.0045935023 0.04463572 0.016555803 -0.013927499
000070 eb a3 2b 3b 23 67 76 3d 26 a9 e1 3b 80 9d f4 3c
       0.0026190232 0.060156953 0.006886619 0.029860258
000080 bd 7a 10 38 13 a8 8c 37 0f b9 7a 3a aa b4 5f 3e
       3.4446584e-05 1.6767566e-05 0.0009564319 0.21846262
000090 53 6a 32 3e b3 0a 3a 3c b8 a1 5b bc e6 5f 27 be
       0.17423372 0.01135509 -0.013405256 -0.16345176
0000a0 cd 90 80 be a6 94 2a be 38 5d 74 be 65 74 d1 bd
       -0.25110474 -0.16658267 -0.23863685 -0.102272786
0000b0 1d e3 36 3d 79 47 2e be 24 be 04 b6 4f 7c 1b 3d
       0.044650186 -0.17019452 -1.978021e-06 0.037960347
0000c0 57 c1 c9 3d 1c 6f 67 b9 41 e9 6c ba 85 d0 bc 39
       0.0985133 -0.00022071268 -0.0009037443 0.00036013513
0000d0 2e a0 0a 3a 91 36 ef 3d 6f a3 5f 3d 08 51 c0 39
       0.0005288151 0.116803296 0.05459922 0.00036681467
0000e0 14 da 1e 3e 99 f1 44 3b 50 5f 29 be 44 22 fd bc
       0.15512878 0.003005123 -0.16540265 -0.030900128
0000f0 e8 2d 11 be ce d3 aa 39 0e 9e 3c be 86 54 2f 38
       -0.14177668 0.00032582734 -0.18419668 4.180197e-05

encoder.abr_encoder.attention.k_projection.bias f4 [64]
000000 6f 8a 76 36 85 b9 da 36 95 92 ef b4 f5 ca 83 35
       3.6737435e-06 6.5185036e-06 -4.4623872e-07 9.819329e-07
000010 83 76 56 b3 7c df 8d b5 c2 3b 0d 35 67 11 2f 36
       -4.9933544e-08 -1.0570361e-06 5.261355e-07 2.6087162e-06
000020 0f e2 e7 32 6d 50 2d 36 c1 cb 27 b4 f8 63 89 b6
       2.6994739e-08 2.5825823e-06 -1.5627212e-07 -4.094556e-06
000030 04 0f ca 35 18 6f 43 35 1a 6a 00 36 f2 31 e9 b5
       1.5054543e-06 7.2804824e-07 1.9135246e-06 -1.7374389e-06
000040 65 47 88 36 0b a4 bb b3 b4 ef 68 b2 2e e2 c1 35
       4.0614273e-06 -8.737705e-08 -1.35586795e-08 1.4445448e-06
000050 dd 98 f5 b1 48 7a f7 35 e5 92 53 35 bc b6 d1 b3
       -7.147817e-09 1.8438523e-06 7.8817385e-07 -9.76556e-08
000060 99 d9 ac b3 9d 98 57 b4 69 d2 91 34 a6 d9 14 35
       -8.048955e-08 -2.0078956e-07 2.7161448e-07 5.5451017e-07
000070 56 e8 a7 b2 54 cd b1 b5 87 67 36 34 5e b7 f2 b3
       -1.9547013e-08 -1.3247286e-06 1.6987734e-07 -1.13023574e-07
000080 ad 4e 64 31 ca 60 c6 af 4c dc 4c b2 08 40 63 35
       3.3223089e-09 -3.6084763e-10 -1.19244525e-08 8.465727e-07
000090 04 65 4b b6 d1 1c 2c b3 90 69 47 34 47 32 0f 36
       -3.0308156e-06 -4.007308e-08 1.8571723e-07 2.1337926e-06
0000a0 4f 26 51 34 89 ae 83 b5 fc c3 fb 35 64 3f 46 36
       1.9478578e-07 -9.811057e-07 1.8757996e-06 2.9541197e-06
0000b0 8e b9 c6 34 8d 35 1c b5 7e ca 31 ae 57 f1 6e 34
       3.7015383e-07 -5.8192455e-07 -4.042499e-11 2.2253276e-07
0000c0 fb 53 89 b6 4b 12 c0 b2 2c 2b 9f 32 ba 4c 80 32
       -4.092695e-06 -2.236006e-08 1.8529668e-08 1.4936052e-08
0000d0 a4 bb da 2f 82 f7 27 b7 2e f2 2e b6 f6 e9 ce 32
       3.9787296e-10 -1.0011603e-05 -2.6068988e-06 2.408795e-08
0000e0 d7 c0 54 b6 30 63 4b b3 5c 52 95 b6 92 6c d7 35
       -3.170271e-06 -4.735483e-08 -4.450134e-06 1.6050346e-06
0000f0 cb 36 14 b7 27 e7 a7 32 a6 61 28 b6 df 45 e7 30
       -8.834245e-06 1.9546475e-08 -2.509079e-06 1.6827321e-09

encoder.abr_encoder.attention.v_projection.weight f4 [64, 1]
000000 4a 8d 95 bd dc c6 64 3e c0 47 f8 ba 49 f6 21 3a
       -0.073023394 0.22341484 -0.0018942282 0.0006178362
000010 35 40 28 be 7a fc 30 3e 19 04 f9 bd 28 c7 0a 3a
       -0.16430743 0.17283812 -0.12158985 0.0005293959
000020 35 41 97 3d e7 f8 3a be e7 e7 da bb b9 28 72 3e
       0.07385484 -0.18259011 -0.006680477 0.23648347
000030 8c 9b 66 be fc 38 a4 3e 82 41 81 bc 86 13 5c 3e
       -0.22520274 0.32074726 -0.015778307 0.21491823
000040 12 3a cd bd 11 26 69 3e ec f7 d2 bd a7 74 18 be
       -0.10020842 0.22768427 -0.103011936 -0.1488825
000050 1a 4d 72 3e 2e 08 4b be e4 fc 7a 3e 7a 45 ed bb
       0.23662224 -0.19827339 0.24510533 -0.0072409483
000060 66 29 03 38 5e 34 8f 3e 64 8e 6e 3e d1 4f be 38
       3.127139e-05 0.2796964 0.23296505 9.074773e-05
000070 b3 90 97 be 9e f1 07 bc 4a c6 da 35 1d 50 94 b5
       -0.29602584 -0.008297352 1.6299975e-06 -1.1050175e-06
000080 17 d1 5f 38 64 8c 4e ba 35 27 b2 be 03 c2 30 be
       5.3362073e-05 -0.0007879196 -0.34795538 -0.1726151
000090 ef f2 9c 3b 2a 02 92 be e0 87 58 3d 5f 2d 7a be
       0.004789702 -0.28517276 0.052863955 -0.2443137
0000a0 b2 bf 0e bd aa 4f 7c 38 41 d7 ff ba 51 89 d3 ba
       -0.034850784 6.0155675e-05 -0.0019519107 -0.0016138946
0000b0 d4 14 0c ba 72 cc 75 38 b9 ce 1b 3e 39 69 ce 3d
       -0.000534368 5.8602956e-05 0.15215577 0.100786634
0000c0 57 2e 10 be 5c 00 a4 3e 81 96 be 3e 43 ab aa 3e
       -0.14080177 0.32031524 0.372242 0.33333787
0000d0 53 f0 d1 3d 03 23 6e be 50 c5 57 3c bc fe cc 3d
       0.10250916 -0.23255543 0.013169602 0.10009524
0000e0 68 e3 8d 3e 38 22 e9 3e 9e 68 cb 3d 78 c6 63 3d
       0.2771256 0.4553392 0.099320635 0.055609196
0000f0 9b 5f d0 3d 1c 25 ce 3d 92 0d 9e 3e dd d9 23 3d
       0.10174485 0.10065672 0.30869728 0.040002692

encoder.abr_encoder.attention.v_projection.bias f4 [64]
000000 11 ce de 38 25 40 13 3d 9f 61 24 bc 36 4d d2 bb
       0.00010624168 0.035949845 -0.01003304 -0.0064178957
000010 c8 f2 0c bd 1a 79 0a 3d 09 01 07 bd 6b ac dd 3b
       -0.03441122 0.033806898 -0.03295997 0.0067649386
000020 3a 0e b1 3c 28 43 16 bd b3 c7 4d ba 75 ef 19 3d
       0.021613229 -0.03668514 -0.0007849887 0.03758188
000030 09 9e 19 bd c6 e1 1b 3d 1e 34 34 bc af 90 14 3d
       -0.03750423 0.03805711 -0.010998754 0.036270794
000040 20 1b 5a bd fe 51 83 3d bf 3d 17 3d 9d d4 71 bd
       -0.053248525 0.06412123 0.03692412 -0.059040654
000050 31 01 84 3d 74 fa 80 bd fb e2 84 3d 07 61 05 bb
       0.0644554 -0.0629777 0.064886056 -0.0020352022
000060 60 c2 9e 39 32 26 87 3d 07 dd 83 3d 55 b7 3f 39
       0.0003028093 0.06599082 0.06438642 0.00018283476
000070 62 85 86 bd a3 94 51 bb 47 2f b6 b6 2d 01 c0 b5
       -0.065684095 -0.0031979464 -5.4295265e-06 -1.4305457e-06
000080 aa 37 ce 38 ff e3 de 3a 91 1a 85 bd 7b 71 7a bd
       9.833214e-05 0.0017005204 -0.06499208 -0.06114338
000090 ef ac b9 3b 98 6d 83 bd d4 cd 0e 3d a7 f4 84 bd
       0.0056663672 -0.06417388 0.03486426 -0.06491976
0000a0 f1 8a c0 bc 10 5d 3f ba 75 cc 4d 39 84 83 92 ba
       -0.023503752 -0.0007299939 0.0001962649 -0.0011178111
0000b0 5a 16 c1 3a 6c 40 f0 38 c7 52 72 3d 1d 36 5d 3d
       0.0014731393 0.00011456091 0.059160974 0.054006685
0000c0 e8 cc 13 bc 53 4a 6b 3d 38 01 81 3d 55 53 6c 3d
       -0.009021021 0.057443928 0.062990606 0.05769666
0000d0 36 2a 84 3c ec f4 56 bd a9 60 88 3b ae fb 81 3c
       0.016133409 -0.05247967 0.0041619134 0.01586708
0000e0 1b c3 66 3d 07 39 6f 3d ba 73 80 3c 92 b3 b6 3c
       0.05633841 0.058403995 0.015680183 0.022302423
0000f0 dd 30 85 3c e3 0c 82 3c 8d 27 6e 3d f7 ba 0f 3c
       0.016258651 0.015875285 0.058143187 0.008772603

encoder.abr_encoder.attention.output_projection.weight f4 [1, 64]
000000 3c 85 08 3d 10 b2 5e 3e f9 ee 80 3b 53 c9 54 3b
       0.033330187 0.21747613 0.0039347378 0.0032468631
000010 cc d7 cd bd 6b c9 3a 3e ad 6a 21 bd be 44 4f bb
       -0.100509256 0.18240897 -0.039408375 -0.0031626667
000020 5b a2 33 3d dc cd b5 bd 6b 42 46 bb f6 25 1e 3e
       0.043856006 -0.08877155 -0.003025199 0.15444168
000030 da 65 0e be f9 31 77 3e 83 15 6b 3b a2 65 2d 3e
       -0.13906041 0.24140157 0.0035870976 0.16933301
000040 c5 6d da bd 34 58 f9 3d 37 db c5 3d a8 61 e9 bd
       -0.10665468 0.121750265 0.096609525 -0.113955796
000050 cb 92 8d 3e a6 1f 38 be 69 b4 ef 3d 07 a7 cc 3a
       0.27651057 -0.17980823 0.117043324 0.0015613743
000060 a8 d4 35 b9 5b f6 09 3e 05 d2 d7 3d a8 94 c8 b8
       -0.00017340726 0.13472883 0.10538105 -9.5644325e-05
000070 43 09 86 be 61 78 1e 3b 40 7c ad 36 aa 7b 2f 33
       -0.2617894 0.0024180638 5.1702664e-06 4.0857834e-08
000080 85 c4 cd 36 ce 3f ad 39 92 16 95 be 6b 7e 81 be
       6.132354e-06 0.0003304467 -0.29118782 -0.25291762
000090 bc 18 96 b9 a6 b5 92 be 26 96 d1 3c c0 cb 03 be
       -0.00028628658 -0.28654212 0.025584292 -0.12870693
0000a0 5c 40 1f b9 d2 71 99 b8 35 83 c8 39 fc 29 f0 38
       -0.00015187397 -7.316809e-05 0.0003824473 0.00011451912
0000b0 0e 19 29 39 b3 cc 01 37 df 28 a7 3d d5 6b 1d 3e
       0.0001612643 7.736659e-06 0.081620924 0.15373166
0000c0 95 af 98 bd e1 2a 8b 3e 48 d0 46 3e 4e 28 95 3e
       -0.074553646 0.27181152 0.1941539 0.29132313
0000d0 44 26 4b 3d 8c d9 75 be 41 c4 e3 3a eb 79 4e 3d
       0.04959704 -0.24008769 0.0017377214 0.05040924
0000e0 c6 cb 39 3e 67 bf ec 3e 95 e1 47 3d f5 3c 4d 3d
       0.1814414 0.46239778 0.048799116 0.05010696
0000f0 7e 66 52 3d a5 0f 4d 3d 5e 70 54 3e 2e 6e 2e 3c
       0.051367275 0.050063748 0.2074599 0.010646386

encoder.metadata_encoder.metadata_projection.weight f4 [48, 12]
000000 f7 03 1b 3d 49 0c 82 bc a8 3f 3e bd b8 93 15 3a
       0.037845578 -0.015874999 -0.046447426 0.0005705911
000010 c1 85 a1 be 1f e8 d5 be 27 59 bf be bf 67 eb bc
       -0.3154736 -0.41778657 -0.37372705 -0.028735993
000020 30 7b 05 80 68 33 0f 3e 76 0f ca 3e 11 76 b7 3d
       -5.03369e-40 0.13984454 0.3946492 0.08958066
000030 1d 33 92 ba 2e 29 3b 3c 40 5f e0 3d 87 dc 93 3d
       -0.0011154149 0.011423392 0.109556675 0.07219797
000040 3f c4 bd 3d c3 5f 87 3d 0b 5c e2 3d 13 16 22 3d
       0.092659466 0.06610062 0.11052712 0.039571833
000050 82 b8 d4 3d a5 a8 26 3e d3 09 ae be 67 4b b6 bd
       0.103867546 0.1627527 -0.3399187 -0.089011006
000060 f9 e9 cc bd ef ca 23 bc dc e5 ce 3d 77 38 ee 3d
       -0.10005564 -0.009997114 0.10102436 0.116318636
000070 b3 56 ae bd 58 66 19 3e 61 5b 10 3e 8a e3 d4 3d
       -0.0851263 0.14980447 0.14097358 0.10394962
000080 71 69 c4 3c fc 59 94 be 9a 6f 91 be c8 02 27 3d
       0.02397606 -0.28974903 -0.28405458 0.040774137
000090 a9 0d 17 bd 92 52 d8 bb dc 4b 80 3e a1 6c 8b 3e
       -0.03687826 -0.00660164 0.25057876 0.27231315
0000a0 79 60 8b 3c fb 10 e1 3d 88 7f 1c 3e 04 13 94 3c
       0.017013775 0.10989567 0.15283024 0.018075474
0000b0 6e 43 4c bc e8 d8 8b 3d 92 32 96 be 41 e4 84 3d
       -0.012467248 0.06828481 -0.29335457 0.064888485
0000c0 39 9f 85 bd 36 5c a6 3b a3 12 b7 be c5 04 92 be
       -0.0652451 0.0050769104 -0.35756406 -0.28519264
0000d0 67 63 82 be e8 fe a3 be 93 5d a3 be 2b 57 09 be
       -0.25466463 -0.32030416 -0.3190733 -0.13412158
0000e0 05 82 13 3e ae 82 05 3e a4 ba d4 be 96 3f 96 bc
       0.14405067 0.13038132 -0.41548645 -0.018340867
0000f0 c3 df 47 bb 3b 67 64 3c 45 62 0e 3e fd c8 a8 3d
       -0.0030498363 0.013940628 0.13904674 0.082414605
000100 c1 1f e0 3a 48 28 e4 3c 45 87 a7 3d 4e 32 06 bd
       0.0017099307 0.027851239 0.081800975 -0.032762818
000110 d4 27 8b bd cc 04 08 bd 25 02 e4 3e 67 d6 10 3d
       -0.06794706 -0.0332077 0.44532886 0.03536072
000120 39 ce 3b bd ee a7 11 bd aa f7 d4 be bc 04 a9 be
       -0.045850966 -0.03556054 -0.41595203 -0.33011425
000130 3d 16 5f be 24 4f 84 be ec 15 06 bf 63 98 ca 39
       -0.21785827 -0.2584163 -0.523772 0.0003864198
000140 d9 2b 06 00 36 98 30 3e 9d 84 cd 3e 2e ef 31 3e
       5.66743e-40 0.17245564 0.40140238 0.17376396
000150 2d 2c 28 bd 8b 15 d3 ba cc e7 0c be 17 ef de bc
       -0.041057754 -0.0016104443 -0.13760298 -0.027213616
000160 fc eb b4 be 6f a4 68 be 96 e3 7d be 3d cd 2b bb
       -0.35336292 -0.22718976 -0.24793848 -0.002621486
000170 51 92 e6 bb bc 01 5a 3d e2 54 98 3e 06 d7 be 3c
       -0.0070364852 0.05322431 0.2975226 0.02329589
000180 e8 fe be bc 80 53 8b bc c9 dd 65 bd 07 60 11 3b
       -0.023314908 -0.01700759 -0.056119714 0.002218248
000190 d2 eb 61 bd 40 8c 40 be db e0 ea bd c0 b8 44 3c
       -0.055156536 -0.18803501 -0.11468669 0.012006938
0001a0 0c 3d 14 3d 45 af 82 3d 9b dd f5 3e 26 bc af 3c
       0.03619103 0.06381086 0.48020634 0.02145202
0001b0 bd f6 89 bc c1 7c f6 3c e2 f2 46 3e 7a 50 a4 3d
       -0.016841287 0.030088784 0.1942859 0.08023162
0001c0 a1 56 c5 3d 70 6c 5f be c3 2c 42 be a4 57 37 3d
       0.09635664 -0.2181871 -0.18962388 0.044761315
0001d0 b3 cf 9b 3b 78 1b 9a 3d 14 14 b3 be 0d ce 3d bd
       0.0047549843 0.075247705 -0.34976256 -0.046339083
0001e0 47 d7 2c bc ae 15 01 bd 52 82 af 3c c3 c9 76 be
       -0.010549373 -0.031514816 0.021424446 -0.24100403
0001f0 f9 97 33 bd ff e2 28 be 1c 42 49 be 32 18 6a 3c
       -0.043846104 -0.16492842 -0.19654125 0.014287995
000200 ae 16 54 bd 79 45 1c be 8b 23 b2 3e 4d 4c 57 3c
       -0.05177944 -0.15260877 0.34792742 0.01314075
000210 3f ce 12 3b 7c 9b df 3b 1a 6f 68 be d3 25 78 be
       0.0022400764 0.006823955 -0.22698632 -0.24233179
000220 ca 2a c2 bd 09 c1 ef 3d 9a c0 bb 3d 2a d7 45 3d
       -0.094808176 0.117067404 0.09167595 0.0483009
000230 7d d8 ea 3b fa 53 10 3e 9d 4e c9 3e 7c bb ba 3c
       0.0071669207 0.14094535 0.3931779 0.022794478
000240 6c dd 7e bd de 26 17 bc 9c a1 3c 3e 8a da 11 3e
       -0.062222883 -0.009225575 0.18421024 0.14243522
000250 8c 4c 50 bd 18 2f 9e 3d 7a 08 5c 3d 83 19 c1 bd
       -0.05085425 0.07723826 0.05371902 -0.09428694
000260 8b 3c 97 bd 7d f4 a2 bd f1 94 9c be 18 f6 42 3d
       -0.073845945 -0.07956789 -0.30582383 0.047597975
000270 a8 d3 e0 ba ab e4 31 3d 64 98 6a be b3 21 8c be
       -0.0017152922 0.043430965 -0.22909695 -0.2736946
000280 6e d4 dd be 8c 23 1a be 57 87 81 be 13 c9 1e 3c
       -0.43326133 -0.15052623 -0.2529857 0.0096914945
000290 2b 1e a1 32 44 2f 47 3e 9e 68 b2 3e 47 25 8c 3d
       1.8756586e-08 0.19451624 0.34845442 0.068430476
0002a0 7a a9 43 bd fd cd 6b bb d7 d8 59 3d 7b b5 bd 3d
       -0.047769047 -0.0035980933 0.05318531 0.0926313
0002b0 a9 02 85 bd 11 ee 41 bd 21 6d bc bd 1c 60 88 bc
       -0.06494648 -0.04734618 -0.09200502 -0.016647391
0002c0 69 fe f9 3d 31 50 45 3e 86 0f 20 bf 97 0b 7c bd
       0.12206728 0.19268872 -0.62523687 -0.06153449
0002d0 6a 22 6a bd 12 f8 1c bc ba 53 0c bf 14 41 b7 be
       -0.057161726 -0.009580629 -0.54815257 -0.35791838
0002e0 16 c1 71 bd ba 76 15 be f9 1e b5 be 6d 6a 24 bb
       -0.05902203 -0.14596072 -0.35375193 -0.0025087849
0002f0 ae a9 05 80 8f 76 2f be 85 d1 a5 3e 40 fd c0 3d
       -5.20047e-40 -0.1713507 0.32386413 0.094233036
000300 45 7e 9a bd f5 30 1b 3d 2f 67 5e be 98 fc 84 be
       -0.07543615 0.037888486 -0.21719049 -0.25973964
000310 e0 1a 3d be ff d2 82 be 29 e3 a3 be 78 df 86 bb
       -0.18467283 -0.25551602 -0.32009247 -0.004115995
000320 05 c7 05 00 c0 c8 fa bc 6f 54 d0 3e c9 78 0c 3e
       5.30572e-40 -0.030613303 0.40689418 0.13717951
000330 7f b8 1e bb 79 5b 0d bc 73 18 2a be 33 4d b3 be
       -0.0024218855 -0.008627766 -0.16610889 -0.35019836
000340 57 b4 42 be 89 50 a6 be 40 38 18 be 9b 33 65 bb
       -0.19014107 -0.32483318 -0.14865208 -0.0034973386
000350 4a 24 06 80 3b df d4 ba 76 b6 9b 3e 0c 16 bb 3d
       -5.64031e-40 -0.0016240844 0.30412644 0.091350645
000360 2d 4f a3 3d 3b fb e0 b9 f9 7b 82 3e d5 e7 85 3e
       0.07974086 -0.0004291179 0.2548521 0.26153436
000370 e1 f3 0c be 33 4a 76 be 0d 0d 54 be 5a 07 f8 bd
       -0.13764907 -0.24051742 -0.20708103 -0.12110777
000380 ff ea a3 3c 56 a4 90 bd 3f 38 df 3e 29 9a 2c 3c
       0.020009516 -0.070625946 0.435976 0.0105348015
000390 41 b7 80 3c 17 0c 0f 3d bb 3f 24 be 2e 8d 9d be
       0.015712382 0.03492364 -0.16039936 -0.30771774
0003a0 4f 41 20 be 5b 99 a5 bd a3 d4 44 3d a3 3c 97 bb
       -0.15649913 -0.08085891 0.04805435 -0.0046153828
0003b0 d2 db cc 3c ab a7 02 be 88 df d6 3e 9a 51 f0 bc
       0.025007162 -0.12759273 0.41967416 -0.029335786
0003c0 92 95 58 bd 7c 5a cd 3d 68 50 8d bd ae 48 b1 be
       -0.052877016 0.10027024 -0.06900102 -0.34625763
0003d0 49 6a 6a be 0d d8 b2 be c9 a4 2b be f2 60 05 bc
       -0.22892107 -0.3493046 -0.1676208 -0.008140789
0003e0 a2 d0 05 00 f7 15 53 3e 39 b3 c6 3e b3 1c e2 3d
       5.34021e-40 0.20613848 0.3880861 0.1104063
0003f0 fb 50 1f bd 6e 35 41 3d 54 f0 96 bd 05 69 d1 bd
       -0.03889559 0.047170095 -0.07370058 -0.10225109

encoder.metadata_encoder.metadata_projection.bias f4 [48]
000000 50 ec b2 be 17 5a 8a bd d4 c0 f9 3c ef 66 f5 bb
       -0.34945917 -0.067554645 0.030487455 -0.0074890773
000010 e9 fc 50 be ee 1f 5e be 4d e5 11 bf ac 00 21 be
       -0.20408978 -0.21691868 -0.5699051 -0.15722913
000020 0e ec 87 be 69 9d 9f 3c 6a 9b 75 be d0 df 54 be
       -0.26547283 0.019484239 -0.23985067 -0.20788503
000030 a5 27 ef bd 76 61 89 be 99 e5 16 3d f3 42 be be
       -0.116774835 -0.2683217 0.036840055 -0.37160453
000040 63 9d 00 bf 19 43 e1 be e3 0b 67 bd ba 25 13 be
       -0.50240153 -0.43996504 -0.05640782 -0.1436986
000050 05 5a f1 be 70 ad 4b bd 49 74 ae be b3 2b 8b 3b
       -0.47138992 -0.04972595 -0.34073094 0.0042471527
000060 51 5f 4a bd 5c 8c cc be 62 15 2d bd 98 c7 a6 be
       -0.049407307 -0.39950836 -0.04225672 -0.32574153
000070 38 6f b7 be 9a 16 26 be c6 e8 89 be 89 8e 75 be
       -0.3582704 -0.1621956 -0.26935405 -0.23980154
000080 d8 0d 9b be 2c 30 0d be c0 96 f0 bd f7 c6 42 3d
       -0.30284 -0.13787907 -0.11747503 0.04755303
000090 f3 fa f9 be 4d 00 8a bd 98 7e 31 be d5 a7 4f be
       -0.48824272 -0.067383386 -0.17333448 -0.20278867
0000a0 76 63 18 be f9 a8 fb bd 01 73 13 bd a7 71 77 be
       -0.14881691 -0.12288088 -0.03599835 -0.24164449
0000b0 fa 1c bb bc e5 f1 ab be 1e 11 80 bd 79 61 37 be
       -0.022840966 -0.33582988 -0.06253265 -0.17908277

encoder.encoder_layers.0.0.weight f4 [128, 80]
000000 1f ee b5 bd 63 c6 ac 3c 6b e0 05 bd 10 e2 07 bd
       -0.088833086 0.021090692 -0.032684725 -0.033174574
000010 5a a8 d6 3d c6 5f b6 bc c5 dc b4 bd e2 d2 09 bc
       0.10481329 -0.022262465 -0.08831171 -0.008412095
000020 58 bb 9d 3d 7c 1b c1 bd 31 a9 80 bd 58 5e aa bd
       0.077017486 -0.0942907 -0.06282271 -0.08318776
000030 ff 91 00 3e d6 d8 3f 3e da 47 07 3d 80 5a 19 3e
       0.12555693 0.1873506 0.033027507 0.1497593
000040 4c fb 86 bc 67 40 5c bd f9 b4 96 bc de 05 a0 3b
       -0.01647725 -0.053772356 -0.018396841 0.004883512
000050 7c e6 98 bd 36 c9 39 bc 37 3a 9b 3b 78 a9 7c 3d
       -0.074658364 -0.011339476 0.0047371644 0.061685055
000060 4c 34 be bd fd 4d c3 bc 84 54 15 3e 7c c7 36 ba
       -0.092873186 -0.023840899 0.14583021 -0.00069724745
000070 32 17 9d bd c3 86 1e bc c8 df 5f 3e 07 0d ce bb
       -0.0767044 -0.009675684 0.2186271 -0.006288174
000080 2e 3d 23 3c c6 8e 8a be 45 f7 2b be 2f 88 f0 bd
       0.009963317 -0.27062052 -0.16793545 -0.11744725
000090 26 2c 6c bc 35 b9 8c 3d 08 82 4b 3d 97 74 2e 3b
       -0.014414823 0.06871263 0.049684554 0.0026619786
0000a0 e0 a2 fb 3d 09 28 07 be 8a 6c 42 3e 38 84 38 3e
       0.12286925 -0.13198866 0.18986717 0.18019187
0000b0 60 96 8e be 4c 25 fb 3d a4 bb 19 be 99 46 14 3e
       -0.27849102 0.12262973 -0.15012985 0.14480056
0000c0 61 d0 b7 3d 69 0c 37 3e 06 6a 08 3e 3a 69 4c 3e
       0.08975292 0.17875828 0.13321695 0.19962016
0000d0 f9 75 c4 3d 31 f9 f0 bd 91 6b d7 3d 2f 4e af bd
       0.09592814 -0.117662795 0.105185635 -0.08559834
0000e0 bf 12 14 3d e4 d6 a7 3d c5 ba 8f bd 87 32 3e 3e
       0.03615069 0.08195284 -0.07018045 0.18573962
0000f0 62 18 87 bd 68 93 67 3d 89 81 33 3e ef 81 e2 bc
       -0.065964475 0.056537062 0.17529882 -0.027649848
000100 4f 8d e7 3d 7f 22 42 3d 04 47 1f bc 1f e7 69 be
       0.11306249 0.04739618 -0.009721521 -0.22842072
000110 e2 d8 7b 3d d8 58 81 bc 4a fa 1f 3b ce 3d 42 3e
       0.061486132 -0.015789434 0.0024410659 0.18968889
000120 2b 93 05 3e 93 3a 83 3e fc cc de bd 2b ca 08 3e
       0.13044421 0.25630626 -0.108789414 0.13358371
000130 d9 ad 88 be a3 eb af 3d 0b 4b 46 be 98 e0 f0 3d
       -0.26695135 0.08589866 -0.19364564 0.11761588
000140 db da 87 3c 69 58 de 3d 40 80 5f 3d fe fa 16 3e
       0.01658385 0.10856707 0.054565668 0.14744183
000150 a9 47 11 3e e1 32 ca bd 4a 77 24 bd f4 4f 4b bd
       0.14187492 -0.09872986 -0.040152825 -0.049636796
000160 28 97 d6 bd 0e 25 62 3e e8 b1 05 3d ae ce 80 3e
       -0.104780495 0.22084448 0.032640368 0.25157684
000170 b9 6b 1f bb db 13 93 3d 92 ba 4a 3d fb 1b 3a 3d
       -0.0024325682 0.071815215 0.049494334 0.04543684
000180 f3 b2 d6 bd 0e 90 70 3e 89 a4 07 bc 0d aa c8 3d
       -0.104833506 0.23492453 -0.008278974 0.097980596
000190 73 a6 80 bd ae a0 d7 bd bb 52 2d 3d 18 1d a6 3d
       -0.06281748 -0.10528694 0.042315226 0.08111018
0001a0 06 c9 20 3e 89 1c 33 bd 5b ac aa bd 91 1e 01 be
       0.15701684 -0.043728385 -0.083336554 -0.12609316
0001b0 1d 48 74 bc a0 fb e2 3d 1d fa f0 3c 25 1a 9b 3d
       -0.014909771 0.1108315 0.029416138 0.07573346
0001c0 82 2e 8d bd 2f 1d 6a 3d 96 3e 97 3d b0 f6 93 bd
       -0.06893636 0.057156738 0.07384984 -0.07224786
0001d0 a6 23 28 3d 81 06 4c bd 8e 55 15 3d 2e 56 08 bc
       0.041049622 -0.04981089 0.036458544 -0.008321328
0001e0 33 af 06 be e9 91 63 3d 12 36 18 3d db 4b 47 bd
       -0.1315277 0.055559073 0.03716094 -0.048656326
0001f0 a3 db a5 3d 59 52 15 3d ad 51 3f 3e ed e4 08 be
       0.08098533 0.036455486 0.186835 -0.13368578
000200 81 75 a5 bb d9 7e 9c bd bb c3 ff bd 9d a9 d2 3c
       -0.005049408 -0.07641382 -0.124885045 0.025715644
000210 2a d1 a9 bd f8 22 57 3e 61 76 18 bd 11 5b 85 3e
       -0.08291848 0.21009433 -0.03722227 0.2604604
000220 40 7f 84 bd 87 e4 6c 3d 09 5a 23 3a 15 d5 7f bd
       -0.064695835 0.05783513 0.0006231373 -0.06245907
000230 eb 00 80 bd 1a 44 f0 bd c6 26 fd bd 69 f4 e3 bd
       -0.06250175 -0.11731739 -0.12360911 -0.11130602
000240 e7 8d 03 be f5 09 d7 3c f3 12 3f 3d 8f 3c 27 3e
       -0.128471 0.026249865 0.04664893 0.16331695
000250 eb e2 c3 3a da 1d 6a 3e 94 73 c5 bd 4d 7d 92 be
       0.0014944946 0.2286295 -0.096411854 -0.28611222
000260 3c 7d 82 bd 8b 57 d6 3b 49 e2 0e 3e 75 17 16 be
       -0.06371543 0.0065411977 0.13953508 -0.14657386
000270 a6 2c b4 bd ae 81 c1 bd 6f 89 3c 3d fc e3 19 bd
       -0.087975785 -0.094485626 0.046029504 -0.03757094
000280 b1 7e 16 3d b6 1a 10 3e 70 b8 4f 3b 9d 55 bf 3d
       0.036741916 0.1407269 0.0031695627 0.09342501
000290 bc 66 f7 3d 50 c3 80 3c 34 bb 52 3e ef 58 16 bd
       0.12080142 0.015718132 0.20579225 -0.036705907
0002a0 b2 3c 88 bc 22 88 93 3d cb 14 46 3d 57 69 a7 3d
       -0.016630504 0.072037 0.048359673 0.08174389
0002b0 8d 20 99 3d b0 8a 16 3e cb 51 6b 3d eb 8d 9d 3d
       0.07476912 0.14701343 0.05745105 0.07693084
0002c0 6a 6a f7 3d 54 e6 41 bd 50 98 cb 3d e0 46 47 3e
       0.12080844 -0.0473388 0.09941161 0.1946063
0002d0 95 12 a7 3d df 51 09 bd 31 03 1e 3e bf 0b 50 3d
       0.08157841 -0.033525344 0.15430905 0.050792452
0002e0 8f 8e a6 3d 4f 9f 8b bd 05 c6 c9 3d 15 64 fb bd
       0.0813266 -0.06817495 0.09852222 -0.122749485
0002f0 b0 45 73 3d e1 79 d1 3d a9 40 27 3e e8 af b5 3c
       0.05939263 0.10228325 0.1633326 0.022178605
000300 d9 67 81 3d f4 2f 0c be 27 42 d5 bd 43 7f 26 be
       0.063186355 -0.13690168 -0.10413008 -0.16259484
000310 cc fa 7e bb dd dc 2e 3e d9 88 c5 3d 63 d8 4e 3e
       -0.003890681 0.1707644 0.09645242 0.20199732
000320 95 91 4a 3d 1d 7e 06 bd 86 c6 4c 3e 0d 23 ba bd
       0.049455244 -0.032835115 0.19997606 -0.09088717
000330 c5 40 b0 bd c2 cd 99 3e 89 7d 8f bd 8f 1b 6e 3e
       -0.08606104 0.30039793 -0.07006366 0.232527
000340 5a a4 58 3e 93 be 7d 3e e0 b4 29 3c 8e 5b e2 bc
       0.21156445 0.2477973 0.010358065 -0.027631547
000350 f3 24 78 3e 33 26 dd bd 3c f0 80 3d 94 6d eb 3c
       0.24232845 -0.107983015 0.06295821 0.028738774
000360 58 09 14 3d 96 2e 49 3e 41 78 4e bc 5b 19 50 3b
       0.036141723 0.19646677 -0.012601913 0.0031753394
000370 e0 9c 81 3e f7 75 26 3e 73 99 2f 3c b0 f0 38 3e
       0.25315 0.16255938 0.0107177375 0.18060565
000380 a8 96 30 3e 14 10 36 3d cd 42 9f bd a8 cd 10 3c
       0.17244971 0.044448927 -0.07776413 0.008838095
000390 f5 a0 8a 3e 8b a5 d3 3a 9e 1c 1b 3e 55 3b 9f bd
       0.27075925 0.0016147358 0.15147635 -0.077749886
0003a0 cc 36 11 3c 11 35 5a bd bd 9d 0a be 23 95 90 3d
       0.008863162 -0.053273264 -0.13536735 0.070596956
0003b0 66 73 89 bd 7f 5c 94 3c 9f df 88 3b 0c 0c 1b 3e
       -0.06711464 0.018110512 0.0041770483 0.15141314
0003c0 eb 28 46 bd 9d 02 3e bd bd de f4 3c 7a 1e e7 3d
       -0.048378866 -0.04638921 0.029891366 0.1128511
0003d0 c9 64 89 bc 05 7b 2f 3e bf d4 5c 3d cf 9e e8 3d
       -0.01677169 0.17136772 0.053913828 0.11358415
0003e0 f4 87 61 3e a2 24 89 bd 5c 51 45 3e 4d 9d cc bd
       0.22024518 -0.0669644 0.19269317 -0.0999094
0003f0 92 c6 08 3e 83 17 fd 3d 8d e3 48 3c e4 49 66 3e
       0.13356999 0.12358 0.012261284 0.22489125

encoder.encoder_layers.0.0.bias f4 [128]
000000 a2 df 58 b7 4a d2 9f 36 fd 1e 39 37 64 46 54 37
       -1.2926672e-05 4.76305e-06 1.1034074e-05 1.2652574e-05
000010 bf e1 1f b7 91 fc 11 b6 a8 28 22 b6 13 b9 b6 36
       -9.529699e-06 -2.1753697e-06 -2.4163546e-06 5.445568e-06
000020 08 34 4d b8 80 36 49 b7 29 03 07 b7 96 55 c1 b5
       -4.8924267e-05 -1.1993223e-05 -8.047363e-06 -1.4404529e-06
000030 33 3a c7 b6 27 26 a1 b6 a6 8c 40 37 5b 23 b5 36
       -5.9374374e-06 -4.8026154e-06 1.1476839e-05 5.3983363e-06
000040 f1 93 0d b7 43 45 83 37 03 93 22 38 bc fc 90 b7
       -8.4387e-06 1.564867e-05 3.8760725e-05 -1.7283826e-05
000050 0f 6c 8a b7 d2 cb 98 b5 63 88 d0 b7 58 26 87 36
       -1.65012e-05 -1.1384202e-06 -2.4859042e-05 4.0277773e-06
000060 9b ca 3c 38 b9 f0 74 b5 b8 bf 41 b7 4b a5 79 36
       4.5011384e-05 -9.124738e-07 -1.1548334e-05 3.7200105e-06
000070 88 c2 55 36 2c 83 5b 38 ae 8d 37 b7 e9 fe 61 b6
       3.1852705e-06 5.2335832e-05 -1.0940637e-05 -3.367599e-06
000080 88 71 30 b6 bb d3 80 b6 ec f6 8e b6 0c 0a 12 b8
       -2.6292128e-06 -3.839346e-06 -4.2606753e-06 -3.481847e-05
000090 3b 2e 78 36 76 db 42 b7 26 f6 21 37 11 69 3d b8
       3.698179e-06 -1.1614398e-05 9.653659e-06 -4.5158962e-05
0000a0 51 cf a2 37 74 c1 9c b7 c9 f4 d5 36 d0 02 a5 37
       1.9408444e-05 -1.8686733e-05 6.3763914e-06 1.9670842e-05
0000b0 bd 32 e4 36 84 d5 d7 b6 60 ff b4 b7 e1 06 dd 37
       6.800836e-06 -6.432356e-06 -2.157659e-05 2.6348456e-05
0000c0 a9 4b fa 36 c2 28 7c 38 a3 56 b4 b7 05 a1 82 b8
       7.4593886e-06 6.011944e-05 -2.1498015e-05 -6.228875e-05
0000d0 a9 df 14 37 41 1e 92 b7 12 f2 0f 37 48 70 43 35
       8.873562e-06 -1.7418644e-05 8.579826e-06 7.280655e-07
0000e0 37 23 dc b6 f3 8b a4 b6 ef bd 89 36 e5 00 ab 37
       -6.5606105e-06 -4.903873e-06 4.1050293e-06 2.0385205e-05
0000f0 0a 68 bf b7 f4 84 39 37 23 c5 98 b7 6c 6c ce b5
       -2.2817421e-05 1.1057815e-05 -1.8211611e-05 -1.5379751e-06
000100 4e 85 87 b7 4d 63 73 b7 b6 10 29 b6 11 07 3a 38
       -1.6155329e-05 -1.4507049e-05 -2.519269e-06 4.4352437e-05
000110 2e 8b 71 35 5c 69 6b b7 84 ab 8f b6 e8 12 ea b6
       8.998203e-07 -1.4031622e-05 -4.281699e-06 -6.9759444e-06
000120 bb 70 9f b6 79 a6 73 36 a2 fb e1 b6 ae 5a 9c 36
       -4.751693e-06 3.6306722e-06 -6.7348165e-06 4.659719e-06
000130 63 f0 44 b8 b7 85 97 37 32 ee ec b7 6d 20 30 b7
       -4.695392e-05 1.8062869e-05 -2.824431e-05 -1.0497967e-05
000140 33 f4 7f 37 c9 c8 0e b7 c6 50 d4 38 73 2e ca 36
       1.52560415e-05 -8.5106085e-06 0.00010123993 6.0254765e-06
000150 9d 99 85 37 8a ef 24 b6 74 d9 83 b6 3b d7 9f 37
       1.5926367e-05 -2.4577334e-06 -3.929419e-06 1.9054502e-05
000160 0b be fe 36 f3 05 03 b8 dc d8 1f b6 ea 69 16 b7
       7.591914e-06 -3.1238375e-05 -2.3819075e-06 -8.965357e-06
000170 81 2e 86 36 1e 34 83 b6 db 58 a9 35 77 3e 5c 37
       3.998925e-06 -3.9101715e-06 1.2617342e-06 1.3127566e-05
000180 9f af 04 b7 07 8e b2 37 91 1b 2b 37 12 6c 5b 37
       -7.908703e-06 2.128539e-05 1.0198813e-05 1.3078579e-05
000190 a8 2b 19 38 fd c0 c3 b7 19 1e e1 b7 06 97 02 b6
       3.65187e-05 -2.3335679e-05 -2.6836105e-05 -1.9459417e-06
0001a0 89 e6 0a 36 3d 99 8f b7 e0 6f 85 38 d6 8b 2d b7
       2.0697792e-06 -1.7118286e-05 6.3627725e-05 -1.0344162e-05
0001b0 e9 23 f7 36 8c 44 31 b7 27 44 e2 b4 5a ae b7 36
       7.365354e-06 -1.0565982e-05 -4.2145368e-07 5.474122e-06
0001c0 67 d6 57 37 09 8f 93 b7 23 a7 39 b7 5e c9 13 b7
       1.2864918e-05 -1.7590371e-05 -1.1065774e-05 -8.808767e-06
0001d0 32 56 cf 36 66 7e 73 37 7f b0 90 b5 49 d8 8e b6
       6.179115e-06 1.4513358e-05 -1.0780203e-06 -4.2571087e-06
0001e0 b8 3a 07 b7 f4 b5 3e 38 e9 53 c2 b6 eb e1 0c 35
       -8.060299e-06 4.5468987e-05 -5.791419e-06 5.248282e-07
0001f0 31 1e e7 b6 db b4 54 b7 29 1b 21 b6 14 97 e8 37
       -6.887851e-06 -1.2678293e-05 -2.4006679e-06 2.7726906e-05

encoder.encoder_layers.0.1.weight f4 [128]
000000 02 e8 80 3f 27 65 77 3f d6 92 6a 3f e8 9c 72 3f
       1.0070803 0.9663872 0.91630304 0.9477067
000010 32 70 5e 3f 90 4e 71 3f 80 b2 62 3f 70 12 5d 3f
       0.86889946 0.942605 0.8855362 0.8635626
000020 67 c8 87 3f fe 0c 4c 3f 8e 3d 74 3f 46 15 7a 3f
       1.0608033 0.79707325 0.95406425 0.9768871
000030 9c e9 65 3f ca d3 61 3f 96 ae 82 3f 42 6b 69 3f
       0.89809585 0.8821379 1.0209529 0.9117929
000040 a9 23 6d 3f d3 97 5d 3f 76 58 8d 3f cd 11 83 3f
       0.9263254 0.8655979 1.1042621 1.0239807
000050 1a 6a 77 3f 4a c2 86 3f 0b b4 84 3f 3e 74 79 3f
       0.96646273 1.0528042 1.0367445 0.97442997
000060 8e 23 81 3f 15 08 5f 3f 11 34 85 3f be a7 6d 3f
       1.0088975 0.8712171 1.0406514 0.9283408
000070 cc 80 7e 3f ef 85 7f 3f 96 16 72 3f 81 87 77 3f
       0.9941528 0.9981374 0.94565713 0.9669114
000080 44 bf 7e 3f 6e 22 69 3f de 20 5d 3f 24 87 85 3f
       0.995106 0.9106816 0.86378276 1.0431867
000090 09 58 75 3f 6f ba 5f 3f d1 70 56 3f 9b f5 71 3f
       0.95837456 0.8739385 0.83765894 0.9451539
0000a0 f4 67 72 3f 0d 4b 82 3f 76 3d 60 3f 8d 0d 7a 3f
       0.9468987 1.0179154 0.8759378 0.97676927
0000b0 89 23 5d 3f 25 f5 8c 3f 84 33 7c 3f 5d 36 87 3f
       0.8638235 1.1012312 0.98516107 1.0563465
0000c0 82 25 6f 3f ac 27 68 3f 88 98 6f 3f 32 ae 86 3f
       0.9341661 0.90685534 0.9359212 1.052191
0000d0 67 4e 68 3f 58 57 66 3f f2 1b 7a 3f 4e e0 84 3f
       0.9074463 0.89977026 0.9769889 1.0380952
0000e0 63 d3 54 3f ed ce 65 3f 1a df 6c 3f b4 b5 88 3f
       0.8313505 0.8976887 0.92527926 1.0680451
0000f0 de 97 80 3f 52 50 6d 3f ed 2a 8a 3f 70 c1 65 3f
       1.0046346 0.92700684 1.079435 0.8974829
000100 5a 71 81 3f 09 9c 83 3f 1a 70 61 3f 5c a2 68 3f
       1.0112717 1.0281993 0.8806168 0.9087274
000110 20 c9 6a 3f 2f c0 65 3f db cc 81 3f 0a ff 71 3f
       0.9171314 0.89746374 1.0140642 0.94529784
000120 46 17 75 3f 89 47 73 3f d3 f7 70 3f c4 87 60 3f
       0.9573864 0.9503103 0.9412815 0.8770716
000130 e9 c0 69 3f ad e5 7a 3f 79 1d 77 3f 87 b0 69 3f
       0.9130998 0.9800671 0.96529347 0.91284984
000140 c2 fa 79 3f ce 79 6a 3f 1c 90 80 3f bd ea 79 3f
       0.9764825 0.9159211 1.0043979 0.9762381
000150 65 87 78 3f 75 1c 52 3f 2c d4 5a 3f 2b bd 91 3f
       0.97081596 0.8207467 0.8548 1.1385854
000160 a6 90 78 3f 8f dd 74 3f e1 f7 82 3f e9 65 7c 3f
       0.97095716 0.9565057 1.0231897 0.98593
000170 78 24 73 3f 98 2c 6a 3f 04 70 65 3f 3c 8e 7c 3f
       0.9497752 0.91474295 0.8962405 0.9865453
000180 26 64 5b 3f 29 07 54 3f 8c 2d 70 3f 62 b2 7b 3f
       0.8569969 0.82823426 0.938195 0.98319066
000190 c4 a9 5a 3f f1 75 62 3f 38 d2 72 3f 6b 7b 60 3f
       0.8541529 0.88461214 0.9485202 0.8768832
0001a0 70 89 73 3f 5a 95 57 3f 78 3a 85 3f bb f2 73 3f
       0.9513159 0.8421227 1.0408468 0.9529225
0001b0 e6 95 6d 3f dc f9 63 3f 11 3d 86 3f 2a 26 62 3f
       0.9280685 0.8905313 1.0487386 0.88339484
0001c0 d6 40 5d 3f 2d 7a 6c 3f fa 1f 89 3f dd e7 61 3f
       0.86427057 0.92373925 1.0712883 0.8824442
0001d0 a9 d7 56 3f 24 29 5c 3f e5 f4 65 3f 00 74 50 3f
       0.8392282 0.86000276 0.89826804 0.81427
0001e0 3d 6f 88 3f 80 03 7b 3f 18 f5 61 3f 88 9c 60 3f
       1.0658947 0.98052216 0.8826461 0.8773885
0001f0 43 c2 62 3f f5 2b 61 3f 80 51 60 3f 32 89 60 3f
       0.8857767 0.879577 0.8762436 0.87709343

encoder.encoder_layers.0.1.bias f4 [128]
000000 bb 29 f7 bc d4 af 98 3d b4 82 65 be 2d 74 21 be
       -0.030171266 0.074554116 -0.2241314 -0.15766974
000010 d2 ce 5a be ce 12 eb bd 68 5c 37 be 20 c1 01 3e
       -0.21367958 -0.11478196 -0.17906344 0.12671328
000020 0e a6 7f 3d ab ab 50 be 5f 3d 8d 3d ad 2c a2 bc
       0.06241422 -0.20377986 0.06896471 -0.019796694
000030 94 98 1a be 8c e2 17 be 2b 6c 81 3c 50 c0 de 3b
       -0.15097266 -0.14832515 0.015798649 0.006797828
000040 1c d2 5d bd 9b 69 c6 bd 8d b8 2a be 6f f1 a8 3c
       -0.054155454 -0.096881114 -0.16671963 0.020622937
000050 58 f7 70 3d 1e ac 45 be a4 e8 81 be 09 d2 93 3d
       0.058829635 -0.19303939 -0.25372803 0.072177954
000060 a3 80 2d 3e 99 85 7d be e6 22 31 3e 17 f3 9d 3d
       0.16943602 -0.24757995 0.17298469 0.07712381
000070 43 90 8b bc e2 71 19 bd 9b 65 42 bd da d9 bf bd
       -0.017036563 -0.037462123 -0.04746018 -0.09367724
000080 41 42 49 be 27 ea 93 be 49 17 bf bc 97 52 61 be
       -0.1965418 -0.28889582 -0.023326533 -0.22004162
000090 59 80 bb bd f7 68 08 3c 62 1b 42 bd 34 14 df bb
       -0.0915534 0.008325807 -0.047389396 -0.0068078283
0000a0 dd 5a ec 3d 2b ad 33 be a6 96 5a bc de cb 00 be
       0.11540768 -0.17546527 -0.013341581 -0.12577769
0000b0 5c f7 14 bd 43 ce 0c be 99 5d 02 be 84 06 96 3c
       -0.036368713 -0.13750558 -0.12731017 0.018313654
0000c0 e0 27 d9 bd 92 1d 4d be 4d 2c ec bc fd db 1d bd
       -0.10603309 -0.20030811 -0.028829718 -0.038539875
0000d0 55 87 5b bc 58 88 60 3d b7 6a bd bd d9 52 3a bd
       -0.013398965 0.054817528 -0.0924887 -0.045489166
0000e0 c5 30 8f bd 0e 27 0f bd d4 6a 29 be 3a 60 cf 3d
       -0.06991724 -0.034949355 -0.16544658 0.10125776
0000f0 ea 63 3c be ca ca ad bd d5 40 10 be d9 fa cd be
       -0.18397489 -0.084859446 -0.14087231 -0.40230444
000100 ff 18 da bc cb 43 e5 bd 60 90 7b bd 0a 28 79 be
       -0.026623247 -0.11194571 -0.061416984 -0.2433168
000110 60 5b 21 be 09 d9 79 3d c7 f3 c8 bd fd 8e 33 bd
       -0.15757513 0.060997996 -0.09812122 -0.043837536
000120 9d 18 ee bd 55 ed aa be 57 45 83 3d 5b e0 d1 bc
       -0.11625788 -0.33384195 0.0640971 -0.025619676
000130 c4 6e 66 be 93 3e 15 bd 12 55 08 3e ba 7a 3a 3d
       -0.22503191 -0.03643663 0.13313702 0.045527197
000140 f8 aa 9a 3b d6 c2 93 3c 46 b3 3b be ce 01 6a bd
       0.004720088 0.018037241 -0.18330106 -0.057130627
000150 dd 90 bc 3d f4 6c 14 be bd ce 19 3c f0 6b 64 be
       0.09207318 -0.14494687 0.009387669 -0.223068
000160 25 9a 7b ba 61 78 a2 bd b1 8e 23 3e 2a b5 a2 bd
       -0.00095978595 -0.07933117 0.15972401 -0.079447106
000170 2f c5 af be 94 8e 87 3d a2 4d b6 bc a0 6e c8 bd
       -0.34330127 0.066189915 -0.022253815 -0.09786725
000180 86 a6 9f 3d 68 d9 af be 72 59 e4 bc 9c 12 dd bc
       0.07795434 -0.34345555 -0.027874682 -0.026986413
000190 2a 14 64 3e a6 94 7b bd 32 45 65 bd 46 ce a6 3a
       0.22273317 -0.06142106 -0.055974193 0.0012726269
0001a0 c1 a1 6c bd 27 33 c6 3d 10 93 ad bd 7b 71 51 3d
       -0.057771448 0.09677725 -0.084753156 0.051133614
0001b0 b7 3c 96 bd a6 06 30 3d da 35 1a 3e 05 38 db bb
       -0.07335799 0.04297509 0.15059605 -0.0066900277
0001c0 32 7f b8 bc 9d 9b 9f 3b ac 43 a2 3d 2c 81 46 3d
       -0.022521589 0.0048708455 0.07923064 0.04846303
0001d0 c9 5b 92 bd a3 d9 72 be 51 dd 8e 3c ee a5 45 be
       -0.07146413 -0.23715834 0.017439516 -0.19301578
0001e0 6f a4 11 3e 1e 57 9c be 56 e4 2a be 1a 9e 2b be
       0.14222883 -0.30535215 -0.16688666 -0.1675953
0001f0 d5 cd 1d be af 69 41 bd fc 15 05 be 29 f8 99 be
       -0.1541055 -0.04721993 -0.12996668 -0.30072144
