scripts/abr_clustering/audiometric_deep_clustering/experiments/full_scale_audiometric_clustering_memory_optimized/20250619_170021_evident/checkpoints/joint/joint_epoch_0.pt (torch, 760611 bytes, 223 tensors)

encoder.abr_encoder.abr_projection.weight f4 [32, 6]
0	0xbd8aa717	-0.06770151
1	0x3d8265f3	0.063671015
2	0xbd8b774d	-0.06809864
3	0xbe47a385	-0.19495972
4	0xbe9a42ad	-0.30128995
5	0xbea436d5	-0.32073084
6	0xbd24b96f	-0.040215906
7	0x3cc675c3	0.024226075
8	0xbd6e1535	-0.058125693
9	0xbef76980	-0.48322678
10	0xbd8ed0a6	-0.0697339
11	0x3eb8abc8	0.3606856
12	0xbe53362e	-0.20626137
13	0xbe8f2ebd	-0.27965346
14	0x3e37e8b6	0.17959866
15	0xbe108c0e	-0.14115927
16	0xbd8d0dad	-0.06887374
17	0xbea9e189	-0.33179882
18	0xbebb28e8	-0.36554646
19	0x3d7292a8	0.059221894
20	0x3e89b435	0.268953
21	0xbe3a7c0e	-0.18211386
22	0xbddc38f8	-0.107530534
23	0x3de3c93e	0.11122368
24	0x3e263454	0.16230899
25	0xbe745abe	-0.2386274
26	0xbe983bc3	-0.29733095
27	0x3e2e0889	0.16995443
28	0xbefaca1b	-0.4898232
29	0xbe8910a4	-0.26770508
30	0xbe1bac15	-0.15202363
31	0x3e98efd8	0.29870486
32	0x3e5fffb7	0.21874891
33	0x3f035a87	0.5131001
34	0x3db30208	0.08740622
35	0xbdfb751f	-0.122781985
36	0x3e99f17c	0.3006705
37	0x3ea32728	0.3186581
38	0x3e0ac5dc	0.1355204
39	0x3e9aaf5e	0.3021192
40	0xbe169df1	-0.14708687
41	0x3d70af24	0.058760777
42	0x3ea38d23	0.31943616
43	0x3dbdbf6f	0.09265029
44	0xbe96fa82	-0.29487997
45	0x3ee6846f	0.45022914
46	0x3e28c03e	0.16479585
47	0x3eccef9c	0.40026557
48	0x3eaa9762	0.3331862
49	0x3e8777e8	0.2645867
50	0x3ecca907	0.39972708
51	0x3e902f18	0.2816093
52	0xbe33904f	-0.17535518
53	0xbc92ab6a	-0.017904002
54	0xbe6b8a61	-0.23002006
55	0xbeaea065	-0.34106746
56	0xbe3f8c5f	-0.18705891
57	0xbe955621	-0.29167274
58	0xbdc82e82	-0.09774496
59	0xbd6c6046	-0.057709
60	0x3d39f509	0.0453997
61	0xbe9e7c92	-0.30954415
62	0xbcda67bd	-0.026660794
63	0xbe4a0eb4	-0.19732171
64	0xbdc3fdfe	-0.095699295
65	0xbea3e23d	-0.32008544
66	0xbe9ad1e0	-0.30238247
67	0x3deca06a	0.11554034
68	0xbeb2b3c5	-0.34902778
69	0xbd2dd7cc	-0.042442128
70	0xbde4434b	-0.111456476
71	0xbeae5ebc	-0.34056652
72	0x3de66765	0.1125019
73	0x3de6a2c8	0.11261517
74	0x3f07b049	0.53003365
75	0xbe38ea86	-0.18058214
76	0xbd66f9a9	-0.05639044
77	0xbe657b7b	-0.22410385
78	0xbd864f4a	-0.06558092
79	0x3e176845	0.1478587
80	0x3e43ca96	0.19120249
81	0x3d9e47e5	0.077285565
82	0x3ea736c9	0.32658985
83	0x3e304be8	0.17216456
84	0x3da364d4	0.07978216
85	0x3e4687b0	0.19387698
86	0x3ea5aa97	0.32356712
87	0x3e9a2ebe	0.30113786
88	0xbcaaa564	-0.020830818
89	0x3bbbf862	0.0057363966
90	0x3f12c50f	0.5733194
91	0x3ec22893	0.3792158
92	0x3ec2801c	0.37988365
93	0xbdc6f190	-0.09714043
94	0xbe64dc94	-0.22349769
95	0xbdb7c94d	-0.08973942
96	0x3dd445f8	0.10364908
97	0x3f1bde4b	0.6088607
98	0xbe108178	-0.14111888
99	0xbe569ae0	-0.20957518
100	0xbe22ee16	-0.15911135
101	0x3e2c1b86	0.16807374
102	0xbd63d92f	-0.055627044
103	0xbe655ef1	-0.22399499
104	0xbde606d6	-0.112317726
105	0xbe75ef86	-0.24017152
106	0xbdf45a62	-0.11931302
107	0xbeadab52	-0.3391977
108	0x3e8189af	0.25300357
109	0xbd739221	-0.05946553
110	0xbe3b82aa	-0.18311563
111	0xbda5827b	-0.08081528
112	0x3e771369	0.24128498
113	0xbe70ce8d	-0.23516293
114	0x3d197e1c	0.037473783
115	0x3cefde5e	0.029280838
116	0x3cb88060	0.022522151
117	0x3db4f9ba	0.08836694
118	0xbede1f6e	-0.43383354
119	0x3d8ef096	0.06979482
120	0xbeeb7640	-0.45988655
121	0x3e052adf	0.13004635
122	0xbed09e50	-0.40745783
123	0xbe73e442	-0.23817542
124	0xbda91c7d	-0.08257387
125	0x3cb14daa	0.021643478
126	0xbd9809c4	-0.07423738
127	0xbe5f4c5b	-0.21806471
128	0xbd941ad0	-0.072316766
129	0xbdacb826	-0.08433561
130	0x3eddcbb4	0.43319476
131	0x3eabf48c	0.33585012
132	0x3f001704	0.5003512
133	0xbe1f7828	-0.1557318
134	0x3c941d4b	0.018080374
135	0xbd8dd385	-0.0692511
136	0x3ed09fd4	0.4074694
137	0x3eb453b0	0.35220098
138	0xbe520e94	-0.20513374
139	0xbe0b90a3	-0.13629393
140	0x3ed4d0f6	0.41565675
141	0x3b853d33	0.0040661334
142	0x3eb2a700	0.34893036
143	0xbe39a43c	-0.18129057
144	0xbee37e01	-0.4443207
145	0xbe8d7c79	-0.27634028
146	0xbe40e8f4	-0.18838865
147	0x3e09ecd2	0.13469246
148	0xbe150434	-0.14552385
149	0xbdd8eced	-0.10592065
150	0xbf15dbd0	-0.5853853
151	0x3ea32e8a	0.31871444
152	0x3c7e123f	0.01550728
153	0xbdf799be	-0.12089871
154	0xbc36bfc3	-0.011154118
155	0x3daea6fa	0.08527942
156	0xbd941865	-0.072312154
157	0x3e7be601	0.24599458
158	0xbe1d8aab	-0.15384929
159	0x3ee46871	0.44610932
160	0x3e1ccdb6	0.15312847
161	0x3ea2dba6	0.31808203
162	0x3db840bb	0.08996721
163	0xbdf9848b	-0.12183484
164	0x3e040f0a	0.12896362
165	0x3e96f074	0.29480326
166	0x3dad816e	0.084719524
167	0x3e07fd34	0.13280183
168	0x3dde77a4	0.108626634
169	0xbea53ed2	-0.3227449
170	0xbd97c1ff	-0.07410049
171	0xbdc61413	-0.096717976
172	0xbdc4ef12	-0.096159115
173	0xbeb782ac	-0.35841882
174	0x3d7cc727	0.061713364
175	0x3d8fe4fb	0.070260964
176	0xbebe5077	-0.37170765
177	0x3d50e33e	0.050997965
178	0x3d412369	0.04715291
179	0x3c1c6ed6	0.00954791
180	0x3d22953f	0.039693113
181	0xbf09d9fd	-0.5384825
182	0xbc0cf1ee	-0.008602602
183	0x3e3f660d	0.18691273
184	0xbcf3c626	-0.02975757
185	0x3a524a27	0.0008021914
186	0xbe949e00	-0.29026794
187	0xbe2b9b6a	-0.16758505
188	0xbcc93753	-0.024562513
189	0xbdf6beb6	-0.12048094
190	0xbc25034a	-0.010071585
191	0xbdea81f4	-0.11450568

encoder.abr_encoder.abr_projection.bias f4 [32]
0	0xb86f2b7d	-5.7022542e-05
1	0x381c9788	3.7334423e-05
2	0x37b71a43	2.1827529e-05
3	0x37d249a1	2.5068237e-05
4	0x36304906	2.626855e-06
5	0xb7b01363	-2.0989863e-05
6	0x37930a78	1.752864e-05
7	0xb6a69827	-4.9648984e-06
8	0x3676bc57	3.6766485e-06
9	0x37fbd303	3.0019792e-05
10	0x36bed2a1	5.6869617e-06
11	0x37fbd000	3.001839e-05
12	0xb69ab6d2	-4.6108407e-06
13	0x373681b8	1.0878248e-05
14	0xb6fdad4f	-7.5601633e-06
15	0x36cba937	6.0695706e-06
16	0x38457545	4.7077676e-05
17	0x374fda38	1.23889695e-05
18	0x36bbb8e6	5.5945593e-06
19	0x38c492c4	9.3733455e-05
20	0xb80167ab	-3.0852545e-05
21	0xb7ad301b	-2.0645608e-05
22	0xb7c7fd06	-2.3840472e-05
23	0xb76f3061	-1.4256774e-05
24	0x37d65073	2.554825e-05
25	0x37e17b3c	2.6879476e-05
26	0x382fa380	4.1875523e-05
27	0xb84dad4d	-4.9037208e-05
28	0xb751bf2f	-1.2501884e-05
29	0x3894618f	7.075362e-05
30	0xb88915d9	-6.5367385e-05
31	0xb8a315d2	-7.77651e-05

encoder.abr_encoder.abr_norm.weight f4 [32]
0	0x3f57f36d	0.84355813
1	0x3f49dabb	0.7884938
2	0x3f481b26	0.78166425
3	0x3f3fa51e	0.74861324
4	0x3f514f0d	0.81761247
5	0x3f425d88	0.7592397
6	0x3f3dae50	0.74094105
7	0x3f717412	0.94317734
8	0x3f389e27	0.7211632
9	0x3f709152	0.9397174
10	0x3f4cfa23	0.8006918
11	0x3f654412	0.8955699
12	0x3f488a29	0.78335816
13	0x3f4a2dcc	0.7897613
14	0x3f427ece	0.7597474
15	0x3f51d507	0.8196568
16	0x3f4d9570	0.8030615
17	0x3f6cb060	0.92456627
18	0x3f401c33	0.7504303
19	0x3f4a858e	0.7911004
20	0x3f5a29f8	0.8522029
21	0x3f3cfb0a	0.73820555
22	0x3f43c5db	0.7647378
23	0x3f398a15	0.7247632
24	0x3f79f295	0.97635776
25	0x3f4277f7	0.759643
26	0x3f65a645	0.8970683
27	0x3f53e6fa	0.8277432
28	0x3f3d1c69	0.73871475
29	0x3f4ab49a	0.79181826
30	0x3f52e26d	0.8237675
31	0x3f63f1c7	0.890408

encoder.abr_encoder.abr_norm.bias f4 [32]
0	0xbe83b147	-0.2572119
1	0xbed629a9	-0.4182866
2	0xbf082c74	-0.5319283
3	0xbef11e07	-0.47093222
4	0xbe92b545	-0.28653923
5	0xbee2ebce	-0.4432053
6	0xbf03306d	-0.51245767
7	0xbe1ce4c0	-0.15321636
8	0xbe33363d	-0.17501159
9	0xbd987d22	-0.07445742
10	0xbefa5267	-0.48890993
11	0x3d86c2b0	0.065801024
12	0xbe841dc3	-0.25803956
13	0xbedfb6b1	-0.4369407
14	0xbe494a25	-0.1965719
15	0xbecc2f67	-0.39879915
16	0xbedc6041	-0.43042186
17	0xbdeb8aa6	-0.115010545
18	0xbedeb8bd	-0.4350032
19	0xbf139d26	-0.57661664
20	0xbebcabe7	-0.368499
21	0xbec91b90	-0.3927884
22	0xbedc7bcc	-0.430632
23	0xbee9e4a3	-0.45682248
24	0xbd940594	-0.072276264
25	0xbefa4b7e	-0.4888572
26	0xbeafe8fb	-0.34357437
27	0xbeaf38d8	-0.34223056
28	0xbec7a812	-0.38995415
29	0xbf1350cb	-0.57545155
30	0xbf0bd845	-0.54626876
31	0xbe367a0d	-0.17819996

encoder.abr_encoder.abr_norm.running_mean f4 [32]
0	0xbdc23166	-0.09482078
1	0xbd0d3b1e	-0.034480207
2	0xbdb440b1	-0.088014014
3	0xbcc6dcf0	-0.024275273
4	0xbdcdee9e	-0.10055278
5	0x3dc1e97f	0.09468364
6	0x3ddebf52	0.10876335
7	0x3df522e6	0.11969547
8	0x3e00014b	0.12500493
9	0xbe08676d	-0.13320704
10	0xbdc26743	-0.09492352
11	0xbdea95bd	-0.114543416
12	0x3d20328f	0.039110716
13	0x3db91cf6	0.09038727
14	0x3dccebde	0.100059256
15	0x3ddba2f4	0.1072444
16	0x3d12a773	0.035804223
17	0xbdef05f3	-0.116710566
18	0xbbf59662	-0.0074947337
19	0xbc874a13	-0.016514814
20	0xbdf6e732	-0.12055816
21	0x3cf1234a	0.029435772
22	0x3de74d0e	0.11293994
23	0x3cf621ab	0.030045351
24	0xbde6ab91	-0.112631924
25	0xbd1c3c11	-0.03814322
26	0x3dc86af2	0.09786023
27	0x3d8b79ac	0.068103164
28	0xbdb370e3	-0.08761766
29	0xbc9a3e39	-0.018828498
30	0xbd0f5711	-0.034995142
31	0xbda3c52a	-0.079965904

encoder.abr_encoder.abr_norm.running_var f4 [32]
0	0x3f91ca27	1.1389817
1	0x3e2f7a69	0.1713654
2	0x3f87b5af	1.060232
3	0x3dea6719	0.114454456
4	0x3fac0240	1.3438187
5	0x3f885530	1.0650997
6	0x3fb20137	1.3906621
7	0x3ff56439	1.917121
8	0x3fdff845	1.7497641
9	0x4005cd68	2.090662
10	0x3f966f9a	1.1752808
11	0x3fc62dca	1.5482724
12	0x3e493b66	0.19651565
13	0x3f82619a	1.0186036
14	0x3f90a8d6	1.1301525
15	0x3fabb232	1.3413756
16	0x3e924188	0.2856562
17	0x3fd8efaa	1.694814
18	0x3d37273c	0.04471515
19	0x3da297d7	0.079391174
20	0x3fcc078e	1.5939806
21	0x3e5118b5	0.20419581
22	0x3fd37428	1.6519823
23	0x3e16bb56	0.147199
24	0x3fc534bd	1.540672
25	0x3e530b60	0.20609808
26	0x3fa5c547	1.2950829
27	0x3f0aff46	0.54295766
28	0x3f83258b	1.0245832
29	0x3d5b5492	0.05354745
30	0x3e673ed7	0.22582565
31	0x3f463fbb	0.77440995

encoder.abr_encoder.attention.q_projection.weight f4 [64, 1]
0	0x3e9280e7	0.2861397
1	0x3e24a855	0.16079839
2	0xbb849ed0	-0.0040472522
3	0x3d88b89f	0.06675839
4	0x3c062407	0.0081873005
5	0xbda506be	-0.080579266
6	0x3d3dbfa3	0.046325337
7	0x3e1fd66b	0.15609138
8	0x3b789c0a	0.0037934803
9	0x3e52638c	0.20545787
10	0x3d30565b	0.043051105
11	0xbe2e17f1	-0.1700132
12	0x3de4b2a6	0.11166887
13	0x3cbcd9d7	0.023053093
14	0x3e143225	0.14472254
15	0xbe5acd0a	-0.21367279
16	0xbe821087	-0.25403234
17	0xbdd23729	-0.10264427
18	0xbc60a27e	-0.013710616
19	0xbe088a82	-0.13334087
20	0xbd2ca0dc	-0.042145595
21	0xbe3deeec	-0.18548173
22	0xbe45d5bb	-0.19319813
23	0x3d98595c	0.07438919
24	0x3db9816b	0.09057888
25	0x3c589a4c	0.013220381
26	0x3e1758e3	0.14780001
27	0xbcfefacc	-0.031125449
28	0x3c7b4def	0.015338405
29	0x3c54adcc	0.0129808895
30	0x3d5b72e7	0.053576376
31	0x3d8a58fe	0.06755255
32	0xbb35fae5	-0.0027767953
33	0x3c1d4d43	0.00960094
34	0x3d9e948e	0.07743178
35	0x3e1a6b15	0.15079911
36	0xbe536f3c	-0.20647901
37	0xbcc4ba58	-0.024014637
38	0xbdf695eb	-0.12040313
39	0xbe98da5f	-0.29854104
40	0xbe95aa5f	-0.29231545
41	0x3de8284e	0.113358125
42	0xbe72a879	-0.2369708
43	0xbe4fc41a	-0.2028965
44	0xbd48f048	-0.049057275
45	0xbda86576	-0.08222477
46	0x3c94fbd6	0.018186491
47	0xbe216544	-0.15761286
48	0xbdf856f5	-0.12125961
49	0xbd283f79	-0.041076157
50	0x3cf05224	0.029336043
51	0xbb68b77d	-0.0035509758
52	0xbd058964	-0.03260173
53	0xbe174ce2	-0.14775422
54	0xbd7c051f	-0.06152832
55	0x3b715899	0.003682649
56	0xbe015c7d	-0.12632938
57	0xbc9f0313	-0.019410646
58	0xbe195f61	-0.1497779
59	0x3d8747dc	0.06605503
60	0xbe133486	-0.14375505
61	0x3b74268b	0.0037254419
62	0xbe79bcd3	-0.24388437
63	0x3beab4b5	0.0071626552

encoder.abr_encoder.attention.q_projection.bias f4 [64]
0	0x3d0fed60	0.035138488
1	0xbd38eef2	-0.04514975
2	0xbc589e2f	-0.013221308
3	0xbd344f10	-0.044020712
4	0xbd03b59f	-0.03215563
5	0x3d348caa	0.04407946
6	0xbd304e7c	-0.0430436
7	0x3d17aec1	0.037031893
8	0x3c565b97	0.01308336
9	0x3d232cf3	0.03983779
10	0xbd268761	-0.04065645
11	0xbd21e216	-0.039522253
12	0x3d17023d	0.03686737
13	0xbc84af31	-0.016196819
14	0xbd3891ed	-0.04506104
15	0xbd15d05b	-0.036575656
16	0x3b235952	0.0024925065
17	0x3be0f081	0.006864608
18	0xbc86e1cc	-0.01646509
19	0x3cef08a3	0.029178923
20	0x3bc95fc8	0.006145451
21	0x3c04dc28	0.00810913
22	0x3c0034b2	0.007825064
23	0xbbd84fda	-0.006601316
24	0xbc06b081	-0.008220793
25	0x3c2f0b7a	0.010683889
26	0xbc0c3fa1	-0.008560092
27	0x3bb419d1	0.0054962416
28	0xbc47cbb6	-0.012194565
29	0x3c678d3e	0.014132796
30	0xbc3f5a3f	-0.011679231
31	0xbbd5b21a	-0.0065214755
32	0x3c012f39	0.007884794
33	0xbc094c77	-0.008380047
34	0xbd802287	-0.062565856
35	0x3d5904a7	0.052982952
36	0x3d89b386	0.067236945
37	0x3d77452d	0.060368706
38	0xbca5f25f	-0.020257173
39	0xbd49b628	-0.049245983
40	0xbd5cfa52	-0.05394966
41	0xbd876c23	-0.06612422
42	0xbd5b5fbe	-0.053558104
43	0xbd316c58	-0.043316215
44	0x3d8272bd	0.06369541
45	0xbd51d32f	-0.05122679
46	0xbcf090ef	-0.029365985
47	0x3d8b3c01	0.06798554
48	0x3ccecbf6	0.02524374
49	0xbc6210e8	-0.013797976
50	0xbce8cd11	-0.028418096
51	0xbc0c1851	-0.008550719
52	0xbc35caac	-0.011095684
53	0x3cca630a	0.024705429
54	0x3cd834dd	0.026392395
55	0x3bb3b4a1	0.005484179
56	0x3cbeb3c4	0.023279078
57	0x3cdd03c0	0.026979327
58	0xbc88808e	-0.016662862
59	0xbce32af0	-0.027730435
60	0xbc86c1c2	-0.016449813
61	0x3ba56d45	0.0050484263
62	0xbc8a6fae	-0.016898956
63	0x3a62ef7c	0.0008656902

encoder.abr_encoder.attention.k_projection.weight f4 [64, 1]
0	0x3e0af95f	0.1357169
1	0xbe220dc7	-0.15825568
2	0xbbe82ef3	-0.007085675
3	0xbdbed07b	-0.09317108
4	0xbca82072	-0.020523284
5	0x3d83e074	0.064392954
6	0xbd9c5d56	-0.0763499
7	0x3e338160	0.17529821
8	0x3be169bd	0.00687906
9	0x3e8d9abe	0.2765712
10	0xbd07123c	-0.032976374
11	0xbe87bde6	-0.2651207
12	0x3e371994	0.17880851
13	0xbbd8b426	-0.0066132722
14	0xbd6e504b	-0.058182042
15	0xbe253bb1	-0.16136052
16	0x3e80de5b	0.25169644
17	0xbe32f89c	-0.1747765
18	0xbc6a42ec	-0.014298182
19	0x3d0c21db	0.034211975
20	0xbd22e829	-0.039772186
21	0x3e10aa7d	0.14127536
22	0x3e147b6e	0.1450021
23	0x3e03c823	0.12869315
24	0x3d3e6bcb	0.046489518
25	0x3c5d1f1b	0.013496186
26	0x3d7de2f4	0.061984017
27	0xbcae6e5e	-0.021292862
28	0xbd8a70c8	-0.067597926
29	0x3c69ae3b	0.014262731
30	0x3c495a23	0.012289557
31	0x3de0d445	0.10977987
32	0x3b7df5a3	0.0038751147
33	0xbb199901	-0.0023437145
34	0xbccc6c8d	-0.024954105
35	0x3e87360a	0.26408416
36	0x3e36dd8b	0.1785795
37	0x3def200f	0.116760366
38	0xbd52260e	-0.051305823
39	0xbe455892	-0.19272068
40	0xbe913429	-0.28360108
41	0xbe42249f	-0.18959282
42	0xbe8c7fe2	-0.27441317
43	0xbe0a27e9	-0.13491787
44	0x3ddd9327	0.10819083
45	0xbe702a97	-0.23453747
46	0xbbfe06c3	-0.007752271
47	0x3d30388e	0.043022685
48	0x3df11496	0.117715046
49	0xbcdef1ef	-0.027214972
50	0xbc8fb08f	-0.017540244
51	0xbb97c220	-0.004631296
52	0xbd6d5d7d	-0.057950485
53	0x3e06a869	0.13150181
54	0x3dcbe780	0.099562645
55	0x3b8b2c34	0.004247213
56	0x3e34f429	0.17671265
57	0x3cbbf76b	0.022945127
58	0xbe54abb0	-0.20768619
59	0xbd91c31b	-0.071172915
60	0xbe3c0bbe	-0.18363854
61	0x3b88fbcb	0.0041804067
62	0xbe5b97b6	-0.21444592
63	0x3b97b408	0.0046296157

encoder.abr_encoder.attention.k_projection.bias f4 [64]
0	0xb385e331	-6.234621e-08
1	0xb4e9dfd7	-4.3562497e-07
2	0x341be1e1	1.4517674e-07
3	0x344b564f	1.8937247e-07
4	0x33f25b8d	1.1285656e-07
5	0xb4aa2a66	-3.1695816e-07
6	0xb4894a3f	-2.557226e-07
7	0x352283ad	6.0541316e-07
8	0xb2830085	-1.5250643e-08
9	0x35b95637	1.3808666e-06
10	0xb4af865e	-3.2694055e-07
11	0x35114acf	5.412557e-07
12	0xb245d870	-1.1516121e-08
13	0x3435f6e2	1.6946754e-07
14	0x352bc115	6.3983435e-07
15	0x362467c3	2.4498302e-06
16	0x36f2381b	7.2186936e-06
17	0xb5142696	-5.5190446e-07
18	0xb4222082	-1.5099252e-07
19	0x349449b9	2.7620789e-07
20	0x35a5c970	1.2352084e-06
21	0x35877f1a	1.0095275e-06
22	0xb56ddfdd	-8.8615144e-07
23	0xb69a99fb	-4.6074833e-06
24	0xb5c2ff23	-1.4528381e-06
25	0xb5af0e22	-1.3042629e-06
26	0xb3948968	-6.916781e-08
27	0x35857240	9.942523e-07
28	0xb40f509f	-1.3347243e-07
29	0xb432b23a	-1.664238e-07
30	0xb557fe1a	-8.046351e-07
31	0xb64c8d30	-3.048055e-06
32	0x33f46b1e	1.138162e-07
33	0x33fa6f9e	1.1661835e-07
34	0x3546c448	7.4046375e-07
35	0x368131f6	3.850316e-06
36	0x363e6e6b	2.8376478e-06
37	0xb4b4c8e3	-3.3673777e-07
38	0xb590e4fb	-1.0795478e-06
39	0xb7060a81	-7.989468e-06
40	0xb68fbdfc	-4.283849e-06
41	0x359b417e	1.1567461e-06
42	0x363aae5f	2.7817657e-06
43	0xb5cea81d	-1.5397123e-06
44	0x35d1c004	1.5627597e-06
45	0x35b88217	1.3746929e-06
46	0xb4848011	-2.4680097e-07
47	0xb634c5d6	-2.6937246e-06
48	0x36353639	2.7002664e-06
49	0x35853699	9.925162e-07
50	0xb4510c52	-1.9469124e-07
51	0xb2d5010c	-2.479694e-08
52	0x325fc13c	1.3024245e-08
53	0x3602c61a	1.948682e-06
54	0xb4bfeb08	-3.574753e-07
55	0xb385cd27	-6.230612e-08
56	0x35d43250	1.5809874e-06
57	0x34888215	2.542662e-07
58	0x35a287f3	1.2109507e-06
59	0xb61a2fa9	-2.297553e-06
60	0x364a11d9	3.0110734e-06
61	0xb4188822	-1.4205628e-07
62	0x36281d33	2.5050947e-06
63	0xb3344fd5	-4.1982123e-08

encoder.abr_encoder.attention.v_projection.weight f4 [64, 1]
0	0xbe2a5a7f	-0.16636084
1	0x3e36f5f4	0.17867261
2	0xbdeb2497	-0.11481588
3	0xbc97cd86	-0.018530618
4	0xbe06c946	-0.13162717
5	0x3e023c14	0.1271823
6	0xbde49188	-0.111605704
7	0x3bbee22d	0.005825302
8	0x3d1f5158	0.038895935
9	0xbe21d764	-0.15804821
10	0x3b983b9d	0.0046457783
11	0x3e4e18ca	0.20126644
12	0xbe44755b	-0.19185393
13	0x3e8fa05a	0.28052026
14	0x3cc7570d	0.024333501
15	0x3e3317dc	0.1748957
16	0xbe14bfed	-0.14526339
17	0x3e92c16f	0.28663203
18	0xbdc8ac2c	-0.09798464
19	0xbe4cafb6	-0.19988903
20	0x3e8fb314	0.28066313
21	0xbe7c442a	-0.24635378
22	0x3e9d355a	0.30704767
23	0xbcc50cc3	-0.024053937
24	0xbcf3bffa	-0.029754627
25	0x3eaeb8f9	0.34125498
26	0x3e97ca8f	0.29646727
27	0x3ca649e7	0.020298911
28	0xbeb012ca	-0.34389335
29	0xbd0f6553	-0.03500874
30	0xbc39e29d	-0.011345533
31	0x3d9be4b0	0.07611978
32	0xbc418517	-0.011811516
33	0x3a56df9c	0.00081967725
34	0xbebde137	-0.37085888
35	0xbe410224	-0.18848473
36	0x3d2a7171	0.041612092
37	0xbe9c590a	-0.3053668
38	0x3da9a22f	0.08282887
39	0xbe8eb462	-0.27871996
40	0xbd93b51f	-0.072122805
41	0xbb696aa5	-0.0035616544
42	0x3b0d191a	0.0021529854
43	0x3bfb4dcf	0.0076691876
44	0x3ba21eff	0.0049475427
45	0xbb004839	-0.0019574298
46	0x3e3ee6e2	0.18642762
47	0x3deed70a	0.11662109
48	0x3d06375b	0.032767635
49	0x3e7586cd	0.23977204
50	0x3ea049ad	0.3130621
51	0x3e812803	0.2522584
52	0x3d475ba3	0.048671376
53	0xbe15edca	-0.1464149
54	0x3d9b7b61	0.07591892
55	0xbbe15c3a	-0.0068774493
56	0x3e51d4eb	0.20491378
57	0x3ebe93af	0.3722205
58	0xba31d021	-0.0006783028
59	0xbd20f26b	-0.039293688
60	0xbc0af8f2	-0.008482205
61	0xba832858	-0.001000653
62	0x3e71362c	0.23555821
63	0xba22ead1	-0.00062148

encoder.abr_encoder.attention.v_projection.bias f4 [64]
0	0x3c85faf2	0.016355012
1	0x3ce34559	0.027743028
2	0x3bfc87ce	0.007706619
3	0xbb03e714	-0.0020126747
4	0xbccf42f6	-0.025300484
5	0x3cd6b629	0.026209908
6	0xbcb6735e	-0.022271808
7	0xb895febd	-7.152322e-05
8	0x3c849624	0.016184874
9	0xbcd6d9de	-0.026226934
10	0xb903ab27	-0.00012556893
11	0x3ce5b31f	0.028039513
12	0xbce37c23	-0.027769154
13	0x3ceebaa6	0.029141735
14	0x3b8771e9	0.004133452
15	0x3ce122c7	0.027482403
16	0xbccc3421	-0.0249272
17	0x3cf730b2	0.030174587
18	0x3ca28416	0.019838374
19	0xbce39e7a	-0.027785528
20	0x3cf60ee8	0.030036405
21	0xbcf12cf4	-0.02944038
22	0x3cfa5b35	0.030561069
23	0xb97c5eec	-0.00024067954
24	0xbc18f0b5	-0.009334733
25	0x3cfe2d26	0.031027388
26	0x3cf8dd46	0.030378949
27	0x3b5b7a43	0.0033489622
28	0xbcfb2af7	-0.030660136
29	0xbc3f0b4c	-0.011660408
30	0x3c6e9fcb	0.014564465
31	0x3c866aa3	0.01640827
32	0xbb2e0bef	-0.0026557406
33	0x3caa1005	0.020759592
34	0xbd0d9d9b	-0.034574132
35	0xbd059a58	-0.032617897
36	0x3b9da499	0.0048108813
37	0xbd0bdd4c	-0.034146592
38	0x3cbf89d9	0.02338116
39	0xbd192716	-0.03739079
40	0xbca6e35b	-0.020372083
41	0x3c4facdd	0.012675491
42	0x3a8c438f	0.0010701286
43	0x3a88f570	0.0010449123
44	0x3b190b1d	0.0023352571
45	0xbc4a2725	-0.012338434
46	0x3d139302	0.03602887
47	0x3cef3202	0.02919865
48	0x3b780033	0.0037841916
49	0x3cd2da2a	0.025738794
50	0x3d078532	0.03308601
51	0x3cd08c77	0.025457604
52	0x3b0bbcf9	0.0021322353
53	0xbcc147d0	-0.023593813
54	0xbbd62969	-0.006535698
55	0xbb28edbb	-0.0025776464
56	0x3cf1b2b2	0.029504154
57	0x3cc57a36	0.024106126
58	0xbb82b24c	-0.00398854
59	0x3c3db426	0.011578595
60	0xbb8e0332	-0.004333877
61	0xbb7948e9	-0.0038037843
62	0x3ceb51ae	0.028725471
63	0x395daa51	0.0002113965

encoder.abr_encoder.attention.output_projection.weight f4 [1, 64]
0	0x3df4863f	0.11939668
1	0x3e4bcaaa	0.19901529
2	0x3d7758df	0.06038749
3	0x3bd51ba9	0.0065035415
4	0xbdb45a4f	-0.088062875
5	0x3e34aade	0.17643306
6	0xbd077906	-0.0330744
7	0xbb2045c4	-0.0024455646
8	0x3d9ca2a8	0.07648212
9	0xbd8df7d4	-0.06932035
10	0xbb0591a0	-0.0020380989
11	0x3e037081	0.12835886
12	0xbde99ee0	-0.11407256
13	0x3e54e372	0.20789889
14	0xbc041c40	-0.008063376
15	0x3e18a349	0.14906038
16	0xbe3905af	-0.18068574
17	0x3e315d1e	0.17320678
18	0x3dd16281	0.10223866
19	0xbe3424ae	-0.17592117
20	0x3eacb3ba	0.3373087
21	0xbe74ffc8	-0.23925698
22	0x3e2a8f4b	0.16656224
23	0xbb68f70b	-0.003554764
24	0xbb9514be	-0.004549592
25	0x3e3b22ef	0.18275045
26	0x3e1ed37f	0.15510367
27	0x3be4fa5d	0.0069878534
28	0xbea18177	-0.31544086
29	0xbd73709c	-0.059433565
30	0xbc24602c	-0.010032695
31	0x3cbdc3e3	0.023164695
32	0xbb172649	-0.0023063591
33	0xbc92edc7	-0.017935647
34	0xbea0c417	-0.31399605
35	0xbe93c228	-0.28859067
36	0x37acff1b	2.062279e-05
37	0xbea032b0	-0.31288671
38	0x3d92b5f8	0.07163614
39	0xbe18acfb	-0.14909737
40	0xbd521158	-0.05128607
41	0xbc20bde8	-0.009810902
42	0x3a4f5085	0.00079084217
43	0x3ad8027a	0.001648023
44	0x3b2e4e7d	0.0026597076
45	0x3c2c01e2	0.010498496
46	0x3dd91d22	0.1060126
47	0x3e482497	0.19545208
48	0xbc1d9d97	-0.009620092
49	0x3e3827b9	0.17983903
50	0x3dbe7dfd	0.09301374
51	0x3e4c259e	0.19936225
52	0x39c0a3ef	0.00036743234
53	0xbe264c86	-0.16240129
54	0xbcb67020	-0.022270262
55	0xb938b23c	-0.00017614005
56	0x3db4d23c	0.088291615
57	0x3ebe9865	0.37225643
58	0x3a7c0cf4	0.0009614967
59	0x3d95349e	0.072854266
60	0xbb6cdc32	-0.0036141989
61	0x3a6b656c	0.00089796516
62	0x3de57e82	0.1120577
63	0x3a3fcb5a	0.00073163735

encoder.metadata_encoder.metadata_projection.weight f4 [48, 12]
0	0x3d7a69d4	0.06113608
1	0xbd7255a1	-0.059163693
2	0xbcaa2e1a	-0.020773936
3	0x3cef326c	0.029198848
4	0xbe92072a	-0.2852109
5	0xbed2193c	-0.41034877
6	0xbeb20141	-0.34766582
7	0xbc8665ca	-0.016405959
8	0xa136dd57	-6.195694e-19
9	0x3de84772	0.11341752
10	0x3ec7c439	0.39016894
11	0x3dd85be7	0.10564404
12	0x3b175b22	0.002309509
13	0x3c857380	0.016290426
14	0x3dac679b	0.08418199
15	0x3da61929	0.08110268
16	0x3d946eb2	0.07247676
17	0x3d53f111	0.05174357
18	0x3de4525c	0.11148521
19	0xbc38c6ef	-0.011277898
20	0x3e31c03f	0.17358492
21	0x3e059062	0.13043359
22	0xbe9769a6	-0.2957279
23	0xbc863ae3	-0.016385501
24	0xbdc2ba50	-0.095081925
25	0xbd398fdf	-0.04530322
26	0x3d6b22db	0.057406288
27	0x3e138283	0.14405255
28	0xbd1ab172	-0.03776688
29	0x3e119942	0.1421862
30	0x3e060584	0.13088042
31	0xbd858acd	-0.06520615
32	0x3c5e8181	0.013580681
33	0xbe8ee3ba	-0.27908117
34	0xbe7b91c1	-0.2456732
35	0x3d34e781	0.04416609
36	0xbcc35c6d	-0.023847783
37	0xbd1021c1	-0.03518844
38	0x3e55d4c9	0.20881952
39	0x3e8f7661	0.28020003
40	0xbd252fdf	-0.040328857
41	0x3df6e5f8	0.12055582
42	0x3df9263d	0.121654965
43	0x3c199739	0.009374433
44	0x3cc8ee3a	0.024527658
45	0x3d9a9d7f	0.07549571
46	0xbe87d3a0	-0.26528645
47	0x3d5295c2	0.05141235
48	0xbcb8e0dc	-0.022568159
49	0x3b67de7d	0.0035380416
50	0xbea28a44	-0.31746113
51	0xbe970ac8	-0.29500413
52	0xbe861d0f	-0.26194045
53	0xbea39b88	-0.31954598
54	0xbe9bd7fc	-0.3043822
55	0xbcf0ed79	-0.02941011
56	0x3d055410	0.03255087
57	0x3da56190	0.08075249
58	0xbedfd1f7	-0.43714878
59	0x3c009d1f	0.007849961
60	0x3ce38666	0.027774047
61	0x3cc209a5	0.02368624
62	0x3e172279	0.14759244
63	0x3da5ddb5	0.08098928
64	0xbd820d08	-0.06350142
65	0x3d832344	0.06403211
66	0x3d94559e	0.07242893
67	0x3bae7cc6	0.0053249327
68	0xbdcd7065	-0.10031203
69	0xbb41e721	-0.0029587226
70	0x3edcbc0f	0.43112227
71	0x3d3c31d4	0.045945957
72	0xbd4a42ab	-0.049379986
73	0xbc262519	-0.010140681
74	0xbec414b9	-0.3829706
75	0xbe7709fe	-0.24124905
76	0xbe23551c	-0.15950435
77	0xbe409723	-0.18807654
78	0xbef632b8	-0.4808557
79	0xb538b166	-6.880349e-07
80	0x2be6c84a	1.6398074e-12
81	0x3e26cd52	0.16289261
82	0x3eca84ad	0.3955435
83	0x3e0e49f7	0.13895403
84	0xbd33acde	-0.04386603
85	0x3c90f4ac	0.017694794
86	0xbe449fc9	-0.19201578
87	0xbc11d4cb	-0.008900831
88	0xbebde888	-0.3709147
89	0xbe9c15fd	-0.30485526
90	0xbe6bedbb	-0.23039906
91	0x3b8f0362	0.004364417
92	0xb5680d6b	-8.644626e-07
93	0x3c746fe9	0.01491926
94	0x3e7f8c54	0.24955875
95	0x3bf18759	0.007370871
96	0x3cff5932	0.031170461
97	0x3968fac1	0.00022218657
98	0xbd825f48	-0.0636583
99	0x3d9a0161	0.07519794
100	0x3d5d2890	0.05399376
101	0xbe4cbb76	-0.19993386
102	0xbd905442	-0.07047321
103	0x3ba65bfb	0.005076883
104	0xbbe7be60	-0.007072255
105	0x3d550648	0.052007943
106	0x3ef215e5	0.4728233
107	0x3d2a998e	0.041650347
108	0xbc7ebdb1	-0.015548156
109	0xbb8b4744	-0.004250439
110	0x3e79ecf3	0.24406795
111	0xbc51ec85	-0.012812738
112	0x3e23d647	0.15999709
113	0xbe4e6a8d	-0.20157833
114	0xbe7805e0	-0.24220991
115	0xbcddeb43	-0.02708972
116	0x3e30a743	0.17251305
117	0x3c497886	0.012296801
118	0xbea40103	-0.32032022
119	0xbd5ed8fe	-0.05440616
120	0xbd8ab479	-0.06772704
121	0x3cadbb85	0.02120758
122	0x3d4d3c0a	0.050106086
123	0xbe4e406a	-0.2014176
124	0x385fff7b	5.3405278e-05
125	0xbdf493e7	-0.11942273
126	0xbe3996fb	-0.18124
127	0xbc312bda	-0.010813678
128	0xbd8df083	-0.069306396
129	0xbe369778	-0.17831218
130	0x3eb1808e	0.34668392
131	0xbd3c60a1	-0.04599059
132	0x3d24c871	0.04023022
133	0xbc879648	-0.016551152
134	0xbe664c5b	-0.22490065
135	0xbe69f029	-0.2284552
136	0xbe241bfb	-0.16026299
137	0x3e1cf1c1	0.15326597
138	0x3dbb7894	0.09153858
139	0x3c5e04d4	0.013550956
140	0x3c9786ca	0.01849689
141	0x3e577415	0.21040376
142	0x3ec38f98	0.3819549
143	0x3c5c2880	0.01343739
144	0xbd394f2f	-0.04524153
145	0x3d2e06ba	0.042486884
146	0x3e2c5927	0.16830884
147	0x3e06ab32	0.13151243
148	0xbdf738a2	-0.12071349
149	0x3cc405c8	0.023928538
150	0x3d8e062f	0.06934773
151	0xbcbbfc7c	-0.022947542
152	0x3c02ad27	0.007975853
153	0xbdb21158	-0.08694714
154	0xbe84d3c3	-0.2594281
155	0x3d1e8888	0.038704425
156	0x3adacbd3	0.0016692824
157	0x3d5077b0	0.050895393
158	0xbe3fa67e	-0.18715855
159	0xbe8f70db	-0.2801579
160	0xbebb22a2	-0.3654986
161	0xbe3cd700	-0.18441391
162	0xbe51f330	-0.20502925
163	0x3d1b8e63	0.037977587
164	0x3c3ec0dd	0.011642662
165	0x3e1baa87	0.1520177
166	0x3eacc6c8	0.33745408
167	0x3ca27c46	0.019834649
168	0xb8cbe2a3	-9.722009e-05
169	0xbd045b3a	-0.032313563
170	0x3c9b5dc4	0.01896561
171	0x3ddad282	0.106846824
172	0x3cb0dcb4	0.021589614
173	0xbdd9adc8	-0.10628849
174	0xbdacbddd	-0.08434651
175	0xbd689222	-0.056779988
176	0x3e4272fa	0.18989173
177	0x3e32ff4e	0.17480204
178	0xbf119e66	-0.5688232
179	0xbdae522c	-0.08511767
180	0xbc9949fc	-0.018712036
181	0xbd94a7d0	-0.0725857
182	0xbef8458f	-0.4849057
183	0xbea00612	-0.3125463
184	0xbd2c38ee	-0.04204648
185	0xbdd59c69	-0.104302235
186	0xbe8dcc2b	-0.2769483
187	0xb31b94e1	-3.6224154e-08
188	0x32c76f37	2.3217224e-08
189	0xbe2527de	-0.1612849
190	0x3ea3bd95	0.31980577
191	0x3d6120ad	0.054962803
192	0xbdba7444	-0.09104207
193	0x3d89d737	0.06730502
194	0xbe3879d2	-0.18015221
195	0xbe13653f	-0.14394091
196	0xbe4feb68	-0.20304644
197	0xbe4e04da	-0.20119038
198	0xbe6429eb	-0.22281615
199	0x3bc20b0c	0.005921727
200	0xb30a1060	-3.2145522e-08
201	0xbdd6768e	-0.10471831
202	0x3ed222a4	0.41042054
203	0x3e640f51	0.22271468
204	0x3c9c09e3	0.019047683
205	0x3d0dd3cb	0.03462581
206	0xbe1713fc	-0.14753717
207	0xbe88f61a	-0.2675026
208	0xbded012d	-0.1157249
209	0xbe601aed	-0.21885271
210	0xbe070573	-0.13185672
211	0xbc335e49	-0.010947772
212	0xb00c68b1	-5.108048e-10
213	0xbc739ce6	-0.0148689505
214	0x3e9db373	0.3080097
215	0x3dd7d891	0.10539354
216	0x3d7a09ec	0.06104462
217	0xbc3736a3	-0.01118246
218	0x3e6d5db3	0.23180275
219	0x3e7e2db0	0.24822116
220	0xbe6db5f2	-0.23213938
221	0xbe750d9f	-0.23930977
222	0xbe73b5ed	-0.23799868
223	0x3c80edf1	0.01573846
224	0x3c58f597	0.013242147
225	0x3cb1b522	0.021692816
226	0x3eb4276d	0.3518633
227	0x3c9a8829	0.018863754
228	0xbcaf13ed	-0.021371806
229	0x3d7ce7e2	0.06174458
230	0xbe4e2057	-0.20129524
231	0xbe9746a4	-0.29546082
232	0xbe514692	-0.20437077
233	0xbdf61924	-0.12016514
234	0x3d4ae7e2	0.049537547
235	0x3b7cc4f3	0.003856954
236	0x3cc186fb	0.023623934
237	0xbe604186	-0.21899995
238	0x3ed1815a	0.40919
239	0xbd35417f	-0.044251915
240	0xbc6ebc1c	-0.014571216
241	0x3dc2cffb	0.095123254
242	0xbd8290db	-0.06375285
243	0xbeb20953	-0.3477274
244	0xbe2ffbbe	-0.17185876
245	0xbea37340	-0.31923866
246	0xbe465719	-0.19369163
247	0xbc3224f6	-0.01087307
248	0x355d3820	8.241059e-07
249	0x3df48df2	0.119411364
250	0x3ea9ae24	0.3314067
251	0x3e077672	0.13228777
252	0x3adcdae2	0.00168499
253	0x3d963b11	0.07335485
254	0xbd98f76d	-0.07469068
255	0xbe21eae9	-0.15812267

encoder.metadata_encoder.metadata_projection.bias f4 [48]
0	0xbe9d02b1	-0.30666116
1	0xbda40e8d	-0.08010588
2	0x3c8f6b40	0.017507195
3	0xbd093e00	-0.033506393
4	0xbe40a19b	-0.18811648
5	0xbe5618eb	-0.20907943
6	0xbeef85ae	-0.46781677
7	0xbe34964e	-0.17635462
8	0xbe596341	-0.21229269
9	0xb91444ec	-0.00014140055
10	0xbe422d14	-0.18962508
11	0xbe43bd10	-0.1911509
12	0xbe0fa4bb	-0.14027683
13	0xbe707647	-0.23482619
14	0x3cc6ff90	0.024291784
15	0xbe8bac67	-0.2727997
16	0xbec32f87	-0.38122198
17	0xbeb51000	-0.3536377
18	0xbdb54a3e	-0.08852051
19	0xbe28ac97	-0.16472088
20	0xbeeea56c	-0.46610582
21	0xbdbb5acd	-0.09148178
22	0xbe966980	-0.29377365
23	0x3c65941c	0.014012363
24	0xbda27e9c	-0.07934305
25	0xbeccdaab	-0.4001058
26	0xbd9590bd	-0.07302997
27	0xbe9c743f	-0.3055744
28	0xbe929113	-0.28626308
29	0xbe03d38f	-0.12873672
30	0xbe6a481a	-0.22879067
31	0xbe822d52	-0.25425202
32	0xbe737d67	-0.23778306
33	0xbdff25f9	-0.124584146
34	0xbdf1a2c4	-0.11798623
35	0x3cda83ea	0.02667423
36	0xbebd20ce	-0.3693909
37	0xbd540886	-0.05176594
38	0xbe1d432b	-0.15357654
39	0xbe0f207b	-0.13977234
40	0xbe35c17d	-0.17749591
41	0xbe1460ba	-0.14490023
42	0xbdc7fd30	-0.097650886
43	0xbe802e23	-0.250352
44	0xbce338ee	-0.027737107
45	0xbeadf1fc	-0.33973682
46	0xbd3fec52	-0.046856232
47	0xbe11ebd6	-0.1425012

encoder.encoder_layers.0.0.weight f4 [128, 80]
0	0xbd8492f7	-0.06473344
1	0x3b0540f7	0.0020332912
2	0xbba3322c	-0.004980346
3	0xbcfeface	-0.031125452
4	0x3e135822	0.14389089
5	0x3c2c0ae1	0.010500641
6	0xbd21a6c4	-0.03946568
7	0xbb98ec5a	-0.004666847
8	0x3c489c65	0.012244319
9	0xbd97415b	-0.073855124
10	0xbd2cc6cf	-0.042181786
11	0xbd3b4f4e	-0.045729928
12	0x3e04cdfb	0.129692
13	0x3e5a4113	0.21313886
14	0xbd2c8d94	-0.042127207
15	0x3e313523	0.17305426
16	0x3c2772ec	0.010220271
17	0xbd083c3d	-0.033260573
18	0xbd0e4bcc	-0.034740254
19	0xbc5f2b2d	-0.013621134
20	0xbd7b2213	-0.061311793
21	0xbccf50ca	-0.025307078
22	0x3c4da68b	0.012551914
23	0x3d5086c3	0.05090977
24	0xbd8fc179	-0.07019324
25	0xbd42e199	-0.047578428
26	0x3e36b0ab	0.17840831
27	0xbc0607b6	-0.008180549
28	0xbd6933e4	-0.056934252
29	0x3cefce8a	0.02927329
30	0x3e500785	0.20315368
31	0x3c327e07	0.010894305
32	0x3a4c5e42	0.0007796028
33	0xbe660e64	-0.22466427
34	0xbdf3d124	-0.11905125
35	0xbd52ab61	-0.05143297
36	0xbdb9e306	-0.090765044
37	0x3c9028cc	0.017597578
38	0x3d6e5cd2	0.05819399
39	0x3d8f9da3	0.07012489
40	0x3df342d4	0.11877981
41	0xbdfa6059	-0.12225408
42	0x3e51f4f2	0.20503595
43	0x3e3de161	0.18543006
44	0xbe706435	-0.23475726
45	0x3e4f8608	0.20265973
46	0xbdeb5650	-0.11491072
47	0x3e09ae5a	0.13445416
48	0x3d92c360	0.07166171
49	0x3e5cf82f	0.2157905
50	0x3da0fffc	0.07861325
51	0x3e8114f3	0.25211295
52	0x3d862521	0.065500505
53	0xbdd2d76c	-0.10294995
54	0x3e5342d8	0.20630968
55	0xbca570fd	-0.020195479
56	0xbce1ee2f	-0.027579395
57	0x3e197f95	0.14990075
58	0xbd83ec0c	-0.06441507
59	0x3e5086dc	0.20363945
60	0xbd812454	-0.06305757
61	0x3c836122	0.016037527
62	0x3e516b9d	0.20451207
63	0x3c3cbc84	0.011519555
64	0x3e1c6dfc	0.1527633
65	0x3cea2129	0.028580265
66	0xbd4024d6	-0.04691013
67	0xbe4a57de	-0.19760081
68	0x3d40b509	0.04704765
69	0xbd015727	-0.031577256
70	0xbd16c11f	-0.03680527
71	0x3e2b8ec3	0.16753678
72	0x3e09e692	0.13466862
73	0x3e7a20fb	0.24426644
74	0xbca34e4b	-0.019934794
75	0x3dab1aed	0.08354745
76	0xbe750483	-0.23927502
77	0x3df8cdb7	0.12148612
78	0xbe3012ab	-0.17194621
79	0x3dcc6e9c	0.099820346
80	0xbd10886b	-0.03528635
81	0x3e0d8e76	0.13823876
82	0x3d6334e5	0.055470366
83	0x3e33212f	0.17493127
84	0x3dbc4c8c	0.09194288
85	0xbe05ac09	-0.13053907
86	0xbd7dc49a	-0.061955072
87	0xbd78a5f7	-0.06070515
88	0xbdfc6b99	-0.1232521
89	0x3e45097a	0.19241896
90	0x3d069948	0.032861024
91	0x3e39285d	0.18081804
92	0xbcaa36bb	-0.02077805
93	0x3d8661bf	0.06561612
94	0x3d773fa4	0.060363427
95	0x3d38d824	0.045128003
96	0xbe129e43	-0.14318185
97	0x3e2ed39e	0.17072913
98	0xbc4555c4	-0.012044374
99	0x3d9a8447	0.07544761
100	0xbdae3006	-0.085052535
101	0xbde6f378	-0.11276907
102	0x3cf3c7bd	0.029758329
103	0x3dbb977d	0.091597535
104	0x3dec184e	0.11528073
105	0xbd760988	-0.060067683
106	0xbdd3ad21	-0.10335756
107	0xbe13e7b8	-0.14443862
108	0xbd448199	-0.047975156
109	0x3d962693	0.07331576
110	0x3d0c06c9	0.03418616
111	0x3d20c631	0.03925151
112	0xbd76a952	-0.06022007
113	0x3df48ed4	0.11941305
114	0x3cf3a474	0.029741503
115	0xbd7ac0ad	-0.061218906
116	0x3ddd7d49	0.10814912
117	0xbd4114b6	-0.047138892
118	0x3cd8dc56	0.026472252
119	0xbccafd30	-0.024778932
120	0xbe0d349c	-0.137896
121	0xbc06cbd7	-0.00822731
122	0x3d5bc7b4	0.05365725
123	0xbd681283	-0.05665828
124	0x3d642557	0.055699673
125	0x3d60c403	0.05487443
126	0x3e3b36af	0.18282579
127	0xbe3f9941	-0.18710805
128	0xbcb5272d	-0.022113407
129	0xbdf29c7f	-0.118462555
130	0xbdff1b2d	-0.12456355
131	0x3c54a6f6	0.01297926
132	0xbdd5565d	-0.10416863
133	0x3e142464	0.14467007
134	0xbd96c65a	-0.07362051
135	0x3e6d4582	0.23171046
136	0xbc101489	-0.008793958
137	0x3d4b4a24	0.049631253
138	0xbbde25c1	-0.006779403
139	0xbdabd0e3	-0.08389451
140	0xbdab3c6c	-0.08361134
141	0xbdf84102	-0.12121774
142	0xbe0e7059	-0.13910045
143	0xbdfebade	-0.12437986
144	0xbe28a2f3	-0.1646841
145	0x3cd051b4	0.025429584
146	0x3da15093	0.078766964
147	0x3e53c4e8	0.20680583
148	0x3bc69e74	0.0060613696
149	0x3e3a1d98	0.18175352
150	0xbdc38eef	-0.09548747
151	0xbe90c84c	-0.28277814
152	0xbd70256c	-0.05862944
153	0x3cc7fbca	0.024412055
154	0x3d9ebdd1	0.07751048
155	0xbe35763f	-0.17720889
156	0xbd8c729d	-0.06857798
157	0xbdcfab85	-0.10140137
158	0x3c7622be	0.015022932
159	0xbd14e00e	-0.036346488
160	0x3d37ff00	0.04492092
161	0x3da65ef5	0.0812358
162	0xbd7294a9	-0.059223805
163	0x3d18af2a	0.037276424
164	0x3df36a89	0.11885554
165	0x3c7169fd	0.014734742
166	0x3e330100	0.1748085
167	0xbdb868f0	-0.0900439
168	0xbcaab715	-0.020839253
169	0x3d9c6de4	0.076381475
170	0x3cf5985b	0.029979875
171	0x3da51066	0.080597684
172	0x3d870b6a	0.06593974
173	0x3e22955d	0.1587729
174	0x3d539b7b	0.05166195
175	0x3d632eda	0.055464603
176	0x3de86257	0.11346882
177	0xbd856d83	-0.06515028
178	0x3d9cbab5	0.07652799
179	0x3df5a584	0.1199446
180	0x3d983127	0.0743125
181	0xbcda04b5	-0.026613573
182	0x3dea20ef	0.11432063
183	0x3d2c7caa	0.042111076
184	0x3db2c8d0	0.08729708
185	0xbd5d948b	-0.05409674
186	0x3e133b97	0.143782
187	0xbe06c407	-0.13160716
188	0x3d4da7d4	0.05020888
189	0x3e0db70c	0.13839358
190	0x3ddec998	0.10878295
191	0x3ba0489f	0.0048914696
192	0x3d46a463	0.048496615
193	0xbde5006c	-0.11181721
194	0xbda0e5f3	-0.07856359
195	0xbde92477	-0.11383908
196	0xbcf7b880	-0.030239344
197	0x3e077139	0.13226785
198	0x3d4063c3	0.04697014
199	0x3e432157	0.19055687
200	0xbc284e09	-0.010272511
201	0xbaaf0320	-0.0013352372
202	0x3e6fea8e	0.2342932
203	0xbdc5c53d	-0.09656761
204	0xbd8ce87b	-0.0688028
205	0x3e809dd1	0.25120404
206	0xbcf604e6	-0.030031633
207	0x3e5159fe	0.20444486
208	0x3e4e97bb	0.20175068
209	0x3e7ca4ca	0.24672237
210	0xbd9cd220	-0.07657266
211	0xbd228277	-0.039675202
212	0x3e393e7e	0.18090245
213	0xbda4b848	-0.08042961
214	0x3d567dcc	0.052366063
215	0x3d97e8f4	0.07417479
216	0xbcdb8635	-0.026797393
217	0x3e6c7f8c	0.2309553
218	0x3c9070ab	0.01763185
219	0x3d92db84	0.071707755
220	0x3e3a604a	0.18200794
221	0x3e215f48	0.15759003
222	0xbca29445	-0.019846091
223	0x3e2a8faf	0.16656373
224	0x3d95e960	0.073199034
225	0x3d7c6477	0.06161925
226	0xbdf3e818	-0.11909503
227	0x3d5e26fd	0.0542364
228	0x3e79db6f	0.24400114
229	0x3d313f3e	0.043273203
230	0x3e0ce24c	0.137582
231	0xbda0824a	-0.07837351
232	0x3b4fd1bd	0.0031710707
233	0xbcb3e30a	-0.021958847
234	0xbdfaa172	-0.122378245
235	0x3d481ad5	0.048853714
236	0xbcf86072	-0.030319426
237	0xbdabae81	-0.08382893
238	0x3d47bbca	0.048763074
239	0x3e280d7e	0.16411397
240	0xbd6e7f47	-0.05822685
241	0xbdf3edd3	-0.11910596
242	0x3d1762a5	0.03695931
243	0x3dbf71ee	0.09347902
244	0xbc0d8ae0	-0.008639067
245	0x3e469403	0.193924
246	0x3cffaf75	0.031211594
247	0x3dbbae23	0.09164073
248	0x3e29d0f8	0.16583622
249	0xbd8e142f	-0.069374435
250	0x3e41e10e	0.18933508
251	0xbe0c2705	-0.1368676
252	0x3dba7ac0	0.09105444
253	0x3dcab2b7	0.098973684
254	0xbc3d883d	-0.011568126
255	0x3e48d626	0.19612941

encoder.encoder_layers.0.0.bias f4 [128]
0	0xb70d3f02	-8.418925e-06
1	0xb79d9e2c	-1.8789513e-05
2	0xb6836853	-3.916249e-06
3	0xb7a6b832	-1.9874515e-05
4	0x367c6a6b	3.761287e-06
5	0x3724ca86	9.822315e-06
6	0xb487ede7	-2.5318806e-07
7	0xb784fe8a	-1.5854155e-05
8	0xb89a53bb	-7.358888e-05
9	0x36907de6	4.306191e-06
10	0xb79531de	-1.7785405e-05
11	0x37def3b0	2.6577938e-05
12	0x37a0b8f7	1.9159617e-05
13	0xb7502f0a	-1.2408718e-05
14	0xb7856db0	-1.5905913e-05
15	0xb78b2fbf	-1.6592325e-05
16	0xb782c92e	-1.559089e-05
17	0x37e57f3a	2.7358172e-05
18	0x38302f63	4.2005802e-05
19	0xb74514f4	-1.1746994e-05
20	0x38598990	5.1864947e-05
21	0xb72760b3	-9.97649e-06
22	0x378115a0	1.5388068e-05
23	0xb7faaa35	-2.9881581e-05
24	0xb7c3f382	-2.3359204e-05
25	0x36d112e0	6.2308827e-06
26	0xb7b72ae9	-2.1835282e-05
27	0xb6a520ac	-4.9211867e-06
28	0x37af9f09	2.0935682e-05
29	0xb7e3b5e5	-2.714521e-05
30	0x37d8c806	2.584235e-05
31	0xb4b86102	-3.4343253e-07
32	0x37971d57	1.8014265e-05
33	0x3570491a	8.9513344e-07
34	0x371ba7f6	9.277826e-06
35	0x378f7931	1.7103363e-05
36	0xb841aeda	-4.617763e-05
37	0x37333e93	1.0683801e-05
38	0x3740da39	1.1494901e-05
39	0x371816c4	9.0652065e-06
40	0xb80784b7	-3.231011e-05
41	0x37d1e426	2.5020981e-05
42	0xb7109c75	-8.619497e-06
43	0x37b03c95	2.1009046e-05
44	0xb737f4d2	-1.0964652e-05
45	0x380d56d4	3.3697885e-05
46	0xb79b5819	-1.8518464e-05
47	0xb7001b63	-7.635771e-06
48	0x3843fe06	4.67282e-05
49	0x37269e97	9.931296e-06
50	0x35c08465	1.4343647e-06
51	0x37955243	1.780049e-05
52	0x3781e122	1.5482834e-05
53	0xb74f8142	-1.2368257e-05
54	0x377ccd04	1.5068104e-05
55	0xb7894d92	-1.6367794e-05
56	0xb58d0911	-1.0507957e-06
57	0x37543760	1.2649078e-05
58	0xb2a87bd0	-1.9614077e-08
59	0xb72cd024	-1.030046e-05
60	0xb7704ee4	-1.4323483e-05
61	0x37348392	1.075947e-05
62	0x37a6606b	1.983364e-05
63	0x373d290e	1.1274837e-05
64	0x37a13347	1.9216573e-05
65	0x364208fd	2.8913485e-06
66	0xb7060957	-7.989197e-06
67	0xb7baa2fe	-2.2248827e-05
68	0xb80d58b3	-3.3699627e-05
69	0xb840dad2	-4.598016e-05
70	0xb7ec867a	-2.8196013e-05
71	0xb72b3e15	-1.0206849e-05
72	0xb7128dde	-8.735309e-06
73	0xb6dc0d5a	-6.5580653e-06
74	0x35c4570c	1.4628472e-06
75	0x358c514c	1.0454473e-06
76	0x388f8b70	6.8447436e-05
77	0xb76c3456	-1.4078882e-05
78	0x37a6e1f9	1.9893969e-05
79	0x3344908b	4.5766267e-08
80	0xb6d45c18	-6.3288135e-06
81	0x3784979d	1.5806227e-05
82	0x380d115c	3.3633187e-05
83	0xb6819bc6	-3.862634e-06
84	0x36f7617b	7.372522e-06
85	0xb78fb16a	-1.7129543e-05
86	0xb590e2d6	-1.0794854e-06
87	0xb76630d7	-1.372044e-05
88	0x36bc26af	5.60734e-06
89	0x3797ef5f	1.8112069e-05
90	0x377c2e2b	1.503112e-05
91	0xb6fb3536	-7.4865775e-06
92	0xb641fc0e	-2.8905956e-06
93	0xb6ab5652	-5.106246e-06
94	0xb5a059dd	-1.1947083e-06
95	0xb5387743	-6.871889e-07
96	0x37aa7dd2	2.0324169e-05
97	0xb5fd9b1c	-1.8895112e-06
98	0x3718f280	9.116367e-06
99	0x3619f2a3	2.294001e-06
100	0xb61e4852	-2.358593e-06
101	0xb6b00769	-5.2460714e-06
102	0x37db214f	2.6122345e-05
103	0x35e7093a	1.7213526e-06
104	0xb81e960e	-3.7809885e-05
105	0xb76c4aa8	-1.4084078e-05
106	0xb8398b5f	-4.4237237e-05
107	0x36841a8b	3.9369966e-06
108	0x372f4a6e	1.0448142e-05
109	0x353075d3	6.5736566e-07
110	0xb6ed4fb9	-7.0724313e-06
111	0xb78efb3c	-1.704471e-05
112	0x372d0ca2	1.0314545e-05
113	0xb578c226	-9.266972e-07
114	0x369b7f72	4.6341966e-06
115	0x387a6c9d	5.97058e-05
116	0x3723b692	9.758065e-06
117	0x370cb344	8.386389e-06
118	0x37ab14a1	2.0394395e-05
119	0xb7248741	-9.806653e-06
120	0xb80ea286	-3.40068e-05
121	0xb94b1b04	-0.00019369653
122	0x353f4eff	7.1268e-07
123	0x3721e1df	9.6489375e-06
124	0x3719bae5	9.163025e-06
125	0xb76d92a3	-1.4160442e-05
126	0xb78d5d9b	-1.6852098e-05
127	0xb51cf976	-5.847754e-07

encoder.encoder_layers.0.1.weight f4 [128]
0	0x3f87238d	1.0557724
1	0x3f79a5f4	0.9751885
2	0x3f6a3b7c	0.91497016
3	0x3f6fe23d	0.9370459
4	0x3f68bdc9	0.9091459
5	0x3f7540b2	0.9580184
6	0x3f65939f	0.89678377
7	0x3f785f51	0.9702044
8	0x3f825f30	1.0185299
9	0x3f5dbdab	0.86617535
10	0x3f720da0	0.9455204
11	0x3f7bc294	0.9834378
12	0x3f7551ae	0.9582776
13	0x3f5f8c9b	0.8732392
14	0x3f827c64	1.0194211
15	0x3f6ebfce	0.9326142
16	0x3f76d03d	0.96411496
17	0x3f650c8e	0.8947228
18	0x3f8b822c	1.08991
19	0x3f82d569	1.0221378
20	0x3f78ea0c	0.9723213
21	0x3f6f7157	0.9353232
22	0x3f70a29d	0.9399813
23	0x3f7c8611	0.9864207
24	0x3f8495c0	1.03582
25	0x3f6b6c30	0.91961956
26	0x3f874cd8	1.0570326
27	0x3f767d63	0.96285075
28	0x3f820d3e	1.0160291
29	0x3f7c02a4	0.9844153
30	0x3f7846b1	0.96982867
31	0x3f74b4dc	0.9558847
32	0x3f7f4c0a	0.997254
33	0x3f7ec38d	0.99517137
34	0x3f671cb8	0.90278196
35	0x3f7d6abe	0.98991
36	0x3f793de0	0.9736004
37	0x3f67170c	0.9026954
38	0x3f6308b0	0.8868513
39	0x3f719116	0.9436201
40	0x3f71ee08	0.9450383
41	0x3f81ab93	1.0130485
42	0x3f674094	0.90332913
43	0x3f7cf12b	0.98805493
44	0x3f6b293c	0.91859794
45	0x3f834962	1.025677
46	0x3f7daee6	0.99095
47	0x3f850b3c	1.0394053
48	0x3f6ace97	0.9172148
49	0x3f74e4c3	0.9566156
50	0x3f6c66f9	0.92344624
51	0x3f807078	1.0034323
52	0x3f7a7027	0.9782738
53	0x3f60d47d	0.8782423
54	0x3f7caeec	0.9870441
55	0x3f84fc71	1.0389539
56	0x3f56b9ca	0.8387724
57	0x3f6cbfdb	0.9248025
58	0x3f78ca2b	0.97183484
59	0x3f8888d5	1.0666758
60	0x3f7c80dc	0.98634124
61	0x3f7562ee	0.9585408
62	0x3f80fcdb	1.0077165
63	0x3f6374b6	0.8884996
64	0x3f795b3c	0.9740484
65	0x3f74edf2	0.95675576
66	0x3f78bd0b	0.97163457
67	0x3f6db2e6	0.928511
68	0x3f6ef09e	0.933359
69	0x3f6c626f	0.923377
70	0x3f81f585	1.0153052
71	0x3f7c11d8	0.9846473
72	0x3f736ed5	0.9509099
73	0x3f7a0d0c	0.9767616
74	0x3f76d998	0.9642577
75	0x3f6be771	0.92150027
76	0x3f6f62cf	0.93510145
77	0x3f7b027c	0.98050666
78	0x3f7fee90	0.9997339
79	0x3f775591	0.9661494
80	0x3f7f6399	0.9976135
81	0x3f6915e7	0.91049045
82	0x3f6fecee	0.937209
83	0x3f7db4f2	0.99104226
84	0x3f7d9dd7	0.9906897
85	0x3f6e2391	0.9302302
86	0x3f7e7ddb	0.9941079
87	0x3f8b18b4	1.0866914
88	0x3f7e617f	0.9936752
89	0x3f70a776	0.94005525
90	0x3f8593da	1.0435746
91	0x3f835705	1.0260931
92	0x3f7c9f81	0.98680884
93	0x3f72e1af	0.94875616
94	0x3f614a4b	0.8800399
95	0x3f7d4c82	0.98944867
96	0x3f6df2a6	0.9294838
97	0x3f607f29	0.8769403
98	0x3f6ebcf2	0.9325706
99	0x3f74c5c9	0.95614296
100	0x3f6e0c6c	0.92987704
101	0x3f7f5309	0.99736077
102	0x3f71d8b1	0.9447127
103	0x3f703ad9	0.93839794
104	0x3f732b03	0.94987506
105	0x3f5bac80	0.8581009
106	0x3f818a01	1.012024
107	0x3f7814ab	0.96906537
108	0x3f7b7bf6	0.98236024
109	0x3f6fe559	0.9370933
110	0x3f87c597	1.0607175
111	0x3f630fed	0.88696176
112	0x3f6996c4	0.91245675
113	0x3f7cb99e	0.9872073
114	0x3f8738cb	1.0564207
115	0x3f6be184	0.92140985
116	0x3f68c334	0.90922856
117	0x3f5e7379	0.8689495
118	0x3f688e8b	0.90842503
119	0x3f69a85d	0.91272527
120	0x3f875700	1.0573425
121	0x3f7ad976	0.9798807
122	0x3f6e5e80	0.93112946
123	0x3f64f8fe	0.8944243
124	0x3f5e7e28	0.8691125
125	0x3f6a541a	0.9153458
126	0x3f731599	0.9495483
127	0x3f662a96	0.8990873

encoder.encoder_layers.0.1.bias f4 [128]
0	0x3c8dcfff	0.017311094
1	0x3d7b3c88	0.061337024
2	0xbe6abea0	-0.2292428
3	0xbe2ed70f	-0.17074226
4	0xbe642db3	-0.22283058
5	0xbdab1d4e	-0.08355199
6	0xbe4d4f5f	-0.20049809
7	0x3d88e036	0.0668339
8	0x3dac9558	0.084269226
9	0xbe58e7aa	-0.21182123
10	0x3dcf9cf7	0.101373605
11	0xbd44f3a9	-0.048083935
12	0xbe1b35b4	-0.15157205
13	0xbe097a94	-0.13425666
14	0x3d5c7071	0.05381817
15	0xbccd6d48	-0.025076523
16	0xbd9259bd	-0.071460225
17	0xbdc68760	-0.096937895
18	0xbde90ea6	-0.11379747
19	0x3d8bc159	0.068239875
20	0x3d73fa9a	0.059565164
21	0xbe556d68	-0.20842516
22	0xbe797c3d	-0.243638
23	0x3d0a31f7	0.033739056
24	0x3e37a8ff	0.1793556
25	0xbe289a93	-0.16465215
26	0x3e1ef0b3	0.15521507
27	0x3dc3979d	0.09550402
28	0x3c97653a	0.018480886
29	0xbd8de25a	-0.06927939
30	0xbd200462	-0.03906668
31	0xbdfff803	-0.12498476
32	0xbe335372	-0.175123
33	0xbe57edb7	-0.21086775
34	0xbc4ce773	-0.012506354
35	0xbe22eebe	-0.15911385
36	0xbd0a1dd3	-0.03371985
37	0x3d4cdb2b	0.050013702
38	0xbd94d28c	-0.07266721
39	0x3c56f8f1	0.013120876
40	0x3d619aed	0.05507939
41	0xbe26be72	-0.16283587
42	0x3d21791d	0.039422143
43	0xbda9b76f	-0.0828694
44	0xbd4eba38	-0.05047056
45	0xbde57024	-0.1120303
46	0xbda56bc3	-0.080771945
47	0x3d5168d3	0.05112536
48	0xbc89b45c	-0.016809635
49	0xbe201bc3	-0.1563559
50	0xbd0cb3e3	-0.03435124
51	0x3cf90474	0.030397631
52	0xbc1a0f85	-0.009403114
53	0x3c84a3a9	0.01619132
54	0xbdab1ced	-0.083551265
55	0x3c0099ec	0.007849198
56	0xbdd997ed	-0.10624681
57	0xbda77f70	-0.08178604
58	0xbe2eb53f	-0.17061327
59	0x3da7461b	0.081676684
60	0xbe4e250c	-0.2013132
61	0xbd72f120	-0.059311986
62	0xbe1427d0	-0.14468312
63	0xbed06920	-0.40705204
64	0xbd8d316a	-0.068941906
65	0xbdc66877	-0.09687894
66	0xbd69ff44	-0.057128206
67	0xbe790905	-0.24319847
68	0xbe1e5b10	-0.15464425
69	0x3c5999b9	0.013281279
70	0xbd822367	-0.06354409
71	0xbd4792b1	-0.04872388
72	0xbddb1865	-0.10698012
73	0xbe9cf72a	-0.3065732
74	0x3d1bb8d7	0.038018074
75	0xbd5512d6	-0.052019916
76	0xbe30b314	-0.17255813
77	0xbbfa08a0	-0.0076304227
78	0x3e017617	0.12642704
79	0x3c8b1786	0.01697899
80	0x3ccd32de	0.02504867
81	0xbc5700d0	-0.013122752
82	0xbdb0700b	-0.086151205
83	0xbdd9162e	-0.105999336
84	0x3daec8ca	0.08534391
85	0xbdf1cab2	-0.11806239
86	0xbc637976	-0.013883939
87	0xbe344059	-0.17602672
88	0x3c9a1d78	0.01881288
89	0xbd90f5d1	-0.07078136
90	0x3dfbb5f2	0.12290563
91	0xbdf914a7	-0.12162142
92	0xbeb378d9	-0.35053137
93	0x3c854529	0.01626833
94	0xbdc5eabd	-0.096639134
95	0xbdcbcd10	-0.09951222
96	0x3d949f0f	0.072569005
97	0xbe9d7239	-0.30751207
98	0xbb99203a	-0.004673031
99	0xbda0f060	-0.07858348
100	0x3e48158c	0.1953947
101	0xbda7172e	-0.08158718
102	0xbda6edc0	-0.08150816
103	0xbd2391a3	-0.039933812
104	0xbd8a5f8f	-0.067565076
105	0x3dad03c2	0.08447982
106	0xbdbd752f	-0.092508666
107	0x3d6b34d8	0.057423443
108	0xbe09b1b4	-0.13446695
109	0x3d006ac2	0.031351812
110	0x3e11f7f6	0.14254746
111	0xbcc19d50	-0.023634583
112	0xbd65d778	-0.05611369
113	0x3d300899	0.04297695
114	0x3d77642d	0.06039827
115	0x3d52f2d3	0.051501106
116	0xbdc301cd	-0.09521828
117	0xbe5a6c67	-0.21330415
118	0x3d0c585f	0.034263965
119	0xbe3dfa23	-0.18552451
120	0x3dd43f0a	0.10363586
121	0xbe8595f7	-0.26090977
122	0xbe2331d1	-0.15936972
123	0xbe02f462	-0.12788537
124	0xbe8230aa	-0.25427753
125	0xbdcc20d0	-0.09967196
126	0xbdd3d80e	-0.103439435
127	0xbe802a25	-0.25032154

encoder.encoder_layers.0.1.running_mean f4 [128]
0	0xbd9ddfec	-0.07708725
1	0x3e3e4cd9	0.18584003
2	0x3ed063ac	0.40701044
3	0x3db5e64b	0.088818155
4	0x3da3d21f	0.07999062
5	0xbee220c9	-0.44165638
6	0x3f2f0963	0.683737
7	0x3f230557	0.6368002
8	0xbf3bcb08	-0.73356676
9	0x3f4e2ead	0.8053997
10	0xbe31fb8a	-0.17381111
11	0x3e61ba30	0.22043681
12	0x3f181ea7	0.5942177
13	0xbe539d6c	-0.2066552
14	0xbe1d02a8	-0.15333045
15	0x3e928390	0.28616
16	0x3f65a762	0.8970853
17	0xbe835b91	-0.25655797
18	0xbd6c774a	-0.05773095
19	0xbd7a636a	-0.061129965
20	0xbec18209	-0.3779452
21	0xbd745d7f	-0.059659477
22	0xbdb8e412	-0.09027876
23	0x3e5956d0	0.21224523
24	0xbc94bc79	-0.018156277
25	0xbe344f29	-0.17608322
26	0xbd0c48f9	-0.03424928
27	0xbeaa6c91	-0.33285955
28	0xbd74c822	-0.059761174
29	0x3e34ffab	0.17675655
30	0xbe3366f4	-0.17519742
31	0x3f70e83d	0.9410437
32	0x3db944d3	0.0904633
33	0x3eb8e401	0.36111453
34	0x3e2e4c8c	0.17021388
35	0xbf579907	-0.84217876
36	0xbe9b26b0	-0.30302954
37	0xbd9d1045	-0.07669119
38	0x3ea63c9f	0.32468125
39	0xbeb6e76b	-0.35723433
40	0xbd753790	-0.05986744
41	0x3e4747a9	0.1946093
42	0xbeb11f35	-0.34594122
43	0xbe783f74	-0.24242955
44	0xbe3f79de	-0.18698832
45	0xbf41a0ce	-0.75635993
46	0xbf0d6e85	-0.55246764
47	0x3ee9ddef	0.45677134
48	0xbf554e9d	-0.8332308
49	0x3dbcc4ce	0.09217225
50	0xbebe8a35	-0.3721482
51	0xbf352321	-0.7075673
52	0x3d8302a7	0.0639699
53	0xbea3b390	-0.31972933
54	0xbe0e1f61	-0.13879158
55	0xbf154d6b	-0.58321255
56	0x3d7eeba3	0.06223644
57	0x3f36a446	0.7134441
58	0x3e7e6b2a	0.24845567
59	0x3ef510c1	0.47864345
60	0x3d7850be	0.060623877
61	0x3e77cefd	0.24200054
62	0xbf70c32e	-0.9404782
63	0x3f0e343b	0.5554845
64	0x3d619aae	0.055079155
65	0xbef18ac9	-0.47176197
66	0x3f806ba5	1.003285
67	0x3e9bf55a	0.30460626
68	0xbe5c4366	-0.21510085
69	0xbdd25717	-0.10270517
70	0xbe14d085	-0.14532669
71	0xbec3b714	-0.38225615
72	0xbea98cd6	-0.33115262
73	0x3eff481c	0.49859703
74	0xbd03bdfc	-0.032163605
75	0x3ec6c848	0.38824677
76	0xbde9f78c	-0.11424169
77	0x3d820369	0.06348307
78	0x3dbf6eef	0.09347331
79	0x3f3bf911	0.7342692
80	0xbbd3e595	-0.0064665773
81	0xbe89af7c	-0.26891696
82	0xbd1d7c77	-0.038448777
83	0x3f82656e	1.0187204
84	0xbe42d868	-0.19027865
85	0x3efcb033	0.4935318
86	0x3edea2f9	0.43483713
87	0xbf6d0ada	-0.92594683
88	0x3dac6835	0.084183134
89	0xbd4f7a18	-0.050653547
90	0x3ef55a4c	0.47920454
91	0x3f5b1ca9	0.85590607
92	0x3f0bad19	0.54561
93	0x3f089148	0.5334668
94	0x3f3f46e2	0.74717534
95	0xbcb46184	-0.022019155
96	0xbca4e6a0	-0.020129502
97	0x3e16cab8	0.14725769
98	0xbef052f7	-0.46938297
99	0xbc008aad	-0.007845563
100	0x3e962d6e	0.29331535
101	0x3f552eb6	0.832744
102	0x3d26f1cc	0.04075794
103	0x3f27325c	0.6531122
104	0xbe341b27	-0.17588483
105	0x3f126dce	0.571988
106	0xbd472d3a	-0.048627116
107	0xbe59571a	-0.21224633
108	0x3e9dc371	0.30813172
109	0x3ef21581	0.4728203
110	0x3e83389f	0.25629136
111	0xbe401a49	-0.18760027
112	0x3f81d183	1.0142063
113	0x3e87048a	0.2637065
114	0x3ef9afe3	0.48767003
115	0xbdc5ee7c	-0.09664628
116	0x3f1f8965	0.6231902
117	0xbdf89903	-0.1213856
118	0x3e44f1d0	0.19232869
119	0x3f2593bc	0.6467855
120	0x3e36800e	0.17822286
121	0xbe744abb	-0.23856632
122	0x3eaaa2fd	0.33327475
123	0xbf5fbe92	-0.8740016
124	0x3dd1e1ab	0.10248121
125	0x3eb09f2b	0.34496436
126	0x3f29a244	0.6626322
127	0x3d4c0f5c	0.049819335
