scripts/abr_clustering/audiometric_deep_clustering/experiments/test_new_naming/20250618_171926_evident/checkpoints/pretrain/final_pretrain.pt (torch, 344142 bytes, 213 tensors)

encoder.abr_encoder.abr_projection.weight f4 [16, 6]
0	0xbd27bbf5	-0.040950734
1	0x3f0df5bd	0.5545309
2	0x3d72a379	0.05923793
3	0x3e198778	0.14993083
4	0x3d036f7d	0.032088745
5	0x3ea45f24	0.32103837
6	0xbee1fe83	-0.4413949
7	0xbe26bbbc	-0.16282552
8	0x3eaca0b6	0.33716363
9	0x3db4a3d7	0.088203125
10	0xbddbea4c	-0.10738048
11	0xbf10d769	-0.5657869
12	0xbccd6bac	-0.025075756
13	0x3e0b3619	0.13594855
14	0xbf2919c3	-0.66054934
15	0x3d8b048c	0.067879766
16	0xbe378fa5	-0.1792589
17	0xbd43e6c1	-0.047827486
18	0x3e0d3f40	0.13793659
19	0xbf150607	-0.5821232
20	0x3e423bf6	0.18968186
21	0x3d2a1a3b	0.04152892
22	0xbe807d4b	-0.2509559
23	0x3e98a4f6	0.29813355
24	0xbdfb3fe3	-0.12268045
25	0xbea62791	-0.32452062
26	0x3b9c0a11	0.004761942
27	0xbd664aa7	-0.056223538
28	0xbe6bd77a	-0.23031417
29	0xbf331691	-0.6995631
30	0x3d38f654	0.04515679
31	0x3ec91c65	0.39279476
32	0xbf107041	-0.56421286
33	0xbe1bf91e	-0.1523175
34	0xbe2f45cb	-0.17116468
35	0xbefff04e	-0.49988025
36	0x3e19bdc1	0.15013792
37	0xbbd86102	-0.006603361
38	0x3f0b5047	0.5441937
39	0xbebd0702	-0.3691941
40	0x3db1e6b1	0.08686579
41	0x3e9afa6e	0.30269188
42	0x3d7b1b12	0.061305113
43	0xbce79c3c	-0.02827274
44	0x3ed784d5	0.4209353
45	0xbe62aec3	-0.22136979
46	0x3f2c3b39	0.67277867
47	0x3e943826	0.28949088
48	0x3e859ee9	0.260978
49	0x3f09870e	0.537217
50	0x3da98e88	0.08279139
51	0x3e7cbcf2	0.24681452
52	0x3d98fb4c	0.07469806
53	0xbe8c9e66	-0.27464598
54	0x3e72d911	0.23715617
55	0x3f06e2c6	0.5268978
56	0x3e1de406	0.15419015
57	0x3e3c3ca2	0.18382505
58	0xbeb17409	-0.3465884
59	0x3e108467	0.14113007
60	0x3e0961ab	0.13416164
61	0xbe472cb7	-0.19450651
62	0x3e8b4889	0.27203777
63	0x3e88794a	0.26655036
64	0x3e8c9ca1	0.27463248
65	0x3f276e1b	0.6540238
66	0x3e604c88	0.21904194
67	0xbdebca39	-0.1151318
68	0x3daa2731	0.083082564
69	0x3f03ea35	0.51529247
70	0x3ec5fc0a	0.38668853
71	0xbd641e91	-0.055693213
72	0x3ad42cf3	0.0016187712
73	0xbedb53ac	-0.42837274
74	0xbe27ebe7	-0.16398583
75	0xbef13802	-0.47113043
76	0x3e84d387	0.25942633
77	0x3ec2e720	0.3806696
78	0xbe5ec897	-0.21756206
79	0xbe6c591e	-0.2308087
80	0xbe8ea9e2	-0.27863985
81	0xbe99a307	-0.30007192
82	0x3eb6cbfc	0.35702503
83	0xbf396bf1	-0.7243033
84	0xbead66c5	-0.3386747
85	0xbf12cfb9	-0.5734821
86	0xbdc3b2ba	-0.09555574
87	0xbed727ec	-0.42022645
88	0xbec819d3	-0.39082202
89	0x3eb6bdde	0.35691732
90	0x3e7dc33a	0.24781504
91	0x3ea73a72	0.32661778
92	0x3e4ca200	0.19983673
93	0x3ea8af7c	0.32946384
94	0x3e9b21ea	0.30299312
95	0xbe2ab8b4	-0.16672021

encoder.abr_encoder.abr_projection.bias f4 [16]
0	0x37fbd363	3.0019966e-05
1	0x37faac34	2.988251e-05
2	0xb83d1b21	-4.5086377e-05
3	0xb5acfaea	-1.2888024e-06
4	0x379df00a	1.8827635e-05
5	0x37789d74	1.4818612e-05
6	0x366e7494	3.553262e-06
7	0xb459a69f	-2.0270316e-07
8	0x38c318cd	9.302944e-05
9	0xb85ac45b	-5.215812e-05
10	0xb81acba5	-3.690612e-05
11	0xb7a7b132	-1.9990464e-05
12	0x38b87efa	8.797455e-05
13	0xb84e01c3	-4.9115868e-05
14	0x382ac6fb	4.0716473e-05
15	0xb8c4e34f	-9.388348e-05

encoder.abr_encoder.abr_norm.weight f4 [16]
0	0x3f644c2b	0.89178723
1	0x3f683525	0.9070609
2	0x3f64912a	0.89284
3	0x3f4ae66a	0.79257834
4	0x3f83b4ea	1.0289586
5	0x3f75dd8c	0.9604118
6	0x3f4a0553	0.78914374
7	0x3f507ddd	0.8144205
8	0x3f4de205	0.80423003
9	0x3f58bf1c	0.8466661
10	0x3f670e45	0.9025615
11	0x3f6e5807	0.9310307
12	0x3f5c335d	0.86015874
13	0x3f80603d	1.002937
14	0x3f5f91f0	0.8733206
15	0x3f6a2dfe	0.9147643

encoder.abr_encoder.abr_norm.bias f4 [16]
0	0xbeb789be	-0.35847276
1	0xbe2fc264	-0.17163998
2	0xbdbfffcf	-0.093749635
3	0xbead8b8c	-0.33895528
4	0xbd92313d	-0.07138298
5	0xbe536027	-0.20642148
6	0xbee2496e	-0.44196647
7	0xbedb9890	-0.42889833
8	0xbeac066f	-0.33598658
9	0xbe851aa2	-0.25996882
10	0xbdec582c	-0.11540255
11	0xbec53e8b	-0.3852428
12	0xbe55f88b	-0.20895593
13	0xbd50d2ff	-0.05098247
14	0xbea7b1cc	-0.32752836
15	0xbe9296f0	-0.2863078

encoder.abr_encoder.abr_norm.running_mean f4 [16]
0	0xbe91cbed	-0.28475896
1	0x3e66a881	0.22525217
2	0x3e3eee32	0.18645552
3	0x3d3533ac	0.04423873
4	0x3ec20330	0.37893057
5	0x3e815821	0.2526255
6	0xbe419cbd	-0.18907447
7	0xbea2d27b	-0.3180121
8	0xbe7a4641	-0.24440862
9	0xbe71e683	-0.2362309
10	0xbebf07bb	-0.37310585
11	0xbe8ba272	-0.27272373
12	0x3de09f32	0.10967864
13	0x3ebd3126	0.3695156
14	0x3ec54644	0.3853017
15	0xbea7b8c1	-0.32758144

encoder.abr_encoder.abr_norm.running_var f4 [16]
0	0x3ec10ec5	0.3770658
1	0x3e82b1bc	0.25526226
2	0x3e34cf5e	0.1765723
3	0x3d111b84	0.03542663
4	0x3f29bf52	0.66307557
5	0x3ea5015b	0.32227597
6	0x3e3ae0f7	0.1824988
7	0x3ef59b4b	0.47970042
8	0x3e92fb41	0.28707317
9	0x3e8ab348	0.27089906
10	0x3f26e8ba	0.6519886
11	0x3eb52345	0.3537847
12	0x3dad9cbe	0.08477162
13	0x3f25c3d1	0.6475192
14	0x3f3262b2	0.6968185
15	0x3efca9be	0.49348253

encoder.abr_encoder.attention.q_projection.weight f4 [16, 1]
0	0x3e2e03f3	0.16993694
1	0xbee86a2b	-0.453935
2	0xbb8b6e93	-0.004255125
3	0xbe9e822a	-0.30958682
4	0xbeae1ec5	-0.3400785
5	0xbeb0b441	-0.34512523
6	0xbe90d6dd	-0.28288928
7	0xbeb77c79	-0.35837153
8	0xbebd843f	-0.37014958
9	0xba056811	-0.00050890545
10	0xbeba5118	-0.36389995
11	0x3e99cf29	0.30040863
12	0x3bec60e2	0.007213698
13	0xbf1b4ef4	-0.6066735
14	0xbf0fe8d4	-0.5621464
15	0xbe644cd6	-0.22294936

encoder.abr_encoder.attention.q_projection.bias f4 [16]
0	0xbc1619e2	-0.009161444
1	0xbb2cae1d	-0.0026348897
2	0x3c923ba4	0.017850704
3	0xbac413ba	-0.0014959492
4	0x3c007171	0.007839547
5	0x3c48414a	0.012222597
6	0x3c6dad61	0.014506669
7	0x3bd5593c	0.0065108817
8	0xbc8fc332	-0.017549131
9	0x3d58345e	0.052784316
10	0x3d501de9	0.050809775
11	0xbd46f127	-0.048569825
12	0xbd620771	-0.055182878
13	0xbc8869f2	-0.016652081
14	0x3c868c2b	0.01642426
15	0x3d3689e3	0.044565093

encoder.abr_encoder.attention.k_projection.weight f4 [16, 1]
0	0x3e68b33f	0.22724627
1	0x3f0826c7	0.5318417
2	0x392c70f8	0.00016445282
3	0x3eae6361	0.34060195
4	0xbea52f50	-0.3226266
5	0xbe019529	-0.12654556
6	0xbdc1bacd	-0.094594575
7	0xbf145e96	-0.57956827
8	0xbe15ca7e	-0.14628026
9	0x3be9bcab	0.0071330867
10	0x3e3f56d5	0.18685468
11	0xbe902537	-0.28153393
12	0xbc13a054	-0.009010393
13	0xbe0e5709	-0.13900389
14	0xbdcbe698	-0.09956092
15	0xbd58c8c2	-0.052925833

encoder.abr_encoder.attention.k_projection.bias f4 [16]
0	0xb787fc88	-1.6210848e-05
1	0x380268a5	3.1091873e-05
2	0xb55163f6	-7.800403e-07
3	0x37f39dc0	2.9041315e-05
4	0x35eda560	1.7706006e-06
5	0x3828f2be	4.0280393e-05
6	0x3524dd7a	6.141705e-07
7	0x37d13b2e	2.49423e-05
8	0xb8278066	-3.9935483e-05
9	0xb513db27	-5.5080676e-07
10	0x38181b99	3.6265326e-05
11	0x37a56e5b	1.9720921e-05
12	0x361b3abd	2.313099e-06
13	0xb848a004	-4.7832742e-05
14	0xb8660519	-5.484102e-05
15	0xb62b171a	-2.5494433e-06

encoder.abr_encoder.attention.v_projection.weight f4 [16, 1]
0	0xbec7a3b1	-0.38992074
1	0x3ed2a9af	0.41145083
2	0xbef665ee	-0.4812464
3	0xbe61adf1	-0.2203901
4	0x3ea55783	0.3229333
5	0xbe321214	-0.17389709
6	0xbe9133a4	-0.2835971
7	0xbf09b75a	-0.537954
8	0x3e9271be	0.28602403
9	0x3df9c7c2	0.12196304
10	0x3e2f4798	0.17117155
11	0x3e66e3a8	0.22547781
12	0xbf04ba39	-0.51846653
13	0xbeaebfdc	-0.34130752
14	0x3ea3ceb1	0.3199363
15	0xbed731a5	-0.42030063

encoder.abr_encoder.attention.v_projection.bias f4 [16]
0	0x3d707f8d	0.058715392
1	0xbd71826e	-0.058962278
2	0x3d722438	0.059116572
3	0xbd5cf8f2	-0.05394835
4	0x3d6b4fd5	0.05744918
5	0xbd65829b	-0.05603276
6	0xbd55433c	-0.052066073
7	0x3d73a468	0.059482962
8	0x3d210bc6	0.03931787
9	0xbd55e6e6	-0.052222155
10	0x3ce37ade	0.027768549
11	0xbd4ba15d	-0.049714435
12	0x3d688038	0.056762904
13	0x3d541dd3	0.051786255
14	0xbcbf8729	-0.02337988
15	0x3d4e9163	0.05043162

encoder.abr_encoder.attention.output_projection.weight f4 [1, 16]
0	0xbe61025c	-0.21973556
1	0x3e8b04fe	0.27152246
2	0xbe545aaf	-0.20737718
3	0x3dfd7101	0.123750694
4	0xbea16e96	-0.31529683
5	0x3e5581fd	0.20850368
6	0x3db33dee	0.087520465
7	0xbed6ac22	-0.41928202
8	0xbea78f1b	-0.32726368
9	0x3ea769bb	0.32697853
10	0xbd99b9fd	-0.075061776
11	0x3eea172c	0.45720804
12	0xbdc731ad	-0.09726272
13	0xbeab28cc	-0.33429563
14	0x3c815e61	0.015792074
15	0xbeccba70	-0.3998599

encoder.metadata_encoder.metadata_projection.weight f4 [24, 12]
0	0x3de5c8f6	0.11219971
1	0x3dfcd9e0	0.12346244
2	0xbddd5082	-0.10806371
3	0xbeb2a3ea	-0.34890682
4	0x3e5f580f	0.21810935
5	0x3e642fcc	0.22283858
6	0x3e1eefe2	0.15521196
7	0x3d6f5838	0.05843374
8	0x3e22088a	0.1582357
9	0x3c5c7b80	0.013457179
10	0xbe8d0444	-0.27542317
11	0xbe6325fd	-0.2218246
12	0xbd181543	-0.03712965
13	0xbac177d5	-0.0014760444
14	0x3e126d47	0.14299498
15	0x3df48316	0.11939065
16	0x3e05cbb2	0.13065985
17	0x3ddd4442	0.10804035
18	0x3db95a52	0.0905043
19	0x3dd98891	0.10621751
20	0xbd804877	-0.062638216
21	0xbce14fec	-0.02750393
22	0xbecbfda3	-0.39841947
23	0xbc78d48a	-0.015187392
24	0xbd9735eb	-0.07383331
25	0x3ccc87fe	0.02496719
26	0x3e588f7e	0.21148488
27	0x3dcf9c12	0.1013719
28	0xbdccbe78	-0.099972665
29	0xbe442db6	-0.19158062
30	0xbe651bed	-0.22373934
31	0xbe2a6844	-0.16641337
32	0x3e2e6478	0.17030513
33	0xbbbd00b1	-0.0057679047
34	0xbec9472e	-0.39312118
35	0x3d98e6cf	0.07465898
36	0xbb853e43	-0.00406626
37	0x3cf9a89f	0.030475913
38	0x3d7cd0b7	0.061722483
39	0xbb448035	-0.0029983644
40	0x3e8847ac	0.2661718
41	0x3cfa5cb4	0.030561782
42	0x3e3493e2	0.17634538
43	0x3e2e9e30	0.17052531
44	0x3d86edee	0.0658835
45	0xbd448f1b	-0.04798804
46	0xbeae729f	-0.34071824
47	0xbc822424	-0.015886374
48	0xbd2d3231	-0.042284194
49	0x3d25680e	0.040382437
50	0x3e8e7530	0.27823782
51	0x3e329447	0.17439376
52	0xbe32216a	-0.17395559
53	0xbca3b370	-0.019983023
54	0xbd5972fa	-0.053088166
55	0xbe56e46d	-0.20985575
56	0xbe4b9504	-0.19881064
57	0x3d23df7f	0.040008064
58	0xbea3bacc	-0.31978452
59	0x3d64a68c	0.055822894
60	0x3ccf702d	0.025322044
61	0x3d21c224	0.039491788
62	0xbe837a70	-0.2567935
63	0xbe9971f7	-0.2996976
64	0x3dfe6bce	0.12422906
65	0x3e8f85f3	0.28031883
66	0x3e6405f4	0.22267896
67	0x3e5917b3	0.21200447
68	0xbd0d9214	-0.03456314
69	0x3defd16b	0.11709865
70	0x3f2843e6	0.65728605
71	0x3d633c60	0.0554775
72	0x3d9855a1	0.074382074
73	0xbc83f3fb	-0.01610755
74	0x3d5a30e2	0.053269275
75	0x3e3388d5	0.17532666
76	0xbce24685	-0.027621517
77	0xbec90245	-0.39259544
78	0xbea2dea1	-0.31810477
79	0xbe8c442f	-0.2739577
80	0xbd125b60	-0.035731673
81	0x3dd6de0b	0.1049157
82	0xbeade3d4	-0.33962882
83	0xbd908b00	-0.07057762
84	0xbd5476db	-0.051871162
85	0xbc0b9bea	-0.0085210595
86	0xbe23309f	-0.15936516
87	0xbe4f237c	-0.2022838
88	0xbe44bb4f	-0.19212078
89	0xbe597079	-0.21234311
90	0xbea2957f	-0.3175468
91	0xbe60bda5	-0.21947344
92	0xbe09e4dd	-0.1346621
93	0xbe57a3d4	-0.21058589
94	0xbef91dd4	-0.4865557
95	0x3d3915ce	0.04518681
96	0xbd58663f	-0.052831884
97	0x3da392dd	0.07986996
98	0x3d94ef91	0.07272256
99	0xbd67048d	-0.056400824
100	0xbc98f1d1	-0.018669995
101	0xbec11606	-0.37712115
102	0xbea8644c	-0.3288902
103	0xbea08b06	-0.31356066
104	0xbe683234	-0.22675401
105	0xbd60c289	-0.054873023
106	0x3e9f5ea6	0.311269
107	0xbd11a91f	-0.035561677
108	0x3ce04bd1	0.027379902
109	0xbd3bb67d	-0.04582833
110	0x3de6a9de	0.11262868
111	0x3e348496	0.17628703
112	0xbdc8bf7c	-0.09802148
113	0x3d545376	0.051837407
114	0xbe12e47d	-0.14344974
115	0xbc4844a5	-0.012223397
116	0xbde384d5	-0.1110932
117	0x3dc6ce0b	0.09707268
118	0x3f18697f	0.59535974
119	0x3dba6604	0.09101489
120	0x3d1f711e	0.038926236
121	0xbdba4994	-0.09096065
122	0xbe0258fe	-0.1272926
123	0x3d670701	0.056403164
124	0xbe926495	-0.28592363
125	0xbe93e793	-0.28887615
126	0xbe571964	-0.2100578
127	0xbe69c41c	-0.22828716
128	0xbd0576f9	-0.032584164
129	0x3d9b24f4	0.075754076
130	0x3ebddf0a	0.37084228
131	0x3dbc3340	0.09189463
132	0xbd63c038	-0.055603236
133	0xbc102426	-0.008797681
134	0xbc0daf5e	-0.008647768
135	0x3c9fdc69	0.01951428
136	0xbd4f0231	-0.0505392
137	0x3d8dc443	0.069221996
138	0x3c92cabb	0.017918935
139	0x3cdb9dbc	0.026808612
140	0xbd761790	-0.060081065
141	0xbd86cfe1	-0.065826185
142	0xbecbe326	-0.39821738
143	0x3cd42283	0.025895363
144	0xbd7b7996	-0.06139525
145	0xbc703a90	-0.0146624
146	0xbe9c758f	-0.3055844
147	0xbe83ebab	-0.25765738
148	0xbe37bb3b	-0.17942517
149	0xbe25a971	-0.16177918
150	0xbd7351ae	-0.059404068
151	0xbe39944a	-0.18122974
152	0x3c34a468	0.011025526
153	0xbd0da31f	-0.034579393
154	0xbecd26e9	-0.4006875
155	0x3d94065a	0.07227774
156	0x3dd3415e	0.10315202
157	0xbd08f6bc	-0.03343843
158	0xbd47c1db	-0.04876886
159	0xbd9eda67	-0.07756501
160	0xbe822a3d	-0.2542285
161	0xbe972b6c	-0.29525316
162	0x3bb755b2	0.0055949325
163	0xbd968a9c	-0.073506564
164	0x3c80732b	0.015679916
165	0x3e0d5f8f	0.13805984
166	0x3f2baed9	0.6706367
167	0x3e0451b5	0.12921794
168	0xbd424e6c	-0.04743807
169	0xbcb75760	-0.02238053
170	0xbe91c60c	-0.2847141
171	0xbd11acd3	-0.03556521
172	0x3d490ad9	0.04908261
173	0xbe2b2dff	-0.16716765
174	0xbdf1cc0f	-0.11806499
175	0xbde77db3	-0.11303272
176	0xbdbbe155	-0.09173838
177	0x3e11e287	0.1424657
178	0xbef1c3e3	-0.47219762
179	0x3cc8ffe9	0.02453609
180	0xbcb4e9df	-0.022084175
181	0xbd8bac43	-0.06819966
182	0x3dd1fb83	0.1025305
183	0x3e6e189c	0.23251575
184	0xbea02ba6	-0.312833
185	0x3de8e3bc	0.11371562
186	0x3daabc68	0.08336717
187	0x3de99379	0.11405081
188	0xbe5c9c32	-0.21543959
189	0x3dd26335	0.102728285
190	0xbecf17a7	-0.40447733
191	0xbc5d70ac	-0.013515633
192	0x3c07f1f9	0.008297437
193	0x3c210091	0.009826795
194	0x3d4b1a76	0.049585782
195	0x3d6e84bb	0.05823205
196	0xbbde1cfb	-0.006778357
197	0xbde3e85f	-0.11128306
198	0xbdc48f6d	-0.09597669
199	0xbe1b8980	-0.15189171
200	0xbda12869	-0.07869036
201	0x3d89beb9	0.067258306
202	0x3f14e312	0.5815898
203	0xbc070ebe	-0.008243261
204	0x3cb189cb	0.02167215
205	0xbd1aa68b	-0.037756484
206	0x3dd82984	0.105547935
207	0x3e162c08	0.14665234
208	0xbe213b7f	-0.15745352
209	0xbd267c37	-0.040645804
210	0xbd5e18dc	-0.054222926
211	0xbdb4b993	-0.08824458
212	0x3e8d9aa9	0.2765706
213	0x3dc2816e	0.09497343
214	0xbf045d7a	-0.51705134
215	0xbcecd631	-0.028910728
216	0x3dfa8c9f	0.122338526
217	0xbd9bda68	-0.07610017
218	0xbe0e87d1	-0.13918997
219	0xbae71e08	-0.0017632851
220	0x3cf93276	0.03041957
221	0xbcfac087	-0.030609382
222	0xbe910764	-0.2832595
223	0xbe22c7b4	-0.15896493
224	0x3e026b1b	0.1273617
225	0x3d9566d3	0.07295003
226	0x3f0f0869	0.5587221
227	0x3e1623f4	0.14662153
228	0xbd0d8b43	-0.03455664
229	0xbbf330eb	-0.007421603
230	0xbe1c3242	-0.15253547
231	0xbe403397	-0.1876968
232	0x3e1a2966	0.15054855
233	0xbe88ebdd	-0.2674245
234	0xbe815646	-0.25261134
235	0xbe81359b	-0.2523621
236	0x3e351f13	0.17687635
237	0xbe786a43	-0.24259286
238	0x3ebef524	0.37296402
239	0x3c56533a	0.013081366
240	0xbd4f954f	-0.0506795
241	0x3d7985d6	0.06091865
242	0x3ceb2534	0.028704263
243	0xbe5e4a26	-0.21707973
244	0xbeb8e9a9	-0.3611577
245	0xbe2f7fa0	-0.17138529
246	0xbe5384bb	-0.20656101
247	0xbe4823c3	-0.19544892
248	0x3dd8e7a4	0.10591057
249	0xbd9c5765	-0.07633857
250	0x3eba2fa9	0.36364487
251	0x3a4f03f3	0.0007897012
252	0x3ddb3776	0.10703938
253	0x3de3c273	0.111210726
254	0xbd7a6458	-0.06113085
255	0xbe92dfd1	-0.28686383

encoder.metadata_encoder.metadata_projection.bias f4 [24]
0	0xbe148daa	-0.14507166
1	0xbd8d088a	-0.06886394
2	0xbdf2efb1	-0.11862124
3	0xbdd8b8da	-0.10582133
4	0xbd5b2eab	-0.053511303
5	0xbe374b9b	-0.17899935
6	0xbd914bf6	-0.070945665
7	0xbe3b80b7	-0.1831082
8	0xbe7a6a9f	-0.24454735
9	0xbeb15023	-0.34631452
10	0xbebbe9b1	-0.3670173
11	0x3ca2e506	0.019884598
12	0xbe26701d	-0.16253705
13	0xbe9f77c0	-0.3114605
14	0xbe5da275	-0.21644004
15	0xbdb934d6	-0.09043281
16	0xbe5f4359	-0.21803035
17	0x3d5fbc1a	0.054622747
18	0xbe704539	-0.23463906
19	0xbe95ff7c	-0.29296482
20	0xbe95af7a	-0.2923544
21	0xbe5fb228	-0.21845305
22	0xbdabaa99	-0.08382148
23	0xbdd38bd9	-0.10329408

encoder.encoder_layers.0.0.weight f4 [64, 40]
0	0xbe38e531	-0.1805618
1	0x3d0a5aec	0.033778116
2	0xbe893082	-0.2679482
3	0x3d0584e5	0.03259744
4	0x3da0e397	0.07855909
5	0x3e67e0f9	0.22644414
6	0xbe78f467	-0.24311982
7	0x3e57abbb	0.21061604
8	0xbc903ff8	-0.017608628
9	0x3e095e74	0.13414937
10	0x3e5d5e76	0.21618065
11	0xbd1a0c27	-0.037609246
12	0xbd248a7a	-0.040171124
13	0xbddce014	-0.10784927
14	0x3e1aa5af	0.15102266
15	0xbdf5a8d4	-0.11995092
16	0x3e05212b	0.13000934
17	0x3d65777a	0.056022145
18	0x3e7eb03f	0.2487192
19	0x3e342008	0.17590344
20	0x3e628aa3	0.22123198
21	0xbe3888bf	-0.18020914
22	0xbd87e9aa	-0.06636365
23	0xbe516c65	-0.20451505
24	0x3ded14e5	0.11576251
25	0x3b89e1c4	0.0042078216
26	0x3c0b7b5a	0.008513296
27	0x3d1cb7ad	0.038261104
28	0xbca533f5	-0.020166377
29	0x3dd0993c	0.10185477
30	0xbd95f718	-0.0732252
31	0x3e72a682	0.2369633
32	0xbeaf1649	-0.3419669
33	0xbead38ae	-0.33832306
34	0x3deebf02	0.116575256
35	0x3e607a64	0.21921688
36	0xbdac6ddc	-0.084193915
37	0x3e1d0842	0.15335181
38	0xbe6e539e	-0.23274085
39	0xbe4ebc2a	-0.20188966
40	0xbda2e9b5	-0.07954732
41	0x3e499260	0.19684744
42	0xbe1fbf20	-0.15600252
43	0x3e3ee19f	0.18640755
44	0xbdb28ed4	-0.087186486
45	0xbdd80569	-0.10547907
46	0xbdd52415	-0.10407273
47	0xbe050446	-0.12989911
48	0x3e47772e	0.19479057
49	0xbe5035ec	-0.2033307
50	0xbd1a750a	-0.037709273
51	0xbd1fb2dc	-0.038988933
52	0x3e5f5897	0.21811138
53	0x3e21976b	0.15780418
54	0x3bf78422	0.0075535933
55	0xbd586eb1	-0.05283994
56	0x3d319558	0.043355316
57	0xbd68c445	-0.056827802
58	0x3e451075	0.19244559
59	0xbd82cc22	-0.063865915
60	0x3dc2bfca	0.09509237
61	0x3ea85e1a	0.32884294
62	0x3d578819	0.052620027
63	0xbe8d536e	-0.27602714
64	0x3d7d89a3	0.06189884
65	0xbe236c2e	-0.15959236
66	0xbccc8d81	-0.024969818
67	0xbe00ff7e	-0.12597463
68	0x3e56911f	0.20953797
69	0xbe1b6dc9	-0.15178598
70	0xbea14212	-0.3149572
71	0x3d8512e5	0.064977445
72	0x3e0853f9	0.13313283
73	0xbd5212b4	-0.051287368
74	0x3e028a2b	0.1274802
75	0x3e282f63	0.16424327
76	0xbc52a5c4	-0.012856904
77	0xbd34b2c9	-0.044115815
78	0x3db0c932	0.08632125
79	0x3e95b804	0.29241955
80	0x3d13cf73	0.03608651
81	0x3d0b3e06	0.033994697
82	0xbdb8f180	-0.090304375
83	0xbe0f4b68	-0.13993609
84	0xbd7db0b8	-0.06193611
85	0xbeb98d61	-0.36240676
86	0x3df3eba6	0.11910181
87	0xbd9511bf	-0.072787754
88	0xbdd137ea	-0.10215743
89	0xbc86bc80	-0.016447306
90	0xbd54454f	-0.05182391
91	0xbdbabd1d	-0.09118102
92	0xbe13baa3	-0.14426665
93	0xbe1ad3fb	-0.15119927
94	0xbd23d383	-0.039996635
95	0x3da33ba2	0.079703584
96	0x3d2fa589	0.042882476
97	0x3d72ea62	0.059305556
98	0xbe89b212	-0.2689367
99	0x3e84f5d7	0.2596881
100	0x3dcbb21a	0.099460796
101	0x3e6fa240	0.23401737
102	0xbdf9fe72	-0.12206735
103	0x3e85dd28	0.2614529
104	0x3c9e124e	0.019295838
105	0xbe5c86c9	-0.21535791
106	0x3e50fc74	0.20408803
107	0xbdb89497	-0.09012716
108	0xbc8c0b79	-0.017095314
109	0x3e94fdd3	0.29099903
110	0x3d5ceae3	0.053934943
111	0x3d549da4	0.05190815
112	0xbea87bce	-0.32906955
113	0x3e6c1f94	0.23058921
114	0xbc641ee5	-0.013923381
115	0xbbb634c1	-0.005560488
116	0xbe1c2daa	-0.15251794
117	0x3d1e6973	0.038674783
118	0x3e3f8378	0.18702495
119	0x3dde0bfc	0.108421296
120	0x3e438914	0.1909526
121	0xbd4f18d8	-0.050560802
122	0xbe29b2ae	-0.16572067
123	0x3cd41b78	0.025892004
124	0xbe1c9c73	-0.15294056
125	0xbe32f912	-0.17477825
126	0x3dda3475	0.10654537
127	0x3e8144a2	0.25247675
128	0xbcc1d126	-0.0236593
129	0xbdb9143d	-0.09037063
130	0x3d73671b	0.0594245
131	0xbc0c602b	-0.00856785
132	0xbe038410	-0.12843347
133	0xbdb2cb6d	-0.08730207
134	0xbd480cf8	-0.048840493
135	0x3c045c2f	0.008078619
136	0x3df6be95	0.120480694
137	0xbba8008c	-0.0051270183
138	0x3d0d0303	0.0344267
139	0xbd8c771f	-0.06858658
140	0xbd6cc5b0	-0.057805717
141	0x3e65fe8a	0.2246038
142	0xbc887652	-0.016657982
143	0xbe650152	-0.22363785
144	0x3e1895a4	0.14900833
145	0x3e493e50	0.19652677
146	0x3ba1b9c8	0.004935477
147	0xbe0d627f	-0.13807105
148	0xbda5e7c5	-0.08100847
149	0x3e4389df	0.19095562
150	0x3dee81d4	0.116458565
151	0xbe670e55	-0.22564061
152	0x3e956d48	0.29184937
153	0xbce79c90	-0.028272897
154	0x3e1f43b6	0.15553173
155	0x3c819647	0.015818728
156	0x3d419a75	0.047266442
157	0x3de33b9c	0.11095354
158	0xbdb7b255	-0.08969561
159	0x3dbf1aa2	0.09331252
160	0xbd1af15a	-0.037827827
161	0x3e485de2	0.19567063
162	0x3d17188f	0.036888655
163	0x3e0b03e6	0.13575706
164	0xbdaa3b62	-0.083121076
165	0x3dd7375b	0.10508605
166	0x3d212ce4	0.03934945
167	0xbdc73182	-0.0972624
168	0xbc97e378	-0.018541083
169	0x3cd1226a	0.025529105
170	0xbe622e26	-0.22087917
171	0xbc94e580	-0.01817584
172	0x3c0cb063	0.008586976
173	0x3defb6c4	0.11704782
174	0x3d7bb7c4	0.06145455
175	0xbe270c69	-0.16313328
176	0x3dcbf725	0.099592485
177	0x3ea14b96	0.3150298
178	0x3d590d89	0.052991424
179	0x3d8c918e	0.068637
180	0x3ce5c0e4	0.028046079
181	0x3d9b4d40	0.07583094
182	0x3e054c72	0.13017443
183	0x3ebf49ed	0.37361088
184	0xbd384fad	-0.04499786
185	0xbe05c6d6	-0.13064131
186	0x3e0a4716	0.1350368
187	0x3e23068d	0.15920468
188	0x3d4b3e6a	0.04962007
189	0xbd90e82c	-0.07075533
190	0x3e98e77f	0.29864118
191	0x3e19a81d	0.15005536
192	0xbe1bbb83	-0.15208249
193	0xbc8513d4	-0.016244806
194	0xbe4fc087	-0.20288287
195	0x3d944c0b	0.072410665
196	0x3cd844ca	0.026399989
197	0x3cd57dda	0.026060987
198	0xbd9be73e	-0.07612465
199	0xbda6bb98	-0.081412494
200	0xbe1564d2	-0.14589241
201	0x3e2ff121	0.17181827
202	0xbca2a289	-0.019852893
203	0x3d25d87c	0.04048966
204	0x3c65f28c	0.014034878
205	0x3d80ae28	0.06283218
206	0x3d1d7c20	0.038448453
207	0x3e7b0388	0.24513066
208	0x3e4e160f	0.20125602
209	0xbd8958c4	-0.06706384
210	0x3d73ea84	0.059549823
211	0x3d4a1ef9	0.049345944
212	0xbbbc107b	-0.0057392693
213	0xbe39c3f7	-0.18141161
214	0xbc6e9072	-0.014560806
215	0xbd98c4d0	-0.07459414
216	0xbe5cd13b	-0.2156419
217	0x3b59101b	0.0033121172
218	0xbe09a72e	-0.1344268
219	0x3dcf25e5	0.1011465
220	0xbc0325aa	-0.008004585
221	0x3e5b2d3d	0.21403976
222	0xbcd11aa2	-0.025525395
223	0x3d74d027	0.059768822
224	0x3eaecffa	0.3414305
225	0x3e12818d	0.14307232
226	0x3e0fd393	0.14045553
227	0xbde4a3c3	-0.111640476
228	0x3c86964f	0.016429095
229	0x3ceecb38	0.029149637
230	0xbd361613	-0.044454645
231	0xbd1d0068	-0.038330466
232	0x3e197122	0.14984563
233	0xbe56a9b5	-0.20963176
234	0x3e372935	0.17886813
235	0x3de96d24	0.1139777
236	0x3c2d8194	0.010589976
237	0xbe0ce7d3	-0.13760309
238	0xbd9e93da	-0.07743044
239	0x3e18f522	0.14937261
240	0xbe69fbcf	-0.22849964
241	0x3db9207c	0.09039399
242	0x3e813672	0.2523685
243	0xbdd7fed5	-0.10546652
244	0x3daa6f97	0.08322065
245	0xbd01cfb8	-0.031692237
246	0x3cdb181b	0.026744893
247	0x3d6dc74d	0.058051396
248	0xbe1c7f70	-0.15282989
249	0xbca1a1cb	-0.01973047
250	0x3df743a5	0.12073449
251	0xbc8bf8e0	-0.017086446
252	0xbe2f3ff7	-0.17114244
253	0x3cc24cb3	0.023718214
254	0x3d938607	0.07203298
255	0x3b0af72e	0.002120446

encoder.encoder_layers.0.0.bias f4 [64]
0	0xb85f7281	-5.3273983e-05
1	0x38c3d750	9.33843e-05
2	0x38b79273	8.753398e-05
3	0xb82b9ff4	-4.0918545e-05
4	0x37ea225a	2.791097e-05
5	0x381d4e35	3.7504553e-05
6	0xb84b3190	-4.844513e-05
7	0x389efb0b	7.5807875e-05
8	0x33dc0d5e	1.024698e-07
9	0xb646e2a5	-2.9636224e-06
10	0x3691f7a3	4.3501655e-06
11	0xb8625978	-5.3965923e-05
12	0xb7ae3e68	-2.0771477e-05
13	0x36b9c327	5.5361484e-06
14	0x35e66f5e	1.7168747e-06
15	0xb887fe98	-6.4847234e-05
16	0xb7ab339f	-2.0408826e-05
17	0xb77970aa	-1.4867788e-05
18	0xb6b491e9	-5.381404e-06
19	0x38c17171	9.224087e-05
20	0x37f94969	2.9717297e-05
21	0xb747f3bb	-1.1918072e-05
22	0xb9317cc4	-0.00016926514
23	0xb7a1f846	-1.9308307e-05
24	0x383ee3ba	4.5511617e-05
25	0x379b4873	1.8511177e-05
26	0xb784b2e4	-1.5818929e-05
27	0xb8b76f54	-8.7468565e-05
28	0x3851c869	5.001613e-05
29	0xb773d786	-1.4534109e-05
30	0xb913d462	-0.00014098131
31	0x3788f47f	1.6326316e-05
32	0xb834e3ff	-4.3127682e-05
33	0x38c6cbd9	9.479345e-05
34	0xb8327c89	-4.255449e-05
35	0xb8c72d03	-9.4974435e-05
36	0x37cdef9c	2.4549481e-05
37	0x37af6f21	2.0913374e-05
38	0xb80f22d3	-3.412629e-05
39	0x36d05b52	6.209514e-06
40	0x37b5e9dc	2.168578e-05
41	0xb7bf28f3	-2.2788043e-05
42	0xb77788c7	-1.4754193e-05
43	0xb7d38464	-2.521481e-05
44	0x366b311a	3.504631e-06
45	0x37f7f8fc	2.9560637e-05
46	0x381569fe	3.562308e-05
47	0xb79021b9	-1.7181841e-05
48	0x36cb2d63	6.055155e-06
49	0xb663058b	-3.3828862e-06
50	0xb8104264	-3.4394106e-05
51	0xb7dbf3fa	-2.6220445e-05
52	0x36089e3b	2.0357681e-06
53	0xb7a10a42	-1.9197472e-05
54	0x393640d2	0.0001738102
55	0x381a6412	3.680966e-05
56	0xb730295a	-1.0500045e-05
57	0x3784ac46	1.5815847e-05
58	0xb700d184	-7.678176e-06
59	0x3811ee71	3.479276e-05
60	0x374a93cd	1.2074551e-05
61	0xb71dbcc4	-9.40188e-06
62	0x391d36ea	0.00014993144
63	0x37e6c5fc	2.751033e-05

encoder.encoder_layers.0.1.weight f4 [64]
0	0x3f82940a	1.0201428
1	0x3f72c0a0	0.9482517
2	0x3f7649fa	0.9620663
3	0x3f7824cd	0.96931154
4	0x3f802330	1.0010738
5	0x3f81e0b2	1.0146697
6	0x3f875376	1.0572345
7	0x3f620044	0.88281655
8	0x3f7000f2	0.9375144
9	0x3f7546b3	0.95811003
10	0x3f801ee3	1.0009426
11	0x3f758422	0.95904744
12	0x3f88690b	1.0657057
13	0x3f80c18a	1.0059063
14	0x3f8076df	1.0036277
15	0x3f6f4032	0.9345733
16	0x3f744d33	0.95430297
17	0x3f7287af	0.94738287
18	0x3f7b5175	0.9817117
19	0x3f6b7eff	0.91990656
20	0x3f84a68b	1.0363325
21	0x3f839992	1.0281241
22	0x3f86568d	1.0495163
23	0x3f836c3d	1.0267407
24	0x3f6da597	0.92830795
25	0x3f8473bb	1.0347818
26	0x3f75fc1f	0.9608783
27	0x3f7f7e61	0.99802214
28	0x3f8506f3	1.0392746
29	0x3f8a749c	1.0816836
30	0x3f5e255f	0.86775774
31	0x3f6c087a	0.92200434
32	0x3f8035fa	1.0016472
33	0x3f7c3207	0.98513836
34	0x3f825d65	1.0184752
35	0x3f5d1c12	0.86370957
36	0x3f804a99	1.0022765
37	0x3f80445b	1.002086
38	0x3f739c37	0.9516024
39	0x3f85cae6	1.0452545
40	0x3f6853d4	0.9075291
41	0x3f6c89b1	0.923976
42	0x3f78a5d6	0.97128046
43	0x3f76b61a	0.96371615
44	0x3f893f65	1.0722471
45	0x3f848f7f	1.0356292
46	0x3f83fc85	1.0311438
47	0x3f821b75	1.0164629
48	0x3f8ba937	1.0911015
49	0x3f62e99d	0.88637716
50	0x3f8317f0	1.024168
51	0x3f6bb76a	0.9207674
52	0x3f844775	1.0334307
53	0x3f8bb4dc	1.0914569
54	0x3f765272	0.9621955
55	0x3f73847c	0.9512403
56	0x3f8b6dd8	1.0892897
57	0x3f6d7dfa	0.9277035
58	0x3f89314c	1.0718169
59	0x3f5d2815	0.86389285
60	0x3f879c0e	1.0594499
61	0x3f7da74b	0.99083394
62	0x3f86ea9f	1.0540351
63	0x3f7d3848	0.98914003

encoder.encoder_layers.0.1.bias f4 [64]
0	0xbe5a258b	-0.21303384
1	0xbe14720a	-0.14496627
2	0xbe55c955	-0.20877583
3	0xbd3f096e	-0.046639852
4	0xbdf94178	-0.1217069
5	0xbda0b15c	-0.078463286
6	0x3e257024	0.1615606
7	0xbdc09f9b	-0.09405442
8	0xbe4cea40	-0.20011234
9	0x3db66d2f	0.08907544
10	0x3d39ded4	0.04537852
11	0x3d0589dc	0.032602176
12	0x3daf3cee	0.08556543
13	0xbe84413b	-0.25831017
14	0x3d3dcc8b	0.046337646
15	0xbea8e5c1	-0.32987788
16	0xbd858711	-0.065199025
17	0xbe71a36c	-0.23597497
18	0xbe84d073	-0.25940284
19	0xbdee83ce	-0.116462335
20	0xbd9637be	-0.07334851
21	0xbdb07a3f	-0.086170666
22	0xbd9eb32b	-0.07749017
23	0xbda90ed7	-0.082547836
24	0xbe2f5f32	-0.17126158
25	0x3d17ce2b	0.03706185
26	0x3dfdbd97	0.12389677
27	0x3e0c850d	0.1372263
28	0xbb1898f3	-0.0023284524
29	0x3e247908	0.16061795
30	0xbebfe64f	-0.374804
31	0xbde980c4	-0.11401513
32	0x3dc969e6	0.09834652
33	0xbdbfad0a	-0.093591765
34	0xbc432824	-0.011911426
35	0xbed20310	-0.41017962
36	0x3d325176	0.04353472
37	0x3d2c7015	0.042099077
38	0xbd507efe	-0.05090236
39	0x3d4e5911	0.05037791
40	0xbeaff7ba	-0.34368688
41	0xbe75f3a4	-0.24018723
42	0xbe0742ea	-0.1320912
43	0x3d81d051	0.06338561
44	0x3d94a1c3	0.07257416
45	0x3d19a81f	0.03751385
46	0xbe8a1edb	-0.26976666
47	0x3d5a845e	0.05334889
48	0x3e363c91	0.17796542
49	0xbe883596	-0.26603383
50	0x3cfd3cec	0.030912839
51	0x3c3fd2fa	0.011708016
52	0x3d5cf9c3	0.05394913
53	0x3e0da0fb	0.1383094
54	0xbec0259e	-0.375287
55	0xbe3ae62a	-0.18251863
56	0x3d9f40f0	0.07776058
57	0xbe286ec8	-0.1644851
58	0x3e1c8f2e	0.15288994
59	0xbeb7b6ec	-0.35881746
60	0xbdae0836	-0.0849766
61	0x3d886e03	0.06661608
62	0xbe4adfcf	-0.19811939
63	0xbdcd72c3	-0.10031655

encoder.encoder_layers.0.1.running_mean f4 [64]
0	0xbdf7176b	-0.120650135
1	0x3e232f27	0.15935956
2	0x3d88e20a	0.066837385
3	0xbccfd952	-0.025372181
4	0x3e78207c	0.24231142
5	0x3da0d0b0	0.07852304
6	0x3e5b7b49	0.21433748
7	0x3e121abc	0.14268011
8	0xbcaa459d	-0.020785147
9	0x3e0a9751	0.13534285
10	0x3d108636	0.035284244
11	0xbeaec0d4	-0.3413149
12	0x3e8ace0a	0.2711032
13	0xbe0ecd31	-0.13945462
14	0x3e3bb4f8	0.18330753
15	0xbdc2e35a	-0.0951602
16	0xbd7454aa	-0.059651054
17	0x3e7dc692	0.2478278
18	0x3f182a7f	0.59439844
19	0x3b27ec99	0.00256232
20	0x3eba31bb	0.36366066
21	0xbd387946	-0.04503753
22	0xbcca1d75	-0.02467225
23	0x3eab947b	0.3351172
24	0x3e251032	0.1611946
25	0x3aed7174	0.0018115477
26	0x3ddb52bc	0.1070914
27	0x3de86005	0.11346439
28	0x3dcc4fd5	0.09976164
29	0x3ebe803f	0.3720722
30	0xbe90f0fe	-0.28308862
31	0xbe915944	-0.28388417
32	0x3da09047	0.07840019
33	0xbdfd6e0f	-0.12374508
34	0x3d907a61	0.07054592
35	0xbde8fab6	-0.11375944
36	0x3cd761dc	0.02629178
37	0x3dd95d13	0.106134556
38	0xbe03ad3b	-0.12859051
39	0x3ea25916	0.31708592
40	0x3dd3b4ac	0.10337195
41	0xbd9f0a5c	-0.07765648
42	0xbe552b15	-0.20817216
43	0x3e104d0a	0.14091888
44	0x3eaf0d9d	0.34190074
45	0x3d84068b	0.064465605
46	0x3ecbf05d	0.3983182
47	0xbcf0cf13	-0.029395616
48	0x3e621a2e	0.220803
49	0x3d853ea5	0.06506089
50	0x3e77a555	0.24184163
51	0xbe3675bd	-0.17818351
52	0x3d8c212b	0.06842264
53	0x3e491b82	0.196394
54	0x3a32cc4c	0.0006820604
55	0x3da7e3d8	0.081977546
56	0x3e4b37fb	0.19845574
57	0xbc84b692	-0.016200338
58	0x3ea1ac73	0.3157688
59	0xbd69da53	-0.057092976
60	0xbca8c3a8	-0.020601109
61	0x3e0acfb3	0.13555793
62	0x3ea6b434	0.3255936
63	0x3e8cf8bb	0.27533516

encoder.encoder_layers.0.1.running_var f4 [64]
0	0x3e2344a6	0.15944156
1	0x3ddefe17	0.108883075
2	0x3dcf1e63	0.10113218
3	0x3fea31de	1.8296468
4	0x3f86aebc	1.0522075
5	0x3f6fb5a7	0.93636554
6	0x3fa5bf9d	1.2949101
7	0x3dc6d594	0.097087055
8	0x3f3d1d3a	0.7387272
9	0x3f4a61d2	0.7905551
10	0x3e12dce2	0.14342073
11	0x3ff09270	1.8794689
12	0x3f9f885f	1.2463492
13	0x3dcb62ac	0.099309295
14	0x3fe7dabe	1.811363
15	0x3d9dd0de	0.07705854
16	0x3fc63399	1.5484496
17	0x3fb245af	1.3927516
18	0x3f251931	0.64491564
19	0x3e2edd54	0.17076617
20	0x3f9e1b19	1.235202
21	0x3e911f53	0.2834421
22	0x3d8b2ca8	0.06795627
23	0x3f9ff0a6	1.2495315
24	0x3dff0372	0.12451829
25	0x3ffe894c	1.988565
26	0x3fb4a3d4	1.4112496
27	0x3f6d04a8	0.9258523
28	0x3fb095b7	1.3795689
29	0x3fd46904	1.6594548
30	0x3e99cf6f	0.30041072
31	0x3f9ecf5f	1.2407035
32	0x3feaac8e	1.833391
33	0x3fc3fdd6	1.531184
34	0x3f7ab220	0.9792805
35	0x3da51d6e	0.08062254
36	0x3faf8171	1.3711377
37	0x3f849ef2	1.0361006
38	0x3ee0b770	0.43889952
39	0x3fd4b2cf	1.6617068
40	0x3f1a659e	0.60311306
41	0x3da45212	0.08023466
42	0x3f76c921	0.9640065
43	0x3f886ea1	1.0658761
44	0x3f94d971	1.1628858
45	0x3f9b1dd6	1.211848
46	0x3f7bbeac	0.9833782
47	0x3f8d873c	1.1056895
48	0x3f952270	1.1651134
49	0x3f5527b8	0.8326373
50	0x3f9a8bb2	1.2073882
51	0x3fae48d8	1.361598
52	0x3fb67199	1.4253417
53	0x3fc50824	1.5393109
54	0x3d985071	0.07437218
55	0x3f4b10a0	0.7932224
56	0x3fba13e3	1.4537319
57	0x3de378ec	0.111070484
58	0x3fa9da3a	1.3269722
59	0x3e063320	0.1310544
60	0x3f990905	1.1955878
61	0x3fa666e0	1.3000145
62	0x3e2dfb56	0.16990408
63	0x3f473c3d	0.7782629

encoder.encoder_layers.1.0.weight f4 [32, 64]
0	0x3dfa5940	0.12224054
1	0xbd224d7e	-0.039624684
2	0x3ac0582a	0.0014674712
3	0xbe249361	-0.16071846
4	0xbc0bf21b	-0.008541609
5	0xbd915bbe	-0.070975766
6	0xbddc9e48	-0.10772377
7	0xbe0cde2e	-0.1375663
8	0xbdf26378	-0.118353784
9	0x3e13f285	0.14447983
10	0x3e8465f9	0.2585905
11	0x3b270f60	0.0025491342
12	0x3e08b3d0	0.13349843
13	0x3d37d9fb	0.044885617
14	0xbd9a4c1f	-0.0753405
15	0x3b961d30	0.004581116
16	0xbe1ceeb5	-0.15325435
17	0xbda6c84a	-0.08143671
18	0xbe0dad23	-0.13835578
19	0x3cc78cc0	0.024359107
20	0xbe11c8ea	-0.14236799
21	0x3e7c944d	0.24665947
22	0x3d7b593d	0.0613644
23	0xbe85bfb2	-0.26122814
24	0x3cb6d749	0.022319453
25	0x3e4eaac8	0.20182335
26	0xbcb36cc0	-0.021902442
27	0x3d390f50	0.04518062
28	0xbdf84777	-0.12123006
29	0xbdc02703	-0.09382441
30	0xbe0f6d8a	-0.1400663
31	0x3deb95a8	0.11503154
32	0xbd9748d7	-0.0738694
33	0xbe94ad8b	-0.29038653
34	0xbe4216ea	-0.18954054
35	0xbe35d11f	-0.17755555
36	0x3e16dcd2	0.14732674
37	0x3e04383c	0.12912077
38	0x3e804899	0.25055388
39	0x3e9e8102	0.309578
40	0x3d201740	0.039084673
41	0xbd895740	-0.06706095
42	0xbdeaf6c7	-0.1147285
43	0x3d6942c1	0.056948427
44	0x3e67e198	0.22644651
45	0xbd5f5f05	-0.054533977
46	0x3d1be04c	0.038055703
47	0x3d757dcb	0.05993442
48	0x3e90be35	0.28270116
49	0xbe59f07f	-0.21283148
50	0x3e2bb050	0.16766477
51	0xbd8e8e82	-0.06960775
52	0x3e4e4288	0.20142567
53	0xbcb293b4	-0.021798946
54	0xbe515a0b	-0.20444505
55	0x3d448583	0.04797889
56	0x3ea003a5	0.3125278
57	0xbc8aba2a	-0.016934473
58	0x3e3cef7c	0.18450731
59	0x3dbb95c8	0.09159428
60	0xbe7a0a00	-0.24417877
61	0x3e0d4c17	0.13798557
62	0x3d5d7a0d	0.054071475
63	0xbd83411a	-0.064089015
64	0x3e572b47	0.21012603
65	0x3e6c582c	0.2308051
66	0x3e385b11	0.18003489
67	0x3c1aa2fe	0.009438274
68	0x3dfb6b36	0.12276308
69	0x3e562279	0.20911588
70	0xbd79207b	-0.06082199
71	0xbd19b2b0	-0.037523925
72	0x3e2174d6	0.15767226
73	0xbe53c82a	-0.20681825
74	0xbe0e0237	-0.13868032
75	0xbbcda203	-0.006275417
76	0x3d8dfded	0.06933198
77	0x3dc2d958	0.09514111
78	0x3d9c311c	0.07626554
79	0x3e24a286	0.16077623
80	0x3deae35e	0.11469148
81	0x3e6d7947	0.23190795
82	0x3e85edf7	0.26158115
83	0x3daf4026	0.08557157
84	0x3e20af96	0.1569198
85	0xbda3b43b	-0.079933606
86	0x3e3a0db4	0.1816929
87	0x3e690e1b	0.22759287
88	0x3cad01f3	0.021119094
89	0xb94b16c5	-0.00019368071
90	0xbe000ef2	-0.12505701
91	0xbe08fb09	-0.13377012
92	0x3e697d37	0.22801672
93	0xbcd202ac	-0.02563604
94	0x3e895f8b	0.26830706
95	0xbdbdabee	-0.092613086
96	0xbbedf16a	-0.007261445
97	0x3df4e306	0.11957364
98	0x3d392020	0.045196652
99	0x3e5aa8e6	0.21353492
100	0xbe33fa40	-0.17575932
101	0xbe6171d9	-0.22016086
102	0xbd2c0859	-0.04200015
103	0x3d87d233	0.06631889
104	0x3e6f716a	0.23383108
105	0x3e897707	0.26848623
106	0x39062054	0.00012791279
107	0xbdc6c088	-0.09704691
108	0xbdc947e2	-0.09828164
109	0x3e6064b1	0.2191341
110	0x3eaf692e	0.34259933
111	0xbd89a7f5	-0.067214884
112	0xbe6a54ac	-0.22883862
113	0xbd5782b2	-0.052614875
114	0xbcbbfd6c	-0.02294799
115	0xbe95ea5c	-0.29280365
116	0xbe10ff13	-0.14159803
117	0xbe987f41	-0.29784587
118	0x3e386e52	0.18010834
119	0x3d96b785	0.07359222
120	0xbe76264c	-0.24038047
121	0x3e1cef7a	0.15325728
122	0xbe9273ba	-0.28603917
123	0x3d588238	0.05285856
124	0x3e5f7dbf	0.21825312
125	0xbda7450f	-0.08167469
126	0xbe13d945	-0.1443835
127	0xbcc8af1f	-0.024497567
128	0x3e01d1d2	0.12677696
129	0x3e3a1f90	0.18176103
130	0x3e8fa74d	0.28057328
131	0x3e474928	0.194615
132	0xbd535af0	-0.051600397
133	0x3e0222de	0.12708613
134	0xbe8ec6e6	-0.27886122
135	0x3e42e142	0.19031242
136	0x3e2268e2	0.15860322
137	0xbe502506	-0.20326623
138	0x3c23f1b3	0.010006356
139	0xbded6f52	-0.11593498
140	0xbe1dbeae	-0.1540477
141	0x3e80362f	0.2504134
142	0xbdf0f341	-0.11765147
143	0x3df2ad02	0.11849405
144	0xbd4800c4	-0.048828855
145	0x3e036827	0.128327
146	0xbd9e9a61	-0.07744289
147	0xbd854890	-0.06507981
148	0xbd4dc2eb	-0.050234716
149	0xbd69dcd6	-0.05709537
150	0xbbd33a91	-0.0064461906
151	0xbdbab6b1	-0.09116877
152	0xbda27e5d	-0.07934258
153	0x3d3a2281	0.04544306
154	0xbda4cae5	-0.080465116
155	0xbe4b0330	-0.19825435
156	0x3e49843b	0.19679348
157	0xbbf76066	-0.0075493334
158	0xbce345b7	-0.027743204
159	0xbe0be64f	-0.13662075
160	0xbceabab6	-0.028653484
161	0x3e1819fd	0.14853664
162	0xbe216e00	-0.15764618
163	0x3ceed1c8	0.029152766
164	0xbe664578	-0.22487438
165	0xbe6d34f8	-0.23164737
166	0x3d5bc397	0.053653326
167	0x3ddb76b3	0.107159995
168	0x3e03ea6a	0.1288239
169	0x3e72c5ec	0.23708314
170	0x3e095222	0.13410237
171	0xbcab6c27	-0.020925594
172	0xbe81e3dd	-0.25369158
173	0x3e4880a9	0.1958033
174	0x3e85800f	0.26074263
175	0xbd99a253	-0.07501664
176	0xbc76dd71	-0.015067444
177	0x3e040f29	0.12896408
178	0x3e58f394	0.21186668
179	0xbdd467cd	-0.10371361
180	0xbda6d72d	-0.0814651
181	0xbe49a6c9	-0.1969253
182	0x3e05fb0c	0.13084048
183	0x3e117412	0.14204434
184	0xbe772478	-0.24135005
185	0x3e5d9cea	0.21641889
186	0xbcbcb4a0	-0.023035347
187	0x3dd69071	0.10476769
188	0x3dad3e2d	0.08459125
189	0xbdce293a	-0.10066457
190	0x3db0d077	0.086335115
191	0xbe3ecd70	-0.18633056
192	0x3e347dad	0.17626067
193	0xbe03349c	-0.12813038
194	0xbdf30f4b	-0.11868151
195	0xbe9b2732	-0.3030334
196	0xbd913790	-0.07090676
197	0xbd9d0dc6	-0.07668643
198	0x3e9ba462	0.30398852
199	0xbbd11609	-0.0063808006
200	0x3c5cf251	0.013485507
201	0x3d629459	0.055317257
202	0x3e43051d	0.1904492
203	0x3e692dbf	0.22771357
204	0x3e2c1382	0.16804317
205	0x3dbecf1e	0.09316848
206	0xbded4d8b	-0.11587056
207	0x3e6914c1	0.22761823
208	0xbeab359c	-0.33439338
209	0xbe42596a	-0.18979421
210	0xbe2f0664	-0.17092282
211	0x3d9c55ac	0.07633528
212	0x3b1ee340	0.0024244338
213	0x3d7795dc	0.06044565
214	0xbe37f277	-0.17963587
215	0x3df83ff9	0.12121577
216	0x3e30190e	0.17197058
217	0x3e4bf553	0.19917803
218	0xb6a0a094	-4.7870653e-06
219	0x3e92e5cf	0.28690955
220	0xbd375eb1	-0.04476804
221	0x3d45e55c	0.048314437
222	0xbe85605c	-0.2605008
223	0x3e812466	0.25223082
224	0x3d81cb0a	0.06337555
225	0xbe9f2159	-0.3108013
226	0x3db0bcd3	0.08629765
227	0xbd50474e	-0.05084925
228	0x3e02f648	0.12789261
229	0x3e8486a7	0.25883982
230	0x3e490104	0.19629294
231	0xbd01c634	-0.03168316
232	0xbddfc073	-0.10925379
233	0x3e2e552f	0.17024682
234	0xbdb60d32	-0.088892356
235	0xbd90f43b	-0.07077833
236	0xbded5052	-0.115875855
237	0xbe970076	-0.2949254
238	0xbd0e7f7a	-0.03478954
239	0x3e8ec335	0.27883306
240	0x3e49af22	0.19695714
241	0xbd961723	-0.07328632
242	0x3e2750fd	0.16339488
243	0xbc88679f	-0.016650973
244	0x3e8655ca	0.26237327
245	0x3e81ba75	0.25337568
246	0xbdf6efcb	-0.12057456
247	0xbe374fe1	-0.17901565
248	0xbd7806e1	-0.060553435
249	0xbcce45aa	-0.025179703
250	0x3e7a3e8b	0.24437921
251	0xbd82d1fb	-0.06387707
252	0xbe428921	-0.18997623
253	0x3e1a26b8	0.15053833
254	0xbe13465a	-0.14382306
255	0x3dfb9edb	0.12286159

encoder.encoder_layers.1.0.bias f4 [32]
0	0xb7f75427	-2.9483881e-05
1	0x36ef0efe	7.1245004e-06
2	0x37d6a22a	2.5586301e-05
3	0xb859e5b5	-5.1950763e-05
4	0x3898bbbf	7.282895e-05
5	0x37f810b0	2.9571675e-05
6	0x37635e33	1.3552187e-05
7	0xb81f9688	-3.8048747e-05
8	0x373e7053	1.1351035e-05
9	0xb6f9bba9	-7.442625e-06
10	0xb681d254	-3.868985e-06
11	0x38a2cd75	7.763031e-05
12	0x380ff1ec	3.4319164e-05
13	0x37c6f8fe	2.3719385e-05
14	0xb7b83397	-2.1958533e-05
15	0xb70a253b	-8.234109e-06
16	0x381d7d5b	3.7548463e-05
17	0xb771a56f	-1.4403237e-05
18	0xb69c5bf3	-4.6598666e-06
19	0x3608f57a	2.0408465e-06
20	0xb7568174	-1.2785535e-05
21	0xb7d13b04	-2.4942223e-05
22	0x38296c23	4.039345e-05
23	0xb86b5ce5	-5.611488e-05
24	0xb78c5808	-1.6730293e-05
25	0xb7a45cc0	-1.9593514e-05
26	0xb7019128	-7.722796e-06
27	0x377beae8	1.5015459e-05
28	0x38442e52	4.677318e-05
29	0xb676f38f	-3.6798626e-06
30	0x37ab8f4f	2.0451522e-05
31	0xb88d2057	-6.729428e-05

encoder.encoder_layers.1.1.weight f4 [32]
0	0x3f976670	1.1828136
1	0x3f63cf7d	0.88988477
2	0x3f59b1ec	0.8503711
3	0x3f91fcd6	1.1405284
4	0x3fa18130	1.261755
5	0x3f9dd570	1.2330761
6	0x3f89139a	1.0709107
7	0x3f6eb28e	0.932412
8	0x3f74a45b	0.95563287
9	0x3f76628c	0.9624412
10	0x3f61ac78	0.8815379
11	0x3f352f6e	0.70775497
12	0x3f88eabe	1.0696638
13	0x3f83504b	1.0258878
14	0x3f87f0c6	1.0620353
15	0x3f8eae9e	1.1147039
16	0x3f401ee6	0.7504715
17	0x3f4a0258	0.78909826
18	0x3f52702e	0.8220242
19	0x3f3dfaff	0.74211115
20	0x3f6ad69b	0.9173371
21	0x3f84ac52	1.0365088
22	0x3f8659e9	1.0496188
23	0x3f96fb33	1.179541
24	0x3fa036f7	1.2516774
25	0x3f8eb408	1.1148691
26	0x3f47fad8	0.7811713
27	0x3f452b64	0.77019334
28	0x3f7d6317	0.98979324
29	0x3f7d55a2	0.9895879
30	0x3f4511b4	0.7698014
31	0x3f89898f	1.0745105

encoder.encoder_layers.1.1.bias f4 [32]
0	0x3eafce8f	0.3433728
1	0xbd032ee5	-0.032027144
2	0xbe3b349f	-0.18281792
3	0x3ea71568	0.3263352
4	0x3ed747ad	0.42046872
5	0x3f09960b	0.5374457
6	0x3e9c82d1	0.30568555
7	0x3c8bc0c3	0.01705969
8	0x3e9a3b15	0.301232
9	0x3d5bd8c7	0.05367353
10	0x3b5d4cc4	0.003376768
11	0xbdb3a9db	-0.08772632
12	0x3e627a68	0.22117007
13	0xbc24d641	-0.010060848
14	0x3e684e4e	0.22686121
15	0x3e0553ba	0.1302022
16	0xbec4c30a	-0.38430053
17	0xbe503066	-0.20330963
18	0xbe9aa0d6	-0.30200833
19	0xbe56b39d	-0.20966955
20	0xbe28a9f8	-0.16471088
21	0xbcb8032f	-0.022462456
22	0x3c860725	0.016360829
23	0x3ea7dd1e	0.32785887
24	0x3efad151	0.4898782
25	0xbdb536f6	-0.088483736
26	0xbe5b1c57	-0.2139753
27	0xbe5a57ee	-0.21322605
28	0xbd74ebd9	-0.059795234
29	0xbe3d08b3	-0.1846035
30	0xbe3f77c5	-0.18698032
31	0x3ec175f7	0.37785313

encoder.encoder_layers.1.1.running_mean f4 [32]
0	0x3f05a46b	0.52204007
1	0xbb5663dd	-0.0032713332
2	0xbe90e49f	-0.28299424
3	0x3f3cceef	0.73753256
4	0x3f62812c	0.8847835
5	0x3fa60830	1.2971249
6	0x3f82145c	1.0162463
7	0xbdf9b5cb	-0.121928774
8	0x3f219506	0.63118017
9	0x3f4df7fd	0.80456525
10	0x3ef74758	0.48296618
11	0x3ec68e34	0.38780367
12	0x3ef6db07	0.4821398
13	0x3eb4ebf6	0.35336274
14	0x3e9b4757	0.30327865
15	0x3f3973e4	0.7244246
16	0xbf3e9abf	-0.74454874
17	0xbeb57760	-0.35442638
18	0x3f2ceb26	0.6754631
19	0xbed7ef28	-0.4217465
20	0x3d445f96	0.04794272
21	0xc0118533	-2.2737548
22	0xbff8c580	-1.9435272
23	0x3f05c0be	0.52247226
24	0x3f83ba1d	1.0291172
25	0xbfb5cb38	-1.4202642
26	0xbf20bd25	-0.6278861
27	0xbf13d1e7	-0.5774216
28	0x3cca3fdf	0.02468866
29	0x3e012a54	0.12613803
30	0xbf02d2c8	-0.51102877
31	0x3ecec50b	0.40384707

encoder.encoder_layers.1.1.running_var f4 [32]
0	0x40ec12af	7.3772807
1	0x411e473b	9.89239
2	0x40a1f232	5.060815
3	0x40fe9421	7.955582
4	0x4106a454	8.415119
5	0x4123dd6d	10.241559
6	0x40ef3fff	7.476562
7	0x403b3841	2.9253085
8	0x40de1f81	6.9413457
9	0x3fa6de36	1.3036563
10	0x40b9ea50	5.8098526
11	0x3f2313af	0.6370191
12	0x40f1ceb8	7.556484
13	0x40fb6b19	7.8568234
14	0x40c4f692	6.155099
15	0x409baaf1	4.864617
16	0x402b187d	2.6733696
17	0x40a15756	5.041911
18	0x408e5850	4.4482803
19	0x40ae355e	5.4440145
20	0x40bcedc8	5.904026
21	0x40ff593a	7.979642
22	0x40d76375	6.7308908
23	0x40f2742f	7.5766826
24	0x40f02499	7.5044675
25	0x4081f1fb	4.0607886
26	0x40bf4c05	5.9780297
27	0x40d22e25	6.568133
28	0x4031f6f2	2.7806973
29	0x40d74566	6.7272215
30	0x40e337ca	7.10056
31	0x40accc73	5.399957

encoder.encoder_layers.2.0.weight f4 [16, 32]
0	0xbe7493d2	-0.23884514
1	0x3d9fcd29	0.07802803
2	0x3e2e0dc9	0.16997446
3	0xbe8cc9b8	-0.2749765
4	0xbecdc242	-0.4018727
5	0xbf11083f	-0.5665321
6	0xbc67ef10	-0.014156118
7	0xbe889140	-0.26673317
8	0xbd8ffc97	-0.070305996
9	0xbe67e708	-0.22646725
10	0x3d2edd18	0.04269132
11	0x3e2077d3	0.1567071
12	0xbeb789ca	-0.35847312
13	0xbbe40ffc	-0.0069599133
14	0xbe79db57	-0.24400078
15	0x3dc41611	0.09574521
16	0x3e8555ae	0.2604193
17	0x3df36772	0.11884965
18	0xbd44847f	-0.04797792
19	0x3e13e223	0.14441733
20	0x3d782434	0.0605814
21	0xbda1491c	-0.07875273
22	0xbcb9aa4c	-0.022664212
23	0xbef453e4	-0.47720253
24	0xbf04aba0	-0.5182438
25	0xbe7f7614	-0.24947387
26	0xbd33fbc1	-0.043941263
27	0x3e1f07c2	0.15530303
28	0xbeb18c54	-0.34677374
29	0x3e16ea8f	0.14737915
30	0x3e049d0c	0.12950534
31	0xbe57fb17	-0.21091877
32	0xbcd1c9e3	-0.025608962
33	0xbf122bd4	-0.57098126
34	0xbea23797	-0.31683037
35	0x3e321a9e	0.17392966
36	0x3dfa6485	0.12226204
37	0x3e0d0c9c	0.13774341
38	0x3e560dae	0.20903656
39	0xbd5bb49a	-0.053639032
40	0x3e47920a	0.19489303
41	0x3e320425	0.17384394
42	0xbc36b382	-0.011151196
43	0x3d4aab1b	0.049479585
44	0xbcd5484f	-0.026035456
45	0xbf3309e4	-0.69936967
46	0x3e1daa3d	0.15396972
47	0x3e1d66da	0.15371266
48	0xbe431bd3	-0.19053583
49	0xbedd055c	-0.4316815
50	0xbda9b569	-0.08286554
51	0xbe02df19	-0.12780418
52	0xbdc53611	-0.09629453
53	0xbe7c1923	-0.24618964
54	0xbed90806	-0.42388934
55	0x3e14afdb	0.14520209
56	0x3da5bd2c	0.08092722
57	0xbea983d5	-0.33108392
58	0xbe07c1e5	-0.13257559
59	0xbeca1764	-0.3947097
60	0x3cec1c46	0.028822076
61	0xbe7c6896	-0.24649271
62	0xbe1ab7f1	-0.1510923
63	0x3e55ab6d	0.20866175
64	0xbeef0af5	-0.46688047
65	0x3e836c23	0.2566844
66	0xbdfa326b	-0.12216648
67	0xbe75ed8a	-0.24016395
68	0xbf00e198	-0.5034423
69	0xbee77e05	-0.45213333
70	0xbed81284	-0.42201626
71	0x3e553260	0.20819998
72	0x3dea14bd	0.11429737
73	0x3e0ad6ca	0.13558498
74	0xbe288539	-0.1645707
75	0xbe697b0d	-0.22800846
76	0xbec407d1	-0.38287213
77	0x3d29669c	0.04135762
78	0xbe8d5a28	-0.27607846
79	0xbf00cb23	-0.5030996
80	0x3c1fe39d	0.009758857
81	0x3d22ac4b	0.039715093
82	0xbd83916c	-0.064242214
83	0x3d192464	0.03738822
84	0x3d892783	0.066969894
85	0xbd9493a0	-0.0725472
86	0xbea3fa69	-0.32026985
87	0xbf00b434	-0.5027497
88	0xbe040d4b	-0.12895696
89	0xbe257d94	-0.16161186
90	0x3e84a5c2	0.25907713
91	0x3e0541ca	0.13013378
92	0xbecb579c	-0.39715278
93	0x3e2264fa	0.15858832
94	0xbe10a0cb	-0.14123838
95	0xbdc1d6de	-0.09464811
96	0xbd902796	-0.070388004
97	0xbe34a741	-0.17641927
98	0xbd1610aa	-0.036636986
99	0xbdeab60d	-0.11460505
100	0xbdbc43fd	-0.09192655
101	0xbe21cc62	-0.15800622
102	0xbe04fabf	-0.12986277
103	0xbe639887	-0.22226153
104	0xbd9341af	-0.071902625
105	0x3d9348e9	0.07191641
106	0xbd5226ca	-0.051306523
107	0xbd848c5a	-0.064720824
108	0xbe470611	-0.19435908
109	0xbef059ac	-0.46943414
110	0xbe0af141	-0.13568594
111	0xbe0045ef	-0.12526678
112	0x3dadad80	0.08480358
113	0x3e3de1fe	0.1854324
114	0xbec1251d	-0.37723628
115	0x3eb92bf4	0.36166346
116	0x3eef975d	0.4679517
117	0x3da7c6fa	0.08192249
118	0xbcf006cd	-0.029300118
119	0xbe0b7bb2	-0.13621405
120	0xbe06ab82	-0.13151363
121	0xbdba1bd7	-0.09087341
122	0x3df64dc5	0.12026552
123	0x3df40bbd	0.119163014
124	0xbd980b6d	-0.07424054
125	0xbe5b828e	-0.21436521
126	0x3c27dc34	0.010245372
127	0xbddb82e6	-0.10718326
128	0x3dbc8639	0.092052884
129	0xbec2e6ed	-0.38066807
130	0xbe37f138	-0.17963111
131	0x3b94201c	0.0045204293
132	0x3d174305	0.03692915
133	0x3c5f5de9	0.01363323
134	0xbc9563a0	-0.018235981
135	0x3e34e57a	0.17665663
136	0x3d0e2b04	0.03470899
137	0x3db93425	0.09043149
138	0x3dda4925	0.106584825
139	0x3e201127	0.15631543
140	0x3cfa9d7c	0.030592673
141	0xbed76f04	-0.42076886
142	0x3d8f0d30	0.06984937
143	0x3b9e0715	0.0048226216
144	0x3d495b81	0.04915953
145	0xbe98b078	-0.29822135
146	0x3dee126a	0.11624606
147	0xbeb2f5e3	-0.34953222
148	0xbe889e34	-0.266832
149	0xbe9682d8	-0.293967
150	0xbea11e53	-0.31468448
151	0x3b745e65	0.003728771
152	0x3d390923	0.04517473
153	0xbeacb876	-0.33734483
154	0xbe64bcd7	-0.22337662
155	0xbf0a0220	-0.5390949
156	0x3e4886e2	0.19582704
157	0xbf0f9927	-0.56093067
158	0xbf0b1b51	-0.54338557
159	0xbcf6300d	-0.03005221
160	0xbed573c1	-0.41689876
161	0x3c76ddc2	0.01506752
162	0x3d0044fb	0.031315785
163	0xbe8e4dcf	-0.27793738
164	0x3d97f492	0.07419695
165	0xbefc86cd	-0.49321595
166	0xbecd9160	-0.40149975
167	0xbecee8c4	-0.4041196
168	0xbef13797	-0.47112724
169	0x3e284fdf	0.16436718
170	0xbece72a3	-0.40321836
171	0xbc77317b	-0.015087481
172	0xbea2fce8	-0.31833577
173	0x3dd59cb9	0.10430283
174	0xbea90ae5	-0.33016124
175	0x3d93e088	0.0722056
176	0x3a0523ce	0.00050788827
177	0xbc52e8e9	-0.012872913
178	0x3e0eaa3a	0.13932124
179	0x3e35e4b2	0.17763022
180	0x3e339e55	0.17540868
181	0xbe5c6a20	-0.21524858
182	0xbe818673	-0.2529789
183	0xbe7dc516	-0.24782214
184	0xbe6a0989	-0.228552
185	0xbe803dd2	-0.25047165
186	0xbd26b556	-0.04070028
187	0xbd30d4eb	-0.043171804
188	0x3d5e2c36	0.05424138
189	0x3e682261	0.22669365
190	0x3e80e292	0.2517286
191	0xbe877529	-0.26456574
192	0xbee8d4a7	-0.4547474
193	0xbdb3cfc3	-0.08779862
194	0x3dd289cf	0.10280191
195	0xbefce873	-0.49396095
196	0xbf1ab5aa	-0.6043345
197	0xbe90d324	-0.28286088
198	0xbed267e3	-0.41094884
199	0xbeab5b2f	-0.33468005
200	0xbca2e980	-0.019886732
201	0xbe17227a	-0.14759246
202	0xbd74bdef	-0.059751447
203	0x3e3e6e19	0.18596686
204	0xbdcb73c0	-0.09934187
205	0xbadc2c5a	-0.0016797886
206	0xbe4b0a4a	-0.19828144
207	0xbef9c80e	-0.48785442
208	0x3e7db972	0.24777773
209	0xbb847481	-0.0040422087
210	0xbe62ea92	-0.22159794
211	0x3c661f28	0.014045514
212	0x3e4a0b11	0.19730784
213	0xbe7693a8	-0.24079764
214	0xbd3f5283	-0.04670955
215	0xbe8502ea	-0.25978786
216	0xbf19e051	-0.60107905
217	0xbecb7b07	-0.397423
218	0x3e74394e	0.23849985
219	0x3e59cc5c	0.21269363
220	0x3cd5ca62	0.02609748
221	0x3e9eb66c	0.30998552
222	0xbe55c0f7	-0.20874391
223	0xbeeb2281	-0.45924762
224	0x3d300f68	0.042983443
225	0xbec49ab5	-0.38399282
226	0xbedef160	-0.4354353
227	0x3d386151	0.045014683
228	0x3cc3ff25	0.023925373
229	0x3ca53ddf	0.020171104
230	0x3d161592	0.036641665
231	0x3e14ff50	0.14550519
232	0xbc7de795	-0.015497108
233	0x3d5c07b0	0.05371827
234	0x3e0183d4	0.12647945
235	0x3e231a1e	0.15927932
236	0x3d980d35	0.07424394
237	0xbd08bfc3	-0.033386003
238	0x3c3c9573	0.011510241
239	0x3d27bc59	0.040951107
240	0xbd625952	-0.055260964
241	0xbd900b07	-0.07033353
242	0x3de5d254	0.112217575
243	0xbec207bf	-0.37896535
244	0xbed58b2e	-0.41707748
245	0xbeb3617e	-0.35035318
246	0xbe4f5d4b	-0.20250432
247	0xbba76e3a	-0.0051095756
248	0x3cc91916	0.024548095
249	0xbe88f5ee	-0.2675013
250	0xbdde76ab	-0.10862478
251	0xbf17ceff	-0.59300226
252	0x3e0c8644	0.13723093
253	0xbed53a59	-0.41646078
254	0xbefcc7bd	-0.49371138
255	0x3b2438ef	0.002505835

encoder.encoder_layers.2.0.bias f4 [16]
0	0xb7622254	-1.3478642e-05
1	0x38448a70	4.685897e-05
2	0xb8b704c3	-8.727007e-05
3	0x383cc52b	4.500632e-05
4	0xb824af5e	-3.926397e-05
5	0xb73e4d80	-1.1342927e-05
6	0x365a4fa8	3.2530897e-06
7	0xb8fbc288	-0.00012004847
8	0xb8150c1e	-3.5535653e-05
9	0xb8183955	-3.629302e-05
10	0x32d2ed71	2.4555193e-08
11	0x38d1660d	9.984905e-05
12	0xb92a5e2f	-0.0001624755
13	0x38a1c6da	7.714117e-05
14	0xb8d580df	-0.000101806356
15	0x37faf446	2.9916071e-05

encoder.encoder_layers.2.1.weight f4 [16]
0	0x3f37a897	0.7174162
1	0x3f36c522	0.7139455
2	0x3f375f94	0.71630216
3	0x3f2d664b	0.6773421
4	0x3f34c401	0.7061158
5	0x3f3aabc1	0.72918326
6	0x3f2ec30f	0.68266386
7	0x3f3029a5	0.68813545
8	0x3f2c170c	0.67222667
9	0x3f27b2ed	0.65507394
10	0x3f35ebd3	0.71062964
11	0x3f279a90	0.6547022
12	0x3f35c9c4	0.71010995
13	0x3f2ff108	0.6872716
14	0x3f345f41	0.70457846
15	0x3f377cc4	0.7167475

encoder.encoder_layers.2.1.bias f4 [16]
0	0xbe45c076	-0.193117
1	0x3e1ccf34	0.15313417
2	0xbe31e310	-0.17371774
3	0xbe858c41	-0.26083568
4	0x3d0e1cb9	0.03469536
5	0xbdc8661d	-0.097851016
6	0xbe05369b	-0.13009112
7	0x3d1bd6f1	0.03804678
8	0xbe774e50	-0.24150968
9	0xbe62afee	-0.22137424
10	0xbe862b33	-0.26204833
11	0xbe9249de	-0.2857198
12	0xbeb36bdc	-0.35043228
13	0xbe747211	-0.23871638
14	0x3cc779bd	0.024350042
15	0xbe209089	-0.15680136

encoder.encoder_layers.2.1.running_mean f4 [16]
0	0xc00a2d51	-2.159016
1	0xbdc92536	-0.098215505
2	0xc0155eb5	-2.3339055
3	0xbf800935	-1.000281
4	0xbf2b4c3b	-0.66913193
5	0xc00563b4	-2.0842104
6	0xc032f822	-2.7963948
7	0xbf0c3078	-0.5476146
8	0xc00efe5f	-2.2342756
9	0xc012c335	-2.2931645
10	0xbfec4c16	-1.846072
11	0xc0043c5a	-2.0661836
12	0xbfa9f5cf	-1.327814
13	0xc00351ea	-2.0518746
14	0xbf1784b5	-0.5918687
15	0xc01e61b7	-2.474714

encoder.encoder_layers.2.1.running_var f4 [16]
0	0x411bd319	9.7390375
1	0x40f15749	7.541905
2	0x412ab5d8	10.669395
3	0x400095af	2.009136
4	0x40c75860	6.229538
5	0x40f4f9fc	7.6555157
6	0x416b0a4e	14.690016
7	0x4094d643	4.651155
8	0x41069c6e	8.413191
9	0x4106e1fa	8.43017
10	0x40b2b125	5.584124
11	0x40d8ca5c	6.774702
12	0x404377fe	3.0541987
13	0x40e2caa0	7.0872345
14	0x40b3c17a	5.6173677
15	0x4148e1af	12.555099
