scripts/abr_clustering/audiometric_deep_clustering/experiments/test_unified_structure/20250618_173905_evident/checkpoints/pretrain/best_pretrain.pt (torch, 342759 bytes, 213 tensors)

encoder.abr_encoder.abr_projection.weight f4 [16, 6]
000000 89 9a 81 bc b5 ba 03 3f 5f 60 91 3d a8 b5 1a 3e
       -0.015820758 0.5145677 0.070984595 0.15108359
000010 92 0b 22 3d af 33 b7 3e 4c 4f f2 be fb 94 3c be
       0.039561816 0.3578162 -0.47326124 -0.18416207
000020 61 ce b0 3e a4 35 b0 3d 89 b8 a8 bd 00 37 08 bf
       0.34532455 0.08603981 -0.08238322 -0.53208923
000030 e7 12 cf bd 50 06 20 3e 3a 95 13 bf 15 75 e9 3d
       -0.10111027 0.15627408 -0.57649577 0.11399285
000040 4d c2 6f be 43 25 7e bc 44 54 cc 3d 6a 94 15 bf
       -0.23413964 -0.015511814 0.0997701 -0.58429587
000050 b9 dc 27 3e e5 fe 6f bb 66 c2 8a be 1a 70 9c 3e
       0.16392793 -0.0036620435 -0.2710144 0.30554277
000060 57 98 2c be ab a5 ad be bd f6 15 bd 33 66 ff bd
       -0.16854988 -0.33915457 -0.03661226 -0.12470665
000070 3b ab 83 be a5 99 29 bf 3e a8 6c 3d 18 82 e4 3e
       -0.25716576 -0.6625007 0.057777636 0.44630504
000080 ac 7d 04 bf f7 9f 32 be 54 4f 06 be cd 27 eb be
       -0.5175426 -0.17443834 -0.13116199 -0.45928803
000090 a3 93 0b 3e fe d6 29 bd ce 32 fb 3e 5a ff cf be
       0.13630538 -0.0414648 0.49062198 -0.40624505
0000a0 b0 6c 83 3d d8 0a a3 3e 60 1f b3 3d 3b 45 0f 3d
       0.06417215 0.3184421 0.08746219 0.034978133
0000b0 11 10 cb 3e 4b 47 78 be 61 8b 24 3f b0 2d ad 3e
       0.39660695 -0.24245946 0.64275175 0.3382392
0000c0 50 d6 9b 3e a5 cf 00 3f a8 e2 82 3d 68 b3 5c 3e
       0.30436945 0.5031684 0.063908875 0.21552813
0000d0 81 ac 75 3d 88 e5 9b be 6d bf 85 3e 0e 34 0d 3f
       0.059978966 -0.30448556 0.2612261 0.55157554
0000e0 54 6b 2c 3e 7e 67 13 3e 54 96 a6 be b3 8b 15 3e
       0.16837817 0.14394948 -0.32536566 0.14604072
0000f0 63 62 f4 3d 92 c2 88 be 00 e4 8a 3e 51 4d 7b 3e
       0.11932828 -0.26710945 0.27127075 0.24541213
000100 2e c8 81 3e 18 66 22 3f 5c 87 1b 3e 81 fd 12 be
       0.25348037 0.6343703 0.15188354 -0.14354517
000110 ec 28 9d 3d 05 15 00 3f 06 c5 d7 3e 0e 60 a0 bd
       0.07673821 0.50032073 0.42142504 -0.07830821
000120 7a 82 ca bc c3 7a e9 be a4 31 36 be aa 4d e9 be
       -0.02472042 -0.45601472 -0.17792374 -0.45567065
000130 dd 66 5d 3e 36 cc c6 3e 9f b9 83 be b7 e5 65 be
       0.2162127 0.38827676 -0.25727555 -0.2245091
000140 b0 f2 ae be 83 a4 6d be 50 52 d6 3e 5b 07 26 bf
       -0.3416953 -0.23207287 0.41859674 -0.64854974
000150 fd f8 9a be f7 98 06 bf 10 12 11 bd 42 16 e2 be
       -0.30268088 -0.52577156 -0.035417616 -0.44157606
000160 7d 36 b9 be 92 9d df 3e 76 3a 71 3e ac ec af 3e
       -0.36174384 0.43674904 0.23557457 0.34360254
000170 48 2a 4c 3e d9 fc 9a 3e e7 42 9b 3e 5c d3 41 be
       0.19938004 0.30271032 0.3032448 -0.18928283

encoder.abr_encoder.abr_projection.bias f4 [16]
000000 2a 0d a2 38 29 2a 00 37 e0 29 0a b8 7b 57 e9 b8
       7.727214e-05 7.639211e-06 -3.2940763e-05 -0.000111266
000010 34 e7 fa 37 a7 ac bc b6 d5 be 12 b9 9e d9 65 b8
       2.9909985e-05 -5.622936e-06 -0.00013994735 -5.4800526e-05
000020 aa 10 11 39 d3 d3 34 b8 67 88 98 38 e9 26 0b b9
       0.00013834485 -4.311262e-05 7.273332e-05 -0.00013270568
000030 94 d0 28 b8 07 4b 00 b8 88 a2 36 37 bc 17 38 b8
       -4.0248575e-05 -3.0587453e-05 1.0885888e-05 -4.3891123e-05

encoder.abr_encoder.abr_norm.weight f4 [16]
000000 44 3a 70 3f 51 a4 77 3f 9a e2 6c 3f 4c d4 56 3f
       0.93838906 0.967351 0.92533267 0.8391769
000010 82 78 85 3f d0 3b 82 3f e3 80 5d 3f ea ae 6a 3f
       1.0427401 1.0174503 0.8652479 0.9167315
000020 95 8f 57 3f ac 3c 66 3f 8e 53 7b 3f 88 83 78 3f
       0.84203464 0.8993633 0.9817437 0.970757
000030 9f 5a 68 3f 43 0b 83 3f b4 67 70 3f 7d 91 76 3f
       0.90763277 1.0237812 0.9390824 0.9631575

encoder.abr_encoder.abr_norm.bias f4 [16]
000000 b1 c5 6f be 7e 91 0c be 3f f6 58 bd 8f 24 9f be
       -0.23415257 -0.13727376 -0.052969214 -0.3108258
000010 0b 52 ae bd ae 8f 0c be 7f 31 a1 be 66 70 a3 be
       -0.08511742 -0.13726684 -0.31483075 -0.3192169
000020 e5 70 88 be 90 23 25 be 38 72 57 bd b6 32 a2 be
       -0.26648632 -0.16126847 -0.052599162 -0.31679314
000030 45 4c 49 be cd b0 63 bd 07 55 83 be 8c dc 43 be
       -0.19658001 -0.055588532 -0.25650808 -0.191271

encoder.abr_encoder.abr_norm.running_mean f4 [16]
000000 77 e2 83 be 5a da 46 3e c5 70 19 3e 97 3f 86 3d
       -0.25758716 0.19419232 0.14984424 0.065550976
000010 0b b0 ba 3e 94 2a 35 3e 24 8c 04 be 68 b0 92 be
       0.36462435 0.17692024 -0.12944084 -0.28650212
000020 1d 8f 45 be 91 ad 60 be 57 2a 93 be 7a a8 57 be
       -0.19292875 -0.2194121 -0.2874324 -0.21060362
000030 2d 54 f3 3d bb 4b 98 3e 8b eb 8f 3e 06 d0 8b be
       0.1188129 0.29745278 0.28109393 -0.27307147

encoder.abr_encoder.abr_norm.running_var f4 [16]
000000 d9 53 af 3e 46 dc 51 3e 26 1c 07 3e e0 a7 2a 3d
       0.34243658 0.20494184 0.13194332 0.041664004
000010 21 75 2d 3f e5 71 41 3e 92 f4 dc 3d 3b 1d e2 3e
       0.6775685 0.18891104 0.107888356 0.44162926
000020 9f de 49 3e 02 ea 82 3e 92 16 e0 3e 22 cc 71 3e
       0.1971383 0.2556916 0.4376722 0.23613027
000030 1d 8f c1 3d ef 22 f1 3e b5 ff d3 3e 4a c1 c2 3e
       0.09451125 0.47096965 0.41406026 0.38038093

encoder.abr_encoder.attention.q_projection.weight f4 [16, 1]
000000 0a 22 40 3e 3c 5e e1 be bc 42 80 bc 6f ba 97 be
       0.18762985 -0.44017208 -0.015656821 -0.29634425
000010 49 23 b7 be e2 67 bb be 66 13 9c be af 05 c0 be
       -0.35769108 -0.36602694 -0.3048355 -0.37504336
000020 19 5d c2 be 73 ab 2c bd 50 d7 bb be dd 4b 9a 3e
       -0.37961653 -0.042155694 -0.36687708 0.30136004
000030 74 83 07 3d 1b 6b 1e bf 23 e8 13 bf 6c 56 77 be
       0.033084348 -0.6188218 -0.5777609 -0.24154061

encoder.abr_encoder.attention.q_projection.bias f4 [16]
000000 d0 ac cd bc 21 a5 ad bc 01 3c c0 3c 2d c8 a7 bc
       -0.025106817 -0.021196904 0.023466112 -0.020481193
000010 f8 8e c7 3c 16 a8 dd 3c 69 20 e9 3c 7c f7 c0 3c
       0.024360165 0.027057689 0.028457837 0.02355551
000020 eb 3d 8d 3b 89 b9 17 3d 3b 97 9a 3c 5d 04 92 bc
       0.0043103597 0.037042174 0.01887094 -0.017824346
000030 fc 3a e2 bc 40 26 a1 3b 0b 3f 15 3d 34 e1 71 3d
       -0.027616017 0.00491789 0.036437076 0.05905266

encoder.abr_encoder.attention.k_projection.weight f4 [16, 1]
000000 62 21 7e 3e 41 e7 04 3f 8d 2a 4f bd 0b 39 a8 3e
       0.24817422 0.51915365 -0.05057769 0.3285602
000010 4f a2 ae be bf d6 13 be ee 13 e7 bd 18 3c 19 bf
       -0.34108207 -0.14437388 -0.11283098 -0.5985732
000020 e4 ee 1a be 68 fc 19 bb 12 2a 3f 3e 68 84 90 be
       -0.15130192 -0.0023496393 0.18668392 -0.28226018
000030 7e 9d 00 bc 17 6e 12 be 68 47 d5 bd 6b a0 7b bd
       -0.007850049 -0.14299808 -0.1041401 -0.061432283

encoder.abr_encoder.attention.k_projection.bias f4 [16]
000000 9f 39 b1 36 7e 17 4c 38 07 f7 19 35 09 c2 f8 37
       5.281719e-06 4.865927e-05 5.7356414e-07 2.9654258e-05
000010 9c b0 13 37 7f ea 0a 38 44 aa cc 37 ae 53 68 37
       8.803003e-06 3.3120155e-05 2.4397981e-05 1.3847761e-05
000020 ad 9d 20 b8 34 42 d8 b5 cc ea fe b7 71 9d 0c 38
       -3.829382e-05 -1.6112522e-06 -3.0388495e-05 3.352523e-05
000030 f0 90 10 36 4e 98 11 b8 67 98 c1 b7 5b df d8 b7
       2.1542037e-06 -3.471254e-05 -2.307836e-05 -2.5853215e-05

encoder.abr_encoder.attention.v_projection.weight f4 [16, 1]
000000 55 2e ce be 3b b1 d8 3e b4 cf fd be da 83 65 be
       -0.40269724 0.42322716 -0.49572527 -0.22413579
000010 cb a2 a4 3e be 53 31 be a1 08 96 be e1 74 0c bf
       0.3215545 -0.17317101 -0.29303458 -0.54865843
000020 b6 2e 9e 3e 81 a6 c8 3d e8 a0 45 3e 2e c2 4f 3e
       0.30895013 0.09797383 0.19299662 0.20288917
000030 69 ce 01 bf 7e 92 a3 be 36 ee ae 3e ac 2c cc be
       -0.5070558 -0.31947702 0.34166116 -0.39877832

encoder.abr_encoder.attention.v_projection.bias f4 [16]
000000 92 bb 59 3d 4c 8c 5a bd a4 84 5a 3d ba 9e 56 bd
       0.053157397 -0.053356454 0.053349152 -0.052397467
000010 16 93 5a 3d cc 29 59 bd e5 37 54 bd 47 2d 5c 3d
       0.05336293 -0.053018376 -0.051811118 0.053754117
000020 cf 3e 15 3d 04 4d 3f bd b3 7f f3 3c 60 1a 33 bd
       0.036436852 -0.046704307 0.029723978 -0.043726325
000030 5a 22 38 3d 09 3e 39 3d 96 57 b2 3b 95 c0 34 3d
       0.044954635 0.045225177 0.00544257 0.044128973

encoder.abr_encoder.attention.output_projection.weight f4 [1, 16]
000000 37 0e 6e be 9a 97 91 3e 3f df 5f be 96 9a ff 3d
       -0.2324761 0.28435975 -0.21862505 0.12480657
000010 9b 97 a1 be a4 87 58 3e 04 b5 b2 3d 60 d5 dc be
       -0.31560978 0.21145493 0.08725932 -0.43131542
000020 82 9e b3 be b6 ec a1 3e 7b 49 c7 bd 25 d9 e0 3e
       -0.3508187 0.3162591 -0.09730812 0.43915668
000030 b5 5e 99 bd 64 58 a0 be 57 05 68 bb 85 ec c1 be
       -0.07488767 -0.31317437 -0.0035403573 -0.37875763

encoder.metadata_encoder.metadata_projection.weight f4 [24, 12]
000000 fb 15 03 3e a4 51 1f 3e ec 71 a6 bd 95 03 b8 be
       0.12801354 0.15558487 -0.081271976 -0.35940233
000010 5b 22 87 3e 8c 69 88 3e c2 f8 18 3e 16 35 23 3d
       0.263934 0.26643026 0.14938644 0.03984555
000020 cd 30 06 3e 51 23 c3 3b 73 c7 5f be f8 6d 86 be
       0.13104554 0.005955138 -0.21853428 -0.26255774
000030 01 93 29 bb c9 14 92 3c 3c 8c 09 3e 74 8c d3 3d
       -0.0025874975 0.017832177 0.13432401 0.10329524
000040 4f 2b b5 3d 6c 44 dc 3d 83 e3 93 3d 37 90 df 3d
       0.08846151 0.10755238 0.07221129 0.10916179
000050 0e 5a 19 bd 07 98 8d bd a7 12 b7 be 66 69 22 bc
       -0.0374394 -0.069137625 -0.35756418 -0.009912824
000060 4a 0c 47 bd 4a cc bd 3b c5 d7 89 3e 23 12 42 3d
       -0.048595704 0.0057921754 0.26922432 0.047380578
000070 49 7d c5 bd 6c 8e 26 be e6 ff 5f be 64 ae 30 be
       -0.09643037 -0.16265267 -0.21874961 -0.17254025
000080 50 1e 25 3e 46 78 57 3c cc 65 c9 be b2 f4 46 3d
       0.16124845 0.013151234 -0.39335477 0.048573203
000090 31 13 a1 3b f5 33 77 3d e5 0d 86 3d fc 60 22 bd
       0.004915618 0.060352284 0.06545619 -0.039643273
0000a0 3f 11 76 3e 24 6d 24 bd 1e 97 43 3e 88 3d 22 3e
       0.24030016 -0.040143147 0.19100615 0.15843785
0000b0 50 74 1b 3e fa d1 38 bd 1b 2d b0 be 58 b8 39 bd
       0.15181088 -0.045122124 -0.34409413 -0.04534182
0000c0 f5 11 91 bd 58 a1 c4 3d dd 10 93 3e c4 a7 0d 3e
       -0.07083503 0.096010864 0.28723803 0.13833529
0000d0 ea 17 55 be 47 05 93 3c a1 06 a4 bd 85 82 86 be
       -0.20809904 0.017946852 -0.08009077 -0.26271453
0000e0 4a c9 63 be 19 82 d1 3d 97 b9 8c be 72 79 1a 3d
       -0.22244754 0.10229892 -0.27485344 0.037713476
0000f0 86 16 a0 bc 76 25 23 3d eb c2 5c be b1 7b a1 be
       -0.01954199 0.039830647 -0.2155873 -0.31539682
000100 80 e2 a7 3d 3f 9e 9a 3e e1 c2 64 3e 01 5c 77 3e
       0.08197498 0.30198857 0.22339965 0.2415619
000110 0d a1 03 bd 82 53 4b 3e 67 a4 1c 3f 51 b4 05 3e
       -0.032136012 0.19856074 0.6118836 0.13057067
000120 06 54 24 3e 34 06 76 bc e1 ee f1 3d 20 34 64 3e
       0.16047677 -0.015016127 0.11813141 0.22285509
000130 b4 7a b7 3c ac 50 ad be ce f3 92 be 16 3c 6f be
       0.022397377 -0.3385061 -0.28701633 -0.23362765
000140 0b 76 8e bd 6e 8c 1f 3e b3 6b 96 be e2 c2 1f be
       -0.06956109 0.15580913 -0.29379043 -0.15601686
000150 04 25 46 bd 01 86 a6 ba 21 6b 90 bd 3b 26 31 be
       -0.048375145 -0.0012704731 -0.07051683 -0.1729974
000160 db 84 13 be 32 6b c8 bd 41 22 a6 be ab 8a 32 be
       -0.14406149 -0.09786071 -0.3244801 -0.1743571
000170 c1 09 02 be 65 d9 7d be 4d 65 02 bf bf 59 4b 3d
       -0.12699033 -0.2478996 -0.5093582 0.049646135
000180 f7 76 5e bc 2a a3 0d 3e a7 d9 04 3e 68 99 f3 3b
       -0.013578168 0.13831773 0.12973653 0.007434059
000190 5e b3 2c bc eb 06 be be 54 e2 85 be a8 48 76 be
       -0.010540811 -0.37114653 -0.26149237 -0.24051154
0001a0 f6 0d a0 be 10 b0 97 bc 93 3f a4 3e 67 eb a4 bd
       -0.3126065 -0.01851657 0.32079753 -0.08052712
0001b0 7b d9 05 3c 48 f1 97 bd 9c 63 ea 3d 41 37 63 3e
       0.008169527 -0.074190676 0.1144478 0.22189046
0001c0 bd 08 2e be 51 3e b2 3d 89 a9 1d be a9 75 27 3d
       -0.16995521 0.08703292 -0.15396704 0.040883694
0001d0 48 8f 09 be df ae bc 3d 8d 6c 10 3f 0b 87 dd 3d
       -0.13433564 0.092130415 0.56415635 0.10816773
0001e0 13 bf c6 3c e2 70 8b bd 11 e6 d6 bd e2 1f 02 3e
       0.024261033 -0.0680864 -0.104931004 0.12707475
0001f0 5c ff 90 be 8f 3a a0 be da 70 0e be ff ee 33 be
       -0.28319824 -0.31294677 -0.13910237 -0.17571639
000200 b2 dd 74 bd 87 8f b4 3d bd 26 c2 3e 26 75 05 3e
       -0.059781738 0.08816438 0.3792018 0.1303297
000210 c5 09 af bd 39 d8 29 bc 20 8e 13 bd 3d 0c d2 3c
       -0.08546785 -0.010366493 -0.036024213 0.025640601
000220 7c f0 c8 bd 20 44 b9 3d 8d f7 22 3c f8 bf 06 bc
       -0.09811494 0.09046197 0.009946716 -0.00822448
000230 fc 20 6f bd 3a cc c7 bc 9a 8b d0 be bd ff 80 3d
       -0.058381066 -0.024389375 -0.40731508 0.06298778
000240 bf 50 e4 bc a3 df 4e bb 14 a6 97 be d2 39 47 be
       -0.027870534 -0.0031566403 -0.29618895 -0.1945565
000250 da 51 44 be 57 bb f3 bd 7b a1 42 bc 14 3b 3d be
       -0.19171849 -0.119009666 -0.01187932 -0.18479568
000260 fb 1b 0f 3d 6b 14 56 bd 67 8a d2 be c0 da f1 3d
       0.034938794 -0.052265566 -0.41121218 0.118093014
000270 03 11 f1 3d 44 a5 1b bb c2 ca f7 bc f8 c6 7e bd
       0.11770823 -0.002374963 -0.03024805 -0.06220147
000280 c6 dc 8d be e3 10 95 be 2d a7 6e 3d 72 ec 05 be
       -0.277075 -0.29114446 0.0582649 -0.13078478
000290 39 f2 c4 3a d5 3a 33 3e 14 58 17 3f 1c 92 1d 3e
       0.0015025801 0.17502911 0.5911877 0.15387768
0002a0 95 f3 9d bd 96 92 2b bd 51 7b 95 be be b2 37 3d
       -0.07712475 -0.041887842 -0.29195645 0.044848196
0002b0 bf ea 9e 3d bf 5f 21 be 8c 53 be bd 5d 8c 3c bd
       0.07759618 -0.1575918 -0.09293279 -0.0460323
0002c0 bf 84 c6 bd 39 a3 53 3e 63 fb eb be a2 61 b6 bc
       -0.09693288 0.20667733 -0.4609023 -0.022263352
0002d0 6e 68 ed bc 72 f8 04 be db 32 9e 3d dc 52 8b 3e
       -0.02898046 -0.129854 0.07724544 0.27211654
0002e0 6b 58 bc be a6 c9 04 3e 89 28 06 3d 8f 33 48 3e
       -0.36786208 0.12967548 0.0327535 0.19550918
0002f0 37 4a 62 be de 53 4e 3e 6f e8 b2 be 04 49 53 3d
       -0.22098623 0.2014918 -0.34942958 0.051583305
000300 b5 96 79 3c b8 0e 57 bc 08 6b dc 3c e9 bf 83 3d
       0.015233685 -0.013126068 0.026906505 0.06433088
000310 71 ff e2 3b ff 04 d2 bd 04 7c be bd 4a 6c 5a be
       0.0069274236 -0.10254859 -0.09300998 -0.21330371
000320 c1 0b 44 bd 6b fb 0a 3e 9b 9e 04 3f a1 e4 9a bc
       -0.047862772 0.13572471 0.5180451 -0.018907847
000330 9b 1a e6 3d 71 61 fa bc 31 3b 50 3d 64 72 db 3d
       0.11235543 -0.030564042 0.0508377 0.10715178
000340 fe 5f 35 be 11 97 dd bc 09 58 0d be 8d b5 f6 bd
       -0.177124 -0.027049573 -0.13803114 -0.12046347
000350 d6 1e b8 3e 12 47 13 3e f2 86 f1 be 85 bd 02 bd
       0.35961026 0.1438258 -0.47173268 -0.03191902
000360 71 d4 15 3e 11 48 ca bd ad 22 1b be 80 62 c0 3c
       0.14631821 -0.09877027 -0.15149947 0.023484468
000370 8c ca e7 3d 18 65 df 3c cc ce a1 be 3c 5d 57 be
       0.113179296 0.027269885 -0.31603086 -0.2103166
000380 22 a7 0a 3e 98 cc 61 3d f9 98 0a 3f da 82 49 3e
       0.13540319 0.055126756 0.5413967 0.19678822
000390 22 b2 a5 bd db 1b 3f 3d 8c 20 ff bd cc ae 48 be
       -0.08090617 0.046657424 -0.1245738 -0.1959793
0003a0 54 ab 1f 3e ec af 73 be d8 6d 81 be 70 7b 86 be
       0.155927 -0.23797578 -0.25279117 -0.2626605
0003b0 ae 79 45 3e c4 b3 92 be 55 c3 b9 3e cf ae 50 3d
       0.19284698 -0.28652775 0.3628184 0.05094796
0003c0 e9 10 4e bd dd 44 da 3d c6 fc de 3d e2 c8 4a be
       -0.050309096 0.10657666 0.108880565 -0.19803193
0003d0 ad 21 bf be 5f c9 ca bd 56 13 29 be ed 39 38 be
       -0.3733038 -0.0990169 -0.16511282 -0.17990847
0003e0 52 e5 0f 3e c7 2e e4 bd a7 eb bd 3e 8d 89 bb 3c
       0.14052323 -0.111417346 0.3709385 0.022892738
0003f0 c5 fe 71 3e f0 75 75 3e da e5 35 bc 08 ef 85 be
       0.23632343 0.23970771 -0.011102164 -0.2615893

encoder.metadata_encoder.metadata_projection.bias f4 [24]
000000 71 cb 05 be 50 dd b3 bd 30 e2 d4 bd c4 cb 02 be
       -0.13065888 -0.087824464 -0.10394704 -0.12773043
000010 6b 5d 93 bd de 9c 22 be f7 20 48 3a fd 19 cd bd
       -0.071955524 -0.15880153 0.00076343067 -0.100147225
000020 3b d2 22 be ba 80 9f be 8b be 95 be 55 e3 be 3b
       -0.15900509 -0.31152898 -0.29246935 0.00582544
000030 ba bc db bd f1 13 93 be 9e ff 1e be 51 1c a7 bd
       -0.10729356 -0.28726152 -0.15527198 -0.08159698
000040 f4 48 6b be 42 ff 4d bc 14 ff 66 be 23 b3 8d be
       -0.22977048 -0.012573065 -0.22558242 -0.27675733
000050 96 64 5a be bb ba 24 be 94 d9 21 be 4c a9 d2 bd
       -0.21327433 -0.16086857 -0.15805656 -0.10286197

encoder.encoder_layers.0.0.weight f4 [64, 40]
000000 7a fc 32 be b2 42 24 3d 54 56 89 be 57 2a db 3c
       -0.17479125 0.040102668 -0.26823676 0.026753588
000010 40 4d a4 3d af ca 7b 3e de d3 7c be 25 e5 5a 3e
       0.08022547 0.24589036 -0.24690196 0.21376474
000020 4d 80 12 3d 1c aa 28 3e 9d a9 66 3e db bc 09 bd
       0.03576689 0.16471142 0.2252564 -0.033627372
000030 e2 ee 0a bd 16 36 cd bd e6 0c 29 3e 81 3e 89 bd
       -0.033919223 -0.10020082 0.16508827 -0.06701375
000040 a0 16 e0 3d d3 7f 30 3d 10 ef 78 3e b4 47 2f 3e
       0.109418154 0.043090653 0.24309945 0.17117196
000050 6d 5d 3a 3e f4 0a 46 be 25 e9 c5 bd d0 c1 43 be
       0.18199702 -0.19340116 -0.096636094 -0.19116902
000060 5b 94 09 3e 22 2c 52 3d 0d 2d 45 3d e0 e6 96 3d
       0.134355 0.05131162 0.048138667 0.07368255
000070 be 07 0a bc a7 ce 03 3e b7 09 c9 bd b3 bb 47 3e
       -0.008424697 0.128718 -0.09816306 0.19505195
000080 7e 97 85 be 91 3f 8d be ce f7 f7 3d 67 bc 7c 3e
       -0.26092142 -0.2758756 0.12107812 0.24681245
000090 ec 4a 7c bd 30 1f 1c 3e 15 ed 38 be 33 ff 5e be
       -0.06159489 0.15246272 -0.1805919 -0.21777038
0000a0 b2 97 8f bd 70 fb 1f 3e da 1e 13 be e2 0c 44 3e
       -0.070113555 0.1562326 -0.14367238 0.1914554
0000b0 1b f5 d6 bd a4 56 c5 bd 43 98 89 bd f6 0a 3a be
       -0.10495969 -0.09635666 -0.06718495 -0.18168244
0000c0 11 52 27 3e bd 22 70 be 7e 64 7e bd c8 08 bf bd
       0.163399 -0.23450752 -0.062107556 -0.09327847
0000d0 85 5a 80 3e 4f 16 0d 3e de 89 11 3d 0d cb 92 bd
       0.2506906 0.13778041 0.03553187 -0.07167635
0000e0 0f 92 49 3d 75 22 37 bd 17 53 35 3e 01 18 4e bd
       0.049211558 -0.044710595 0.17707478 -0.05031586
0000f0 06 7a ca 3d c6 90 89 3e 90 96 0e 3d 88 43 7c be
       0.098865554 0.26868266 0.034811556 -0.24635136
000100 40 70 26 3d e7 2f 2c be cc c3 d3 3c f0 54 d1 bd
       0.040634394 -0.16815148 0.0258502 -0.10221279
000110 e2 f9 3b 3e 50 96 18 be 49 67 90 be 1c c1 02 3d
       0.18357041 -0.1490109 -0.282038 0.031922445
000120 6e 41 bd 3d b6 eb 4a bd e2 66 19 3e d3 f9 32 3e
       0.09240995 -0.049541198 0.14980653 0.17478113
000130 44 5f 73 bc 82 7b 99 bd d8 3c 64 3d fe ed 97 3e
       -0.014854256 -0.0749426 0.055722088 0.2967376
000140 30 ca d3 bb a8 18 7b 3d a8 af 9b bd 42 e9 02 be
       -0.0064633116 0.06130281 -0.07601863 -0.12784293
000150 ba f3 96 bd 73 f2 bf be 26 2c 05 3e 3b 84 03 be
       -0.07370706 -0.37489662 0.13005123 -0.1284341
000160 5f a9 1e be e7 36 4d bd eb 43 63 bd 32 7b e2 bd
       -0.15494297 -0.050101187 -0.055484693 -0.11058654
000170 50 51 06 be 3c 2c ea bd a6 9b f3 bc a9 e0 82 3d
       -0.13116956 -0.11434218 -0.029737305 0.06390507
000180 31 c1 3b 3d 9b 46 b9 3d bc bf 55 be cd 3d 9a 3e
       0.04583854 0.0904667 -0.20873922 0.30125275
000190 50 4d 06 3e 91 2b 50 3e 91 6f db bd d1 98 7e 3e
       0.1311543 0.2032912 -0.10714639 0.24862982
0001a0 5d c9 ba 3c 38 1f 64 be 1d 06 61 3e 95 12 a5 3b
       0.022801096 -0.22277534 0.21974988 0.0050376155
0001b0 14 61 c5 bb 74 07 55 3e f8 18 be 3d f8 2c c5 3d
       -0.0060235355 0.20803624 0.09282106 0.09627718
0001c0 0d 99 92 be e3 92 6f 3e 74 01 4d 3d 42 fd c6 3c
       -0.28632393 0.23395877 0.050050214 0.024290685
0001d0 f4 65 2e be e7 2b 85 3c c2 72 51 3e e0 50 01 3e
       -0.1703108 0.016256286 0.20453933 0.12628508
0001e0 ef 35 39 3e 30 11 5f bd d3 6c 2e be 6f 70 23 3d
       0.1808698 -0.05445975 -0.170337 0.039902147
0001f0 33 03 1d be 84 5e 36 be 29 aa e5 3d 2e 4a 5d 3e
       -0.15333252 -0.17809492 0.11214096 0.21610329
000200 ed fb 78 bd c0 c1 13 be dd bd 98 3d e5 26 47 bd
       -0.06078713 -0.14429379 0.074580885 -0.048621077
000210 76 ed e7 bd 0a 1b b1 bd d3 2c 51 bd 75 39 5f bc
       -0.11324589 -0.086477354 -0.05106814 -0.013624539
000220 46 da 28 3e 53 7e f8 3c 77 40 0e 3d 04 9e 4c bd
       0.16489515 0.030333674 0.034729447 -0.049955383
000230 9a e7 09 bd c8 f9 81 3e fb bc 71 bc 58 8c 70 be
       -0.033668138 0.2538588 -0.014754529 -0.23491037
000240 e8 8c ed 3d 75 1e 31 3e 53 53 c6 3c 1d ff fd bd
       0.11599141 0.17296775 0.024209654 -0.124021746
000250 bb 6b bd bd 72 dd 36 3e 1c 0d f2 3d c0 be 58 be
       -0.092490636 0.17857912 0.11818907 -0.21166515
000260 c7 76 77 3e 6c 30 a8 bc a9 9a 32 3e a2 51 c4 bc
       0.24166404 -0.020530902 0.1744181 -0.023964707
000270 3e c8 da 3c ab 21 05 3e 9e fa 5b bd d9 ca 9d 3d
       0.026706811 0.13001125 -0.053705804 0.07704706
000280 39 dc 06 bd b7 d6 7d 3e fa 9b e6 3c fc cc 23 3e
       -0.032924864 0.24788938 0.028150547 0.15996164
000290 12 2b c4 39 1f b6 e6 3d 4c 7e 4d 3d 25 36 bd bd
       0.00037416123 0.112652056 0.050169274 -0.09238843
0002a0 db db 3d bc a2 68 f5 3c 5b 2a 5f be 61 aa 40 bc
       -0.011588062 0.02995712 -0.21793501 -0.0117593715
0002b0 51 3e a8 3b 1f 64 2d 3e 31 d1 ac 3d c8 72 1f be
       0.005134382 0.16932724 0.084383376 -0.1557113
0002c0 d3 4b 4b 3d a6 68 8d 3e 05 d2 da 3d b7 44 4a 3e
       0.04963286 0.27618903 0.10684589 0.19752775
0002d0 25 89 91 3d 14 49 e8 3d 3b 2c 61 3d 96 e2 c0 3e
       0.07106236 0.113420635 0.054973822 0.3767287
0002e0 9e 1c 19 3b 32 80 cb bd 9a 0c 28 3e 27 f5 48 3e
       0.0023363004 -0.09936561 0.16411057 0.19624768
0002f0 3d 9a 20 3c bf 58 19 bd c1 5f 84 3e 76 3a d8 3d
       0.009802398 -0.03743815 0.25854304 0.105580255
000300 ea a2 e9 bd 41 a3 d1 bb 35 3d 32 be 13 43 c5 3d
       -0.114080265 -0.006397635 -0.17406161 0.09631934
000310 63 c7 8c 3d 7f f1 aa bd 23 f5 19 bd 36 b0 2f bd
       0.068739675 -0.08346843 -0.037587296 -0.042892657
000320 da 02 27 be fb 4d 34 3e 33 79 b5 bc 3a 89 c5 bc
       -0.16309682 0.17607872 -0.022152519 -0.024113286
000330 e7 36 9f 3c f2 ea 81 3d 36 e9 e0 3b 5d 53 85 3e
       0.01943536 0.063436404 0.0068637384 0.26040164
000340 aa 07 58 3e 33 8b b2 bd 19 d1 8b 3d dd f9 54 3d
       0.21096674 -0.087179564 0.068269916 0.0519961
000350 8a c6 d7 bc f7 b8 3b be 1a bc 29 bc 78 f2 15 bd
       -0.026339788 -0.18332277 -0.010359788 -0.03660819
000360 76 01 63 be 09 f9 68 3c e5 a4 0a be f2 45 e8 3d
       -0.22168526 0.014219531 -0.13539465 0.11341466
000370 00 53 a0 3b 40 3d 19 3e 4c fd d3 bc cb e3 75 3d
       0.004892707 0.14964771 -0.025877617 0.060031693
000380 48 80 92 3e 1c 7b 33 3e 44 df 9b 3d 66 d0 d8 bd
       0.28613496 0.17527431 0.07610944 -0.10586624
000390 53 f9 80 3c ee 8e f0 38 17 34 3e bd 50 d2 d2 bc
       0.015743887 0.000114707145 -0.046436395 -0.02573505
0003a0 cb fa 1e 3e 38 57 59 be 0f d5 3c 3e c5 51 9d 3d
       0.15525357 -0.21224678 0.1844065 0.07681612
0003b0 f0 8a 9b bc e2 c6 11 be 39 cd 92 bd 3f 7e 36 3e
       -0.018987149 -0.14236024 -0.07168049 0.17821597
0003c0 2f 7c 6f be 7e 0e aa 3d 81 70 8a 3e 90 05 ea bd
       -0.23387216 0.083035454 0.2703896 -0.11426842
0003d0 49 d8 b6 3d 3b 59 ed bc 5d 65 b3 3c bc fd 7b 3d
       0.08927972 -0.028973212 0.02189892 0.061521277
0003e0 f9 78 12 be 3a c6 4f ba 17 5d 1b 3e e8 64 cd bc
       -0.1430396 -0.00079259614 0.1517223 -0.02507253
0003f0 a6 93 30 be 3f 8b c3 3c 52 4b 73 3d 8a 74 b0 3c
       -0.17243823 0.023870109 0.059398003 0.021539945

encoder.encoder_layers.0.0.bias f4 [64]
000000 31 63 cb 38 04 f1 73 38 87 ba 38 39 dc 35 8a b6
       9.69827e-05 5.8160178e-05 0.00017617094 -4.1189905e-06
000010 8c 11 29 37 7f 8b e3 37 83 f9 b4 37 8b b8 d0 b8
       1.007727e-05 2.7125467e-05 2.157386e-05 -9.952587e-05
000020 b9 b7 65 b8 58 4a 0b 38 10 2f 2f 38 08 4d ab b5
       -5.476896e-05 3.320942e-05 4.176708e-05 -1.2762912e-06
000030 06 7b df 37 63 d8 a0 b8 61 f4 fb 37 87 ad 87 b8
       2.6640959e-05 -7.6697e-05 3.003533e-05 -6.4696236e-05
000040 59 9c b0 b8 b8 4b ac b6 c9 34 b1 b7 c0 36 f8 b7
       -8.421456e-05 -5.1348143e-06 -2.1124624e-05 -2.9589399e-05
000050 de 74 1d b8 49 b0 09 38 ff 7e c7 b7 66 11 1e b7
       -3.7540558e-05 3.2827524e-05 -2.3781786e-05 -9.421585e-06
000060 36 cf 6d b8 2e 35 47 b8 37 78 5d b7 02 c6 59 38
       -5.6698183e-05 -4.7494825e-05 -1.3200616e-05 5.192124e-05
000070 10 25 ad b7 aa 3c 01 b6 80 c3 e2 37 35 5f 8c b6
       -2.0640466e-05 -1.925781e-06 2.7032336e-05 -4.1834087e-06
000080 3d 18 6b b7 1f fb 27 37 92 3c 9d 38 0c 6e 02 39
       -1.4012735e-05 1.0012444e-05 7.4976255e-05 0.00012438762
000090 a6 c9 54 b8 94 83 0c b8 d5 04 80 38 b1 1c 65 36
       -5.073254e-05 -3.3501143e-05 6.104416e-05 3.414036e-06
0000a0 5f 00 ab b8 95 55 41 b8 c8 0b f9 b7 ea 74 86 b8
       -8.1539845e-05 -4.609449e-05 -2.96886e-05 -6.411395e-05
0000b0 e7 c3 eb b7 8a cf 4b b8 b3 5d 3c 38 ef d1 04 b7
       -2.8105407e-05 -4.8592257e-05 4.4909957e-05 -7.916692e-06
0000c0 23 42 20 38 0a 84 b1 37 f1 66 cd b7 6c 2e 2d 38
       3.8208567e-05 2.116153e-05 -2.448584e-05 4.1289648e-05
0000d0 75 c8 5f 38 b7 5d 79 b8 fc db 7a 39 3e 7f c4 38
       5.3354033e-05 -5.9453505e-05 0.00023923808 9.369709e-05
0000e0 ff 00 01 37 bd dd 92 b7 d2 35 ce b7 35 6a 5d b8
       7.689231e-06 -1.7507811e-05 -2.4582176e-05 -5.278942e-05
0000f0 46 4e f2 b7 9b 8f 7b 37 c5 5e 82 38 48 38 48 b7
       -2.8885097e-05 1.4994202e-05 6.216535e-05 -1.1934033e-05

encoder.encoder_layers.0.1.weight f4 [64]
000000 6c a5 81 3f f9 25 7a 3f 46 de 7a 3f 04 4c 7c 3f
       1.0128608 0.9771419 0.9799541 0.9855349
000010 3d 16 82 3f 72 1f 7c 3f 34 c3 85 3f fe 06 6d 3f
       1.0163037 0.9848548 1.0450196 0.92588794
000020 1e 72 6d 3f f0 02 78 3f 91 1d 82 3f 2d 39 74 3f
       0.92752254 0.9687948 1.0165273 0.95399743
000030 07 35 89 3f 36 f6 7e 3f 6d 9e 80 3f c0 69 73 3f
       1.0719308 0.9959444 1.0048348 0.95083237
000040 42 1c 76 3f 2e 2d 80 3f 5f da 7d 3f c6 c7 6e 3f
       0.9613687 1.0013788 0.9916133 0.9327358
000050 6b 6a 89 3f 0c 97 84 3f 8c 48 88 3f 3d 3f 80 3f
       1.0735601 1.0358596 1.064714 1.0019299
000060 0a d4 6d 3f 34 32 83 3f a7 53 77 3f f3 e1 7a 3f
       0.9290167 1.0249696 0.9661202 0.9800102
000070 f0 b4 83 3f e2 5b 8a 3f ef f1 63 3f a3 95 6d 3f
       1.0289593 1.080929 0.89041036 0.9280645
000080 fd 96 81 3f 13 b5 79 3f 73 7f 81 3f da 23 5e 3f
       1.0124203 0.9754192 1.011702 0.86773455
000090 7c a6 81 3f 4c e6 81 3f 7b 57 6c 3f 1b e3 85 3f
       1.0128932 1.0148406 0.92320985 1.0459932
0000a0 d4 c1 6e 3f de 05 74 3f ee f6 79 3f 73 a6 75 3f
       0.9326451 0.9532145 0.9764241 0.95957106
0000b0 d0 29 89 3f 50 b1 80 3f 0d 8b 88 3f 88 2d 81 3f
       1.0715885 1.0054111 1.0667435 1.009202
0000c0 8f 22 8c 3f cd ab 64 3f 5a 05 85 3f 6c e1 6c 3f
       1.0948046 0.8932465 1.0392258 0.92531466
0000d0 7f b2 85 3f 80 a9 8a 3f a5 51 73 3f 7b 33 77 3f
       1.0445098 1.0832977 0.95046455 0.9656293
0000e0 48 f3 8c 3f 1a f7 6b 3f 24 34 8b 3f 60 5f 5a 3f
       1.1011744 0.9217392 1.0875287 0.8530178
0000f0 4c e7 84 3f 17 00 7f 3f b8 68 87 3f 4e f7 7b 3f
       1.0383086 0.9960951 1.0578833 0.9842423

encoder.encoder_layers.0.1.bias f4 [64]
000000 a6 69 0a be 35 2d fd bd 74 16 27 be de 2c 56 bd
       -0.13516864 -0.12362138 -0.16317159 -0.052288882
000010 30 a4 2b be 28 0a ca bd 2b 1c 03 3e fc 94 64 bd
       -0.16761851 -0.098652184 0.12803714 -0.055806145
000020 0a ad 59 be bd ef b4 3d 69 7c 0b 3e 75 20 ce 3c
       -0.21257415 0.08834789 0.13621677 0.025161961
000030 f9 a6 1a 3c e7 00 3c be 5a 3b 0a 3d 3c cf 9b be
       0.009439223 -0.18359719 0.03374801 -0.30431545
000040 c3 ca a5 bd b9 b9 29 be 46 38 3e be ac 3e a0 bd
       -0.08095314 -0.16574754 -0.18576154 -0.07824454
000050 0a 33 35 bc ab d1 c0 bd de dd 00 3c cd 5f 84 bd
       -0.011059532 -0.09414991 0.007865397 -0.06463585
000060 95 b3 2a be a7 fe d0 3c 57 28 8c 3d de d2 a3 3d
       -0.16670068 0.025512053 0.06843632 0.07999204
000070 0b f6 f9 bb 1f 7c 13 3e f2 0f 98 be b6 73 d9 bd
       -0.0076282076 0.14402817 -0.29699665 -0.10617773
000080 bf f9 b4 3d 9b eb d3 bd b5 53 11 bc 50 fa b9 be
       0.08836698 -0.103476726 -0.008870055 -0.36323786
000090 94 e6 08 3d 9e 04 72 3d 03 75 72 bd 8d 54 54 bb
       0.03342302 0.059086435 -0.059193622 -0.003239903
0000a0 59 3b 84 be 68 29 3b be 76 b2 0a be 8b 3f 07 3d
       -0.2582653 -0.18277514 -0.1354464 0.033019584
0000b0 a9 4d 77 3c c4 71 6e bb 73 60 32 be 15 8f 47 3d
       0.015094199 -0.0036383728 -0.17419605 0.048720438
0000c0 c4 b2 20 3e c0 8e 6d be a0 42 d4 3b 9e 4f c3 ba
       0.15693194 -0.23198986 0.006477669 -0.0014901047
0000d0 a6 99 4b 3c 20 ca e9 3d a5 15 a7 be d4 cf 27 be
       0.012426769 0.114155054 -0.326337 -0.16387874
0000e0 07 c1 b4 3d 06 b5 ef bd 7d 2b 20 3e a2 91 a4 be
       0.088258795 -0.11704449 0.1564159 -0.3214236
0000f0 3a f2 b3 bd db e7 3d 3d e3 a9 e1 bd b3 66 01 be
       -0.087864354 0.046363693 -0.110187314 -0.12636833

encoder.encoder_layers.0.1.running_mean f4 [64]
000000 30 cf 38 3d 9f 92 80 3c ac 26 5c 3d d8 19 09 bc
       0.045119464 0.015694914 0.053747818 -0.008367978
000010 04 63 e5 3e 26 6a 13 3e 41 e3 d7 3d 59 66 35 3e
       0.44802105 0.14395961 0.10541392 0.17714824
000020 f6 59 7c 3c 3e a5 5b 3d b4 78 62 3d 79 c9 91 be
       0.015402308 0.053624384 0.055290893 -0.28474024
000030 88 26 ac 3e 16 63 8b bd b2 58 27 3d 9a 18 f5 bc
       0.33623147 -0.068060085 0.04085607 -0.029918958
000040 e5 c9 1e 3d 44 9b cd 3e 6d 0d 12 3f 54 4c de 3c
       0.03876676 0.4015752 0.57051736 0.027136005
000050 ef 5a ca 3e 14 fb 34 3e 2a 8f 83 3d a5 e5 b3 3e
       0.39522502 0.17673904 0.06423791 0.35136142
000060 2f 7d 54 3e e4 c2 f0 bd 0a 9d ab 3d 81 43 b5 3d
       0.20750879 -0.117559224 0.08379562 0.08850766
000070 5e 71 b2 3d a1 cc 88 3e 48 ba a0 be 1f 04 8e be
       0.08713029 0.2671862 -0.3139212 -0.2773752
000080 2f 7d e3 bb 8c 60 01 be 7a f2 79 3d 9a 60 a3 bd
       -0.0069424133 -0.12634486 0.06102226 -0.0797741
000090 72 ff 8a bd b4 d9 f4 3d 38 ad 1e be 25 da d0 3e
       -0.067870036 0.11955586 -0.15495765 0.4079143
0000a0 68 18 30 3e 3c d7 28 3d 5f 7e 53 3b 05 ad 9b 3d
       0.1719681 0.04122089 0.0032271368 0.0760136
0000b0 73 27 f8 3e 2b e0 72 3e a3 b6 f3 3e 98 57 05 be
       0.48467597 0.23718326 0.47600278 -0.13021696
0000c0 72 4c 30 3e 6d 9e a3 bc 5a 17 86 3e e1 12 17 be
       0.17216662 -0.019973004 0.2618969 -0.14753295
0000d0 09 85 a9 bc 51 12 ae 3d 27 bf e3 bd 2f 9e 39 3e
       -0.020693319 0.08499587 -0.11120444 0.18126749
0000e0 17 11 d7 3d a0 fa c2 3d 44 68 41 3e 88 e9 06 be
       0.105013065 0.09520459 0.1888743 -0.13175023
0000f0 be db 69 3e 71 32 57 3d 92 5e 83 3e 9e df d0 3e
       0.22837731 0.05253834 0.2565809 0.40795606

encoder.encoder_layers.0.1.running_var f4 [64]
000000 19 d0 c3 3d 6e a2 c6 3d 18 af ef 3d b6 6c ba 3f
       0.09561176 0.0969895 0.11703318 1.4564426
000010 5b d3 8e 3f 93 49 41 3f 17 ab 82 3f ab f3 d1 3d
       1.115825 0.7550289 1.0208462 0.10251554
000020 4b 7e af 3e 40 1c 2c 3f c0 14 27 3e 66 e9 db 3f
       0.3427604 0.67230606 0.16316509 1.7180603
000030 20 25 8a 3f f7 10 d0 3d 63 aa fc 3f 6a b7 94 3d
       1.079258 0.10159486 1.9739498 0.07261546
000040 d3 86 a7 3f 3d 7f 92 3f 81 33 09 3f 07 8f a7 3e
       1.308802 1.144508 0.53594214 0.3272631
000050 6b 72 9c 3f 4c 3b ab 3e c2 ce e8 3d bb ac 86 3f
       1.2222418 0.33443677 0.11367561 1.0521463
000060 0c be fa 3d 47 a4 e9 3f be f0 61 3f 12 8e 46 3f
       0.1224328 1.8253258 0.8825797 0.7756053
000070 4d cc 9b 3f 07 70 cf 3f d4 ca 78 3e 97 34 81 3f
       1.2171723 1.6206063 0.24296123 1.0094174
000080 dc da bd 3f bb f0 a6 3f 25 70 46 3f b5 0b 95 3d
       1.4832416 1.3042215 0.7751487 0.072776236
000090 64 73 8e 3f 85 6b af 3f d4 89 d8 3e c1 61 c6 3f
       1.1128964 1.3704687 0.42292655 1.5498582
0000a0 ce 1c cc 3e 5e c1 da 3d 06 db 1e 3f 3d 80 61 3f
       0.39865726 0.10681413 0.62052953 0.880863
0000b0 ff 7a 9d 3f 7a 0d 98 3f 26 56 58 3f 50 ef 7e 3f
       1.230316 1.1879113 0.8450645 0.9958391
0000c0 58 e3 92 3f ea 95 25 3f 65 2e 95 3f c9 7e 9d 3f
       1.147563 0.64681876 1.1654783 1.2304317
0000d0 cf 6f 8f 3f 7f 0a b1 3f 76 52 b1 3d b1 81 16 3f
       1.1205996 1.3831328 0.08658306 0.58791643
0000e0 74 69 ac 3f 22 1d fe 3e 38 51 a4 3f 96 a5 95 3e
       1.3469682 0.49631602 1.2837286 0.29227895
0000f0 c6 51 9b 3f 2c ad 86 3f 5d fa 1c 3e 55 5e 40 3f
       1.213433 1.0521598 0.15329881 0.7514394

encoder.encoder_layers.1.0.weight f4 [32, 64]
000000 d9 26 18 3e 3a 87 35 bd 31 90 0e 3d 28 69 0f be
       0.14858569 -0.044318415 0.03480548 -0.14004958
000010 f4 be 24 3c 12 d0 4c bd 2c 0d 0f be a9 af f1 bd
       0.010055292 -0.05000312 -0.13969868 -0.11801083
000020 39 db cc bd bb cb 12 3e 3b c7 72 3e 9f fd da bc
       -0.10002751 0.1433553 0.23708813 -0.026732264
000030 6f 84 0d 3e 98 0d 87 3d e6 4e 90 bd 2a 2e 06 3d
       0.1382005 0.0659439 -0.07046299 0.03275887
000040 93 e2 08 be 2e a6 97 bd ef 4d f2 bd e7 08 ef 3c
       -0.13367681 -0.07404743 -0.11831271 0.02917905
000050 72 e3 f2 bd 29 c0 8f 3e 0a 35 db 3d 3a 7d 71 be
       -0.11859788 0.28076294 0.10703476 -0.23582926
000060 14 60 5e 3d dc ef 52 3e 5a 05 6d bd 7e f3 1c bb
       0.054290846 0.20599312 -0.05786643 -0.0023948844
000070 65 e9 bc bd 95 10 d9 bd cb 84 05 be b0 a8 df 3d
       -0.09224204 -0.10598866 -0.13038938 0.109208465
000080 b2 16 b0 bd 97 cb 84 be 7b e1 23 be dc b5 3f be
       -0.08598079 -0.25936577 -0.16003983 -0.18721718
000090 71 40 10 3e f8 5b 07 3e e7 d8 4c 3e 6f fe a3 3e
       0.14087082 0.13218677 0.20004617 0.32030055
0000a0 ca 15 6f 3d de d2 37 bd 08 7a c1 bd 2e cd b2 3c
       0.05837039 -0.044878833 -0.09447104 0.021826353
0000b0 8c 75 6b 3e 5c 71 7a bc 5d 80 81 3d 13 a1 1c 3d
       0.2299406 -0.015285816 0.063233115 0.03823955
0000c0 77 15 8f 3e 44 44 50 be 86 49 39 3e 72 dc 1f bd
       0.27946064 -0.20338541 0.18094453 -0.039028592
0000d0 60 23 46 3e 75 40 1d bd c0 80 52 be 4b a2 97 3d
       0.19349432 -0.03839155 -0.20556927 0.07404002
0000e0 f7 d7 9f 3e c4 fc 3f 3b c8 b4 43 3e 71 f9 ce 3d
       0.31219456 0.0029294947 0.19111931 0.10106171
0000f0 0c 1d 65 be b3 71 13 3e 2f 19 c9 3d 74 b8 79 bd
       -0.22374362 0.14398842 0.098192565 -0.060966924
000100 f9 cf 4d 3e 96 a2 4c 3e a2 e3 d4 3d 67 f1 73 bd
       0.20098867 0.19983897 0.1039498 -0.05955639
000110 14 68 09 3e c2 eb 28 3e fb 9c 7d bd e8 38 cb bd
       0.13418609 0.16496184 -0.061917286 -0.099229634
000120 53 d1 10 3e 70 f4 56 be 06 b8 2b be fe 43 2d 3a
       0.14142351 -0.20991683 -0.16769418 0.0006609558
000130 cd ac 9d 3d fa 9b 0d 3d 5b 0e a9 3d 13 f1 3b 3e
       0.07698975 0.03457258 0.08254691 0.18353681
000140 13 77 c6 3d 22 24 7b 3e 97 83 8e 3e fa 76 ac 3d
       0.0969068 0.24525502 0.2783477 0.084211305
000150 0c bd 27 3e 04 6e a1 bd cf c3 00 3e 01 18 56 3e
       0.1638071 -0.07882312 0.12574695 0.20907594
000160 1e 50 41 bd d9 17 f3 3a 34 ec 08 be 0a a8 0e be
       -0.047195546 0.0018546536 -0.13371354 -0.1393129
000170 db 34 70 3e 58 b2 f2 bc 7e b2 7d 3e 24 af ba bd
       0.23457663 -0.029626057 0.2477512 -0.09115437
000180 32 50 43 bc cf bc 11 3e 6f 0a ba 3c d3 5e 1b 3e
       -0.0119209755 0.14232181 0.022710053 0.15172891
000190 33 ab 39 be 79 4a 61 be b8 74 49 bd 80 0d 96 3d
       -0.18131714 -0.22001065 -0.049183577 0.07326794
0001a0 37 d4 6f 3e cd 72 83 3e 28 48 4e bd de b4 c6 bd
       0.23420797 0.25673524 -0.050361782 -0.097024664
0001b0 d2 d5 bd bd ea 2b 7c 3e 74 9b ac 3e 8f a9 85 bd
       -0.092692986 0.24626127 0.3371235 -0.06526481
0001c0 6d 14 6c be d4 c9 99 bd b4 96 97 bc 2e 5b 96 be
       -0.23054667 -0.07509199 -0.018504478 -0.2936644
0001d0 5a e7 12 be 73 a6 9d be 77 8b 27 3e 5a 63 82 3d
       -0.14346066 -0.30791053 0.16361795 0.06366606
0001e0 72 d2 78 be bf 85 c6 3d 3d fd 94 be 0e a1 1d 3d
       -0.24299029 0.09693479 -0.29099455 0.03848367
0001f0 88 1d 47 3e f4 88 a1 bd 48 c5 43 be 1e a1 54 bc
       0.19444859 -0.0788745 -0.19118226 -0.012977866
000200 90 e1 ba 3d ad 31 4d 3e 51 2b 82 3e 4c 38 4d 3e
       0.09125054 0.20038481 0.25423673 0.20041007
000210 a1 25 3e bd c7 c3 be 3d ab 88 8f be 39 5e 3b 3e
       -0.046422604 0.09314685 -0.28033957 0.18297662
000220 63 4c 29 3e 0d ec 4e be 3a 55 ec bc 15 84 e9 bd
       0.16533045 -0.20207234 -0.028849233 -0.11402146
000230 ac 4e 1c be 3d 34 54 3e aa d1 ec bd db 88 16 3e
       -0.15264386 0.20723052 -0.11563428 0.14700644
000240 d5 33 a5 bd e0 69 2b 3e 03 bd 77 bd 78 fa 9a bd
       -0.08066527 0.16739607 -0.06048299 -0.075673044
000250 3a c0 65 bd 6d d1 6a bd df 1c 10 bd 1c f9 d8 bd
       -0.056091525 -0.05732863 -0.035183784 -0.10594389
000260 68 60 ac bd 80 7a 50 3d 7d 15 a9 bd c3 b3 4a be
       -0.084168255 0.050898075 -0.08256052 -0.19795136
000270 41 46 53 3e 39 ed fd bb 74 fa 6d bd 3a 47 09 be
       0.20632268 -0.0077492264 -0.05810018 -0.13406077
000280 ca 36 d0 bc 3c fc 35 3e 0c 28 17 be 14 4b c0 3a
       -0.02541675 0.17772001 -0.1476137 0.0014670813
000290 b4 65 68 be e0 54 70 be f5 0c 5e 3d 82 37 e5 3d
       -0.22695047 -0.23469877 0.054211576 0.11192228
0002a0 22 6d 05 3e 55 d6 6d 3e 0e bb c7 3d 1d ce 95 bc
       0.13029912 0.23226292 0.09752475 -0.018286759
0002b0 3f 05 7e be 65 4e 68 3e 23 6e 77 3e 55 6f 8b bd
       -0.24806689 0.22686155 0.24163108 -0.06808344
0002c0 94 85 05 bc 7e 1f dc 3d 84 3d 5e 3e bf 0b c4 bd
       -0.008149523 0.10748194 0.21703154 -0.09572553
0002d0 ca b5 9e bd b6 dc 4a be 9f 3a c1 3d 26 ae 0d 3e
       -0.07749517 -0.19810757 0.09435009 0.13835964
0002e0 03 a7 76 be 6a d4 0d 3e 67 86 ac bc ed c9 93 3d
       -0.24087147 0.13850561 -0.021060182 0.07216249
0002f0 6f 0f 92 3d 5f 19 c8 bd 14 73 84 3d 4a 48 3f be
       0.0713185 -0.09770464 0.06467262 -0.1867992
000300 de a1 2f 3e 2e 70 14 be 1c c9 09 be 51 32 9d be
       0.17151591 -0.14495918 -0.13455623 -0.3070245
000310 ce b5 9c bd f3 f7 89 bd 70 84 8d 3e a8 88 f8 bc
       -0.07651864 -0.06736746 0.27640104 -0.0303386
000320 fe 9a 88 3c d0 04 d3 3c 68 42 2b 3e 63 4f 4b 3e
       0.016675469 0.02575913 0.1672455 0.19854502
000330 4d 94 21 3e 8c 5d e4 3d 7f fe 05 be 20 2e 83 3e
       0.15779229 0.11150655 -0.13085364 0.25621128
000340 11 5a af be 57 37 53 be 63 7e 3a be 3b 35 51 3d
       -0.34248403 -0.20626579 -0.18212275 0.051076155
000350 42 db 33 3c d8 cd 8e 3d 35 87 49 be 99 c1 03 3e
       0.010977568 0.06972855 -0.19680484 0.1286682
000360 5f 33 52 3e c5 4e 31 3e 81 38 5d bd 31 3f 69 3e
       0.20527409 0.17315204 -0.054008964 0.22778012
000370 c0 a7 b9 bc 62 d3 ce 3c 66 71 98 be 96 40 83 3e
       -0.022662997 0.02524728 -0.29774016 0.25635213
000380 db 8f 25 3d 10 dd 94 be d1 6c c8 3d df ef 1e bd
       0.040420394 -0.29074907 0.0978638 -0.038802978
000390 92 98 c3 3d 71 36 7f 3e 91 69 17 3e 81 c0 55 bd
       0.09550585 0.24923111 0.14786364 -0.05218554
0003a0 2a 87 f2 bd 9b 9b 41 3e 71 50 c5 bd 7b 02 f1 bd
       -0.11842187 0.18907015 -0.096344836 -0.11768051
0003b0 3f 39 06 be 5f 91 8b be ff c4 09 bd eb 4a 80 3e
       -0.13107775 -0.27259347 -0.033635136 0.25057158
0003c0 ef 8a 33 3e 5d 4e a6 bd 2f be 18 3e 62 47 d7 bc
       0.17533468 -0.08120415 0.149163 -0.026279155
0003d0 35 98 77 3e 0f 74 6b 3e a3 75 17 be 42 43 32 be
       0.24179156 0.22993492 -0.14790969 -0.1740847
0003e0 9a 19 aa bd 41 2b ec ba d8 c3 6c 3e 0f a6 be bd
       -0.08305664 -0.0018018262 0.23121583 -0.09309017
0003f0 90 f6 3b be ea 35 09 3e 10 ca 23 be 39 57 d2 3d
       -0.18355775 0.13399473 -0.1599505 0.10270543

encoder.encoder_layers.1.0.bias f4 [32]
000000 22 00 53 b6 5d 67 73 b8 5a aa f8 b7 d5 2d c0 38
       -3.1441527e-06 -5.803198e-05 -2.964323e-05 9.16381e-05
000010 95 82 49 37 83 cd 15 b8 da 32 5e b7 49 3b 07 37
       1.2010937e-05 -3.5715766e-05 -1.3244071e-05 8.06043e-06
000020 06 5e 88 b7 af 88 0d b7 ef 2e 52 37 68 91 59 b6
       -1.6256246e-05 -8.436079e-06 1.2527903e-05 -3.2420157e-06
000030 f0 33 55 38 84 34 95 b7 fb fe b8 b8 03 30 c7 36
       5.0831528e-05 -1.7786639e-05 -8.8212975e-05 5.9362515e-06
000040 20 c6 c2 38 68 61 ea 36 86 49 99 b6 d9 ff 65 36
       9.2875445e-05 6.985083e-06 -4.5683146e-06 3.4272582e-06
000050 ce 34 cb 36 bc 9e 2b b8 9b ea 88 37 35 ef 57 38
       6.0560187e-06 -4.091741e-05 1.632171e-05 5.1482773e-05
000060 86 c7 4b b8 e6 74 8d b8 76 bb ef 36 38 2f 20 b8
       -4.8584792e-05 -6.745178e-05 7.1445784e-06 -3.819095e-05
000070 91 d0 50 b6 ca 42 8b b8 1e 94 bc 38 cb ca ea b8
       -3.1115817e-06 -6.640477e-05 8.9921276e-05 -0.000111957626

encoder.encoder_layers.1.1.weight f4 [32]
000000 7f 95 99 3f 80 19 6a 3f 04 26 5e 3f 3e 16 90 3f
       1.1998748 0.9144516 0.8677676 1.1256788
000010 b1 05 a2 3f 61 6a 9f 3f da 95 89 3f 93 77 70 3f
       1.2657987 1.2454339 1.0748856 0.93932456
000020 3d 30 76 3f 32 7a 77 3f d6 6b 67 3f 16 d3 49 3f
       0.96167356 0.9667083 0.9039892 0.78837717
000030 be 6f 86 3f b5 72 7c 3f 00 46 83 3f 12 6b 8c 3f
       1.0502851 0.9861253 1.0255737 1.0970175
000040 3d 62 46 3f 02 93 50 3f 95 02 53 3f 82 2c 3d 3f
       0.7749365 0.81474316 0.82425815 0.7389604
000050 07 e3 69 3f df 07 7a 3f f7 2d 71 3f 89 f4 97 3f
       0.9136204 0.9766826 0.9421076 1.1871501
000060 35 ec a0 3f be 2e 81 3f 67 f3 54 3f 21 d6 53 3f
       1.2572085 1.009239 0.831839 0.8274861
000070 c8 d9 7e 3f 6b d3 82 3f cf e8 55 3f e7 7c 8a 3f
       0.9955106 1.022077 0.8355836 1.0819367

encoder.encoder_layers.1.1.bias f4 [32]
000000 67 a6 94 3e f8 cd 05 3d 13 35 19 be 1b c7 9f 3e
       0.29033205 0.03266713 -0.14961652 0.31206593
000010 75 81 c5 3e cc ba fc 3e e4 86 39 3e be 22 d3 bd
       0.3857533 0.49361265 0.18117863 -0.10309361
000020 a8 0b 72 3e 9d 4a bb 3b 77 36 59 bd cb ed 3c be
       0.23637259 0.0057156817 -0.053030457 -0.18450086
000030 61 dd 45 3e 07 a2 89 3c 78 79 3d 3e 44 4f 1c 3d
       0.1932273 0.016800893 0.18503368 0.03816153
000040 6c 61 c6 be 54 54 38 be 30 56 bb be f7 8d 6b be
       -0.38746202 -0.18000919 -0.36589193 -0.23003374
000050 74 83 16 be 96 73 a8 bc 3b 15 10 bd b1 c9 99 3e
       -0.14698583 -0.020562928 -0.035176497 0.3003669
000060 c4 ec de 3e 26 46 99 bd 2e f0 38 be 8e 02 18 be
       0.43540013 -0.07484083 -0.18060371 -0.14844725
000070 7f 53 5e bd 0e a5 e7 bd d1 d4 e6 bd 75 4c ad 3e
       -0.054278847 -0.113107786 -0.1127106 0.33847395

encoder.encoder_layers.1.1.running_mean f4 [32]
000000 d8 b6 14 3f 03 0f de bd 4d b2 8c be 0f 3b de 3e
       0.580915 -0.10842707 -0.27479783 0.43404433
000010 bd ec 13 3f 0d 51 92 3f 8c b9 ac 3f 2a 4a 01 3f
       0.5778311 1.1430985 1.3494124 0.5050379
000020 d7 f0 0c 3f e0 53 48 3f e2 a9 5f 3f 9d e2 44 3e
       0.5505499 0.78252983 0.87368596 0.19227071
000030 b5 67 47 3e 8a df fc 3d 14 67 3b 3e 29 5b 69 3f
       0.19473155 0.12347324 0.1830104 0.91154724
000040 d8 0e 06 bf da 2d b7 bd 1b b4 06 3f 32 97 0c bf
       -0.523664 -0.08944292 0.5261857 -0.54918206
000050 94 d8 18 3d b7 04 0d c0 45 4d d3 bf ef 3a f0 3e
       0.03731592 -2.2034128 -1.6507956 0.46919963
000060 b1 80 75 3f 35 98 bc bf 3e 81 0f be 62 4e 3f be
       0.9589949 -1.473395 -0.14014146 -0.18682244
000070 2e fa a0 3e 6b 26 94 3e c8 6f e3 be cf 75 b9 3e
       0.31440872 0.2893556 -0.4442122 0.36222693

encoder.encoder_layers.1.1.running_var f4 [32]
000000 00 c2 c2 40 8b 85 f4 40 6b 1e 6e 40 1b 07 bf 40
       6.0861816 7.6413016 3.7206066 5.9696174
000010 06 29 d6 40 50 48 15 41 12 97 05 41 ec fa 42 40
       6.6925077 9.330154 8.349382 3.046565
000020 e3 36 bc 40 86 06 4d 40 3b 6f b6 40 47 2b 3a 3f
       5.8817 3.2035232 5.701078 0.72722286
000030 93 cd ec 40 c4 5c c5 40 ca b3 ad 40 df e6 aa 40
       7.4000945 6.167574 5.428197 5.3406825
000040 f6 af c7 3f eb f8 76 40 4a d3 71 40 2e a9 99 40
       1.5600574 3.8589427 3.778521 4.801902
000050 ba d6 8a 40 6e cd e6 40 51 91 b3 40 b3 9b c2 40
       4.3387117 7.212577 5.611489 6.0815063
000060 83 d3 d2 40 8b be 72 40 5c cb 8a 40 74 e4 ad 40
       6.5883193 3.7928798 4.337324 5.4341373
000070 95 57 54 40 29 32 86 40 1d 4d b1 40 82 28 7e 40
       3.3178456 4.193623 5.5406632 3.9712224

encoder.encoder_layers.2.0.weight f4 [16, 32]
000000 5f 80 6d be c4 b4 32 3d f9 cf 1f 3e a8 cc 84 be
       -0.23193501 0.043629423 0.15606679 -0.2593739
000010 da 3f ce be 70 16 0f bf a4 0b ac 3b 8c 71 91 be
       -0.4028309 -0.5589361 0.005250411 -0.28406942
000020 37 f8 21 bd eb 8d 9a be 7c fb b7 3c 26 f8 1f 3e
       -0.039543357 -0.301864 0.022458784 0.15622005
000030 b3 6e ac be f0 0d 6d bd 23 e8 52 be 98 56 bf 3d
       -0.33678207 -0.05787462 -0.20596366 0.09342688
000040 39 27 86 3e a9 a0 04 3e 61 cf 98 bd 50 56 14 3e
       0.262018 0.12951912 -0.074614294 0.1448605
000050 f8 48 55 3d 6f 11 20 3c fc 74 73 3d d6 76 f2 be
       0.05207154 0.0097697815 0.059437737 -0.4735629
000060 83 e6 00 bf 12 ab 1a be 99 4e 23 bd 0b fd 25 3e
       -0.5035173 -0.1510432 -0.03986988 0.1620981
000070 94 cf b6 be f4 aa 09 3e 5f d9 17 3e 31 94 4c be
       -0.35705245 0.1344412 0.14829014 -0.19978406
000080 8f 19 31 bd cb 20 15 bf cb f5 9d be ec 39 46 3e
       -0.043237265 -0.58253163 -0.30851588 0.19358033
000090 78 b8 ca 3d c4 7b 25 3e f9 2e 53 3e 18 20 1a be
       0.09898466 0.16160494 0.20623387 -0.15051305
0000a0 62 94 4f 3e 46 6a 0f 3e 0f 2c 51 bd de 9c 39 bd
       0.20271447 0.14005384 -0.05106741 -0.045315616
0000b0 f8 df 9d bd d0 0a 35 bf 1c 16 3b 3e 04 e5 d4 3d
       -0.07708734 -0.70719624 0.18270153 0.10395244
0000c0 a0 92 21 be 36 c4 d2 be 46 cb 32 be 9b 4e d4 bd
       -0.15778589 -0.41165322 -0.17460355 -0.10366555
0000d0 dc 30 d0 bd f0 9a 58 be b4 61 9b be 4f 1f 1c 3e
       -0.10165569 -0.21152854 -0.3034798 0.15246318
0000e0 60 dd cd 3d 6f 65 56 be 9f 48 f9 bd ca 95 c7 be
       0.100519896 -0.20937131 -0.121720545 -0.38981467
0000f0 4a bc 63 bd 13 e3 89 be 78 33 0f be 69 be 72 3e
       -0.05559949 -0.26931056 -0.13984478 0.23705448
000100 3b 53 e5 be 3d 46 8a 3e 79 5b 02 be bf 76 61 be
       -0.44790062 0.27006713 -0.12730207 -0.22017954
000110 cf 22 f8 be 3d c9 dc be 15 f5 be be 33 9c 66 3e
       -0.48464057 -0.43122283 -0.37296358 0.22520523
000120 54 84 23 3e a5 8e 9d 3d 1a d8 18 be 43 47 76 be
       0.15968448 0.07693223 -0.14926186 -0.24050622
000130 80 f2 b3 be 73 27 b1 3c 6e bb 74 be a6 f8 f5 be
       -0.3514595 0.021625256 -0.23899624 -0.48041266
000140 38 61 96 bc de 2a 15 3d 02 ae 88 bd 96 a0 d6 3c
       -0.018356904 0.036417834 -0.06673814 0.02619962
000150 ae 32 a8 3d 02 f5 eb bb 89 5b 8b be d0 57 f9 be
       0.082127914 -0.007200838 -0.27218273 -0.48699808
000160 12 5d b0 bd 77 75 1a be 13 94 97 3e bc fa 0f 3e
       -0.08611502 -0.15083872 0.2960516 0.14060491
000170 dd 25 c1 be b8 a7 1f 3e 6f 85 19 be c4 05 8a bd
       -0.377242 0.15591323 -0.14992307 -0.06739381
000180 0d bb 75 bd 86 fc 51 be 06 e2 52 bd 32 c0 a8 bd
       -0.05999284 -0.20506486 -0.051485084 -0.08239783
000190 46 7e a6 bd 30 aa 0e be cd 48 e4 bd 8b 0a 76 be
       -0.081295535 -0.13932109 -0.11146698 -0.2402746
0001a0 fb cd 21 bd 1c eb 11 3b b3 91 78 bd 02 58 04 be
       -0.03950308 0.002226538 -0.060685825 -0.12924197
0001b0 63 54 24 be db 57 ee be c7 e9 9c bd 88 7a fb bd
       -0.16047816 -0.46551403 -0.07661777 -0.1227923
0001c0 74 0a 79 3d 1d c3 58 3e d9 a0 cd be 75 c0 ba 3e
       0.060800985 0.2116818 -0.4016178 0.36474958
0001d0 70 fe db 3e 49 33 06 3c a4 12 ef bc df 8a f2 bd
       0.42967558 0.008190938 -0.029183693 -0.11842894
0001e0 5c 23 d7 bd b0 06 53 bd 62 ae 0f 3e 87 7e 0b 3e
       -0.10504791 -0.05152005 0.14031366 0.13622485
0001f0 3a f9 99 bd dc 3d 58 be f2 b3 6c 3c 11 26 a6 bd
       -0.07518239 -0.21117347 0.014447199 -0.08112729
000200 ba 15 04 3e 44 b7 cc be 5a 17 2b be 2e 78 1e 3c
       0.12898913 -0.3998357 -0.16708127 0.009672208
000210 26 0e f1 3c 50 c3 94 3c 4b 8e 39 bd 7d 2c 23 3e
       0.029425692 0.018159539 -0.045301717 0.1593494
000220 a0 76 87 3d 21 db bc 3d d4 b7 e0 3d 28 bd 31 3e
       0.06614423 0.09221483 0.109725624 0.17357314
000230 43 f5 11 3d cb 37 de be 3a 1e 83 3d 3b 6a 12 bd
       0.03563429 -0.43401942 0.0640225 -0.03574584
000240 88 5c 99 3d f0 a8 8c be 02 9c c1 3d 3d fc a2 be
       0.07488352 -0.2747264 0.09453584 -0.31833068
000250 f5 c6 8e be 4e 23 85 be f0 01 69 be 6e 4a d6 ba
       -0.27886167 -0.26003498 -0.22754645 -0.0016349086
000260 c7 e7 a2 3d 75 9a 79 be e9 54 5b be 76 bb 0a bf
       0.07954364 -0.24375327 -0.2141911 -0.5419229
000270 5f 38 37 3e 70 44 16 bf 74 89 0a bf 09 78 08 bd
       0.17892598 -0.5869818 -0.54115987 -0.0333176
000280 68 f8 db be e8 c0 e9 bb e7 37 5c 3c 1f 38 9a be
       -0.42962956 -0.007133592 0.0134410625 -0.30120942
000290 28 e7 ac 3d f7 94 03 bf 58 88 c3 be 3f 08 d5 be
       0.08442527 -0.5139918 -0.3818996 -0.41607854
0002a0 01 a5 f2 be 04 ef e1 3d ac ce d3 be e9 48 1b bc
       -0.47391513 0.11031917 -0.41368616 -0.009477832
0002b0 16 02 a5 be 7a 9a 91 3d 5e f8 ad be 51 4d 99 3d
       -0.32228154 0.07109542 -0.33978552 0.0748545
0002c0 1f 94 99 bc f9 09 59 bd 70 b4 02 3e a0 6b 20 3e
       -0.018747387 -0.052988026 0.12764144 0.15666056
0002d0 5b 66 2e 3e 71 fa 15 be 62 ca 2c be c1 b7 88 be
       0.17031233 -0.14646317 -0.16874078 -0.26702693
0002e0 8e 2f 64 be ea ef 3e be 92 cf 68 bd d3 61 ab bd
       -0.22283766 -0.18646207 -0.05683858 -0.08368268
0002f0 b1 cf 6e 3d 6f 72 5b 3e ca c5 87 3e a8 35 8b be
       0.05830354 0.21430372 0.2651809 -0.27189374
000300 4f fe da be 20 b5 18 be b6 11 ff 3d 84 ee f0 be
       -0.42772147 -0.14912844 0.1245455 -0.47056973
000310 eb 81 13 bf 4e 0b 80 be 0c 4b b4 be a6 3a a1 be
       -0.57620114 -0.25008625 -0.35213506 -0.31490058
000320 cd 08 08 3d a9 c3 22 be 09 fd ee bc 50 8f 4f 3e
       0.033211518 -0.15894951 -0.029173391 0.20269513
000330 40 ec 3e bd a1 9b f9 bc f6 a7 17 be 39 eb e5 be
       -0.046612024 -0.030469717 -0.14810166 -0.44906023
000340 1e 44 8c 3e db a4 72 bc c8 a0 53 be a3 6e cd 3a
       0.2739572 -0.014809812 -0.20666802 0.0015673231
000350 ac 5c 55 3e 58 ea 1d be 9a 64 43 3d 5f 2c 6b be
       0.20836133 -0.15421426 0.047703363 -0.22966145
000360 45 18 10 bf e0 15 aa be 3f f5 85 3e 63 b8 70 3e
       -0.5628703 -0.33219814 0.2616367 0.23507838
000370 79 4f 75 3d 9c ba a4 3e 41 b5 65 be b7 7e d4 be
       0.059890244 0.32173622 -0.22432424 -0.41502926
000380 7a 4f 4d 3d 23 81 c7 be 91 b8 d2 be 12 88 20 3d
       0.050124623 -0.3896571 -0.41156438 0.039192267
000390 48 fc 90 3b 9c 83 ef 3b fc 33 98 3c 71 39 1d 3e
       0.0044246055 0.00730939 0.018579476 0.15353943
0003a0 43 40 9e bc a5 65 14 3d 92 7f 15 3e 59 ff 23 3e
       -0.019317752 0.03622975 0.14599445 0.16015376
0003b0 a6 f9 a7 3d fa 23 1a bd c8 88 fd bc 11 c3 f3 3c
       0.082019135 -0.037631966 -0.030949011 0.0297561
0003c0 8c dd be bc 1c b0 0b bd 60 00 bc 3d 80 ab ab be
       -0.023299001 -0.034103498 0.09179759 -0.33529282
0003d0 14 aa d5 be 52 d3 c3 be bd 64 07 be e2 25 8e bb
       -0.41731322 -0.38247162 -0.13222022 -0.004338012
0003e0 5f b6 bb 3a 70 82 4e be f5 66 a0 bd b9 77 14 bf
       0.0014321319 -0.20166945 -0.078321375 -0.5799518
0003f0 6d 14 06 3e 39 7d dc be b1 72 f7 be 77 da e4 37
       0.1309373 -0.43064287 -0.4832969 2.7281449e-05

encoder.encoder_layers.2.0.bias f4 [16]
000000 e8 f8 9d b8 4b 00 6b b7 63 21 d9 37 d0 20 d1 38
       -7.532706e-05 -1.400716e-05 2.5883963e-05 9.9720084e-05
000010 c4 d2 de b8 74 44 0b 39 82 0c 29 b9 96 18 40 38
       -0.00010625043 0.00013281574 -0.00016121755 4.5799265e-05
000020 29 49 8a 38 e8 47 d7 36 20 54 a5 38 e4 9c 1d 39
       6.59398e-05 6.4158703e-06 7.8834826e-05 0.00015031133
000030 2b 12 90 39 ea 2b 31 39 42 bc 5d b8 85 81 54 b8
       0.00027479357 0.00016896395 -5.2865835e-05 -5.0665363e-05
