scripts/abr_clustering/audiometric_deep_clustering/experiments/test_unified_structure/20250618_173905_evident/checkpoints/pretrain/pretrain_epoch_20.pt (torch, 343427 bytes, 213 tensors)

encoder.abr_encoder.abr_projection.weight f4 [16, 6]
0.02021482 0.51433265 0.099341795 0.13898832 0.0123639265 0.3555346 -0.47483227 -0.18300347
0.34922963 0.07456127 -0.077409044 -0.5322558 -0.1824282 0.1515805 -0.52968526 0.0691416
-0.27564448 -0.016880043 0.097627856 -0.5582852 0.16744168 -0.0008823154 -0.264042 0.33471382
-0.23030217 -0.3384149 -0.04019293 -0.14335182 -0.2697535 -0.63456225 0.026224386 0.46033555
-0.5053032 -0.1870181 -0.12375884 -0.44869784 0.15574858 -0.05828733 0.46907684 -0.42088574
0.06796738 0.3083766 0.0641303 -0.018969491 0.4228701 -0.24718417 0.6318707 0.33197808
0.32680202 0.46147308 0.08404662 0.19657987 0.01607487 -0.33549413 0.2606641 0.5055843
0.20481461 0.14410646 -0.356019 0.11997325 0.15438348 -0.29620606 0.31805977 0.20474522
0.22715913 0.6028046 0.16722831 -0.19222958 0.091370806 0.46852943 0.39907745 -0.105064005
-0.029493967 -0.47088015 -0.16412963 -0.44398272 0.20635815 0.39650634 -0.3257545 -0.2438779
-0.3088795 -0.25469762 0.42926326 -0.6059669 -0.30228156 -0.4995339 -0.024958882 -0.43470094
-0.3551265 0.46192917 0.22490919 0.31762633 0.28743726 0.2815533 0.2622541 -0.21768846
00000000: 8d99 a53c 4eab 033f b673 cb3d f452 0e3e
00000010: 1192 4a3c a208 b63e 371d f3be 4365 3bbe
00000020: 3ace b23e 94b3 983d a288 9ebd eb41 08bf
00000030: 75ce 3abe eb37 1b3e 7499 07bf 1c9a 8d3d
00000040: 4621 8dbe 0448 8abc 1df1 c73d c7eb 0ebf
00000050: d575 2b3e 2f4b 67ba 8330 87be 9c5f ab3e
00000060: 55d4 6bbe b844 adbe 57a1 24bd d2ca 12be
00000070: 211d 8abe ac72 22bf 86d4 d63c 1ab1 eb3e
00000080: 8d5b 01bf ac81 3fbe 4675 fdbd b9bb e5be
00000090: 8e7c 1f3e b2be 6ebd d72a f03e 567e d7be
000000a0: 7b32 8b3d 8ae3 9d3e bf56 833d e865 9bbc
000000b0: 6e82 d83e d91d 7dbe 47c2 213f 08f9 a93e
000000c0: 9852 a73e 3346 ec3e a220 ac3d 3c4c 493e
000000d0: 72af 833c e3c5 abbe c475 853e f96d 013f
000000e0: ecba 513e a590 133e 1f48 b6be 89b4 f53d
000000f0: b416 1e3e 52a8 97be bbd8 a23e bba8 513e
00000100: 679c 683e 6751 1a3f e63d 2b3e d5d7 44be
00000110: 9e20 bb3d 17e3 ef3e e153 cc3e cc2b d7bd
00000120: 559d f1bc 3417 f1be 9911 28be b451 e3be
00000130: 8d4f 533e e102 cb3e 4bc9 a6be 21bb 79be
00000140: 7425 9ebe ba67 82be 65c8 db3e a620 1bbf
00000150: a6c4 9abe e8c2 ffbe 9276 ccbc 1f91 debe
00000160: 24d3 b5be fb81 ec3e 984e 663e eb9f a23e
00000170: fa2a 933e c127 903e 2b46 863e b9e9 5ebe

encoder.abr_encoder.abr_projection.bias f4 [16]
6.387475e-05 -2.6376061e-05 -4.542894e-05 6.314185e-05 1.2678982e-05 -8.954122e-05 4.3299176e-05 0.000108652035
-5.349258e-05 -2.935111e-05 0.000216977 -1.7785567e-05 3.1567345e-06 -1.1677837e-06 1.0588237e-05 5.258776e-05
00000000: 7ff4 8538 2942 ddb7 f48a 3eb8 066b 8438
00000010: d0b7 5437 14c8 bbb8 239c 3538 1edc e338
00000020: 385d 60b8 0737 f6b7 5284 6339 3732 95b7
00000030: 49d8 5336 bebc 9cb5 22a4 3137 ad91 5c38

encoder.abr_encoder.abr_norm.weight f4 [16]
0.9510257 1.0031475 0.93568313 0.90333265 1.0488225 1.0279837 0.8823263 0.9447336
0.9046401 0.9180872 0.98873574 1.0066924 0.9311022 1.0408393 0.9838125 0.9823537
00000000: 6c76 733f 2367 803f ee88 6f3f cf40 673f
00000010: d13f 863f f894 833f 23e0 613f 10da 713f
00000020: 7e96 673f c307 6b3f c91d 7d3f 4cdb 803f
00000030: b75c 6e3f 393a 853f 23db 7b3f 887b 7b3f

encoder.abr_encoder.abr_norm.bias f4 [16]
-0.19840002 -0.11933575 -0.074107714 -0.26566428 -0.10778877 -0.11909868 -0.26708633 -0.24477065
-0.20239873 -0.13875912 -0.042678576 -0.26297206 -0.19502011 -0.06846584 -0.22078753 -0.134003
00000000: 6029 4bbe 4d66 f4bd c9c5 97bd 2605 88be
00000010: 5cc0 dcbd 02ea f3bd 8abf 88be 28a5 7abe
00000020: 9d41 4fbe df16 0ebe bbcf 2ebd 46a4 86be
00000030: 5ab3 47be d137 8cbd 2016 62be 1538 09be

encoder.abr_encoder.abr_norm.running_mean f4 [16]
-0.15338476 0.113908 0.10516952 0.03232545 0.22258103 0.10354941 -0.069584966 -0.15832838
-0.10260949 -0.118861355 -0.16149192 -0.11159474 0.06942867 0.17608163 0.15712437 -0.15651613
00000000: e510 1dbe 9948 e93d 1e63 d73d b167 043d
00000010: 48ec 633e b711 d43d 9082 8ebd d620 22be
00000020: ed24 d2bd 956d f3bd 235e 25be c88b e4bd
00000030: 9e30 8e3d be4e 343e 36e5 203e c445 20be

encoder.abr_encoder.abr_norm.running_var f4 [16]
0.37228632 0.22153722 0.1839879 0.03410311 0.7747743 0.19063665 0.09730056 0.41234115
0.17125899 0.23135331 0.42013282 0.20019704 0.093133934 0.50107414 0.39393288 0.38040724
00000000: 509c be3e a7da 623e 5367 3c3e b4af 0b3d
00000010: 9c57 463f 4136 433e 8445 c73d 611e d33e
00000020: 845e 2f3e e2e7 6c3e a61b d73e 7400 4d3e
00000030: 01bd be3d 6546 003f 92b1 c93e bdc4 c23e

encoder.abr_encoder.attention.q_projection.weight f4 [16, 1]
0.17237282 -0.4569203 -0.0053264434 -0.31321827 -0.34227923 -0.3518719 -0.2911666 -0.35927874
-0.37675768 -0.060286943 -0.3762666 0.30970767 0.046845306 -0.6172381 -0.57787436 -0.24278156
00000000: 8082 303e 75f1 e9be 7289 aebb 255e a0be
00000010: 393f afbe 8e28 b4be ca13 95be 62f3 b7be
00000020: 62e6 c0be 71ef 76bd 04a6 c0be 0192 9e3e
00000030: dde0 3f3d 5103 1ebf 93ef 13bf bb9b 78be

encoder.abr_encoder.attention.q_projection.bias f4 [16]
-0.03346828 -0.030313905 0.031082265 -0.029751869 0.032859206 0.035103157 0.036275763 0.032194726
0.0029453945 0.040454365 0.018756438 -0.017898781 -0.028522447 0.003501252 0.03531154 0.058614496
00000000: 0916 09bd de54 f8bc 3ca0 fe3c 31ba f3bc
00000010: 6097 063d 54c8 0f3d e595 143d 9ede 033d
00000020: 8507 413b 7ab3 253d 1aa7 993c 77a0 92bc
00000030: e8a7 e9bc 4375 653b d5a2 103d c115 703d

encoder.abr_encoder.attention.k_projection.weight f4 [16, 1]
0.2339499 0.5362562 -0.062800385 0.34583274 -0.32592103 -0.12908311 -0.09774425 -0.5835705
-0.14616017 0.0025025648 0.19491595 -0.29104832 -0.01902459 -0.13726522 -0.09837052 -0.056724146
00000000: 9090 6f3e 1648 093f 7d9d 80bd fd10 b13e
00000010: 1fdf a6be 5d2e 04be 232e c8bd e064 15bf
00000020: 03ab 15be 1202 243b 0c98 473e 4904 95be
00000030: 75d9 9bbc 418f 0cbe 7c76 c9bd 9457 68bd

encoder.abr_encoder.attention.k_projection.bias f4 [16]
9.7942175e-06 -6.610925e-06 -2.33749e-06 1.2983894e-05 -4.13086e-05 -5.714886e-05 -6.187922e-05 -4.780565e-05
-1.1805437e-06 4.520498e-06 2.2214426e-05 1.7057017e-05 -2.4313122e-06 1.0270381e-05 1.5066945e-06 -7.286074e-06
00000000: d851 2437 6ad3 ddb6 c6dd 1cb6 66d5 5937
00000010: c642 2db8 1fb3 6fb8 27c5 81b8 ed82 48b8
00000020: 2c73 9eb5 c8ae 9736 1e59 ba37 aa15 8f37
00000030: a029 23b6 f34e 2c37 a139 ca35 e67a f4b6

encoder.abr_encoder.attention.v_projection.weight f4 [16, 1]
-0.4085955 0.4286371 -0.5023829 -0.22605875 0.32118377 -0.17289543 -0.29807556 -0.5535097
0.31013083 0.09859532 0.19508229 0.2033265 -0.5194486 -0.32053012 0.34728825 -0.39967805
00000000: 6e33 d1be 5276 db3e 2a9c 00bf f27b 67be
00000010: 3372 a43e 800b 31be 5c9d 98be d0b2 0dbf
00000020: 78c9 9e3e 58ec c93d a7c3 473e d234 503e
00000030: 95fa 04bf 861c a4be c4cf b13e 9aa2 ccbe

encoder.abr_encoder.attention.v_projection.bias f4 [16]
0.041252576 -0.041413922 0.041331336 -0.042704534 0.042195998 -0.04243074 -0.043065384 0.041726157
0.01696563 -0.024705242 0.013253826 -0.021922303 0.019063476 0.022984106 0.0038129466 0.022134066
00000000: 76f8 283d a5a1 29bd 0c4b 293d f3ea 2ebd
00000010: b6d5 2c3d dbcb 2dbd 5465 30bd 0ce9 2a3d
00000020: 81fb 8a3c a662 cabc 9326 593c 6796 b3bc
00000030: 022b 9c3c 2a49 bc3c a1e2 793b 8052 b53c

encoder.abr_encoder.attention.output_projection.weight f4 [1, 16]
-0.23484476 0.2869439 -0.22098663 0.12179468 -0.31322438 0.2087179 0.08424027 -0.43431208
-0.351056 0.31295404 -0.09720161 0.4383673 -0.074338295 -0.31218985 -0.0038647018 -0.37807742
00000000: 257b 70be 50ea 923e 524a 62be 7d6f f93d
00000010: f25e a0be 25ba 553e 2a86 ac3d 275e debe
00000020: 9dbd b3be 833b a03e a311 c7bd ae71 e03e
00000030: ad3e 98bd 59d7 9fbe f046 7dbb 5d93 c1be

encoder.metadata_encoder.metadata_projection.weight f4 [24, 12]
0.14505894 0.16013727 -0.02677856 -0.3531371 0.26189166 0.31972376 0.17877819 0.020720951
0.107495405 -0.018803027 -0.17778854 -0.3220625 -0.004053204 0.007884754 0.14332287 0.07292376
0.11462664 0.08581105 0.047208913 0.13465613 -0.08685866 -0.077868134 -0.34474897 0.0002650232
-0.048670728 0.010934025 0.25342348 0.034874376 -0.07514412 -0.17637031 -0.23810962 -0.17994736
0.11581197 0.0072671385 -0.38463315 0.044504333 0.010926382 0.057606332 0.084234335 -0.06920622
0.27061537 -0.08227095 0.21103667 0.13502178 0.119074695 -0.05576885 -0.29787377 -0.061241318
-0.15036069 0.12494639 0.35831213 0.12203906 -0.20919588 0.033357106 -0.028531658 -0.28202134
-0.29343602 0.12207524 -0.21780048 0.014305577 -0.069825605 0.07003248 -0.23389485 -0.30482304
0.11306999 0.30664644 0.22550943 0.21303497 -0.021610606 0.18942203 0.59779817 0.13186026
0.18852529 0.017180383 0.07982533 0.24064164 0.06766905 -0.35119164 -0.26882902 -0.28903288
-0.13123977 0.08759044 -0.22480115 -0.21795052 -0.083503895 0.0074209133 -0.047602784 -0.14934345
-0.10718468 -0.07512193 -0.30264932 -0.16861819 -0.16250461 -0.31643927 -0.5049251 -0.008801091
0.023472158 0.14113295 0.1542442 0.02813017 0.051136598 -0.33997822 -0.25031906 -0.24082594
-0.3056577 0.0008179967 0.3128432 -0.16185103 -0.007419426 -0.12991935 0.119103834 0.23607741
-0.17282866 0.1102339 -0.19028702 0.0886911 -0.16603 0.122446194 0.50528145 0.11795641
0.038918264 -0.052911945 -0.07290309 0.16047423 -0.24920246 -0.26935306 -0.12364238 -0.14356814
-0.10075764 0.06935 0.37617227 0.11325024 -0.087721676 0.026388042 -0.0667853 0.017165057
-0.08531724 0.074070096 -0.0024947007 -0.03650462 -0.11629509 -0.033566155 -0.38994664 0.12654701
-0.060264155 0.012124099 -0.2973753 -0.13248318 -0.18426484 -0.11558321 0.038462386 -0.17595808
0.0154022 -0.05410486 -0.41981286 0.10222921 0.13763204 -0.007995814 -0.017314412 -0.049156293
-0.26535964 -0.29577905 0.090182096 -0.14861073 0.04011614 0.12779687 0.526654 0.18496194
-0.08533279 -0.04288242 -0.32195947 0.098914936 0.15152974 -0.1716971 -0.06627568 -0.041324448
-0.14575702 0.23820607 -0.4470778 -0.03715228 -0.02386027 -0.19072212 0.04610376 0.24381827
-0.3551607 0.08718778 -0.017981123 0.22033875 -0.28339964 0.23504294 -0.32113928 0.12309201
-0.037108045 0.006807496 0.0046825623 0.071814395 0.03559521 -0.066104226 -0.11205101 -0.27553764
-0.03019752 0.16352087 0.49359435 -0.071960665 0.15594687 -0.027281094 0.012087056 0.13288684
-0.14662054 -0.03864409 -0.14889328 -0.11427066 0.3437349 0.18140368 -0.4734518 -0.021219647
0.12317053 -0.11523555 -0.14474683 0.012826304 0.15775776 0.03875281 -0.3372468 -0.21736532
0.1256682 0.01283953 0.5368551 0.19044559 -0.0596307 0.06776433 -0.056075204 -0.1930811
0.21345681 -0.1736719 -0.23595048 -0.26717082 0.2034441 -0.32086787 0.3668091 -0.010013788
-0.043495502 0.10619839 0.15450971 -0.21466352 -0.33635595 -0.0753406 -0.16156432 -0.15467419
0.16184662 -0.1705785 0.3530084 -0.03102483 0.2715421 0.25240558 0.035583094 -0.24906826
00000000: 558a 143e 06fb 233e b65e dbbc 63ce b4be
00000010: aa16 863e d5b2 a33e a111 373e fcbe a93c
00000020: 8d26 dc3d ce08 9abc 330e 36be 60e5 a4be
00000030: bdd0 84bb 0e2f 013c 3bc3 123e 0d59 953d
00000040: 5fc1 ea3d b4bd af3d 225e 413d 4ce3 093e
00000050: f4e2 b1bd 5479 9fbd f082 b0be d0f2 8a39
00000060: f55a 47bd a024 333c b9c0 813e 6fd8 0e3d
00000070: 29e5 99bd 6b9a 34be 02d3 73be 1f44 38be
00000080: d32e ed3d 2d21 ee3b a3ee c4be 2d4a 363d
00000090: 9104 333c 9ef4 6b3d 0d83 ac3d febb 8dbd
000000a0: 198e 8a3e ac7d a8bd ff19 583e 2643 0a3e
000000b0: 6fdd f33d e16d 64bd e982 98be 2dd8 7abd
000000c0: 27f8 19be e5e3 ff3d b074 b73e 9def f93d
000000d0: 7237 56be 76a1 083d 39bb e9bc 1a65 90be
000000e0: 3f3d 96be 9502 fa3d 1707 5fbe f061 6a3c
000000f0: ba00 8fbd 306d 8f3d 2282 6fbe c411 9cbe
00000100: 3d91 e73d c300 9d3e f2eb 663e d725 5a3e
00000110: ba08 b1bc d9f7 413e 4d09 193f 6006 073e
00000120: c60c 413e e0bd 8c3c 767b a33d c36a 763e
00000130: 1296 8a3d 64cf b3be f5a3 89be 1efc 93be
00000140: b863 06be 9e62 b33d 4632 66be 6c2e 5fbe
00000150: 1704 abbd 222b f33b 23fb 42bd 7ded 18be
00000160: a483 dbbd 87d9 99bd daf4 9abe 3faa 2cbe
00000170: 9c67 26be 5404 a2be c542 01bf 7432 10bc
00000180: af48 c03c 2885 103e 31f2 1d3e 3e71 e63c
00000190: 9c74 513d a011 aebe d229 80be 139b 76be
000001a0: 2b7f 9cbe d46e 563a fc2c a03e 47bc 25be
000001b0: a81e f3bb 9409 05be b6ec f33d 47be 713e
000001c0: fff9 30be 50c2 e13d 9ada 42be aea3 b53d
000001d0: c503 2abe 12c5 fa3d 205a 013f 2193 f13d
000001e0: c268 1f3d 32ba 58bd 374e 95bd 5b53 243e
000001f0: ee2e 7fbe a5e8 89be 3738 fdbd 8703 13be
00000200: 065a cebd 5f07 8e3d a799 c03e beef e73d
00000210: 6ca7 b3bd bc2b d83c bbc6 88bd bc9d 8c3c
00000220: ceba aebd 10b2 973d 227e 23bb de85 15bd
00000230: 1f2c eebd aa7c 09bd 16a7 c7be 8a95 013e
00000240: 8cd7 76bd 28a4 463c 9341 98be aca9 07be
00000250: ecaf 3cbe e4b6 ecbd bc8a 1d3d 5b2e 34be
00000260: 8259 7c3c 0f9d 5dbd b6f1 d6be 8c5d d13d
00000270: 6aef 0c3e e000 03bc f4d6 8dbc 1c58 49bd
00000280: 38dd 87be 5a70 97be 64b1 b83d 692d 18be
00000290: d250 243d 2fdd 023e ccd2 063f aa66 3d3e
000002a0: f5c2 aebd 7aa5 2fbd dfd7 a4be ea93 ca3d
000002b0: 9d2a 1b3e 5dd1 2fbe 8bbb 87bd d343 29bd
000002c0: 5441 15be 4bec 733e 62e7 e4be fd2c 18bd
000002d0: 9d76 c3bc a94c 43be 4cd7 3c3d 7fab 793e
000002e0: a0d7 b5be 828f b23d 264d 93bc 7ba0 613e
000002f0: c219 91be 19af 703e 5e6c a4be aa17 fc3d
00000300: 9bfe 17bd 6a11 df3b 2e70 993b 6d13 933d
00000310: 48cc 113d a761 87bd 007b e5bd 4513 8dbe
00000320: ca60 f7bc 0472 273e 66b8 fc3e 1d60 93bd
00000330: 89b0 1f3e 9a7c dfbc ca08 463c 7d13 083e
00000340: b223 16be 4449 1ebd 7b77 18be bc06 eabd
00000350: 05fe af3e e3c1 393e 4668 f2be d3d4 adbc
00000360: d540 fc3d 9e00 ecbd 8338 14be 6b25 523c
00000370: 408b 213e 44bb 1e3d 9dab acbe 0495 5ebe
00000380: 2aaf 003e e45c 523c 566f 093f 2b04 433e
00000390: 523f 74bd 06c8 8a3d 1daf 65bd 0db7 45be
000003a0: 6c94 5a3e 0cd7 31be 019d 71be 9dca 88be
000003b0: a653 503e cb48 a4be 67ce bb3e df10 24bc
000003c0: 5728 32bd 8b7e d93d cb37 1e3e c1d0 5bbe
000003d0: d936 acbe 2c4c 9abd 1e71 25be e962 1ebe
000003e0: 1fbb 253e 21ac 2ebe 84bd b43e c927 febc
000003f0: 9107 8b3e 4e3b 813e 94bf 113d c00b 7fbe

encoder.metadata_encoder.metadata_projection.bias f4 [24]
-0.08431223 -0.101591766 -0.12414656 -0.13278826 -0.026586104 -0.16378567 -0.005351987 -0.06808999
-0.12638383 -0.29754528 -0.23950048 -0.020662656 -0.06065788 -0.26829785 -0.12783311 -0.12672518
-0.24021536 -0.019754857 -0.22857715 -0.21512437 -0.18407744 -0.11777203 -0.16182178 -0.06922786
00000000: e4ab acbd 580f d0bd 8d40 febd a5f9 07be
00000010: 1acb d9bc 6eb7 27be b95f afbb c472 8bbd
00000020: c36a 01be db57 98be 9d3f 75be bb44 a9bc
00000030: 6674 78bd 565e 89be afe6 02be 3fc4 01be
00000040: 04fb 75be f0d4 a1bc 2110 6abe 9049 5cbe
00000050: cc7e 3cbe 7632 f1bd 9cb4 25be 56c7 8dbd

encoder.encoder_layers.0.0.weight f4 [64, 40]
-0.16936019 0.06324982 -0.24451089 0.043145444 0.08948339 0.24020232 -0.2290959 0.20411472
0.036857307 0.18980625 0.24841957 -0.023529576 -0.02657603 -0.083115354 0.1896296 -0.08546794
0.12118533 0.039001174 0.24305005 0.1538081 0.16346666 -0.2072686 -0.121519834 -0.16686773
0.12366694 0.08270831 0.058776334 0.07144545 -0.0013049917 0.11167765 -0.104566485 0.16884501
-0.22266828 -0.24725573 0.09991203 0.23285763 -0.07204558 0.18532062 -0.1611746 -0.22741598
-0.032024857 0.13877428 -0.13757575 0.21340895 -0.10249585 -0.09831662 -0.04624644 -0.16723976
0.22017676 -0.18880367 -0.042205542 -0.052359644 0.25739312 0.13044648 0.06077663 -0.046903018
0.07074495 -0.036841143 0.16968858 -0.041951057 0.10140102 0.27370968 0.04115396 -0.22419684
0.06770297 -0.14099991 0.090679996 -0.09113733 0.17457268 -0.09325889 -0.2498509 0.039888386
0.11633439 -0.03883688 0.17875524 0.21626003 0.020053409 -0.06993639 0.04501293 0.291151
0.0043030176 0.059326403 -0.06929382 -0.13375428 -0.096655495 -0.3479274 0.10445233 -0.1230137
-0.1372331 -0.019458115 -0.05896017 -0.13109344 -0.09594957 -0.0889341 -0.0031222831 0.08073167
0.025830878 0.07783115 -0.19614574 0.23976326 0.10551506 0.17789805 -0.14695372 0.23488392
0.050956212 -0.2518166 0.20367488 -0.0035377205 0.006612017 0.18651997 0.105072096 0.16499646
-0.29110643 0.24194752 0.042316392 0.030144406 -0.14802188 -0.026190715 0.20043972 0.17033654
0.2012222 -0.053402543 -0.16616108 0.040916998 -0.14913157 -0.17670004 0.09723112 0.21073198
-0.07297511 -0.17865999 0.060768116 -0.049998038 -0.113620535 -0.08246872 -0.046529505 -0.0042903014
0.16519855 0.056337412 0.039205927 -0.03308627 -0.013060128 0.25108588 -0.001668056 -0.23548378
0.123145595 0.15821423 0.013522246 -0.11294202 -0.09045019 0.17362808 0.12338368 -0.18707144
0.2219673 -0.0070716143 0.16458605 -0.044129338 0.03102738 0.13297462 -0.035562675 0.056352418
-0.023491187 0.25197428 0.017381016 0.167225 0.015896525 0.124150276 0.054552194 -0.089723065
-0.011335992 0.033454802 -0.21223308 -0.0020217758 0.019445708 0.21507855 0.10640751 -0.14530636
0.0074477573 0.26941004 0.08515546 0.1809086 0.06355208 0.1291155 -0.032665942 0.35176888
0.03529934 -0.08572773 0.17296508 0.19627939 -0.011404537 -0.025227124 0.26125094 0.09802358
-0.10405297 -0.0226105 -0.16570942 0.10616262 0.08228691 -0.1224324 -0.043364424 -0.026102964
-0.16951957 0.19453986 -0.007414155 -0.014863943 0.035546333 0.08049971 0.011373879 0.25718302
0.19408819 -0.07393528 0.08003042 0.067129955 -0.018444685 -0.17642385 0.0011061995 -0.06486855
-0.20216124 0.031247241 -0.11898293 0.13876751 0.020218084 0.1486516 0.013457171 0.08155969
0.27068937 0.20610349 0.06536616 -0.08576391 0.03848931 -0.03208556 -0.032568567 -0.0056391037
0.13717286 -0.19991116 0.17772919 0.046880126 -0.036464706 -0.14441755 -0.055800345 0.17797966
-0.23851721 0.084437706 0.2691049 -0.1230125 0.08668361 -0.034233976 0.01741429 0.0519032
-0.1467713 0.005578485 0.15602215 -0.03380418 -0.16589524 0.02972931 0.055701084 0.019045215
00000000: c26c 2dbe 1f89 813d 1061 7abe 47b9 303d
00000010: 1143 b73d 99f7 753e 1e98 6abe 7303 513e
00000020: b0f7 163d 925c 423e b361 7e3e 19c1 c0bc
00000030: f9b5 d9bc 6238 aabd 432e 423e d109 afbd
00000040: 0430 f83d b2bf 1f3d 1de2 783e df7f 1d3e
00000050: ce63 273e 383e 54be 64df f8bd 60df 2abe
00000060: 1845 fd3d f962 a93d 74bf 703d fe51 923d
00000070: 410c abba 40b7 e43d f426 d6bd b5e5 2c3e
00000080: 2703 64be 9b30 7dbe ae9e cc3d 3b72 6e3e
00000090: a28c 93bd b0c4 3d3e f40a 25be bcdf 68be
000000a0: 7f2c 03bd d81a 0e3e a8e0 0cbe e087 5a3e
000000b0: 58e9 d1bd 395a c9bd e86c 3dbd e640 2bbe
000000c0: 0476 613e c055 41be b8df 2cbd 1177 56bd
000000d0: 08c9 833e c393 053e eaf0 783d 611d 40bd
000000e0: bae2 903d bde6 16bd d8c2 2d3e dfd4 2bbd
000000f0: 57ab cf3d ad23 8c3e 0e91 283d db93 65be
00000100: dba7 8a3d 4862 10be 6fb6 b93d 35a6 babd
00000110: 2ec3 323e 84fe bebd ead8 7fbe 0162 233d
00000120: ba40 ee3d 6c13 1fbd 9d0b 373e 4573 5d3e
00000130: 0c47 a43c cf3a 8fbd 7a5f 383d be11 953e
00000140: 5400 8d3b 3e00 733d ebe9 8dbd e2f6 08be
00000150: 51f3 c5bd 8a23 b2be 1aeb d53d 9bee fbbd
00000160: d586 0cbe a066 9fbc 3880 71bd 5c3d 06be
00000170: 3581 c4bd 1523 b6bd 389f 4cbb a556 a53d
00000180: 479b d33c f065 9f3d 6eda 48be 8084 753e
00000190: 4818 d83d e82a 363e 097b 16be 6985 703e
000001a0: 76b7 503d 1bee 80be 2690 503e 1ad9 67bb
000001b0: 9ea9 d83b 17ff 3e3e 0a30 d73d d5f4 283e
000001c0: e70b 95be 17c1 773e f453 2d3d 67f1 f63c
000001d0: 0c93 17be e98d d6bc 1240 4d3e b46c 2e3e
000001e0: 310d 4e3e a0bc 5abd 2126 2abe 9598 273d
000001f0: f2b5 18be dbf0 34be 1c21 c73d 20ca 573e
00000200: f973 95bd a5f2 36be fde7 783d beca 4cbd
00000210: e2b1 e8bd 5ce5 a8bd b995 3ebd a895 8cbb
00000220: cf29 293e 0fc2 663d 6596 203d 7885 07bd
00000230: 26fa 55bc 548e 803e aca2 daba a922 71be
00000240: c233 fc3d e902 223e 698c 5d3c 254e e7bd
00000250: f33d b9bd 8fcb 313e 95b0 fc3d a88f 3fbe
00000260: 654b 633e 00b9 e7bb 3f89 283e f7c0 34bd
00000270: 222d fe3c 802a 083e 2baa 11bd cbd1 663d
00000280: 9770 c0bc c602 813e a262 8e3c 083d 2b3e
00000290: 6e39 823c 8042 fe3d 1f72 5f3d bac0 b7bd
000002a0: 99ba 39bc e707 093d a153 59be c57f 04bb
000002b0: 9b4c 9f3c 8d3d 5c3e 2eec d93d 31cb 14be
000002c0: 510c f43b 1df0 893e fc65 ae3d 1b40 393e
000002d0: 9827 823d db36 043e b9cc 05bd 0d1b b43e
000002e0: 0a96 103d 0592 afbd c21d 313e 77fd 483e
000002f0: 18da 3abc 1da9 cebc afc2 853e 96c0 c83d
00000300: b919 d5bd a839 b9bc bbaf 29be ca6b d93d
00000310: 0a86 a83d d7bd fabd e59e 31bd e2d5 d5bc
00000320: 8a96 2dbe 7535 473e 71f2 f2bb e587 73bc
00000330: 0899 113d 08dd a43d 8259 3a3c 7ead 833e
00000340: 0ebf 463e 616b 97bd fde6 a33d 6e7b 893d
00000350: 4f19 97bc 74a8 34be e5fd 903a cdd9 84bd
00000360: 5b03 4fbe 37fa ff3c 53ad f3bd 1219 0e3e
00000370: 65a0 a53c 2038 183e 777b 5c3c c408 a73d
00000380: cc97 8a3e cb0c 533e b1de 853d fda4 afbd
00000390: f7a6 1d3d 266c 03bd 9e66 05bd 3bc8 b8bb
000003a0: 0b77 0c3e 83b5 4cbe a4fe 353e 6005 403d
000003b0: 045c 15bd 32e2 13be e78e 64bd 4d40 363e
000003c0: db3d 74be aded ac3d 1ec8 893e faed fbbd
000003d0: 2d87 b13d ed38 0cbd 6aa8 8e3c 7398 543d
000003e0: 374b 16be b9cb b63b 45c4 1f3e 4076 0abd
000003f0: 71e0 29be e28a f33c d226 643d b604 9c3c

encoder.encoder_layers.0.0.bias f4 [64]
-1.5100487e-05 -2.3776985e-05 5.0699247e-05 -1.9083338e-05 -8.079788e-06 -4.005045e-05 -8.5597705e-05 5.0910367e-06
0.00012836435 -4.85928e-06 9.8240735e-06 -5.1168587e-05 2.359857e-05 -8.398309e-06 -3.896096e-07 -4.313468e-05
3.706173e-06 -5.388565e-06 -1.1821192e-05 -0.00010396422 -3.9979477e-06 3.4740522e-05 1.5776142e-06 -2.8541808e-05
1.202167e-06 1.9639025e-05 -3.08779e-05 5.5037057e-05 5.7645797e-05 3.2061253e-05 0.00010264192 0.00015172196
4.9266964e-05 -1.613495e-06 -9.422852e-05 1.8765829e-06 -4.7704802e-06 5.163614e-05 1.0515e-05 -1.0710522e-05
-3.6069032e-05 5.0614748e-05 -4.677419e-05 2.6263531e-05 -1.1861987e-06 2.6129317e-05 5.048306e-06 1.2134923e-05
-4.255509e-05 -6.431567e-05 8.4388685e-06 2.8779514e-06 -0.00010112768 -1.5461777e-05 4.0777348e-05 1.0009652e-05
7.8636614e-05 5.6953972e-06 2.8983342e-05 -2.1802989e-05 2.6136458e-05 -3.683095e-05 1.7604552e-05 2.1509504e-05
00000000: 1958 7db7 b074 c7b7 e7a5 5438 2815 a0b7
00000010: 6d8e 07b7 d8fb 27b8 eb82 b3b8 acd3 aa36
00000020: 8b99 0639 e60c a3b6 13d2 2437 da9d 56b8
00000030: 8bf5 c537 76e6 0cb7 892b d1b4 83eb 34b8
00000040: 91b7 7836 6ccf b4b6 a253 46b7 5e07 dab8
00000050: 1c26 86b6 5ab6 1138 69be d335 116d efb7
00000060: 255a a135 7cbe a437 e582 01b8 97d7 6638
00000070: b4c8 7138 8279 0638 7641 d738 8e17 1f39
00000080: 00a4 4e38 448f d8b5 8d9c c5b8 e6de fb35
00000090: 1d12 a0b6 e293 5838 9569 3037 57b1 33b7
000000a0: d448 17b8 2c4b 5438 672f 44b8 8150 dc37
000000b0: 7a35 9fb5 4830 db37 9e64 a936 1997 4b37
000000c0: 2e7d 32b8 36e1 86b8 aa94 0d37 d422 4136
000000d0: 8314 d4b8 eab3 81b7 5808 2b38 21ef 2737
000000e0: b6e9 a438 171b bf36 4121 f337 90e5 b6b7
000000f0: 9e3f db37 ee7a 1ab8 7dad 9337 4f6f b437

encoder.encoder_layers.0.1.weight f4 [64]
0.9973251 0.9787228 0.96775943 0.9798838 1.0398526 0.99957764 1.0456966 0.9323621
0.9418031 0.9756375 1.0275344 0.97555035 1.0779192 0.98199165 1.0080988 0.94860893
0.95873946 0.9811746 0.997571 0.92546904 1.0692954 1.0497606 1.0568877 0.9957846
0.88331616 1.0350233 0.96404827 0.9890117 1.0281898 1.0906237 0.9021086 0.92208284
1.0329894 0.97191215 1.0132918 0.8716685 1.0172203 1.0192714 0.9079429 1.0506124
0.9060144 0.9495158 0.9641063 0.95266426 1.0845097 1.0234948 1.0418309 1.0146425
1.0951096 0.9030754 1.0403701 0.9403045 1.055299 1.0809659 0.94168884 0.9940769
1.102176 0.9193875 1.0898409 0.88161117 1.0508078 1.00602 1.0670196 0.99094576
00000000: b350 7f3f 948d 7a3f 15bf 773f aad9 7a3f
00000010: e419 853f 52e4 7f3f 63d9 853f 48af 6e3f
00000020: 021a 713f 61c3 793f 3f86 833f abbd 793f
00000030: 42f9 893f ce63 7b3f 6209 813f 09d8 723f
00000040: f36f 753f 422e 7b3f d060 7f3f 8aeb 6c3f
00000050: acde 883f 8e5e 863f 1948 873f bdeb 7e3f
00000060: 0221 623f a57b 843f decb 763f df2f 7d3f
00000070: b99b 833f 8f99 8b3f 97f0 663f 9f0d 6c3f
00000080: ff38 843f 3ccf 783f 8cb3 813f ab25 5f3f
00000090: 4634 823f 7c77 823f f26e 683f 787a 863f
000000a0: 8ff0 673f 7813 733f accf 763f cee1 733f
000000b0: 37d1 8a3f e101 833f b75a 853f cedf 813f
000000c0: 8d2c 8c3f f32f 673f d92a 853f ccb7 703f
000000d0: 0a14 873f 175d 8a3f 8512 713f d37b 7e3f
000000e0: 1a14 8d3f fb5c 6b3f e87f 8b3f 45b1 613f
000000f0: df80 863f 43c5 803f 1994 883f 9fae 7d3f

encoder.encoder_layers.0.1.bias f4 [64]
-0.10134652 -0.076700896 -0.12428282 -0.073261015 -0.18330602 -0.09226961 0.119263604 -0.069233485
-0.1952871 0.0837224 0.12914182 0.033120055 -0.051799122 -0.1847431 -0.008610032 -0.26071635
-0.077526554 -0.14578857 -0.12752652 -0.06408677 1.2782114e-05 -0.09198761 0.0039572427 -0.056910455
-0.17820571 0.029259084 0.04219425 0.080646105 -0.013028343 0.13023035 -0.25579825 -0.10225337
0.08060928 -0.13115382 -0.015909662 -0.29436576 0.012106663 0.05334176 -0.07168368 -0.036026973
-0.24559501 -0.16450194 -0.11483663 0.013477811 -0.015365445 0.0017280021 -0.13301058 0.037366286
0.15689945 -0.21146645 -0.042175967 0.001808939 0.0044002067 0.11026658 -0.28314045 -0.09038749
0.08060097 -0.15498528 0.1703164 -0.29901934 -0.06686743 0.03413615 -0.033816215 -0.11313128
00000000: c48e cfbd 5c15 9dbd fe87 febd df09 96bd
00000010: 93b4 3bbe d9f7 bcbd 7a40 f43d 49ca 8dbd
00000020: 57f9 47be a676 ab3d c13d 043e e5a8 073d
00000030: 512b 54bd 4c2d 3dbe 1711 0dbc 9d7c 85be
00000040: 3ec6 9ebd 9949 15be 5096 02be ed3f 83bd
00000050: c372 5637 0064 bcbd c2ab 813b f01a 69bd
00000060: 8f7b 36be bfb0 ef3c e1d3 2c3d c929 a53d
00000070: d574 55bc 1b5b 053e fdf7 82be 376a d1bd
00000080: 7a16 a53d 304d 06be fb54 82bc 1cb7 96be
00000090: 065b 463c e47c 5a3d e5ce 92bd 0591 13bd
000000a0: 427d 7bbe 3273 28be 782f ebbd 09d2 5c3c
000000b0: 59bf 7bbc 217e e23a ed33 08be 640d 193d
000000c0: 40aa 203e a98a 58be b5c0 2cbd ec19 ed3a
000000d0: 9c2f 903b 72d3 e13d c9f7 90be 141d b9bd
000000e0: 1f12 a53d 76b4 1ebe 6c67 2e3e 1019 99be
000000f0: cbf1 88bd 59d2 0b3d df82 0abd 5fb1 e7bd

encoder.encoder_layers.0.1.running_mean f4 [64]
0.120127246 0.19687599 0.067710966 0.052641384 0.44777894 0.25803158 0.018387107 0.28849813
-0.021515122 0.060855407 0.049353953 -0.32445037 0.41518244 0.129287 0.09967879 -0.06869618
0.010423783 0.4014216 0.34894022 -0.08974006 0.42002016 0.28019375 0.04402185 0.33028933
-0.016664665 -0.15119351 0.043964133 0.0040930156 0.14727902 0.21842003 -0.24160384 -0.32785097
0.03396474 0.037580356 0.117020816 -0.057158057 -0.03573715 0.08924282 -0.15165079 0.47290823
0.0070405905 -0.018315755 -0.118355505 0.052591294 0.5557559 0.29903984 0.55390805 -0.11437547
0.046986353 -0.017759018 0.37160403 -0.19942689 -0.072630085 -0.0074521345 -0.078091055 0.29803738
0.051434882 0.15386997 0.055970583 0.011412579 0.3674948 0.03530518 0.36587334 0.37455818
00000000: 4605 f63d dc99 493e 0cac 8a3d 7e9e 573d
00000010: 4843 e53e b71c 843e 8fa0 963c 07b6 933e
00000020: 7b40 b0bc 8543 793d 5f27 4a3d 5c1e a6be
00000030: cb92 d43e d063 043e 6524 cc3d 95b0 8cbd
00000040: 84c8 2a3c 2287 cd3e 4ba8 b23e a3c9 b7bd
00000050: e20c d73e 8e75 8f3e 4150 343d af1b a93e
00000060: 5684 88bc 79d2 1abe bc13 343d b41e 863b
00000070: 50d0 163e 80a9 5f3e ff66 77be 15dc a7be
00000080: 9c1e 0b3d dced 193d 9ca8 ef3d 911e 6abd
00000090: 1e61 12bd f1c4 b63d 584a 1bbe 0721 f23e
000000a0: c1b4 e63b ec0a 96bc 5f64 f2bd f869 573d
000000b0: 0546 0e3f c01b 993e ebcc 0d3f b03d eabd
000000c0: c374 403d 5c7b 91bc e242 be3e 9036 4cbe
000000d0: 15bf 94bd 0931 f4bb 34ee 9fbd 5b98 983e
000000e0: 62ad 523d 1790 1d3e 6941 653d d3fb 3a3c
000000f0: 4728 bc3e 2a9c 103d c053 bb3e 17c6 bf3e

encoder.encoder_layers.0.1.running_var f4 [64]
0.09846313 0.15911785 0.09462158 1.2439111 0.9388396 0.6676792 0.96324974 0.16810803
0.4169273 0.5894606 0.12487982 1.6094104 0.9662853 0.11204917 1.7621958 0.06724028
1.1837094 1.1685545 0.41978335 0.42136616 1.1953235 0.48371044 0.110772476 0.98770463
0.16667046 1.6418344 0.73990744 0.6925622 1.1939163 1.4233704 0.35580024 0.9733455
1.2018005 1.0856943 0.8006725 0.24475577 0.95006406 1.3742733 0.39749256 1.4116477
0.3957957 0.079361595 0.6068058 0.77905333 1.1906093 1.0622213 0.8056157 0.93628025
1.1220564 0.6573088 1.1006526 0.9537 0.99094886 1.4371839 0.08788295 0.46583197
1.1650625 0.5818405 1.3867558 0.23569858 1.3324802 0.9385213 0.16203426 0.64482266
00000000: 0aa7 c93d caef 223e f5c8 c13d 7b38 9f3f
00000010: cb57 703f 06ed 2a3f 8997 763f 8324 2c3e
00000020: 7f77 d53e e4e6 163f fec0 ff3d 2901 ce3f
00000030: 795e 773f 097a e53d a28f e13f 46b5 893d
00000040: ca83 973f 3293 953f d8ed d63e 4ebd d73e
00000050: 5c00 993f e5a8 f73e aedc e23d 36da 7c3f
00000060: a9ab 2a3e a127 d23f 936a 3d3f c24b 313f
00000070: 40d2 983f 0031 b63f 732b b63e 2c2d 793f
00000080: 99d4 993f 08f8 8a3f dff8 4c3f 42a1 7a3e
00000090: 6637 733f 30e8 af3f 2584 cb3e dfb0 b43f
000000a0: bca5 ca3e 5588 a23d a057 1b3f 0a70 473f
000000b0: e365 983f def6 873f d53c 4e3f 10b0 6f3f
000000c0: 8b9f 8f3f 6445 283f 2fe2 8c3f af25 743f
000000d0: d3ae 7d3f a4f5 b73f fafb b33d 8781 ee3e
000000e0: c520 953f 80f3 143f 3781 b13f f85a 713e
000000f0: b68e aa3f ef42 703f 4fec 253e 1913 253f

encoder.encoder_layers.1.0.weight f4 [32, 64]
0.16864474 -0.041861445 0.0370439 -0.11911154 0.014117314 -0.04136259 -0.19147272 -0.11887441
-0.072302744 0.1219805 0.22287516 -0.08249306 0.1461548 0.06321102 -0.08217234 0.021489246
-0.12398192 -0.07217652 -0.12001807 0.013306982 -0.10817412 0.29748842 0.11608164 -0.22948517
0.08431116 0.19139326 -0.10929644 -0.03375458 -0.07957555 -0.11005448 -0.117796816 0.059879053
-0.12369062 -0.24050856 -0.15254276 -0.17871232 0.12366545 0.10763465 0.13345207 0.31988475
0.05905309 -0.08560758 -0.078032814 -0.011337629 0.2425671 0.0016619666 0.06301947 -0.0071479217
0.26636794 -0.1925423 0.17880139 -0.066963755 0.18135701 -0.06515184 -0.21230482 0.08063988
0.29594722 -0.0041710497 0.16757806 0.11557763 -0.2176842 0.13582486 0.110781334 -0.065563984
0.1817337 0.21109377 0.10980161 -0.048218116 0.16234896 0.20230377 -0.040205874 -0.09061791
0.18778096 -0.19460197 -0.17708452 0.0038798384 0.098699 0.0085386615 0.10806987 0.17543736
0.06533831 0.2189078 0.29932517 0.11164113 0.16238628 -0.054373685 0.13504617 0.20176804
-0.08298867 0.013592094 -0.10971016 -0.120208025 0.2255496 -0.007942651 0.23427214 -0.09174027
0.0058157486 0.14988069 0.054855756 0.15643238 -0.16798027 -0.2004256 -0.040859494 0.09835826
0.18411408 0.2585638 -0.046162516 -0.081655286 -0.074011624 0.28478295 0.3235417 -0.05201896
-0.21263488 -0.0989924 0.0062152 -0.28641874 -0.12952328 -0.29113072 0.15298748 0.052856743
-0.2217168 0.11753464 -0.27118003 0.036577802 0.20694846 -0.054107856 -0.1931131 0.010990768
0.04192301 0.18510102 0.21174185 0.20009123 -0.047605097 0.07970993 -0.28994825 0.16435559
0.16115679 -0.20884992 -0.04534406 -0.112039216 -0.15870163 0.1835339 -0.12120801 0.14236185
-0.10124954 0.15024477 -0.07121651 -0.08364883 -0.090430155 -0.06047762 -0.060522042 -0.1219841
-0.15269361 0.038885396 -0.0893791 -0.20690563 0.17962375 -0.014734651 -0.058535185 -0.14863567
-0.03472981 0.16953114 -0.16982016 -0.0180159 -0.23468858 -0.24228819 0.04596789 0.1054744
0.122534715 0.22911866 0.07646511 -0.024807597 -0.254274 0.21884054 0.2392722 -0.07294925
-0.013632751 0.10509708 0.21374771 -0.09901622 -0.08582993 -0.20401405 0.066118 0.14562698
-0.25056142 0.13580923 -0.024728196 0.06807156 0.08359481 -0.106132746 0.059660327 -0.19168638
0.17809935 -0.15906608 -0.14176187 -0.29166284 -0.07485293 -0.056829028 0.2606575 -0.036317755
0.04212152 0.028909374 0.1647941 0.19537087 0.16783547 0.12924716 -0.13114414 0.24688806
-0.33013406 -0.20203806 -0.18407406 0.036381584 0.027017297 0.077982575 -0.19282597 0.14321797
0.22016895 0.18177317 -0.07702994 0.22018199 -0.0028666954 0.024310783 -0.285235 0.26952004
0.03332075 -0.27464896 0.11121158 -0.04037836 0.08439504 0.24760336 0.13013962 -0.050901048
-0.11359848 0.20204757 -0.08081435 -0.13293543 -0.122183874 -0.26246145 -0.03371269 0.23827848
0.18181054 -0.07023934 0.14946744 -0.027821982 0.2514041 0.22520474 -0.15596776 -0.16580848
-0.1008632 -0.002040137 0.23104401 -0.07127607 -0.17311817 0.13303702 -0.1545381 0.10103395
00000000: 35b1 2c3e e876 2bbd 58bb 173d c0f0 f3bd
00000010: 4e4c 673c d26b 29bd 6d11 44be 6d74 f3bd
00000020: 7613 94bd ead0 f93d 6339 643e 1ff2 a8bd
00000030: 9ba9 153e c774 813d f949 a8bd 370a b03c
00000040: 3cea fdbd 49d1 93bd 09cc f5bd 8705 5a3c
00000050: 658a ddbd 6750 983e 36bc ed3d 29fe 6abe
00000060: 54ab ac3d 98fc 433e d0d6 dfbd 3e42 0abd
00000070: 82f8 a2bd 3e64 e1bd 753f f1bd bd43 753d
00000080: 8251 fdbd e047 76be 2b34 1cbe 5d00 37be
00000090: 5044 fd3d 8e6f dc3d a9a7 083e efc7 a33e
000000a0: a7e1 713d 0753 afbd abcf 9fbd 76c1 39bc
000000b0: 8363 783e 58d6 d93a 5a10 813d 1d39 eabb
000000c0: 6161 883e cf29 45be b617 373e 4b24 89bd
000000d0: a7b5 393e 546e 85bd 6f66 59be 8526 a53d
000000e0: 6586 973e 4dad 88bb 9599 2b3e f7b3 ec3d
000000f0: 9be8 5ebe ac15 0b3e 53e1 e23d 6946 86bd
00000100: 6618 3a3e f728 583e abdf e03d 5c80 45bd
00000110: ce3e 263e b828 4f3e eaae 24bd e295 b9bd
00000120: a749 403e bd45 47be a555 35be e344 7e3b
00000130: b422 ca3d bee5 0b3c bc53 dd3d daa5 333e
00000140: 18d0 853d 5e29 603e 2641 993e 1ba4 e43d
00000150: 9748 263e f1b6 5ebd 8b49 0a3e 489c 4e3e
00000160: f7f5 a9bd 60b1 5e3c b8af e0bd a02f f6bd
00000170: 79f6 663e e521 02bc 09e5 6f3e 53e2 bbbd
00000180: 0992 be3b 537a 193e 6eb0 603d cf2f 203e
00000190: 0503 2cbe 5e3c 4dbe 495c 27bd 0e70 c93d
000001a0: 6788 3c3e 7962 843e e814 3dbd e33a a7bd
000001b0: 6893 97bd 12cf 913e 42a7 a53e d511 55bd
000001c0: f5bc 59be 87bc cabd e0a8 cb3b 7aa5 92be
000001d0: c0a1 04be 160f 95be c0a8 1c3e 5080 583d
000001e0: bb09 63be 00b6 f03d 1cd8 8abe 9bd2 153d
000001f0: 4cea 533e 33a0 5dbd 71bf 45be 9f12 343c
00000200: 76b7 2b3d 1f8b 3d3e dbd2 583e b7e4 4c3e
00000210: 90fd 42bd f63e a33d 1974 94be d54c 283e
00000220: 4906 253e c1dc 55be b1ba 39bd d174 e5bd
00000230: ae82 22be 50f0 3b3e e83b f8bd 4ec7 113e
00000240: eb5b cfbd c4d9 193e f6d9 91bd 1450 abbd
00000250: 7233 b9bd 62b7 77bd f6e5 77bd cdd2 f9bd
00000260: b75b 1cbe 4b46 1f3d 640c b7bd 12df 53be
00000270: 4aef 373e 9b69 71bc 97c2 6fbd f333 18be
00000280: d840 0ebd 9299 2d3e 56e5 2dbe 1596 93bc
00000290: 3452 70be 651a 78be d448 3c3d f602 d83d
000002a0: 7bf3 fa3d 159e 6a3e bd99 9c3d 4d39 cbbc
000002b0: 3430 82be bc17 603e c603 753e 6b66 95bd
000002c0: e75b 5fbc 233d d73d aee0 5a3e 04c9 cabd
000002d0: 9ac7 afbd 0fe9 50be e068 873d 3d1f 153e
000002e0: 9649 80be 9311 0b3e c992 cabc 1a69 8b3d
000002f0: c133 ab3d 205c d9bd 635e 743d 6f49 44be
00000300: ad5f 363e 38e2 22be 062a 11be d554 95be
00000310: 7e4c 99bd 8ec5 68bd e674 853e edc1 14bd
00000320: 9d87 2c3d 5ad3 ec3c c9bf 283e 4d0f 483e
00000330: 10dd 2b3e 5e59 043e a64a 06be 39d0 7c3e
00000340: 5507 a9be 11e3 4ebe e97d 3cbe db04 153d
00000350: 6153 dd3c 54b5 9f3d 2c74 45be bba7 123e
00000360: f873 613e bf22 3a3e e0c1 9dbd 6377 613e
00000370: 2bdf 3bbb 6827 c73c 520a 92be 88fe 893e
00000380: 577b 083d ca9e 8cbe e6c2 e33d c763 25bd
00000390: 4fd7 ac3d bc8b 7d3e 5243 053e 9e7d 50bd
000003a0: 52a6 e8bd 8fe5 4e3e fe81 a5bd 3a20 08be
000003b0: 8a3b fabd 5961 86be 5116 0abd 46ff 733e
000003c0: 8b2c 3a3e a5d9 8fbd fe0d 193e edea e3bc
000003d0: 0ab8 803e 129c 663e 03b6 1fbe b3c9 29be
000003e0: 5e91 cebd d2b3 05bb cd96 6c3e 30f9 91bd
000003f0: e445 31be db3a 083e 3c3f 1ebe e3ea ce3d

encoder.encoder_layers.1.0.bias f4 [32]
2.1455187e-05 -1.5653555e-05 6.373344e-05 6.4948204e-06 -2.0264632e-05 0.00014636188 -1.3064386e-05 1.7999768e-05
-4.1064106e-07 -7.979734e-06 -2.4528645e-06 -5.9431004e-06 3.5392433e-05 4.1663538e-05 -3.7949838e-05 -2.9881883e-06
8.620433e-06 -4.5700485e-06 1.7512803e-05 7.403739e-06 1.3395348e-05 -1.1216811e-05 3.4786085e-06 3.6849485e-06
-9.256463e-06 4.4024382e-05 -1.0934332e-05 2.5860834e-05 -1.4483596e-05 -2.495061e-05 -5.2204443e-05 -4.946036e-07
00000000: aafa b337 c14f 83b7 a1a8 8538 15ee d936
00000010: f7fd a9b7 b878 1939 1c2f 5bb7 35fe 9637
00000020: 1476 dcb4 b2e0 05b7 e49b 24b6 d86a c7b6
00000030: 5672 1438 e2bf 2e38 542c 1fb8 af88 48b6
00000040: 7aa0 1037 6b58 99b6 75e8 9237 a26d f836
00000050: 95bc 6037 d62f 3cb7 0a72 6936 ef4a 7736
00000060: 354c 1bb7 d2a6 3838 9972 37b7 b8ef d837
00000070: 92fe 72b7 074d d1b7 18f6 5ab8 e7c4 04b5

encoder.encoder_layers.1.1.weight f4 [32]
1.201129 0.95132154 0.8848004 1.1204554 1.2786938 1.2449782 1.0754681 0.95196986
0.959868 0.96855724 0.91056174 0.8050568 1.0591483 0.9557725 1.0124518 1.0935292
0.7996963 0.8185727 0.8475286 0.76111853 0.8949971 0.9205629 0.8768646 1.1877353
1.2444159 0.96953773 0.86265486 0.8578794 0.9790122 1.0341274 0.8688475 1.0803621
00000000: 98be 993f cf89 733f 4782 623f 156b 8f3f
00000010: 3dac a33f 725b 9f3f f0a8 893f 4cb4 733f
00000020: e9b9 753f 5ef3 773f 931a 693f 3418 4e3f
00000030: 2c92 873f 82ad 743f 0598 813f c4f8 8b3f
00000040: e6b8 4c3f fb8d 513f a2f7 583f aad8 423f
00000050: 881e 653f 03aa 6b3f 337a 603f b607 983f
00000060: 0549 9f3f a033 783f f3d6 5c3f fc9d 5b3f
00000070: 8ba0 7a3f 495e 843f ca6c 5e3f 4e49 8a3f

encoder.encoder_layers.1.1.bias f4 [32]
0.2458111 0.057501733 -0.11208795 0.27378497 0.33491296 0.45889625 0.11521848 -0.12442751
0.16294236 -0.019782098 -0.0959232 -0.20182602 0.17323555 -0.012013302 0.16193825 -0.023384642
-0.36145878 -0.17298889 -0.36905387 -0.22196369 -0.13331927 -0.023952652 -0.046225134 0.27469182
0.42759165 -0.041737895 -0.13324712 -0.106434196 -0.085241914 -0.04001935 -0.071962565 0.30971476
00000000: e8b5 7b3e f086 6b3d 5e8e e5bd 8b2d 8c3e
00000010: b679 ab3e 73f4 ea3e abf7 eb3d dad3 febd
00000020: 5dda 263e 110e a2bc 6273 c4bd 7bab 4ebe
00000030: a964 313e 71d3 44bc 24d3 253e 2691 bfbc
00000040: 2011 b9be 0024 31be a1f4 bcbe 734a 63be
00000050: d984 08be 5a38 c4bc 9156 3dbd 68a4 8c3e
00000060: 4bed da3e 5bf5 2abd ef71 08be 2cfa d9bd
00000070: 5093 aebd 54eb 23bd 1c61 93bd ef92 9e3e

encoder.encoder_layers.1.1.running_mean f4 [32]
0.45662636 0.12760407 -0.4399954 0.44675547 0.6447652 1.0674071 1.3536395 0.5910895
0.6684691 0.6520008 0.75998545 0.15392657 0.116430335 -0.04678709 0.08112941 0.9331896
-0.43809992 -0.20619379 0.515636 -0.5657039 -0.2557712 -1.8263645 -1.2060015 0.39861783
0.6819251 -1.3024199 -0.03751939 -0.26360142 0.63468695 0.12141177 -0.5845673 0.28590155
00000000: eeca e93e a4aa 023e 1447 e1be 22bd e43e
00000010: 550f 253f cca0 883f 0f44 ad3f a451 173f
00000020: ca20 2b3f 86e9 263f 688e 423f ed9e 1d3e
00000030: 0773 ee3d d2a3 3fbd 2d27 a63d 83e5 6e3f
00000040: a24e e0be 7724 53be b900 043f f9d1 10bf
00000050: 71f4 82be 50c6 e9bf 425e 9abf a317 cc3e
00000060: a592 2e3f b2b5 a6bf efad 19bd c4f6 86be
00000070: d87a 223f bca6 f83d 34a6 15bf b061 923e

encoder.encoder_layers.1.1.running_var f4 [32]
4.9016266 8.532542 4.062335 5.8447037 5.7173047 9.169397 7.183955 2.9871514
5.488661 1.9270664 4.7386227 0.45938534 6.2409353 6.871242 5.113621 4.4318886
1.539934 4.4924507 2.8324938 4.0366244 5.358444 5.4080796 5.1858964 5.9219894
5.981422 3.7568002 4.7054176 6.59795 3.8455946 6.095291 6.6150093 3.3684807
00000000: 20da 9c40 4b85 0841 a6fe 8140 d007 bb40
00000010: 29f4 b640 dab5 1241 f6e2 e540 7d2d 3f40
00000020: 1ca3 af40 1daa f63f cca2 9740 8e34 eb3e
00000030: beb5 c740 37e1 db40 c9a2 a340 08d2 8d40
00000040: 8f1c c53f 28c2 8f40 9447 3540 072c 8140
00000050: 6078 ab40 fd0e ad40 ddf2 a540 f080 bd40
00000060: cf67 bf40 6a6f 7040 c892 9640 6822 d340
00000070: 391e 7640 a00c c340 28ae d340 3095 5740

encoder.encoder_layers.2.0.weight f4 [16, 32]
-0.20461203 0.0134492265 0.1391755 -0.2203694 -0.38409558 -0.53235084 0.022859514 -0.27706665
-0.004408532 -0.30575308 0.042669315 0.15814973 -0.30838805 -0.10373328 -0.17611644 0.10572496
0.27700517 0.15056115 -0.07444552 0.1759665 0.07963755 0.03336793 0.083877355 -0.45357457
-0.47586682 -0.12578766 -0.036678605 0.19249618 -0.34267786 0.12453208 0.13964133 -0.16797687
-0.10256318 -0.56585 -0.2916349 0.17912416 0.086185426 0.14524914 0.19425371 -0.25076205
0.17464897 0.109652385 -0.1140593 -0.11845705 -0.12282946 -0.69606954 0.18115643 0.06582578
-0.17454638 -0.3864866 -0.27490118 -0.0810955 -0.0956112 -0.13925374 -0.21180114 0.1481837
0.06518188 -0.14064057 -0.10349972 -0.36774784 -0.13295892 -0.26488328 -0.12938453 0.2243845
-0.42712882 0.2504131 -0.1426136 -0.1926639 -0.46810457 -0.41073456 -0.3577175 0.2326297
0.18866445 0.06932952 -0.13136227 -0.26662716 -0.33785212 -0.021228112 -0.21321489 -0.4676656
-0.023701454 0.043823645 -0.06800466 0.051370006 0.12994972 0.006324323 -0.28897434 -0.47060663
-0.05274031 -0.15087035 0.3128524 0.17265034 -0.36539176 0.13200557 -0.1579124 -0.04445664
-0.034365818 -0.319396 -0.111996755 -0.030302951 -0.05510544 -0.10474563 -0.10413759 -0.24056503
-0.017571988 0.00073527865 -0.056513958 -0.13721739 -0.11352835 -0.43885997 0.0034388585 -0.115871966
0.07383577 0.170206 -0.42179686 0.35139778 0.3430901 0.014571528 0.01003911 -0.07286022
-0.069523595 -0.022018218 0.12807427 0.11062553 -0.07509081 -0.30803367 -0.021925284 -0.025110435
0.13457601 -0.420882 -0.18078317 -0.012977263 0.037618186 0.019877877 -0.048716333 0.13125908
0.05973581 0.09445873 0.09136023 0.15085019 0.039776776 -0.4502714 0.075226724 -0.06407424
0.050174482 -0.2866903 0.045574717 -0.3242234 -0.3089725 -0.20923235 -0.13447991 -0.011976077
0.09405325 -0.1778802 -0.22090733 -0.5517887 0.15404607 -0.61345685 -0.5724763 -0.05643863
-0.42033958 -0.029641125 -0.007922643 -0.2875987 0.09504254 -0.51467705 -0.37182346 -0.4135438
-0.46210688 0.1039975 -0.40443796 -0.0382337 -0.32411438 0.05244834 -0.34002635 0.08176031
-0.03122605 -0.045758408 0.12340562 0.18053845 0.21120773 -0.123047724 -0.162547 -0.26156
-0.21154468 -0.17027509 -0.060727846 -0.068325244 0.06520721 0.18182111 0.28185833 -0.26344687
-0.40878466 -0.18724568 0.11359248 -0.45485318 -0.5688537 -0.23241617 -0.3344814 -0.30916017
0.06528338 -0.1600285 -0.012139601 0.19609772 -0.030789118 -0.061292768 -0.13051532 -0.43552014
0.26246485 -0.003586273 -0.20400426 0.006599266 0.22467953 -0.13414086 0.058504913 -0.21065824
-0.54371256 -0.318161 0.27617326 0.24374868 0.07505429 0.30283403 -0.24102587 -0.39686242
0.060385592 -0.4041718 -0.41780666 0.041830614 0.016059108 0.011113714 0.02335307 0.1434923
-0.034183044 0.041102134 0.14364818 0.1412966 0.10040219 -0.048030205 -0.041128922 0.023512853
-0.06409028 -0.032918617 0.056850117 -0.33389172 -0.43398717 -0.34841144 -0.05121334 -0.0058173044
-0.0066989637 -0.16105941 -0.080761515 -0.5845053 0.110619046 -0.44791797 -0.4993386 -0.008646216
00000000: d185 51be 255a 5c3c 0684 0e3e 84a8 61be
00000010: 2da8 c4be 2548 08bf e043 bb3c aedb 8dbe
00000020: 7275 90bb ab8b 9cbe 05c6 2e3d 01f2 213e
00000030: 0ae5 9dbe 1d72 d4bd de57 34be 5486 d83d
00000040: 9fd3 8d3e b42c 1a3e e576 98bd 9030 343e
00000050: 0319 a33d d0ac 083d e4c7 ab3d ed3a e8be
00000060: d1a4 f3be 7bce 00be 4e3c 16bd b81d 453e
00000070: 7973 afbe ad0a ff3d 23fe 0e3e 2102 2cbe
00000080: a50c d2bd 8cdb 10bf 2b51 95be 536c 373e
00000090: fc81 b03d 31bc 143e 72ea 463e e263 80be
000000a0: 2ed7 323e 6e91 e03d ec97 e9bd 9c99 f2bd
000000b0: 038e fbbd 9d31 32bf 1281 393e abcf 863d
000000c0: 49bc 32be 92e1 c5be d9bf 8cbe 6615 a6bd
000000d0: cecf c3bd 8898 0ebe 66e2 58be 78bd 173e
000000e0: 147e 853d 1504 10be a9f7 d3bd 7249 bcbe
000000f0: 6226 08be c89e 87be 617d 04be 0dc5 653e
00000100: a1b0 dabe 2536 803e 4d09 12be af49 45be
00000110: 67ab efbe cd4b d2be c026 b7be 7b36 6e3e
00000120: 4131 413e a3fc 8d3d d583 06be 5b83 88be
00000130: f4fa acbe 94e6 adbc 0155 5abe de71 efbe
00000140: 8d29 c2bc 6c80 333d 0746 8bbd 5b69 523d
00000150: 8a11 053e 443c cf3b 72f4 93be 5af3 f0be
00000160: 3906 58bd c27d 1abe 312e a03e 40cb 303e
00000170: a114 bbbe 782c 073e cab3 21be 2a18 36bd
00000180: 2cc3 0cbd df87 a3be 8e5e e5bd e53d f8bc
00000190: 3eb6 61bd e084 d6bd 1746 d5bd ae56 76be
000001a0: 21f3 8fbc b7bf 403a 2e7b 67bd b782 0cbe
000001b0: 8d81 e8bd 41b2 e0be 795e 613b 484e edbd
000001c0: 3537 973d 7b4a 2e3e c2f5 d7be 69ea b33e
000001d0: 81a9 af3e 6bbd 6e3c 147b 243c bd37 95bd
000001e0: 6362 8ebd 8d5f b4bc e725 033e a38f e23d
000001f0: 36c9 99bd 97b6 9dbe a79c b3bc 66b4 cdbc
00000200: 4bce 093e d87d d7be 391f 39be 969e 54bc
00000210: 8715 1a3d eed6 a23c c78a 47bd c868 063e
00000220: 89ad 743d 9473 c13d 131b bb3d 7978 1a3e
00000230: f9ec 223d f989 e6be 7810 9a3d 5b39 83bd
00000240: c283 4d3d 12c9 92be 8eac 3a3d 9c00 a6be
00000250: a531 9ebe 0141 56be 1ab5 09be 4f37 44bc
00000260: fe9e c03d 3a26 36be 8835 62be 0642 0dbf
00000270: 41be 1d3e 820b 1dbf cf8d 12bf 312c 67bd
00000280: c036 d7be f2d1 f2bc f9cd 01bc 2340 93be
00000290: aaa5 c23d e0c1 03bf a55f bebe 03bc d3be
000002a0: 4699 ecbe a4fc d43d 7e12 cfbe f19a 1cbd
000002b0: 52f2 a5be 12d4 563d ef17 aebe f371 a73d
000002c0: c6cd ffbc 2b6d 3bbd 16bc fc3d 12df 383e
000002d0: d746 583e 7200 fcbd b972 26be 31eb 85be
000002e0: 2b9f 58be 985c 2ebe c3bd 78bd 1bee 8bbd
000002f0: 5c8b 853d 502f 3a3e bc4f 903e 82e2 86be
00000300: 394c d1be 55bd 3fbe 2da3 e83d 84e2 e8be
00000310: 65a0 11bf 81fe 6dbe 2541 abbe 3e4a 9ebe
00000320: 4bb3 853d 83de 23be 2de5 46bc d7cd 483e
00000330: 7639 fcbc 200e 7bbd cfa5 05be 7ffc debe
00000340: cb61 863e ad07 6bbb 7ee6 50be a83e d83b
00000350: 6412 663e 395c 09be d9a2 6f3d cbb6 57be
00000360: bf30 0bbf 00e6 a2be 9566 8d3e 4199 793e
00000370: 10b6 993d 100d 9b3e 7ccf 76be 8d31 cbbe
00000380: e256 773d 9bef cebe c1ea d5be 9456 2b3d
00000390: 648e 833c 4c16 363c f04e bf3c a5ef 123e
000003a0: 8503 0cbd b65a 283d 8218 133e 0eb0 103e
000003b0: aa9f cd3d 52bb 44bd cd76 28bd 079e c03c
000003c0: c441 83bd acd5 06bd abdb 683d dbf3 aabe
000003d0: 9133 debe fc62 b2be 14c5 51bd 169f bebb
000003e0: fb82 dbbb c2ec 24be 4b66 a5bd 24a2 15bf
000003f0: 3d8c e23d 8155 e5be 4fa9 ffbe dca8 0dbc

encoder.encoder_layers.2.0.bias f4 [16]
-0.00015095317 -6.5386586e-05 -0.00011034217 -4.542934e-05 -9.238235e-05 7.981737e-05 -9.824379e-05 5.8673995e-05
4.9748887e-05 3.5786175e-05 -0.00015141407 -7.666374e-05 -1.7934857e-05 -1.0619759e-05 -8.07468e-05 8.5724896e-05
00000000: 2f49 1eb9 2820 89b8 8067 e7b8 628b 3eb8
00000010: 66bd c1b8 a063 a738 3c08 ceb8 b918 7638
00000020: 76a9 5038 1d19 1638 e8c4 1eb9 88c6 a0b8
00000030: d072 96b7 852b 32b7 9c56 a9b8 34c7 b338

encoder.encoder_layers.2.1.weight f4 [16]
0.7572985 0.7723717 0.7569819 0.6381621 0.7488754 0.7993847 0.7399599 0.7459672
0.7144528 0.70520014 0.7566719 0.7237595 0.7213862 0.7126738 0.74724185 0.7646514
00000000: 51de 413f 27ba 453f 91c9 413f 975e 233f
00000010: 4cb6 3f3f 7aa4 4c3f 036e 3d3f b5f7 3e3f
00000020: 61e6 363f ff87 343f 40b5 413f 4d48 393f
00000030: c4ac 383f ca71 363f 3e4b 3f3f 32c0 433f

encoder.encoder_layers.2.1.bias f4 [16]
-0.21340804 0.047345407 -0.22427177 -0.4201039 -0.024782434 -0.041005626 -0.16185477 -0.032295495
-0.24529189 -0.22918142 -0.2618126 -0.24399216 -0.3567062 -0.25876153 -0.054207623 -0.2034028
00000000: a387 5abe 42ed 413d 80a7 65be dc17 d7be
00000010: 8804 cbbc 84f5 27bd 42bd 25be 4848 04bd
00000020: cc2d 7bbe 89ae 6abe 4d0c 86be 15d9 79be
00000030: 32a2 b6be 647c 84be d008 5ebd d348 50be

encoder.encoder_layers.2.1.running_mean f4 [16]
-1.6862056 -0.39976633 -1.7349153 -0.6880516 -0.721296 -1.809179 -2.0888622 -0.66635674
-1.8013046 -1.7702887 -1.4280169 -1.6576955 -1.1914958 -1.5887235 -0.6932002 -1.7301681
00000000: 96d5 d7bf 2cae ccbe b411 debf 2624 30bf
00000010: dba6 38bf 2d93 e7bf ebaf 05c0 5b96 2abf
00000020: 2691 e6bf d298 e2bf 42c9 b6bf 5e2f d4bf
00000030: ef82 98bf 4b5b cbbf 9175 31bf 2676 ddbf

encoder.encoder_layers.2.1.running_var f4 [16]
8.22984 5.703207 8.125547 1.0556498 7.7681184 7.6433916 10.615782 5.2402534
7.2901664 6.689733 3.5746622 5.60147 3.34774 5.3944316 5.62177 8.681531
00000000: 6dad 0341 ac80 b640 3e02 0241 881f 873f
00000010: 6d94 f840 aa96 f440 3eda 2941 28b0 a740
00000020: 0b49 e940 4b12 d640 44c7 6440 3e3f b340
00000030: 5f41 5640 2f9f ac40 8ae5 b340 8de7 0a41

encoder.mu_head.weight f4 [10, 16]
0.007210862 -0.0047313063 0.0021876208 0.06683734 0.0014639483 0.0058111455 -0.00039961727 0.0020222373
0.0073800273 0.005506667 0.0047401963 -0.0036379837 0.027323576 0.003414748 0.00398011 -0.017671855
-0.000606901 -0.0032475109 0.002135069 0.1282034 0.002256118 0.0004737224 0.0011176512 0.001682684
0.0063301483 0.017118331 -0.0009181938 -0.027067332 0.036488526 -0.0070992247 0.0014526269 -0.026590096
0.0055962773 -0.001176636 -0.006190298 0.07858584 0.0040693874 0.0030901604 -0.009103846 0.0027862315
0.028065061 -0.025324004 0.01214957 0.012019924 -0.05331797 -0.00916565 0.0040461333 0.03144181
-0.00082928705 0.004361562 -0.008480186 0.087552495 0.0025896968 -0.0031340679 -0.0048103402 0.0006017464
0.026896201 -0.008996282 0.013476186 0.00061543274 -0.0706793 -0.0041678846 0.0013406862 0.044416104
-0.005696094 0.00086519105 -0.0036432783 0.047606222 0.0022765824 -0.0006818192 -0.0051447246 0.0020800414
0.015486535 -0.007672587 -0.006416914 0.004458054 -0.0066040773 -0.0008906924 0.0010113784 -0.0029626125
0.0033086578 0.008662231 -0.0032082642 -0.13621598 0.0073950146 -0.007467547 -0.010197136 0.010114135
0.013074832 0.034893285 -0.0103956675 0.067103304 -0.07848053 -0.024962667 0.001820371 0.047926538
-0.3234632 0.26062188 -0.32355776 -0.32366937 0.4347149 -0.217923 -0.2969969 0.4529721
-0.41285354 -0.38370228 -0.34677005 -0.40907675 -0.42467454 -0.3287178 0.47340906 -0.29444018
0.0008544113 -0.0010473575 -0.0055608917 -0.04772034 0.0015814817 0.00076213566 -0.0031460503 0.0008633788
-0.0024645375 -0.007215043 0.004746865 0.004959258 -0.0047881394 0.010386262 -0.00036035685 -0.0041763443
0.020390175 -0.0022287576 0.0040399274 0.027985953 -0.004494807 0.006617249 0.014597594 0.0018476679
0.006650149 -0.02785309 0.009644078 0.031557545 -0.04946992 -0.0065101087 0.004969544 -0.06418721
-0.00665667 -0.003982818 -0.0060217967 0.064893186 -0.004931983 0.00025351177 -0.0013381474 -0.005147011
0.003915624 0.0021812255 0.0014971265 -0.006174565 0.016665287 -0.0017348491 -0.005348622 -0.025946304
00000000: 1849 ec3b 1309 9bbb 305e 0f3b 04e2 883d
00000010: f4e1 bf3a 6c6b be3b b983 d1b9 8387 043b
00000020: 28d4 f13b 4571 b43b a653 9b3b 3d6b 6ebb
00000030: b1d5 df3c f7c9 5f3b 956b 823b 91c4 90bc
00000040: 7018 1fba 31d4 54bb 84ec 0b3b c147 033e
00000050: 61db 133b f25d f839 277e 923a 818d dc3a
00000060: 226d cf3b be3b 8c3c f1b2 70ba 4fbc ddbc
00000070: fe74 153d 9da0 e8bb 1266 be3a 79d3 d9bc
00000080: fa60 b73b 5a39 9aba fcd7 cabb 9df1 a03d
00000090: 7f58 853b 4a84 4a3b 4c28 15bc 3599 363b
000000a0: b3e8 e53c 4974 cfbc fd0e 473c 37ef 443c
000000b0: f263 5abd 862b 16bc 6d95 843b 21c9 003d
000000c0: 8364 59ba 6feb 8e3b 7af0 0abc b94e b33d
000000d0: e7b7 293b ef64 4dbb 0fa0 9dbb 84be 1d3a
000000e0: 6c55 dc3c 2465 13bc 39cb 5c3c fe54 213a
000000f0: 4fc0 90bd c092 88bb f7b9 af3a a9ed 353d
00000100: 4da6 babb fdcd 623a 11c4 6ebb befe 423d
00000110: b732 153b 1dbc 32ba 1495 a8bb 4e51 083b
00000120: 3cbb 7d3c 536a fbbb fa44 d2bb de14 923b
00000130: 0467 d8bb 5b7d 69ba 3a90 843a 6428 42bb
00000140: 11d6 583b 08ec 0d3c be41 52bb 347c 0bbe
00000150: e151 f23b 53b2 f4bb e311 27bc c2b5 253c
00000160: d237 563c 43ec 0e3d 9752 2abc 756d 893d
00000170: 66ba a0bd 827e ccbc 8499 ee3a 9e4e 443d
00000180: f89c a5be 3b70 853e 5da9 a5be feb7 a5be
00000190: f492 de3e 3527 5fbe fa0f 98be f6eb e73e
000001a0: 8a61 d3be a074 c4be d88b b1be 8272 d1be
000001b0: f16e d9be b34d a8be ac62 f23e ddc0 96be
000001c0: 92fa 5f3a 7c47 89ba 2438 b6bb 6776 43bd
000001d0: b849 cf3a 0fca 473a f72d 4ebb 5f54 623a
000001e0: 1484 21bb 2b6c ecbb 978b 9b3b 4581 a23b
000001f0: d3e5 9cbb 242b 2a3c 47ee bcb9 b7d9 88bb
00000200: 4c09 a73c 5910 12bb 5e61 843b cc42 e53c
00000210: 2d49 93bb 82d5 d83b bf2a 6f3c 722d f23a
00000220: 7ee9 d93b 2a2c e4bc 3202 1e3c 7c42 013d
00000230: f9a0 4abd c052 d5bb 8ed7 a23b 9574 83bd
00000240: 3220 dabb 4d82 82bb 7e52 c5bb b8e6 843d
00000250: 799c a1bb c6e9 8439 c764 afba 42a8 a8bb
00000260: a34e 803b e4f2 0e3b 3b3b c43a 0154 cabb
00000270: a485 883c e063 e3ba 7e43 afbb 588d d4bc
