scripts/abr_clustering/audiometric_deep_clustering/experiments/full_pipeline_test/20250618_174708_evident/checkpoints/pretrain/pretrain_epoch_40.pt (torch, 344515 bytes, 213 tensors)

encoder.abr_encoder.abr_projection.weight f4 [16, 6]
-0.015242601 0.5499106 0.058085456 0.14961673 0.040383063 0.32520652 -0.4602333 -0.1974795
0.31581694 0.08522833 -0.08669205 -0.57327235 -0.04556408 0.15937974 -0.59674656 0.10268891
-0.22572823 -0.045896504 0.12758727 -0.596921 0.17692317 0.020397948 -0.24806845 0.29216003
-0.1162105 -0.3079479 -0.015908245 -0.06888033 -0.24828647 -0.7064553 0.045051225 0.4161545
-0.54075104 -0.15681362 -0.1479671 -0.49574092 0.12707329 -0.025121463 0.519863 -0.39012516
0.06574312 0.3153862 0.07032648 0.012672599 0.405252 -0.21983385 0.66445 0.32480457
0.28356013 0.52155274 0.06551038 0.22045249 0.06980856 -0.29588088 0.23405656 0.5559206
0.16823955 0.1836869 -0.31791446 0.14699775 0.12480072 -0.2136638 0.26352042 0.26761281
0.27618626 0.649771 0.16347545 -0.1522364 0.08023908 0.51628685 0.3962848 -0.06695271
0.015010128 -0.44026515 -0.17893092 -0.45596525 0.24982327 0.38359186 -0.22316185 -0.21108039
-0.3013546 -0.26391518 0.37897626 -0.72120744 -0.33135298 -0.55882925 -0.06987712 -0.4363296
-0.37916097 0.38381657 0.23219362 0.3396024 0.20024887 0.3271846 0.30939686 -0.1598824
00000000: 1abc 79bc f1c6 0c3f 04eb 6d3d 2135 193e
00000010: b668 253d 7881 a63e b3a3 ebbe 1138 4abe
00000020: c2b2 a13e 318c ae3d 9a8b b1bd fac1 12bf
00000030: 67a1 3abd 7134 233e 62c4 18bf 904e d23d
00000040: 4d25 67be f9fd 3bbd 3da6 023e d1cf 18bf
00000050: 592b 353e 9919 a73c a805 7ebe 0096 953e
00000060: c5ff edbd 59ab 9dbe 0252 82bc 2111 8dbd
00000070: cf3e 7ebe 41da 34bf a287 383d 3412 d53e
00000080: a96e 0abf c093 20be b084 17be c1d1 fdbe
00000090: 801f 023e 87cb cdbc be15 053f 7cbe c7be
000000a0: 54a4 863d 4d7a a13e 5407 903d bca0 4f3c
000000b0: 317d cf3e 201c 61be 6519 2a3f c94c a63e
000000c0: cb2e 913e 7b84 053f 4e2a 863d 4cbe 613e
000000d0: caf7 8e3d b37d 97be 86ac 6f3e d050 0e3f
000000e0: fd46 2c3e 6b18 3c3e afc5 a2be 9486 163e
000000f0: 8597 ff3d afca 5abe 26ec 863e 8c04 893e
00000100: 4968 8d3e 6457 263f 1c66 273e dce3 1bbe
00000110: 6354 a43d 602b 043f d7e5 ca3e 811e 89bd
00000120: 0aed 753c 6f6a e1be ab39 37be 4774 e9be
00000130: acd1 7f3e 2766 c43e 8a84 64be 7525 58be
00000140: 264b 9abe e41f 87be 2d09 c23e 0da1 38bf
00000150: 19a7 a9be 6f0f 0fbf bc1b 8fbd 9866 dfbe
00000160: 6321 c2be 9b83 c43e 2ac4 6d3e 5ee0 ad3e
00000170: 0a0e 4d3e bd84 a73e 4469 9e3e 36b8 23be

encoder.abr_encoder.abr_projection.bias f4 [16]
-0.00012001172 8.707596e-05 9.4948606e-05 0.00014516985 1.2551454e-05 -2.1058537e-05 8.867431e-05 -0.000120911696
3.7264374e-05 -3.924295e-05 3.0153979e-06 8.04653e-06 6.586297e-05 1.6799131e-05 -2.580472e-05 -0.00013565407
00000000: cdae fbb8 8d9c b638 251f c738 bc38 1839
00000010: 1694 5237 dda6 b0b7 a8f6 b938 f991 fdb8
00000020: 514c 1c38 cc98 24b8 245c 4a36 95ff 0637
00000030: ea1f 8a38 dceb 8c37 3777 d8b7 5d3e 0eb9

encoder.abr_encoder.abr_norm.weight f4 [16]
0.90099496 0.9315406 0.9092324 0.814703 1.0206207 0.98027754 0.8035279 0.8735593
0.8247199 0.8504644 0.9380811 0.96268386 0.9044755 1.0128977 0.88771415 0.931777
00000000: 9ba7 663f 7279 6e3f 74c3 683f 6090 503f
00000010: b3a3 823f 78f3 7a3f 01b4 4d3f 95a1 5f3f
00000020: d820 533f 09b8 593f 1526 703f 7372 763f
00000030: b58b 673f a2a6 813f 3c41 633f f088 6e3f

encoder.abr_encoder.abr_norm.bias f4 [16]
-0.32362047 -0.15923813 -0.07155238 -0.33255595 -0.10088129 -0.19024588 -0.41683826 -0.36896366
-0.31918302 -0.26020443 -0.08718647 -0.34714314 -0.18720104 -0.0424623 -0.31470838 -0.26510915
00000000: 95b1 a5be 520f 23be 0e8a 92bd c644 aabe
00000010: da9a cebd d1cf 42be d36b d5be cee8 bcbe
00000020: f56b a3be 8439 85be d28e b2bd bfbc b1be
00000030: a1b1 3fbe f3ec 2dbd 7521 a1be 63bc 87be

encoder.abr_encoder.abr_norm.running_mean f4 [16]
-0.29299477 0.24184166 0.17271465 0.062483 0.3868457 0.23129079 -0.16173495 -0.33343095
-0.23062733 -0.25721288 -0.36042204 -0.24870352 0.11348919 0.35370198 0.36999962 -0.33208925
00000000: 6903 96be 57a5 773e 1cdc 303e 2dee 7f3d
00000010: a410 c63e 7ed7 6c3e d99d 25be 76b7 aabe
00000020: 9229 6cbe 68b1 83be 3d89 b8be 23ac 7ebe
00000030: 056d e83d 6d18 b53e 9770 bd3e 9a07 aabe

encoder.abr_encoder.abr_norm.running_var f4 [16]
0.3120052 0.22245623 0.12167614 0.033364337 0.5395638 0.21939577 0.11154743 0.41103563
0.20012389 0.25022012 0.47871283 0.23157454 0.070225626 0.47364062 0.5006852 0.39507088
00000000: 25bf 9f3e 91cb 633e 5731 f93d 0ba9 083d
00000010: da20 0a3f 49a9 603e fb72 e43d 4373 d23e
00000020: 47ed 4c3e da1c 803e d919 f53e e021 6d3e
00000030: 74d2 8f3d 0681 f23e e82c 003f bb46 ca3e

encoder.abr_encoder.attention.q_projection.weight f4 [16, 1]
0.17428832 -0.4512256 -0.007359227 -0.3070688 -0.34442046 -0.35087597 -0.28906894 -0.36231548
-0.34927043 -0.03180351 -0.3907832 0.32641226 0.036007665 -0.58692837 -0.54436374 -0.20886713
00000000: a378 323e 0b07 e7be ac25 f1bb 1f38 9dbe
00000010: e157 b0be 04a6 b3be d800 94be 6a81 b9be
00000020: 93d3 b2be 6644 02bd bc14 c8be 821f a73e
00000030: c67c 133d f040 16bf 6c5b 0bbf 44e1 55be

encoder.abr_encoder.attention.q_projection.bias f4 [16]
-0.014076122 -0.008772327 0.019048462 -0.007839285 0.01300635 0.016568847 0.018428365 0.01192972
-0.00283259 0.049393628 0.031790156 -0.02999958 -0.043507203 -0.0020429827 0.030237023 0.055176187
00000000: 899f 66bc ceb9 0fbc 850b 9c3c 5870 00bc
00000010: 9618 553c 64bb 873c 15f7 963c df74 433c
00000020: f9a2 39bb f950 4a3d 6536 023d aec1 f5bc
00000030: 9c34 32bd 90e3 05bb a2b3 f73c 6d00 623d

encoder.abr_encoder.attention.k_projection.weight f4 [16, 1]
0.23277666 0.52954626 -0.015405324 0.33852264 -0.32723114 -0.13085745 -0.09905063 -0.584453
-0.1230416 0.012372683 0.21241128 -0.3075417 -0.022192083 -0.11527064 -0.075958565 -0.031041743
00000000: 015d 6e3e 5890 073f 9d66 7cbc d752 ad3e
00000010: d78a a7be 7fff 05be 0fdb cabd b69e 15bf
00000020: 3cfd fbbd cbb6 4a3c 5882 593e 1b76 9dbe
00000030: 2ccc b5bc 0313 ecbd 2a90 9bbd 414b febc

encoder.abr_encoder.attention.k_projection.bias f4 [16]
2.0575459e-05 -2.4298277e-05 -5.119794e-07 -1.8397779e-05 -4.3318112e-05 -4.2359618e-05 -3.7814025e-05 -3.8555037e-05
2.65747e-05 -1.6504647e-06 -1.8622513e-05 3.701242e-06 4.5227918e-07 -2.8035608e-06 -2.6878188e-05 7.072392e-06
00000000: 7699 ac37 27d4 cbb7 f56e 09b5 ee54 9ab7
00000010: 78b0 35b8 4bab 31b8 809a 1eb8 28b6 21b8
00000020: bcec de37 8985 ddb5 8b37 9cb7 da62 7836
00000030: c7d0 f234 cf24 3cb6 7878 e1b7 624f ed36

encoder.abr_encoder.attention.v_projection.weight f4 [16, 1]
-0.3884186 0.40945125 -0.48051217 -0.22974092 0.32989055 -0.18117474 -0.29553255 -0.5353927
0.2961744 0.112819254 0.18122528 0.21633528 -0.5161713 -0.33265954 0.33111885 -0.41164914
00000000: cede c6be 98a3 d13e b105 f6be 3441 6bbe
00000010: 6ae7 a83e df85 39be 0b50 97be 7f0f 09bf
00000020: 2ca4 973e c80d e73d 1f93 393e ff86 5d3e
00000030: cd23 04bf 5a52 aabe 6988 a93e adc3 d2be

encoder.abr_encoder.attention.v_projection.bias f4 [16]
0.060661092 -0.060902294 0.060970977 -0.05780921 0.060170755 -0.059225287 -0.056511257 0.061397023
0.041236576 -0.052619245 0.032255247 -0.04995785 0.05397426 0.05173729 -0.005298745 0.050530765
00000000: c477 783d af74 79bd b4bc 793d 5ac9 6cbd
00000010: 9c75 763d 3796 72bd 5978 67bd 727b 7b3d
00000020: afe7 283d 4787 57bd 141e 043d 9aa0 4cbd
00000030: 1d14 5d3d 7bea 533d 18a1 adbb 59f9 4e3d

encoder.abr_encoder.attention.output_projection.weight f4 [1, 16]
-0.21843655 0.27019757 -0.2052804 0.13123186 -0.3227136 0.2168258 0.09441301 -0.41741103
-0.33823428 0.32868242 -0.08560888 0.4520402 -0.08853385 -0.32668105 0.007893375 -0.39192417
00000000: d5ad 5fbe 5657 8a3e 0635 52be a561 063e
00000010: b83a a5be 9507 5e3e 9c5b c13d e6b6 d5be
00000020: 0b2d adbe 1049 a83e b553 afbd d071 e73e
00000030: 3c51 b5bd bd42 a7be 3753 013c 49aa c8be

encoder.metadata_encoder.metadata_projection.weight f4 [24, 12]
0.105950326 0.12408953 -0.10260031 -0.34249347 0.23562957 0.22692072 0.16819341 0.052755293
0.11307719 0.036350925 -0.2621434 -0.2513231 -0.008908468 0.0008772168 0.13702123 0.11149221
0.11217056 0.110186785 0.085153386 0.096233666 -0.053458206 -0.046945803 -0.3712927 0.0028837402
-0.06841024 0.029305432 0.22077706 0.08512063 -0.11078392 -0.18494283 -0.2296199 -0.16852981
0.15265259 0.0089298785 -0.3936801 0.061736926 0.007836979 0.026893469 0.0481107 -0.0031085443
0.25472376 -0.0076627703 0.19013469 0.15484796 0.08387437 -0.054474257 -0.34388143 -0.012865272
-0.0316396 0.05972435 0.27235004 0.1527002 -0.18434025 -0.034497492 -0.043075245 -0.2618199
-0.21344437 0.068639375 -0.30900168 0.05201659 -0.013396512 0.024558598 -0.245484 -0.29616895
0.11932228 0.28540814 0.23153895 0.21745381 -0.018089917 0.1655308 0.6322984 0.07039123
0.10132717 -0.029376019 0.0955883 0.16429888 -0.033845846 -0.37009034 -0.30813858 -0.26992145
-0.048571337 0.13581331 -0.32845065 -0.084953055 -0.05877487 -0.0013454955 -0.12044297 -0.19119792
-0.17840502 -0.16797107 -0.30778998 -0.2110664 -0.14604226 -0.2186263 -0.50276595 0.03817467
-0.041588265 0.10189165 0.10044457 -0.023144664 -0.002710321 -0.34730414 -0.3019293 -0.29786664
-0.25655535 -0.037929658 0.33480972 -0.04208924 0.008044369 -0.057015654 0.10383596 0.20669548
-0.09305163 0.07408381 -0.15960832 0.015221206 -0.121926986 0.07805096 0.5918723 0.10043285
0.025883755 -0.11269847 -0.10297685 0.065258436 -0.28645384 -0.29957289 -0.18271433 -0.2148684
-0.045804985 0.09889845 0.3798932 0.092788965 -0.054463536 0.004827434 -0.019947447 0.043083206
-0.07144431 0.07506663 0.0328517 0.01968256 -0.07206137 -0.0668548 -0.39700076 0.07324344
-0.056695383 -0.0027698278 -0.31121644 -0.23743472 -0.20034458 -0.15417886 -0.056926 -0.16308664
0.016176697 -0.037863612 -0.4101142 0.08580484 0.09744254 0.0030506689 -0.076858915 -0.049371663
-0.23306131 -0.30199462 0.021327222 -0.10960827 0.016819997 0.14496177 0.6435862 0.16924848
-0.064324945 -0.036818292 -0.28403097 -0.0071098167 0.052408967 -0.16023666 -0.10452569 -0.094600335
-0.109144926 0.16868603 -0.4724783 0.011845227 -0.034391493 -0.07646748 0.07364664 0.25070104
-0.34738493 0.1236384 0.07152401 0.108400516 -0.2484792 0.13524891 -0.38208288 0.015372624
0.023523977 -0.011487794 0.029797344 0.06517523 0.0054325047 -0.09693792 -0.1091062 -0.17505261
-0.04897133 0.072279744 0.55299467 0.008466535 0.058569018 -0.031544752 0.05237564 0.12965983
-0.14108977 -0.04081467 -0.10121991 -0.13009724 0.30561242 0.10569455 -0.49425662 -0.032468926
0.116432965 -0.10257191 -0.14963174 0.0005454343 0.059326567 -0.043830737 -0.27121568 -0.19138786
0.13614972 0.07359004 0.5427033 0.18745284 -0.047266487 0.018219354 -0.14423431 -0.1706929
0.16644794 -0.22721212 -0.25765803 -0.2587884 0.17155923 -0.2680658 0.36855406 0.01841818
-0.054507 0.063865915 0.06726927 -0.20869616 -0.35533956 -0.1394888 -0.18107644 -0.19958544
0.13710491 -0.08903102 0.38725555 0.013053903 0.15069951 0.15137336 -0.039002344 -0.2837043
00000000: 7cfc d83d a722 fe3d 1d20 d2bd 4e5b afbe
00000010: e148 713e e85d 683e e53a 2c3e ef15 583d
00000020: 0495 e73d b5e4 143d a937 86be 6cad 80be
00000030: d3f4 11bc 06f5 653a 4b4f 0c3e 0756 e43d
00000040: aeb9 e53d 9ca9 e13d e664 ae3d 2816 c53d
00000050: fef6 5abd 3e4a 40bd 141a bebe 22fd 3c3b
00000060: ab1a 8cbd f211 f03c 6213 623e ba53 ae3d
00000070: aee2 e2bd a761 3dbe 7b21 6bbe 1493 2cbe
00000080: f650 1c3e a04e 123c 7090 c9be dcdf 7c3d
00000090: ac66 003c b14f dc3c ba0f 453d b8b8 4bbb
000000a0: 276b 823e fa17 fbbb abb2 423e 7790 1e3e
000000b0: 53c6 ab3d 6620 5fbd 3a11 b0be ddc8 52bc
000000c0: 8698 01bd 85a1 743d 7771 8b3e 715d 1c3e
000000d0: b1c3 3cbe 3e4d 0dbd ab6f 30bd 420d 86be
000000e0: 2991 5abe cd92 8c3d 7835 9ebe 590f 553d
000000f0: 0b7d 5bbc 1d2f c93c 2860 7bbe 75a3 97be
00000100: 3d5f f43d 0421 923e 8c18 6d3e 36ac 5e3e
00000110: 4e31 94bc e880 293e 4fde 213f 4729 903d
00000120: 9f84 cf3d faa5 f0bc ccc3 c33d f73d 283e
00000130: f1a1 0abd 7b7c bdbe 57c4 9dbe 2533 8abe
00000140: bdf2 46bd a512 0b3e af2a a8be defb adbd
00000150: ebbd 70bd 565b b0ba ceaa f6bd 63c9 43be
00000160: ceaf 36be 9c00 2cbe a696 9dbe ca21 58be
00000170: 1a8c 15be 93df 5fbe 45b5 00bf 0b5d 1c3d
00000180: 7558 2abd 92ac d03d e2b5 cd3d e199 bdbc
00000190: a49f 31bb d9d1 b1be 7a96 9abe fa81 98be
000001a0: 395b 83be 215c 1bbd 2e6c ab3e c465 2cbd
000001b0: 87cc 033c 3f89 69bd f3a7 d43d fba7 533e
000001c0: da91 bebd 41b9 973d 5d70 23be 5d62 793c
000001d0: dbb4 f9bd 2fd9 9f3d f184 173f bdaf cd3d
000001e0: 2b0a d43c 75ce e6bd 87e5 d2bd 37a6 853d
000001f0: 14aa 92be 9e61 99be 7719 3bbe 7606 5cbe
00000200: 029e 3bbd 458b ca3d 5d81 c23e 2408 be3d
00000210: 2815 5fbd 742f 9e3b d468 a3bc 0478 303d
00000220: 6551 92bd 89bc 993d 818f 063d 523d a13c
00000230: e994 93bd 2beb 88bd af43 cbbe a800 963d
00000240: 6b39 68bd 0086 35bb c357 9fbe 1622 73be
00000250: 2127 4dbe 10e1 1dbe 3d2b 69bd 2f00 27be
00000260: fe84 843c e016 1bbd 7dfa d1be 73ba af3d
00000270: f48f c73d bbed 473b 3568 9dbd f139 4abd
00000280: a0a7 6ebe 0a9f 9abe 6db6 ae3c 4d7a e0bd
00000290: 17ca 893c dc70 143e 11c2 243f 794f 2d3e
000002a0: ccbc 83bd c7ce 16bd 826c 91be 77f9 e8bb
000002b0: c9aa 563d 1415 24be 9111 d6bd d2bd c1bd
000002c0: 6087 dfbd 08bc 2c3e ade8 f1be 7c12 423c
000002d0: 18de 0cbd fb9a 9cbd 0dd4 963d e35b 803e
000002e0: 70dc b1be 2136 fd3d 2e7b 923d 1701 de3d
000002f0: 5571 7ebe b17e 0a3e 5ea0 c3be 75dd 7b3c
00000300: 5bb5 c03c 4d37 3cbc 8f19 f43c 977a 853d
00000310: 2703 b23b 6387 c6bd 1273 dfbd fe40 33be
00000320: 2996 48bd 6707 943d 0f91 0d3f 39b7 0a3c
00000330: 11e6 6f3d 1235 01bd d787 563d 8cc5 043e
00000340: d679 10be 492d 27bd 624c cfbd 3638 05be
00000350: 3b79 9c3e 6276 d83d 340f fdbe 23fe 04bd
00000360: 6874 ee3d 3911 d2bd 1039 19be 7afb 0e3a
00000370: 6a00 733d dc87 33bd c8dc 8abe 2efb 43be
00000380: d56a 0b3e 60b6 963d 9aee 0a3f a3f3 3f3e
00000390: 819a 41bd c140 953c 29b2 13be 1fca 2ebe
000003a0: 5471 2a3e 4baa 68be c1eb 83be ea7f 84be
000003b0: 39ad 2f3e ec3f 89be 1eb3 bc3e b9e1 963c
000003c0: bb42 5fbd 22cc 823d 79c4 893d 72b4 55be
000003d0: 11ef b5be 27d6 0ebe 1a6c 39be 2060 4cbe
000003e0: 3b65 0c3e e555 b6bd 5c46 c63e 0ae0 553c
000003f0: f950 1a3e 9e01 1b3e ecc0 1fbd b141 91be

encoder.metadata_encoder.metadata_projection.bias f4 [24]
-0.1361305 -0.07972029 -0.12112898 -0.11683203 -0.07350883 -0.167994 -0.053930696 -0.14741914
-0.20171943 -0.3306264 -0.34186766 0.028924929 -0.15017857 -0.31165162 -0.19354975 -0.098434456
-0.2270125 0.004415839 -0.24039689 -0.27216223 -0.25484228 -0.19875495 -0.12764859 -0.11427598
00000000: cb65 0bbe 6444 a3bd 7812 f8bd a245 efbd
00000010: cc8b 96bd 9e06 2cbe 6fe6 5cbd 0bf5 16be
00000020: 8a8f 4ebe dd47 a9be 4709 afbe f9f3 ec3c
00000030: 69c8 19be cd90 9fbe e831 46be 0198 c9bd
00000040: f775 68be beb2 903b 9a2a 76be d958 8bbe
00000050: b07a 82be 6b86 4bbe 50b6 02be 8609 eabd

encoder.encoder_layers.0.0.weight f4 [64, 40]
-0.1625833 0.029645067 -0.2791748 0.027653418 0.08526864 0.23275918 -0.23428865 0.22814773
0.020806484 0.14697556 0.23853154 -0.022723306 -0.032738518 -0.11158338 0.1503895 -0.10766921
0.109544896 0.056822028 0.24701001 0.17428236 0.19715635 -0.18591312 -0.0785733 -0.21264218
0.12897709 0.038238883 0.01837358 0.050532024 -0.003979085 0.1266586 -0.07615357 0.21812318
-0.30031735 -0.30750045 0.13727467 0.22669111 -0.06632017 0.138283 -0.21647125 -0.19288144
-0.092234045 0.18438476 -0.16359352 0.1806885 -0.098063335 -0.112494946 -0.095225 -0.1640851
0.18182632 -0.19921747 -0.047613475 -0.0576091 0.24976996 0.15966839 0.025987832 -0.061526574
0.046321314 -0.05289672 0.18985906 -0.0629664 0.10108088 0.2974349 0.036293034 -0.26724145
0.047613 -0.1668878 -0.008424123 -0.12465953 0.19934534 -0.15223493 -0.3022305 0.0525791
0.1316321 -0.04926379 0.12818804 0.15873137 -0.015922554 -0.066001244 0.07481225 0.29909596
0.015746525 0.04834028 -0.080117725 -0.16984019 -0.06075905 -0.3689089 0.13375536 -0.101576
-0.12450622 -0.027028315 -0.046744738 -0.099554196 -0.15433188 -0.13999648 -0.028468164 0.07299765
0.050962772 0.07905737 -0.24517404 0.27168328 0.11953786 0.23072663 -0.12262998 0.25317764
0.04071779 -0.2231989 0.23615651 -0.059554275 -0.014762031 0.25079206 0.07610096 0.06820968
-0.30299103 0.23066251 0.01986512 0.012280894 -0.13557966 0.022129208 0.18761642 0.11725912
0.18002029 -0.049146723 -0.16266942 0.035844784 -0.14746557 -0.17111742 0.11519853 0.24264488
-0.044780362 -0.1206152 0.09277496 -0.04293375 -0.11197123 -0.0805309 -0.043865677 -0.0066911457
0.1297809 0.012010741 0.040999163 -0.059818238 -0.04255328 0.24360219 -0.012423968 -0.22613549
0.15549593 0.16789877 0.013036929 -0.1275572 -0.084999286 0.19487053 0.12263764 -0.21124494
0.28154793 -0.018819692 0.15310924 -0.006968023 0.032889258 0.11634935 -0.06747045 0.09777388
-0.04267408 0.22248912 0.053541694 0.14094502 -0.025855802 0.121106714 0.036069114 -0.101190254
-0.02084762 0.022604428 -0.22586957 -0.024190491 -0.009101504 0.1166393 0.09029743 -0.1694922
0.082333066 0.27324122 0.07631116 0.14935291 0.04469032 0.085097164 0.1089777 0.3707727
-0.038124222 -0.12245469 0.14218777 0.15136804 0.024114521 -0.066116124 0.29226783 0.13251042
-0.14731692 -0.007207191 -0.19534753 0.08040677 0.033522896 -0.020838114 -0.06361656 -0.07142318
-0.15704028 0.1641808 -0.029690314 0.0066065392 0.008271924 0.05555081 0.013344692 0.27056977
0.18653084 -0.09411268 0.07099109 0.062331855 -0.0198515 -0.19145869 -0.02013506 -0.06116899
-0.22949867 0.0010319937 -0.14390366 0.097669736 -0.009851801 0.1712083 -0.036515176 0.050734576
0.30972028 0.16582951 0.09750604 -0.119028986 0.0081675695 0.019246567 -0.053032044 -0.041605677
0.14884555 -0.22078404 0.17872237 0.057605635 -0.0017156012 -0.15065078 -0.081297465 0.16472332
-0.22579426 0.095934086 0.2634352 -0.10903802 0.08575894 -0.026012095 0.031069344 0.06360942
-0.14487147 -0.0053838636 0.13395733 -0.014255248 -0.16621171 0.022282477 0.0704403 0.01583703
00000000: 3d7c 26be 36da f23c 00f0 8ebe 6c89 e23c
00000010: 53a1 ae3d 6c58 6e3e 5de9 6fbe 8f9f 693e
00000020: 5c72 aa3c c380 163e 9d41 743e 3a26 babc
00000030: d318 06bd d485 e4bd b5ff 193e ad81 dcbd
00000040: 1359 e03d 37be 683d 31f0 7c3e 1377 323e
00000050: 5be3 493e 0260 3ebe 0aeb a0bd dfbe 59be
00000060: 9212 043e 60a0 1c3d 3184 963c abfa 4e3d
00000070: fc62 82bb cbb2 013e 67f6 9bbd af5b 5f3e
00000080: 32c3 99be b370 9dbe bb91 0c3e b721 683e
00000090: dfd2 87bd 0f9a 0d3e a4aa 5dbe b682 45be
000000a0: 34e5 bcbd 5ccf 3c3e 0f85 27be 6806 393e
000000b0: 6ed5 c8bd c063 e6bd 5305 c3bd ed05 28be
000000c0: ae30 3a3e aaff 4bbe 5906 43bd 85f7 6bbd
000000d0: b2c3 7f3e 1c80 233e 6fe4 d43c 4a03 7cbd
000000e0: 6bbb 3d3d 3baa 58bd 6a6a 423e 87f4 80bd
000000f0: 7e03 cf3d 6349 983e 01a8 143d dfd3 88be
00000100: d905 433d a3e4 2abe 5505 0abc 7f4d ffbd
00000110: 2f21 4c3e 79e3 1bbe f5bd 9abe 2f5d 573d
00000120: 91ca 063e d4c8 49bd ba43 033e 7a8a 223e
00000130: 0470 82bc a92b 87bd 2a37 993d 1b23 993e
00000140: dbfe 803c 7500 463d c314 a4bd 96ea 2dbe
00000150: 7bde 78bd a1e1 bcbe 2af7 083e 1407 d0bd
00000160: 1efd febd 7c6a ddbc 6977 3fbd 12e3 cbbd
00000170: 2d09 1ebe 3d5b 0fbe 1136 e9bc cb7f 953d
00000180: 57be 503d d5e8 a13d e70e 7bbe 121a 8b3e
00000190: 44d0 f43d 9a43 6c3e 6d25 fbbd 80a0 813e
000001a0: b3c7 263d 418e 64be 03d3 713e 2fef 73bd
000001b0: 72dc 71bc d167 803e d2da 9b3d 84b1 8b3d
000001c0: a421 9bbe cb32 6c3e 2dbc a23c ce35 493c
000001d0: 65d5 0abe 5048 b53c 851e 403e 8d25 f03d
000001e0: 3d57 383e 134e 49bd d092 26be fbd1 123d
000001f0: 3701 17be 6839 2fbe 35ed eb3d e677 783e
00000200: 9d6b 37bd 1a05 f7bd cc00 be3d 4ddb 2fbd
00000210: 2c51 e5bd 62ed a4bd 7fac 33bd 6641 dbbb
00000220: 49e5 043e b3c8 443c bdee 273d f803 75bd
00000230: 594c 2ebd da72 793e e68d 4bbc 1090 67be
00000240: 533a 1f3e a8ed 2b3e d898 553c 5b9e 02be
00000250: 1b14 aebd 248c 473e 7129 fb3d 9850 58be
00000260: 0d27 903e c12b 9abc abc8 1c3e 0354 e4bb
00000270: e3b6 063d 9148 ee3d f32d 8abd ac3d c83d
00000280: 04cb 2ebd 30d4 633e 894e 5b3d e453 103e
00000290: 8ccf d3bc cc06 f83d 35bd 133d d63c cfbd
000002a0: a1c8 aabc ec2c b93c 5a4a 67be 232b c6bc
000002b0: 7a1e 15bc 96e0 ee3d dced b83d 5d8f 2dbe
000002c0: 3d9e a83d 46e6 8b3e 0749 9c3d f8ef 183e
000002d0: 320d 373d 6c47 ae3d b32f df3d ebd5 bd3e
000002e0: 2528 1cbd 86c9 fabd ac99 113e 3900 1b3e
000002f0: d18b c53c e467 87bd 21a4 953e d0b0 073e
00000300: 3fda 16be 4d2a ecbb 2f09 48be 4eac a43d
00000310: 4e4f 093d b1b4 aabc 6649 82bd 5146 92bd
00000320: 2bcf 20be 031f 283e 1a39 f3bc ab7b d83b
00000330: f786 073c 3f89 633d b2a3 5a3c 1f88 8a3e
00000340: f101 3f3e 26be c0bd c763 913d b04f 7f3d
00000350: 9d9f a2bc bf0d 44be 48f2 a4bc 568c 7abd
00000360: b301 6bbe f643 873a 7b5b 13be 1207 c83d
00000370: 7369 21bc 3b51 2f3e f090 15bd 0fcf 4f3d
00000380: a893 9e3e 36cf 293e 3fb1 c73d 78c5 f3bd
00000390: 45d1 053c faaa 9d3c 2138 59bd b76a 2abd
000003a0: f86a 183e 3615 62be ff02 373e e3f3 6b3d
000003b0: 06de e0ba 3344 1abe 497f a6bd 3bad 283e
000003c0: 9c36 67be 1779 c43d fbe0 863e 534f dfbd
000003d0: 62a2 af3d 5117 d5bc 2385 fe3c a845 823d
000003e0: 3059 14be 1f6b b0bb 1c2c 093e d88e 69bc
000003f0: 6733 2abe be89 b63c 0143 903d a9bc 813c

encoder.encoder_layers.0.0.bias f4 [64]
5.104882e-05 -7.159417e-05 0.00014845356 -4.3289678e-05 1.3187601e-05 -1.1532065e-06 3.6568126e-05 7.5170888e-06
-5.637699e-05 -7.4395626e-07 2.458886e-05 -2.811633e-05 1.5314361e-05 5.2598396e-05 2.7212136e-05 -5.4046646e-05
-1.3046608e-05 -1.498641e-05 2.8413571e-05 2.2868444e-05 6.909553e-06 -3.3866859e-06 -9.099023e-05 -4.7888e-06
-5.942173e-06 5.1351508e-05 -0.00010455133 2.6088783e-05 -8.604213e-05 -1.1802249e-05 -0.00010836269 -4.9756196e-05
4.3324115e-05 -3.4175653e-05 5.7266458e-05 -7.149402e-05 4.351747e-05 8.146439e-06 -0.00011941963 1.1741725e-05
-4.0455903e-05 -0.00014550782 4.7494465e-05 9.83175e-05 -4.1130734e-06 6.435724e-05 1.2555564e-05 -3.2822405e-05
-1.2409718e-06 -2.9505993e-06 1.0058179e-05 3.186029e-06 2.627357e-05 0.00012442819 7.0858834e-05 -9.1681e-06
3.0770493e-06 0.00010725886 -1.5587306e-05 -0.00010248213 -6.6907696e-06 -2.7074344e-05 3.7563128e-05 -2.330337e-05
00000000: 411d 5638 d424 96b8 33aa 1b39 f091 35b8
00000010: 5140 5d37 e0c7 9ab5 ba60 1938 4d3b fc36
00000020: 5576 6cb8 49b4 47b5 2d44 ce37 5cdb ebb7
00000030: 5777 8037 199d 5c38 9e45 e437 25b0 62b8
00000040: c1e2 5ab7 246e 7bb7 ae59 ee37 9cd5 bf37
00000050: 9cd8 e736 d246 63b6 02d2 beb8 7baf a0b6
00000060: e162 c7b6 4362 5738 9142 dbb8 3cd9 da37
00000070: 8471 b4b8 4602 46b7 c740 e3b8 4fb1 50b8
00000080: eab6 3538 d457 0fb8 6431 7038 0fef 95b8
00000090: 8786 3638 b0ac 0837 ed70 fab8 53fe 4437
000000a0: 32af 29b8 7593 18b9 cb34 4738 ce2f ce38
000000b0: 0803 8ab6 88f7 8638 bda5 5237 caaa 09b8
000000c0: 778f a6b5 e902 46b6 8dbf 2837 90cf 5536
000000d0: 1066 dc37 f078 0239 0c9a 9438 b1d0 19b7
000000e0: 4e7f 4e36 29f0 e038 7cc1 82b7 adeb d6b8
000000f0: 4681 e0b6 b61d e3b7 1a8d 1d38 9b7b c3b7

encoder.encoder_layers.0.1.weight f4 [64]
1.0250651 0.9441616 0.949539 0.98378044 0.9958673 0.9928828 1.0544467 0.891477
0.9386735 0.96855193 1.0355852 0.966034 1.0641636 0.9854126 0.99953294 0.9604203
0.95839804 0.9579129 0.97073925 0.91674536 1.050907 1.0295656 1.0592794 1.0061955
0.9322716 1.0321586 0.9591192 0.99021757 1.0324633 1.0760953 0.8618271 0.9415057
1.0066211 0.9861957 1.0128465 0.84570754 1.0105243 1.0167835 0.93610996 1.0435866
0.91432035 0.940343 0.99072737 0.9721632 1.0769132 1.0242721 1.0491539 1.0203333
1.0919379 0.9049223 1.0251435 0.9212014 1.0328552 1.0883605 0.9536273 0.9552205
1.0967561 0.92104 1.0810826 0.8715943 1.0636343 0.9948276 1.0535561 0.9917051
00000000: 5535 833f 93b4 713f fd14 733f 09d9 7b3f
00000010: 29f1 7e3f 912d 7e3f 1cf8 863f d637 643f
00000020: e84c 703f 05f3 773f 0e8e 843f 014e 773f
00000030: 8336 883f 0044 7c3f 64e1 7f3f 1bde 753f
00000040: 9359 753f c839 753f 5e82 783f d3af 6a3f
00000050: 1f84 863f cec8 833f 7896 873f 04cb 803f
00000060: 5aa9 6e3f c61d 843f d688 753f e67e 7d3f
00000070: c227 843f 7ebd 893f b3a0 5c3f 8406 713f
00000080: f6d8 803f 5277 7c3f f4a4 813f 4a80 583f
00000090: dc58 813f f625 823f e7a4 6f3f 3f94 853f
000000a0: e610 6a3f 52ba 703f 4fa0 7d3f b0df 783f
000000b0: 4bd8 893f 591b 833f ad4a 863f 489a 823f
000000c0: 9fc4 8b3f fda8 673f e737 833f dbd3 6b3f
000000d0: 9934 843f 664f 8b3f eb20 743f 5589 743f
000000e0: 8162 8c3f 47c9 6b3f ea60 8a3f ce20 5f3f
000000f0: 2b25 883f 06ad 7e3f edda 863f 63e0 7d3f

encoder.encoder_layers.0.1.bias f4 [64]
-0.18884502 -0.13361831 -0.21749982 -0.053998023 -0.14830215 -0.08936048 0.14313374 -0.0671708
-0.22227317 0.09216101 0.09463662 0.03961672 0.062347367 -0.22617595 0.015047203 -0.32125983
-0.073986955 -0.21335313 -0.23285618 -0.117148064 -0.0564589 -0.10066998 -0.016099362 -0.07886663
-0.2213021 0.020378878 0.09063881 0.10094614 -0.0037731563 0.14414498 -0.36448678 -0.108168766
0.0963393 -0.098337226 -0.019856049 -0.41392767 0.040419754 0.05480428 -0.05356102 0.02593314
-0.31091186 -0.20253004 -0.13426727 0.05796286 0.043846373 0.0214651 -0.2225853 0.04793672
0.17141023 -0.24733542 0.023551688 0.006887365 0.037322067 0.13078046 -0.3667174 -0.15039839
0.08854111 -0.16283971 0.1643098 -0.33791307 -0.08735698 0.060327824 -0.16793253 -0.11285692
00000000: 9760 41be 3dd3 08be 46b8 5ebe 082d 5dbd
00000010: 85dc 17be a102 b7bd a791 123e d890 89bd
00000020: 949b 63be e9be bc3d d8d0 c13d 2445 223d
00000030: f45f 7f3d ab9a 67be 8b88 763c 2b7c a4be
00000040: 7986 97bd 3e79 5abe da71 6ebe 53eb efbd
00000050: 7341 67bd 102c cebd cfe2 83bc d484 a1bd
00000060: 059d 62be 9bf1 a63c d7a0 b93d dabc ce3d
00000070: 0f47 77bb be9a 133e 039e babe 9687 ddbd
00000080: 8a4d c53d 0765 c9bd 27a9 a2bc 54ee d3be
00000090: 2f8f 253d 747a 603d cd62 5bbd bd71 d43c
000000a0: d72f 9fbe 0964 4fbe 5c7d 09be 776a 6d3d
000000b0: 4198 333d 94d7 af3c 67ed 63be 4b59 443d
000000c0: 2a86 2f3e 7f45 7dbe 78ef c03c 68af e13b
000000d0: 06df 183d 50eb 053e 62c2 bbbe 0902 1abe
000000e0: 0b55 b53d 74bf 26be d440 283e f102 adbe
000000f0: 37e8 b2bd 4f1a 773d 81f6 2bbe 8721 e7bd

encoder.encoder_layers.0.1.running_mean f4 [64]
-0.020073261 0.09567667 0.03525757 0.021645613 0.29260933 0.07002541 0.17520726 0.2611473
0.050141275 0.093559556 0.084948726 -0.27386963 0.18908393 -0.099070184 0.15186593 -0.06558986
0.0011581498 0.22838426 0.6336027 -0.022302698 0.40070212 0.019383717 0.010061907 0.3471291
0.2713008 -0.018113554 0.06668892 0.119203985 0.05716381 0.2680641 -0.30171707 -0.23634192
0.027423382 -0.0923268 0.090624854 -0.1467202 -0.035929557 0.1372329 -0.14774743 0.2902809
0.14603285 -0.035989158 -0.023305308 0.058556296 0.3523042 0.10215278 0.38478932 -0.012908242
0.14941248 0.09987073 0.10439763 -0.18570219 -0.048731554 0.078238964 0.046797015 0.057472695
0.07202354 -0.09619805 0.1793606 -0.045728236 0.12608203 0.07116955 0.30004463 0.3558133
00000000: ae70 a4bc 21f2 c33d 3e6a 103d 2452 b13c
00000010: e4d0 953e 7b69 8f3d 8869 333e 19b5 853e
00000020: f060 4d3d 279c bf3d 99f9 ad3d a438 8cbe
00000030: 389f 413e 4fe5 cabd be82 1b3e fa53 86bd
00000040: 0fcd 973a 90dd 693e c933 223f 26b4 b6bc
00000050: d428 cd3e 9aca 9e3c b2da 243c e8ba b13e
00000060: f0e7 8a3e e062 94bc 3394 883d 3821 f43d
00000070: 9924 6a3d b33f 893e a97a 9abe 9e03 72be
00000080: 00a7 e03c d515 bdbd 8699 b93d d23d 16be
00000090: df2a 13bd c886 0c3e 1a4b 17be b39f 943e
000000a0: a389 153e 5e69 13bd c6ea bebc bad8 6f3d
000000b0: 3761 b43e 7a35 d13d 1b03 c53e 177d 53bc
000000c0: 96ff 183e 0689 cc3d 6dce d53d b728 3ebe
000000d0: bd9a 47bd c03b a03d 3aae 3f3d 7d68 6b3d
000000e0: 1481 933d 7c03 c5bd 4eaa 373e 884d 3bbd
000000f0: a61b 013e 57c1 913d 739f 993e 292d b63e

encoder.encoder_layers.0.1.running_var f4 [64]
0.08790447 0.09044788 0.09704908 1.5678953 1.1281968 0.8802602 1.1345458 0.14791217
0.430286 0.6793572 0.11539194 1.7837971 1.1436932 0.10788726 1.6811304 0.065126285
1.3462565 1.3228722 0.6427239 0.2353642 1.1729467 0.2807786 0.05929526 1.2005278
0.16412584 1.7773567 1.1338685 0.85143304 1.3736992 1.5684817 0.270314 1.0442613
1.6534228 1.4216334 0.86031795 0.09583735 1.2328751 1.1337612 0.4151321 1.5380087
0.608063 0.07312843 0.7638121 0.9624861 1.0741163 1.1874375 0.95589614 1.0417333
1.1427491 0.6770819 1.1325283 1.2894206 1.3608972 1.4432448 0.09821483 0.7927445
1.3294761 0.13146682 1.2431364 0.15041354 1.1910664 1.1778134 0.16671449 0.76094323
00000000: 4207 b43d bd3c b93d abc1 c63d cbb0 c83f
00000010: c168 903f bc58 613f cc38 913f 4a76 173e
00000020: 724e dc3e 5aea 2d3f 9c52 ec3d 7753 e43f
00000030: 8a64 923f fff3 dc3d 482f d73f ee60 853d
00000040: 2252 ac3f e053 a93f 8e89 243f 5003 713e
00000050: 1e23 963f 36c2 8f3e 96df 723d e5aa 993f
00000060: 9b10 283e 6d80 e33f 9a22 913f 84f7 593f
00000070: 60d5 af3f 02c4 c83f 9966 8a3e 5baa 853f
00000080: 5ca3 d33f 15f8 b53f cc3d 5c3f 5f46 c43d
00000090: dace 9d3f 161f 913f 328c d43e 78dd c43f
000000a0: 04aa 1b3f 5cc4 953d 3189 433f 7d65 763f
000000b0: a57c 893f f4fd 973f 9cb5 743f 8457 853f
000000c0: 9a45 923f 3d55 2d3f b0f6 903f bc0b a53f
000000d0: e131 ae3f 3fbc b83f db24 c93d 4ef1 4a3f
000000e0: 462c aa3f 3d9f 063e 181f 9f3f 0206 1a3e
000000f0: dd74 983f 97c2 963f 34b7 2a3e 2dcd 423f

encoder.encoder_layers.1.0.weight f4 [32, 64]
0.12918465 -0.03796195 0.0021324616 -0.15472402 -0.0080588795 -0.06339795 -0.12286707 -0.13532439
-0.115595736 0.14135517 0.25473472 0.005509548 0.12894498 0.061450418 -0.074722484 0.014777394
-0.14950106 -0.07999244 -0.13416693 0.023386495 -0.13674337 0.2595906 0.08442068 -0.2529614
0.03939563 0.1964363 -0.042818937 0.028709212 -0.11231218 -0.10099118 -0.13578694 0.12781562
-0.08472235 -0.2815706 -0.17750661 -0.18392727 0.14411774 0.13546568 0.23393257 0.30970368
0.04742688 -0.051261008 -0.10685446 0.04353584 0.22675647 -0.048378326 0.05062652 0.051478956
0.2762217 -0.21439809 0.17432995 -0.053533774 0.18989241 -0.028991602 -0.21234636 0.05724729
0.31270805 -0.0013049537 0.18621506 0.08925327 -0.23717134 0.13315924 0.06969997 -0.061242137
0.21147723 0.18485716 0.12900521 -0.028062992 0.12776588 0.16638976 -0.066003375 -0.048248574
0.1705167 -0.21317059 -0.13535379 -0.0049139317 0.069116816 0.07573203 0.07587335 0.20446241
0.120490044 0.23415247 0.26971948 0.07728156 0.16514437 -0.07785466 0.17144558 0.21834731
-0.024201747 -0.0019116104 -0.13119471 -0.1395174 0.2405411 -0.031044664 0.2547122 -0.09887261
-0.011085957 0.14274539 0.048412792 0.17457654 -0.1826829 -0.22574262 -0.04985969 0.06547381
0.22570662 0.25900984 -0.0161058 -0.10150654 -0.09737977 0.23248148 0.34102347 -0.069647126
-0.23399551 -0.037674982 -0.022691628 -0.2928441 -0.14749375 -0.30460095 0.1957961 0.063436136
-0.24660572 0.11492494 -0.2902262 0.07139573 0.21213041 -0.08302451 -0.15917993 -0.02083134
0.11263173 0.17238854 0.2667241 0.21407539 -0.05116074 0.1090009 -0.28403518 0.19531348
0.17748344 -0.20851025 0.0020889114 -0.12131503 -0.1577276 0.21890323 -0.12115839 0.1415496
-0.050033238 0.14482968 -0.07014137 -0.07759453 -0.05080497 -0.061706793 -0.025089042 -0.08254617
-0.066223465 0.041241985 -0.085616596 -0.20451748 0.19684471 -0.013854799 -0.034198835 -0.14679666
-0.033005074 0.15623659 -0.14298609 0.010147196 -0.23246624 -0.23886259 0.046229836 0.10450266
0.12553573 0.22401293 0.123050146 -0.02453583 -0.2537796 0.21142091 0.24738066 -0.0796895
-0.017838953 0.13709582 0.20743386 -0.1052916 -0.084645815 -0.20434332 0.11833628 0.14524473
-0.24664131 0.15849996 -0.024773015 0.10154073 0.10250389 -0.10407172 0.073711716 -0.18805751
0.16984002 -0.13744982 -0.12993811 -0.30624303 -0.08151211 -0.070747174 0.29060984 -0.02916665
0.016292412 0.039559912 0.19090404 0.22153327 0.15904698 0.09850674 -0.12591304 0.23233408
-0.3424293 -0.19846724 -0.18085597 0.058862474 0.0068047093 0.06514984 -0.18569034 0.122384034
0.19812757 0.18415575 -0.02677526 0.26021647 -0.035829358 0.032630228 -0.27980083 0.25700292
0.04484614 -0.3024342 0.08814521 -0.039430436 0.10958117 0.25922692 0.17553638 -0.044719025
-0.115589365 0.1792572 -0.09758224 -0.08892371 -0.12412692 -0.2881101 -0.030099433 0.27063873
0.18114468 -0.07771111 0.15414868 -0.017204013 0.24497034 0.23790757 -0.14224276 -0.17761472
-0.075824454 -0.0054394333 0.23690397 -0.08897066 -0.18489999 0.13742957 -0.14923473 0.11263463
00000000: fb48 043e fd7d 1bbd c5c0 0b3b f96f 1ebe
00000010: 6409 04bc c9d6 81bd bba1 fbbd 7a92 0abe
00000020: 75bd ecbd 69bf 103e 976c 823e 7089 b43b
00000030: 270a 043e 6fb3 7b3d 1a08 99bd e21c 723c
00000040: ce16 19be 14d3 a3bd 0e63 09be 0995 bf3c
00000050: 7406 0cbe 0fe9 843e c0e4 ac3d 2884 81be
00000060: 505d 213d 9926 493e e962 2fbd 952f eb3c
00000070: ee03 e6bd 77d4 cebd bb0b 0bbe 19e2 023e
00000080: e982 adbd 062a 90be 4bc4 35be 6e57 3cbe
00000090: 9a93 133e 84b7 0a3e 058c 6f3e 7b91 9e3e
000000a0: b042 423d 10f7 51bd 83d6 dabd a352 323d
000000b0: d932 683e 5a28 46bd c15d 4f3d 99db 523d
000000c0: ee6c 8d3e 2c8b 5bbe 8d83 323e 3b46 5bbd
000000d0: 2873 423e cc7f edbc 5371 59be 227c 6a3d
000000e0: 451b a03e fb0a abba 29af 3e3e 6bca b63d
000000f0: 0bdd 72be e55a 083e dcbe 8e3d 09d9 7abd
00000100: 7d8d 583e 324b 3d3e f119 043e 5ce4 e5bc
00000110: 0fd5 023e 1462 2a3e c72c 87bd 4ca0 45bd
00000120: ee9b 2e3e 6449 5abe 2f9a 0abe 0c05 a1bb
00000130: 1e8d 8d3d 6519 9b3d 7d63 9b3d 985e 513e
00000140: 7cc3 f63d aac5 6f3e ac18 8a3e cb45 9e3d
00000150: 9b1b 293e 4472 9fbd 6e8f 2f3e 7096 5f3e
00000160: be42 c6bc 008f faba e857 06be a6dd 0ebe
00000170: 6850 763e 6151 febc a369 823e b97d cabd
00000180: e0a1 35bc d92b 123e 7e4c 463d 31c4 323e
00000190: 3a11 3bbe 1329 67be ad39 4cbd 2217 863d
000001a0: a31f 673e f09c 843e 50f0 83bc a9e2 cfbd
000001b0: 0b6f c7bd a00f 6e3e a19a ae3e 27a3 8ebd
000001c0: 859c 6fbe 1551 1abd cbe3 b9bc a9ef 95be
000001d0: 9a08 17be a8f4 9bbe c67e 483e ceea 813d
000001e0: 3686 7cbe c45d eb3d 8798 94be ed37 923d
000001f0: b738 593e c108 aabd 1000 23be 7da6 aabc
00000200: 77ab e63d 9f86 303e 1090 883e 9436 5b3e
00000210: ed8d 51bd dd3b df3d 0f6d 91be 4200 483e
00000220: 38be 353e b683 55be 1ee6 083b 0474 f8bd
00000230: 5883 21be 2b28 603e e421 f8bd 61f2 103e
00000240: a7ef 4cbd 3b4e 143e 47a6 8fbd e2e9 9ebd
00000250: df18 50bd 43c0 7cbd 8987 cdbc f70d a9bd
00000260: 2ba0 87bd 5bed 283d c157 afbd 086d 51be
00000270: a991 493e 3dff 62bc 1414 0cbd dd51 16be
00000280: 5430 07bd 7cfc 1f3e f26a 12be 6d40 263c
00000290: a10b 6ebe 6598 74be 7f5b 3d3d 7e05 d63d
000002a0: 708c 003e a563 653e b701 fc3d 5dff c8bc
000002b0: 66ef 81be b97e 583e 5b51 7d3e 4034 a3bd
000002c0: ff22 92bc d962 0c3e 8b69 543e 1fa3 d7bd
000002d0: c95a adbd 603f 51be 4b5a f23d 09bb 143e
000002e0: 8a8f 7cbe d04d 223e c7f0 cabc 96f4 cf3d
000002f0: 8fed d13d 8e23 d5bd 2bf6 963d 2692 40be
00000300: 8bea 2d3e a5bf 0cbe 7f0e 05be e3cb 9cbe
00000310: d2ef a6bd e5e3 90bd d0ca 943e e6ee eebc
00000320: aa77 853c 9309 223d 597c 433e 9ed9 623e
00000330: 36dd 223e e7bd c93d 59ef 00be fce8 6d3e
00000340: e552 afbe ff3a 4bbe 4f32 39be c719 713d
00000350: 0afa de3b 486d 853d 9c25 3ebe 7ba4 fa3d
00000360: f4e1 4a3e 5393 3c3e ca57 dbbc 183b 853e
00000370: cec1 12bd 46a7 053d 0e42 8fbe e395 833e
00000380: 96b0 373d a8d8 9abe 7a85 b43d cf81 21bd
00000390: 186c e03d 64b9 843e cfbf 333e 4c2b 37bd
000003a0: 1eba ecbd 338f 373e 33d9 c7bd a21d b6bd
000003b0: 4136 febd 2b83 93be 1693 f6bc 2991 8a3e
000003c0: fe7d 393e 0127 9fbd 27d9 1d3e 6eef 8cbc
000003d0: 81d9 7a3e 0b9e 733e 16a8 11be a2e0 35be
000003e0: da49 9bbd 463d b2bb f496 723e 4036 b6bd
000003f0: 6c56 3dbe 56ba 0c3e fdd0 18be fcac e63d

encoder.encoder_layers.1.0.bias f4 [32]
7.0624556e-05 -8.856735e-06 -4.2741296e-05 -1.6460808e-05 5.674371e-05 -5.5018038e-05 -1.0137693e-05 -8.742344e-06
-2.605971e-05 -9.331978e-06 -2.431614e-06 2.7835536e-05 4.3785385e-06 1.1277613e-05 -3.437196e-05 -7.33316e-06
3.189669e-05 5.908528e-06 -1.6225498e-05 -6.6754787e-06 1.376695e-05 1.6190816e-05 2.2697335e-05 3.7322974e-05
-4.4892404e-05 0.00010460147 2.3798715e-05 5.762218e-06 1.4738566e-05 -1.511064e-05 5.288715e-06 7.0186584e-06
00000000: 451c 9438 6397 14b7 1e45 33b8 5115 8ab7
00000010: 1800 6e38 2bc3 66b8 0f15 2ab7 15ac 12b7
00000020: cd9a dab7 8a90 1cb7 cf2e 23b6 5c80 e937
00000030: 5ceb 9236 fb34 3d37 9c2a 10b8 5d0f f6b6
00000040: cfc8 0538 de41 c636 fe1b 88b7 edfd dfb6
00000050: 9af8 6637 83d1 8737 2866 be37 3d8b 1c38
00000060: da4a 3cb8 7d5d db38 5aa3 c737 1359 c136
00000070: a945 7737 b483 7db7 b775 b136 d181 eb36

encoder.encoder_layers.1.1.weight f4 [32]
1.1910167 0.895513 0.8613133 1.1311427 1.2619501 1.240307 1.0751948 0.92748356
0.9506847 0.96744126 0.9017179 0.7605488 1.0598378 1.001619 1.0507334 1.1117915
0.76394844 0.79572403 0.83407366 0.7250573 0.9143618 1.0179098 0.99601465 1.1871382
1.2528788 1.0756913 0.8151718 0.80822104 0.9894419 1.0081164 0.78863466 1.0806483
00000000: 3c73 983f 5740 653f 077f 5c3f 49c9 903f
00000010: 9587 a13f 61c2 9e3f fc9f 893f 906f 6d3f
00000020: 1360 733f 3baa 773f fcd6 663f 53b3 423f
00000030: c4a8 873f 0d35 803f 6f7e 863f 2f4f 8e3f
00000040: 2092 433f 92b4 4b3f da85 553f 5b9d 393f
00000050: 9d13 6a3f de4a 823f d1fa 7e3f 25f4 973f
00000060: 555e a03f 41b0 893f 19af 503f 93e7 4e3f
00000070: 104c 7d3f f509 813f f6e3 493f af52 8a3f

encoder.encoder_layers.1.1.bias f4 [32]
0.32797444 -0.0027423475 -0.15710792 0.32131627 0.41184032 0.51606977 0.2545822 -0.047562927
0.29497367 0.014836366 -0.022683661 -0.13774207 0.21324453 -0.020728609 0.20768042 0.10210129
-0.37802356 -0.19300787 -0.31249377 -0.22250612 -0.15597795 -0.012062036 -0.015184747 0.3093587
0.47152767 -0.07587156 -0.19350065 -0.18067193 -0.060215704 -0.15779309 -0.15901595 0.35414082
00000000: 44ec a73e f5b8 33bb e6e0 20be 9183 a43e
00000010: bcdc d23e 261d 043f 9958 823e 58d1 42bd
00000020: ca06 973e 3b14 733c 16d3 b9bc 420c 0dbe
00000030: c65c 5a3e 0bcf a9bc 2daa 543e 7b1a d13d
00000040: 4e8c c1be dba3 45be 2fff 9fbe a5d8 63be
00000050: afb8 1fbe d99f 45bc 72c9 78bc 4364 9e3e
00000060: 136c f13e 8c62 9bbd 0925 46be 1002 39be
00000070: bea4 76bd 8394 21be 14d5 22be f251 b53e

encoder.encoder_layers.1.1.running_mean f4 [32]
0.51518744 -0.06509856 -0.30343023 0.55916226 0.65753436 1.233197 1.1615509 0.1770973
0.390288 0.794431 0.7555795 0.14816877 0.30016753 0.3525508 0.270253 0.65246165
-0.61853343 -0.356038 0.6836327 -0.6845566 -0.05239714 -2.2056372 -1.8248059 0.62853074
0.9050358 -1.2827255 -0.29925463 -0.2995688 0.17486884 0.21001557 -0.50861156 0.4234386
00000000: 53e3 033f 6552 85bd 355b 9bbe 4225 0f3f
00000010: 2c54 283f 66d9 9d3f b3ad 943f ff58 353e
00000020: d4d3 c73e d45f 4b3f a86d 413f 8eb9 173e
00000030: 8faf 993e 8a81 b43e 9a5e 8a3e ba07 273f
00000040: 3558 1ebf 9d4a b6be 8d02 2f3f 1a3f 2fbf
00000050: 629e 56bd 2929 0dc0 3d93 e9bf 64e7 203f
00000060: 6db0 673f 5930 a4bf e737 99be 1561 99be
00000070: d110 333e 520e 573e 5e34 02bf f2cc d83e

encoder.encoder_layers.1.1.running_var f4 [32]
6.541842 9.697976 5.309176 7.116258 7.5934267 9.539983 7.341722 2.8929598
6.7367983 3.1599815 5.2780004 0.5545572 7.9868884 7.3919287 5.548236 4.3515506
2.0244262 4.331349 4.3029327 5.744725 5.5953293 7.3120904 6.4788165 6.9584327
6.619532 3.7324526 4.8937845 6.1546907 3.0355976 5.947934 6.3777175 4.481571
00000000: c556 d140 e92a 1b41 c5e4 a940 63b8 e340
00000010: 5afd f240 c5a3 1841 63ef ea40 4126 3940
00000020: da93 d740 233d 4a40 61e5 a840 76f7 0d3f
00000030: 9794 ff40 ae8a ec40 268b b140 e73f 8b40
00000040: 3390 0140 699a 8a40 a0b1 8940 cad4 b740
00000050: f00c b340 a5fc e940 7752 cf40 7bab de40
00000060: 35d3 d340 81e0 6e40 e299 9c40 3af3 c440
00000070: 3b47 4240 7a55 be40 4316 cc40 0869 8f40

encoder.encoder_layers.2.0.weight f4 [16, 32]
-0.23479043 0.05545777 0.16892818 -0.26732 -0.40151948 -0.56122833 -0.0019748872 -0.27343893
-0.057974204 -0.29178703 0.030400291 0.1677745 -0.34792346 -0.032462504 -0.22470334 0.09619632
0.26090163 0.122639775 -0.068781905 0.13650897 0.042429637 -0.038579445 0.015812157 -0.4739852
-0.51365846 -0.21585582 -0.055592965 0.15935275 -0.35170874 0.14226286 0.13729236 -0.2037652
-0.03885363 -0.57844245 -0.31403494 0.18232256 0.11708568 0.15747574 0.2168176 -0.091950394
0.19803658 0.17241032 -0.020843852 0.024776593 -0.04401371 -0.695874 0.16105387 0.1357422
-0.16558938 -0.42487797 -0.12179778 -0.12187457 -0.098796844 -0.23015048 -0.36680886 0.16863604
0.087924294 -0.25823826 -0.12733668 -0.3947047 -0.007222921 -0.25287846 -0.14260238 0.22777684
-0.4632271 0.25873026 -0.10646444 -0.23788342 -0.49324065 -0.43972763 -0.39841977 0.2182388
0.13042872 0.08233231 -0.16043854 -0.22355407 -0.36944398 0.03979431 -0.27073786 -0.4919732
0.013787785 0.035718616 -0.067324534 0.02851985 0.06260395 -0.053175423 -0.30336142 -0.4958855
-0.11645121 -0.17357995 0.28243747 0.140007 -0.38763443 0.17062187 -0.13862643 -0.08187134
-0.08309502 -0.17444414 -0.04421537 -0.12203637 -0.10200984 -0.1632282 -0.13370597 -0.23778665
-0.076653354 0.010911479 -0.06458799 -0.1065572 -0.200445 -0.47084194 -0.13949703 -0.1309996
0.0772262 0.19181375 -0.40282327 0.34373358 0.45135024 0.054672983 -0.022872716 -0.144634
-0.13694319 -0.081793256 0.14027086 0.13812959 -0.08052062 -0.20588557 0.017135002 -0.1123449
0.10575978 -0.39101553 -0.17444511 0.0032593915 0.033774275 0.035430104 -0.012851692 0.15789887
0.044013463 0.09614514 0.12557372 0.16810688 0.04295188 -0.41708818 0.079971336 0.0019096246
0.07677931 -0.29218313 0.11173727 -0.34104702 -0.2683512 -0.27821124 -0.29088187 0.027998025
0.061009813 -0.28850907 -0.21762109 -0.54395163 0.19434312 -0.5701403 -0.5346927 -0.017496744
-0.41541895 -0.0046521095 0.04494417 -0.27902547 0.08739854 -0.4915307 -0.38764143 -0.39994964
-0.46731985 0.13152558 -0.39958125 -0.0012212538 -0.31518567 0.106180355 -0.33562908 0.08187638
-0.01223474 -0.03098465 0.13745219 0.16237748 0.16338943 -0.20458281 -0.23056768 -0.24508733
-0.22052112 -0.24590501 -0.038125753 -0.04728301 0.06650323 0.23724177 0.2632688 -0.25331745
-0.44193617 -0.119681895 0.12803157 -0.47909856 -0.5865687 -0.26017177 -0.37907127 -0.3219902
0.006114943 -0.16176039 -0.044170126 0.20150901 -0.07238972 -0.008682801 -0.17885208 -0.4654011
0.2619931 -0.013874839 -0.21853305 0.0073544267 0.1994574 -0.21533047 -0.0021568863 -0.23870862
-0.5823304 -0.38216883 0.24736704 0.23659013 0.04826235 0.3191754 -0.20206559 -0.4343195
0.043562442 -0.3871704 -0.4304574 0.035416413 0.022088403 0.019373052 0.042091455 0.13836908
-0.021541074 0.046459153 0.14732854 0.16743231 0.07543414 -0.025815718 -0.006919949 0.053177312
-0.027077463 -0.05286804 0.08890856 -0.35985994 -0.41576943 -0.3718059 -0.17312486 0.0028697823
0.005082115 -0.23512948 -0.09104537 -0.5911121 0.12623721 -0.4184045 -0.4870836 -0.0021569282
00000000: e76c 70be b027 633d 82fb 2c3e 2bde 88be
00000010: f693 cdbe a9ac 0fbf 1c6d 01bb 3000 8cbe
00000020: 5c76 6dbd 1c65 95be 080a f93c 14cd 2b3e
00000030: 0623 b2be 67f7 04bd a218 66be 9402 c53d
00000040: e694 853e 902a fb3d 87dd 8cbd 02c9 0b3e
00000050: b3ca 2d3d 7b05 1ebd 7f88 813c 30ae f2be
00000060: 1f7f 03bf 4f09 5dbe 73b5 63bd 5e2d 233e
00000070: 2b13 b4be 5bad 113e 5e96 0c3e d3a7 50be
00000080: fc24 1fbd ce14 14bf 30c9 a0be c4b2 3a3e
00000090: 9eca ef3d 5241 213e 6f05 5e3e 7d50 bcbd
000000a0: 1aca 4a3e 558c 303e bac0 aabc 48f8 ca3c
000000b0: b847 34bd cc24 32bf 4eeb 243e 0100 0b3e
000000c0: 4390 29be 9b89 d9be 1d71 f9bd 6099 f9bd
000000d0: 0056 cabd 91ac 6bbe 5fce bbbe edae 2c3e
000000e0: a711 b43d ce37 84be 8c64 02be bc16 cabe
000000f0: 41ae ecbb 4979 81be 5c06 12be 553e 693e
00000100: 1a2c edbe 4b78 843e 070a dabd b697 73be
00000110: 0a8a fcbe fb23 e1be adfd cbbe fe79 5f3e
00000120: 1b8f 053e d89d a83d 004a 24be 5ceb 64be
00000130: c327 bdbe 5cff 223d 279e 8abe e9e3 fbbe
00000140: 29e6 613c af4d 123d 72e1 89bd 76a2 e93c
00000150: 8036 803d 79ce 59bd 3052 9bbe b4e4 fdbe
00000160: f97d eebd f1be 31be a59b 903e ff5d 0f3e
00000170: 0578 c6be 80b7 2e3e 16f4 0dbe 29ac a7bd
00000180: b92d aabd 7ca1 32be 2d1b 35bd 34ee f9bd
00000190: 89ea d0bd 4b25 27be 38ea 08be 587e 73be
000001a0: 6ffc 9cbd 0fc6 323c b546 84bd a93a dabd
000001b0: 7441 4dbe 3212 f1be 4fd8 0ebe c224 06be
000001c0: c528 9e3d d36a 443e da3e cebe d9fd af3e
000001d0: 6117 e73e c7f0 5f3d 905f bbbc ef1a 14be
000001e0: d63a 0cbe 3983 a7bd 2aa3 0f3e d871 0d3e
000001f0: ffe7 a4bd abd3 52be b45e 8c3c 1515 e6bd
00000200: 9598 d83d 3033 c8be bda1 32be 849b 553b
00000210: e556 0a3d 281f 113d e78f 52bc 3eb0 213e
00000220: 7647 343d bee7 c43d 6696 003e 3624 2c3e
00000230: 4fee 2f3d 958c d5be 03c8 a33d 5e4c fa3a
00000240: 793e 9d3d 0799 95be 83d6 e43d b79d aebe
00000250: 5465 89be b471 8ebe 78ee 94be 1d5c e53c
00000260: 6de5 793d 76b7 93be 10d8 5ebe 6a40 0bbf
00000270: e201 473e b7f4 11bf 9fe1 08bf 5555 8fbc
00000280: cbb1 d4be b970 98bb 6117 383d 6ddc 8ebe
00000290: 01fe b23d e9a9 fbbe f078 c6be 33c6 ccbe
000002a0: 8c44 efbe a4ae 063e ea95 ccbe 7a12 a0ba
000002b0: 0460 a1be 1675 d93d 93d7 abbe ceae a73d
000002c0: 3874 48bc 85d3 fdbc 44c0 0c3e 4846 263e
000002d0: 8f4f 273e 287e 51be ef19 6cbe 2cf8 7abe
000002e0: 4ad0 61be 86ce 7bbe c029 1cbd d4ab 41bd
000002f0: d832 883d 82ef 723e 2bcb 863e d3b2 81be
00000300: 7545 e2be c81b f5bd b51a 033e 684c f5be
00000310: 5e29 16bf 3c35 85be a115 c2be e6db a4be
00000320: dc5f c83b 84a4 25be bceb 34bd 6158 4e3e
00000330: 1041 94bd 4f42 0ebc 0025 37be 0e49 eebe
00000340: f623 863e 4b53 63bc 21c7 5fbe 67fd f03b
00000350: 903e 4c3e 977f 5cbe 8c5a 0dbb 0870 74be
00000360: 9b13 15bf a2ab c3be c94d 7d3e af44 723e
00000370: beae 453d f56a a33e 48ea 4ebe 205f debe
00000380: 886e 323d 333b c6be ea64 dcbe cd10 113d
00000390: bdf2 b43c 3cb4 9e3c 1768 2c3d a0b0 0d3e
000003a0: e876 b0bc f44b 3e3d 4bdd 163e 6073 2b3e
000003b0: 377d 9a3d 7c7b d3bc bdc0 e2bb 74d0 593d
000003c0: 8ed1 ddbc 288c 58bd b115 b63d 903f b8be
000003d0: bbdf d4be 585d bebe a547 31be f512 3c3b
000003e0: df87 a63b c8c5 70be ff75 babd 1f53 17bf
000003f0: 5444 013e 1d39 d6be 0663 f9be 405b 0dbb

encoder.encoder_layers.2.0.bias f4 [16]
5.230395e-05 5.689476e-05 2.9146427e-06 -3.140787e-05 8.533753e-05 -2.9140292e-05 -2.0242485e-05 8.173521e-05
7.626932e-05 -0.0001203001 -2.3298642e-05 0.0001087086 -8.700657e-05 8.013068e-06 0.00014384842 3.1645133e-05
00000000: f060 5b38 49a2 6e38 2e99 4336 f2bb 03b8
00000010: 3df7 b238 4d72 f4b7 68ce a9b7 4269 ab38
00000020: c8f2 9f38 a049 fcb8 7471 c3b7 7cfa e338
00000030: 4c77 b6b8 dd6f 0637 04d6 1639 b4ba 0438

encoder.encoder_layers.2.1.weight f4 [16]
0.7037632 0.73012125 0.72199225 0.6777042 0.7228694 0.7471752 0.69268143 0.70754987
0.66791546 0.6715788 0.72236246 0.666047 0.69706553 0.6988792 0.7167052 0.72979003
00000000: d329 343f 3ae9 3a3f 7cd4 383f 067e 2d3f
00000010: f80d 393f e046 3f3f 9253 313f fd21 353f
00000020: 82fc 2a3f 97ec 2b3f bfec 383f 0e82 2a3f
00000030: e372 323f bfe9 323f fe79 373f 85d3 3a3f

encoder.encoder_layers.2.1.bias f4 [16]
-0.23163289 0.13292654 -0.19871764 -0.26702407 0.019938333 -0.095112756 -0.15865202 0.019609258
-0.25578973 -0.2199912 -0.25442353 -0.28446403 -0.370913 -0.2530776 0.0018674468 -0.1697759
00000000: 2c31 6dbe e51d 083e a37c 4bbe 61b7 88be
00000010: b755 a33c 7aca c2bd ad75 22be 98a3 a03c
00000020: dff6 82be 6045 61be cd43 82be 45a5 91be
00000030: 4fe8 bdbe 6393 81be 1ec5 f43a bcd9 2dbe

encoder.encoder_layers.2.1.running_mean f4 [16]
-2.0675182 -0.07521586 -2.209102 -1.0557672 -0.57846856 -2.0121112 -2.5374153 -0.5816403
-2.2308283 -2.186269 -1.7979592 -1.9583317 -1.2985705 -1.8102338 -0.61790013 -2.3159013
00000000: 3852 04c0 c60a 9abd ed61 0dc0 6123 87bf
00000010: 8416 14bf 6ec6 00c0 0365 22c0 61e6 14bf
00000020: e4c5 0ec0 d5eb 0bc0 8723 e6bf 9daa fabf
00000030: 8f37 a6bf beb5 e7bf b42e 1ebf ba37 14c0

encoder.encoder_layers.2.1.running_var f4 [16]
9.497848 7.568129 10.220962 2.402253 7.032823 7.415359 12.867797 4.9101973
8.209913 7.4084716 5.6523376 6.0865664 3.045973 5.655452 5.6586285 11.699449
00000000: 2ff7 1741 1d2e f240 0f89 2341 83be 1940
00000010: e30c e140 9f4a ed40 7fe2 4d41 5620 9d40
00000020: ce5b 0341 3312 ed40 f3df b440 27c5 c240
00000030: 39f1 4240 76f9 b440 7c13 b540 f130 3b41

encoder.mu_head.weight f4 [10, 16]
0.0010700019 0.001477858 0.0005643528 0.00029713858 0.00093137706 -0.00063372153 -0.0018832978 0.0013591443
-0.0029393628 -0.0010595308 -0.002221899 -0.0009505497 0.00040855198 -0.0017624605 0.0034759918 -0.0010906382
0.0040358854 0.0036798236 0.0030455212 0.0023112574 0.0065192054 0.0030085507 0.0018583394 0.003692288
0.0012233804 -0.00017383376 0.0030690937 0.0024605775 0.0032412002 0.003557315 0.006702264 0.0012027911
-0.0029267175 -0.003220795 -0.00047176168 0.00374595 -0.002292654 -0.0012118523 0.00026901593 -0.002863797
0.004511153 0.003865829 -0.0003098483 0.00037621273 0.003899149 -0.0033747857 -0.001324279 -0.0025160823
-0.0023195858 0.0038460582 0.0014638702 0.0010993127 0.004445064 -0.0011038745 0.00078418164 0.0041471245
-0.0013955212 -0.0018776006 -6.4051055e-05 -0.0033033274 -0.0012128922 -0.0017217878 0.0053760638 -0.00069525995
-0.00047791927 -0.00085657724 0.00014214004 0.0013629406 -0.0013950876 3.7922786e-05 0.00010260798 -0.0013758221
-0.003699843 -0.0017566362 -0.0033354647 -0.0033920829 0.0014731254 -0.002188228 -0.00038696735 0.00024858222
0.003452487 0.0036736464 0.0048366273 0.004789607 0.0062623536 0.0018927527 0.0023086595 0.0067052534
-0.0015465086 0.0006209399 0.0006458048 0.0022311588 8.3088904e-05 0.0009193108 0.007359578 -0.00037531357
-0.26380253 0.25771692 -0.2677704 -0.29521433 0.40096852 -0.1988186 -0.24731773 0.40387526
-0.35574785 -0.33571368 -0.29816267 -0.38057187 -0.41649726 -0.31404257 0.43990645 -0.27328205
0.00059048587 0.0027795546 0.0029119032 0.0033378985 0.002224163 0.0014066137 0.0009664434 0.00037809153
0.003824956 0.005123147 0.0031388912 0.0024572662 0.004461867 0.00015543167 0.0032952433 -0.00027209416
-0.0016478448 -0.0017759072 -0.004542265 -0.00036685748 -0.002409406 -0.0017561255 -0.00019961601 -0.002102505
-9.416921e-05 -0.0013223287 -0.0038742959 -0.0017947699 -0.0006396188 -0.0016831767 -0.0032760336 -0.0011214878
-0.00053026865 -0.0002570792 -0.0035409443 0.0011976426 0.0005807955 -0.0016268735 -0.00043648147 -0.002619768
0.0057996805 0.0057171304 0.0009886224 0.00553737 0.0042707114 -0.0006976719 -0.00012087623 -0.00010963636
00000000: 4e3f 8c3a b0b4 c13a 13f1 133a 44c9 9b39
00000010: a827 743a 5520 26ba fdd8 f6ba 5125 b23a
00000020: 53a2 40bb f4df 8aba 489d 11bb 4f2e 79ba
00000030: eb32 d639 5c02 e7ba 77cd 633b bff3 8eba
00000040: 763f 843b 3229 713b 5e97 473b 7778 173b
00000050: 0f9f d53b 1b2b 453b 8693 f33a 50fa 713b
00000060: d659 a03a 2547 36b9 d922 493b a441 213b
00000070: 516a 543b d821 693b aa9e db3b f9a6 9d3a
00000080: 2cce 3fbb f913 53bb c856 f7b9 9d7e 753b
00000090: 5a40 16bb 04d7 9eba b50a 8d39 8aae 3bbb
000000a0: 4bd2 933b d959 7d3b 2373 a2b9 6b3e c539
000000b0: dd88 7f3b 822b 5dbb 6e93 adba dbe4 24bb
000000c0: 3104 18bb 260e 7c3b 55df bf3a d016 903a
000000d0: e6a7 913b e2af 90ba 8a91 4d3a 9ae4 873b
000000e0: ece9 b6ba d219 f6ba 2653 86b8 a37c 58bb
000000f0: e9f9 9eba 9dad e1ba b129 b03b 1b42 36ba
00000100: 3d91 fab9 ed8b 60ba 6d0b 1539 b3a4 b23a
00000110: 5fdb b6ba 480f 1f38 3d2f d738 ee54 b4ba
00000120: 1179 72bb ee3e e6ba d097 5abb b54d 5ebb
00000130: e315 c13a 6068 0fbb e1e1 cab9 2454 8239
00000140: 1f43 623b 8fc1 703b 927c 9e3b 23f2 9c3b
00000150: 6e34 cd3b 3e16 f83a e14c 173b beb7 db3b
00000160: 38b4 caba 92c6 223a 3a4b 293a a238 123b
00000170: 0440 ae38 e7fd 703a 9d28 f13b bcc5 c4b9
00000180: 2011 87be 79f3 833e 3419 89be 5526 97be
00000190: bf4b cd3e 1a97 4bbe dc40 7dbe bdc8 ce3e
000001a0: 9524 b6be aae2 abbe c7a8 98be 51da c2be
000001b0: 213f d5be 30ca a0be 6b3b e13e a0eb 8bbe
000001c0: d6ca 1a3a 3029 363b a1d5 3e3b a5c0 5a3b
000001d0: 43c3 113b 205e b83a eb58 7d3a 963a c639
000001e0: 1dac 7a3b 12e0 a73b dbb5 4d3b 160a 213b
000001f0: da34 923b 5ffb 2239 02f5 573b dca7 8eb9
00000200: 7ffc d7ba 8fc5 e8ba 48d7 94bb c756 c0b9
00000210: 20e7 1dbb cb2d e6ba 0450 51b9 2eca 09bb
00000220: b67c c5b8 fd51 adba e6e7 7dbb 7c3e ebba
00000230: 17ac 27ba 0a9e dcba b9b2 56bb e3fe 92ba
00000240: ba01 0bba 96c8 86b9 300f 68bb 38fa 9c3a
00000250: 8740 183a d13c d5ba 8dd7 e4b9 6ab0 2bbb
00000260: 3f0b be3b c456 bb3b aa94 813a d472 b53b
00000270: 53f1 8b3b f8e3 36ba ef7e fdb8 93ec e5b8
