scripts/abr_clustering/audiometric_deep_clustering/experiments/full_scale_audiometric_clustering_memory_optimized/20250619_163308_evident/checkpoints/pretrain/best_pretrain.pt (torch, 708455 bytes, 213 tensors)

encoder.abr_encoder.abr_projection.weight f4 [32, 6]
000000 bc 21 15 bd 43 b1 d5 3d ca 19 14 be bd 6e 25 be
       -0.036409125 0.104342006 -0.14462963 -0.16155525
000010 4b 76 c7 be df bf 7b be 56 ae c5 bd bb fa cd 3c
       -0.38957438 -0.24584912 -0.096523926 0.025143972
000020 c9 a7 8e bd fc a5 d0 be 2d f8 c2 bd 20 77 bf 3e
       -0.06965596 -0.40751636 -0.09519992 0.37395573
000030 60 41 80 be c6 45 b3 be a6 75 5b 3e 7a 39 7f bd
       -0.25049877 -0.3501417 0.21431598 -0.062310673
000040 de b5 7c bc e8 bf 52 be 94 b3 aa be 14 4f 81 3d
       -0.01542422 -0.20581019 -0.33340132 0.06313911
000050 3f ef 82 3e 37 77 3e be ee bf d0 bd 6c 73 16 3e
       0.25573155 -0.18600164 -0.10192858 0.14692467
000060 b8 41 68 3e 96 23 52 be 4d ea d9 be 10 9d 65 3e
       0.2268132 -0.20521387 -0.4256157 0.22423196
000070 cf b6 c3 be c1 c3 92 be dc 28 35 be 98 de 89 3e
       -0.3822541 -0.28664973 -0.17691368 0.26927638
000080 b5 61 82 3e 44 85 ea 3e 47 60 df 3d c7 79 21 be
       0.2546517 0.458048 0.10907035 -0.1576911
000090 a5 c1 a7 3e 6b c3 af 3e 15 00 19 3e 13 a1 33 3e
       0.32764927 0.3432878 0.14941438 0.17541914
0000a0 1a ae 55 be cf 2e e3 3b 99 b5 cb 3e 78 45 81 3d
       -0.20867196 0.0069330703 0.39786986 0.06312078
0000b0 3b 1b 9f be 6a 40 c3 3e cf e3 8c 3e 7d c8 b4 3e
       -0.31075463 0.38135082 0.27517554 0.3530921
0000c0 0d 57 95 3e 97 2b 4e 3e d4 17 e3 3e e1 83 6c 3e
       0.29167977 0.20133816 0.44354117 0.23097183
0000d0 d3 95 8c be 90 73 9d bd 1b a0 e8 bd 62 03 eb be
       -0.27458057 -0.076880574 -0.11358663 -0.45901018
0000e0 3d 02 6d be 0e ee 86 be c0 84 36 be d9 29 e7 3d
       -0.23145385 -0.26353496 -0.17824078 0.11287279
0000f0 1d 67 db 3d b9 56 ca be 90 1c 2f be 61 0a b6 bd
       0.10713027 -0.3951929 -0.1710074 -0.08888698
000100 d1 7f 12 be 29 b6 3d be ed 32 62 be 10 99 49 3e
       -0.1430657 -0.1852652 -0.22089739 0.19687295
000110 7d d4 f1 be c4 c1 91 bc 36 75 3f be 70 b0 98 be
       -0.47232428 -0.01779259 -0.18697056 -0.2982211
000120 7e ad 0c 3e 73 da 62 3e 08 44 ea 3e 9f f0 20 be
       0.13738057 0.22153644 0.4575503 -0.1571679
000130 9b 32 d2 bb f7 63 74 be d8 46 02 be ac c2 bc 3d
       -0.006414724 -0.23866259 -0.12722337 0.09216818
000140 06 43 5f 3e b2 13 9b b9 b0 b1 b3 3e 0e 88 89 3d
       0.21802911 -0.00029578578 0.35096502 0.067154035
000150 2d da 16 bd 1c bd 06 3e 28 a3 be 3e 2b 7c 7c 3e
       -0.036829162 0.13158077 0.37233853 0.24656741
000160 8d 10 b6 bd db 66 bf bd 3b 57 f1 3e 43 c8 b1 3e
       -0.088898756 -0.0934579 0.47136864 0.347231
000170 2b 2e bc 3e 01 8c 2b be 9c b3 9a be 91 a0 44 be
       0.36753973 -0.16752626 -0.30215156 -0.19201876
000180 d5 be 4e 3e 71 0b 01 3f ba 42 eb bd e4 52 86 be
       0.20189984 0.50408083 -0.114873365 -0.26235116
000190 f7 23 28 be 55 05 6f 3e e3 be bb 3d 98 43 72 be
       -0.1641997 0.23341878 0.09167268 -0.23658597
0001a0 82 56 d9 bd 16 53 9a be d2 6c 2a be 23 be 9b be
       -0.10612203 -0.30141515 -0.16643074 -0.304185
0001b0 c0 40 80 3e fc c6 be bd bc 9f 20 be 37 ad a5 bd
       0.250494 -0.09315297 -0.15685934 -0.08089679
0001c0 6c 02 3f 3e 8d 4c 74 be 9a f3 3f bd a2 de 9f 3d
       0.18653268 -0.23857327 -0.046863176 0.07806136
0001d0 c8 4e d2 3a 1e d1 ea 3d 27 08 bb be 05 e2 10 3d
       0.0016045207 0.11465667 -0.36529657 0.0353718
0001e0 32 2e 9f be bb b1 75 3e 9f 35 e9 be 02 53 84 be
       -0.31089932 0.2399358 -0.45548722 -0.2584458
0001f0 27 5b 25 be 60 23 f5 3d 80 69 00 be f4 77 70 be
       -0.16148053 0.11969638 -0.12540245 -0.23483258
000200 65 a3 6f bd ce ea 9f bd c4 36 d5 3e aa 82 91 3e
       -0.058505435 -0.07808457 0.41643345 0.2842
000210 e7 9b d2 3e 43 e0 77 be 1a 32 0e bd bd ea 4a be
       0.4113457 -0.24206643 -0.03471575 -0.19816108
000220 25 d0 e0 3e 30 79 8f 3e 17 89 68 be 4b 12 61 be
       0.43908802 0.28022146 -0.22708546 -0.21979634
000230 10 a1 a9 3e 57 5e 30 bd e6 86 99 3e 7b 98 77 be
       0.33130693 -0.04305872 0.29985732 -0.2417926
000240 c8 f5 d3 be 65 92 79 be 28 e9 62 be 6c 8f 81 3e
       -0.41398454 -0.24372251 -0.22159255 0.25304735
000250 23 b8 1b be 12 b1 a1 bd b4 84 f3 be bc bc b1 3e
       -0.15206961 -0.078951016 -0.47562182 0.34714305
000260 d4 5f 34 3d c9 05 39 be fb 58 7d bd 3d af ec 3d
       0.0440367 -0.18068613 -0.061852437 0.115568615
000270 e0 86 d3 bd b4 3d 84 3e 05 a3 ee bd 4d bc da 3e
       -0.1032846 0.25828326 -0.11652187 0.42721787
000280 15 90 35 3e 6a c3 a2 3e d8 bd f2 3c 3d f0 0b be
       0.17730744 0.31789714 0.02963154 -0.13665862
000290 55 87 f9 3d bf 76 82 3e e7 c7 53 3d e9 3b 20 3e
       0.12184016 0.2548122 0.051704314 0.15647854
0002a0 74 87 67 3e bf 30 9a be 8e d7 0f be 8b e8 0a 3c
       0.22610265 -0.30115315 -0.14047071 0.008478294
0002b0 0d 50 80 bd c9 8c 99 be 1e f9 b9 3d 6b 59 83 3d
       -0.062652685 -0.29990223 0.090807185 0.064135395
0002c0 61 63 a2 be 85 41 95 3c 50 d2 42 3d 72 26 3d bc
       -0.31716445 0.018219719 0.04756385 -0.011544811
0002d0 5c b0 9e 3d 01 e1 e3 be 00 25 7c bc 0d 58 82 3e
       0.07748482 -0.44507602 -0.015389681 0.25457802
0002e0 a3 81 88 3c 20 fd d7 bb c1 7f 8e be 95 9b 54 be
       0.016663378 -0.006591454 -0.27831843 -0.20762475
0002f0 51 18 80 3c 91 ba a9 bd ff 56 8b bd 8e 97 92 3c
       0.015636595 -0.08287538 -0.068037026 0.017894533

encoder.abr_encoder.abr_projection.bias f4 [32]
000000 40 c4 8f 37 71 64 fb b8 01 8b 00 b8 b8 20 80 b8
       1.7138314e-05 -0.00011987321 -3.0647036e-05 -6.10961e-05
000010 f6 b2 4c 37 84 9e d5 37 7f 58 96 37 5d 45 a8 b7
       1.2201015e-05 2.5465393e-05 1.7922603e-05 -2.005946e-05
000020 61 99 87 b5 14 ba 01 38 c6 de 24 b8 0b fc 4a 38
       -1.0102923e-06 3.0929295e-05 -3.930812e-05 4.8395286e-05
000030 47 fc 11 38 c8 eb 6e b8 4e b5 a5 b8 5d 46 85 b8
       3.4805646e-05 -5.696321e-05 -7.901584e-05 -6.3550404e-05
000040 9c 9d 59 38 90 46 c8 b7 0c 94 ae 38 ae b1 76 b8
       5.1883617e-05 -2.3874716e-05 8.3245424e-05 -5.8816448e-05
000050 62 56 07 b7 60 00 59 b7 76 55 c4 b7 92 8a 0c 38
       -8.06674e-06 -1.2934295e-05 -2.3404817e-05 3.3507655e-05
000060 8b cc 55 36 f7 65 6d 38 73 7c 47 b8 06 0c 40 38
       3.1858533e-06 5.6600165e-05 -4.75612e-05 4.5787565e-05
000070 a9 40 ad 37 7c 17 9d 38 80 24 99 b9 0b 61 40 38
       2.0653317e-05 7.490718e-05 -0.0002920963 4.5866745e-05

encoder.abr_encoder.abr_norm.weight f4 [32]
000000 74 76 5e 3f bb 6c 6a 3f 96 0f 5c 3f d0 07 5b 3f
       0.86899495 0.9157216 0.8596128 0.85558796
000010 d0 c4 6a 3f 9d 89 65 3f e2 5c 65 3f d3 23 7a 3f
       0.9170656 0.89663106 0.8959485 0.97710913
000020 1e 11 61 3f 59 88 76 3f 00 4f 5a 3f 49 a1 75 3f
       0.87916744 0.963018 0.85276794 0.95949227
000030 ee fc 70 3f f7 f3 6c 3f ff d4 65 3f 5f 20 72 3f
       0.9413594 0.9255976 0.8977813 0.94580644
000040 16 5e 64 3f f7 5a 78 3f 9a 4b 5a 3f 2f 8b 5e 3f
       0.89206064 0.970138 0.8527161 0.8693113
000050 21 00 6b 3f f8 61 5c 3f 87 89 6a 3f 5f 1e 62 3f
       0.9179707 0.8608699 0.916161 0.8832759
000060 70 a6 81 3f c5 e8 62 3f 89 4c 7e 3f b0 ee 6f 3f
       1.0128918 0.8863643 0.99335533 0.93723583
000070 3f 62 5a 3f ed 4a 69 3f 96 ff 72 3f d9 36 73 3f
       0.8530616 0.9112995 0.94921243 0.95005566

encoder.abr_encoder.abr_norm.bias f4 [32]
000000 c6 8a 65 be 80 ad 80 be b7 3b b7 be b1 14 a6 be
       -0.22416219 -0.2513237 -0.35787746 -0.3243766
000010 2e c3 15 be 82 ca 4f be f0 9b 9b be 45 77 f8 bd
       -0.14625236 -0.20292094 -0.30392408 -0.12132124
000020 17 81 37 be d4 dd 30 3d 14 fa af be 06 c4 d7 3c
       -0.17920338 0.0431803 -0.34370482 0.026338588
000030 37 cf 3b be 0f d1 78 be 06 a0 12 be 78 9b 76 be
       -0.18340765 -0.242985 -0.14318857 -0.24082744
000040 8b 97 60 be f1 bb b6 3d 3b 1d 9e be fa e1 ba be
       -0.21932809 0.08922566 -0.30881676 -0.3650053
000050 b6 e3 66 be fb 05 59 be 34 be 84 be d6 0b 75 be
       -0.22547802 -0.21193688 -0.25926363 -0.23930296
000060 13 38 11 3d f8 bc 96 be 9e b1 56 be 6b d7 2d be
       0.035453867 -0.29441047 -0.20966193 -0.16976707
000070 fd 58 2c be 2c 6e 99 be f6 37 ac be df 1e e2 bd
       -0.16830821 -0.29966867 -0.33636445 -0.110410444

encoder.abr_encoder.abr_norm.running_mean f4 [32]
000000 37 a3 1c bd 7c f1 4a bc e0 1a 05 bd 75 eb fc bb
       -0.03824159 -0.012386676 -0.032496333 -0.0077184984
000010 c3 24 1f bd 9b 07 0d 3d 66 25 23 3d a5 ef 55 3d
       -0.038853418 0.03443108 0.039830588 0.052230496
000020 fb c9 25 3d cb 7d 5e bd 2f 13 27 bd 80 3b 3b bd
       0.040475827 -0.054319184 -0.04078978 -0.04571104
000030 63 a7 b4 3c bb 6c dd 3c 67 58 cd 3c 89 b1 f4 3c
       0.022052472 0.027029386 0.025066568 0.029869812
000040 8a 41 b7 3c 38 a1 3b bd 7e 06 9d bb 29 b1 f9 bb
       0.022370119 -0.045808047 -0.0047920337 -0.007619996
000050 2e 21 1d bd e4 60 ca 3b f3 73 f3 3c cd 6e cd bb
       -0.03836172 0.006176101 0.029718375 -0.006269312
000060 e1 c6 31 bd 35 e7 1b bc 72 09 2d 3d ef a7 a6 3c
       -0.043402556 -0.009515573 0.042245336 0.020343749
000070 71 6e d2 bc f2 67 a2 bb 7c eb 04 bc 32 2b f4 bc
       -0.025687428 -0.004956239 -0.0081127845 -0.029805753

encoder.abr_encoder.abr_norm.running_var f4 [32]
000000 84 84 20 3f 9e 6b bb 3d c5 1b c3 3e b2 21 25 3d
       0.627022 0.09151386 0.38107124 0.040315337
000010 af be 20 3f 94 21 fb 3e 7c ec 0a 3f 7e e1 8c 3f
       0.6279096 0.49049056 0.54267097 1.1006315
000020 53 8d 16 3f d6 3a 86 3f f1 0a 21 3f 19 b6 59 3f
       0.58809394 1.0486705 0.6290732 0.85043484
000030 4e 43 2a 3e c6 38 9b 3e 2c 6e 80 3e c5 8f 93 3e
       0.16627237 0.30316752 0.25084054 0.28820625
000040 66 94 3c 3e 67 fa 59 3f eb c7 05 3d a4 b2 1e 3d
       0.18415985 0.8514771 0.03266136 0.038744584
000050 a9 af 18 3f 5c c9 7e 3d 77 dc c5 3e 3d 85 3f 3d
       0.59643036 0.06220375 0.38644764 0.046757925
000060 49 60 22 3f d9 bf 8e 3d 9a 73 42 3f 44 1b 47 3e
       0.6342817 0.06970186 0.75957644 0.19443995
000070 5f 7d 8f 3e da 58 b0 3c be 0a 1a 3d 8a 24 9b 3e
       0.28025338 0.021526743 0.0376079 0.30301315

encoder.abr_encoder.attention.q_projection.weight f4 [64, 1]
000000 4e 5e 9c 3e 16 2e 50 3e 43 ee 5c 3a f4 72 db 3d
       0.305407 0.2033008 0.0008427838 0.10715285
000010 a8 c2 31 3d dc 40 04 be 5b 8a af 3d 74 a2 1c 3e
       0.04339853 -0.12915367 0.08571311 0.15296346
000020 dc a0 46 39 ec 6b 49 3e 2a fd c0 3d bb f8 23 be
       0.00018942676 0.19670075 0.09423287 -0.16012852
000030 c3 d9 d5 3d 55 f1 d9 3d 76 3a 55 3e 53 3f 5f be
       0.104419254 0.106417336 0.20823082 -0.218015
000040 3b 65 7a be 4b eb 10 be 9c 93 04 3d 6b 4d 37 be
       -0.24452679 -0.14152257 0.032367334 -0.17900626
000050 3c 43 be bd c3 2c 3c be e8 01 44 be b3 c8 e9 3d
       -0.09290168 -0.1837645 -0.19141352 0.114152335
000060 fe 4d 23 3e fc ba 5a 3d e0 17 61 3e bc 34 b5 bd
       0.1594772 0.05340098 0.21981764 -0.08847949
000070 b4 5b 17 3c 49 9d 1c 3e 4e 2a 66 3e 15 0b de 3d
       0.009238172 0.15294375 0.22477075 0.108419575
000080 20 c0 28 be 1c d3 c2 3d d6 0e 1c 3e 82 f0 1a 3e
       -0.1647954 0.09512922 0.15240034 0.15130809
000090 06 bf 75 be eb b0 3a bd 8e c1 33 be 0f c2 a0 be
       -0.23998651 -0.04557888 -0.17554304 -0.31398055
0000a0 99 88 98 be 86 6e 0f 3e 0b 91 76 be 09 c0 63 be
       -0.29791716 0.14007005 -0.24078767 -0.22241224
0000b0 24 18 9d bd 08 3c a5 bd 56 5f e9 3d 96 ce 6b be
       -0.0767062 -0.08068091 0.11395137 -0.23028025
0000c0 17 0c e4 bd d1 41 dd 39 ac fa 3d 3d 5f fb 21 bd
       -0.111351185 0.00042201442 0.046381637 -0.039546367
0000d0 56 cb a9 bd 45 61 0d be 79 c6 43 bd db ed fe 3d
       -0.082907364 -0.13806637 -0.0477967 0.12447711
0000e0 4d eb de bd 14 c4 92 bc 97 cc 4b be 1b 9d 75 3d
       -0.10884724 -0.017915763 -0.19902264 0.05996428
0000f0 b8 10 47 be d7 b7 85 3d b9 15 99 be d4 b9 d0 3d
       -0.19439971 0.06529205 -0.29899386 0.10191694

encoder.abr_encoder.attention.q_projection.bias f4 [64]
000000 42 89 ec 3b ed 47 d1 bb ba 1e 2d bb 20 b2 d2 bb
       0.007218511 -0.006386748 -0.002641602 -0.0064299256
000010 88 f2 e4 bb 0b 80 d1 3b ed 94 d4 bb e0 2e e4 3b
       -0.00698692 0.0063934377 -0.00648748 0.0069635957
000020 59 ff 09 3c be a8 df 3b 49 d4 d4 bb 1b b5 de bb
       0.008422696 0.0068255356 -0.006495033 -0.006796492
000030 d9 cc de 3b d9 b0 dd bb 7a ba cf bb ce 44 e8 bb
       0.006799322 -0.0067654666 -0.0063393684 -0.0070882803
000040 2e 8c 5e b9 a5 d0 3f 3b 53 e0 8d bb a9 7c f8 3b
       -0.00021223791 0.002926865 -0.00432972 0.00758322
000050 5e c2 59 3b 2b 7e 8b 3a 4a 1a 84 3a 71 b6 45 bb
       0.0033227424 0.0010642459 0.0010078636 -0.0030168558
000060 67 77 6b bb 18 49 72 bb ac 3d 6c bb b9 25 61 3b
       -0.0035929324 -0.0036969837 -0.0036047501 0.003435476
000070 12 a9 26 ba 43 9d 13 bc c7 29 a0 bb 3d de 48 bb
       -0.0006357591 -0.009009662 -0.0048877927 -0.0030650042
000080 cf 5a cb 3c 3e 6c 3b 3b a7 23 ae bc 6e e9 65 3c
       0.024823574 0.0028598453 -0.021257235 0.014032705
000090 48 a4 99 3c 00 11 96 3c fa ec 77 bb f1 21 4d bc
       0.018755093 0.018318653 -0.0037830458 -0.012520299
0000a0 46 10 66 bc 74 b0 97 bc d4 3b 65 bc 32 a5 30 bc
       -0.014041966 -0.018516757 -0.013991315 -0.010781573
0000b0 74 11 9a 3c d7 cd 65 bc 27 cf b2 bc 50 2f ab 3c
       0.01880715 -0.014026127 -0.021827294 0.020896584
0000c0 09 08 53 3b 62 ca 15 bb e7 4d 0d bc 4a 33 b5 3c
       0.0032200834 -0.0022856225 -0.00862453 0.022119183
0000d0 c0 4f 00 bb ba 00 3f 3b d8 af 9d 3b 06 e9 36 3b
       -0.0019578785 0.002914472 0.004812222 0.002790989
0000e0 1b 21 27 3b 10 e1 09 3c 44 f1 de ba 54 40 a4 bb
       0.002550191 0.0084154755 -0.0017009159 -0.0050125513
0000f0 6f 11 e8 ba d6 f4 1e 3b 6b 7f e2 ba 2a e7 39 3b
       -0.0017705391 0.002425482 -0.0017280405 0.0028366544

encoder.abr_encoder.attention.k_projection.weight f4 [64, 1]
000000 dd 2d 00 3e 6f bc 4f be 0f 20 87 3a a4 8f 1a be
       0.12517495 -0.20286725 0.0010309237 -0.15093857
000010 07 7a d5 bd f9 e7 e6 3d df 8f 0f be 1b 40 39 3e
       -0.104236655 0.11274714 -0.14019726 0.1809086
000020 18 e3 81 3d c7 1c 90 3e b1 1f ad bd 18 49 8d be
       0.06342143 0.28146955 -0.0845331 -0.2759483
000030 21 01 4c 3e 50 84 39 bd 2d 80 c2 bd ac 18 21 be
       0.19922306 -0.0452922 -0.09497104 -0.15732068
000040 9a d0 7a 3e 6f 34 7b be cd 00 30 3d 20 26 dc 3c
       0.24493638 -0.2453172 0.042969514 0.026873648
000050 ef 80 fc bd 02 c6 0a 3e 87 01 0e 3e 56 89 56 3e
       -0.1232928 0.13552096 0.1386777 0.20950827
000060 23 e2 c9 3d d6 35 93 3d b5 26 d9 3d 1d f8 d0 bd
       0.09857585 0.07188003 0.10603086 -0.10203574
000070 64 27 1a be 18 ea d3 3c 52 1f 47 3d 1f f6 44 3e
       -0.15054089 0.02586846 0.048613854 0.19234513
000080 cd 94 ea ba 25 1e 36 3d 7f 18 4d bd 12 4c 93 3e
       -0.0017897129 0.04446234 -0.05007219 0.28768975
000090 c9 d4 55 3e 8c a5 5f 3e 2c d6 7f bd 61 91 47 be
       0.20881952 0.21840495 -0.06246011 -0.19489051
0000a0 d0 43 94 be 10 70 6f be d0 b1 91 be be 99 10 be
       -0.28957987 -0.23382592 -0.28455973 -0.14121148
0000b0 5d 80 2b 3e c3 de 93 be f1 44 05 bd bb 5d 86 3d
       0.16748185 -0.2888089 -0.03253645 0.065608464
0000c0 5c 7f e5 3d 3f ee 84 39 9e 40 f2 bc 62 82 16 bb
       0.112059325 0.0002535451 -0.029571828 -0.0022965898
0000d0 4c d6 26 be 4e 2b fa 3d e3 2c ed 3d 92 ea 40 3d
       -0.16292685 0.12215291 0.11580827 0.047098704
0000e0 98 d6 34 3e fb 5e 8b 3d 6d 55 8c be 39 7a 9d bd
       0.17659986 0.068052255 -0.27408925 -0.07689328
0000f0 b8 df 7e be cf ce b0 3d 0d aa 89 be e9 d2 81 3d
       -0.2489003 0.086331956 -0.2688755 0.06339056

encoder.abr_encoder.attention.k_projection.bias f4 [64]
000000 3f 5f 94 b5 42 c8 b0 35 b5 46 e7 32 51 99 22 b6
       -1.105458e-06 1.3171305e-06 2.6924093e-08 -2.4229123e-06
000010 23 39 94 b5 51 bf 2a b5 c6 ed c3 35 a3 f4 90 b5
       -1.1043488e-06 -6.3608337e-07 1.4597833e-06 -1.0800035e-06
000020 86 4f ac b3 39 a1 88 b5 a4 40 4b 35 00 8b 1d 36
       -8.0238394e-08 -1.0179712e-06 7.571746e-07 2.3475732e-06
000030 32 1a 91 b6 7b 20 12 b6 a0 87 06 b4 80 17 7c 36
       -4.3243863e-06 -2.1774601e-06 -1.2529063e-07 3.7564605e-06
000040 44 21 a9 b7 39 7e 32 b7 9a 14 b4 35 42 c0 0a b7
       -2.016186e-05 -1.0639015e-05 1.3417041e-06 -8.2702045e-06
000050 3c 39 2e b6 50 4c 0e b7 33 e5 b3 b6 7e f6 52 36
       -2.5961335e-06 -8.481627e-06 -5.361298e-06 3.1435916e-06
000060 f5 3b c9 36 e3 99 2c 36 2c 42 84 37 7c f5 9c b6
       5.9972467e-06 2.571957e-06 1.576644e-05 -4.6777404e-06
000070 ff a5 cd 34 0e 78 cf 36 8e b4 1a 37 1b 74 c0 36
       3.8305004e-07 6.183057e-06 9.221154e-06 5.7355624e-06
000080 41 e8 cd 35 53 25 c2 b4 1f d3 fc 35 fe 0f d4 35
       1.5341285e-06 -3.6162473e-07 1.8836907e-06 1.5799885e-06
000090 f8 38 0f 36 82 bb d4 b4 b9 75 46 b6 42 b6 29 b6
       2.134182e-06 -3.9624507e-07 -2.9572823e-06 -2.528905e-06
0000a0 8b 53 19 36 04 f3 88 35 ad 89 96 b6 2c 50 4d b6
       2.2847405e-06 1.0203516e-06 -4.486376e-06 -3.0594047e-06
0000b0 9c 78 22 b5 73 df 4a b5 96 6a 51 35 70 95 43 b6
       -6.052521e-07 -7.5576025e-07 7.801367e-07 -2.9144248e-06
0000c0 b1 ae 99 35 59 4b 56 33 32 12 c2 34 96 7a de b2
       1.145023e-06 4.9894286e-08 3.6148555e-07 -2.5899947e-08
0000d0 56 2c 91 35 40 e0 31 b6 4e 16 89 35 d7 76 1f 32
       1.0816245e-06 -2.6505586e-06 1.0213787e-06 9.282039e-09
0000e0 c9 a2 a0 b5 24 35 bd 2f b5 40 1d b6 a1 bb 3d b5
       -1.1968306e-06 3.4416658e-10 -2.3432488e-06 -7.068102e-07
0000f0 5b 3c 6e b5 93 21 cd 34 25 b8 11 b6 fa 8d 88 32
       -8.874974e-07 3.8208654e-07 -2.171387e-06 1.5897047e-08

encoder.abr_encoder.attention.v_projection.weight f4 [64, 1]
000000 52 b4 50 be 05 ed 3b 3e da b6 26 be d6 6f 30 be
       -0.20381287 0.18352135 -0.1628069 -0.17230162
000010 04 51 16 be 65 f2 04 3e c5 55 14 be 2a 90 89 3d
       -0.14679343 0.12983091 -0.14485843 0.0671695
000020 1a e9 26 3d 18 60 3c be 56 06 65 3c 72 ea 5d 3e
       0.040749647 -0.18396032 0.013978561 0.21671465
000030 6f 31 56 be df 3c 95 3e e9 3d 7b 3a 59 e2 3c 3e
       -0.20917295 0.29148003 0.00095841155 0.1844572
000040 ea f9 d3 bd a6 7f 87 3e c1 8b 30 be b9 d6 29 be
       -0.10350402 0.26464576 -0.17240812 -0.16585816
000050 74 e1 72 3e 6a 1f 55 be 8f 89 94 3e 18 b9 6f bd
       0.23718816 -0.20812765 0.290112 -0.05852613
000060 f0 40 15 be 53 87 a5 3e 3f a4 90 3e eb 30 95 3d
       -0.14575553 0.32329807 0.2825031 0.07284721
000070 9e 42 9c be d6 67 86 3c a6 0c 71 bc 3a 01 2a 3e
       -0.30519575 0.016406935 -0.014712488 0.1660203
000080 ff 94 e1 3c 80 e1 8a 3a 04 ae a5 be 4a 1c 0a be
       0.027536867 0.0010595769 -0.32359326 -0.13487354
000090 57 1b 3f 3e f0 b8 82 be e8 0f 47 3d d5 5f 7d be
       0.18662773 -0.2553172 0.048599154 -0.24743588
0000a0 f4 7c 34 bd 53 00 df bc 47 a8 2c bc b1 a3 44 3c
       -0.044064477 -0.027221834 -0.010538167 0.012001918
0000b0 6c 60 cd bc 43 f1 9c bd 14 e5 20 3e 98 c3 86 3d
       -0.025070392 -0.076632045 0.15712386 0.06580275
0000c0 a9 26 b4 bd 30 6d 5c 3e 1d 86 af 3e 0b 44 67 3e
       -0.08796436 0.21526027 0.34282008 0.2258455
0000d0 8b 93 f3 3d 49 75 ea bd 0e 15 25 3e 72 cc 65 bd
       0.11893376 -0.114481516 0.16121313 -0.056103177
0000e0 ad a1 53 3e 41 2b ad 3e a8 b3 99 3c ca 40 ce bd
       0.20667143 0.33822063 0.018762425 -0.10070951
0000f0 49 2f 36 3d b0 1b 62 3c c1 4d 6c 3e 2e d6 8d bd
       0.04447869 0.0138005465 0.23076536 -0.06925617

encoder.abr_encoder.attention.v_projection.bias f4 [64]
000000 5c 6d 4a 3c 64 ce 47 3c d7 c3 44 3c 4c 8e 59 3c
       0.012355175 0.012195203 0.0120095825 0.013278555
000010 fb 82 36 bc e2 36 42 3c 17 00 1f bc b4 0e 2b bc
       -0.011139627 0.011853905 -0.009704611 -0.010440517
000020 c2 f8 1c 3c 5d 38 35 bc 5f 5e a4 3b f5 c5 43 3c
       0.009580793 -0.011060801 0.0050161327 0.011949052
000030 c2 68 41 bc af 41 4c 3c 76 b2 d6 bb a0 f5 43 3c
       -0.011804761 0.012466832 -0.006552036 0.011960417
000040 74 c8 93 bc 82 39 a6 3c f8 25 95 3c 98 32 9e bc
       -0.01803992 0.020291094 0.018206581 -0.019311234
000050 42 9a a3 3c 74 82 a2 bc 21 ce a7 3c 05 f6 5d 3c
       0.019971017 -0.019837596 0.020484032 0.013547425
000060 d0 c1 95 bc 51 8b a8 3c 95 e3 a7 3c ee c2 80 bc
       -0.018280894 0.020574244 0.020494262 -0.01571795
000070 64 61 a5 bc 6a a5 86 bc 7f 47 16 3a 64 6e 93 3c
       -0.020188041 -0.016436297 0.00057326996 0.017996974
000080 95 79 e8 3a 50 b8 39 37 48 0d 43 bc 11 d9 3a bc
       0.001773643 1.1069773e-05 -0.011905022 -0.011404292
000090 2a 69 e1 bb af 53 41 bc 3b 4c 11 3c 99 66 59 bc
       -0.0068789916 -0.011799737 0.008868272 -0.01326909
0000a0 ec 01 09 bc 50 da fa ba 7e 51 c7 3a 23 1a d6 3b
       -0.008362275 -0.0019138549 0.0015206782 0.0065338775
0000b0 57 64 c1 bb d0 9c c5 3b 1c 1d 59 3c 4e a6 28 3c
       -0.005901854 0.0060306564 0.013251569 0.010293556
0000c0 ce 29 c0 38 82 70 8d 3c 7b 8b cb 3c f6 0d 8a 3c
       9.16306e-05 0.017265562 0.024846783 0.01685236
0000d0 4e c0 89 3c 4a c7 86 bc 1f a8 0a bc 08 a7 10 3c
       0.01681533 -0.01645245 -0.008462935 0.008828886
0000e0 9c 18 bb 3c 95 08 78 3c a8 89 3c 3c 05 9a 2a 3c
       0.022838883 0.015138765 0.011507429 0.010412698
0000f0 24 69 a8 3c 4d d7 34 3c ea d7 aa 3c c6 12 00 bc
       0.020557947 0.01103766 0.020854909 -0.007816976

encoder.abr_encoder.attention.output_projection.weight f4 [1, 64]
000000 a6 33 27 3e e7 49 68 3e cd 64 d9 3d 27 0c 9c 3b
       0.16328296 0.22684442 0.10614929 0.004762191
000010 91 09 ef bd a5 f6 5f 3e f6 ea 7f bd 6a 58 3b bd
       -0.116717465 0.21871431 -0.062479936 -0.045738615
000020 57 92 2d 3e b4 5d b8 bd 6f 11 31 3d 8a 82 16 3e
       0.16950355 -0.090022475 0.043229517 0.14698234
000030 57 32 08 be a5 b1 63 3e 29 4c 8f b9 24 c3 31 3e
       -0.13300453 0.22235735 -0.0002733183 0.17359596
000040 9c c1 4a be 44 84 12 3e 9f 94 3e 3e 09 04 28 be
       -0.19800419 0.14308268 0.18611382 -0.1640779
000050 94 3e a3 3e 27 23 62 be ce cb 08 3e 6d 6c 10 3d
       0.3188368 -0.22083722 0.13358995 0.035259653
000060 29 c9 d1 bc 51 d1 16 3e b7 30 fb 3d 3f 3a 92 bd
       -0.025608616 0.14728285 0.12265151 -0.07140016
000070 57 9a 92 be 1e ff 13 be 07 73 f7 38 48 68 e7 3c
       -0.28633377 -0.14452788 0.00011799303 0.028247967
000080 04 56 cd 3a 50 c5 5f 39 01 c4 8b be be 1d 8d be
       0.0015665893 0.00021340442 -0.27297977 -0.27561754
000090 1b 6f 94 bd 60 4b 8e be b2 58 bb 3d c3 6f df bd
       -0.07247754 -0.27791882 0.09147777 -0.10909989
0000a0 9e 18 9a bd d7 98 f0 ba dd e3 b3 3b 35 2b 81 3d
       -0.075242266 -0.0018356097 0.00548981 0.06307069
0000b0 d9 8a 95 bb 10 a2 68 3d cf 9d 9e 3d 22 cd 58 3e
       -0.004563671 0.05679518 0.07744943 0.21172002
0000c0 44 be a8 3c c8 5d 29 3e 7c 6e 83 3d 7b 6d 3c 3e
       0.020598538 0.16539681 0.064175576 0.18401138
0000d0 94 3a b6 3c f0 2f 3c be de 1b d9 bd 96 ff d4 3d
       0.02224473 -0.18377662 -0.10601018 0.10400312
0000e0 72 2c 9a 3d b2 a4 b3 3e 58 6c ab 3d e0 d4 41 3e
       0.075280085 0.3508659 0.08370274 0.18928862
0000f0 9a 1b ef 3b 5d b5 c5 3d 4f 43 bf 3d 39 66 31 3b
       0.0072969915 0.09653733 0.0933901 0.0027068986

encoder.metadata_encoder.metadata_projection.weight f4 [48, 12]
000000 b1 b4 a3 3d c2 8c af bd ba c5 11 3e 23 05 ca 3d
       0.079934485 -0.08571769 0.14235583 0.09864261
000010 c6 11 47 be 12 08 a0 be 32 4f 75 be 72 f7 03 bd
       -0.19440374 -0.31256157 -0.23955992 -0.032218404
000020 49 22 94 3a 8d 81 03 3e 73 83 ce 3e fa b4 30 3e
       0.0011301722 0.12842388 0.40334663 0.17256537
000030 73 16 65 3c c7 60 98 bc da 94 22 3e 5b bd a2 3d
       0.013982403 -0.018600835 0.15877095 0.07946273
000040 be 5f ae 3d 3d e6 a5 3d 3f f0 21 3e 92 68 03 3d
       0.08514355 0.08100555 0.15814303 0.032082148
000050 a3 44 05 3e dc db 39 3e e8 88 32 be e5 79 90 3c
       0.13014464 0.18150276 -0.17435038 0.017636249
000060 33 26 1c be 44 1e da bd 00 1b 82 3d cf 3c dc 3d
       -0.15248947 -0.10650304 0.06352806 0.10753786
000070 c9 bd 46 bd 97 fd 18 3e 45 7e bf 3d 42 3d fd 3b
       -0.048520837 0.14940487 0.09350256 0.0077282498
000080 ef fe 70 bd c1 a9 3a be 0a 71 2d be be f6 52 bc
       -0.058836874 -0.18228818 -0.16937652 -0.012876211
000090 c3 67 76 3d ba fd fe bd b3 fa 57 3e a7 c9 b3 3e
       0.06015755 -0.12450738 0.21091728 0.35114786
0000a0 22 f3 19 bd fa 97 42 3e 6d 76 04 3e cf 06 9e 3c
       -0.037585385 0.19003287 0.12935801 0.019290356
0000b0 61 20 7a bc 2b 72 7a 3e 00 d0 3a be c5 4d 88 bc
       -0.015266509 0.24457614 -0.18243408 -0.016638646
0000c0 7f 8f 52 3c 64 ef 67 3c 75 83 8d be 49 fe 78 be
       0.012851595 0.014156196 -0.27639356 -0.24315752
0000d0 73 a3 e1 bd 11 bd 9c be 41 76 88 be c9 7d 0d 3c
       -0.110175036 -0.30612996 -0.2665272 0.008635947
0000e0 45 80 de bd ca 82 da bb f2 81 e0 be f7 98 9c bc
       -0.10864309 -0.0066684233 -0.4384914 -0.019115908
0000f0 ea a9 90 bd ff 47 89 3d 3c 6f 24 3e ff 20 f2 3d
       -0.070636585 0.06703185 0.16058058 0.118227
000100 a7 f3 d2 bd 85 0e 20 3e 78 27 4d 3d 0a 7d 2a 3c
       -0.10300379 0.15630539 0.05008647 0.010405788
000110 88 5d 40 be c4 df 51 bd d7 05 b9 3e 57 b1 fe 3c
       -0.1878568 -0.05123879 0.36137268 0.031090422
000120 59 4d cd bd 12 57 81 3c d6 e6 7e be 19 c2 1f bd
       -0.100245185 0.015788589 -0.24892744 -0.039003465
000130 ec d4 a8 bd eb 12 aa bd 02 9e 84 be e3 c7 01 3d
       -0.082437366 -0.083043896 -0.259018 0.031684767
000140 64 18 49 bc 66 68 6c 3e 3e f2 d1 3e 2b 27 0a 3e
       -0.012273882 0.230867 0.4100513 0.13491504
000150 e5 24 36 bc b5 30 20 3b 37 26 e9 bd e8 d4 00 3e
       -0.011117195 0.0024443094 -0.11384242 0.12581217
000160 fa 70 58 be f0 8a 8e be 51 6e c2 bd cc 0a 8b bd
       -0.21136847 -0.27840376 -0.094936974 -0.06789169
000170 97 97 0e be 7d 6e 18 3d a7 8a 77 3e 40 58 cc bc
       -0.13925014 0.037214745 0.24173985 -0.024944425
000180 b8 e5 98 bd 5f e7 97 3d f0 31 37 bd df 04 0a 3e
       -0.074656904 0.074171774 -0.04472536 0.1347842
000190 a2 1d 8e 3d 21 98 26 be 47 6b ca bc cb 7c 67 bd
       0.06939246 -0.1626897 -0.024709357 -0.056515496
0001a0 89 ef 4c be 2b 08 de 3d 3c 94 f7 3e f5 fa 0b 3e
       -0.2001325 0.10841402 0.4835528 0.13669951
0001b0 0e 84 ae bc 0d 1f ad bd 93 f1 9f 3e 61 d5 f5 bd
       -0.021303203 -0.08453188 0.31238994 -0.120035894
0001c0 25 b4 9f 3e b5 5e 3c be be 1e 87 be 81 75 bc bb
       0.31192127 -0.18395503 -0.26390642 -0.0057513122
0001d0 65 1c d2 3d eb f5 26 be 86 e3 50 be b1 a3 57 bd
       0.10259322 -0.16304748 -0.20399293 -0.052646343
0001e0 fa a7 51 bd e1 2f fc bb 5d 67 11 3e 8a da 43 be
       -0.051185586 -0.0076961373 0.14199586 -0.19126335
0001f0 7e a1 8e 3d f0 c3 7e bd 7a 4f 04 be 70 99 af 3c
       0.06964396 -0.06219858 -0.12920943 0.02143547
000200 8e 77 4f be 54 fc 23 be af e1 c1 3e 8f 23 8b bc
       -0.2026045 -0.16014224 0.37867495 -0.01698473
000210 48 b7 e6 3d 56 5d b4 bd 6f 61 18 be 12 61 6e be
       0.11265427 -0.08806865 -0.14880918 -0.23279217
000220 f9 0b 8b bb 80 9b 67 3e 63 4b c7 3d 87 0e 83 bd
       -0.0042433706 0.22617912 0.09731176 -0.06399255
000230 51 d0 20 3d d6 7e 7e 3e 27 23 a3 3e 20 2e 9f 3d
       0.039261166 0.24853072 0.31862757 0.077724695
000240 27 8d d0 bc 05 54 73 3c b5 33 38 3e 08 f2 20 3e
       -0.025457932 0.014851575 0.17988475 0.15717328
000250 28 06 e9 bd 7a e8 c5 3d ae ca 28 3d 35 ca 00 bd
       -0.11378127 0.09663482 0.041208915 -0.03144284
000260 d0 a9 04 be 59 b3 4b bd 15 c1 17 be fd d5 e6 3d
       -0.12955403 -0.049731586 -0.14819749 0.11271284
000270 e1 89 56 3d 2d c9 7d 3d ed 06 d6 bd bc 92 78 be
       0.052377585 0.061959434 -0.1045054 -0.24274725
000280 50 f4 a0 be 1d a2 f0 bd 02 bc 1f be 17 46 6b 3d
       -0.31436396 -0.11749671 -0.15599063 0.05743989
000290 6f 49 c5 3c 84 8f 43 3e 36 a2 94 3e 03 f5 ed bb
       0.024082867 0.19097716 0.29030007 -0.0072618737
0002a0 60 9f 4c 3d 8a 9c 25 be 60 26 fd bc 77 79 34 3e
       0.04995668 -0.16172996 -0.030902088 0.1762446
0002b0 45 c1 03 3e 6f 67 fc bd f5 7b a1 bd 39 ee 0d bd
       0.12866695 -0.12324416 -0.07884971 -0.034651015
0002c0 3c 53 6e 3e 50 2c 87 3e cb 60 f8 be 70 75 82 bd
       0.23273939 0.26400995 -0.48511347 -0.06370056
0002d0 a5 ce 8b 38 d6 45 ff bd 15 b6 b6 be d0 2d 15 be
       6.666527e-05 -0.12464492 -0.35685793 -0.14568257
0002e0 d3 45 2c 3e ec a6 07 3b 6d 16 ef bd 88 78 d9 bc
       0.16823511 0.0020698858 -0.11674199 -0.026546732
0002f0 e1 b0 fa 3d 3d 24 04 be 5a e5 a5 3e c5 f0 0a 3d
       0.12240768 -0.12904449 0.32401544 0.033921022
000300 a2 50 62 be ca fc 9a 3d f3 4d 3e bd 77 50 b3 bb
       -0.22101071 0.07567747 -0.046461057 -0.0054722386
000310 d8 bd 10 bd 54 51 af bd ab 56 bd bd 45 c8 af bb
       -0.0353373 -0.08560434 -0.09245046 -0.00536445
000320 01 ef a0 3d 4d ec 99 bd f2 7f a8 3e 33 cc 91 3e
       0.078580864 -0.07515774 0.32910115 0.28476104
000330 93 05 b8 3c ab 0c 7f 3d 68 dd d6 bc ad 39 f9 bd
       0.022463595 0.06226794 -0.026228622 -0.12169204
000340 c1 96 f5 3c 14 5a 39 be 8f 42 54 3d 5f 0f 46 3c
       0.029979112 -0.18100768 0.051821288 0.012088626
000350 00 60 7c 3c bc 33 0f bd 26 81 76 3e a2 0c fa 3d
       0.015403748 -0.034961447 0.24072704 0.12209441
000360 8a d3 83 3c 28 fb 94 bc 47 db 80 3e 57 fe 99 3e
       0.01609208 -0.018186167 0.25167295 0.30076858
000370 b7 0a 7c be 53 49 6c be 06 0c 40 be 84 3e a3 bb
       -0.24613462 -0.23074846 -0.18754587 -0.0049818177
000380 28 ab ee 3d b8 01 c2 3d a6 c0 a2 3e c4 e1 29 bd
       0.11653739 0.09472984 0.31787604 -0.041475073
000390 21 dd 1f 3d 0d 25 e3 3d 49 c2 26 be 86 4e 76 be
       0.039029244 0.11091051 -0.16285051 -0.24053392
0003a0 31 cf 1b be ed d4 09 be 33 8e 07 3e a0 30 74 39
       -0.15215756 -0.13460131 0.13237838 0.00023287768
0003b0 72 a8 85 3d b2 4e 66 be ba e5 bd 3e 38 84 7e bc
       0.06526269 -0.22490957 0.3708933 -0.015534453
0003c0 ae f0 ab bd 99 0a d5 3d e7 ca ae 3d 36 b9 84 be
       -0.083955154 0.10402412 0.08534794 -0.25922555
0003d0 6c 6a 8d 3a 3b c6 87 be ca a1 09 bd 29 c7 95 3d
       0.0010789162 -0.26518425 -0.03360156 0.073133774
0003e0 43 61 de bd a4 82 35 3e f4 7a ab 3e 3f 46 f7 3d
       -0.10858395 0.17725617 0.33492243 0.12073945
0003f0 75 5b 74 bd 80 76 24 3e 84 f0 1f bd 52 1b f2 bd
       -0.059657533 0.16060829 -0.039047733 -0.11821617

encoder.metadata_encoder.metadata_projection.bias f4 [48]
000000 b5 78 08 be d3 68 e5 bc 89 c7 1d bc e9 78 e0 3c
       -0.13327296 -0.028004086 -0.009630092 0.027401404
000010 70 6d f9 bd c3 5d 2d be 8c 08 47 be f1 8e 30 bc
       -0.12179077 -0.16930299 -0.19436854 -0.010776267
000020 54 4c 1b be 26 67 ae 3c 16 7f d7 bd 01 7b 07 be
       -0.15165836 0.02128942 -0.105222866 -0.13230516
000030 83 11 f3 bd 2b ee 13 be 7d b4 25 3d 5e 9b c6 bc
       -0.118685745 -0.14446323 0.04045533 -0.024244007
000040 a1 a5 29 be 7c 29 0d be a0 bd 00 bd fe 92 be bd
       -0.16567089 -0.13785356 -0.03143084 -0.0930538
000050 b9 e8 85 be c9 b2 f1 bc 2c 1a 51 be 19 55 8d 3d
       -0.26154116 -0.029504197 -0.2042014 0.06900997
000060 e9 06 ae bd ba a0 87 be 0b ba e6 bc 94 e2 52 be
       -0.08497412 -0.26489812 -0.028164884 -0.20594245
000070 9a e5 42 be a0 0d c0 bd e5 f5 4f be e7 5a 30 be
       -0.19032899 -0.09377599 -0.20308645 -0.17222176
000080 a8 6f 15 be b5 1d 8a bd 87 a2 79 3c 21 86 fa 3b
       -0.14593375 -0.067439474 0.015236503 0.007645384
000090 47 77 01 be 6e 8c 3a 3c 06 0e 05 be 4f b5 0f be
       -0.12643157 0.01138602 -0.12993631 -0.14034007
0000a0 11 d6 12 be 4f 98 b5 bd f7 8b 11 bd 25 de da bd
       -0.14339472 -0.08866941 -0.03553387 -0.10686902
0000b0 b4 32 e3 3b f8 6d 79 be 17 98 05 bd 9f d5 33 be
       0.0069335345 -0.24358356 -0.032615747 -0.17561959

encoder.encoder_layers.0.0.weight f4 [128, 80]
000000 27 0d 86 bd 4e 43 81 bd 3d 1d 9c 3c 28 ab f4 bb
       -0.06545477 -0.063116655 0.01905691 -0.0074666925
000010 cb e3 32 3e 6e e8 86 bc 29 fe 88 bd e5 f2 b0 bc
       0.17469709 -0.016468253 -0.06689102 -0.021600196
000020 49 7d e0 3b 0b ce a1 bd 22 0f 68 bc ec a9 1d bd
       0.0068508727 -0.07900628 -0.014163764 -0.03849213
000030 03 37 31 3e 03 4b 43 3e 84 4f 3e bd 34 80 37 3e
       0.17306142 0.19071583 -0.04646255 0.1792
000040 c3 14 64 3c 11 a4 21 bd 02 64 ae bd 8d d9 87 bd
       0.013920966 -0.039463107 -0.08515169 -0.066332914
000050 a2 ad 79 bd d8 85 5a bd b6 8a 05 bd 95 60 1b 3d
       -0.060956605 -0.0533503 -0.03260299 0.037933905
000060 49 f2 94 bd 62 bc 83 bd 52 a6 0c 3e 40 be b4 bd
       -0.07272775 -0.064324155 0.13735321 -0.0882535
000070 30 26 42 bd 5d f2 cc bb a6 74 48 3e 21 78 45 3c
       -0.0473997 -0.006254478 0.19575748 0.012052567
000080 75 64 03 bd 30 b9 1e be f4 bd 87 bd 55 3a cd 3c
       -0.032078225 -0.15500331 -0.066280276 0.025052229
000090 76 c6 01 be d5 75 b1 bc 22 a5 36 bd e1 52 99 3d
       -0.12673363 -0.021662632 -0.044591077 0.07486511
0000a0 ed 16 8d 3d 35 a6 e6 bd 5e 18 42 3e d3 c0 ef 3d
       0.06889138 -0.1126217 0.18954608 0.117067
0000b0 37 b0 2e be c5 a9 55 3e ba 49 e6 bd 13 6f df 3d
       -0.17059408 0.20865543 -0.11244531 0.109098576
0000c0 2c 62 65 3d 58 58 2f 3e a6 e1 7d 3d 6d 2e 36 3e
       0.056001827 0.17123544 0.061982773 0.17791148
0000d0 f8 2a 99 3d a5 11 fd bd 41 ce 40 3e 80 f3 14 3d
       0.07478899 -0.12356881 0.1882868 0.036365032
0000e0 83 07 31 bd 25 93 28 3e 5f 5b 0e bd da 8b 15 3e
       -0.043220054 0.16462381 -0.034755107 0.1460413
0000f0 03 35 90 bd 12 e5 7c bd 66 7c 25 3e cf 47 2c bd
       -0.07041361 -0.061741896 0.16160735 -0.04206067
000100 d7 97 31 3e 79 ff 4e bb 88 48 b4 bd 37 69 42 be
       0.17343079 -0.003158538 -0.08802897 -0.18985449
000110 03 72 ed 3b 4b a4 58 bd a3 86 8b bd 75 1e 47 3e
       0.0072462573 -0.052891057 -0.06812789 0.19445212
000120 3e ed c7 3d 36 88 8d 3e d3 0e 79 3c 15 4f 0c 3d
       0.09762047 0.27642983 0.015201288 0.034255106
000130 d5 e5 6a be c6 5f 9a 3d 5a ea 2c be b8 b8 9b 3d
       -0.22939236 0.075377986 -0.16886273 0.07603592
000140 20 89 5c bd b5 90 38 3e 1d 8c 1a 3d 5c 76 30 3e
       -0.05384171 0.18023951 0.03773128 0.1723265
000150 ed 13 9a 3d 4a 70 d4 bd aa 9f ec bc 37 83 29 bd
       0.07523332 -0.1037298 -0.028884728 -0.0413849
000160 1f c9 e5 bd ed 34 1e 3e fc 16 10 3d 1d a8 32 3e
       -0.112200014 0.15449877 0.03517817 0.17446943
000170 79 8f b0 3b 2c 9b b6 3d fc 8b c4 3d e2 46 5b 3d
       0.005388197 0.089163154 0.095970124 0.053534396
000180 13 45 e9 bd 3d 03 fa 3d d5 b8 19 bb c2 52 9a 3d
       -0.11390128 0.12207649 -0.0023456116 0.07535316
000190 48 35 aa bd c7 f7 9a bd d7 74 4a 3d 34 2a 9e 3d
       -0.08310944 -0.07566791 0.049427833 0.07722893
0001a0 ef a6 b8 3d f9 88 97 bd 44 d5 b6 bd 3a d3 f5 bd
       0.09016215 -0.07399172 -0.08927396 -0.12003179
0001b0 e3 65 6b bd c6 3a c8 3d 49 21 25 3d b6 3c b5 3c
       -0.057470214 0.09776835 0.040314946 0.022123676
0001c0 6a dd 6d bd 1c a6 df bc 05 76 a5 3a 62 62 c4 bd
       -0.058072485 -0.027300887 0.0012623674 -0.095890775
0001d0 ef b0 35 3e b6 a5 5c 3c 10 ec 75 3d 84 37 fa 3c
       0.17743276 0.013467243 0.06003958 0.03054405
0001e0 ab da 07 be b6 53 d7 bd 5e 26 84 3d 22 b9 27 bd
       -0.13267009 -0.105140135 0.064526305 -0.04094804
0001f0 45 fb bf 3d 31 1b c1 3d bf de db 3d 68 b6 44 be
       0.09374098 0.094290145 0.10735845 -0.19210207
000200 a7 16 2a 3c a0 97 02 be 64 09 cc bd 20 30 f0 3c
       0.010381377 -0.12753153 -0.099627286 0.029319823
000210 fd c9 9a bd 57 85 e8 3d 07 38 7f bd d2 7a 2e 3e
       -0.075580575 0.113535576 -0.06230929 0.1703904
000220 d8 4a 71 ba fb c1 ab 3d e4 14 b9 bc 0e b5 b3 bd
       -0.0009204573 0.08386608 -0.02259297 -0.08774768
000230 27 03 8a bd 9f b3 0b be 27 bc 02 be 03 04 e6 bd
       -0.067388825 -0.13642739 -0.12767087 -0.11231234
000240 2a ae 1f be 5a 2c 6a 3d 3f 55 d4 3d 4c 6f 52 3e
       -0.15593782 0.057171203 0.10367822 0.20550269
000250 53 96 21 3d ee 09 13 3e 65 7b 32 bb ef 96 6a be
       0.03945 0.14359257 -0.0027234193 -0.22909139
000260 4e d3 77 bd 21 be 7a 3d 5b f0 6c 3c 53 86 14 be
       -0.06050425 0.061216477 0.014461602 -0.14504366
000270 cc 3e 33 3d 2f 52 cd bd 34 d2 38 bd 16 34 8c 3c
       0.04376106 -0.10025441 -0.04512234 0.01711468
000280 ae 8f 10 3d 8a 98 a4 3d 3a d4 ec bd 7b fa 2f 3d
       0.035293274 0.08036907 -0.115639165 0.042963486
000290 0f 72 08 3e 74 bd 8c 3d 82 d4 18 3e e4 41 89 bd
       0.1332476 0.06872073 0.14924815 -0.06702021
0002a0 6e 0d 06 3d 8c 08 9d 3d b2 ba b1 3c bc 2f b5 3d
       0.03272765 0.07667646 0.021695469 0.08846995
0002b0 73 a7 f0 3d b1 c5 21 3e ad 59 c9 3d 70 93 e6 3d
       0.117506884 0.1579807 0.098315574 0.1125859
0002c0 dc 37 66 3d 4f 17 de bd f4 7f ec 3d 48 b6 95 3d
       0.056205615 -0.108442895 0.115478426 0.07310158
0002d0 ad 07 bf 3d fd 11 e0 bc f5 d4 03 3e 01 b4 ae 3d
       0.09327636 -0.027352327 0.12874205 0.08530427
0002e0 8d 4e a4 3d ea fc b5 bd b2 25 3f 3e 0d ff af bd
       0.08022795 -0.0888613 0.18666723 -0.08593569
0002f0 48 1d 86 3d a1 2e 0b 3e 75 cc c6 3d 40 a9 6c bc
       0.06548554 0.13592006 0.09706966 -0.014444649
000300 02 4c ac bc 89 b4 eb bd 7d e1 59 bd e4 fa dd bd
       -0.021032337 -0.11509044 -0.053193558 -0.10838869
000310 89 db 0e 3c 24 ca 00 3e ed 19 dd 3c 0f f0 30 3e
       0.008719333 0.1257711 0.026989901 0.17279075
000320 94 39 9e 3d 3d 75 18 3d ad 97 65 3e d7 c0 c7 bd
       0.07725826 0.037221182 0.22421141 -0.09753578
000330 95 22 49 bd 4f b3 44 3e be d7 e4 bb 9a 09 15 3e
       -0.049105246 0.19209026 -0.0069837263 0.14554444
000340 80 45 19 3e 18 e5 ee 3d fc ac 12 bd bc dc 69 3d
       0.14967918 0.1166479 -0.035809502 0.057095274
000350 7e b9 1f 3e 32 45 80 bd cd 9e f9 3b c2 af d1 3d
       0.15598103 -0.06263198 0.0076178075 0.10238601
000360 36 6f 67 bc 66 72 3a 3e 7e a4 36 3d b5 5d 49 3d
       -0.014125636 0.18207702 0.044590466 0.04916163
000370 fe 2d e3 3d 0f f0 41 3e 2d fb 27 bd 97 d3 05 3e
       0.11092757 0.18939231 -0.041011024 0.13068996
000380 60 e1 73 3d 8c 66 c5 3d be e0 35 be 17 63 c8 3d
       0.059541106 0.096387 -0.17761514 0.09784525
000390 40 6d 15 3e 91 f3 cf 3d 0b a7 16 3e 5c cf 1d bd
       0.14592457 0.101538785 0.1471216 -0.03852783
0003a0 06 89 fe 3c ba 54 92 bd 56 0a 0f be 46 39 f0 3c
       0.031071197 -0.071450666 -0.13968787 0.029324185
0003b0 8d 0f d8 bb 65 eb 2b bd c2 6b d3 3d 38 7d 3b 3e
       -0.0065936507 -0.041972537 0.103232875 0.18309486
0003c0 97 79 a8 bd ec 91 26 be b0 7d e9 bc 72 fa a9 bb
       -0.082263164 -0.16266602 -0.028502315 -0.005187326
0003d0 91 41 eb 3a d3 77 17 3e 10 0f ae ba 9c 33 1b bc
       0.0017948617 0.14791803 -0.0013279635 -0.009472754
0003e0 a1 ab d9 3d 9c a9 9e bc 6e 52 11 3e 4d b2 82 bd
       0.10628439 -0.019367985 0.141916 -0.063816644
0003f0 13 7c df bc ce 3e 12 3d 9e 74 f3 bd e6 9c 11 3e
       -0.027280843 0.035704426 -0.11887477 0.14220008

encoder.encoder_layers.0.0.bias f4 [128]
000000 65 21 66 b8 a6 5e c0 37 08 64 61 37 ae 7d a4 37
       -5.4867374e-05 2.2932258e-05 1.3434335e-05 1.9608848e-05
000010 be df a2 b6 4f 5c 5b b8 ee 70 a6 36 0f 7c a5 b6
       -4.8540232e-06 -5.2299638e-05 4.9603323e-06 -4.9318255e-06
000020 50 d1 f7 b6 58 17 c3 36 bf 60 84 b7 af 62 6f 37
       -7.385541e-06 5.8141704e-06 -1.5780677e-05 1.4268487e-05
000030 5c df 0e b7 0b f4 66 b5 33 fc ff b7 3c be 26 37
       -8.5158645e-06 -8.6036806e-07 -3.0515808e-05 9.938663e-06
000040 f3 bd 29 36 43 af 26 b7 fc b0 61 36 94 67 f6 36
       2.5293527e-06 -9.935177e-06 3.3630631e-06 7.3434294e-06
000050 00 3d d5 37 2e 77 f3 37 03 5e b1 36 87 4f 1f b8
       2.5419984e-05 2.9023355e-05 5.2859555e-06 -3.798262e-05
000060 82 7d bd 38 81 bf de 36 3f 15 d5 b7 c6 80 f3 36
       9.0356e-05 6.6384096e-06 -2.5401472e-05 7.2569555e-06
000070 e2 34 de b6 5d 9a 56 37 c7 1d ba b6 ad 15 29 b7
       -6.622272e-06 1.27913345e-05 -5.5466985e-06 -1.0078232e-05
000080 f7 29 a8 37 08 a0 71 b7 48 11 ef b6 aa 9b d3 b7
       2.0046702e-05 -1.440198e-05 -7.124767e-06 -2.5225647e-05
000090 e9 0f e1 b5 61 68 03 b7 15 d9 32 b6 9b 3c af b7
       -1.6768437e-06 -7.832511e-06 -2.6650425e-06 -2.0889847e-05
0000a0 24 50 94 36 e4 89 36 37 63 ea df 35 f8 a8 1e 38
       4.4200733e-06 1.08801505e-05 1.668301e-06 3.78275e-05
0000b0 bd 34 83 37 1a 54 d6 b6 ab d2 cf b7 24 3e ba b7
       1.5640975e-05 -6.3874877e-06 -2.4774423e-05 -2.2201864e-05
0000c0 fd 48 b7 b6 69 fa 9c 37 87 ad 7b b7 ba 9c 0a b6
       -5.462322e-06 1.8713255e-05 -1.5001168e-05 -2.065483e-06
0000d0 ef 8e df 36 11 71 6b b7 f5 ea 05 b7 04 a9 b8 b6
       6.6625576e-06 -1.4033417e-05 -7.982123e-06 -5.5033033e-06
0000e0 d1 be 6e 36 dd 29 88 37 08 ff 00 37 b7 05 2e b8
       3.5575833e-06 1.6231957e-05 7.688774e-06 -4.1490155e-05
0000f0 7d fb a9 b6 ea 66 52 32 2e 50 9d 37 6d 7f 83 37
       -5.0658696e-06 1.2247009e-08 1.8753195e-05 1.5675754e-05
000100 d9 f6 8a b6 1f f8 91 b6 2b df fe 37 bc 41 85 b7
       -4.1414573e-06 -4.350222e-06 3.038308e-05 -1.5885445e-05
000110 c8 5b 56 b8 8e 00 21 b8 a8 18 97 b6 21 2c 2d 38
       -5.1107054e-05 -3.8385908e-05 -4.503021e-06 4.1287512e-05
000120 89 08 15 35 56 94 50 b7 ab 73 4a 37 c3 36 25 b7
       5.5519246e-07 -1.2432303e-05 1.2067069e-05 -9.847517e-06
000130 e5 db de 37 b3 e5 76 37 02 ce 91 37 3b b3 16 37
       2.6566859e-05 1.4716224e-05 1.7381277e-05 8.982427e-06
000140 54 f3 4d b5 0a 25 ab 37 74 06 e5 37 df 57 59 b5
       -7.672254e-07 2.0402036e-05 2.7301932e-05 -8.096667e-07
000150 e1 b4 27 37 37 68 8a 36 52 65 a2 37 14 a4 82 37
       9.99609e-06 4.1248527e-06 1.9359086e-05 1.5573612e-05
000160 04 1d e4 36 b2 31 8e b7 87 aa ad b7 c2 bc ae 36
       6.7983074e-06 -1.695086e-05 -2.0702615e-05 5.2075784e-06
000170 f7 ed 2c 37 c3 6f 8d 35 d3 95 99 b6 0b 79 d2 36
       1.0307404e-05 1.0537846e-06 -4.577197e-06 6.272579e-06
000180 81 16 8d 37 ec 7a 2a b6 61 72 1a b8 b5 06 bf b6
       1.6818989e-05 -2.5403524e-06 -3.6822985e-05 -5.6930244e-06
000190 8d fe b4 36 fb f5 f3 b5 5d 52 68 b8 7a a8 89 36
       5.3940516e-06 -1.8176501e-06 -5.5389817e-05 4.1025314e-06
0001a0 86 9b ff 37 d7 bb ad b6 9a 5f 90 b7 b4 61 a4 b7
       3.047079e-05 -5.177669e-06 -1.7210656e-05 -1.959582e-05
0001b0 16 26 58 b6 08 07 87 37 ee c9 c8 b7 35 3f b6 37
       -3.2208677e-06 1.6096528e-05 -2.3935889e-05 2.1725524e-05
0001c0 9a 6c 7d 37 21 93 03 37 fa 83 ce 37 1f bd a7 37
       1.5105261e-05 7.842465e-06 2.461857e-05 1.9996018e-05
0001d0 16 e9 fa 36 2d 46 f6 35 3c 49 cd b7 e7 da 67 37
       7.4777154e-06 1.8348852e-06 -2.4472007e-05 1.381964e-05
0001e0 e5 2f 1e b7 3a 1a 81 b8 57 99 49 b7 32 50 15 b6
       -9.428685e-06 -6.1560844e-05 -1.2016236e-05 -2.224941e-06
0001f0 d7 52 32 b7 4f a9 87 36 9a 22 89 36 dd 19 5e 37
       -1.0628914e-05 4.0430236e-06 4.0869463e-06 1.3238253e-05

encoder.encoder_layers.0.1.weight f4 [128]
000000 fb 74 89 3f dd 9d 7f 3f d3 8b 7e 3f 2e e9 6f 3f
       1.0738825 0.99850255 0.99432105 0.9371518
000010 de 92 81 3f 8c 3d 76 3f 37 12 71 3f 2d d4 78 3f
       1.0122945 0.96187663 0.9416842 0.97198755
000020 c4 0b 7d 3f a1 39 5f 3f b5 e8 7a 3f 4f a8 86 3f
       0.9884608 0.8719731 0.9801133 1.0520114
000030 ee 16 77 3f a6 54 6d 3f 44 33 85 3f 4b 00 71 3f
       0.9651936 0.9270729 1.040627 0.9414107
000040 b1 ca 78 3f 50 da 60 3f bc 63 6c 3f 43 6b 82 3f
       0.9718428 0.8783312 0.9233968 1.0188984
000050 74 8d 7b 3f d4 12 66 3f 21 d9 6c 3f f2 27 82 3f
       0.98262715 0.8987248 0.9251881 1.016844
000060 7c 20 88 3f 51 a7 81 3f 4a cd 8c 3f 60 57 80 3f
       1.0634913 1.0129186 1.1000149 1.0026665
000070 84 86 87 3f ab 44 79 3f d2 ae 7d 3f ae 2a 88 3f
       1.0587926 0.97370404 0.9909488 1.0638025
000080 97 0f 80 3f 10 c0 82 3f 74 ec 78 3f df e9 79 3f
       1.0004758 1.0214863 0.972358 0.97622484
000090 c9 f3 7f 3f cb be 77 3f 6b b9 74 3f f6 04 7c 3f
       0.9998136 0.967755 0.95595425 0.9844507
0000a0 25 9a 6d 3f a0 99 7c 3f 3d 8e 7b 3f 08 71 7f 3f
       0.9281333 0.98671913 0.98263913 0.99781847
0000b0 d0 f7 6c 3f f4 61 6f 3f be 55 7b 3f 76 53 84 3f
       0.9256563 0.9350884 0.9817771 1.033797
0000c0 47 2f 60 3f 90 10 6b 3f 8f 3b 70 3f 65 90 6c 3f
       0.8757214 0.9182215 0.9384088 0.9240783
0000d0 cb a3 81 3f 7c 81 69 3f 86 47 79 3f 7c f0 86 3f
       1.0128111 0.912132 0.9737476 1.054214
0000e0 5f 6e 71 3f 05 16 7e 3f 44 e8 7d 3f b3 19 89 3f
       0.9430904 0.9925235 0.99182534 1.0710968
0000f0 83 81 77 3f 22 b1 7c 3f 22 97 70 3f b1 51 76 3f
       0.96681994 0.98707783 0.9398061 0.962184
000100 41 d6 75 3f 97 c2 7f 3f bc 55 7e 3f 04 19 69 3f
       0.9603005 0.99906296 0.9934957 0.91053796
000110 2c dd 74 3f df ce 74 3f cb 7c 82 3f 20 c5 81 3f
       0.9564998 0.9562816 1.0194334 1.0138283
000120 30 0d 80 3f 09 6e 8a 3f ec 11 81 3f 09 da 75 3f
       1.0004025 1.081483 1.0083594 0.9603582
000130 c8 b7 6a 3f 22 67 7e 3f db 48 83 3f 15 07 82 3f
       0.9168668 0.9937612 1.0256609 1.0158411
000140 a3 1d 82 3f a2 48 73 3f 41 11 69 3f a3 c7 7a 3f
       1.0165294 0.95032704 0.9104195 0.9796087
000150 88 ef 80 3f fa 11 74 3f a7 7e 7f 3f 72 a9 80 3f
       1.0073099 0.9533993 0.9980263 1.0051711
000160 fb 56 7a 3f d6 d2 74 3f ed 2e 89 3f 5a 85 8a 3f
       0.9778897 0.9563421 1.0717446 1.0821946
000170 15 28 85 3f ab 51 7a 3f ec 25 77 3f bb c1 82 3f
       1.0402857 0.97780865 0.9654224 1.0215372
000180 81 58 83 3f 72 54 5e 3f 90 d3 78 3f 05 50 7f 3f
       1.0261384 0.86847603 0.9719782 0.99731475
000190 af 72 7a 3f 8b 03 80 3f 5e 51 7b 3f 22 ea 71 3f
       0.97831243 1.0001081 0.9817103 0.94497883
0001a0 af 84 6c 3f e6 5c 6b 3f 3a 0b 80 3f 20 1d 7c 3f
       0.9238996 0.91938627 1.0003426 0.9848194
0001b0 27 b8 85 3f 77 f5 73 3f fc 4a 8c 3f 3f c6 71 3f
       1.0446824 0.95296425 1.0960383 0.94443125
0001c0 81 86 73 3f 88 9a 84 3f a6 3d 87 3f 1b 31 78 3f
       0.9512711 1.0359659 1.0565689 0.9694993
0001d0 b3 23 7b 3f f8 6b 6b 3f fe b3 70 3f b0 69 7b 3f
       0.9810135 0.9196162 0.94024646 0.9820814
0001e0 a9 bd 89 3f c1 a1 79 3f 56 68 7e 3f 9f 95 6b 3f
       1.0761005 0.9751244 0.99377954 0.9202518
0001f0 38 2c 76 3f 30 38 6a 3f 77 07 72 3f 8b 3f 6b 3f
       0.9616122 0.91491985 0.9454264 0.91893834

encoder.encoder_layers.0.1.bias f4 [128]
000000 f1 7d 95 3d 27 44 6f 3d ef cf 17 be 7c f1 b6 bd
       0.07299412 0.058414605 -0.14825414 -0.08932778
000010 fa 39 0b be e8 af ba bd f6 a3 72 bd ce a6 f5 3c
       -0.13596335 -0.09115583 -0.059238397 0.029986765
000020 83 d3 80 3d 56 18 70 be f5 b8 dc 3d 8a 0b 6f 3c
       0.06290343 -0.23446783 0.10777465 0.0145901535
000030 95 92 d1 bd ff 19 9c bd 2f cc ee 3d 67 64 82 3c
       -0.102330364 -0.07622146 0.11660039 0.015917016
000040 e3 d2 82 bd 37 2b e5 bd 5e 27 0c be 51 68 fa 3d
       -0.0638788 -0.11189883 -0.13686892 0.12226928
000050 0e f3 56 3d ce fe 39 be 94 0b 2a be 9a 44 51 3d
       0.05247789 -0.18163607 -0.16605979 0.051090814
000060 76 81 3c 3e ce 2e 82 bd 99 bc 24 3e 5a 83 e6 3d
       0.1840876 -0.063565835 0.1608757 0.11255522
000070 36 9d 95 3d be 04 11 bd 24 1b 28 3d e4 83 a3 bd
       0.07305376 -0.035404913 0.04104151 -0.079841405
000080 ee 19 c3 bd e7 a6 c8 bd 22 aa f2 3c 1a e2 95 3c
       -0.0952643 -0.09797459 0.029622141 0.01829629
000090 6b 9f 1d 3d 12 a3 32 3d 36 bd a7 bc 36 fb d1 bc
       0.03848211 0.043612547 -0.020475965 -0.025632482
0000a0 60 d3 e3 3a 7b 99 3f bd 6b 84 33 3d fd 41 5e bc
       0.001738172 -0.04677723 0.043827455 -0.0135655375
0000b0 83 b1 b0 bd 20 c3 be 3c b0 dc 07 bd 25 ba 7a 3d
       -0.08627608 0.023286402 -0.03316945 0.061212678
0000c0 a3 7b 0d 3d 70 46 35 be bf 1f 4a bc b4 05 a2 3d
       0.034541737 -0.17702651 -0.01233667 0.07911244
0000d0 bc bc f5 3c 0e d4 a1 3c 90 38 b2 bd 21 5d aa 3d
       0.029997222 0.019754436 -0.08702195 0.08318544
0000e0 88 df 4b bd 8a df 85 bd 91 e9 b2 bd 8f ad a5 3d
       -0.049773723 -0.06536777 -0.087359555 0.08089744
0000f0 97 56 0f be 7f 06 57 bc 43 2f 54 bd 97 5b 83 be
       -0.13997875 -0.013124107 -0.051802885 -0.25655815
000100 03 8f 9d bd 9d 91 b8 3b 25 57 e5 bc f4 e0 56 bd
       -0.07693293 0.005632593 -0.027995655 -0.052460626
000110 37 28 19 be d7 0c 69 3d 41 a5 89 3d 46 34 10 bd
       -0.14956747 0.05689701 0.06720973 -0.0352061
000120 99 44 2e bd b7 35 01 be c2 cc 87 3d 92 21 27 bc
       -0.04254589 -0.12618147 0.06630851 -0.010200875
000130 90 b4 eb bd 7e 30 6f 3d df 1f c7 3d a5 73 28 bd
       -0.11509049 0.058395855 0.09722876 -0.041125912
000140 75 a2 d2 3d fa cf b6 3a 73 d0 6c bd 8f 2e 28 be
       0.102848925 0.001394748 -0.05781598 -0.1642401
000150 dc e6 ce 3d 8d 07 75 3c e7 63 39 3d ee 00 89 bd
       0.10102627 0.0149554135 0.04526129 -0.066896304
000160 71 65 bc 3d 50 ed ab bc 37 ef 1d 3e ea ac a5 bd
       0.09199036 -0.020987183 0.15423284 -0.08089621
000170 5c f7 4f be de 90 96 ba 1a f0 df bd 0d 35 40 bd
       -0.20309204 -0.0011487266 -0.109344676 -0.046925593
000180 51 ed db 3d 62 eb 73 be 7a f4 2c bc a2 a2 41 3d
       0.10738624 -0.2382026 -0.010556335 0.04727424
000190 14 a2 0c 3e be cb 71 bd 46 bd 42 bc 4a 8f 8c bd
       0.13733703 -0.059032194 -0.011885947 -0.06863268
0001a0 50 95 c2 bd 10 40 59 3d c8 33 91 bd 05 60 8a 3d
       -0.09501135 0.05303961 -0.070899546 0.067565955
0001b0 14 1a de bd e2 d5 82 3d 70 89 f1 3d dc ca ce bb
       -0.10844818 0.06388451 0.11793792 -0.006310804
0001c0 6c 0c 12 bd 74 e3 84 3d f2 ce 5a 3d 23 14 44 3d
       -0.035656378 0.06488696 0.053420015 0.047870766
0001d0 ce fc eb bd 39 34 55 be ab c6 b2 3d 64 7b 38 be
       -0.11522828 -0.20820703 0.08729299 -0.1801582
0001e0 f3 34 83 3d be 37 3e be ca b9 9a bc 30 9b 07 be
       0.06406584 -0.18575951 -0.01888742 -0.13242793
0001f0 90 ef d6 bd 2f c9 83 bd ed 9f c1 bd ca 3d ab bd
       -0.10494912 -0.06434857 -0.094543315 -0.08361395
