scripts/abr_clustering/audiometric_deep_clustering/experiments/full_scale_audiometric_clustering_memory_optimized/20250619_163308_evident/checkpoints/pretrain/pretrain_epoch_0.pt (torch, 708316 bytes, 213 tensors)

encoder.abr_encoder.abr_projection.weight f4 [32, 6]
00000000: 47e9 883d 124c 833e 84df d1bd 1515 d2bd
00000010: 30a8 afbe 3506 3ebe ae4e 0fbe 945d a93d
00000020: 88d2 c3bd 55f7 babe c9bf 09be f965 b13e
00000030: 1d11 3bbe df8e 92be f237 383e 3d24 00be
00000040: 3247 c9bd 9cfb a3be e343 9bbe ff27 bf3d
00000050: 62dd 6e3e 9e1e 54be 935c 13be 9931 003e
00000060: 4717 ad3e 2bb9 dcbd b82c d1be e1bb 813e
00000070: 5929 babe 46dd 6bbe 4022 83be 7a3c 423e
00000080: 5161 803e dffe c23e 3f53 173d dd54 7ebe
00000090: e6e3 923e a609 983e df59 0f3e cedb 093e
000000a0: 1961 91be 42ff 82bd 93d2 c43e 212d 6e3d
000000b0: 610f bcbe 5ef2 c93e 505a 843e dcfc 913e
000000c0: 3684 653e 2c36 2f3e 0582 c93e 8268 223e
000000d0: 348e b9be 8f03 46be 5f82 ef3d 2697 a6be
000000e0: 4786 a0be b126 9dbe 5309 8abe 4d40 1e3e
000000f0: d59e 7e3e 5fd0 6dbe 8eb2 5abe 1ea6 dabd
00000100: 6c49 21be 24cb f4bd e8ef 84bd 66c2 b73e
00000110: 13ae ccbe 575c 7f3d 9caf 2bbe 1108 8dbe
00000120: 7f2b f13d e3f9 7d3e d059 c03e 3f43 4cbe
00000130: f943 7ebc fdf2 91be 7f6b 5cbe 15c4 1e3d
00000140: efb7 603e 69fa aabd 68bd 7b3e fdd6 edb9
00000150: 47c7 b2bd d2cd ea3d f54f ad3e 01d0 3f3e
00000160: 0799 03be a901 24be 84c3 ce3e a996 b03e
00000170: aa8f 9c3e ef8d 55be 5e93 b6be 9109 7fbe
00000180: 104b 213e 230a d13e 6fda 11be b8ee b9be
00000190: 8cd4 7fbe 9aa9 2f3e 82ea 833e 7b2f b5bd
000001a0: e3d6 3cbc 342f 98be e945 45be 354d 8dbe
000001b0: 99ed 883e 6c32 a4bd c2a6 18be fe85 2ebd
000001c0: 031d 373e f542 61be d043 83bd b30f 263e
000001d0: bbe0 65bd fb10 ea3d aaf8 8dbe aca6 25bd
000001e0: 0359 50be 41f5 b13e 7e03 d3be 421f 61be
000001f0: c813 3cbe 0549 183e 7ef7 2cbe 7107 72be
00000200: 7b94 92bc f2d2 f5bd ab7d cb3e 22ee 813e
00000210: 88a5 a43e 1a26 a6be ae1a ccbd 173e 92be
00000220: 1b2d bd3e d354 7f3e fb01 99be 41c4 98be
00000230: 2c4a 433e c087 61be b535 ef3d e890 b7be
00000240: cc58 a2be 00e2 11be 5c85 99be d456 733e
00000250: 8c25 a5be 21de f4bd f49a c6be 081e ba3e
00000260: 16f6 663d 2ab3 7cbe bfa6 bdbd bba1 e73d
00000270: 43ac 0bbe b723 9c3e 40c8 b3bd 56ba c23e
00000280: bba0 523e 904c 963e 5910 283c f301 dabd
00000290: 1351 333e 0a59 733e c4e1 893d 9063 ce3d
000002a0: 1916 ac3e 0051 5bbe fcd8 c9bd 7b4d e83c
000002b0: 897c 42bd 4758 74be 7ef1 ee3d e4e1 8a3d
000002c0: 05e5 82be 9b9d efbc 55cd 013d 4950 40bd
000002d0: 5976 d53d 147a c3be c1cb b2bd b5c3 8a3e
000002e0: 267e 8abb 035d 8abd 9eed dfbd ae96 64bd
000002f0: c241 74bd 34cb 3abe 4bca 94be 1876 40bd
0.06685119 0.25643975 -0.1024771 -0.10257927 -0.34308004 -0.18557055 -0.13994858 0.08269802
-0.0956164 -0.36516824 -0.13452066 0.3464811 -0.18268247 -0.28624627 0.17990091 -0.12513824
-0.098280326 -0.320279 -0.3032523 0.093338005 0.23326638 -0.20714805 -0.14390783 0.1251892
0.33806822 -0.107775055 -0.4085443 0.25338653 -0.3635967 -0.23033628 -0.25612068 0.18968382
0.25074247 0.38085076 0.036944624 -0.2483706 0.28689498 0.2969486 0.13999127 0.13462755
-0.28394392 -0.06396343 0.38441905 0.058148507 -0.36730483 0.39442724 0.25850153 0.2851323
0.22413716 0.17110509 0.3935701 0.15860179 -0.36241305 -0.19337295 0.11694788 -0.32537192
-0.31352445 -0.30693582 -0.2696024 0.15454216 0.24865277 -0.23224019 -0.21357176 -0.106762156
-0.15750664 -0.119528085 -0.06491071 0.35890502 -0.39976558 0.06234392 -0.16766208 -0.27545217
0.11775874 0.24802355 0.37568521 -0.19947527 -0.015519136 -0.28505698 -0.21525382 0.038761217
0.21945165 -0.08348543 0.24583972 -0.0004536434 -0.087294154 0.11465038 0.33850065 0.18731691
-0.12851344 -0.16016258 0.40383542 0.34489945 0.30578357 -0.20854925 -0.35659307 -0.24905993
0.1575129 0.40828046 -0.14243482 -0.3631494 -0.24983424 0.17154542 0.25764853 -0.08846947
-0.011525842 -0.29723513 -0.1926495 -0.27597967 0.26743773 -0.0801743 -0.14907363 -0.042608254
0.17882161 -0.21998198 -0.064094186 0.16216926 -0.056122523 0.1142902 -0.27728778 -0.040442154
-0.20346455 0.34757426 -0.41213602 -0.2198458 -0.18366921 0.14871605 -0.16891286 -0.23635651
-0.017893067 -0.12003125 0.39744315 0.25376993 0.3215754 -0.32450944 -0.09966026 -0.28562996
0.36948475 0.24934702 -0.29884323 -0.2983723 0.19071263 -0.22024441 0.11680166 -0.35852742
-0.31708372 -0.14246368 -0.29984558 0.23763591 -0.32255208 -0.1195643 -0.38790095 0.36351037
0.05638703 -0.2467772 -0.0926032 0.113101445 -0.13639931 0.30495998 -0.08778429 0.38032788
0.20569126 0.29355288 0.010257804 -0.10644903 0.17511396 0.23764434 0.067325145 0.10077584
0.3361061 -0.21417618 -0.098558396 0.028357258 -0.047482047 -0.238618 0.11667155 0.067813665
-0.25565353 -0.029249957 0.03168996 -0.046951566 0.10422964 -0.38179076 -0.08730269 0.27102438
-0.004226464 -0.06756022 -0.10933994 -0.05580776 -0.059633024 -0.18241578 -0.29060587 -0.046987623

encoder.abr_encoder.abr_projection.bias f4 [32]
00000000: e05f 8f37 5bc8 c6b8 9546 08b8 2221 2739
00000010: 1db7 29b6 065b 9638 8c42 85b9 9466 93b7
00000020: 0b75 4b36 8053 8bb7 8f0e 4038 900c 9b37
00000030: fbca d9b8 cbf5 5438 72d1 4ab7 2882 5d38
00000040: 22da 8b37 022e a2b6 0a18 60b9 f2ad 16b9
00000050: f171 beb8 3c18 eb38 1ef7 a538 e859 c636
00000060: 1f37 e037 0f53 ac38 f349 b338 e979 ab39
00000070: 34a0 dfb8 4bb7 2ab9 5472 2138 9613 95b7
1.7091574e-05 -9.478695e-05 -3.249066e-05 0.00015938704 -2.5289548e-06 7.169512e-05 -0.00025417318 -1.7571532e-05
3.0317485e-06 -1.6608974e-05 4.5789926e-05 1.848329e-05 -0.000103851744 5.077365e-05 -1.20889035e-05 5.2811723e-05
1.6671667e-05 -4.8333322e-06 -0.0002137126 -0.00014369914 -9.081129e-05 0.00011210187 7.913842e-05 5.9113263e-06
2.6728549e-05 8.21707e-05 8.549159e-05 0.00032706492 -0.00010663309 -0.00016280745 3.8491868e-05 -1.7771305e-05

encoder.abr_encoder.abr_norm.weight f4 [32]
00000000: 893a 803f c28b 783f beae 753f 8d66 7b3f
00000010: e445 813f 330e 7e3f 9cd3 813f 6afe 813f
00000020: 92d2 803f 9a43 7a3f 5d74 773f 600c 823f
00000030: 5dbb 7e3f 1f44 823f 4a42 813f 87ea 833f
00000040: d042 803f 4607 803f fe6b 763f f75c 763f
00000050: 0d1a 7d3f aeac 713f 1eae 7c3f 11ae 753f
00000060: 1163 833f cf55 7c3f 17e7 843f f74b 823f
00000070: 788c 793f 242f 7b3f 865c 7c3f 957c 7e3f
1.0017864 0.97088253 0.9596976 0.98203355 1.0099454 0.99240416 1.0142703 1.0155766
1.0064261 0.977594 0.9666193 1.0160027 0.99504644 1.0177039 1.0098355 1.0305947
1.002039 1.000222 0.96258533 0.96235603 0.98867875 0.94404113 0.9870318 0.9596873
1.0264608 0.98568434 1.0383023 1.0179433 0.97479963 0.98118806 0.9857868 0.9940885

encoder.abr_encoder.abr_norm.bias f4 [32]
00000000: 0bb0 88bc 4e8f d9bc 8d9f 14bd e6ea fbbc
00000010: 1ae2 473a fc54 d7bc 0e42 80bd 6c42 42bc
00000020: 554c 60bd af18 95bc 8a86 51bd bfba 483c
00000030: ec9d 4fbd 4afb 91bd 6e96 afbb 8971 37bd
00000040: 7de4 20bd 681e 353b 2c74 c9bc 1608 15bd
00000050: e0fd d4bc c85c 7bbd a592 8abd 0a0b 07bd
00000060: 9b57 ed3c 2fb0 06bd eb64 f7bc a2e1 90bc
00000070: fc5c 03bd f504 aebc e175 2cbd 8c06 14bd
-0.016685506 -0.02655759 -0.036284972 -0.030751657 0.00076249393 -0.02628564 -0.06262599 -0.0118566565
-0.054760296 -0.018200247 -0.051153697 0.012251555 -0.050687715 -0.07128008 -0.005358509 -0.04478601
-0.039280403 0.0027636532 -0.024591528 -0.036384664 -0.025999963 -0.06136778 -0.067662515 -0.032969512
0.028972438 -0.032882866 -0.030199489 -0.017685715 -0.0320711 -0.021242598 -0.042104606 -0.036139056

encoder.abr_encoder.abr_norm.running_mean f4 [32]
00000000: 38c5 49bd fbbc 20bd e623 d1bd 0fab c3bc
00000010: 3dd5 83bd 4ddf 393d e58a 833d 12d1 fd3d
00000020: 0880 4d3d 0e79 f3bd 62fc 93bd a906 75bd
00000030: 7a1e 033d 7b15 d83c 3485 0c3d 0efc 003d
00000040: dc10 60bb 1dab 97bd c95d b8bb 6837 9ebc
00000050: 4aa9 86bd ace9 3c3c 5002 d93c 9641 dabd
00000060: 788d f6bd 3b99 c4bc db69 f23d ae12 783d
00000070: 50cc ecbc 6b75 74bc 86cc a3bc 49b4 bdbd
-0.049260348 -0.039242726 -0.10211925 -0.023885278 -0.06437156 0.04537897 0.064229764 0.123933926
0.05017093 -0.11888324 -0.072258726 -0.059820805 0.032011487 0.02637743 0.03430672 0.031490378
-0.0034189736 -0.07405684 -0.0056264144 -0.01931353 -0.06575258 0.011530321 0.02649036 -0.10657041
-0.12038702 -0.023998847 0.118365966 0.06056469 -0.028906018 -0.014920573 -0.019994985 -0.09262902

encoder.abr_encoder.abr_norm.running_var f4 [32]
00000000: 32de 4f3d 6cbb 063d 83e8 3e3e 5d8a 7f3c
00000010: 2a9c c33d 369f 443d 4f8f 993d 7d2f 8c3e
00000020: f129 543d b77d 803e 4049 cb3d e833 9e3d
00000030: b3e1 dd3c 1024 953c 5a3b d93c cad0 093d
00000040: 8349 693c 0032 db3d d706 f03b b178 2f3c
00000050: ec8a aa3d ff9f 623c 4b64 ff3c 165c 503e
00000060: 2ec8 843e d403 a23c e36c 823e 2c82 863d
00000070: 242f ca3c 54cd e63b e02a 7a3c 75e4 173e
0.05074901 0.032893583 0.18643384 0.015596953 0.0955127 0.048003398 0.07498037 0.2737998
0.05179781 0.25095913 0.09926081 0.07724744 0.02708516 0.018205673 0.026517559 0.033646382
0.014238718 0.10702896 0.007325034 0.010709927 0.083272785 0.013832091 0.031175753 0.20347628
0.25933975 0.019777216 0.254737 0.06567797 0.024680682 0.00704352 0.015269011 0.14833243

encoder.abr_encoder.attention.q_projection.weight f4 [64, 1]
00000000: 1904 ae3e 8791 453e 469c a7bc 1507 c43d
00000010: ad21 003d ed7f f6bd 8956 973d 9951 353e
00000020: d050 833c 1b3a 603e 5dc7 af3d de39 3abe
00000030: ecc0 013e 36e8 d63d 96a0 513e 845d 7bbe
00000040: fe27 7cbe 3c96 1ebe 98fd 833d e972 56be
00000050: ab65 e5bd be72 41be ba51 49be a153 033e
00000060: bd5f 3e3e 13a6 a13d 2b07 7e3e 3da1 e1bd
00000070: a6f0 b33b 7322 8a3e cac3 953e 0b29 fc3d
00000080: d4ad 6bbe 3828 fe3d d41a 3f3e 15bc 0e3e
00000090: 33de 87be 30e9 85bd 1ca8 4cbe 209f 9ebe
000000a0: 5bbd 93be 675b 263e 3404 6cbe c8be 61be
000000b0: d7d3 c9bd 53d5 8bbd 1072 183e bf7f 88be
000000c0: d1dd a8bd 2d3d 9abd 4634 133d 22eb 34be
000000d0: 80b0 0dbe 2483 e0bd bc30 6cbc d931 5b3e
000000e0: 76be 97bd 8713 593c 54ef 81be 67cc 043d
000000f0: 61f7 7fbe d05d 023e 7ab3 b6be d300 343e
0.339875 0.19293796 -0.02046026 0.09571663 0.031282116 -0.12036119 0.07389552 0.17706908
0.016029745 0.21897165 0.085829474 -0.18186137 0.1267125 0.104935095 0.20471415 -0.24547392
-0.24624631 -0.15486997 0.064448535 -0.20942272 -0.11201032 -0.18891427 -0.19660082 0.1282487
0.18591209 0.07893004 0.24807422 -0.11017082 0.005491334 0.26979408 0.29250938 0.12312516
-0.23015529 0.12410015 0.18662578 0.13938935 -0.26536712 -0.065386176 -0.19986004 -0.30980778
-0.28855404 0.16245805 -0.23048478 -0.22045434 -0.09854858 -0.06827798 0.14887261 -0.26659963
-0.08245433 -0.075311996 0.035938524 -0.17667821 -0.1383686 -0.10962513 -0.014415916 0.21405734
-0.074093744 0.013249285 -0.25377905 0.032421496 -0.24996711 0.12731099 -0.35683805 0.1757844

encoder.abr_encoder.attention.q_projection.bias f4 [64]
00000000: e131 3d3d b553 32bd 6161 25bd f430 31bd
00000010: 12d8 2fbd a77d 2f3d 91ec 30bd 30f8 3a3d
00000020: 8c32 313d 6f60 393d 28b6 2dbd 7d6a 39bd
00000030: c077 3a3d 52dc 27bd 771d 2ebd 4bba 3bbd
00000040: 9d3f f53c f04a 00bd b2cb 073d e4a9 df3c
00000050: a31a 03bd 629f f13c 84c7 f13c 72be 003d
00000060: d76e 053d aaca 053d f109 053d bc53 04bd
00000070: 883a f4bc 412d 273d 7cf8 113d 6409 013d
00000080: c319 0e3d 30ff 5d3d 25df 18bd 8744 253d
00000090: 9966 1e3d fdd5 1e3d fe11 44bd de62 27bd
000000a0: 864e 25bd ccc9 1ebd fd5b 25bd ee34 2abd
000000b0: 8af6 1d3d cd2c 25bd 3a1b 17bd 30f1 193d
000000c0: 6c00 2b3d b643 d8bc 0efa 16bd 36ec 92bc
000000d0: dbc8 3ebd 5dac 2b3d 1757 2e3d c62d 4a3d
000000e0: 8af5 2f3d 4961 2f3d 6fc8 3cbd f227 28bd
000000f0: 402f 3dbd e5a7 423d 40f3 3cbd 627c 463d
0.046190146 -0.04353686 -0.04037607 -0.043259576 -0.04293067 0.04284444 -0.043194357 0.045646846
0.043261096 0.045257982 -0.042410046 -0.04526757 0.04552436 -0.0409816 -0.04250857 -0.04583196
0.02993756 -0.031321466 0.033153243 0.02730269 -0.032007825 0.029494945 0.029514082 0.031431623
0.03257641 0.03266398 0.032480184 -0.032306418 -0.029813066 0.040814642 0.035637364 0.031503096
0.034692537 0.054198444 -0.037322182 0.040348556 0.038672063 0.038778294 -0.04786872 -0.04086577
-0.04035809 -0.038766667 -0.04037093 -0.041554384 0.038565196 -0.04032593 -0.0368912 0.03758353
0.04174845 -0.026399475 -0.036859564 -0.0179349 -0.04657827 0.041912425 0.042563524 0.04936006
0.042958774 0.042817388 -0.046089586 -0.04105372 -0.04618764 0.047523398 -0.04613042 0.048458464

encoder.abr_encoder.attention.k_projection.weight f4 [64, 1]
00000000: b9fd 163e d46f 47be fbfb 40bd 5f4e 17be
00000010: ad8f e8bd 3cc9 d83d fbe2 0ebe d8ab 573e
00000020: 3da1 183e 4d36 9f3e fcd1 a2bd 21e2 9dbe
00000030: df5e 723e 4541 17bd 91d8 abbd b2d8 3abe
00000040: e4c1 7e3e 49f3 8bbe 2692 df3d 732f dc3c
00000050: 9e82 20be 3fc8 0e3e 0dbb 113e f9c0 773e
00000060: 04e5 f23d a5c0 f83d 5352 fa3d d48c 0abe
00000070: 8259 5ebe 0438 393d d15a 833d 1bdc 663e
00000080: 12bf 913c 25a6 483d 23b0 98bd 438f 953e
00000090: 27a3 703e 0f0e 893e 5ad2 68bd 43a3 3dbe
000000a0: 7e69 90be da2b 88be f429 8fbe 9219 09be
000000b0: 7997 513e 322e a5be 3865 6cbd 1427 b53d
000000c0: 94d5 b83d f459 35bd 54e4 a1bc 7a15 21bd
000000d0: d0bf 7cbe c976 c53d 4284 053e b46a dc3d
000000e0: 3745 243e 468a 153e 68c8 adbe f152 90bd
000000f0: d097 a0be a78e 2c3e 688b a7be 4060 043e
0.14745225 -0.19476253 -0.047115307 -0.1477599 -0.11355529 0.105852574 -0.13953774 0.21061647
0.14905258 0.31096116 -0.079502076 -0.30836585 0.23669003 -0.03692748 -0.08390916 -0.18246725
0.24878651 -0.2733405 0.109165475 0.026878094 -0.15674827 0.13943575 0.1423151 0.24194707
0.118600875 0.12146119 0.12222733 -0.13530284 -0.21713832 0.045219436 0.06413806 0.22544901
0.017791305 0.048986573 -0.074554704 0.29210863 0.23499738 0.26768538 -0.056841232 -0.1851931
-0.28205484 -0.26595956 -0.27961695 -0.1338866 0.20467938 -0.32261807 -0.057713717 0.08845344
0.09025112 -0.04427524 -0.019762196 -0.039327122 -0.24682546 0.09641797 0.13038734 0.107625395
0.16042028 0.14603528 -0.3394196 -0.0704707 -0.31365824 0.16851293 -0.32723546 0.12927341

encoder.abr_encoder.attention.k_projection.bias f4 [64]
00000000: 63dc 1138 c33b 3e37 96b2 fe33 9096 5e35
00000010: 2ef7 0c35 d846 42b6 5c3e 4336 e6a9 8337
00000020: e51c e235 c499 cf37 6ba0 e936 ce5c beb6
00000030: bc47 3637 86bf e436 36e7 af37 a294 7bb7
00000040: a709 4c37 84c1 1637 3e37 13b6 cb98 4637
00000050: 8a1b 0937 60e1 1537 bc29 fd36 6ca1 57b7
00000060: c9d4 14b7 38ac edb6 d942 40b7 f67c c436
00000070: 5623 3533 3fba 8cb7 f118 8fb7 166e f5b6
00000080: ca0f 27b7 9c5b b736 cd0f db36 b101 9336
00000090: 847c e9b6 7751 0db6 7f82 04b7 f6fd 80b7
000000a0: 1f13 40b7 8025 e536 6641 8db6 4f27 52b7
000000b0: d4ac 8db6 a420 a8b6 0f46 bc36 f692 38b7
000000c0: 29d9 2cb6 f668 d5b5 c2fa be35 47dc 6eb6
000000d0: 2753 1bb6 9482 1cb6 6526 43b5 d8bf 60b5
000000e0: 6001 9fb5 668b e6b4 e257 0536 eb76 ac35
000000f0: 0d27 d8b6 c61e 1436 b18b 12b7 090c 6d36
3.4775945e-05 1.1338797e-05 1.1860281e-07 8.292054e-07 5.251376e-07 -2.894949e-06 2.9093562e-06 1.5695532e-05
1.6846722e-06 2.4747926e-05 6.962616e-06 -5.673245e-06 1.0864747e-05 6.8172258e-06 2.0969292e-05 -1.4995372e-05
1.2161595e-05 8.985753e-06 -2.1936862e-06 1.1837295e-05 8.172248e-06 8.933566e-06 7.544846e-06 -1.2852583e-05
-8.87103e-06 -7.0831993e-06 -1.1459656e-05 5.8558026e-06 4.2174484e-08 -1.6776028e-05 -1.7058543e-05 -7.3143847e-06
-9.957652e-06 5.4644897e-06 6.528548e-06 4.3811383e-06 -6.9584366e-06 -2.1058056e-06 -7.898197e-06 -1.5377049e-05
-1.1448544e-05 6.8290974e-06 -4.209741e-06 -1.2526128e-05 -4.2222473e-06 -5.01059e-06 5.6109925e-06 -1.1001472e-05
-2.57564e-06 -1.5900284e-06 1.4229083e-06 -3.5592982e-06 -2.31452e-06 -2.3321818e-06 -7.269903e-07 -8.372567e-07
-1.1846823e-06 -4.2942264e-07 1.98697e-06 1.2849608e-06 -6.4418477e-06 2.207163e-06 -8.734803e-06 3.5322757e-06

encoder.abr_encoder.attention.v_projection.weight f4 [64, 1]
00000000: fd08 6bbe d88a 303e 7a47 43be 980e 83be
00000010: 0780 0fbe f650 f13d 38c9 16be 89f5 c43d
00000020: 1d3a dc3c bc05 3bbe e043 5939 632d 573e
00000030: 3360 50be fab7 903e 4932 8a3d 3487 333e
00000040: 1272 4dbd 34d1 5e3e 82b0 70be d7c8 e9bd
00000050: dd7d 3a3e 1783 1ebe c341 7b3e 5c5c f2bd
00000060: c606 83be 0851 8e3e ea06 753e 7dc2 083e
00000070: ffd7 80be 6ea0 973d bfff 89bd 1251 8e3e
00000080: 987d a73d a28b c8bc 9754 94be 4755 c9bd
00000090: 71be 753e da92 61be f1a2 923c 2e94 63be
000000a0: f37c 72bc 4a55 a7bd 30dd 54bd ec31 bfbc
000000b0: e41f c4bd 61e2 ffbd c992 083e e335 f63c
000000c0: a626 febd f797 423e 0121 b13e 5ce3 4c3e
000000d0: b8c7 033e 4f57 b3bd 67cd 483e c209 b3bd
000000e0: 64e0 443e de0a 9f3e 8580 acbb 4929 08be
000000f0: 251f 913d 5867 42bc d3dd 593e dbf6 d9bd
-0.22952648 0.17240465 -0.19070235 -0.25597072 -0.14013682 0.1178302 -0.14725196 0.096171446
0.02688318 -0.18263906 0.00020720018 0.21013407 -0.20349197 0.28265363 0.067478724 0.17532045
-0.050157614 0.21759492 -0.23504832 -0.1141526 0.18212076 -0.15479694 0.24536805 -0.118340224
-0.25591105 0.27796197 0.23928419 0.13355441 -0.25164792 0.074036464 -0.06738233 0.27796227
0.08178252 -0.024480645 -0.28970787 -0.098307185 0.23998429 -0.22028676 0.017899962 -0.22224495
-0.014800298 -0.081705645 -0.051968753 -0.023339234 -0.09576395 -0.1249435 0.13337244 0.030054992
-0.12409715 0.19003282 0.34595492 0.20008606 0.12869155 -0.08756887 0.19609605 -0.087420955
0.19226223 0.31062979 -0.005264344 -0.13296999 0.070860185 -0.011865459 0.21276025 -0.10642787

encoder.abr_encoder.attention.v_projection.bias f4 [64]
00000000: 7f09 7a3c 2c30 833c d220 773c cdea 573c
00000010: 5956 85bc 77f2 823c 87c6 89bc 497b 70bc
00000020: 1b1e 7e3c 837f 87bc 8128 703c ecdf 843c
00000030: e14f 85bc f686 833c 1872 08bc 8505 843c
00000040: 1b09 89bc e64a 8a3c 1c12 8a3c 26c8 89bc
00000050: 7f83 8a3c 264b 8abc 7b59 8a3c ff03 883c
00000060: 6e7b abbc 447f 8a3c 6643 8a3c a0f4 88bc
00000070: 999c 8abc 8508 89bc eb0a 3ebc cd64 583c
00000080: 7ca2 5ebc 1546 8a3c da29 64bc 4228 63bc
00000090: 8d10 66bc 9b04 64bc dab4 573c 68c1 60bc
000000a0: 1362 55bc bd7e 5e3c e240 5d3c fc3e 5e3c
000000b0: 3402 593c a28a 643c e8d8 5c3c 488b 5f3c
000000c0: 15bc 6f3c 154b 933c 2155 b63c 46dc 913c
000000d0: 21f5 28bb d426 91bc cb51 80bc f1bd 803c
000000e0: ad27 ae3c 5fa3 8c3c 06b0 813c da1a 833c
000000f0: 9d48 3abc d105 823c 80c7 a23c 8490 633c
0.015261053 0.016014181 0.015083509 0.013178539 -0.016276525 0.015984757 -0.016818298 -0.014677831
0.015510107 -0.016540295 0.014658094 0.016220056 -0.01627344 0.016055565 -0.008327983 0.016115913
-0.016727975 0.016881417 0.016854338 -0.016819071 0.016908405 -0.016881537 0.01688837 0.016603468
-0.02093288 0.016906388 0.016877841 -0.016718209 -0.016920375 -0.016727695 -0.011599283 0.0132076265
-0.013588544 0.01687912 -0.013925994 -0.013864579 -0.014042032 -0.013917114 0.013165677 -0.013717987
-0.013023871 0.013580021 0.013504239 0.013564821 0.013245154 0.013949068 0.013479449 0.013644047
0.014632245 0.017980138 0.02225739 0.01780523 -0.0025780874 -0.01771871 -0.015664002 0.015715571
0.021259153 0.017167745 0.015831005 0.016004015 -0.011369851 0.015871914 0.01987052 0.013889436

encoder.abr_encoder.attention.output_projection.weight f4 [1, 64]
00000000: 8d58 473e d4a9 6d3e 4d05 0e3e fe05 ea3c
00000010: cd14 febd 7ee8 6f3e bddb 89bd 35b8 b1bd
00000020: f2f8 7b3e c69e babd 9f7f fe3d e61c 163e
00000030: 211e 08be 9fc8 5f3e f1dd d5bb 997c 353e
00000040: 0949 41be 1164 c43d c3b3 823e f3e7 02be
00000050: 02b1 8d3e 63ef 37be b032 ae3d 739a d43d
00000060: a0c6 c23b 37b7 c73d 136d 983d df1a 11be
00000070: 2ab5 74be 8064 67be 3b8e 193b ec62 d5bb
00000080: cc67 41bd 7f3f 883c 8c62 79be a93d 88be
00000090: d0e5 fbbd 8405 81be b6a3 073e 83bd a5bd
000000a0: b2c5 f6bd a93c 3e3d 18ee 8e3d f54a 253e
000000b0: 3705 bb3c 296e ec3d 26db 673d bf27 793e
000000c0: 236f 703d 57c0 163e 6f5b 283d 4948 293e
000000d0: 7951 703c ae9e 3bbe f61c 15be 7752 1c3e
000000e0: 6939 6c3d e073 a83e 9cbc 213e e6fd 703e
000000f0: c5eb 0dbc d5dc 303e 5945 973d dccd 163d
0.19467373 0.23209316 0.1386921 0.02856731 -0.12406311 0.23428532 -0.06731365 -0.08677713
0.24606684 -0.09112315 0.124266855 0.14659461 -0.13292743 0.21853875 -0.0065267016 0.17723311
-0.18875517 0.09589399 0.25527772 -0.12783794 0.2767411 -0.17962413 0.085057616 0.10381021
0.005944088 0.09751742 0.07442679 -0.14170407 -0.23897234 -0.22596931 0.0023430723 -0.0065120365
-0.04721813 0.01663184 -0.24353999 -0.26609543 -0.12299693 -0.2519952 0.13246045 -0.08092787
-0.12049426 0.04644457 0.069790065 0.16141875 0.022829635 0.11544449 0.05660548 0.24331568
0.05869974 0.1472181 0.041102823 0.16531481 0.014667862 -0.1832225 -0.14561829 0.15265833
0.057671938 0.32900906 0.15794605 0.23534355 -0.008662169 0.1727174 0.07386274 0.036817417

encoder.metadata_encoder.metadata_projection.weight f4 [48, 12]
00000000: ff77 643d 92d9 27be fbcb 853e ac07 003e
00000010: eef2 6abd 4c8f 88be 0747 27be 9d66 0b3c
00000020: 5335 8836 a436 183e 4497 b33e ccbb 6a3e
00000030: bd80 84bc b4e8 43bd 4c11 703e f0fe 78ba
00000040: 662d 823d c5ff a5bc 0cbe 763e e37d 8e3d
00000050: 6fa9 0c3e 0767 d53d efe5 e7bc e598 d43d
00000060: f7fe 52be a731 4bbe f9c2 a13d 6f07 953d
00000070: d67d 40be 008b 093e 1206 cf3d 663d e43d
00000080: d9c7 1bbe 5680 1cbe 9e85 98bc f66d e4bc
00000090: cd11 fd3c d7ac 5fbe 64b6 613e 3701 943e
000000a0: e409 0cbe 6eb0 5e3e b7ef 8d3d 0da2 2d3d
000000b0: fd96 15bd ba16 6f3e 2c29 c2bd b42e 313d
000000c0: 5915 7cbb 61ea 423d 20dd 0cbe 500f 4dbe
000000d0: be5c 4f3e 356e 8ebe 0c8c 47be 2db5 583e
000000e0: e608 0dbe 15c0 ffbc 098a 99be b786 bebd
000000f0: ad49 0cbe 2cde fd3d 4991 283e 33b5 8e3e
00000100: f6c0 c6bd bdbe 863e 240f f33d 22d9 1abe
00000110: e844 80be 9778 3ebd 5979 883e 711e 753b
00000120: 6945 6abe 2122 223e c1e9 98be 962b 513e
00000130: e47e 543c 89d1 42bc 691f efbd 8bbd 3fbc
00000140: b8b8 83bc df7c 933e cc93 ac3e 24c8 1d3e
00000150: 9b5c 81bd 2647 50bc 0963 55be 505e 313e
00000160: 2dcf bfbd 3661 9cbe 0040 f7bd f1e1 0bbe
00000170: 79c7 69be 41b1 803d 2c14 243d 0804 1dbe
00000180: 7e96 75be c073 d83d c672 4e3d 823d 503e
00000190: 9c01 1a3e f408 62be 9f5c 133e 9593 3ebe
000001a0: 0ed4 85be 5910 133e 64f2 a43e 08ef 2a3e
000001b0: 8463 ff3a 39b8 1dbe 6b40 a43e 01b7 4cbe
000001c0: 097f 8c3e 3683 2dbe b8ed 90be a3e8 263c
000001d0: 2249 c83d 08a2 84be 0f28 eebd e715 21bd
000001e0: 4032 7bbd 7201 e7bd 53b9 833e 044e 3cbe
000001f0: 127e 503e 3102 a63c 422b bcbd a430 6a3d
00000200: a9c3 81be f1d7 2abe f771 803e ef34 f1bd
00000210: ef1e 083e 8137 80be 0350 243c b08c 84be
00000220: 1491 143e b52a 8b3e 4967 3c3e 840b a738
00000230: 978e 473e e543 953e 54ab 423e d7fe 023e
00000240: 7211 c13d 236c 633d d0e3 5d3e b194 563e
00000250: 426d adbd 8c6e 983d 3cb6 023e bfd6 38be
00000260: 5f1e 5abe c895 e6bd 6136 593c a9d9 283e
00000270: 83ec 023e 667d 0e3e 3b7b a3bd eb72 eebd
00000280: 1f6a a1be 1ebc 7bbc eb1c bbbd 0cd0 95bd
00000290: 83c9 d03d ee29 5d3e 341f 023e f2d8 43be
000002a0: 17ad 54bd 42bc 66be 04d0 b3bd 8354 313e
000002b0: e7fc 733e bedf 6ebe bcfe a7bd 6996 91bd
000002c0: 9180 773e 2a61 963e c916 a3be 027a e2bd
000002d0: cd75 babc 314f 89be 47ee 94be f34b 1fbe
000002e0: 7c32 7f3e 1aef 2a3d 9e3e d3bd 2dfc 3936
000002f0: f237 893e d2b5 84be f0f0 2f3e 8fb2 9a3c
00000300: 61af a4be 4e79 8c3e 51bc 17be e756 553e
00000310: d844 8c3c 4408 3b3d 6a46 66bd fbcc 25be
00000320: 6b25 1c3e a4fb cabd 0434 e93d fbed 963e
00000330: 5a41 a7bd 579c 463d 83f0 833d 2134 bebd
00000340: 00ab 1c3e e1dc 75be 541c 2c3e 0147 37bc
00000350: 665b 64bc 9fe8 c1bd f1c7 6c3d ec58 6c3e
00000360: 32ad 5b3d de9c 9ebd f377 853e 6d71 913e
00000370: f02d 0dbe 73c3 69be e670 66be 8998 463c
00000380: 5d67 883e 4294 de3d 2358 1c3e 0b5e 81be
00000390: ec0c 763d 2ea1 333e 0826 0abe bdb3 48be
000003a0: a052 11bd 58d5 8cbe f688 833e 6714 3bbd
000003b0: 5fe9 833e 5a68 89be 33b4 7d3e a014 d2bd
000003c0: 46be 74be f7cd bd3d 4c02 8b3e 1807 1ebe
000003d0: 94cc 033d 549e 51be 943a 403e a8c1 473e
000003e0: 0f51 a4bd c0d3 9a3e c6ae 643e 865c 893d
000003f0: f37b 11be 0b79 453e c6ab d73b 30ae 16be
0.0557785 -0.1639159 0.26132187 0.12502927 -0.057360582 -0.26671827 -0.16335689 0.008508352
4.0593236e-06 0.14864594 0.35076344 0.22923201 -0.016174668 -0.047829345 0.23444098 -0.0009498438
0.06356315 -0.020263562 0.24095935 0.06957605 0.13736509 0.104200415 -0.028307883 0.10380725
-0.20605074 -0.1984316 0.07898516 0.072768085 -0.18798003 0.1343193 0.1010858 0.11144523
-0.15212955 -0.15283331 -0.018618401 -0.027884465 0.030892277 -0.21843277 0.22042233 0.28907177
-0.13675648 0.2174699 0.069304876 0.04239087 -0.036520947 0.23348513 -0.09480509 0.04325743
-0.0038464873 0.047586802 -0.13756227 -0.20025373 0.20250222 -0.27818456 -0.19487017 0.21162863
-0.13772926 -0.031219522 -0.29988125 -0.093030386 -0.1369998 0.123958915 0.16461672 0.2787262
-0.09704773 0.26317397 0.11868122 -0.15121892 -0.2505257 -0.046501722 0.2665508 0.0037402178
-0.2287804 0.15833332 -0.2986584 0.20426783 0.012969706 -0.011890777 -0.11675913 -0.011702905
-0.016079292 0.28806207 0.3370651 0.15408379 -0.06316491 -0.012712276 -0.2083856 0.17321134
-0.093656875 -0.30542916 -0.12072754 -0.13660409 -0.22829999 0.062838085 0.0400583 -0.15333569
-0.2398319 0.105689526 0.050402425 0.20335963 0.15039676 -0.22073728 0.14390801 -0.18610986
-0.26138347 0.14361705 0.3221618 0.16692746 0.0019484614 -0.15402307 0.32080397 -0.19991685
0.2744067 -0.16944584 -0.28306365 0.010187301 0.09779574 -0.2590487 -0.11628734 -0.03932753
-0.06132722 -0.112795725 0.2572733 -0.18389136 0.20360592 0.020264717 -0.09187938 0.057175294
-0.2534459 -0.16683938 0.25086948 -0.117776744 0.1329305 -0.25042346 0.010028842 -0.25888586
0.14508468 0.2718102 0.18398775 7.9653255e-05 0.19487987 0.29153362 0.19010669 0.12792526
0.094271556 0.05552305 0.21668935 0.20955159 -0.08468105 0.0744296 0.1276483 -0.18050669
-0.21300648 -0.11259037 0.013257594 0.16489281 0.12785535 0.13915023 -0.07982489 -0.116430126
-0.31526276 -0.015364675 -0.09136375 -0.073150724 0.10194685 0.21598026 0.12707216 -0.19125727
-0.051922884 -0.22532752 -0.0877991 0.17317395 0.23826943 -0.23327538 -0.082028836 -0.071087666
0.24170138 0.29371005 -0.3185332 -0.110584274 -0.02276125 -0.2681823 -0.2908804 -0.15556316
0.24921602 0.04173193 -0.10314678 2.7713934e-06 0.26800495 -0.25919968 0.17181754 0.018883971
-0.32165053 0.27436298 -0.14817931 0.20833932 0.017122671 0.04566218 -0.056219496 -0.16191475
0.15248649 -0.09911278 0.11386874 0.2947844 -0.08166762 0.04848894 0.06442358 -0.092872865
0.15299606 -0.2401004 0.16807681 -0.011186362 -0.013937807 -0.09468197 0.057807866 0.23080796
0.05363197 -0.07744764 0.26068076 0.2840685 -0.13787055 -0.22828464 -0.22504005 0.012121328
0.2664136 0.10868122 0.15267996 -0.25267062 0.060070917 0.17541954 -0.1349107 -0.19599815
-0.035479188 -0.27506518 0.2569043 -0.045673754 0.25763986 -0.26837426 0.24775772 -0.1025784
-0.23900709 0.092678 0.2715019 -0.15432394 0.032177523 -0.20470554 0.18772346 0.19507468
-0.08023273 0.30239677 0.22332296 0.067071006 -0.14207439 0.19284455 0.0065817563 -0.14714885

encoder.metadata_encoder.metadata_projection.bias f4 [48]
00000000: 3044 6dbc 9624 e3bc e674 b5bc 91d2 eabc
00000010: 0159 483c 4922 9fbc fd78 c1bc 81ed 6fbc
00000020: ba94 acbc 2bb1 863c 3fb8 05bb 2849 65bc
00000030: f439 1dbd 0258 edbc 276f e2bb e499 d93c
00000040: ee45 eebc cd70 0fbd 8426 1cbd da92 16bd
00000050: cac1 81bc 67b6 aabc b763 a5bc 8cce 3739
00000060: 6368 ccbb 5b01 91bd 6b8e c9bc 8337 5ebd
00000070: 6625 0dbd 22d4 fdbb 8792 ffbc 04f9 9bbb
00000080: 0bbc a03b fdc5 f6bc 8093 ee3c 7e39 8a3c
00000090: bdcc 8abc 66b4 ed3c d54d 02bd 8845 ccbc
000000a0: 75ac 17bd eb71 cfbc 3775 9cbc 5297 2bbd
000000b0: d1a3 cf3c a741 7abd 3b9d 44bd 1ed6 cbbc
-0.014481589 -0.027727406 -0.022150468 -0.028664859 0.012228251 -0.019425528 -0.023617262 -0.014644028
-0.021067012 0.016441902 -0.0020404009 -0.013994493 -0.038385347 -0.02897263 -0.006910223 0.026562639
-0.02908608 -0.035019685 -0.03812267 -0.036761142 -0.015839476 -0.02083893 -0.02018915 0.00017529185
-0.00623803 -0.07080337 -0.024604043 -0.05425216 -0.034459494 -0.0077462355 -0.0311978 -0.0047599096
0.004905229 -0.030123705 0.029123068 0.016873118 -0.01694333 0.029016685 -0.031812508 -0.024935499
-0.037029702 -0.025322875 -0.019098861 -0.041892357 0.025346668 -0.061097767 -0.04800151 -0.024882372

encoder.encoder_layers.0.0.weight f4 [128, 80]
00000000: beab 98bd 9981 ccbd 4028 9b3c 6859 25bd
00000010: dfcd 203e ff1c 913b 7368 81bd da0c a5bd
00000020: 52e2 42bc 9467 9dbd e0ac b6bc 292c 34bd
00000030: ebc4 243e 0e13 533e 1ed4 88bd 609a 263e
00000040: 84cc 98ba 1458 edbc 8a70 10be 61ad c4bd
00000050: 89b8 8abd 8faf 74bd 795b 90bd 2d32 1ebc
00000060: c50d 9abd beb8 adbd ee00 2d3e 0763 a7bd
00000070: c60c b0bd 4af7 86bc 10ff 0d3e d604 a23c
00000080: 8158 a4bc b0f2 f5bd 55c8 9d3b 7340 e03d
00000090: 1006 edbd 825d 9c3b 609d 11bd 2865 3abc
000000a0: 2b11 d23c 00c2 dabd 697c 153e 4df2 9d3d
000000b0: a3e7 e5bd 302b 133e 205a 48bd 4939 2a3d
000000c0: f138 6c3d e1d3 033e ac03 303d 5bc7 363e
000000d0: 965c 1f3d 0bb5 a4bd 3ef3 2a3e cb5b ca3d
000000e0: 651b 3dbd 5f6b 2d3e 5249 063d b0f1 f23d
000000f0: 5101 3cbd 10c5 01be 5d37 d73d 5b0f 7abd
00000100: f062 be3d d82c a9bd 9bf8 f7bc 561e 28be
00000110: 96ed 42bd c4e6 43bc ad74 c5bd e3d8 1c3e
00000120: 847f 9a3d ff09 1a3e ec84 653c 926d 1cbd
00000130: 238e 3cbe 69e7 d13c 7b96 76bd 0b9c 483d
00000140: 5771 bdbd 3b56 1a3e e627 c93c 9903 3e3e
00000150: 0fbe d93d 73ba d3bd 1920 edbc fdec 02bd
00000160: 2eea d5bd 818b b13d 8b4a c43c 64f6 2c3e
00000170: 05fb bc3b d2ed e83d 02c6 eb3d a74d 5b3d
00000180: 4c8f 18be 8776 d83d 9537 5d3b 15ca 253c
00000190: 44cb c7bd 5384 d6bd 5ab1 8e3d aa43 b43d
000001a0: b675 c33d 9f1e e7bd 6f65 aabd 7b8d efbd
000001b0: 7057 c7bd db07 a23d 93a9 7d3c 3047 60bc
000001c0: a167 94bb 3c8d 7ebd ea08 143c c5cc 00be
000001d0: 2957 443d dfc6 c73d e870 ff3d 2444 e83d
000001e0: 2c60 9fbd 8fee 0bbe 0b96 fa3d 3eb8 ec3c
000001f0: 531d 813d 82eb 153e 1553 a53d 4ca7 1fbe
00000200: 73d2 d53d 0e2a b5bd dfd2 80bd ecd1 b63d
00000210: 39c6 c2bc cb87 193d e61f 293b b143 c13d
00000220: 4e00 5c3b bcdd fc3d 17f2 00bd 6fd7 3bbd
00000230: a5ec f1bc 5a71 d7bd 9e1b a1bd 590a 89bd
00000240: 09a4 c1bd 909a 083e 1c3d ae3c 8d55 373e
00000250: d6f5 0e3e f4ed a63d 5003 ad3d 445a 1ebe
00000260: a2b0 5abc d01c 123e 8bd2 3dbd 87c2 e3bd
00000270: f612 123d 9b10 a2bd 7cbe c6bd d97e 8e3d
00000280: ece2 243d 258e 583d 5378 16be eaa0 003b
00000290: c37d 0b3e aec1 3b3d 5505 2e3e e68a 20bd
000002a0: 8736 2b3d 640a ba3d 0035 de3a 525b bf3d
000002b0: 5f73 323e d6c3 113e 7d62 c73d 4b20 183e
000002c0: f2ce 043e a5bb 0cbe 27f6 e83d 7eb6 d93d
000002d0: 9f09 ab3d 0332 b5bd 20bf f93d a147 2b3d
000002e0: e191 893d 6c14 14be 162e 313e 88bd 04be
000002f0: 6d51 833d 0ba3 193e e5cd b13d cc74 02bd
00000300: 794b bebc 2b08 efbd 5f25 b6bd d95e 6fbd
00000310: 67b7 af3d e777 e23d 2a65 08bd 60ac 503d
00000320: b874 d03c df3a fabc 2348 f63d 4dfd d4bd
00000330: 0404 fc3c 6c96 4b3d ec82 c1bb b4c2 593d
00000340: d8d2 e03d a563 923d 231c bbbc a42d 253d
00000350: 70b4 9e3d cb92 9ebd 7541 dfbd 133e b53d
00000360: 15a6 e9bc ce8d fd3d 855c a03c b192 273c
00000370: 79ae 8f3d bf45 083e cfda 66bd 8d81 b43d
00000380: 1007 0fbd deda 943d 59c2 2abe d97d 213e
00000390: a40b c23d 1d78 fa3d b6fe 123e 062b 29bd
000003a0: 441d a4bc 3bc4 c5bd c9fb e83b 0045 353c
000003b0: c25f 9cbc a8e8 95bd 5726 023e 5978 e63d
000003c0: 42aa eebd b16d 0bbe 517e 7dbd 3134 c43b
000003d0: 71ca 3abc a9f2 2f3e f2a0 883b eb46 88bc
000003e0: 745d f13d f0b2 86bc abd9 033e 682c 6dbc
000003f0: c3a2 54bd a1f6 e03c 9ac0 dcbd e7df 1a3e
-0.07454632 -0.09985656 0.018940091 -0.040368468 0.15703534 0.0044285054 -0.0631875 -0.08059092
-0.011894779 -0.076857716 -0.02229923 -0.043987427 0.16090743 0.20612738 -0.06681083 0.16269827
-0.001165763 -0.028972663 -0.1410543 -0.09603382 -0.067734785 -0.05973774 -0.07048697 -0.0096555175
-0.075221576 -0.084825024 0.16894886 -0.08173185 -0.08596186 -0.016475338 0.1386683 0.019777697
-0.020061733 -0.120091796 0.004815141 0.10949793 -0.11573422 0.004771889 -0.035550475 -0.011376657
0.025642952 -0.10681534 0.1459824 0.07712231 -0.11225822 0.14371943 -0.048914075 0.041558538
0.05767149 0.12873794 0.04297225 0.17849486 0.038906656 -0.08042344 0.16694352 0.09880789
-0.046168704 0.1693549 0.032784767 0.118625045 -0.045899693 -0.1267283 0.105086066 -0.0610498
0.092962146 -0.082605064 -0.030269912 -0.16417822 -0.04758986 -0.011956874 -0.09641395 0.1531711
0.07543853 0.15042876 0.014008742 -0.038190432 -0.18413596 0.02562304 -0.060202103 0.04897694
-0.092501335 0.15071957 0.024555158 0.1855606 0.10631954 -0.10338297 -0.02894597 -0.03196429
-0.10445057 0.086691864 0.023961326 0.16890866 0.0057672285 0.113734856 0.11512376 0.053540852
-0.14898413 0.10569482 0.0033755053 0.010118981 -0.09755567 -0.104744576 0.06967421 0.088019684
0.09543936 -0.112851374 -0.08320128 -0.11696907 -0.09733474 0.079116546 0.015482324 -0.013688847
-0.004528955 -0.06214641 0.009035328 -0.12578113 0.047934685 0.097547285 0.12472707 0.11341122
-0.07782015 -0.13665222 0.1223565 0.028896447 0.06304421 0.1464062 0.08072487 -0.15591162
0.10440531 -0.08845912 -0.062902205 0.08926758 -0.02377616 0.037483018 0.0025806366 0.09436739
0.0033569518 0.1234698 -0.031480875 -0.04585975 -0.029531786 -0.10519667 -0.07866596 -0.06691427
-0.09455115 0.13340211 0.021269374 0.17903729 0.13960966 0.08150855 0.084478974 -0.15464121
-0.013347777 0.14268804 -0.046343368 -0.111210875 0.035662614 -0.079133235 -0.09704301 0.06957788
0.040255472 0.052869935 -0.14694338 0.0019627162 0.13622193 0.045839004 0.16994222 -0.039194964
0.04180005 0.09084013 0.0016953051 0.0934359 0.17426823 0.14234862 0.09735582 0.14856069
0.12969568 -0.13743456 0.11375075 0.10630511 0.083514445 -0.088474296 0.12194657 0.041816358
0.06717277 -0.14460915 0.17302737 -0.12962925 0.06412015 0.15003602 0.086818494 -0.031849667
-0.023229348 -0.1167148 -0.08893847 -0.058440063 0.08579903 0.11058026 -0.033299603 0.05094564
0.02544628 -0.03054565 0.12025478 -0.10399876 0.030763634 0.049704 -0.0059054997 0.0531642
0.10977715 0.07147912 -0.022840565 0.04032673 0.077492595 -0.07742842 -0.10901157 0.0884973
-0.028521577 0.12380563 0.019575367 0.010227845 0.070157 0.13307856 -0.056361016 0.08813772
-0.034918845 0.07268308 -0.166757 0.15770663 0.094748765 0.12229941 0.14354977 -0.041300796
-0.020033486 -0.096565686 0.0071100933 0.011063814 -0.01908863 -0.07319766 0.12709938 0.11253423
-0.11653568 -0.13616063 -0.061888043 0.005987667 -0.011400805 0.17182411 0.004169577 -0.016635379
0.11785403 -0.016442746 0.12876002 -0.014475919 -0.051913034 0.027461352 -0.10778923 0.15124474

encoder.encoder_layers.0.0.bias f4 [128]
00000000: 57d4 b137 cb3f 1f37 5111 c5b6 bf5a 8a37
00000010: 9cbe 80b7 b97b 89b6 1f11 d4b7 b3c8 2cb8
00000020: 917c dc36 4d09 2fb8 ca44 05b8 7ea0 f8b7
00000030: 5358 3c37 59b5 8ab7 1b23 a9b7 e5ea d337
00000040: da6d 3eb5 186d 06b7 a153 a436 0ee5 8f37
00000050: b4bf db36 2998 2038 6e30 7437 4d17 9d36
00000060: 02be 5837 d59a 7eb7 028d bab6 f8b8 85b7
00000070: d845 1437 3cc4 5737 01ac c1b7 10ae 74b7
00000080: 612f 6fb6 7200 9bb7 fd1e aab6 9635 55b7
00000090: fe8e 2cb7 5aac 3537 50eb dc37 0031 12b7
000000a0: 725f 8537 7bbc 5235 c841 2fb7 6d2a 95b5
000000b0: f5ee be37 b917 8436 cd81 07b6 e4be 2c37
000000c0: 226c 9537 45fe 6337 032c 97b8 2030 96b2
000000d0: 3269 0e37 c0c0 1237 acdd ae38 2583 dcb7
000000e0: ba72 1438 93fa c638 b300 b735 2ebe 2937
000000f0: 7eb5 dab7 f107 d1b5 2b47 43b7 6b04 9038
00000100: dcc7 e536 1704 a3b8 85a4 8ab8 e252 0638
00000110: d5f5 8337 e4ac 83b7 f26e 6937 d2d0 0638
00000120: 7712 eb38 e10c aab7 4aa8 98b6 940f a9b6
00000130: d003 d6b6 f8fb 3d37 3e15 e137 2600 6337
00000140: e451 2f37 29ca 1337 0bd4 80b7 29af 0d38
00000150: 395d 22b6 7d69 1338 488e 8bb7 580f d236
00000160: d890 83b7 41e7 0d37 569b 1337 f636 25b8
00000170: ba32 d8b7 094c f937 24f0 34b8 8191 ecb6
00000180: 97f3 0637 0fb6 7e38 a39f 45b7 1f4d 6f37
00000190: 5746 8436 a973 c4b7 7e37 6234 09fc 20b8
000001a0: a62b 0ab6 d25d a037 b1d0 9737 9413 6d37
000001b0: 92e3 5837 529e c536 cbb1 3635 e843 0cb7
000001c0: 10b2 dbb7 a0eb 19b6 c536 ce37 2318 f636
000001d0: 3a09 b1b7 816e 0138 8a53 2638 1447 5037
000001e0: 83cd a7b6 bd2a 02b7 abe6 ce38 2b82 3438
000001f0: 12b1 05b8 e342 b4b7 6233 b8b7 242f 6c37
2.1198923e-05 9.4919915e-06 -5.8730734e-06 1.6493139e-05 -1.5347548e-05 -4.0973214e-06 -2.5280342e-05 -4.119491e-05
6.5710124e-06 -4.1731913e-05 -3.1773736e-05 -2.9638639e-05 1.1226238e-05 -1.6535329e-05 -2.0162717e-05 2.5262541e-05
-7.094037e-07 -8.012423e-06 4.8973166e-06 1.715359e-05 6.549026e-06 3.8288683e-05 1.4554809e-05 4.681677e-06
1.2918843e-05 -1.5175629e-05 -5.5596474e-06 -1.5940968e-05 8.837749e-06 1.2860688e-05 -2.3087488e-05 -1.458406e-05
-3.5641353e-06 -1.8477647e-05 -5.0700023e-06 -1.2708266e-05 -1.0285292e-05 1.0828569e-05 2.633562e-05 -8.713687e-06
1.589928e-05 7.850537e-07 -1.0446129e-05 -1.1113713e-06 2.2761038e-05 3.9366682e-06 -2.0192122e-06 1.0296444e-05
1.7812537e-05 1.3589456e-05 -7.208439e-05 -1.7484183e-08 8.488352e-06 8.747156e-06 8.338256e-05 -2.6287113e-05
3.5392797e-05 9.488049e-05 1.3634766e-06 1.0117465e-05 -2.6072139e-05 -1.5574025e-06 -1.1639476e-05 6.867278e-05
6.8479985e-06 -7.7732075e-05 -6.610997e-05 3.202528e-05 1.5730891e-05 -1.5696925e-05 1.3913714e-05 3.214257e-05
0.000112091126 -2.0271576e-05 -4.5495444e-06 -5.038406e-06 -6.378141e-06 1.1323944e-05 2.6831982e-05 1.3530289e-05
1.04498795e-05 8.808952e-06 -1.535753e-05 3.378015e-05 -2.4194144e-06 3.5145775e-05 -1.6636346e-05 6.260274e-06
-1.5683865e-05 8.458098e-06 8.79805e-06 -3.9390252e-05 -2.5772828e-05 2.971852e-05 -4.3138993e-05 -7.050287e-06
8.043738e-06 6.0727874e-05 -1.1779283e-05 1.4263466e-05 3.942095e-06 -2.341888e-05 2.1068078e-07 -3.83817e-05
-2.058901e-06 1.9117175e-05 1.8097782e-05 1.4130859e-05 1.2927589e-05 5.8894884e-06 6.8059006e-07 -8.360461e-06
-2.6189751e-05 -2.2935928e-06 2.4582618e-05 7.334181e-06 -2.110434e-05 3.085891e-05 3.9655286e-05 1.2414315e-05
-5.0009126e-06 -7.758555e-06 9.865811e-05 4.3036573e-05 -3.187458e-05 -2.1488819e-05 -2.1958436e-05 1.4077672e-05

encoder.encoder_layers.0.1.weight f4 [128]
00000000: 05b1 833f 2972 783f 6e6a 833f 92c2 7c3f
00000010: 9e52 803f 49fd 773f 6b22 7b3f c57a 803f
00000020: ac0b 753f fc7b 723f 2c36 7a3f 4cf6 833f
00000030: 1ab3 803f 7831 7e3f edc4 813f a0cc 793f
00000040: 5ac5 833f da55 703f 13ec 773f ee6d 853f
00000050: ba93 773f 9a60 6c3f 2357 773f 59dd 7e3f
00000060: 0fe4 823f e08f 833f cb34 8a3f 99f0 783f
00000070: c4ff 813f ea07 7b3f 12fb 7c3f 9e7c 8a3f
00000080: 9864 773f 6547 843f f5b0 833f 0d7a 723f
00000090: d293 753f 6624 823f 2d4f 803f dcdd 843f
000000a0: 88d3 743f 23ac 783f 9b90 853f a74d 7a3f
000000b0: e747 743f 16d1 723f 77ed 773f e8fc 7e3f
000000c0: d01f 783f d030 753f 4fbc 723f 1c9d 6d3f
000000d0: 20e8 813f 84d5 703f 6571 783f cc57 843f
000000e0: 8b8f 813f f39d 833f 8494 813f 13bd 833f
000000f0: fdd4 743f c13a 843f 8085 713f 51c4 783f
00000100: ba8b 783f 8d93 7e3f e5a2 833f 239b 733f
00000110: e80f 7d3f 18d6 743f 6c67 793f 5c17 7e3f
00000120: 7017 813f 3abf 863f d62b 793f d7c2 7f3f
00000130: 388e 7e3f 8322 833f 291b 7c3f 1be7 833f
00000140: ca01 873f 8f66 6e3f e4d3 773f 2281 843f
00000150: 5b40 7e3f 716c 7c3f a579 853f ca1b 703f
00000160: 1d16 813f 006f 733f 0022 843f a7c4 883f
00000170: 2e6a 873f f61c 853f 9144 813f 3454 833f
00000180: c9fa 803f a6d0 733f 35b3 7c3f 613f 7c3f
00000190: 819b 813f 06f0 823f a69b 7b3f a06e 7f3f
000001a0: 3646 713f 781e 773f c949 803f 2129 763f
000001b0: 9229 823f 7813 7a3f 3c8c 843f 8030 843f
000001c0: 8923 773f 6917 863f 608e 7f3f a8ae 7b3f
000001d0: b511 833f 3dec 753f 5a72 733f 525d 813f
000001e0: 1db9 843f 7f58 733f d8a1 843f c8ef 703f
000001f0: 849d 7c3f dd29 823f 62f5 7b3f e5af 713f
1.0288397 0.97049195 1.0266855 0.9873439 1.0025213 0.9687086 0.9809939 1.0037466
0.95720935 0.94720435 0.9773891 1.0309539 1.0054657 0.99294233 1.0138222 0.9757786
1.0294602 0.93881 0.96844596 1.0424173 0.9670979 0.923349 0.96617335 0.995565
1.0225848 1.0278282 1.0797361 0.9724212 1.0156178 0.9805895 0.988206 1.081928
0.9663787 1.0334288 1.0288378 0.94717485 0.9592868 1.0167358 1.0024163 1.0380206
0.9563527 0.9713766 1.0434755 0.9777474 0.95422214 0.9485029 0.9684672 0.99604654
0.9692354 0.95777607 0.94818586 0.92817855 1.0148964 0.940758 0.97048026 1.0339293
1.0121931 1.0282577 1.0123448 1.0292076 0.95637494 1.033043 0.9434433 0.97174555
0.97088206 0.99443895 1.0284086 0.95158595 0.98852396 0.9563918 0.97423434 0.99254394
1.0085278 1.0527108 0.97332513 0.99906677 0.9943576 1.0244907 0.98478943 1.0304903
1.0547421 0.9312524 0.96807694 1.0351908 0.9931695 0.9860297 1.0427748 0.937924
1.0084873 0.9509125 1.0322876 1.0685014 1.0579278 1.0399463 1.009905 1.0260072
1.0076534 0.9524025 0.9871095 0.9853421 1.0125581 1.0229499 0.98284376 0.99778175
0.9424776 0.96530867 1.0022517 0.9615651 1.0168936 0.97685957 1.0355296 1.0327301
0.965386 1.0475894 0.9982662 0.9831338 1.0239779 0.96063596 0.9509636 1.0106604
1.0368992 0.9505691 1.0361891 0.9411588 0.9867785 1.0169026 0.984213 0.9440902

encoder.encoder_layers.0.1.bias f4 [128]
00000000: f11d be3c 0f71 84bc d6ae 23bd 9c93 34bd
00000010: c4cc bcbd 58f8 52bc abf2 b2bc dfe9 7ebc
00000020: 58c9 cfbc d5a6 11bd 4df1 14bd cfa8 0fbd
00000030: 5d71 3bbd 3eba 603b e4fe 9f3c 45bd 84bd
00000040: aa84 0dbd 827f 55bd d956 57bd 18e5 e93c
00000050: 8492 5fbd 65fc 20bd e933 35bd 21f9 243c
00000060: cf23 333d 9e65 b8ba 3002 383d 44e5 18bc
00000070: 6e6a a63c c65f 10bc d90d e0bc 2195 85bc
00000080: 9344 71bd 0f7b e13b 2719 a73c 2b6a 00bd
00000090: e89f 1bbd 3424 1cbd 3ba3 39bd e4f5 f1bc
000000a0: 0587 1dbd 137f 2ebd fb0c 243b 27bb 52bc
000000b0: e103 81bd 5ed0 cabc 7793 18bd 4934 883c
000000c0: a120 95bc 159b 39bd f60e 3ebd 0024 67bd
000000d0: c11f 4abd 9716 65bd 39fb 94bc 409f 843d
000000e0: 2ea8 00bd 37b5 9cbc bb6e b9bc 6df2 7e3c
000000f0: 5c7c 41bd 2d0a 8ebc 78a7 1ebd c0bd 7bbd
00000100: f4c7 f4bc b514 1cbd 8b70 c53b 5b90 3dbd
00000110: 26cc 21bd 79ac 06bd d25b ecba 1759 83bc
00000120: eab7 96bc 858c 85bd ed5f 0abd 8a9b 21bd
00000130: 10b6 b0bc 5b36 0f3d afde 59bc c55b 89bd
00000140: bee7 063d 703e 82bd b072 26bd fa5e 51bd
00000150: 5bd5 583c 5053 13bd 501f 56bd 6472 36bd
00000160: 16e5 80bc f662 64bd 552d 613d 1577 81bc
00000170: c352 49bd 69c7 48bd 41f8 39bd 3762 9cbc
00000180: a36d c1bc 76d0 61bd ecd8 f1bc 3863 2ebc
00000190: 6f0c be3a b4af 43bd 276d 46bc 649a 7fbd
000001a0: 5c1f 9ebd 8b11 68bd 6fb7 17bd 4a27 2ebd
000001b0: ffbe dabc 13fd 0ebd 97bb 323d 8c7b 07bc
000001c0: 3c41 6dbd b122 483b e787 49bc 302e 1a3c
000001d0: 62c3 98bc 1782 77bd 58b4 e6bc 97bb 8bbd
000001e0: 4bf6 ffbb be02 88bd 3711 dbb9 3054 3cbd
000001f0: 14d6 47bd 2fc2 23bd e671 3bbd e431 6abd
0.023207637 -0.016167192 -0.03996166 -0.044086084 -0.092187434 -0.012876593 -0.021844229 -0.015558689
-0.025364563 -0.035559494 -0.036362935 -0.035073098 -0.04576241 0.0034290696 0.019530721 -0.06481413
-0.034550346 -0.052123554 -0.05257306 0.028551623 -0.054583088 -0.039303202 -0.04423896 0.010069163
0.04373532 -0.001406837 0.04492396 -0.009332005 0.020314422 -0.008811897 -0.027350353 -0.016306462
-0.058903288 0.006881125 0.020397736 -0.03135125 -0.037994295 -0.038120463 -0.045321684 -0.029536195
-0.038458843 -0.042601656 0.002503215 -0.012862003 -0.06299568 -0.02475756 -0.03725001 0.016626494
-0.018204035 -0.045313913 -0.046400987 -0.056430817 -0.04934669 -0.055929746 -0.018186199 0.06475687
-0.03141039 -0.019129379 -0.022635808 0.0155607285 -0.04723774 -0.017338837 -0.03873393 -0.061460257
-0.029880501 -0.038105685 0.006025379 -0.046280246 -0.03950133 -0.032879326 -0.0018032736 -0.016033692
-0.018398244 -0.065209426 -0.03378289 -0.039454974 -0.02157119 0.034963947 -0.013297721 -0.06706957
0.03293585 -0.06359565 -0.04063672 -0.051115967 0.013234462 -0.035968125 -0.052275956 -0.044542685
-0.015734237 -0.05575844 0.054974873 -0.015803853 -0.049151193 -0.049018297 -0.04540277 -0.019089801
-0.02361185 -0.055130444 -0.029522382 -0.010643773 0.0014499555 -0.047774985 -0.012110985 -0.062403098
-0.07720825 -0.056657355 -0.03704017 -0.042517938 -0.026702402 -0.03490932 0.04363593 -0.008269202
-0.05792354 0.0030538256 -0.012300468 0.009410426 -0.018647853 -0.060426798 -0.028162166 -0.06822889
-0.007811343 -0.06641148 -0.0004178376 -0.045978725 -0.048788145 -0.03998011 -0.04576292 -0.057176486

encoder.encoder_layers.0.1.running_mean f4 [128]
00000000: beaf 2d3c ed1c 8a3e a8a5 453f 6a1b cc3e
00000010: 64bc 053f f92c 9fbe ebb0 de3d 9e19 5a3e
00000020: 3ff8 f3be 608e ab3e 2861 9a3e 449c c53e
00000030: 9fd3 273f 8854 1c3e c208 193e 8f3b 583e
00000040: 6d5e 123f 7c20 33bf 240e 2cbd 0961 793e
00000050: 5ab7 cd3b 8245 c6be 9a07 9cbe 89c1 40be
00000060: 4ef5 1d3e ee02 113f bc93 983d 1aa3 71be
00000070: 2f1c 2f3e 93ea a83e 9ace 0dbe 97ba 2b3f
00000080: 619f a03e 7303 c43e c463 c83e d5cf 4fbe
00000090: 2e06 97be d921 6b3e 23c0 373e c949 ea3e
000000a0: 9091 963d 3e8d ac3e cde9 3b3f 635f f7be
000000b0: e684 38be e5a5 f9be e7c7 9ebe 6c19 1f3e
000000c0: b1fd b1bd 5655 b1bd a9ef a3be b159 a9be
000000d0: 9d35 6c3d 5960 3cbe 2373 8fbe 68a9 35be
000000e0: 1db7 dc3e 82b7 e03e 9cff 943d eb9f 9d3e
000000f0: 8892 60bd d339 b83e 56e7 cebe b63d 6b3e
00000100: 80ea 35be da0b a53e 66da 183f 42a3 0c3e
00000110: 56ad 32be 6781 23be a429 24be 9be8 9fbe
00000120: da81 a63e 55b3 ed3e a537 69bd 0901 ca3e
00000130: 38a8 0d3e 5955 6f3d 365a 263e b9ad f63e
00000140: 0c3b 193f 3102 15bf c1e8 883d 4c29 643f
00000150: f431 e3be 950a 163d ec80 df3e bbc5 26bf
00000160: 41a5 993e 5555 c53d efcc d2bd 7090 393f
00000170: 9893 153f 6445 ef3e 9512 e73e 8b4b 1b3f
00000180: a84f 9c3e 8f8d 8ebe fccb 913d 608c 71be
00000190: 26b9 3d3d aea9 303f 1f7c d0be 38e5 c93e
000001a0: 8f7c c6be 9a98 da3e 1a22 d03d 3b1f 6abe
000001b0: 1f15 973e 94fa 8bbc 5a8d 613d 5212 463e
000001c0: 2283 3e3f f901 dd3e 7b88 843d 3e09 09bf
000001d0: 7811 fd3e 3caa 133e b7b9 b6be bc25 e33e
000001e0: 971a 7e3e a27a 2fbe dbbb e73e 0eef 0cbf
000001f0: a945 3b3e 21cb 153f 1589 b93e 92d6 fcbd
0.010600982 0.26975194 0.77205896 0.39864665 0.52240586 -0.31089 0.10873588 0.21298835
-0.47650334 0.3350706 0.3015225 0.38595784 0.65557283 0.15266621 0.14944747 0.2111647
0.5717533 -0.6997144 -0.042005673 0.24353422 0.0062779607 -0.38724905 -0.3047455 -0.18823828
0.15425608 0.56645095 0.07450053 -0.23597375 0.17100595 0.32991466 -0.13848343 0.6708159
0.31371596 0.38283882 0.39138615 -0.20294125 -0.29496902 0.2296213 0.17944388 0.4575942
0.073519826 0.3370151 0.73403627 -0.48314962 -0.18019447 -0.4875938 -0.31011888 0.15537041
-0.08690966 -0.08658855 -0.32018784 -0.33076242 0.057668317 -0.18396129 -0.2801753 -0.17740405
0.43108454 0.43890005 0.07275316 0.3078607 -0.054827243 0.35981616 -0.4041087 0.2297276
-0.17765236 0.32235605 0.5970825 0.13734153 -0.17448935 -0.15967332 -0.1603151 -0.3123215
0.32520944 0.46425882 -0.056937832 0.39453915 0.13833702 0.058431003 0.1624535 0.48179415
0.59855723 -0.5820647 0.06685019 0.89125514 -0.4437405 0.036631186 0.43653047 -0.6514546
0.3000889 0.096354164 -0.10292994 0.7248602 0.58428335 0.46732628 0.45131364 0.60662144
0.30529523 -0.27842376 0.07118985 -0.23588705 0.04631915 0.6900891 -0.40719697 0.39432693
-0.38766906 0.4269455 0.10162754 -0.22863476 0.29508302 -0.017087258 0.055066444 0.19342926
0.7441884 0.43165568 0.06471344 -0.5352973 0.4942739 0.14420408 -0.35688564 0.44364727
0.2481483 -0.17136624 0.4526051 -0.5505227 0.18288292 0.58513075 0.36237398 -0.123456135

encoder.encoder_layers.0.1.running_var f4 [128]
00000000: 34fc 2f3f dd56 763e 791b 3d3f 5e5b 593e
00000010: eb2e 043f 257c 343e 3f1e 4b3e 5f06 873e
00000020: 62ec 923f 9caa 1d3e 1226 6d3e 1c78 273f
00000030: 9411 063f 3118 8d3e d1b4 c43e dc6d e33e
00000040: 5a6f ad3e dc6e 9a3e 8824 243e 8f1d 383f
00000050: 30a3 ab3e ae48 553e b9c2 f83d 2ddb 133f
00000060: fda9 753f b98e 2c3f a902 e83e d295 d33e
00000070: d304 263f f182 9e3e 15d0 9f3e 7949 233f
00000080: a6af b53e f28b e63e f88d f73e 8eee 3f3e
00000090: e632 853e 768f 043f e1a4 b33e f835 6e3e
000000a0: ef03 a93e e684 8b3e 33eb 4f3f 0bc8 db3e
000000b0: 0c3a 333e 1c1d ab3e a1b3 a93e d4b8 243f
000000c0: af86 683e 1dbb 1f3e d283 873e 5133 843e
000000d0: f001 db3e 5e1c a23e 617c 923e 10c2 073f
000000e0: 2cec ed3e 5fc9 d53e 2896 783e 78fd 263f
000000f0: d327 2e3e add5 e83e 9027 da3e 9af9 273e
00000100: 7f7a 133e a78a 693e 07eb 833e b58f 933e
00000110: 24be 423e 64e2 283e e8bc 383f 9145 d33e
00000120: 4b6e d13e 72c5 183f 29ba a93e 1939 233f
00000130: d937 453e 8a7e 143f 7f51 a33e d4ff 9d3e
00000140: 375f 663f 7610 0d3f 3d8f 1c3e 8c10 ee3e
00000150: 2a17 803f 36cc 813e 99b2 9f3e 6f49 1c3f
00000160: 6f06 023f 61b2 553e d209 1a3f 2bf9 263f
00000170: ffb4 313f d29c f73e 859f 923e 8584 883e
00000180: c28a f03e 7b57 1b3e de2e 9e3e d3e1 f03e
00000190: b68c c73e 69f7 cb3e d669 0f3f de79 853e
000001a0: a36d 4e3e 2914 223e 44b9 863e 2046 063f
000001b0: b3a6 d63e cc0d e93e c5a8 333f 458a 253e
000001c0: 77e4 e13e 1d4c e73e 2584 f53e 4507 933f
000001d0: da9e b33e 9286 f83d d0ae a73e dc0d ac3e
000001e0: bcfe f53e b531 903e dd4c 4b3f 5fd8 843e
000001f0: 5389 7f3e d19d d63e a63f da3d dae9 823e
0.68744206 0.24056573 0.73870045 0.2122626 0.5163409 0.17625482 0.19835757 0.26372048
1.1478388 0.15397114 0.23159054 0.6541765 0.5237057 0.2755752 0.38419202 0.44419754
0.33874017 0.30162704 0.1602956 0.719201 0.3352294 0.20828506 0.121465154 0.5775631
0.95962507 0.6740528 0.4531453 0.4132524 0.6485111 0.30959275 0.31213441 0.63783985
0.35485572 0.45028645 0.483505 0.18743345 0.26015395 0.51781404 0.3508673 0.23262775
0.33010814 0.2724983 0.8121826 0.42926058 0.17502612 0.33420646 0.33144858 0.64344525
0.22707628 0.15598722 0.26467758 0.258204 0.42774916 0.31662267 0.2861052 0.5303049
0.46469247 0.41755196 0.2427603 0.6523051 0.17007379 0.45475522 0.4260831 0.16403809
0.14402197 0.22806798 0.2576525 0.28820577 0.19017845 0.16492611 0.7216325 0.41264012
0.4090446 0.5967628 0.3314984 0.63759 0.19259585 0.58005583 0.31898114 0.30859244
0.89989036 0.5510324 0.15289016 0.46497 1.0007069 0.25351113 0.31190947 0.6104955
0.50791067 0.20868827 0.60171235 0.6522395 0.69416803 0.48361832 0.2863733 0.26663604
0.46980864 0.1517009 0.30895132 0.4704729 0.3897454 0.39837196 0.5602087 0.2606954
0.2015901 0.15828003 0.2631322 0.5245075 0.41924056 0.4551834 0.70179397 0.16166027
0.44119617 0.45175257 0.4795238 1.1486593 0.35082132 0.12135042 0.3275056 0.33604324
0.4804591 0.28162923 0.7941416 0.25946328 0.24954729 0.4191728 0.10656671 0.2556904
