scripts/abr_clustering/audiometric_deep_clustering/experiments/full_scale_audiometric_clustering_memory_optimized/20250619_163308_evident/checkpoints/pretrain/pretrain_epoch_40.pt (torch, 710851 bytes, 213 tensors)

encoder.abr_encoder.abr_projection.weight f4 [32, 6]
-0.05652258 0.056854695 -0.10796607 -0.20357539 -0.32519093 -0.2880581 -0.08650788 0.004348642
-0.075768985 -0.46162838 -0.0889852 0.35430816 -0.19346808 -0.27245927 0.2315165 -0.13468887
-0.025030728 -0.28998017 -0.37434635 0.0497572 0.24662909 -0.19658405 -0.117219366 0.11094931
0.20601252 -0.21044971 -0.36045855 0.20143284 -0.43550435 -0.25781107 -0.17643166 0.30094153
0.23801278 0.46307692 0.07266159 -0.15585747 0.3048694 0.32951257 0.14935775 0.258774
-0.1787434 0.049009576 0.3458846 0.08745428 -0.27587152 0.40340376 0.24329266 0.41166955
0.32351243 0.23129824 0.4216839 0.27617458 -0.20739523 -0.07405499 -0.16843072 -0.3777918
-0.21155997 -0.3273401 -0.100641005 -0.028709352 0.05448826 -0.30963638 -0.059127808 -0.18760598
-0.084608704 -0.32657653 -0.30089146 0.1222951 -0.34421092 -0.07728044 -0.14487977 -0.34971648
0.09472454 0.13762645 0.4984371 -0.19718933 -0.05561145 -0.24004441 -0.08036477 0.11105667
0.20105273 -0.008643261 0.36184645 0.14138535 0.0595409 0.17185472 0.33728412 0.30547398
-0.022450102 -0.009913289 0.5178662 0.36629754 0.39446718 -0.1167556 -0.2638585 -0.15045886
0.15320048 0.6094731 -0.095487654 -0.19067131 -0.1321657 0.22606868 0.006119059 -0.2540843
-0.14416997 -0.3093447 -0.0890946 -0.2715111 0.24012537 -0.06285474 -0.17516229 -0.09134763
0.21787952 -0.25471607 0.011244152 0.055213872 0.0105107855 0.08643621 -0.42672822 0.05619992
-0.37100792 0.1862423 -0.4145865 -0.30860138 -0.10128211 0.055802155 -0.10809839 -0.25272748
-0.102765456 -0.11800197 0.38402045 0.30703354 0.44626778 -0.2243004 0.0050351205 -0.13883734
0.41489428 0.33453816 -0.18158835 -0.14909077 0.40688524 -0.005693849 0.34944206 -0.19488598
-0.4312357 -0.29003698 -0.2021159 0.16957143 -0.11616552 -0.11169042 -0.55054766 0.34155855
0.028566431 -0.1123102 -0.025602227 0.10116112 -0.10520612 0.24469422 -0.13173889 0.44168818
0.1564499 0.320989 0.07473789 -0.096425116 0.16967559 0.2703101 0.07011671 0.15161625
0.14730671 -0.30850545 -0.09065223 -0.08668325 -0.11639984 -0.34550276 0.067507565 0.06716425
-0.3615351 0.046308983 0.04198786 0.011094092 0.06059208 -0.51028025 -0.007975792 0.2080342
-0.010749499 0.005121703 -0.2722822 -0.19654095 -0.04331641 -0.11578742 -0.0056660003 -0.08275584
00000000: 3984 67bd 78e0 683d 511d ddbd 1176 50be
00000010: 6d7f a6be 5a7c 93be 0b2b b1bd 0e7f 8e3b
00000020: c52c 9bbd 8e5a ecbe df3d b6bd e167 b53e
00000030: 7f1c 46be c87f 8bbe a912 6d3e e1eb 09be
00000040: 3e0d cdbc 4878 94be 53aa bfbe 35ce 4b3d
00000050: 568c 7c3e 544d 49be b510 f0bd 6439 e33d
00000060: f2f4 523e 2180 57be 068e b8be 6944 4e3e
00000070: 6dfa debe d0ff 83be 80aa 34be 0215 9a3e
00000080: 9fb9 733e 6b18 ed3e 9acf 943d 1a99 1fbe
00000090: d817 9c3e dfb5 a83e 3df1 183e 077e 843e
000000a0: 8308 37be 44be 483d c917 b13e 3b1b b33d
000000b0: 083f 8dbe f08a ce3e b621 793e 5ac6 d23e
000000c0: 6ca3 a53e 72d9 6c3e f4e6 d73e c166 8d3e
000000d0: 6a5f 54be 25aa 97bd 1a79 2cbe ed6d c1be
000000e0: 2da3 58be 1f99 a7be df1c cebd e02f ebbc
000000f0: 152f 5f3d a988 9ebe 0030 72bd c81b 40be
00000100: 5447 adbd 0a35 a7be 720e 9abe da75 fa3d
00000110: 6a3c b0be 3545 9ebd 5d5b 14be 0a0e b3be
00000120: f1fe c13d f3ed 0c3e 2633 ff3e 00ec 49be
00000130: d5c8 63bd 34ce 75be 4996 a4bd ae71 e33d
00000140: c4e0 4d3e 779c 0dbc f043 b93e 52c7 103e
00000150: 29e1 733d affa 2f3e 81b0 ac3e 1667 9c3e
00000160: 47e9 b7bc 596b 22bc e192 043f 5a8b bb3e
00000170: 9af7 c93e 8f1d efbd 7618 87be e311 1abe
00000180: 96e0 1c3e 6e06 1c3f 088f c3bd 573f 43be
00000190: 7256 07be 8c7e 673e 6382 c83b 5617 82be
000001a0: 4ba1 13be 6e62 9ebe 3b77 b6bd 8103 8bbe
000001b0: 6de3 753e fcb9 80bd be5d 33be 7714 bbbd
000001c0: cf1b 5f3e 256a 82be 6439 383c f127 623d
000001d0: 6e35 2c3c 7805 b13d 1f7c dabe e331 663d
000001e0: c0f4 bdbe 4db6 3e3e af44 d4be 0001 9ebe
000001f0: ff6c cfbd cd90 643d b062 ddbd 7f65 81be
00000200: b276 d2bd 04ab f1bd 549e c43e 8033 9d3e
00000210: 367d e43e 01af 65be a7fd a43b 602b 0ebe
00000220: 066d d43e 9648 ab3e 4cf2 39be 40ab 18be
00000230: 4353 d03e 7893 babb 12ea b23e 3190 47be
00000240: edca dcbe ba7f 94be 78f7 4ebe 22a4 2d3e
00000250: 30e8 edbd f2bd e4bd b1f0 0cbf c3e0 ae3e
00000260: 2604 ea3c e402 e6bd c3bb d1bc 902d cf3d
00000270: 4e76 d7bd 1f91 7a3e 8fe6 06be f424 e23e
00000280: 6734 203e ac58 a43e 2e10 993d 887a c5bd
00000290: 70bf 2d3e 1666 8a3e 5a99 8f3d 4a41 1b3e
000002a0: 92d7 163e 6df4 9dbe e0a7 b9bd fd86 b1bd
000002b0: 0a63 eebd bde5 b0be 6841 8a3d 698d 893d
000002c0: 211b b9be 7dae 3d3d 76fb 2b3d ffc3 353c
000002d0: 672f 783d baa1 02bf e5ac 02bc eb06 553e
000002e0: ab1e 30bc f5d3 a73b 9368 8bbe 0842 49be
000002f0: 8c6c 31bd f421 edbd dba9 b9bb e57b a9bd

encoder.abr_encoder.abr_projection.bias f4 [32]
5.588925e-05 3.4329914e-06 9.873896e-06 1.8621353e-05 -1.3551814e-05 2.255775e-05 -1.1106224e-05 3.0042487e-05
-1.1096946e-05 1.8404231e-05 1.5003371e-05 1.6227437e-05 9.359964e-05 1.1523779e-06 5.0358754e-05 -9.305611e-06
-1.656417e-05 -4.4809654e-05 -0.0001002084 -0.00010717433 2.6699461e-05 -0.00016972754 6.2184813e-06 -4.200921e-06
2.5482965e-05 -4.9694238e-05 -2.7710657e-05 2.4449144e-05 1.06803955e-05 0.00015971618 1.4857765e-05 1.3244078e-05
00000000: a06a 6a38 5862 6636 0fa8 2537 0d35 9c37
00000010: 995c 63b7 663a bd37 de54 3ab7 c003 fc37
00000020: 052d 3ab7 c962 9a37 fdb6 7b37 2820 8837
00000030: ed4a c438 67ab 9a35 4d38 5338 4b1f 1cb7
00000040: 49f3 8ab7 00f2 3bb8 fa26 d2b8 c8c2 e0b8
00000050: a8f8 df37 e4f8 31b9 59a8 d036 a3f5 8cb6
00000060: 40c4 d537 c86e 50b8 2f74 e8b7 2318 cd37
00000070: f32f 3337 7c79 2739 9d45 7937 e232 5e37

encoder.abr_encoder.abr_norm.weight f4 [32]
0.84686375 0.8018863 0.79647064 0.7486608 0.86182594 0.79125464 0.74868894 0.9169428
0.78567356 0.94154465 0.8150344 0.9206807 0.86885536 0.82869476 0.8319543 0.8499836
0.84079725 0.9281201 0.78208095 0.7837743 0.8652566 0.77160144 0.81705785 0.77219903
0.9885362 0.8171102 0.9388915 0.8230837 0.7699132 0.82235354 0.85329604 0.909754
00000000: 10cc 583f 6c48 4d3f 80e5 4b3f 3ca8 3f3f
00000010: a0a0 5c3f aa8f 4a3f 14aa 3f3f c3bc 6a3f
00000020: e721 493f 1209 713f 18a6 503f bbb1 6b3f
00000030: 4e6d 5e3f 5725 543f f5fa 543f 8698 593f
00000040: 7d3e 573f 4799 6d3f 7536 483f 6fa5 483f
00000050: 7581 5d3f ac87 453f b42a 513f d6ae 453f
00000060: b510 7d3f 222e 513f 315b 703f 9db5 523f
00000070: 0819 453f c385 523f 9c71 5a3f a3e5 683f

encoder.abr_encoder.abr_norm.bias f4 [32]
-0.25057647 -0.37841868 -0.5002505 -0.45733693 -0.22306709 -0.37107491 -0.47492447 -0.114905894
-0.19658881 -0.08582595 -0.4589905 0.049407385 -0.19124876 -0.36373997 -0.20639564 -0.31106308
-0.3462919 -0.082392536 -0.411513 -0.55564845 -0.32712874 -0.35848993 -0.39834097 -0.3583857
-0.029820384 -0.4124599 -0.28932914 -0.30781487 -0.31445885 -0.51327026 -0.48932466 -0.15921415
00000000: 8f4b 80be 18c0 c1be 6b10 00bf 1128 eabe
00000010: b36b 64be 88fd bdbe 4d29 f3be c853 ebbd
00000020: 944e 49be 84c5 afbd ce00 ebbe 665f 4a3d
00000030: b7d6 43be 203c babe 6159 53be a943 9fbe
00000040: 2c4d b1be 6bbd a8bd d5b1 d2be fa3e 0ebf
00000050: 6b7d a7be fe8b b7be 59f3 cbbe 557e b7be
00000060: e149 f4bc f22d d3be f322 94be e999 9dbe
00000070: c000 a1be ae65 03bf c388 fabe 0909 23be

encoder.abr_encoder.abr_norm.running_mean f4 [32]
-0.05557013 -0.022239234 -0.03450398 -0.011874466 -0.056591548 0.047476444 0.05086967 0.06538128
0.05769516 -0.0714909 -0.053293422 -0.06538251 0.018421976 0.046207376 0.052066218 0.042302523
0.027942209 -0.06284396 -0.00903221 -0.014272605 -0.058335215 0.007909899 0.047214407 0.021730818
-0.05603498 -0.010266661 0.052628286 0.038976725 -0.047907643 -0.011561527 -0.014446435 -0.039544586
00000000: 819d 63bd 0e2f b6bc 0c54 0dbd 1f8d 42bc
00000010: 8acc 67bd a976 423d b75c 503d 9fe6 853d
00000020: c351 6c3d d269 92bd 344a 5abd 44e7 85bd
00000030: afe9 963c f243 3d3d 6343 553d 6945 2d3d
00000040: 0fe7 e43c 56b4 80bd d6fb 13bc a5d7 69bc
00000050: e8f0 6ebd 8598 013c e563 413d d404 b23c
00000060: ef84 65bd 7f35 28bc c290 573d 0fa6 1f3d
00000070: ce3a 44bd 8f6c 3dbc bdb0 6cbc 81f9 21bd

encoder.abr_encoder.abr_norm.running_var f4 [32]
1.1332749 0.21784984 0.62555635 0.13446568 1.0605621 0.7850723 1.1152216 1.9568014
1.2925444 1.9445213 1.1134073 1.6054466 0.13301201 0.7198953 0.9587388 0.8277981
0.49060646 1.4919887 0.05384016 0.08749692 1.2364483 0.069765404 0.9835845 0.13618055
1.309008 0.13443829 1.1477519 0.5538355 0.8751696 0.04279793 0.13896987 0.67438525
00000000: 270f 913f 0714 5f3e 7624 203f 5fb1 093e
00000010: 80c0 873f 80fa 483f 95bf 8e3f 7878 fa3f
00000020: 1872 a53f 13e6 f83f 2184 8e3f 467f cd3f
00000030: 4d34 083e 0f4b 383f e86f 753f 94ea 533f
00000040: c530 fb3e 7cf9 be3f 8087 5c3d 9631 b33d
00000050: f043 9e3f 2ae1 8e3d 32cc 7b3f ea72 0b3e
00000060: 938d a73f 31aa 093e 89e9 923f 2ac8 0d3f
00000070: 1d0b 603f e24c 2f3d 1e4e 0e3e 83a4 2c3f

encoder.abr_encoder.attention.q_projection.weight f4 [64, 1]
0.2811564 0.18207416 0.00013457761 0.08632557 0.022533555 -0.10236953 0.06516995 0.14490712
5.150206e-05 0.19295348 0.06456335 -0.15714522 0.09941695 0.058020435 0.17181641 -0.20456696
-0.28555396 -0.08335311 0.001970976 -0.18093139 -0.033245232 -0.21945152 -0.22716083 0.056491077
0.08738972 0.006211804 0.14348435 -0.027774895 0.045224342 0.02138421 0.106294036 0.050608773
-0.0074164546 0.029498015 0.11381211 0.13439474 -0.231658 -0.04402493 -0.11787027 -0.28608507
-0.2772967 0.1363096 -0.2214272 -0.1912841 -0.07135441 -0.06563635 0.06333644 -0.19376849
-0.1378579 -0.053972192 0.05471993 -0.002186451 -0.033140417 -0.16451205 -0.076420866 0.02521889
-0.14063406 -0.037536733 -0.14634538 0.08338378 -0.14091332 0.0119519215 -0.24207683 0.027277773
00000000: bbf3 8f3e a671 3a3e 671d 0d39 76cb b03d
00000010: 4a98 b83c 1ea7 d1bd d377 853d 8862 143e
00000020: ea03 5838 9995 453e ca39 843d adea 20be
00000030: 1d9b cb3d d6a6 6d3d a4f0 2f3e 007a 51be
00000040: 2134 92be 09b5 aabd 7d2b 013b 1446 39be
00000050: 272c 08bd e6b7 60be d99c 68be 3063 673d
00000060: 62f9 b23d 648c cb3b 90ed 123e 2d88 e3bc
00000070: 293d 393d f02d af3c b0b0 d93d 254b 4f3d
00000080: bb05 f3bb d2a5 f13c 5316 e93d c69e 093e
00000090: c137 6dbe 7c53 34bd f865 f1bd be79 92be
000000a0: d5f9 8dbe be94 0b3e d0bd 62be fbdf 43be
000000b0: 4322 92bd 5a6c 86bd 89b6 813d 3f6b 46be
000000c0: 9f2a 0dbe f211 5dbd 0122 603d 904a 0fbb
000000d0: 3fbe 07bd d975 28be 8b82 9cbd d897 ce3c
000000e0: 6002 10be 1ec0 19bd 90db 15be 1ec5 aa3d
000000f0: 954b 10be fed1 433c fde2 77be a375 df3c

encoder.abr_encoder.attention.q_projection.bias f4 [64]
0.007752552 -0.015576405 -0.019475976 -0.016023213 -0.01591806 0.016898436 -0.016087787 0.009181156
0.0014387784 0.010858585 -0.01765657 -0.010695238 0.009188813 -0.020546468 -0.017669428 -0.00879754
-0.048757754 0.052418347 -0.0023548277 -0.026726741 0.04572226 -0.044491474 -0.044727318 -0.051081665
-0.0472472 -0.02267183 -0.04948979 0.04249202 0.037608378 -0.0059335544 -0.03311575 -0.05042507
0.010178674 -0.010997637 -0.031651884 0.015820758 0.026846344 0.024877127 0.004636927 -0.012891329
-0.016104128 -0.026202066 -0.01592837 -0.009148557 0.026407607 -0.015363457 -0.030650275 0.03149547
-0.008614841 -0.0025012542 -2.2547672e-05 0.0026920396 0.010597804 -0.00921141 -0.006506447 -0.009014531
-0.010125655 -0.00033116678 0.012298229 0.0055637355 0.012114655 -0.00772972 0.012353461 -0.008671556
00000000: 1f09 fe3b 2e34 7fbc 158c 9fbc 1d43 83bc
00000010: 9766 82bc 976e 8a3c 89ca 83bc 8f6c 163c
00000020: 6495 bc3a 35e8 313c 83a4 90bc 143b 2fbc
00000030: ad8c 163c 1151 a8bc 7abf 90bc 8f23 10bc
00000040: 36b6 47bd 9fb4 563d 7453 1abb 0af2 dabc
00000050: 4447 3b3d b13c 36bd fe33 37bd 023b 51bd
00000060: 4886 41bd 46ba b9bc ceb5 4abd 1d0c 2e3d
00000070: 3e0b 1a3d 436e c2bb 61a4 07bd 858a 4ebd
00000080: 74c4 263c 6f2f 34bc 68a5 01bd 899a 813c
00000090: ddec db3c 1ecb cb3c 5df1 973b 2736 53bc
000000a0: ceec 83bc b7a5 d6bc 377c 82bc d4e3 15bc
000000b0: c454 d83c 02b7 7bbc 4916 fbbc 6501 013d
000000c0: 4325 0dbc 15ec 23bb c224 bdb7 ee6c 303b
000000d0: 69a2 2d3c 74eb 16bc 0934 d5bb afb1 13bc
000000e0: 13e6 25bc 74a0 adb9 837e 493c ff4f b63b
000000f0: 8c7c 463c 9749 fdbb 2c66 4a3c 2413 0ebc

encoder.abr_encoder.attention.k_projection.weight f4 [64, 1]
0.12197055 -0.17872739 0.00793175 -0.1163629 -0.0448671 0.084942155 -0.1003659 0.16492379
-0.0014397 0.2666799 -0.05225465 -0.25644553 0.17130709 -0.01973365 -0.0754894 -0.1489876
0.285368 -0.17197584 0.0009914036 0.065712914 -0.05087425 0.1752705 0.17878555 0.1329952
0.03809009 0.0051726946 0.047754038 -0.032290205 -0.13064933 -0.0040680133 -0.001390046 0.11588588
0.00040625155 0.0090401005 -0.04164694 0.25139675 0.20102477 0.15695925 -0.038862072 -0.17585035
-0.26760605 -0.21471067 -0.25922135 -0.118939124 0.13479353 -0.2268112 -0.020705359 0.061739475
0.13575238 -0.034785774 -0.041319285 -6.152705e-05 -0.07768122 0.14847371 0.123916596 0.0021351543
0.1966225 0.059280023 -0.21003549 -0.09222048 -0.18573922 0.0121455025 -0.21246324 0.008648668
00000000: b2cb f93d 5004 37be 2cf4 013c ac4f eebd
00000010: 90c6 37bd 27f6 ad3d a38c cdbd c8e1 283e
00000020: 51b4 bcba 458a 883e f908 56bd d44c 83be
00000030: 206b 2f3e 77a8 a1bc 309a 9abd 3590 18be
00000040: c11b 923e 6f1a 30be fcf1 813a 7e94 863d
00000050: 8461 50bd 1c7a 333e 8f13 373e e52f 083e
00000060: 5b04 1c3d b57f a93b bd99 433d bc42 04bd
00000070: f0c8 05be f84c 85bb 3432 b6ba 9455 ed3d
00000080: 29fe d439 ee1c 143c fb95 2abd 13b7 803e
00000090: 70d9 4d3e edb9 203e d62d 1fbd 1d12 34be
000000a0: a903 89be 1ddd 5bbe a9b8 84be 5b96 f3bd
000000b0: 5107 0a3e 3241 68be 499e a9bc 88e2 7c3d
000000c0: ac02 0b3e 877b 0ebd 693e 29bd 1508 81b8
000000d0: 5517 9fbd 7e09 183e fcc7 fd3d f2ed 0b3b
000000e0: 6957 493e 9ccf 723d 8b13 57be 17de bcbd
000000f0: 6c32 3ebe eefd 463c f78f 59be 25b3 0d3c

encoder.abr_encoder.attention.k_projection.bias f4 [64]
2.8595184e-06 6.8800944e-07 3.6940145e-07 1.6900182e-06 4.8640794e-07 -3.884121e-06 2.2714431e-07 3.4816549e-06
-2.457535e-08 5.575046e-06 1.0230023e-06 -9.1393025e-07 3.1177404e-07 2.1164078e-07 -1.7270693e-06 3.4468204e-07
-5.895872e-06 -1.038484e-06 -1.6391274e-08 -9.721484e-07 -3.498638e-07 -1.1669273e-06 5.3126046e-06 -3.8177015e-07
-8.480637e-07 2.2144278e-07 -9.5616535e-08 9.5385765e-08 1.3328091e-06 1.2335182e-07 8.010868e-07 -3.407618e-07
1.6241074e-07 -1.3749716e-06 -5.011355e-06 -5.1701836e-06 3.4101145e-06 1.3949581e-06 1.4671724e-06 6.7775172e-06
8.712365e-06 -6.2594825e-07 9.454398e-06 3.99788e-06 2.6601535e-06 2.9571165e-06 -8.2896645e-07 5.4981424e-06
-2.6651896e-06 -2.543128e-07 -5.090256e-07 -2.1162188e-08 -8.1165973e-07 -3.0532344e-06 -1.727178e-06 3.985654e-07
3.9260823e-07 -7.896128e-07 -1.6941028e-06 -5.325853e-07 1.3524916e-06 7.617227e-08 -4.3373157e-06 3.484209e-07
00000000: 27e6 3f36 a6af 3835 2652 c634 95d4 e235
00000010: b391 0235 5854 82b6 f4e4 7334 60a6 6936
00000020: c419 d3b2 4811 bb36 174e 8935 cf54 75b5
00000030: e661 a734 603f 6334 a6cd e7b5 bd0c b934
00000040: 28d5 c5b6 0a62 8bb5 cbcc 8cb2 c47a 82b5
00000050: ead4 bbb4 519f 9cb5 ed42 b236 17f6 ccb4
00000060: 7ea6 63b5 bac5 6d34 bf55 cdb3 e1d6 cc33
00000070: f9e2 b235 b172 0434 440a 5735 f2f1 b6b4
00000080: 2063 2e34 aa8b b8b5 3627 a8b6 8a7b adb6
00000090: 52d9 6436 653a bb35 a9eb c435 6e6a e336
000000a0: 532b 1237 d606 28b5 559e 1e37 8725 8636
000000b0: 1785 3236 e072 4636 2486 5eb5 af7c b836
000000c0: 9cdb 32b6 7c88 88b4 f9a3 08b5 25c8 b5b2
000000d0: d5e0 59b5 2be6 4cb6 62d1 e7b5 69fa d534
000000e0: aac7 d234 c7f5 53b5 ee60 e3b5 fcf6 0eb5
000000f0: 4287 b535 2694 a333 4289 91b6 9b0e bb34

encoder.abr_encoder.attention.v_projection.weight f4 [64, 1]
-0.14615393 0.21513127 -0.101566724 -0.043945048 -0.17026718 0.16236933 -0.1546425 0.013609936
0.069742024 -0.20018263 0.0072666574 0.24099338 -0.23202543 0.31942046 0.029057058 0.21266247
-0.104379565 0.24945027 -0.14751701 -0.16019481 0.23768358 -0.20501381 0.2710742 -0.022713514
-0.051231135 0.30499104 0.2612459 0.043142986 -0.30216432 0.0007229918 -0.0008653085 0.072938845
3.0606472e-05 -0.00065084547 -0.35501882 -0.17056783 0.11360539 -0.28862053 0.0727045 -0.268606
-0.0647445 -1.05386225e-05 -0.000120253404 0.022399794 -0.00021970685 -0.022221906 0.17746499 0.09968123
-0.02791051 0.23739281 0.32504705 0.24936163 0.06836825 -0.14117596 0.10629386 -0.018526739
0.2091478 0.36714694 0.018767297 -0.056608632 0.0029127058 0.016912164 0.23857033 -0.0094737215
00000000: 60a9 15be 5f4b 5c3e 3702 d0bd b9ff 33bd
00000010: 855a 2ebe 2544 263e 9b5a 1ebe 36fc 5e3c
00000020: e8d4 8e3d adfc 4cbe 241d ee3b f8c6 763e
00000030: 1398 6dbe 148b a33e 1109 ee3c 31c4 593e
00000040: f4c4 d5bd e46f 7f3e b30e 17be 1c0a 24be
00000050: 5363 733e 24ef 51be 3dca 8a3e b111 babc
00000060: bdd7 51bd c927 9c3e 06c2 853e b3b6 303d
00000070: 48b5 9abe 2987 3d3a dfd5 62ba f660 953d
00000080: 735f 0038 809d 2aba 07c5 b5be 55a9 2ebe
00000090: f1a9 e83d 12c6 93be 19e6 943d ba86 89be
000000a0: c498 84bd 0acf 30b7 8e30 fcb8 c67f b73c
000000b0: 1c61 66b9 b70a b6bc 62b9 353e ac25 cc3d
000000c0: 95a4 e4bc 1a17 733e 916c a63e a858 7f3e
000000d0: a704 8c3d 6e90 10be 98b0 d93d 63c5 97bc
000000e0: d72a 563e affa bb3e e0bd 993c 74de 67bd
000000f0: 18e3 3e3b 618b 8a3c c84b 743e ab37 1bbc

encoder.abr_encoder.attention.v_projection.bias f4 [64]
0.035897136 0.045113202 0.029047122 -0.01727489 -0.043530505 0.043880984 -0.04187141 -0.0030920005
0.03575269 -0.044439744 0.00523945 0.045537673 -0.045377553 0.04624115 0.015929205 0.045017537
-0.009944063 0.01266906 0.013229056 -0.011380968 0.014679948 -0.013481639 0.012705896 0.006679656
0.011299234 0.013429471 0.012214912 -0.008019577 -0.014907441 -0.0077329753 -3.6784706e-05 -0.010651178
1.6578077e-05 0.0004931778 -0.02596572 -0.024678938 -0.005241615 -0.02568338 0.018972345 -0.028595388
-0.017400391 -8.194462e-06 8.6072e-05 0.0054720594 0.0001715221 0.0011816077 0.02801061 0.022339726
-0.008522407 0.012422451 0.020959213 0.011924844 0.014587015 -0.011374756 0.0009437798 -0.00062864745
0.018384112 0.009734593 0.0050112456 0.0023531965 0.0010938465 0.0044672545 0.016480507 -0.0037874775
00000000: e008 133d 9fc8 383d 3bf4 ed3c 1284 8dbc
00000010: 0b4d 32bd 8cbc 333d 5b81 2bbd 29a3 4abb
00000020: 6a71 123d 7306 36bd b1af ab3b b685 3a3d
00000030: d0dd 39bd 5c67 3d3d f77d 823c 4f64 383d
00000040: 6cec 22bc e491 4f3c afbe 583c 3d77 3abc
00000050: 2a84 703c 18e2 5cbc 642c 503c 04e1 da3b
00000060: 6c20 393c 4907 5c3c 0e21 483c 8b64 03bc
00000070: 573e 74bc e664 fdbb 4749 1ab8 4782 2ebc
00000080: 2611 8b37 9a48 013a 10b6 d4bc 7c2b cabc
00000090: dbc1 abbb f465 d2bc e46b 9b3c e040 eabc
000000a0: 448b 8ebc f27a 09b7 8e81 b438 f64e b33b
000000b0: 9dda 3339 2de0 9a3a 8276 e53c cd01 b73c
000000c0: 91a1 0bbc 8987 4b3c a8b2 ab3c 6c60 433c
000000d0: 60fe 6e3c 2f5d 3abc fe67 773a d1cb 24ba
000000e0: 479a 963c d87d 1f3c 6035 a43b 1638 1a3b
000000f0: 665f 8f3a 0c62 923b 2102 873c 5437 78bb

encoder.abr_encoder.attention.output_projection.weight f4 [1, 64]
0.109592356 0.24949305 0.054803323 -0.0035458663 -0.13844416 0.23373827 -0.083534524 -0.004331166
0.14737868 -0.11616712 0.0011401678 0.17499167 -0.16075821 0.2527814 -0.0039310693 0.19818987
-0.15255643 0.13221353 0.15039107 -0.1394436 0.2988599 -0.20079967 0.124920465 -0.0008021514
-0.011161919 0.14035882 0.113729835 -0.029315246 -0.2744024 -0.07671306 -0.00039386403 0.014807502
-2.773744e-06 0.0005131168 -0.30115834 -0.28499174 -0.020360207 -0.30216524 0.07780379 -0.13691756
-0.059112076 -4.760706e-07 0.0001633214 0.0076909936 0.00014205623 0.0037941043 0.0980784 0.19968548
-0.010055979 0.18034407 0.08881583 0.19954173 0.022450928 -0.17749558 -0.044547506 0.01795723
0.091063686 0.37066424 0.020710338 0.10737368 0.0014456369 0.02136267 0.11145266 -0.0042959456
00000000: f571 e03d 1b7b 7f3e 7379 603d c461 68bb
00000010: 4ec4 0dbe 1659 6f3e 2614 abbd 74ec 8dbb
00000020: 70ea 163e 07e9 edbd af71 953a 0431 333e
00000030: cd9d 24be 906c 813e 33d0 80bb 49f2 4a3e
00000040: c137 1cbe fc62 073e 1e00 1a3e 4eca 0ebe
00000050: 2a04 993e 6e9e 4dbe 4dd6 ff3d 7847 52ba
00000060: 7be0 36bc 39ba 0f3e 30eb e83d 8726 f0bc
00000070: 797e 8cbe bd1b 9dbd 897f ceb9 2a9b 723c
00000080: 8f24 3ab6 b082 063a 6d31 9abe 70ea 91be
00000090: 73ca a6bc 67b5 9abe 9857 9f3d 1e34 0cbe
000000a0: 811f 72bd a596 ffb4 4141 2b39 bb04 fc3b
000000b0: eef4 1439 82a6 783b 54dd c83d 5a7a 4c3e
000000c0: d5c1 24bc 1eac 383e 13e5 b53d ab54 4c3e
000000d0: 02eb b73c 67c1 35be 7277 36bd 0a1b 933c
000000e0: 997f ba3d b4c7 bd3e baa8 a93c bbe6 db3d
000000f0: 867b bd3a c400 af3c 4b41 e43d 01c5 8cbb

encoder.metadata_encoder.metadata_projection.weight f4 [48, 12]
0.06785172 -0.07971317 0.0041735373 0.07629934 -0.24100354 -0.36651474 -0.33084214 -0.03145051
1.3106278e-07 0.10731314 0.39871436 0.13754131 -0.001745414 0.019763462 0.08811572 0.09901907
0.07042591 0.08645552 0.11056637 0.009114785 0.15006863 0.11695662 -0.28242105 -0.0024844229
-0.099987045 -0.013518262 0.022373194 0.16415599 -0.058287945 0.1290351 0.12347953 -0.028068276
-0.04922983 -0.27218086 -0.23948154 0.079551905 -0.0056138355 -0.029423928 0.22130935 0.2989296
-0.057572726 0.1512886 0.12603962 0.06784369 0.038582474 0.15850066 -0.273233 0.027672257
-0.018437158 0.003853103 -0.29371792 -0.28388074 -0.21072295 -0.32985273 -0.28285852 -0.017640289
-0.0015160068 0.059187308 -0.4431909 0.020722112 -0.017204007 0.03882969 0.13817865 0.123403385
-0.060481697 0.074607134 0.09427346 0.0035311335 -0.1788209 0.011921301 0.4123507 0.044063658
-0.056801654 -0.034706607 -0.31671873 -0.18952471 -0.10672913 -0.13883576 -0.4202446 0.04141243
-0.00015485707 0.18361546 0.4107981 0.08762106 -0.030271074 0.0072338325 -0.14708692 0.03091508
-0.358629 -0.27119714 -0.18934384 -0.02116529 -0.061431516 0.03441068 0.29659808 0.010118833
0.014717321 -0.024204584 -0.032562237 0.06149739 0.043577563 -0.22355765 -0.04176149 -0.06668412
-0.05469218 0.061225805 0.4755434 0.048985347 -0.024982382 0.017929597 0.25157875 0.008894684
0.2181039 -0.21645035 -0.2209641 0.008681263 0.16304171 0.034729056 -0.32549682 -0.017502867
-0.02750072 0.040158834 0.08397022 -0.21162508 0.04196584 -0.10208052 -0.17236255 0.046616897
-0.12830997 -0.19579194 0.33912995 -0.049148533 0.064542525 0.009256847 -0.17326923 -0.2088255
-0.09784857 0.18788677 0.12604085 -0.02311251 0.045612097 0.21239856 0.38116604 0.03957549
-0.06797536 0.037987743 0.20668441 0.12100531 -0.16445054 0.034590404 0.087704316 -0.00076123845
-0.014406585 -0.101230085 -0.23839281 0.105295375 0.019894818 0.06290729 -0.14455889 -0.28064752
-0.34526214 -0.15129386 -0.19833934 0.04260676 -0.0069209016 0.13595377 0.34235334 0.014538527
0.009609222 -0.026323307 0.0028874383 0.12298285 0.024207449 -0.11149711 -0.08422146 -0.035762444
0.19604975 0.15696278 -0.5608819 -0.07241684 -0.0035441439 -0.08997495 -0.45539704 -0.26267862
0.058708865 -0.070946015 -0.2472977 0.006408424 0.022920245 -0.1341078 0.3220768 0.01209498
-0.11165261 0.064985834 -0.14776348 -0.10697531 -0.1392428 -0.1875699 -0.18441379 0.02793552
0.028237728 -0.098472446 0.3837298 0.22381179 0.05166238 0.051845003 -0.12480816 -0.22225061
-0.06911926 -0.19826743 -0.09808245 0.060761582 0.0010694448 -0.03753705 0.28337845 0.10688318
0.018668538 0.00418284 0.2385211 0.2589166 -0.27593422 -0.24233387 -0.21478103 0.022354916
0.07396601 0.055890933 0.38805708 0.0015167788 -0.016586429 0.08199573 -0.18463306 -0.28762302
-0.1997821 -0.1246061 0.072882056 -0.00072456483 0.018037822 -0.18491703 0.4036131 -0.03626914
-0.036660697 0.13394135 -0.028780898 -0.32078978 -0.11004355 -0.31550997 -0.1495279 0.07807031
-0.047161754 0.12405584 0.34227413 0.12329171 -0.0051582186 0.08500691 -0.05136127 -0.1792159
00000000: d8f5 8a3d a940 a3bd 2bc2 883b d442 9c3d
00000010: a2c9 76be d2a7 bbbe 2464 a9be 40d2 00bd
00000020: 43ba 0c34 fec6 db3d 4a24 cc3e a1d7 0c3e
00000030: 60c6 e4ba fce6 a13c 0476 b43d 83ca ca3d
00000040: 763b 903d 970f b13d 9f70 e23d 2e56 153c
00000050: 97ab 193e f486 ef3d 7e99 90be b3d1 22bb
00000060: 02c6 ccbd b37b 5dbc fd47 b73c 8218 283e
00000070: 57bf 6ebd c721 043e d6e2 fc3d 71ef e5bc
00000080: 38a5 49bd 4a5b 8bbe a63a 75be 1cec a23d
00000090: 44f4 b7bb 730a f1bc eb9e 623e 4d0d 993e
000000a0: 61d1 6bbd 66eb 1a3e 8810 013e a2f1 8a3d
000000b0: a808 1e3d ff4d 223e 32e5 8bbe eeb0 e23c
000000c0: 8609 97bc 5784 7c3b 3262 96be d158 91be
000000d0: c2c7 57be 75e2 a8be d5d2 90be 5e82 90bc
000000e0: bfb4 c6ba 646e 723d ebe9 e2be 6bc1 a93c
000000f0: 6bef 8cbc e20b 1f3d b47e 0d3e eaba fc3d
00000100: a8bb 77bd a0cb 983d 7212 c13d 976a 673b
00000110: d31c 37be 8f51 433c a21f d33e 187c 343d
00000120: daa8 68bd 8428 0ebd f528 a2be c412 42be
00000130: cd94 dabd f62a 0ebe 4d2a d7be 15a0 293d
00000140: 2161 22b9 b105 3c3e 2154 d23e ac72 b33d
00000150: 0bfb f7bc c909 ed3b f49d 16be 9f41 fd3c
00000160: 389e b7be 5ada 8abe 5ae3 41be d562 adbc
00000170: 9d9f 7bbd 37f2 0c3d b4db 973e 76c9 253c
00000180: eb20 713c b148 c6bc fb5f 05bd b0e4 7b3d
00000190: 637e 323d 4cec 64be 190e 2bbd af91 88bd
000001a0: e804 60bd e9c7 7a3d 6d7a f33e dca4 483d
000001b0: daa7 ccbc 17e1 923c eece 803e 02bb 113c
000001c0: a156 5f3e 29a5 5dbe 6a44 62be db3b 0e3c
000001d0: 68f4 263e 0e40 0e3d 85a7 a6be 2c62 8fbc
000001e0: 3149 e1bc 977d 243d 94f8 ab3d 3fb4 58be
000001f0: 5fe4 2b3d 970f d1bd cf7f 30be 5cf1 3e3d
00000200: b063 03be af7d 48be 71a2 ad3e f94f 49bd
00000210: df2e 843d 08aa 173c 7d6d 31be 5ad6 55be
00000220: d564 c8bd 6465 403e da10 013e 7256 bdbc
00000230: c0d3 3a3d 027f 593e 3228 c33e e919 223d
00000240: aa36 8bbd 0999 1b3d 14a5 533e a2d1 f73d
00000250: b965 28be abae 0d3d 529e b33d d98d 47ba
00000260: 9909 6cbc b851 cfbd 3f1d 74be 1aa5 d73d
00000270: 75fa a23c 8ad5 803d 3f07 14be 08b1 8fbe
00000280: 33c6 b0be c7ec 1abe 7819 4bbe 6d84 2e3d
00000290: bbc8 e2bb 7737 0b3e f048 af3e 0033 6e3c
000002a0: 0070 1d3c faa3 d7bc 2d3b 3d3b 6fde fb3d
000002b0: b34e c63c 9958 e4bd 4d7c acbd a47b 12bd
000002c0: 44c1 483e daba 203e f595 0fbf 484f 94bd
000002d0: de44 68bb c944 b8bd cd29 e9be d07d 86be
000002e0: b578 703d 254c 91bd 9c3b 7dbe c2fd d13b
000002f0: 3dc3 bb3c 8e53 09be 40e7 a43e 062a 463c
00000300: 20aa e4bd 4b17 853d 4f4f 17be df15 dbbd
00000310: aa95 0ebe 5312 40be f8d6 3cbe 08d9 e43c
00000320: cf52 e73c ecab c9bd 3b78 c43e eb2e 653e
00000330: ef9b 533d 6d5b 543d 6c9b ffbd aa95 63be
00000340: 668e 8dbd 9e06 4bbe 74df c8bd 23e1 783d
00000350: 9d2c 8c3a 73c0 19bd fb16 913e 92e5 da3d
00000360: c3ee 983c 3510 893b e03e 743e b790 843e
00000370: 4047 8dbe 5f26 78be 8fef 5bbe a821 b73c
00000380: 7e7b 973d e4ed 643d 6baf c63e a7ce c63a
00000390: 43e0 87bc 61ed a73d 7310 3dbe 5343 93be
000003a0: ae93 4cbe 7c31 ffbd 3043 953d b9f0 3dba
000003b0: 0ec4 933c e45a 3dbe 60a6 ce3e f38e 14bd
000003c0: 8729 16bd ec27 093e ebc5 ebbc 8f3e a4be
000003d0: 835e e1bd 868a a1be d81d 19be 54e3 9f3d
000003e0: af2c 41bd fd10 fe3d 8e3e af3e 5d80 fc3d
000003f0: 4606 a9bb 1a18 ae3d 3260 52bd 5f84 37be

encoder.metadata_encoder.metadata_projection.bias f4 [48]
-0.2601266 -0.06925887 0.0034969945 -0.015938597 -0.16606475 -0.18201095 -0.3731424 -0.11566239
-0.20523717 0.017776143 -0.17062409 -0.1387976 -0.1251994 -0.20767984 0.022394981 -0.20069224
-0.33159336 -0.29916626 -0.07485678 -0.14882945 -0.40997386 -0.09124445 -0.27355444 0.025610527
-0.1055426 -0.35537258 -0.023455512 -0.2451511 -0.2717147 -0.11687827 -0.225778 -0.22353573
-0.17771086 -0.07240598 -0.075105906 0.040287912 -0.28790563 -0.020163432 -0.12916194 -0.12941916
-0.1646706 -0.090417504 -0.111501634 -0.22184072 -0.024426473 -0.28903952 -0.05915016 -0.16835834
00000000: 502f 85be 98d7 8dbd d52d 653b a991 82bc
00000010: e10c 2abe 1461 3abe 850c bfbe 67e0 ecbd
00000020: b129 52be 469f 913c 15b8 2ebe f520 0ebe
00000030: 4634 00be 06aa 54be ae75 b73c 4482 4dbe
00000040: 9bc6 a9be 522c 99be 834e 99bd bf66 18be
00000050: 18e8 d1be 5fde babd 540f 8cbe 2bcd d13c
00000060: b826 d8bd 65f3 b5be c625 c0bc e408 7bbe
00000070: 301e 8bbe e05d efbd 5932 67be 8de6 64be
00000080: d6f9 35be 9649 94bd 20d1 99bd f004 253d
00000090: 5e68 93be c82d a5bc 0743 04be 7586 04be
000000a0: 699f 28be d02c b9bd f85a e4bd 372a 63be
000000b0: 071a c8bc fdfc 93be 7047 72bd 2166 2cbe

encoder.encoder_layers.0.0.weight f4 [128, 80]
-0.06729616 -0.018853353 0.003115762 -0.008938306 0.1551569 -0.008053842 -0.06914602 -0.03156354
0.022453852 -0.07830168 -0.03662367 -0.035463993 0.17975514 0.1961475 -0.054120548 0.18308596
0.016759662 -0.03837348 -0.068060845 -0.04479899 -0.057531714 -0.039716203 0.010732335 0.036114164
-0.07210272 -0.03984744 0.13528621 -0.071684614 -0.054245215 0.027741265 0.21016863 0.012044302
-0.013280624 -0.2132135 -0.13092111 -0.053888015 -0.1268478 0.012638458 -0.02728233 0.09475666
0.09013902 -0.13423179 0.17710476 0.14585061 -0.23502702 0.19010694 -0.11924077 0.08410046
0.04266805 0.18761195 0.10092438 0.224023 0.05814351 -0.1216451 0.19932663 -0.002361955
-0.024951674 0.13899328 -0.07689877 0.162303 -0.067171685 -0.004953519 0.18694533 -0.033787955
0.17535922 0.025769524 -0.0735968 -0.19806945 0.035844907 -0.053423423 -0.058008045 0.16504717
0.12553181 0.24537084 -0.045924626 0.06339425 -0.2373313 0.11760995 -0.1795197 0.07291131
-0.040204648 0.15383956 0.048789356 0.16235115 0.11684512 -0.11607732 -0.030383678 -0.045279704
-0.10015701 0.18005382 0.0364834 0.19715129 0.0032777484 0.08644625 0.07984467 0.058756318
-0.11912852 0.19085868 0.009787013 0.06893403 -0.08835634 -0.090745054 0.057055395 0.107033715
0.10689345 -0.07535414 -0.0862152 -0.13076109 -0.050257765 0.07928709 0.034354962 0.043991197
-0.044308905 0.10016795 -0.025990214 -0.041494142 0.11605187 -0.033278577 0.05365975 -0.0017515073
-0.12235203 -0.008161338 0.07458218 -0.038882658 0.07439356 0.07479876 0.1684913 -0.17879614
0.016600367 -0.102859296 -0.11610766 0.019570334 -0.08505663 0.13842764 -0.0565736 0.25860035
-0.001557762 0.09304997 -0.04052357 -0.070263036 -0.07106622 -0.112632796 -0.13210909 -0.10266114
-0.15553409 0.04013081 0.09791631 0.20420294 0.02203544 0.17099784 -0.064854465 -0.2598462
-0.05023388 0.043688346 0.08562647 -0.16968682 -0.032071635 -0.09079632 0.019826706 -0.01694093
0.019041661 0.07798756 -0.09790674 0.036522403 0.105631545 0.03070574 0.12944473 -0.0782878
0.01784358 0.05581943 0.0013600752 0.058832336 0.10260372 0.1419391 0.10348054 0.059336707
0.09436526 -0.09367824 0.07566932 0.0813035 0.06168498 -0.017090164 0.10793953 0.041234344
0.06793663 -0.05055265 0.17056257 -0.089848325 0.029169956 0.15557106 0.09846931 -0.02560289
0.036039133 -0.12769274 -0.08746169 -0.1261374 -0.047263943 0.13073204 0.026813777 0.22680184
0.037094787 -0.010558234 0.22304033 -0.07421951 -0.087182805 0.2503259 -0.03329285 0.19661699
0.18760455 0.2344709 -0.01724333 0.0140450355 0.18400152 -0.09220761 0.036375616 0.06817653
0.0103797745 0.22159111 -0.014964301 0.04959558 0.18106872 0.19086777 -0.013308307 0.15645386
0.07446445 0.09032096 -0.14641175 0.044582523 0.22727333 0.0409369 0.113102816 -0.0989805
0.02444647 -0.046584286 -0.15105537 0.03873229 -0.038428694 -0.030500319 0.03757879 0.1592187
-0.065647475 -0.15419029 0.024099208 0.037324432 0.021012457 0.17956834 0.026940715 0.07023624
0.16397235 -0.046166837 0.18366331 -0.10774459 0.07243417 0.078285486 -0.037096687 0.17618702
00000000: 92d2 89bd 5972 9abc d031 4c3b f971 12bc
00000010: 73e1 1e3e 43f4 03bc 6e9c 8dbd c548 01bd
00000020: 24f1 b73c a25c a0bd b402 16bd b142 11bd
00000030: bb11 383e e4da 483e 82ad 5dbd e37a 3b3e
00000040: 8f4b 893c 832d 1dbd 7c63 8bbd 257f 37bd
00000050: 60a6 6bbd 75ad 22bd add6 2f3c 72ec 133d
00000060: 97aa 93bd 1237 23bd 7888 0a3e 62cf 92bd
00000070: 3b30 5ebd a641 e33c 7236 573e 7755 453c
00000080: f996 59bc a454 5abe 2f10 06be aeb9 5cbd
00000090: 64e4 01be 8911 4f3c 317f dfbc c80f c23d
000000a0: ce9a b83d 0f74 09be f35a 353e dd59 153e
000000b0: ecaa 70be 65ab 423e 8134 f4bd dd3c ac3d
000000c0: b1c4 2e3d 591d 403e 71b1 ce3d 4966 653e
000000d0: e427 6e3d 1121 f9bd 481c 4c3e 07cb 1abb
000000e0: 7467 ccbc 4154 0e3e 1a7d 9dbd c232 263e
000000f0: 4f91 89bd 2151 a2bb 996e 3f3e 3d65 0abd
00000100: 5e91 333e 9c1a d33c ebb9 96bd b8d2 4abe
00000110: 1cd2 123d 85d2 5abd d899 6dbd 2002 293e
00000120: 698b 003e 7e42 7b3e 761b 3cbd d8d4 813d
00000130: fa06 73be 7cdd f03d 03d4 37be 8652 953d
00000140: a1ad 24bd 1e88 1d3e 59d7 473d 613f 263e
00000150: 7f4c ef3d f2b9 edbd 31e7 f8bc 3677 39bd
00000160: 1e1f cdbd 0760 383e 9e6f 153d 07e2 493e
00000170: 7ecf 563b bb0a b13d 9a85 a33d 77aa 703d
00000180: a7f9 f3bd 7570 433e b559 203c 492d 8d3d
00000190: 2bf4 b4bd 8bd8 b9bd ebb2 693d 7e34 db3d
000001a0: f4ea da3d 4553 9abd 9891 b0bd 3ce6 05be
000001b0: 16db 4dbd 4561 a23d cab7 0c3d 1d30 343d
000001c0: 417d 35bd db24 cd3d 6ee9 d4bc c3f5 29bd
000001d0: 9aac ed3d 1e4f 08bd 53ca 5b3d d592 e5ba
000001e0: b393 fabd 22b7 05bc 8bbe 983d 6c43 1fbd
000001f0: a75b 983d 1830 993d fc88 2c3e 5616 37be
00000200: 7efd 873c e5a7 d2bd dac9 edbd f751 a03c
00000210: 2c32 aebd fabf 0d3e b8b9 67bd 4467 843e
00000220: d22d ccba fc90 be3d 0bfc 25bd 11e6 8fbd
00000230: 2b8b 91bd 06ac e6bd 9b47 07be 0140 d2bd
00000240: 5444 1fbe 3460 243d 5988 c83d 931a 513e
00000250: ab83 b43c 0f1a 2f3e 6bd2 84bd 900a 85be
00000260: 0ac2 4dbd 8df2 323d ee5c af3d 62c2 2dbe
00000270: 8c5d 03bd 6cf3 b9bd 9e6b a23c b5c7 8abc
00000280: 42fd 9b3c f1b7 9f3d 5483 c8bd 8498 153d
00000290: 5a55 d83d 9b8a fb3c 298d 043e 5b55 a0bd
000002a0: b32c 923c eaa2 643d 8d44 b23a 2dfa 703d
000002b0: e621 d23d 7c58 113e 9bed d33d 0c0b 733d
000002c0: 9342 c13d 61da bfbd 84f8 9a3d 7382 a63d
000002d0: 64a9 7c3d ac00 8cbc 660f dd3d 58e5 283d
000002e0: 5c22 8b3d 4c10 4fbd f4a7 2e3e 6602 b8bd
000002f0: d5f5 ee3c 054e 1f3e 47aa c93d 27bd d1bc
00000300: c59d 133d e3c1 02be 1d1f b3bd 2a2a 01be
00000310: d697 41bd 9fde 053e 91a8 db3c be3e 683e
00000320: b4f0 173d 71fc 2cbc af64 643e 6600 98bd
00000330: e68c b2bd b72a 803e 155e 08bd f755 493e
00000340: 681b 403e 2419 703e e241 8dbc 261d 663c
00000350: e56a 3c3e 58d7 bcbd 99fe 143d 23a0 8b3d
00000360: ee0f 2a3c c8e8 623e d42c 75bc bc24 4b3d
00000370: 146a 393e d772 433e 160b 5abc 7135 203e
00000380: d180 983d 32fa b83d f6ec 15be 2a9c 363d
00000390: 57ba 683e 73ad 273d 73a2 e73d 4ab6 cabd
000003a0: f743 c83c 2acf 3ebd 42ae 1abe c0a5 1e3d
000003b0: 6867 1dbd cedb f9bc 38ec 193d 3a0a 233e
000003c0: 2f72 86bd 0fe4 1dbe b46b c53c 81e1 183d
000003d0: 5122 ac3c c3e0 373e c6b2 dc3c 05d8 8f3d
000003e0: 5ee8 273e 7019 3dbd 3c12 3c3e 32a9 dcbd
000003f0: 5e58 943d 2454 a03d b2f2 17bd 5f6a 343e

encoder.encoder_layers.0.0.bias f4 [128]
2.41614e-05 -1.1893609e-05 1.8281613e-06 5.97051e-06 -4.061979e-06 -6.5408526e-06 -9.116245e-06 2.507569e-05
1.3467562e-05 4.1445783e-06 1.3369754e-05 -8.7375304e-07 -1.06897405e-05 -1.3238227e-05 -1.9291965e-05 -1.1503517e-05
-1.937987e-06 -7.140071e-06 -2.2268987e-05 1.9357196e-05 1.6001799e-05 -2.9749972e-05 -5.184281e-07 -3.3213506e-05
-7.5923267e-06 1.5699587e-06 4.3288142e-05 9.476509e-06 7.4835866e-06 -2.0265406e-05 2.1184003e-06 -6.8477643e-06
1.5939073e-05 6.2879412e-06 -1.1053809e-05 1.6360658e-05 3.4426083e-07 -3.632187e-06 -1.8131652e-05 -1.2291036e-05
-2.1972697e-05 -2.7235474e-06 -6.564397e-06 -1.7766986e-05 1.314177e-05 -1.0970322e-05 1.4002228e-05 3.5895435e-05
2.782734e-05 1.7369584e-05 9.0696443e-07 2.5336635e-06 1.4784361e-05 7.77867e-06 1.1493305e-05 -7.344957e-06
4.9412956e-06 1.0495383e-05 5.969316e-06 3.239185e-06 -8.657193e-06 1.6572707e-05 -2.3540904e-05 8.822194e-07
8.872701e-06 5.058729e-06 4.535146e-06 2.9405686e-05 2.9223772e-06 9.2988475e-06 -1.4220913e-05 1.8167965e-06
1.3852319e-07 1.2274813e-05 1.2583586e-05 -1.12809075e-05 9.182734e-06 1.9516014e-05 4.9059354e-06 4.587195e-06
1.0903239e-05 -3.5073837e-05 1.551863e-05 1.3643601e-05 -2.5586516e-05 -2.7888093e-06 3.1053357e-06 2.5513422e-05
-7.401662e-06 8.957325e-06 3.4542e-05 6.1161336e-06 -2.755292e-06 -1.1572388e-06 1.147319e-06 3.3486427e-05
1.2152782e-05 -3.083812e-05 1.1968973e-05 1.7748314e-05 -9.515018e-06 7.019343e-06 -1.049946e-05 -1.8617111e-05
-6.686896e-06 -4.1446174e-06 3.5023735e-05 2.4623812e-05 -8.492585e-06 9.823625e-07 -4.341838e-06 -7.8232875e-07
-1.7337271e-06 2.6632044e-06 1.3128539e-06 -3.943978e-06 1.3441508e-05 2.6974261e-05 5.179681e-06 -1.260918e-06
8.028938e-06 3.3181002e-06 4.337005e-06 2.4449306e-05 -2.654921e-06 1.1372864e-05 3.5564885e-06 -3.827396e-05
00000000: 36ae ca37 a98a 47b7 255f f535 4a56 c836
00000010: 224c 88b6 7f79 dbb6 f9f1 18b7 a259 d237
00000020: bdf2 6137 a811 8b36 a84e 6037 da8b 6ab5
00000030: 1658 33b7 c119 5eb7 2ed5 a1b7 3bff 40b7
00000040: 5d0e 02b6 be94 efb6 49ce bab7 4361 a237
00000050: 9a3b 8637 948f f9b7 1c2a 0bb5 bb4e 0bb8
00000060: 97c1 feb6 5fb7 d235 4a90 3538 4cfd 1e37
00000070: 851b fb36 a1ff a9b7 d729 0e36 d9c5 e5b6
00000080: e6b4 8537 01fd d236 c073 39b7 3f3e 8937
00000090: d9d2 b834 7fc0 73b6 6d19 98b7 9935 4eb7
000000a0: 0252 b8b7 30c6 36b6 be43 dcb6 500a 95b7
000000b0: 797b 5c37 2d0d 38b7 1deb 6a37 6e8e 1638
000000c0: c26e e937 e6b4 9137 1f76 7335 0208 2a36
000000d0: 590a 7837 2281 0237 5ed3 4037 b374 f6b6
000000e0: 68cd a536 5415 3037 094c c836 c660 5936
000000f0: 5c3e 11b7 9e05 8b37 b579 c5b7 a8d1 6c35
00000100: f6db 1437 27be a936 9c2c 9836 3bac f637
00000110: 0f1e 4436 3f02 1c37 5b96 6eb7 a7d8 f335
00000120: f7bc 1434 ecef 4d37 171e 5337 2143 3db7
00000130: 8b0f 1a37 52b6 a337 aa9d a436 b4eb 9936
00000140: 0eed 3637 3f1c 13b8 012e 8237 d2e6 6437
00000150: a0a2 d6b7 6127 3bb6 4365 5036 a805 d637
00000160: cb5b f8b6 6b47 1637 31e1 1038 3039 cd36
00000170: 8ee7 38b6 6c52 9bb5 95fd 9935 c773 0c38
00000180: cde3 4b37 2e58 01b8 59ce 4837 37e2 9437
00000190: b1a2 1fb7 b287 eb36 d626 30b7 f12b 9cb7
000001a0: 0060 e0b6 fe11 8bb6 73e6 1238 3c8f ce37
000001b0: 607b 0eb7 b8d9 8335 1bb0 91b6 3901 52b5
000001c0: 69b2 e8b5 81b9 3236 5135 b035 8356 84b6
000001d0: d682 6137 c946 e237 1fcd ad36 d03c a9b5
000001e0: 07b4 0637 87ac 5e36 9786 9136 7c18 cd37
000001f0: 322b 32b6 14ce 3e37 02ac 6e36 5a88 20b8

encoder.encoder_layers.0.1.weight f4 [128]
1.0514237 0.999197 0.96611893 0.9215362 0.9532408 0.9308489 0.9235255 0.9695444
1.0083923 0.8882555 0.9603629 0.99605095 0.9881412 0.8936643 1.0131996 0.9087379
0.9677843 0.9103875 1.0479579 0.9984485 0.97742397 0.96297365 0.9476507 1.0108765
1.0540515 0.9636014 1.0667269 0.97416216 1.0323138 0.9660625 0.97369057 0.94405496
1.0006744 1.0201232 0.91500133 0.9855711 0.9910846 0.90033245 0.93019503 0.9411666
0.9256158 0.98326313 0.9435318 0.9977469 0.9253745 1.018581 0.98989594 1.0484269
0.9224245 0.9136196 0.9391 1.0018907 1.0017245 0.87669116 0.96672213 1.0354729
0.881775 0.9412095 0.9249837 1.0761292 0.98173636 1.0013716 1.0066643 0.8955334
0.9484019 1.0114167 0.9635721 0.898718 0.92019254 0.9217262 1.0142498 0.9852561
0.9768462 1.0459031 0.9747925 0.91114116 0.9444197 0.98011047 1.0082505 0.98656636
1.0120542 0.90731454 0.9023928 1.0036802 0.99825317 0.9307905 0.99003303 1.0561055
0.98952687 0.948855 1.0592291 0.9963459 1.0169132 0.9283466 0.93064123 0.99981254
0.96947116 0.8779219 0.955491 0.9636063 0.9204813 0.97079164 0.93278927 0.9735923
0.94290525 0.8625029 1.0157369 0.97507024 1.0151076 0.92629385 1.0796766 0.9158493
0.9534021 0.9611376 1.0632185 0.9329643 0.930163 0.87949264 0.92529577 0.8843524
1.081877 1.0212326 0.9575578 0.89725244 0.9326149 0.92370373 0.93673754 0.9089128
00000000: 0d95 863f 60cb 7f3f 9253 773f cce9 6b3f
00000010: 9707 743f 1d4c 6e3f 2b6c 6c3f 1034 783f
00000020: 0013 813f b664 633f 58da 753f 32fd 7e3f
00000030: d2f6 7c3f 2fc7 643f 86b0 813f 0ca3 683f
00000040: b6c0 773f 280f 693f 7c23 863f 529a 7f3f
00000050: 7538 7a3f 7185 763f 3c99 723f 6764 813f
00000060: 29eb 863f 95ae 763f 828a 883f b162 793f
00000070: dc22 843f df4f 773f c943 793f 96ad 713f
00000080: 1916 803f 6693 823f 873d 6a3f 634e 7c3f
00000090: b8b7 7d3f 307c 663f 4321 6e3f 4bf0 703f
000000a0: 28f5 6c3f 22b7 7b3f 4d8b 713f 576c 7f3f
000000b0: 58e5 6c3f dd60 823f d269 7d3f da32 863f
000000c0: 0324 6c3f f9e2 693f dc68 703f f43d 803f
000000d0: 8238 803f d56e 603f 1a7b 773f 608a 843f
000000e0: 02bc 613f 1bf3 703f bbcb 6c3f 9abe 893f
000000f0: 1353 7b3f f22c 803f 60da 803f ad41 653f
00000100: 78ca 723f 1a76 813f a9ac 763f 6212 663f
00000110: bd91 6b3f 40f6 6b3f f0d2 813f be39 7c3f
00000120: 9812 7a3f 27e0 853f 008c 793f 8c40 693f
00000130: 7dc5 713f 85e8 7a3f 5a0e 813f 9d8f 7c3f
00000140: fe8a 813f c445 683f 3703 673f 9878 803f
00000150: 858d 7f3f 4948 6e3f ce72 7d3f 772e 873f
00000160: a251 7d3f 29e8 723f d294 873f 8610 7f3f
00000170: 362a 823f 1fa8 6d3f 813e 6e3f b7f3 7f3f
00000180: 432f 783f 7dbf 603f 0f9b 743f e7ae 763f
00000190: aaa4 6b3f cd85 783f 47cb 6e3f 583d 793f
000001a0: 3d62 713f fdcc 5c3f ab03 823f 349e 793f
000001b0: 0cef 813f 9821 6d3f d832 8a3f 1a75 6a3f
000001c0: 2912 743f 1d0d 763f 8b17 883f c0d6 6e3f
000001d0: 2a1f 6e3f 6e26 613f 2fe0 6c3f eb64 623f
000001e0: f27a 8a3f c0b7 823f 8222 753f 56b2 653f
000001f0: dabf 6e3f d977 6c3f 08ce 6f3f 82ae 683f

encoder.encoder_layers.0.1.bias f4 [128]
0.044175774 0.07018827 -0.17708784 -0.1606802 -0.16740888 -0.099038415 -0.11535816 0.12056505
0.075088136 -0.22246636 0.10399598 -0.037136964 -0.09691554 -0.093415834 0.07865832 -0.020976149
-0.07270501 -0.07227913 -0.098657146 0.08868087 0.055784196 -0.16360398 -0.21219786 0.061626334
0.17462894 -0.11764337 0.16641837 0.07124014 0.01884806 -0.07758642 -0.011092549 -0.12651041
-0.13789861 -0.16686863 0.016555682 -0.110800564 -0.024042848 0.0221949 -0.036587335 0.017824963
0.052347627 -0.17835917 0.020454338 -0.06782629 -0.064905636 -0.06971701 -0.054569125 0.051678933
0.025582196 -0.18975332 -0.022300303 0.053099293 0.054566782 0.028919963 -0.06977502 0.027632039
-0.109607786 -0.08923832 -0.12556615 0.10980594 -0.1849886 0.0129097365 -0.1088449 -0.36381167
-0.0786102 -0.06307281 -0.010877823 -0.15841445 -0.1488525 0.026187649 -0.03257464 -0.02124493
-0.087271266 -0.22672781 0.05749702 -0.038808644 -0.18386927 0.012551007 0.10687731 0.024023838
0.04790714 0.003268071 -0.05715197 -0.11836651 0.100253075 -0.0650858 0.029851548 -0.18082547
0.048368722 -0.056522466 0.13347758 -0.108629026 -0.26335487 0.019040553 -0.10506225 -0.103691004
0.10146994 -0.3118742 0.020428052 -0.014779371 0.18720476 -0.09351927 -0.06206681 -0.037159223
-0.06618256 0.059657782 -0.07496945 0.07517766 -0.1117439 0.073051944 0.11408436 -0.0066338405
-0.039545804 0.054999124 0.04581899 0.050345775 -0.094921835 -0.19326684 0.046415064 -0.1977674
0.112430654 -0.19149692 -0.10813807 -0.12743133 -0.19033788 -0.05448137 -0.12162964 -0.18709293
00000000: a8f1 343d debe 8f3d 8456 35be 5a89 24be
00000010: 3c6d 2bbe a7d4 cabd e640 ecbd cfea f63d
00000020: cfc7 993d 39ce 63be d8fb d43d ee1c 18bd
00000030: a87b c6bd cd50 bfbd 9d17 a13d 2cd6 abbc
00000040: 5de6 94bd 1507 94bd c20c cabd 519e b53d
00000050: f87d 643d cd87 27be 654a 59be e56b 7c3d
00000060: eed1 323e 02ef f0bd 9469 2a3e 5ae6 913d
00000070: 3f67 9a3c a1e5 9ebd 86bd 35bc f28b 01be
00000080: 4b35 0dbe 9cdf 2abe c89f 873c 68eb e2bd
00000090: 82f5 c4bc 14d2 b53c 9adc 15bd a805 923c
000000a0: 776a 563d c9a3 36be db8f a73c 83e8 8abd
000000b0: 3fed 84bd cbc7 8ebd e083 5fbd 4aad 533d
000000c0: c191 d13c b24e 42be 20af b6bc a57e 593d
000000d0: 6b81 5f3d 8fe9 ec3c 35e6 8ebd 965c e23c
000000e0: 0c7a e0bd 95c2 b6bd 6a94 00be f0e1 e03d
000000f0: a76d 3dbe 5c83 533c 13ea debd 8645 babe
00000100: 62fe a0bd 512c 81bd e638 32bc 6637 22be
00000110: ca6c 18be 7b87 d63c fc6c 05bd d909 aebc
00000120: 47bb b2bd 562b 68be ff81 6b3d d0f5 1ebd
00000130: 3a48 3cbe bda2 4d3c 7ee2 da3d a4cd c43c
00000140: 473a 443d 222d 563b 2f18 6abd 246a f2bd
00000150: 7c51 cd3d b44b 85bd 3c8b f43c 502a 39be
00000160: 481e 463d 1a84 67bd 59ae 083e e578 debd
00000170: 73d6 86be effa 9b3c e02a d7bd f35b d4bd
00000180: 79cf cf3d faad 9fbe bb58 a73c 2d25 72bc
00000190: 9bb2 3f3e 0887 bfbd c439 7ebd 4534 18bd
000001a0: b98a 87bd b85b 743d 9589 99bd bff6 993d
000001b0: fcd9 e4bd 429c 953d 10a5 e93d b060 d9bb
000001c0: c8fa 21bd c346 613d b1ac 3b3d 5f37 4e3d
000001d0: 6166 c2bd bee7 45be b91d 3e3d 8a83 4abe
000001e0: 0b42 e63d c517 44be 7e77 ddbd 5c7d 02be
000001f0: efe7 42be db27 5fbd f618 f9bd 4a95 3fbe

encoder.encoder_layers.0.1.running_mean f4 [128]
-0.14284137 0.32676324 0.45823961 0.10425869 0.17576173 -0.53926474 0.51268506 0.69628567
-0.6161956 0.7052555 0.024344495 0.30357867 0.62017477 -0.25373754 -0.27935815 0.21281411
0.92862153 -0.2930758 -0.2878458 -0.27394825 -0.24542552 -0.08352531 -0.08704967 0.17535956
0.20555422 0.123633824 -0.08513037 -0.15854573 0.06656289 0.18811291 -0.143641 1.0389062
0.045731723 0.40137875 0.074048616 -0.88411766 -0.04101353 0.09758486 0.22804849 -0.5276376
-0.17132694 0.11755541 0.14346308 -0.116968535 -0.11762991 -0.8235787 -0.51800567 0.53375816
-0.7235755 -0.079398364 -0.2677376 -0.5145444 -0.16506389 -0.37267026 -0.38155574 -0.5330824
0.37631652 0.75769514 0.04013783 0.23721366 0.027452292 0.15941535 -0.93475324 0.5650641
0.020772975 -0.048737288 1.1430411 0.08734283 -0.34795004 -0.18166056 -0.09031145 -0.6431511
-0.12861273 0.48551133 -0.073494144 0.34407935 0.02558901 -0.036179278 0.30246425 0.7530753
0.04301349 -0.504905 -0.0059474115 1.013347 -0.28265718 0.59109193 0.50113034 -0.8682261
-0.04925024 0.0733401 0.37224868 0.92378163 0.3841614 0.5044213 0.85673565 0.24362834
0.020473517 -0.14917985 -0.43678564 -0.082873106 0.17157654 0.92778146 -0.23098014 0.7340949
-0.2995474 0.72352815 -0.042185877 -0.36112744 0.30671513 0.21331124 0.65692943 -0.17570882
1.1679268 0.12221061 0.60421616 -0.049974333 0.67430496 -0.04083691 0.30030158 0.66151124
0.2440073 -0.13811821 0.3071509 -0.80782634 0.22379605 0.20371066 0.7987997 0.035715822
00000000: 0245 12be 834d a73e 629e ea3e 9485 d53d
00000010: e2fa 333e 410d 0abf 543f 033f c73f 323f
00000020: ffbe 1dbf a08b 343f 1b6e c73c aa6e 9b3e
00000030: c6c3 1e3f e3e9 81be 0808 8fbe f1eb 593e
00000040: 24ba 6d3f 080e 96be 8660 93be f242 8cbe
00000050: d450 7bbe 510f abbd 1947 b2bd 7591 333e
00000060: ce7c 523e bb33 fd3d d558 aebd d059 22be
00000070: 2052 883d aca0 403e a016 13be e1fa 843f
00000080: 3051 3b3d 8481 cd3e cda6 973d 8955 62bf
00000090: cefd 27bd 92da c73d 8b85 693e 4213 07bf
000000a0: 5470 2fbe e4c0 f03d fce7 123e 338d efbd
000000b0: f3e7 f0bd 0ed6 52bf 059c 04bf 60a4 083f
000000c0: 3e3c 39bf 9c9b a2bd e714 89be 2fb9 03bf
000000d0: 8206 29be a3ce bebe 465b c3be 1778 08bf
000000e0: 8fac c03e 4ff8 413f 9167 243d 23e8 723e
000000f0: a1e3 e03c c73d 233e fd4b 6fbf 0aa8 103f
00000100: 162c aa3c c0a0 47bd 2c4f 923f cce0 b23d
00000110: 8226 b2be 3a05 3abe 36f5 b8bd 8da5 24bf
00000120: 0eb3 03be f194 f83e 1984 96bd 2b2b b03e
00000130: 0ba0 d13c b930 14bd 98dc 9a3e 8bc9 403f
00000140: ea2e 303d 7441 01bf 81e2 c2bb 5bb5 813f
00000150: 71b8 90be cd51 173f 144a 003f 1144 5ebf
00000160: 9fba 49bd 5633 963d 6197 be3e f47c 6c3f
00000170: ceb0 c43e c121 013f 0753 5b3f b579 793e
00000180: 14b8 a73c 9ac2 18be 5ea2 dfbe 60b9 a9bd
00000190: c3b1 2f3e 1683 6d3f 0f86 6cbe a5ed 3b3f
000001a0: 475e 99be 2439 393f 19cb 2cbd b2e5 b8be
000001b0: c409 9d3e 436e 5a3e 872c 283f 03ed 33be
000001c0: a07e 953f 8e49 fa3d e9ad 1a3f e3b1 4cbd
000001d0: 409f 2c3f 9b44 27bd 21c1 993e cd58 293f
000001e0: 0ddd 793e dc6e 0dbe e242 9d3e b5cd 4ebf
000001f0: cb2a 653e 8799 503e 237e 4c3f c14a 123d

encoder.encoder_layers.0.1.running_var f4 [128]
3.8221972 2.0585797 2.6252332 0.87911683 3.3515713 2.647117 2.9558482 1.476525
2.9822383 1.0359483 3.658475 2.9453263 2.0126975 1.9283642 3.856074 2.221288
2.3756862 3.1293344 0.2672133 3.5311751 2.8293414 0.2213562 0.117718264 2.4563966
3.647238 2.5521693 2.711584 4.375785 1.8306439 1.1755906 3.8102896 1.9885241
1.0462571 2.7788548 3.2558024 1.5919578 3.4159524 2.8245227 2.2106624 3.721544
3.089057 0.6093305 3.6644819 3.8943734 1.8297551 1.8471584 3.4713016 1.2522403
1.4097005 0.15723945 3.2890897 1.0567238 3.2226214 3.145324 2.6924407 3.4827902
2.2172194 1.3872527 1.8928201 2.6479285 1.1768038 3.6404982 1.992159 2.5158298
0.5018944 1.9525799 1.167198 0.13388005 2.1116507 1.5560067 1.6615311 2.6223507
2.8822632 2.3423193 2.8393264 3.0693598 0.18624462 3.552624 2.996426 2.2566772
4.190024 4.2442303 0.10986875 2.3630521 4.8363733 1.207364 1.7588946 1.3165398
3.6419027 1.0394119 2.921145 2.5035625 2.8203661 1.9584047 1.8494115 1.0241721
2.8446538 0.10403064 3.1995478 1.8039951 0.8947111 1.7471067 1.4377444 1.6748325
2.7765946 1.4304537 1.2391404 3.7571292 2.1365232 2.7737298 2.1499429 2.3024375
1.8964331 3.064135 1.4632987 3.9811063 1.5517343 0.14560746 1.4815187 1.6617922
2.3204615 0.20055783 2.9668195 2.6780324 1.5001764 2.295584 1.4229362 0.44726261
00000000: e19e 7440 c5bf 0340 d203 2840 cd0d 613f
00000010: 2580 5640 5d6a 2940 9e2c 3d40 c5fe bc3f
00000020: fedc 3e40 f499 843f 7424 6a40 3a80 3c40
00000030: 09d0 0040 a3d4 f63f ebc9 7640 9529 0e40
00000040: 3e0b 1840 0447 4840 2fd0 883e c6fe 6140
00000050: ee13 3540 33ab 623e 4616 f13d 9a35 1d40
00000060: 596c 6940 be56 2340 988a 2d40 6e06 8c40
00000070: 8a52 ea3f c179 963f c9db 7340 f587 fe3f
00000080: c1eb 853f c2d8 3140 115f 5040 46c5 cb3f
00000090: f79e 5a40 fbc4 3440 7e7b 0d40 c72d 6e40
000000a0: 1cb3 4540 15fd 1b3f df86 6a40 6a3d 7940
000000b0: 6a35 ea3f b06f ec3f ce29 5e40 6949 a03f
000000c0: 1171 b43f 6103 213e 7280 5240 ba42 873f
000000d0: 6e3f 4e40 fd4c 4940 f350 2c40 09e6 5e40
000000e0: ece6 0d40 7f91 b13f ee47 f23f a977 2940
000000f0: 82a1 963f ecfd 6840 11ff fe3f 5b03 2140
00000100: 277c 003f 23ee f93f be66 953f da17 093e
00000110: 4925 0740 3a2b c73f 0dad d43f 98d4 2740
00000120: 0077 3840 8fe8 1540 86b7 3540 6470 4440
00000130: e9b6 3e3e 315e 6340 72c5 3f40 666d 1040
00000140: ad14 8640 bcd0 8740 de02 e13d 3f3c 1740
00000150: 92c3 9a40 e78a 9a3f 7523 e13f 6084 a83f
00000160: ef14 6940 730b 853f 0af4 3a40 5e3a 2040
00000170: e180 3440 01ad fa3f 84b9 ec3f 1218 833f
00000180: cf0e 3640 040e d53d 64c5 4c40 50e9 e63f
00000190: c90b 653f 31a1 df3f 0208 b83f e960 d63f
000001a0: bab3 3140 1b19 b73f 279c 9e3f ce74 7040
000001b0: ccbc 0840 ca84 3140 aa98 0940 235b 1340
000001c0: 52be f23f ca1a 4440 5f4d bb3f 72ca 7e40
000001d0: 3b9f c63f 1f1a 153e 68a2 bd3f 9bb5 d43f
000001e0: 7182 1440 085f 4d3e 5fe0 3d40 e264 2b40
000001f0: c805 c03f d9ea 1240 c622 b63f 9bff e43e
