scripts/abr_clustering/audiometric_deep_clustering/experiments/full_pipeline_test/20250618_174708_evident/checkpoints/joint/best_joint.pt (torch, 344181 bytes, 215 tensors)

encoder.abr_encoder.abr_projection.weight f4 [16, 6]
0	0xbcc9f682	-0.024653677
1	0x3f0a0f09	0.5392919
2	0x3c0d278c	0.008615386
3	0x3e38b807	0.18038951
4	0x3cbf8f93	0.023383891
5	0x3ea81cdc	0.32834518
6	0xbee3a59e	-0.44462293
7	0xbe44d3e6	-0.19221458
8	0x3e972a02	0.29524237
9	0x3dac3431	0.08408392
10	0xbdde2456	-0.10846774
11	0xbf180c52	-0.593938
12	0xbd2bc0c1	-0.04193187
13	0x3e23b50e	0.15987036
14	0xbf2501fe	-0.64456165
15	0x3d9b14bd	0.07572315
16	0xbe2fb8ce	-0.17160341
17	0xbcde2f3d	-0.027122134
18	0x3dd1c5be	0.102427945
19	0xbf1e4526	-0.6182426
20	0x3e260aa2	0.16214994
21	0x3cacd8b6	0.02109943
22	0xbe8f1cfa	-0.27951795
23	0x3e89c0d3	0.26904926
24	0xbdf3f4be	-0.11911915
25	0xbe978948	-0.29596925
26	0x3a49657d	0.00076826644
27	0xbd83a7f4	-0.06428519
28	0xbe87505f	-0.26428506
29	0xbf2fd051	-0.6867724
30	0xbc65342f	-0.013989492
31	0x3ec86e6a	0.3914674
32	0xbf119c75	-0.5687936
33	0xbe1a175b	-0.15047972
34	0xbe3b6f5b	-0.18304197
35	0xbefb0ea6	-0.49034613
36	0x3e2c9804	0.16854864
37	0xbc9fe33a	-0.01951753
38	0x3f137e92	0.57615006
39	0xbeb38790	-0.35064363
40	0x3db8a01d	0.09014914
41	0x3e939c60	0.28830242
42	0x3d592430	0.053013027
43	0xbbd10cf9	-0.0063797203
44	0x3ecac0b6	0.39600152
45	0xbe6bd13f	-0.2302904
46	0x3f30e06d	0.69092447
47	0x3e8aea93	0.2713209
48	0x3e6a54ee	0.2288396
49	0x3f0acc29	0.54217774
50	0x3d4943ca	0.049136914
51	0x3e82f96e	0.25580925
52	0x3d5345f4	0.051580384
53	0xbe960f4b	-0.29308543
54	0x3e8244ae	0.25443023
55	0x3f099534	0.5374329
56	0x3e372979	0.17886914
57	0x3e42c34a	0.1901981
58	0xbea49dc7	-0.32151625
59	0x3e099958	0.13437402
60	0x3dd5f549	0.10447175
61	0xbe6fc8ce	-0.23416445
62	0x3e7d27bb	0.24722187
63	0x3e81a57c	0.25321567
64	0x3e72f5be	0.23726556
65	0x3f2ca323	0.67436427
66	0x3e5a628f	0.2132666
67	0xbdbcece2	-0.09224869
68	0x3d502810	0.050819457
69	0x3f032e8a	0.5124289
70	0x3ed456c6	0.41472453
71	0xbd729ee4	-0.05923356
72	0x3b838725	0.004013913
73	0xbed12d04	-0.40854657
74	0xbe00f088	-0.12591755
75	0xbee4fb28	-0.44722867
76	0x3e965565	0.29362026
77	0x3ecb924b	0.3976005
78	0xbe84f01f	-0.25964448
79	0xbe260381	-0.16212274
80	0xbea8d208	-0.3297274
81	0xbe7dd119	-0.24786796
82	0x3eaa533a	0.33266622
83	0xbf3d03a1	-0.7383366
84	0xbecce24e	-0.40016407
85	0xbf049440	-0.5178871
86	0xbe223447	-0.15840255
87	0xbebde008	-0.37084985
88	0xbeccf28f	-0.40028808
89	0x3eb6abbc	0.35677898
90	0x3e81515a	0.2525738
91	0x3ea38660	0.31938457
92	0x3e214d88	0.15752232
93	0x3eac7eb7	0.33690426
94	0x3ea86905	0.32892624
95	0xbe23ee46	-0.16008863

encoder.abr_encoder.abr_projection.bias f4 [16]
0	0x37aed940	2.0843581e-05
1	0xb771c16e	-1.4409756e-05
2	0xb774bec2	-1.4587948e-05
3	0xb78919f0	-1.634375e-05
4	0x37403fda	1.1458958e-05
5	0x370eb8ba	8.50687e-06
6	0xb7c33de1	-2.3274626e-05
7	0x378bc4f2	1.6661801e-05
8	0xb624bbd3	-2.4547232e-06
9	0x382cf969	4.1240277e-05
10	0xb7506a96	-1.2422583e-05
11	0xb72188dc	-9.628213e-06
12	0x387161a3	5.754981e-05
13	0xb800798c	-3.0630777e-05
14	0x37f73a4e	2.9471845e-05
15	0x380e906e	3.398995e-05

encoder.abr_encoder.abr_norm.weight f4 [16]
0	0x3f539b39	0.82658726
1	0x3f609277	0.8772349
2	0x3f62fde6	0.8866867
3	0x3f3ea56f	0.7447118
4	0x3f7c7735	0.98619395
5	0x3f6d141b	0.92608804
6	0x3f3c4549	0.7354322
7	0x3f4976c1	0.7869683
8	0x3f3ed9f8	0.74551344
9	0x3f4d1d5c	0.80122924
10	0x3f5c8e37	0.861545
11	0x3f5de269	0.866736
12	0x3f4e4790	0.80577946
13	0x3f7a08a7	0.9766945
14	0x3f5e77a4	0.8690131
15	0x3f59e19b	0.8510987

encoder.abr_encoder.abr_norm.bias f4 [16]
0	0xbece5b28	-0.40303922
1	0xbe871b28	-0.26387906
2	0xbe24dc7d	-0.16099735
3	0xbeccf07f	-0.40027234
4	0xbe015f5a	-0.1263403
5	0xbe956367	-0.291774
6	0xbefb1692	-0.49040657
7	0xbedf93af	-0.4366736
8	0xbecae5d6	-0.39628476
9	0xbe95a53f	-0.29227635
10	0xbdf12f00	-0.11776543
11	0xbee8090c	-0.45319402
12	0xbea0d1bc	-0.31410015
13	0xbd9e121f	-0.077183
14	0xbec9296b	-0.39289412
15	0xbe97ba94	-0.29634535

encoder.abr_encoder.abr_norm.running_mean f4 [16]
0	0xbea31bd1	-0.3185716
1	0x3e9484d7	0.290076
2	0x3e4a6eb9	0.197688
3	0x3dd8ec87	0.10591989
4	0x3edd42a3	0.43214902
5	0x3e9dc396	0.30813283
6	0xbe69a34f	-0.22816204
7	0xbeb5eb21	-0.35530952
8	0xbe813394	-0.25234663
9	0xbe96c486	-0.2944681
10	0xbec52904	-0.38507855
11	0xbe9f9bbb	-0.311735
12	0x3db01e17	0.08599489
13	0x3ed949f1	0.42439225
14	0x3ee70005	0.45117202
15	0xbebecbb7	-0.37264797

encoder.abr_encoder.abr_norm.running_var f4 [16]
0	0x3ed0a4f2	0.40750843
1	0x3eb6e7ca	0.35723716
2	0x3e32eb7b	0.17472641
3	0x3d99a5db	0.075023375
4	0x3f3de4b7	0.74177116
5	0x3ed0e5f5	0.40800443
6	0x3e692182	0.22766688
7	0x3f04511e	0.51686275
8	0x3e8b89ab	0.2725347
9	0x3eb95d0a	0.36203796
10	0x3f1b13a8	0.6057687
11	0x3ecd51bc	0.4010142
12	0x3d8a0733	0.067396544
13	0x3f3d628c	0.73978496
14	0x3f5365c3	0.8257715
15	0x3f0dc8af	0.55384344

encoder.abr_encoder.attention.q_projection.weight f4 [16, 1]
0	0x3e121fb9	0.14269914
1	0xbef49f52	-0.47777802
2	0x3aa4f76a	0.0012585942
3	0xbeaa866e	-0.33305687
4	0xbea00aef	-0.31258342
5	0xbea0f76a	-0.31438762
6	0xbe80a76a	-0.25127727
7	0xbea9d91a	-0.33173448
8	0xbeae8008	-0.34082055
9	0xbb6f3637	-0.003650082
10	0xbec65b88	-0.38741708
11	0x3ea66be3	0.32504186
12	0x3bdf7df0	0.006820433
13	0xbf1324ca	-0.5747801
14	0xbf07483e	-0.5284461
15	0xbe4390ab	-0.19098155

encoder.abr_encoder.attention.q_projection.bias f4 [16]
0	0xbcb1bcf3	-0.021696543
1	0xbc75bad6	-0.014998158
2	0x3c34dc91	0.011038915
3	0xbc615ae8	-0.013754584
4	0x3ca7abc0	0.020467639
5	0x3ccb5f20	0.024825633
6	0x3cdcad6c	0.026938163
7	0x3c9c8333	0.01910553
8	0xbbb4ea6d	-0.00552111
9	0x3d1729a9	0.036904965
10	0x3d163789	0.036674056
11	0xbd0f6d1c	-0.035016164
12	0xbd216b65	-0.03940906
13	0xbb98a444	-0.004658254
14	0x3cdd785e	0.027034935
15	0x3d5178b1	0.05114049

encoder.abr_encoder.attention.k_projection.weight f4 [16, 1]
0	0x3e4b606f	0.19861005
1	0x3f0e170b	0.5550391
2	0xb9fda83b	-0.00048381262
3	0x3eba2007	0.3635256
4	0xbe971f30	-0.29515982
5	0xbdccd783	-0.10002043
6	0xbd8b704e	-0.0680853
7	0xbf0d1bba	-0.5512043
8	0xbdf52a76	-0.119709894
9	0x3a7464d6	0.0009322887
10	0x3e58eb89	0.211836
11	0xbe9c9c32	-0.30587918
12	0xbb12f7f0	-0.0022425614
13	0xbde6c796	-0.11268537
14	0xbd964bfa	-0.0733871
15	0xbcdeab91	-0.027181419

encoder.abr_encoder.attention.k_projection.bias f4 [16]
0	0x36a38545	4.873293e-06
1	0xb732e7da	-1.0663609e-05
2	0x33f036f2	1.11858654e-07
3	0xb7346af5	-1.0753739e-05
4	0xb729cec8	-1.012133e-05
5	0xb6935026	-4.390272e-06
6	0xb71695c1	-8.975564e-06
7	0xb6f9884d	-7.436646e-06
8	0xb6e73bd5	-6.891302e-06
9	0xb409ba19	-1.2826821e-07
10	0xb6e6d796	-6.8796317e-06
11	0x37bf85f8	2.2831358e-05
12	0x35abd36f	1.2802028e-06
13	0xb7ae1c51	-2.0755602e-05
14	0xb86293be	-5.4020195e-05
15	0x36bba89b	5.5926625e-06

encoder.abr_encoder.attention.v_projection.weight f4 [16, 1]
0	0xbebe172e	-0.3712706
1	0x3ec96a78	0.39339042
2	0xbeebe0f7	-0.46070072
3	0xbe6bbc98	-0.23021162
4	0x3eaaefeb	0.33386168
5	0xbe3f29db	-0.1866831
6	0xbe925be4	-0.28585732
7	0xbf052c5d	-0.5202082
8	0x3e8216be	0.25407976
9	0x3e189660	0.14901114
10	0x3e09f98d	0.13474102
11	0x3e81103f	0.25207707
12	0xbf06ff05	-0.5273288
13	0xbebb4d37	-0.36582348
14	0x3e9c1e8a	0.3049205
15	0xbee3afb5	-0.4446999

encoder.abr_encoder.attention.v_projection.bias f4 [16]
0	0x3d985613	0.07438292
1	0xbd9a4938	-0.075334966
2	0x3d98c0ee	0.074586734
3	0xbda339fa	-0.079700425
4	0x3da2e98b	0.07954701
5	0xbda1ea6f	-0.07906043
6	0xbda41a79	-0.08012862
7	0x3d9d9f73	0.07696428
8	0x3d018fae	0.031631164
9	0xbd405646	-0.046957277
10	0x3c452db8	0.012034826
11	0xbd34eb38	-0.044169635
12	0x3d593855	0.053032238
13	0x3d3e7f21	0.04650796
14	0xbcc0c66f	-0.02353212
15	0x3d388a6d	0.045053888

encoder.abr_encoder.attention.output_projection.weight f4 [1, 16]
0	0xbe583f6d	-0.21117945
1	0x3e864b29	0.26229218
2	0xbe4b0991	-0.19827868
3	0x3e155bd1	0.14585806
4	0xbeaad886	-0.3336832
5	0x3e6c4fb2	0.23077276
6	0x3ddcd53b	0.10782858
7	0xbed0f670	-0.40813017
8	0xbe94b586	-0.2904474
9	0x3e9ebb9d	0.31002513
10	0xbd1fd7b0	-0.039024055
11	0x3eed71f3	0.46376
12	0xbdf73444	-0.12070516
13	0xbeb3ffd3	-0.35156116
14	0x3d1fa173	0.03897233
15	0xbed6bc1a	-0.41940385

encoder.metadata_encoder.metadata_projection.weight f4 [24, 12]
0	0x3e20d325	0.15705545
1	0x3da13ccf	0.078729264
2	0xbe0d929f	-0.13825463
3	0xbec9e881	-0.394352
4	0x3e046b84	0.12931639
5	0x3e530df6	0.20610794
6	0x3dfc5963	0.12321737
7	0x3ceb53eb	0.028726539
8	0x3e37601a	0.17907754
9	0xbc014963	-0.007891032
10	0xbe8e5ca4	-0.27805054
11	0xbe3e8879	-0.18606748
12	0xbd3a3de0	-0.045469165
13	0xbc1114cd	-0.008855057
14	0x3e0652b0	0.1311748
15	0x3dedbd2d	0.11608348
16	0x3dc70101	0.09716988
17	0x3dca80fe	0.098878846
18	0x3dbaf54f	0.0912882
19	0x3dc2499f	0.09486698
20	0xbd5fb221	-0.054613236
21	0xba753da1	-0.0009355192
22	0xbed42ca7	-0.41440317
23	0xbb8d3465	-0.0043092244
24	0xbd3951c8	-0.04524401
25	0x3d541fda	0.05178819
26	0x3e0530ad	0.1300685
27	0x3d381ddc	0.04495035
28	0xbe25bcd4	-0.16185313
29	0xbe6b1f22	-0.22961095
30	0xbe935bfa	-0.2878111
31	0xbe7579cb	-0.23972242
32	0x3e325056	0.17413458
33	0x3cce4682	0.025180105
34	0xbebf8a9f	-0.37410447
35	0x3d838fe9	0.06423933
36	0xbc963cb8	-0.0183395
37	0xba4dd365	-0.00078516296
38	0x3d19e86e	0.037575178
39	0x3c294e8e	0.01033367
40	0x3e733b7e	0.23753163
41	0x3c54fd6b	0.012999873
42	0x3e3a6a7c	0.18204683
43	0x3e2f6d56	0.17131552
44	0x3da8634f	0.082220666
45	0xbcc07bb8	-0.023496494
46	0xbeb12054	-0.34594977
47	0xbb4d25d7	-0.0031303072
48	0xbd457568	-0.04820767
49	0x3d43e9e6	0.047830485
50	0x3e7aaf19	0.24480857
51	0x3e387fc2	0.18017486
52	0xbe4d5a21	-0.20053913
53	0xbd11e66d	-0.03562014
54	0xbd9f5cee	-0.07781397
55	0xbe3efe61	-0.18651725
56	0xbe0e31ed	-0.13886233
57	0x3d1a867e	0.037725918
58	0xbead46db	-0.3384312
59	0x3d8862ec	0.06659493
60	0x3c446613	0.011987227
61	0x3d34ba8f	0.04412323
62	0xbe8b3b1e	-0.2719354
63	0xbe8a9a4c	-0.27070844
64	0x3e176c56	0.1478742
65	0x3e8ca6bc	0.27470958
66	0x3e5cf47d	0.2157764
67	0x3e74c41a	0.23902932
68	0xbc163bd7	-0.00916954
69	0x3dfc2e76	0.12313549
70	0x3f3313f5	0.69952327
71	0x3d34bf57	0.04412779
72	0x3d508ef6	0.05091759
73	0xbd2a5e50	-0.04159385
74	0x3d17d213	0.037065577
75	0x3e13ce2f	0.14434122
76	0xbdc7bd65	-0.09752921
77	0xbec95c25	-0.39328113
78	0xbe9d8f21	-0.3077326
79	0xbeb04493	-0.34427318
80	0xbd066524	-0.0328113
81	0x3d866413	0.065620564
82	0xbebcab4b	-0.36849436
83	0xbc28f53a	-0.010312373
84	0xbd5578ad	-0.05211704
85	0x3b8076f3	0.00392043
86	0xbe56df40	-0.209836
87	0xbe4f218e	-0.20227644
88	0xbe84595c	-0.25849426
89	0xbe7b662d	-0.24550696
90	0xbea9bb64	-0.3315078
91	0xbe5abc3d	-0.2136087
92	0xbe1e8364	-0.15479809
93	0xbe5e5c54	-0.21714908
94	0xbf022020	-0.5083027
95	0x3d6407eb	0.055671614
96	0xbda5feb8	-0.08105224
97	0x3d73ddc6	0.05953767
98	0x3d728c56	0.059215866
99	0xbd65f0b7	-0.056137767
100	0xbd890576	-0.06690495
101	0xbeb1f853	-0.3475977
102	0xbeb0299d	-0.34406748
103	0xbea8b6c4	-0.3295194
104	0xbe097055	-0.13421758
105	0xbd5aaab1	-0.05338544
106	0x3e9ad668	0.30241704
107	0x3bd5c1e6	0.0065233586
108	0x3c8136ca	0.015773196
109	0xbc9383ca	-0.018007178
110	0x3df8d386	0.1214972
111	0x3e271a5c	0.16318649
112	0xbdcf5612	-0.101238385
113	0x3d34b83a	0.044121005
114	0xbe0ca162	-0.13733438
115	0xbcbafba4	-0.02282507
116	0xbde55273	-0.111973666
117	0x3d9d0cf7	0.076684885
118	0x3f1c2df1	0.610076
119	0x3d8f9fe4	0.070129186
120	0x3c886b1b	0.016652634
121	0xbd59a307	-0.05313399
122	0xbde44d3d	-0.111475445
123	0x3d515011	0.051101748
124	0xbea2c1fe	-0.3178863
125	0xbe8dd118	-0.27698588
126	0xbe5f2b2b	-0.21793811
127	0xbe43a1f1	-0.19104744
128	0x943d5631	-9.55906e-27
129	0x3da473af	0.080298774
130	0x3ecc20ac	0.39868677
131	0x3d9edfbd	0.077575184
132	0xbd60a0a9	-0.054840717
133	0xbb96062a	-0.0045783715
134	0xbcf5b2bd	-0.029992456
135	0x3ce99744	0.028514512
136	0xbd959eb9	-0.073056646
137	0x3d83f5d3	0.064433716
138	0x3c4353e5	0.0119218575
139	0x3d094797	0.03351554
140	0xba71b7ec	-0.0009220827
141	0xbd217bea	-0.039424814
142	0xbecd2a1d	-0.40071192
143	0x3d25a51c	0.040440664
144	0xbd59fbae	-0.053218536
145	0xbc091a22	-0.008368047
146	0xbe9ab618	-0.30217052
147	0xbe90de1d	-0.2829446
148	0xbe3d1bd8	-0.18467653
149	0xbe014c74	-0.12626821
150	0xbdd3f1f4	-0.10348883
151	0xbe3e9994	-0.18613273
152	0x3c99a8df	0.018757282
153	0xbd6507d1	-0.055915657
154	0xbed3059b	-0.41215214
155	0x3bef5cd3	0.0073047667
156	0x3d9ed969	0.077563114
157	0x3c259b28	0.010107793
158	0xbdb5f0d2	-0.088838235
159	0xbd0bdcfd	-0.034146298
160	0xbe86aea5	-0.26305118
161	0xbe730c80	-0.23735237
162	0xbb2a89ff	-0.0026022193
163	0xbde8b216	-0.11362092
164	0xbbe29d07	-0.006915692
165	0x3e0e40bb	0.1389188
166	0x3f35e251	0.71048456
167	0x3dbf2908	0.09333998
168	0xbd1e8b25	-0.038706917
169	0xbca256a1	-0.019816699
170	0xbe8c14b5	-0.27359548
171	0xbdf39886	-0.11894326
172	0xbd2d5dbb	-0.042325716
173	0xbe2e28a6	-0.17007694
174	0xbe2923b3	-0.16517524
175	0xbe0ae114	-0.13562423
176	0xbd7cd6ec	-0.061728403
177	0x3e0fbfad	0.14037962
178	0xbef27603	-0.4735566
179	0x3cd745f8	0.02627848
180	0xbc8914e8	-0.016733602
181	0xbd39d4c7	-0.045368936
182	0x3df3c18f	0.11902153
183	0x3e63d51d	0.22249265
184	0xbea5209f	-0.3225145
185	0x3e0034b8	0.1252011
186	0x3db19aa7	0.08672076
187	0x3dedc0b1	0.116090186
188	0xbe24de26	-0.16100368
189	0x3de73d18	0.112909496
190	0xbedfd4be	-0.43716997
191	0x3c31c0bb	0.010849173
192	0x3c943619	0.018092202
193	0x3c8c13fe	0.017099377
194	0x3d7c1192	0.061540194
195	0x3d7aed43	0.061261427
196	0xbd83803d	-0.06420944
197	0xbe041978	-0.1290034
198	0xbd9aa742	-0.07551433
199	0xbe078c79	-0.1323718
200	0xbdc817bf	-0.09770154
201	0x3ab42618	0.0013744263
202	0x3f195d3d	0.59907895
203	0x3c4cd2fe	0.012501476
204	0xbbe21dcf	-0.006900526
205	0xbbf47b95	-0.007461021
206	0x3dc2fe48	0.095211565
207	0x3e1ba969	0.15201344
208	0xbe54a060	-0.20764303
209	0xbd8d1216	-0.06888215
210	0xbd1380d6	-0.03601154
211	0xbdb586e8	-0.08863622
212	0x3e9a07f9	0.30084208
213	0x3d76488c	0.06012778
214	0xbf098193	-0.5371334
215	0xbd1ae02d	-0.037811447
216	0x3d817e9f	0.06322979
217	0xbda6bfa6	-0.08142023
218	0xbe063a23	-0.13108115
219	0xbd003bde	-0.031307094
220	0xbcdb3171	-0.026756974
221	0xbd8c36a3	-0.068463586
222	0xbe7d8963	-0.2475944
223	0xbe49323e	-0.19648072
224	0x3cba0af2	0.022710297
225	0x3df26f67	0.118376546
226	0x3f17029d	0.5898836
227	0x3e20b905	0.1569558
228	0xbce9f59f	-0.028559504
229	0xbb80f83e	-0.003935843
230	0xbe301cae	-0.1719844
231	0xbe342a35	-0.17594226
232	0x3db50707	0.08839231
233	0xbe65ad0c	-0.22429293
234	0xbe89c808	-0.26910424
235	0xbe9081a0	-0.28223896
236	0xbd1f5509	-0.038899455
237	0xbe6724b2	-0.22572592
238	0x3ebd0ec5	0.3692533
239	0x3c3a0b8f	0.011355295
240	0xbd226364	-0.039645568
241	0x3d21e0b5	0.039520938
242	0x3c4d646f	0.012536152
243	0xbe5cffad	-0.21581908
244	0xbeae65f2	-0.34062153
245	0xbe523217	-0.2052692
246	0xbe4b4a53	-0.19852571
247	0xbe541f6c	-0.20715111
248	0xbcf2ea97	-0.029652877
249	0xbdce63d1	-0.10077632
250	0x3eb8dc2d	0.3610548
251	0x3ca88538	0.020571336
252	0x3da9b9f2	0.082874194
253	0x3d9604ee	0.07325159
254	0xbe01be7c	-0.1267032
255	0xbe8aef93	-0.27135906

encoder.metadata_encoder.metadata_projection.bias f4 [24]
0	0xbe3de93e	-0.18546006
1	0xbd99102d	-0.074737884
2	0xbe54cedf	-0.2078204
3	0xbddda78d	-0.108229734
4	0xbd8acbeb	-0.067771755
5	0xbe2654a2	-0.16243222
6	0xbdc6bad9	-0.09703607
7	0xbe61983a	-0.22030726
8	0xbe7bfce2	-0.24608186
9	0xbeaef2a1	-0.34169486
10	0xbeb279ac	-0.34858453
11	0x3c860a8a	0.016362447
12	0xbe3c97b2	-0.18417242
13	0xbe9b3c31	-0.3031936
14	0xbe8abf7e	-0.27099222
15	0xbda363a8	-0.07977992
16	0xbe4f015c	-0.20215362
17	0x3d6b90ef	0.057511266
18	0xbe79e217	-0.24402653
19	0xbe94b678	-0.29045463
20	0xbe980fe8	-0.29699636
21	0xbe8bfacf	-0.2733979
22	0xbde0e2e5	-0.10980777
23	0xbdc2a55d	-0.09504197

encoder.encoder_layers.0.0.weight f4 [64, 40]
0	0xbe1cb9f9	-0.15305318
1	0x3ce30ebc	0.027716987
2	0xbe8791ab	-0.26478323
3	0x3d1852c3	0.037188303
4	0x3d2ab0a5	0.041672368
5	0x3e57059e	0.20998237
6	0xbe6d498b	-0.23172586
7	0x3e6e7ed8	0.23290575
8	0x3d0812dd	0.033221114
9	0x3e350576	0.17677864
10	0x3e7aacaa	0.24479929
11	0xbcb3e225	-0.02195842
12	0xbcee2765	-0.02907152
13	0xbe164b7f	-0.14677237
14	0x3e1afed1	0.15136267
15	0xbda279a6	-0.07933359
16	0x3e024db6	0.12724957
17	0x3d969b90	0.0735389
18	0x3e80c118	0.2514732
19	0x3e2bb83e	0.16769502
20	0x3e5ec54f	0.21754955
21	0xbe114300	-0.14185715
22	0xbd415d5f	-0.047208186
23	0xbe4b66d7	-0.19863449
24	0x3e195337	0.1497315
25	0x3c224ea9	0.009906449
26	0x3cd0cf12	0.025489364
27	0x3ce9efa0	0.028556645
28	0xbcd91032	-0.02649698
29	0x3e18c931	0.14920498
30	0xbd8e3955	-0.06944529
31	0x3e824513	0.25443324
32	0xbea0ebf0	-0.31430006
33	0xbebc4c6d	-0.36777058
34	0x3e23c46a	0.15992895
35	0x3e8a8b14	0.27059233
36	0xbd76d93b	-0.06026576
37	0x3e208a3d	0.15677734
38	0xbe5efa60	-0.21775198
39	0xbe132875	-0.14370902
40	0xbdf8ffc1	-0.12158156
41	0x3e53a296	0.2066749
42	0xbe062c4e	-0.13102838
43	0x3e295f88	0.16540349
44	0xbd9db5f4	-0.077007204
45	0xbdaddb5c	-0.08489105
46	0xbdf6188d	-0.120164014
47	0xbe17e703	-0.14834218
48	0x3e588048	0.21142685
49	0xbe546a9c	-0.20743793
50	0xbbc4848d	-0.0059972466
51	0xbc37fc86	-0.01122964
52	0x3e662b16	0.22477373
53	0x3e345c99	0.17613448
54	0xbc4db9c8	-0.012556501
55	0xbd988885	-0.07447914
56	0x3d502912	0.050820418
57	0xbd06b7ab	-0.032890003
58	0x3e59b8b9	0.21261872
59	0xbcdb0de2	-0.026740018
60	0x3dd71bb3	0.1050333
61	0x3eb47891	0.35248235
62	0x3da0436b	0.07825359
63	0xbe85245c	-0.26004303
64	0x3d11fbdf	0.035640594
65	0xbe1787ba	-0.1479787
66	0xbd60b77d	-0.054862488
67	0xbdefe695	-0.11713902
68	0x3e64da83	0.2234898
69	0xbe19cbb2	-0.1501911
70	0xbea41011	-0.32043508
71	0x3d893fef	0.067016475
72	0x3e04f390	0.12983537
73	0xbd0d8e6c	-0.034559652
74	0x3e125c5c	0.14293045
75	0x3dd7febd	0.10546634
76	0xbc646ff9	-0.013942712
77	0xbcd2ddf1	-0.025740596
78	0x3de0e998	0.109820545
79	0x3e90c369	0.28274086
80	0xbb068f59	-0.002053222
81	0x3d3e526a	0.046465315
82	0xbdbd38a8	-0.09239322
83	0xbdc5d0c8	-0.096589625
84	0xbd8076d8	-0.06272668
85	0xbeb9c5be	-0.36283678
86	0x3e0454db	0.12922995
87	0xbdb3bd41	-0.08776332
88	0xbe04d9cb	-0.12973706
89	0xbd36e6c8	-0.044653684
90	0xbca18af8	-0.019719586
91	0xbd804812	-0.06263746
92	0xbdd2106c	-0.102570385
93	0xbe0e1347	-0.13874541
94	0xbd27f854	-0.04100831
95	0x3d94d454	0.07267061
96	0x3cc6aa23	0.02425105
97	0x3d2293c1	0.03969169
98	0xbe6ec2ce	-0.233165
99	0x3e85fc48	0.26169038
100	0x3d8af290	0.067845464
101	0x3e8d70c1	0.27625087
102	0xbdc8a467	-0.09796982
103	0x3e9d2729	0.3069394
104	0x3c54a3c1	0.012978495
105	0xbe5268fd	-0.20547862
106	0x3e4565aa	0.19277063
107	0xbdb27e81	-0.08715535
108	0x3c97302c	0.018455587
109	0x3ea60e4e	0.3243279
110	0x3d44e4f4	0.04806991
111	0x3d1264cb	0.035740655
112	0xbe9d0a91	-0.30672124
113	0x3e5f8ae4	0.21830326
114	0xbc9e498e	-0.019322183
115	0xbd639b74	-0.055568174
116	0xbe29cf33	-0.16582946
117	0x3d5c51d7	0.053788986
118	0x3e43eb55	0.19132741
119	0x3defa0e4	0.11700609
120	0x3e3a2fd3	0.18182306
121	0xbd8ca422	-0.06867243
122	0xbe3b5610	-0.18294549
123	0x3d035c02	0.032070167
124	0xbe2dfd85	-0.16991241
125	0xbe44f42a	-0.19233766
126	0x3db6721f	0.089084856
127	0x3e6bad5b	0.23015349
128	0xbbda86dd	-0.006668909
129	0xbdb5b854	-0.088730484
130	0x3db5dc94	0.088799626
131	0x3c15babc	0.009138759
132	0xbe151951	-0.14560439
133	0xbdd5275b	-0.10407897
134	0xbd981a95	-0.07426945
135	0x3ad773a5	0.0016437663
136	0x3dbd25a4	0.09235695
137	0xbd2e8d5b	-0.042615276
138	0x3ceadd2c	0.028669916
139	0xbdc0ab62	-0.09407689
140	0xbdbd0c5b	-0.09230872
141	0x3e60351d	0.21895261
142	0xbcc775fa	-0.024348248
143	0xbe67b193	-0.22626333
144	0x3e0e1ded	0.13878603
145	0x3e482f21	0.19549228
146	0xbc21dcc4	-0.009879295
147	0xbe1fa2bd	-0.15589423
148	0xbdb60f7e	-0.08889674
149	0x3e42aea2	0.1901193
150	0x3ddc6407	0.10761266
151	0xbe7e67e2	-0.24844316
152	0x3e96ddfc	0.29466236
153	0xbd6662c9	-0.056246553
154	0x3e3630c1	0.17792036
155	0x3b3194b9	0.0027096702
156	0x3d8dc4a6	0.06922273
157	0x3dd8a6eb	0.10578712
158	0xbdec3b25	-0.115347184
159	0x3dc99b18	0.09844035
160	0x3c2eaabf	0.010660826
161	0x3e2a45d6	0.16628203
162	0x3d83705a	0.06417914
163	0x3e11e6f2	0.14248255
164	0xbda93a10	-0.08263028
165	0x3da65375	0.08121387
166	0x3d811910	0.063036084
167	0xbd59d550	-0.053181946
168	0x3cf867d7	0.030322952
169	0x3d66f0dd	0.05638205
170	0xbe19aaa7	-0.15006505
171	0x3cb79ca4	0.02241356
172	0x3d54bd03	0.051938068
173	0x3d9e3784	0.077254325
174	0x3d881473	0.066445254
175	0xbdc9e1bd	-0.09857509
176	0x3e0e5fff	0.13903807
177	0x3e95e99c	0.29279792
178	0x3e02ccb1	0.12773396
179	0x3de0b157	0.10971325
180	0x3c7d1ce4	0.015448783
181	0x3dc2299f	0.09480595
182	0x3e3afc74	0.18260366
183	0x3ef4a83a	0.47784597
184	0xbd608856	-0.05481752
185	0xbda38eaf	-0.07986199
186	0x3dda1a06	0.10649495
187	0x3e1c9e41	0.15294744
188	0x3dd8d5a8	0.10587627
189	0xbd2c52a4	-0.042071
190	0x3eb7cf25	0.35900226
191	0x3e0c1918	0.13681448
192	0xbdeed8cf	-0.11662447
193	0xbd3db170	-0.046311796
194	0xbe2bd6ff	-0.16781233
195	0x3d035074	0.032059148
196	0xba9e1d48	-0.001206317
197	0x3df1b37e	0.118018135
198	0xbd35db3b	-0.044398528
199	0xbd54ac5f	-0.0519222
200	0xbe146e21	-0.14495136
201	0x3e213783	0.15743832
202	0xbcec7682	-0.028865103
203	0x3d1f6914	0.03891857
204	0x3b310b21	0.002701469
205	0x3d5f539f	0.054523107
206	0x3d444694	0.04791887
207	0x3e6d0919	0.23148002
208	0x3e4cbfe9	0.19995083
209	0xbdb6bca9	-0.08922703
210	0x3d76ef91	0.060287062
211	0x3da4ecbf	0.08052968
212	0xbcb59bb0	-0.022168964
213	0xbe439402	-0.19099429
214	0xbcebcafc	-0.028783314
215	0xbd810c7e	-0.06301211
216	0xbe5a7415	-0.21333344
217	0xbb603c16	-0.0034215502
218	0xbe15eca3	-0.14641051
219	0x3dbd5324	0.092443734
220	0xbca6a56e	-0.020342555
221	0x3e58ab27	0.2115904
222	0xbd104890	-0.03522545
223	0x3d1ebf56	0.03875669
224	0x3eb12c07	0.34603903
225	0x3e025ad8	0.12729967
226	0x3e50704f	0.20355342
227	0xbdefe55d	-0.117136694
228	0x3b23d271	0.002499726
229	0x3d4f0580	0.050542355
230	0xbd6e0574	-0.05811067
231	0xbd3a7138	-0.04551813
232	0x3e29578b	0.16537301
233	0xbe5ed298	-0.21760023
234	0x3e48754d	0.19575997
235	0x3e091f7c	0.13390917
236	0x3cc506cc	0.024051093
237	0xbe1bcaff	-0.15214156
238	0xbdafbf71	-0.085814364
239	0x3e0abad9	0.13547839
240	0xbe4e4b0c	-0.20145816
241	0x3e023af5	0.12717803
242	0x3e8d8c5b	0.27646145
243	0xbd9a1fa0	-0.07525563
244	0x3dc943fc	0.0982742
245	0x3bb37883	0.0054770126
246	0x3d2cb90f	0.042168673
247	0x3d94cd33	0.07265701
248	0xbe05eedc	-0.13079399
249	0x3bd6aef7	0.006551619
250	0x3e031d96	0.12804255
251	0x3aee959c	0.0018202546
252	0xbe0f5317	-0.1399654
253	0x3d2443d7	0.04010376
254	0x3dda9215	0.10672394
255	0x3ca5b6eb	0.020228824

encoder.encoder_layers.0.0.bias f4 [64]
0	0xb8a06ac6	-7.6492826e-05
1	0xb8480913	-4.7692167e-05
2	0xb8f9b6a4	-0.00011907265
3	0x37c8374f	2.3867613e-05
4	0x3683abcf	3.9241054e-06
5	0xb766623f	-1.3731943e-05
6	0xb80c31e7	-3.3425076e-05
7	0x3874f6b8	5.8403908e-05
8	0xb77d85f3	-1.5111163e-05
9	0x379d9948	1.8787236e-05
10	0x36a9514c	5.0460567e-06
11	0xb6c046bf	-5.730282e-06
12	0xb7b60444	-2.1698077e-05
13	0x36a5a07a	4.936065e-06
14	0x35d0f340	1.5568003e-06
15	0xb77f5904	-1.521991e-05
16	0xb88eacac	-6.80325e-05
17	0x36950670	4.4412955e-06
18	0xb750cb44	-1.2445093e-05
19	0xb3ac955b	-8.036542e-08
20	0xb7848883	-1.5799194e-05
21	0x3789fb64	1.6448736e-05
22	0x3852ea52	5.028613e-05
23	0xb851e656	-5.0044e-05
24	0x39028c62	0.00012450063
25	0xb88bd8bc	-6.6684064e-05
26	0x37b24dda	2.1255506e-05
27	0x37f3d380	2.9066345e-05
28	0x3798f79d	1.8235116e-05
29	0xb6d8d8bb	-6.4625324e-06
30	0x38078f3c	3.2319906e-05
31	0x381fdc53	3.8113747e-05
32	0xb6f97833	-7.4347713e-06
33	0xb783618d	-1.5661843e-05
34	0xb793d3f3	-1.7622462e-05
35	0x35cdd198	1.533469e-06
36	0xb6064749	-2.000905e-06
37	0x36a35cad	4.8685674e-06
38	0xb878eaee	-5.9346603e-05
39	0x35a175c9	1.2029715e-06
40	0x355f6586	8.322171e-07
41	0x37d3065a	2.5156118e-05
42	0x3718d4b2	9.109428e-06
43	0xb89e7bd4	-7.557092e-05
44	0x37e1b332	2.6905534e-05
45	0xb8245bbf	-3.9186092e-05
46	0x37a2e8fd	1.9420399e-05
47	0x37afd07b	2.0958707e-05
48	0x37fc45a2	3.0073166e-05
49	0xb80294eb	-3.1133106e-05
50	0xb7c4d3ad	-2.346359e-05
51	0xb7450954	-1.1744287e-05
52	0xb7e55661	-2.733915e-05
53	0xb824f00a	-3.93242e-05
54	0x3879341c	5.9414757e-05
55	0xb83ae46f	-4.45586e-05
56	0xb7849091	-1.5802945e-05
57	0x37f18693	2.8792105e-05
58	0x370603d5	7.987915e-06
59	0xb8c43bbc	-9.357135e-05
60	0x369a6d9d	4.6023183e-06
61	0x37362711	1.0857141e-05
62	0xb66745ac	-3.4462237e-06
63	0x370ca36f	8.382703e-06

encoder.encoder_layers.0.1.weight f4 [64]
0	0x3f7b7b33	0.9823486
1	0x3f6d31a8	0.92653894
2	0x3f75bb3b	0.95988816
3	0x3f76373c	0.9617803
4	0x3f835abe	1.0262067
5	0x3f814afe	1.0101011
6	0x3f8b56d4	1.0885873
7	0x3f5948eb	0.8487689
8	0x3f70b121	0.9402028
9	0x3f7af1ae	0.98025024
10	0x3f8133b7	1.0093907
11	0x3f8019bb	1.0007852
12	0x3f8716d3	1.055384
13	0x3f7da84f	0.99084944
14	0x3f80e566	1.0070007
15	0x3f6c4a8a	0.9230124
16	0x3f75e1ee	0.96047866
17	0x3f6a2970	0.9146948
18	0x3f7a872d	0.9786251
19	0x3f6d0054	0.92578626
20	0x3f7cf758	0.98814917
21	0x3f86198a	1.0476544
22	0x3f82a3fa	1.0206292
23	0x3f7e6a2b	0.9938075
24	0x3f6f80f9	0.9355617
25	0x3f8567aa	1.0422261
26	0x3f80f464	1.0074582
27	0x3f84519c	1.0337405
28	0x3f842aa8	1.0325518
29	0x3f8d15ac	1.1022239
30	0x3f565bbf	0.83733743
31	0x3f6763db	0.9038674
32	0x3f83ef6e	1.0307443
33	0x3f80abe5	1.0052458
34	0x3f7e0bed	0.9923695
35	0x3f563ac8	0.83683443
36	0x3f80d341	1.006447
37	0x3f82efd3	1.0229439
38	0x3f72cece	0.9484681
39	0x3f8bc6e3	1.092007
40	0x3f6cdf46	0.9252819
41	0x3f67a778	0.9048991
42	0x3f7c5792	0.9857112
43	0x3f793f15	0.9736188
44	0x3f8a10d1	1.0786382
45	0x3f810f6c	1.0082831
46	0x3f80f0c6	1.0073478
47	0x3f88aa22	1.067692
48	0x3f8d50b2	1.1040251
49	0x3f5dfc8f	0.867135
50	0x3f880a66	1.0628173
51	0x3f6c80e7	0.9238419
52	0x3f85779c	1.0427127
53	0x3f8fdaff	1.1238707
54	0x3f6bc09a	0.9209076
55	0x3f770a38	0.9649997
56	0x3f90299c	1.1262698
57	0x3f6364ba	0.8882557
58	0x3f8b95ba	1.0905068
59	0x3f57f5c7	0.843594
60	0x3f839999	1.0281249
61	0x3f816218	1.0108061
62	0x3f812ad0	1.009119
63	0x3f821c1c	1.0164828

encoder.encoder_layers.0.1.bias f4 [64]
0	0xbe8989b1	-0.26862863
1	0xbe80535b	-0.25063595
2	0xbe82a4b2	-0.25516278
3	0xbd5b5b73	-0.05355401
4	0xbe30e9f5	-0.17276748
5	0xbdc1535b	-0.09439727
6	0x3e3b3890	0.18283296
7	0xbe5a170f	-0.21297859
8	0xbe5b0206	-0.2138749
9	0x3d85c80f	0.06532299
10	0x3ce86369	0.028367715
11	0x3ccccacf	0.02499905
12	0x3d1db03b	0.038498145
13	0xbea1344d	-0.31485215
14	0x3d839314	0.06424537
15	0xbeb3a8b5	-0.3508965
16	0xbd848ef3	-0.06472578
17	0xbe86366b	-0.26213393
18	0xbe89f285	-0.2694284
19	0xbdff0957	-0.12452953
20	0xbdceff1b	-0.10107251
21	0xbd892081	-0.06695653
22	0xbe1f1f68	-0.15539324
23	0xbd977ee6	-0.07397251
24	0xbe359ff4	-0.17736799
25	0x3d500fa4	0.050796166
26	0x3e2e251c	0.17006344
27	0x3e2db712	0.16964367
28	0xbc928e30	-0.017890066
29	0x3e400940	0.18753529
30	0xbed6836d	-0.41897145
31	0xbdc24d0b	-0.09487351
32	0x3deeeedd	0.11666653
33	0xbdbf6922	-0.09346224
34	0xbcfe1428	-0.03101547
35	0xbee397be	-0.44451708
36	0x3cae0cb1	0.021246286
37	0x3d7ab279	0.06120536
38	0xbca9da96	-0.020734113
39	0xbc9a9f98	-0.018874928
40	0xbeb9e60c	-0.36308324
41	0xbe8464d6	-0.25858182
42	0xbe05f06c	-0.13079995
43	0x3d73b47f	0.059498306
44	0x3da77774	0.08177081
45	0x3c9a4058	0.01882951
46	0xbe96e919	-0.29474714
47	0x3dd234c6	0.10263972
48	0x3e46a619	0.19399299
49	0xbe9560b5	-0.29175344
50	0xbca86144	-0.020554192
51	0x3c81891a	0.015812445
52	0x3d903cb4	0.07042828
53	0x3e208b9a	0.15678254
54	0xbed21f9f	-0.4103975
55	0xbe66a319	-0.22523154
56	0x3d61b789	0.055106673
57	0xbe08fcae	-0.1337764
58	0x3e228863	0.1587234
59	0xbec33d87	-0.3813288
60	0xbded78eb	-0.11595329
61	0x3b877f47	0.0041350457
62	0xbe89bf43	-0.26903734
63	0xbe04a77e	-0.12954518

encoder.encoder_layers.0.1.running_mean f4 [64]
0	0xbd47d435	-0.04878636
1	0x3e76ba0b	0.24094407
2	0x3e38a72d	0.18032522
3	0xbd975f31	-0.07391203
4	0x3eb61211	0.3556066
5	0x3dd0fd18	0.10204524
6	0x3ea80606	0.32817096
7	0x3e3146d3	0.17312174
8	0x3d946b01	0.07246972
9	0x3e51a194	0.20471793
10	0xbcdb9ce6	-0.026808213
11	0xbe6c15da	-0.2305521
12	0x3e87c894	0.26520216
13	0xbdc2b441	-0.09507037
14	0x3de3e19b	0.11127015
15	0xbd8f964c	-0.07011089
16	0xbd92cf1d	-0.0716841
17	0x3e239e4d	0.15978356
18	0x3f15dfde	0.5854472
19	0x3e041228	0.12897551
20	0x3ee559da	0.44795114
21	0x3da73f97	0.08166426
22	0xbd4e3579	-0.050343964
23	0x3e1cdf81	0.15319635
24	0x3e3103e3	0.17286639
25	0xbdd97362	-0.10617711
26	0x3df094b4	0.11747113
27	0x3df137bb	0.11778208
28	0x3e158849	0.1460277
29	0x3e907489	0.2821391
30	0xbe921d46	-0.2853796
31	0xbecc3e4e	-0.39891285
32	0x3d9f38d0	0.07774508
33	0xbc369157	-0.01114305
34	0x3cc7669e	0.024340924
35	0xbe0c6908	-0.13711941
36	0x3de17c10	0.11009991
37	0x3d52523d	0.05134796
38	0xbe4e836e	-0.20167324
39	0x3f11ef4d	0.5700577
40	0x3e8edf3e	0.27904695
41	0x3cf4e363	0.029893583
42	0xbdb86eab	-0.09005483
43	0x3de331d9	0.11093492
44	0x3e85d3cf	0.2613816
45	0xbd02c17d	-0.031922806
46	0x3ecb2f69	0.3968461
47	0xbda5f938	-0.08104175
48	0x3e0002cb	0.12501065
49	0x3dc04455	0.09388033
50	0x3eafa545	0.34305778
51	0xbe338933	-0.17532806
52	0x3cccefa8	0.02501662
53	0x3e49229d	0.1964211
54	0x3cc1ad39	0.02364217
55	0x3e83a2e6	0.2571022
56	0x3e8690ce	0.26282352
57	0xbd3438ea	-0.04399959
58	0x3e1d55ee	0.15364811
59	0xbdf42500	-0.1192112
60	0xbbaa6097	-0.0051995027
61	0x3e83629c	0.2566117
62	0x3e622960	0.22086096
63	0x3eb34a81	0.3501778

encoder.encoder_layers.0.1.running_var f4 [64]
0	0x3de637a3	0.112410806
1	0x3dfc1607	0.12308889
2	0x3e048058	0.12939584
3	0x4012b4b2	2.2922788
4	0x3f465628	0.77475214
5	0x3f9c23bc	1.2198405
6	0x3fcbbf28	1.5917711
7	0x3ddfe8b6	0.10933058
8	0x3f28c7fd	0.6593016
9	0x3f3db940	0.74110794
10	0x3de24c80	0.110497475
11	0x4000a463	2.0100334
12	0x3f902fc8	1.1264582
13	0x3dea25e6	0.1143301
14	0x3fe57ebb	1.79293
15	0x3daf18f7	0.085496835
16	0x3fdd8b5c	1.7308154
17	0x3fc0bd60	1.5057793
18	0x3f3f37e4	0.7469466
19	0x3e8d76af	0.2762961
20	0x3fd13568	1.6344423
21	0x3ed9fc02	0.4257508
22	0x3d97d9e2	0.07414605
23	0x3faa084d	1.3283783
24	0x3e07d465	0.13264616
25	0x40132275	2.298978
26	0x3fcce24c	1.600656
27	0x3f71995b	0.94374627
28	0x3fc168f0	1.5110149
29	0x3fcef8c3	1.6169666
30	0x3e79c692	0.24392155
31	0x3ff2651a	1.8937104
32	0x4003e024	2.0605555
33	0x3feb68f8	1.8391409
34	0x3fa90757	1.3205365
35	0x3dd54a7a	0.10414596
36	0x3fbc26d5	1.469935
37	0x3f89c1b5	1.076224
38	0x3f55f194	0.83571744
39	0x3f9692fd	1.1763607
40	0x3f2d06d4	0.67588544
41	0x3dd6587b	0.10466095
42	0x3f95551b	1.1666597
43	0x3f889f9a	1.0673707
44	0x3f9addb7	1.2098912
45	0x3fc00f6f	1.500471
46	0x3fa73e27	1.3065842
47	0x3fa34d42	1.2757952
48	0x3fa3eef4	1.2807298
49	0x3f4da2a8	0.8032632
50	0x3f5be844	0.85901284
51	0x3fd62e99	1.673297
52	0x3fcf6da0	1.620533
53	0x3fc4e2c9	1.5381709
54	0x3dcb06ba	0.09913392
55	0x3f5b262b	0.85605115
56	0x3f9f95da	1.2467606
57	0x3e2b2437	0.16713034
58	0x3fad1ff1	1.3525373
59	0x3e44a5cd	0.19203873
60	0x3fb770c3	1.4331287
61	0x3f7712d5	0.9651311
62	0x3e43eb9a	0.19132844
63	0x3f2c8db4	0.6740372

encoder.encoder_layers.1.0.weight f4 [32, 64]
0	0x3e0ad5cd	0.13558121
1	0xbd1cee88	-0.03831342
2	0xbd32a3a9	-0.04361311
3	0xbe2887be	-0.16458032
4	0x3cb31f2b	0.021865448
5	0xbd94a78e	-0.07258521
6	0xbe01c254	-0.12671787
7	0xbe07abbb	-0.13249104
8	0xbdfc7ae6	-0.123281285
9	0x3e1b2c20	0.15153551
10	0x3e85742f	0.26065204
11	0x3c5ed381	0.013600231
12	0x3e1995b9	0.14998521
13	0x3d9aac58	0.07552403
14	0xbd856abd	-0.06514499
15	0xbb1adc28	-0.0023629759
16	0xbe26a5f8	-0.1627425
17	0xbd942096	-0.07232778
18	0xbe0e4140	-0.13892078
19	0x3d12fa2f	0.035883125
20	0xbe0e85af	-0.13918184
21	0x3e887902	0.26654822
22	0x3d8977e6	0.06712322
23	0xbe7fbce9	-0.24974407
24	0x3cc9f00b	0.024650594
25	0x3e34fe17	0.17675053
26	0xbd727a70	-0.059198797
27	0x3bf4e59a	0.0074736597
28	0xbdfb040c	-0.12256631
29	0xbdac0f81	-0.08401395
30	0xbe0d8dfe	-0.13823697
31	0x3d893cac	0.06701025
32	0xbdc5614a	-0.09637697
33	0xbe96243c	-0.2932452
34	0xbe3ff9fe	-0.18747708
35	0xbe315a06	-0.17319497
36	0x3e03f525	0.12886484
37	0x3e0a1a6b	0.1348664
38	0x3e1e36b3	0.15450554
39	0x3ea6e447	0.32596037
40	0x3d4a4a85	0.049387474
41	0xbd930f7f	-0.0718069
42	0xbde50500	-0.11182594
43	0x3d1a563e	0.037679903
44	0x3e77ef8a	0.2421247
45	0xbd7d5190	-0.061845362
46	0x3d0cc5e1	0.0343684
47	0x3d7ccd18	0.06171903
48	0x3e9225a5	0.28544345
49	0xbe5966a1	-0.21230556
50	0x3e43f793	0.19137411
51	0xbd857b45	-0.065176524
52	0x3e2ef4d0	0.17085576
53	0xbd01af1e	-0.031661145
54	0xbe5121fc	-0.2042312
55	0x3d5308ac	0.051521942
56	0x3eaa5910	0.33271074
57	0xbb2ad2ec	-0.002606566
58	0x3e4b3df7	0.19847856
59	0x3dc3bd51	0.095575936
60	0xbe806724	-0.2507869
61	0x3e1e7426	0.15473995
62	0x3d80ea52	0.06294693
63	0xbd16f5e2	-0.036855586
64	0x3e1d2a6e	0.15348217
65	0x3e5f3a99	0.21799697
66	0x3e23b442	0.15986732
67	0x3d06a877	0.032875504
68	0x3de60cf5	0.1123294
69	0x3e7c8bd6	0.24662718
70	0xbdc4dc83	-0.09612372
71	0xbd3be79e	-0.045875184
72	0x3e5ec1e3	0.2175365
73	0xbe695389	-0.22785772
74	0xbe001b69	-0.12510456
75	0xbd73c91a	-0.059517957
76	0x3d60126d	0.054705072
77	0x3da769c2	0.081744686
78	0x3d62e7f4	0.05539699
79	0x3e3b8ab7	0.18314634
80	0x3e29f72e	0.16598198
81	0x3e66aaf9	0.22526158
82	0x3e8570c4	0.26062596
83	0x3d79fa9c	0.061030015
84	0x3e1ba4fe	0.15199658
85	0xbdb254af	-0.08707558
86	0x3e2ff724	0.1718412
87	0x3e558f28	0.20855391
88	0xbd2ddb0f	-0.04244524
89	0xbd397c95	-0.045284826
90	0xbe3d559d	-0.1848969
91	0xbe3aab11	-0.18229319
92	0x3e7dd5a9	0.24788536
93	0xbd2ca2cf	-0.042147454
94	0x3e80f36b	0.25185713
95	0xbe15ac89	-0.14616598
96	0xbd6fc184	-0.05853416
97	0x3e452b7c	0.19254869
98	0x3d2594df	0.040425178
99	0x3e681038	0.22662437
100	0xbe51d7e1	-0.20492508
101	0xbe7c3983	-0.24631314
102	0xbde7a29d	-0.11310313
103	0x3d4b09e9	0.049569998
104	0x3e5a28d8	0.21304643
105	0x3e821e5c	0.25413787
106	0x3d05f900	0.032708168
107	0xbe02900b	-0.1275026
108	0xbde2b53c	-0.11069724
109	0x3e83514a	0.25647956
110	0x3ea2c5b0	0.3179145
111	0xbde90d59	-0.11379499
112	0xbe82669a	-0.25468904
113	0xbd9d8137	-0.076906614
114	0xbd24add6	-0.040204845
115	0xbea8629f	-0.32887742
116	0xbe340c84	-0.175829
117	0xbea46ff3	-0.3211666
118	0x3e28f4a6	0.16499576
119	0x3da240f8	0.07922548
120	0xbe82812a	-0.2548917
121	0x3dfa6f38	0.122282445
122	0xbe9805c6	-0.29691905
123	0x3ca206dc	0.019778661
124	0x3e57fbf8	0.21092212
125	0xbdc5ff1c	-0.09667799
126	0xbe0254f6	-0.12727723
127	0xbd11fa55	-0.035639126
128	0x3db5a737	0.08869784
129	0x3e3196a1	0.17342617
130	0x3e9e0408	0.3086245
131	0x3e265beb	0.16246001
132	0xbd9ca320	-0.07648301
133	0x3defca03	0.117084526
134	0xbea0466f	-0.31303737
135	0x3e09c3a4	0.13453537
136	0x3e49155c	0.19637054
137	0xbe78896c	-0.24271172
138	0x3c92be62	0.017913047
139	0xbe189492	-0.14900425
140	0xbe3db5b6	-0.18526348
141	0x3e878ae0	0.2647314
142	0xbe2172dc	-0.15766472
143	0x3dc36856	0.09541385
144	0xbd9f4758	-0.077772796
145	0x3de84d24	0.113428384
146	0xbdc69a83	-0.096974395
147	0xbdab9a73	-0.08379068
148	0xbd8e7ba0	-0.06957173
149	0xbdacffde	-0.0844724
150	0xbca4d096	-0.020118993
151	0xbdf435fc	-0.11924359
152	0xbd8e969c	-0.0696232
153	0x3b561763	0.0032667748
154	0xbe1289ca	-0.14310375
155	0xbe78c355	-0.24293263
156	0x3e3e3023	0.1857305
157	0xbd3faebb	-0.046797495
158	0xbcee4dcc	-0.02908983
159	0xbe31e7c3	-0.17373566
160	0xbd9e10f4	-0.07718077
161	0x3e10d735	0.14144595
162	0xbe4adab4	-0.19809991
163	0x3d2cc82c	0.042183086
164	0xbe82820f	-0.25489852
165	0xbe8a14cd	-0.26968995
166	0xbc356781	-0.011072041
167	0x3d88f7d9	0.06687898
168	0x3ddbcd55	0.10732523
169	0x3e662f36	0.22478947
170	0x3de76280	0.11298084
171	0xbd5e91a3	-0.05433811
172	0xbe8f0008	-0.2792971
173	0x3e33311b	0.17499201
174	0x3e883711	0.26604512
175	0xbdea53af	-0.11441743
176	0xbd75231b	-0.059847932
177	0x3de0d0e9	0.109773465
178	0x3e38f5c2	0.18062499
179	0xbe1139d7	-0.1418222
180	0xbe05fb0f	-0.13084053
181	0xbe70ca2c	-0.23514622
182	0x3dbc9853	0.09208741
183	0x3dd8a405	0.10578159
184	0xbe89ea2c	-0.2693647
185	0x3e54c02a	0.2077643
186	0xbd708ed4	-0.05872996
187	0x3db733e8	0.08945447
188	0x3d295544	0.04134108
189	0xbe09ecce	-0.1346924
190	0x3dbd08df	0.09230208
191	0xbe568b11	-0.20951487
192	0x3e4e725a	0.20160809
193	0xbe0da65e	-0.13832995
194	0xbe181b4a	-0.1485416
195	0xbea13566	-0.31486052
196	0xbd4b5ce7	-0.049649145
197	0xbda26a5e	-0.07930444
198	0x3e9cbddb	0.30613598
199	0xbc6be947	-0.014398879
200	0xbaffa0ec	-0.0019502915
201	0x3d91f662	0.07127072
202	0x3e46086f	0.19339155
203	0x3e6ac079	0.22924985
204	0x3e3566f5	0.17715056
205	0x3deff755	0.11717097
206	0xbdd3c727	-0.1034072
207	0x3e4ca5be	0.199851
208	0xbeb06ea4	-0.34459412
209	0xbe3ef325	-0.1864744
210	0xbe3f3fb7	-0.18676649
211	0x3da8b783	0.08238127
212	0xbc1b71a1	-0.00948754
213	0x3d6efd7b	0.058347207
214	0xbe2661c6	-0.16248235
215	0x3dee5f06	0.11639218
216	0x3e1483cb	0.145034
217	0x3e3f1d05	0.18663414
218	0xbc86331b	-0.01638179
219	0x3e8b6551	0.27225736
220	0xbd7839ed	-0.060602117
221	0x3d7e937f	0.062152382
222	0xbe82f9bf	-0.25581166
223	0x3e42ae0a	0.19011703
224	0x3d55c1d5	0.052186806
225	0xbea00b27	-0.3125851
226	0x3d9dc8d0	0.077043176
227	0xbd2ea9af	-0.04264229
228	0x3df8be53	0.121456765
229	0x3e855e07	0.260483
230	0x3e081fe9	0.13293423
231	0xbc8e8b94	-0.01740054
232	0xbdc77d16	-0.09740655
233	0x3e0e74af	0.13911699
234	0xbdb370f6	-0.0876178
235	0xbd8ffa85	-0.07030205
236	0xbdcdd7b4	-0.10050908
237	0xbe9e1993	-0.30878887
238	0xbd5d6cc0	-0.05405879
239	0x3e94524f	0.28969046
240	0x3e59b2bd	0.2125959
241	0xbda62de2	-0.0811422
242	0x3e3276ce	0.17428133
243	0xbd008b5a	-0.031382896
244	0x3e8613a9	0.26186875
245	0x3e832e84	0.25621426
246	0xbe082d7e	-0.13298604
247	0xbe3da439	-0.18519677
248	0xbd28e994	-0.041238382
249	0xbc445034	-0.011982013
250	0x3e85535f	0.2604017
251	0xbd640bb1	-0.055675212
252	0xbe40dfd3	-0.18835382
253	0x3e29fd24	0.16600472
254	0xbe22c3d3	-0.15895014
255	0x3e060510	0.13087869

encoder.encoder_layers.1.0.bias f4 [32]
0	0xb8376ddf	-4.3732925e-05
1	0x37976c20	1.8050952e-05
2	0x37ab47e6	2.0418269e-05
3	0xb8715ccc	-5.75453e-05
4	0xb8067ee6	-3.2066273e-05
5	0xb75b3381	-1.3065409e-05
6	0xb6c2dc1f	-5.807276e-06
7	0x35d8a390	1.6140857e-06
8	0x36ce82be	6.154499e-06
9	0x3588fca0	1.0206313e-06
10	0xb5bca669	-1.4055523e-06
11	0x3809075e	3.2670207e-05
12	0x370bcce1	8.332748e-06
13	0xb6cfd43f	-6.1937894e-06
14	0xb7f7cc0c	-2.9539711e-05
15	0xb686454e	-4.0015793e-06
16	0xb6aeb955	-5.2071796e-06
17	0xb73990bc	-1.1060558e-05
18	0x37029031	7.782176e-06
19	0xb7e146d6	-2.6855076e-05
20	0x37d0638c	2.4841887e-05
21	0x3627f25e	2.5026015e-06
22	0x3857e234	5.1470663e-05
23	0xb89c7d67	-7.462018e-05
24	0xb624dd03	-2.456655e-06
25	0xb8be3eb0	-9.0715825e-05
26	0x376f87dd	1.4277143e-05
27	0x38006ca1	3.0618747e-05
28	0xb835b14b	-4.331888e-05
29	0x378235d5	1.5522275e-05
30	0xb5f1d612	-1.8018202e-06
31	0xb85db858	-5.286219e-05

encoder.encoder_layers.1.1.weight f4 [32]
0	0x3f981764	1.1882138
1	0x3f6a99bd	0.91640836
2	0x3f5defe4	0.8669417
3	0x3f90e68c	1.1320357
4	0x3fa1a926	1.2629745
5	0x3f9cbbd1	1.2244817
6	0x3f8b6a5d	1.0891834
7	0x3f7608f2	0.961074
8	0x3f6e7cbb	0.93159074
9	0x3f757b41	0.95891196
10	0x3f6d6db4	0.9274552
11	0x3f2dbfe5	0.6787093
12	0x3f8e9ac2	1.1140978
13	0x3f89c165	1.0762144
14	0x3f85e03f	1.045906
15	0x3f91c9af	1.1389674
16	0x3f3e5cad	0.7436016
17	0x3f551a29	0.8324304
18	0x3f4f5db8	0.8100238
19	0x3f3f20ca	0.7465941
20	0x3f6d22a6	0.92630994
21	0x3f82eadb	1.0227922
22	0x3f80137b	1.0005945
23	0x3f95b84a	1.1696866
24	0x3f9f5979	1.244918
25	0x3f866e06	1.0502326
26	0x3f56afa5	0.8386176
27	0x3f417ad6	0.7557806
28	0x3f765128	0.96217585
29	0x3f7e54da	0.99348223
30	0x3f51f649	0.82016426
31	0x3f89a3ab	1.0753073

encoder.encoder_layers.1.1.bias f4 [32]
0	0x3ebd1486	0.3692972
1	0xbabdb0e0	-0.0014472269
2	0xbdfe57ea	-0.12419112
3	0x3eab4b4a	0.33455878
4	0x3edcd481	0.43130878
5	0x3f0d3771	0.5516272
6	0x3e7ec905	0.2488137
7	0x3ad2ce8d	0.0016083285
8	0x3ea68e50	0.3253045
9	0x3d827735	0.06370393
10	0xbd8dc75f	-0.06922793
11	0xbdf962f9	-0.12177081
12	0x3de0860d	0.10963068
13	0x3d8e4e3b	0.06948515
14	0x3e7a77fa	0.2445983
15	0x3d57c458	0.052677482
16	0xbec0d7f9	-0.37664774
17	0xbdec0825	-0.11524991
18	0xbec19e3d	-0.3781604
19	0xbe3900c5	-0.180667
20	0xbdf5a5e7	-0.11994534
21	0xbdc8e110	-0.09808552
22	0xbd70bfbb	-0.0587766
23	0x3eac4da0	0.33652973
24	0x3f0276b7	0.50962394
25	0xbdcc025f	-0.0996139
26	0xbde181a3	-0.11011054
27	0xbe2678b6	-0.16256985
28	0xbda80cad	-0.08205543
29	0xbe10cdf2	-0.14141062
30	0xbe1f4a83	-0.15555768
31	0x3ebf1414	0.37320006

encoder.encoder_layers.1.1.running_mean f4 [32]
0	0x3f027f04	0.5097506
1	0xbeb44e32	-0.35215908
2	0xbf5dfe62	-0.8671628
3	0x3f4ea868	0.8072572
4	0x3f8ac0ee	1.0840127
5	0x3fad2b84	1.3528905
6	0x3fcf628b	1.6201948
7	0x3d2c6d68	0.042096525
8	0x3ee1f5b8	0.4413278
9	0x3f0c1fa8	0.54735804
10	0x3f928a10	1.1448383
11	0x3e21b467	0.15791474
12	0x3fcad21b	1.5845369
13	0x3dbfc489	0.09363658
14	0x3e53e78c	0.20693797
15	0x3f94e562	1.1632502
16	0xbf846a73	-1.0344986
17	0xbed0f610	-0.4081273
18	0x3f6a5489	0.9153524
19	0xbf004e36	-0.5011934
20	0xbe46d102	-0.19415668
21	0xc00a3999	-2.1597655
22	0xbff23d7f	-1.8925017
23	0x3f073e2e	0.52829254
24	0x3f8c1d98	1.0946531
25	0xbfc92d67	-1.5716981
26	0xbf41088f	-0.75403684
27	0xbfa8cee6	-1.318814
28	0xbe500ae6	-0.20316657
29	0xbeec70dc	-0.46179855
30	0xbe8d4ac7	-0.27596113
31	0x3f1236f2	0.5711509

encoder.encoder_layers.1.1.running_var f4 [32]
0	0x40f4d976	7.6515455
1	0x41557b89	13.34266
2	0x40de1121	6.939591
3	0x410ac5b9	8.673272
4	0x411edd9d	9.929105
5	0x414b21d9	12.695764
6	0x4140be56	12.046469
7	0x402e3300	2.7218628
8	0x4109e922	8.619417
9	0x3fa17978	1.2615194
10	0x4108bd35	8.546193
11	0x3f281173	0.65651625
12	0x41367e06	11.405767
13	0x411d665d	9.837491
14	0x40c6ad26	6.2086363
15	0x4105b187	8.355842
16	0x4094ca44	4.6496906
17	0x40cdfbd0	6.436989
18	0x40af5d9a	5.480176
19	0x40ec7ea7	7.3904605
20	0x41044f2f	8.269332
21	0x40dc5108	6.8848915
22	0x40d811db	6.7521796
23	0x40f60c87	7.689029
24	0x41042785	8.259648
25	0x4105031d	8.31326
26	0x40f41198	7.6271477
27	0x4121b7a9	10.107339
28	0x40238dab	2.5555217
29	0x41225b7b	10.147334
30	0x410c8c44	8.784245
31	0x40b5e240	5.6838684

encoder.encoder_layers.2.0.weight f4 [16, 32]
0	0xbe7f2800	-0.24917603
1	0x3d8c8726	0.06861715
2	0x3e288414	0.16456634
3	0xbe937106	-0.28797168
4	0xbecf4296	-0.4048049
5	0xbf1234c5	-0.5711177
6	0xbc3a64c0	-0.01137656
7	0xbe8ca6b0	-0.27470922
8	0xbdb9778d	-0.090560056
9	0xbe632bfc	-0.22184747
10	0x3d3fd2f9	0.04683206
11	0x3e251790	0.1612227
12	0xbeba4112	-0.3637777
13	0xbb8d0825	-0.0043039494
14	0xbe755dcd	-0.23961563
15	0x3dc01fce	0.09381066
16	0x3e61102e	0.21978828
17	0x3df0fb43	0.11766674
18	0xbd332b90	-0.043742716
19	0x3e1286c6	0.14309224
20	0x3d2bbf08	0.04193023
21	0xbd668c86	-0.056286357
22	0xbcd152d7	-0.025552196
23	0xbef394b6	-0.47574395
24	0xbf07dd23	-0.530718
25	0xbe9460d2	-0.28980118
26	0xbd30bfb5	-0.043151576
27	0x3e113720	0.14181185
28	0xbeb3250e	-0.34989208
29	0x3e0e9a20	0.13925982
30	0x3e11f596	0.1425384
31	0xbe60ba6c	-0.21946114
32	0xbd9a336b	-0.075293384
33	0xbf1a5e3a	-0.6030003
34	0xbeaf7df0	-0.3427577
35	0x3e0330be	0.12811562
36	0x3ce37726	0.027766775
37	0x3dc8e937	0.09810107
38	0x3de6ab94	0.11263195
39	0xbe3a44d6	-0.18190321
40	0x3e034327	0.12818585
41	0x3cfacdf9	0.030615794
42	0xbe176bb6	-0.14787182
43	0xbdc1de8c	-0.094662756
44	0xbdba1a2c	-0.09087023
45	0xbf354278	-0.7080455
46	0x3e2fec23	0.17179923
47	0x3c9237e5	0.017848918
48	0xbe76bbc7	-0.24095069
49	0xbeeac56e	-0.45853752
50	0xbe8770bb	-0.26453194
51	0xbe2d98cf	-0.16952823
52	0xbdde9a6f	-0.108692996
53	0xbead9c17	-0.3390815
54	0xbec74d19	-0.38926008
55	0x3e07c5ff	0.13259123
56	0x3d4aa29c	0.049471483
57	0xbd6f08f3	-0.058358144
58	0xbe560335	-0.20899661
59	0xbee6d626	-0.45085257
60	0xbdc4017f	-0.09570598
61	0xbe8b122c	-0.27162302
62	0xbe2227fc	-0.15835565
63	0x3e2b80e9	0.16748394
64	0xbeea5642	-0.45768934
65	0x3e852083	0.26001367
66	0xbda28e1d	-0.07937262
67	0xbe5e6de6	-0.2172161
68	0xbef7bf50	-0.48388147
69	0xbede4d5c	-0.43418396
70	0xbecec8f3	-0.40387687
71	0x3e5eb428	0.21748412
72	0x3de998b3	0.11406078
73	0x3e22052a	0.15822282
74	0xbe149284	-0.14509016
75	0xbe5c746e	-0.2152879
76	0xbeb3a135	-0.3508393
77	0x3d9c52e7	0.07633
78	0xbe5c09e1	-0.21488144
79	0xbefb4680	-0.49077225
80	0x3d6e1c53	0.05813248
81	0x3d57413d	0.05255245
82	0xbd3a2c0a	-0.045452155
83	0x3d69a106	0.05703833
84	0x3da1604e	0.07879697
85	0xbe1d33cc	-0.1535179
86	0xbeb9098a	-0.3614009
87	0xbeef5074	-0.46741068
88	0xbde408d2	-0.11134495
89	0xbe5d90f7	-0.21637331
90	0x3e8fddf4	0.28099024
91	0x3e173d27	0.14769422
92	0xbec9097e	-0.39265054
93	0x3e3a4e95	0.18194039
94	0xbdaf87fe	-0.0857086
95	0xbd542b32	-0.051799007
96	0xbddeb104	-0.10873607
97	0xbe2a3f04	-0.16625601
98	0xbcf75ada	-0.030194689
99	0xbe11b328	-0.14228499
100	0xbdfbe2eb	-0.122991405
101	0xbe42eae0	-0.1903491
102	0xbe2218e2	-0.15829805
103	0xbe6f397c	-0.23361772
104	0xbdeafe60	-0.114742994
105	0x3db581b7	0.08862632
106	0xbd775b3d	-0.060389746
107	0xbd4d2c4d	-0.050091077
108	0xbe6017b8	-0.21884048
109	0xbeeb031d	-0.45900813
110	0xbe189a8f	-0.1490271
111	0xbe107337	-0.14106451
112	0x3d9c0ff8	0.07620233
113	0x3e3744ac	0.1789729
114	0xbeba108a	-0.36340743
115	0x3eb7a79f	0.35870072
116	0x3ef7a50e	0.48368114
117	0x3e073426	0.13203487
118	0x3a2cbb16	0.0006589157
119	0xbe1d895e	-0.15384433
120	0xbe2a6eb6	-0.16643795
121	0xbe351161	-0.17682411
122	0x3e068f0d	0.13140507
123	0x3dd9bb78	0.1063146
124	0xbdb076de	-0.08616422
125	0xbe3bf0ab	-0.18353526
126	0x3d53b666	0.05168762
127	0xbde99014	-0.11404434
128	0x3da91e3f	0.08257722
129	0xbed69436	-0.4190995
130	0xbe61c786	-0.22048768
131	0x3c9fe69d	0.019519145
132	0x3cf44757	0.029819174
133	0x3d0b2af9	0.03397653
134	0xbba9f826	-0.0051870523
135	0x3e15b176	0.14618477
136	0x3d168917	0.036751833
137	0x3d9d7591	0.0768844
138	0x3d914101	0.07092477
139	0x3e18710b	0.14886872
140	0x3d1435a1	0.036183957
141	0xbeeab7e7	-0.4584343
142	0x3d813149	0.063082285
143	0x3b2ecf2b	0.0026673775
144	0xbc30b363	-0.010784957
145	0xbeb74128	-0.35791898
146	0x3dcc8807	0.09986883
147	0xbeca7109	-0.39539364
148	0xbe928ad5	-0.28621545
149	0xbe925c1c	-0.285859
150	0xbe941110	-0.28919268
151	0x3c31d323	0.010853562
152	0x3d33a317	0.043856706
153	0xbe4f4efd	-0.20244975
154	0xbea082da	-0.31349832
155	0xbf14c8b7	-0.58118767
156	0x3e1dfad9	0.15427722
157	0xbf15a94c	-0.5846145
158	0xbf12a889	-0.57288414
159	0xbb819f15	-0.0039557316
160	0xbef69f30	-0.48168325
161	0xbc844dd3	-0.01615039
162	0x3c63626e	0.013878448
163	0xbe9606e9	-0.29302147
164	0xbc354cfc	-0.011065718
165	0xbf051a7d	-0.5199354
166	0xbf03fecf	-0.5156068
167	0xbf10d360	-0.5657253
168	0xbefd585d	-0.49481478
169	0x3d29838f	0.04138523
170	0xbf1325a7	-0.5747933
171	0xbd84d80e	-0.06486522
172	0xbee61905	-0.44940963
173	0x3d6bbee1	0.057555083
174	0xbe5df496	-0.21675333
175	0xbdb8c308	-0.09021574
176	0xbd0e3a39	-0.034723494
177	0xbd835b3e	-0.064138874
178	0x3bcac0bd	0.006187527
179	0x3ddcd8eb	0.10783561
180	0x3df55ba9	0.119803734
181	0xbe263d46	-0.16234311
182	0xbdbd6745	-0.09248213
183	0xbe5411c2	-0.20709899
184	0xbe525039	-0.20538415
185	0xbd844b7a	-0.064597085
186	0xbd72a0fc	-0.059235558
187	0xbd9fd4c1	-0.078042515
188	0xbd12416d	-0.035706926
189	0x3e3f2eee	0.18670246
190	0x3e5b1956	0.21396384
191	0xbe5ea929	-0.21744217
192	0xbf04c3fe	-0.5186156
193	0xbe093b9b	-0.13401644
194	0x3d883c5c	0.06652138
195	0xbf01b40e	-0.50665367
196	0xbf32eb37	-0.6989016
197	0xbe80b011	-0.25134328
198	0xbf03c40a	-0.51471007
199	0xbf004a33	-0.5011322
200	0xbd142599	-0.03616867
201	0xbe6bb57e	-0.23018453
202	0xbe6b3bc2	-0.22972015
203	0x3e12e09e	0.14343497
204	0xbe609971	-0.21933533
205	0xbd2ef7e1	-0.042716864
206	0xbd5e9204	-0.05433847
207	0xbf211d59	-0.62935406
208	0x3e3eea6a	0.1864411
209	0xbd719845	-0.058983106
210	0xbea15f79	-0.31518152
211	0xbd445c69	-0.04793969
212	0x3e0505f2	0.12990549
213	0xbe6ab097	-0.22918926
214	0x3d36fe98	0.044676393
215	0xbe43d61c	-0.19124645
216	0xbf1344c2	-0.5752679
217	0xbe99ca33	-0.30037078
218	0x3e46f6e9	0.19430126
219	0x3e234270	0.15943313
220	0xbd5a494c	-0.053292558
221	0x3e8814b0	0.26578283
222	0xbe6b4021	-0.22973682
223	0xbed48fdd	-0.4151601
224	0x3d2509c8	0.04029253
225	0xbece2f71	-0.4027057
226	0xbeeefef1	-0.4667888
227	0x3d0d62c2	0.03451801
228	0x3caf871a	0.021426726
229	0x3cc948de	0.024570879
230	0x3d35c0c4	0.04437329
231	0x3e04c2c3	0.1296492
232	0xbc503200	-0.012707233
233	0x3d63c8cd	0.05561142
234	0x3de09744	0.10966352
235	0x3e1a71a4	0.15082413
236	0x3da3b9be	0.07994412
237	0xbd9d959d	-0.07694552
238	0x3c0d6835	0.008630802
239	0x3d0fce64	0.03510894
240	0xbdf9e9ff	-0.12202834
241	0xbe07a938	-0.13248146
242	0x3dfa9b31	0.12236632
243	0xbeda8b0a	-0.42684203
244	0xbee2f9a8	-0.44331098
245	0xbea25682	-0.31706625
246	0xbe20fff6	-0.15722641
247	0x3b370cc1	0.0027931186
248	0x3cc43e40	0.023955464
249	0xbe1392fa	-0.14411536
250	0xbe3a1abc	-0.18174261
251	0xbf1bdaaf	-0.6088056
252	0x3dd4a264	0.10382536
253	0xbee43c19	-0.445771
254	0xbf060cb3	-0.5236313
255	0x3c59618a	0.013267884

encoder.encoder_layers.2.0.bias f4 [16]
0	0xb92ed7eb	-0.00016674369
1	0xb7eeab8f	-2.84517e-05
2	0xb7ca476a	-2.4113531e-05
3	0x37abc48e	2.0476316e-05
4	0x381b897d	3.7082926e-05
5	0x36266af1	2.4798176e-06
6	0x3753b9c7	1.2619835e-05
7	0x3700375f	7.642287e-06
8	0xb73d2f3b	-1.1276275e-05
9	0x37908b68	1.7231054e-05
10	0xb87c671d	-6.0177514e-05
11	0xb8f87ded	-0.00011849017
12	0xb86e7eb2	-5.6861616e-05
13	0x37d060d7	2.4840627e-05
14	0xb725fc25	-9.893473e-06
15	0xb7269ae4	-9.930434e-06

encoder.encoder_layers.2.1.weight f4 [16]
0	0x3f3091c7	0.6897244
1	0x3f426d82	0.75948346
2	0x3f2f19bf	0.6839866
3	0x3f32fab7	0.6991381
4	0x3f2ba2ef	0.6704549
5	0x3f54f777	0.831901
6	0x3f4aa527	0.7915825
7	0x3f23c81b	0.6397721
8	0x3f229abf	0.63517374
9	0x3f2b47ce	0.6690644
10	0x3f345350	0.70439625
11	0x3f2a76f8	0.6658778
12	0x3f24a4f3	0.6431419
13	0x3f278db7	0.65450615
14	0x3f25a780	0.6470871
15	0x3f4dd5d6	0.8040441

encoder.encoder_layers.2.1.bias f4 [16]
0	0xbe5dc919	-0.21658744
1	0x3eaf4094	0.34228957
2	0xbe59f31c	-0.21284145
3	0xbe4f75e1	-0.20259811
4	0x3d5138dc	0.051079616
5	0x3e3d8466	0.18507537
6	0x3df3231b	0.1187193
7	0x3d0bbaa2	0.034113534
8	0xbe8af656	-0.27141064
9	0xbe3e49c1	-0.18582822
10	0xbe7b5055	-0.24542363
11	0xbe81e730	-0.25371695
12	0xbed03274	-0.40663493
13	0xbe904c71	-0.2818332
14	0xbcff4f16	-0.03116564
15	0x3d9411f6	0.07229988

encoder.encoder_layers.2.1.running_mean f4 [16]
0	0xc006e834	-2.1079226
1	0xbf3ef5b5	-0.7459367
2	0xc0003df6	-2.0037818
3	0xbf8d1a5f	-1.1023673
4	0xbf46aacd	-0.7760437
5	0xc0169601	-2.3529055
6	0xc03e1fd4	-2.9706926
7	0xbf22f428	-0.636538
8	0xc01628ad	-2.3462327
9	0xc01b9839	-2.431166
10	0xbffde2bd	-1.983482
11	0xc009dfa3	-2.1542747
12	0xbfc6c08a	-1.5527508
13	0xbfefc3ff	-1.8731688
14	0xbf3888a6	-0.7208351
15	0xc0120230	-2.2813835

encoder.encoder_layers.2.1.running_var f4 [16]
0	0x41340449	11.251046
1	0x40c7af30	6.240135
2	0x412ea6eb	10.915751
3	0x4058da83	3.388337
4	0x40f97d60	7.7965546
5	0x4160a998	14.041405
6	0x41b2c11a	22.344288
7	0x40b49ba2	5.643998
8	0x412fcd2f	10.987594
9	0x4139cb83	11.6121855
10	0x40e97d81	7.2965703
11	0x410c19c9	8.756295
12	0x409a24dd	4.817
13	0x40e19d8e	7.0504827
14	0x40dc7e76	6.890437
15	0x4188a513	17.080603
