scripts/abr_clustering/audiometric_deep_clustering/experiments/full_pipeline_test/20250618_174708_evident/checkpoints/joint/joint_epoch_0.pt (torch, 343411 bytes, 215 tensors)

encoder.abr_encoder.abr_projection.weight f4 [16, 6]
-0.050222028 0.54821116 0.052230895 0.14420931 0.018674128 0.32830366 -0.4470298 -0.18364783
0.3296994 0.068138406 -0.122560225 -0.56260586 -0.040973395 0.12376228 -0.6506314 0.059907988
-0.20406918 -0.05481707 0.12011015 -0.60039955 0.1726413 0.022293298 -0.27383327 0.27517053
-0.1366749 -0.32672343 0.014524817 -0.053331837 -0.24371877 -0.6870112 0.0262424 0.37021342
-0.5707786 -0.16625229 -0.18282124 -0.5219526 0.1411373 -0.013300421 0.5492926 -0.3744761
0.0718083 0.29975274 0.047359806 -0.03626708 0.43338674 -0.2124885 0.66240495 0.28985605
0.2563147 0.5393828 0.08292035 0.2556074 0.074710146 -0.27115378 0.23082279 0.5121593
0.1533156 0.19083413 -0.35581493 0.14852439 0.12283051 -0.21542218 0.26970395 0.26419663
0.26380467 0.65316105 0.21008566 -0.12188265 0.091968685 0.52751964 0.37460217 -0.05457645
-0.018647993 -0.45093688 -0.17671494 -0.4925909 0.24024773 0.3585339 -0.23477982 -0.2391824
-0.2922201 -0.30433106 0.334225 -0.7288355 -0.34773552 -0.58692205 -0.097008325 -0.42030472
-0.40487635 0.33753362 0.25124362 0.3384144 0.19895281 0.33057928 0.30739406 -0.15488341
00000000: 9db5 4dbd 9157 0c3f 10f0 553d 9bab 133e
00000010: 7cfa 983c 6b17 a83e 17e1 e4be 2d0e 3cbe
00000020: 5cce a83e 268c 8b3d db00 fbbd f006 10bf
00000030: b8d3 27bd 1477 fd3d c88f 26bf 1462 753d
00000040: 83f7 50be dd87 60bd 4ffc f53d c9b3 19bf
00000050: e2c8 303e 6fa0 b63c e033 8cbe 27e3 8c3e
00000060: 81f4 0bbe 4b48 a7be 7ff9 6d3c 7c72 5abd
00000070: 6a91 79be f7df 2fbf 4dfa d63c 9d8c bd3e
00000080: 8c1e 12bf 0a3e 2abe 7e35 3bbe b09e 05bf
00000090: 4c86 103e 02ea 59bc 719e 0c3f 55bb bfbe
000000a0: 3b10 933d 3179 993e 5bfc 413d ca8c 14bd
000000b0: dee4 dd3e 9696 59be 5f93 293f 0368 943e
000000c0: ae3b 833e fe14 0a3f 25d2 a93d f9de 823e
000000d0: a201 993d abd4 8abe cf5c 6c3e df1c 033f
000000e0: c4fe 1c3e 066a 433e 602d b6be c716 183e
000000f0: 908e fb3d a297 5cbe a316 8a3e c844 873e
00000100: 6811 873e 9035 273f b220 573e 9c9d f9bd
00000110: 145a bc3d 870b 073f dbcb bf3e 8e8b 5fbd
00000120: adc3 98bc 33e1 e6be c3f4 34be e034 fcbe
00000130: 8003 763e c191 b73e 1f6a 70be 3bec 74be
00000140: df9d 95be 48d1 9bbe 8a1f ab3e f794 3abf
00000150: 640a b2be 8640 16bf 4dac c6bd 2e32 d7be
00000160: f44b cfbe 35d1 ac3e 01a3 803e a744 ad3e
00000170: 49ba 4b3e b041 a93e c162 9d3e c299 1ebe

encoder.abr_encoder.abr_projection.bias f4 [16]
3.884743e-06 -6.5903328e-06 6.739891e-05 3.2581294e-05 5.636795e-05 2.4484247e-05 -7.780426e-06 2.9359064e-05
7.574724e-05 -6.226919e-05 -3.0271334e-05 -6.667094e-05 5.6509223e-05 3.4585217e-05 6.7265664e-06 -2.3113922e-05
00000000: b059 8236 8722 ddb6 8458 8d38 e6a7 0838
00000010: a06c 6c38 8563 cd37 ad88 02b7 1c48 f637
00000020: 7dda 9e38 8496 82b8 32ef fdb7 b0d1 8bb8
00000030: 5104 6d38 980f 1138 c4b4 e136 c5e4 c1b7

encoder.abr_encoder.abr_norm.weight f4 [16]
0.8713079 0.92374873 0.89964586 0.7939715 1.0303799 0.9557929 0.7797385 0.81074864
0.78251696 0.835953 0.884982 0.92267287 0.86905247 1.010789 0.8880911 0.88942015
00000000: 090e 5f3f cc7a 6c3f 314f 663f b741 4b3f
00000010: 7de3 833f d8ae 743f f19c 473f 398d 4f3f
00000020: 0853 483f 0401 563f 2e8e 623f 4a34 6c3f
00000030: 397a 5e3f 8961 813f f059 633f 0ab1 633f

encoder.abr_encoder.abr_norm.bias f4 [16]
-0.37335646 -0.20049854 -0.118237 -0.3538143 -0.103737116 -0.2320172 -0.45891273 -0.4492924
-0.35180718 -0.27004147 -0.13502477 -0.4002325 -0.235812 -0.0660948 -0.3512551 -0.30365992
00000000: 9428 bfbe 7d4f 4dbe 3e26 f2bd 2627 b5be
00000010: 2074 d4bd eb95 6dbe 9cf6 eabe a709 e6be
00000020: 1220 b4be e042 8abe ef43 0abe 46eb ccbe
00000030: b378 71be b65c 87bd b5d7 b3be 5079 9bbe

encoder.abr_encoder.abr_norm.running_mean f4 [16]
-0.11513029 0.1032056 0.08302143 0.027994024 0.1593119 0.11655246 -0.07389071 -0.12876335
-0.10102589 -0.09837818 -0.15227382 -0.11286872 0.057532594 0.1657483 0.16431941 -0.13756147
00000000: 6ec9 ebbd 755d d33d 2407 aa3d b953 e53c
00000010: a922 233e 0eb3 ee3d 0354 97bd 8ada 03be
00000020: a9e6 cebd 807a c9bd abed 1bbe b727 e7bd
00000030: 4ca7 6b3d ecb9 293e 5943 283e eadc 0cbe

encoder.abr_encoder.abr_norm.running_var f4 [16]
0.60102797 0.49153745 0.35160452 0.08096008 1.1303549 0.6355861 0.2876691 0.8103878
0.49900344 0.44108468 1.0311859 0.60060287 0.19359182 1.1956183 1.2979647 0.88647705
00000000: f8dc 193f ccaa fb3e 8205 b43e 66ce a53d
00000010: 78af 903f c5b5 223f 5d49 933e 9375 4f3f
00000020: 617d ff3e dad5 e13e e6fd 833f 1cc1 193f
00000030: ef3c 463e 050a 993f b523 a63f 29f0 623f

encoder.abr_encoder.attention.q_projection.weight f4 [16, 1]
0.1802473 -0.44327402 0.006064743 -0.298891 -0.35036257 -0.3551321 -0.29285312 -0.3687407
-0.39137453 0.022158442 -0.34221792 0.27884144 -0.014812722 -0.62771463 -0.5831072 -0.24421403
00000000: c092 383e d0f4 e2be c0ba c63b 3e08 99be
00000010: b962 b3be e0d3 b5be d8f0 95be 95cb bcbe
00000020: 3e62 c8be 9f85 b53c 3037 afbe 4ec4 8e3e
00000030: 0fb1 72bc e8b1 20bf 8346 15bf 3e13 7abe

encoder.abr_encoder.attention.q_projection.bias f4 [16]
0.00041302197 0.006758303 0.027106393 0.007859944 -0.001698324 0.0025570733 0.004769506 -0.0029905417
-0.0319048 0.06657606 0.06483557 -0.06268538 -0.06869903 -0.031014353 0.0019409427 0.029793
00000000: df8a d839 c174 dd3b 3a0e de3c ffc6 003c
00000010: 4c9a deba 9294 273b 8449 9c3b f7fc 43bb
00000020: 9cae 02bd 0859 883d 83c8 843d 3161 80bd
00000030: 14b2 8cbd d011 febc 3b67 fe3a 7310 f43c

encoder.abr_encoder.attention.k_projection.weight f4 [16, 1]
0.23741606 0.5211054 0.005191239 0.32983902 -0.33290663 -0.13690732 -0.1049439 -0.58975697
-0.16762964 0.024194626 0.16519412 -0.25978765 -0.022458505 -0.16039355 -0.12099577 -0.074435316
00000000: 321d 733e 2a67 053f 451b aa3b a9e0 a83e
00000010: bd72 aabe 6f31 0cbe d4ec d6bd 50fa 16bf
00000020: 1ba7 2bbe cf33 c63c a628 293e e302 85be
00000030: e6fa b7bc 353e 24be a1cc f7bd 8b71 98bd

encoder.abr_encoder.attention.k_projection.bias f4 [16]
-1.6308813e-07 -7.695037e-06 6.1544137e-07 -5.1181687e-06 -1.0432918e-05 1.0095893e-05 -8.030236e-06 -6.4652263e-06
-2.2968305e-05 2.8259285e-07 -7.3746733e-06 3.7093976e-06 -1.0913918e-07 1.5730732e-06 -3.2465591e-06 -2.84284e-06
00000000: 531d 2fb4 ef19 01b7 cf34 2535 bcbc abb6
00000010: 0b09 2fb7 8861 2937 9ab9 06b7 dfef d8b6
00000020: 0fac c0b7 44b7 9734 f673 f7b6 f7ee 7836
00000030: e65f eab3 6222 d335 76df 59b6 9fc7 3eb6

encoder.abr_encoder.attention.v_projection.weight f4 [16, 1]
-0.40702853 0.4286367 -0.4982054 -0.20177291 0.3048566 -0.15575059 -0.26431784 -0.55521965
0.25130305 0.15656286 0.13768172 0.26030836 -0.5527421 -0.37610406 0.35447937 -0.4550748
00000000: 0b66 d0be 4576 db3e c714 ffbe 8f9d 4ebe
00000010: 2a16 9c3e 157d 1fbe ab54 87be e022 0ebf
00000020: cbaa 803e 0452 203e 70fc 0c3e 2347 853e
00000030: 8280 0dbf b690 c0be 527e b53e 90ff e8be

encoder.abr_encoder.attention.v_projection.bias f4 [16]
0.029137446 -0.029405313 0.029537259 -0.024589445 0.0280225 -0.026618525 -0.022780543 0.029959505
0.005817898 -0.018635292 -0.0048954263 -0.015989896 0.022698425 0.018002806 0.011499278 0.016655253
00000000: a7b1 ee3c 69e3 f0bc 1ff8 f13c ce6f c9bc
00000010: 718f e53c 180f dabc 439e babc a36d f53c
00000020: 11a4 be3b 0aa9 98bc d069 a0bb 3efd 82bc
00000030: 0cf2 b93c 9f7a 933c 7867 3c3c 9970 883c

encoder.abr_encoder.attention.output_projection.weight f4 [1, 16]
-0.23148763 0.28360873 -0.22051021 0.10139559 -0.29376438 0.18512596 0.06608469 -0.43285525
-0.29139996 0.323996 -0.040135134 0.47872475 -0.12825288 -0.3624582 0.049726058 -0.4302315
00000000: 180b 6dbe 2a35 913e 6ecd 61be 7ea8 cf3d
00000010: 4968 96be a991 3d3e 6957 873d 349f ddbe
00000020: 6032 95be cee2 a53e bd64 24bd 691b f53e
00000030: b954 03be 1f94 b9be 8dad 4b3d 4e47 dcbe

encoder.metadata_encoder.metadata_projection.weight f4 [24, 12]
0.13370012 0.11328527 -0.11691208 -0.38716525 0.20574136 0.21326506 0.12222472 0.065249205
0.15759611 0.016658394 -0.26972342 -0.19376625 -0.022812238 0.016912878 0.12996264 0.10704256
0.12254123 0.10138937 0.0718742 0.10869502 -0.054903 -0.00143519 -0.40485352 -0.009581121
-0.065127924 0.04690602 0.19208491 0.07507617 -0.11336838 -0.20469306 -0.25621638 -0.17388658
0.17736033 0.01969654 -0.40825015 0.058871616 0.0049293195 0.04401774 0.047877684 -0.02048877
0.2605604 0.02655469 0.15048093 0.18206546 0.07041613 -0.01905171 -0.35501865 -0.0073852297
-0.029801209 0.052014973 0.26280782 0.15710746 -0.1863153 -0.02148169 -0.08080636 -0.21086594
-0.19705522 0.06126491 -0.34009248 0.06311162 0.022538263 0.059158098 -0.26794595 -0.3146746
0.1027771 0.25737292 0.21415633 0.20314012 -0.010433 0.09944799 0.6434593 0.07094542
0.09244851 -0.008826415 0.029404435 0.1497331 -0.03467364 -0.40637115 -0.34814903 -0.2921364
-0.039744455 0.10096153 -0.3366299 -0.05589171 -0.059198786 0.011299583 -0.16621047 -0.18891995
-0.19061667 -0.21704583 -0.32672116 -0.1912655 -0.1310492 -0.18035199 -0.5075381 0.050721902
-0.07849319 0.073698774 0.04609434 -0.08067425 -0.041392945 -0.40495837 -0.35312557 -0.33629346
-0.15287603 -0.05881002 0.2919412 -0.0151188895 0.002747793 -0.03854571 0.09879331 0.15276556
-0.11386761 0.036459893 -0.16116427 -0.033715796 -0.04525938 0.09870726 0.58137625 0.09524141
0.009128603 -0.06180208 -0.1518268 0.026734035 -0.2982545 -0.31247836 -0.23907651 -0.24703515
-0.00010122415 0.077586874 0.35817066 0.10486601 -0.0411814 -0.0020582308 -0.025172705 -0.008501634
-0.06038305 0.06515404 -0.012626886 0.026670126 -0.059693806 -0.053856466 -0.39906955 0.03002469
-0.06187692 0.0019835655 -0.30414203 -0.24878499 -0.17484401 -0.16283046 -0.07081256 -0.15615408
0.009351971 -0.004912417 -0.42215556 0.061152056 0.083531074 -0.02219449 -0.062839106 -0.10094023
-0.27030608 -0.31384426 -0.012099373 -0.09196805 0.0007400871 0.13578928 0.6543232 0.13834678
-0.039899755 -0.0054178042 -0.29119974 -0.05656905 0.034395248 -0.17365104 -0.14345615 -0.109463744
-0.09485717 0.15375884 -0.48696974 0.021640876 -0.006811451 -0.05586619 0.09272284 0.21287566
-0.32418373 0.10967402 0.059887547 0.12081114 -0.21036266 0.13211077 -0.42764983 -0.0050489353
-0.003286895 0.012546629 0.03584364 0.039838966 -0.012210203 -0.12741058 -0.11248737 -0.16805507
-0.03398366 0.050862856 0.5607684 3.4573965e-05 0.042771623 -0.02712716 0.09164675 0.13302793
-0.17951518 -0.041048802 -0.08050343 -0.083991684 0.28229895 0.11822043 -0.53512704 -0.018106138
0.11615164 -0.06596259 -0.1479262 -0.021609731 0.00984259 -0.047636587 -0.2985077 -0.1640723
0.054751303 0.06307846 0.544252 0.1545652 -0.06395658 0.012502898 -0.19072862 -0.21929117
0.13653275 -0.2967288 -0.28499916 -0.28525 0.09015595 -0.23595892 0.35883373 0.03228415
-0.07107652 0.06809164 0.0016775127 -0.2449359 -0.34287643 -0.20571905 -0.23132662 -0.21395037
0.03958523 -0.07754137 0.3455476 0.013239277 0.096887514 0.113511845 -0.0752971 -0.2846848
00000000: afe8 083e 1c02 e83d 9a6f efbd 863a c6be
00000010: ddad 523e 2862 5a3e f450 fa3d 60a1 853d
00000020: e060 213e 2f77 883c 3019 8abe a96a 46be
00000030: bbe0 babc e08c 8a3c ed14 053e 2139 db3d
00000040: e5f6 fa3d 3ba5 cf3d c832 933d 7f9b de3d
00000050: f8e1 60bd fc1c bcba f648 cfbe 22fa 1cbc
00000060: ca61 85bd 8720 403d e8b1 443e 89c1 993d
00000070: ae2d e8bd 0f9b 51be cb2e 83be 530f 32be
00000080: f29d 353e a35a a13c 2a06 d1be 5d23 713d
00000090: 2186 a13b f24b 343d 641b 443d 11d8 a7bc
000000a0: 2c68 853e 3989 d93c ac17 1a3e 5e6f 3a3e
000000b0: 5536 903d 5512 9cbc 01c5 b5be ccff f1bb
000000c0: aa21 f4bc a70d 553d bf8e 863e c7e0 203e
000000d0: 70c9 3ebe 5ffa afbc ce7d a5bd 3eed 57be
000000e0: d8c8 49be eaf0 7a3d 9a20 aebe aa40 813d
000000f0: 2aa2 b83c c34f 723d 3630 89be 071d a1be
00000100: cd7c d23d 62c6 833e cc4b 5b3e f703 503e
00000110: 2cef 2abc 63ab cb3d c0b9 243f d54b 913d
00000120: a555 bd3d ab9c 10bc 92e1 f03c a253 193e
00000130: f205 0ebd e10f d0be 9740 b2be e792 95be
00000140: 15cb 22bd ebc4 ce3d c15a acbe b5ee 64bd
00000150: 6d7a 72bd e321 393c 1433 2abe 3b74 41be
00000160: 0431 43be 4341 5ebe ff47 a7be 1adb 43be
00000170: c331 06be 31ae 38be 04ee 01bf c5c1 4f3d
00000180: 0ac1 a0bd 62ef 963d 6bcd 3c3d 8b38 a5bd
00000190: a68b 29bd b456 cfbe e0cc b4be a82e acbe
000001a0: 898b 1cbe c7e2 70bd 5179 953e 38b5 77bc
000001b0: 5114 343b 1be2 1dbd 2654 ca3d 936e 1c3e
000001c0: 6c33 e9bd f856 153d 3f08 25be 9319 0abd
000001d0: e661 39bd 0827 ca3d 13d5 143f ee0d c33d
000001e0: 2390 153c 2e24 7dbd 7c78 1bbe 5601 db3c
000001f0: d0b4 98be 2afd 9fbe 79d0 74be c8f6 7cbe
00000200: 4d48 d4b8 dee5 9e3d 2562 b73e fec3 d63d
00000210: d4ad 28bd 62e3 06bb fd36 cebc 704a 0bbc
00000220: 3854 77bd 7b6f 853d 00e1 4ebc 4f7b da3c
00000230: 7e81 74bd 9998 5cbd d852 ccbe 57f6 f53c
00000240: a772 7dbd b5fe 013b 81b8 9bbe 7ec1 7ebe
00000250: 4f0a 33be 07bd 26be 2d06 91bd dbe6 1fbe
00000260: 0239 193c 57f8 a0bb c624 d8be 947a 7a3d
00000270: 5712 ab3d 38d1 b5bc cab1 80bd c0b9 cebd
00000280: 8f65 8abe 32b0 a0be 733c 46bc bf59 bcbd
00000290: 6802 423a 580c 0b3e ba81 273f c7aa 0d3e
000002a0: ed6d 23bd d687 b1bb 2218 95be f3b4 67bd
000002b0: 08e2 0c3d 94d1 31be 2be6 12be 872e e0bd
000002c0: 7a44 c2bd f572 1d3e 1954 f9be 3548 b13c
000002d0: 9832 dfbb f2d3 64bd 79e5 bd3d 14fc 593e
000002e0: 69fb a5be c69c e03d a54c 753d d56b f73d
000002f0: 4f69 57be 0c48 073e ebf4 dabe 8a71 a5bb
00000300: f368 57bb 6090 4d3c c8d0 123d 2f2e 233d
00000310: 4e0d 48bc eb77 02be c75f e6bd a116 2cbe
00000320: 7332 0bbd 9255 503d 858e 0f3f 8303 1138
00000330: 4c31 2f3d c739 debc 4bb1 bb3d 7938 083e
00000340: d4d2 37be ca22 28bd fbde a4bd d503 acbd
00000350: 7d89 903e 8e1d f23d 16fe 08bf 5353 94bc
00000360: e9e0 ed3d 6517 87bd f779 17be e406 b1bc
00000370: d142 213c 951e 43bd 00d6 98be 9202 28be
00000380: e742 603d 482f 813d 1954 0b3f 5746 1e3e
00000390: abfb 82bd f5d8 4c3c 5d4e 43be dd8d 60be
000003a0: 3ecf 0b3e d6ec 97be 69eb 91be 4a0c 92be
000003b0: afa3 b83d 379f 71be 0eb9 b73e 633c 043d
000003c0: 9190 91bd a173 8b3d fcdf db3a 7ad0 7abe
000003d0: 808d afbe 04a8 52be e3e0 6cbe ce15 5bbe
000003e0: 1f24 223d 03ce 9ebd 9deb b03e 8de9 583c
000003f0: f66c c63d e678 e83d 5e35 9abd 35c2 91be

encoder.metadata_encoder.metadata_projection.bias f4 [24]
-0.1660351 -0.08122134 -0.14468431 -0.12065258 -0.06968106 -0.19053282 -0.09645489 -0.17552719
-0.27178845 -0.36435387 -0.39607665 -0.0027639396 -0.15602662 -0.32938653 -0.23261574 -0.103797965
-0.23342517 0.040958993 -0.24770188 -0.3337688 -0.3219875 -0.2392518 -0.09772336 -0.111239865
00000000: 1b05 2abe 6057 a6bd 2028 14be b318 f7bd
00000010: f2b4 8ebd 091b 43be 248a c5bd 66bd 33be
00000020: db27 8bbe 978c babe 8fca cabe 3623 35bb
00000030: 71c5 1fbe 5aa5 a8be d232 6ebe 0794 d4bd
00000040: 0207 6fbe 9ec4 273d 90a5 7dbe bfe3 aabe
00000050: 8cdb a4be 6dfe 74be 2f23 c8bd bad1 e3bd

encoder.encoder_layers.0.0.weight f4 [64, 40]
-0.16676725 0.0542025 -0.2524154 0.049885906 0.09841788 0.2377359 -0.22618566 0.22965407
0.001787787 0.15780148 0.23702106 -0.01811432 -0.027840959 -0.095841974 0.16907917 -0.095284246
0.14451666 0.07427719 0.26799294 0.1918335 0.23725262 -0.1575266 -0.04577908 -0.18757154
0.13800251 0.02352436 0.026811955 0.05005232 -0.0009468607 0.120074496 -0.05838144 0.25816405
-0.31967962 -0.3207983 0.13600828 0.2415791 -0.05399153 0.17182964 -0.21092811 -0.18793543
-0.07788588 0.21098526 -0.13654318 0.18931925 -0.06312129 -0.086533524 -0.091802776 -0.116105996
0.19962502 -0.20221844 -0.02520454 -0.033984683 0.2334148 0.17419407 0.020870786 -0.04691639
0.05603191 -0.04048564 0.21193837 -0.04634951 0.10760141 0.33617356 0.07708885 -0.2616983
0.0779713 -0.14966497 -0.009292396 -0.11350214 0.22880669 -0.14018625 -0.29524836 0.07989018
0.13027066 -0.033004034 0.13863948 0.18107498 0.008164074 -0.02513772 0.110181026 0.29403126
0.03970189 0.05637411 -0.08191649 -0.12063575 -0.042104136 -0.354566 0.13811861 -0.064202316
-0.0991075 -0.013441391 -0.047568455 -0.087300494 -0.12388955 -0.14170569 -0.019756548 0.08369775
0.05371139 0.07073408 -0.25025225 0.27291954 0.1078197 0.24242286 -0.0991458 0.27872583
0.029007733 -0.20889784 0.21207568 -0.07900968 0.0022458604 0.30034283 0.071675554 0.063210316
-0.31510183 0.24441524 -0.0022154918 0.0010258756 -0.14500262 0.055009753 0.20520361 0.10932391
0.18206917 -0.054133553 -0.16766286 0.03907841 -0.15704988 -0.17769763 0.12639686 0.26177192
-0.029875001 -0.0976008 0.06599362 -0.009825999 -0.12979545 -0.09106939 -0.055496693 -0.0078017185
0.12509425 -0.0055703945 0.032807756 -0.067799866 -0.057039063 0.21530458 -0.017430585 -0.22663215
0.16599312 0.18296126 0.020999387 -0.1373708 -0.086733915 0.19318135 0.113174394 -0.22603023
0.29389113 -0.029096799 0.15316312 0.040832058 0.06652204 0.10655853 -0.08803788 0.084265985
-0.018362092 0.20736234 0.03896475 0.14528148 -0.06190652 0.10641318 0.056799274 -0.08073824
0.00092034944 0.042660825 -0.20120104 0.0006301218 0.026589833 0.12129483 0.08837322 -0.14531972
0.11311637 0.29975227 0.07696792 0.08130773 0.011580338 0.09756957 0.15898888 0.39810482
-0.03302347 -0.11096572 0.14624055 0.14328979 0.08209117 -0.051321477 0.31782484 0.1331883
-0.13203521 -0.030105278 -0.18519907 0.08299669 0.040835906 0.053518895 -0.09172036 -0.060366992
-0.1602991 0.17690249 -0.012226882 0.047612756 0.019813875 0.070915416 0.051736537 0.25530207
0.19611818 -0.079360835 0.05185323 0.055760212 0.00360985 -0.17118256 -0.008157537 -0.07498428
-0.20249969 0.010308421 -0.12492796 0.10692855 -0.0019793743 0.20061694 -0.014156512 0.06707084
0.36022905 0.1260606 0.160914 -0.10179239 0.023253273 0.032349844 -0.035725687 -0.030666966
0.1461143 -0.20022067 0.1915387 0.13989565 0.028927667 -0.12681969 -0.06897202 0.13634579
-0.21948554 0.10362518 0.25970155 -0.09162122 0.094647095 -0.022968516 0.035099763 0.06355175
-0.1441206 -0.010648788 0.1306583 -0.008571749 -0.15343519 0.0348359 0.08931756 0.010936257
00000000: 09c5 2abe 7103 5e3d 973c 81be 2a55 4c3d
00000010: 508f c93d 0a71 733e 379d 67be 702a 6b3e
00000020: 2d54 ea3a b696 213e a6b5 723e 7b64 94bc
00000030: b912 e4bc cc48 c4bd 1723 2d3e 6324 c3bd
00000040: 2dfc 133e a41e 983d 5f36 893e 0070 443e
00000050: 5af2 723e a74e 21be d882 3bbd c112 40be
00000060: 8850 0d3e 29b6 c03c bfa4 db3c a903 4d3d
00000070: bf36 78ba 9ee9 f53d 6021 6fbd 142e 843e
00000080: 0cad a3be ad3f a4be c145 0b3e 8360 773e
00000090: 3926 5dbd 1cf4 2f3e 8afd 57be 2572 40be
000000a0: a282 9fbd 850c 583e fad1 0bbe e8dc 413e
000000b0: bc45 81bd 7d38 b1bd 1803 bcbd fbc8 edbd
000000c0: 806a 4c3e 5a12 4fbe c079 cebc 8633 0bbd
000000d0: 4a04 6f3e ee5f 323e 36f9 aa3c 672b 40bd
000000e0: b781 653d 45d4 25bd 5f06 593e fcd8 3dbd
000000f0: 215e dc3d f11e ac3e c2e0 9d3d 52fd 85be
00000100: 6baf 9f3d c641 19be 223f 18bc cf73 e8bd
00000110: 4d4c 6a3e fc8c 0fbe cb2a 97be 769d a33d
00000120: ac65 053e 3d2f 07bd 82f7 0d3e b86b 393e
00000130: 9cc2 053c 9fed cdbc 97a6 e13d 448b 963e
00000140: 739e 223d 8ae8 663d d5c3 a7bd e00f f7bd
00000150: 6375 2cbd ad89 b5be f76e 0d3e 817c 83bd
00000160: dff8 cabd 4839 5cbc 24d7 42bd 9aca b2bd
00000170: ceb9 fdbd 4c1b 11be 7cd8 a1bc ba69 ab3d
00000180: 7900 5c3d 08dd 903d 1021 80be 1cbc 8b3e
00000190: 93d0 dc3d b33d 783e f40c cbbd 27b5 8e3e
000001a0: a0a1 ed3c 51e9 55be 5e2a 593e d4cf a1bd
000001b0: 492f 133b 89c6 993e a2ca 923d 6974 813d
000001c0: 0755 a1be fd47 7a3e c931 11bb ac76 863a
000001d0: 917b 14be e851 613d e520 523e 37e5 df3d
000001e0: 5770 3a3e 25bb 5dbd d0af 2bbe af10 203d
000001f0: afd1 20be 5ef6 35be 2e6e 013e f806 863e
00000200: 6bbc f4bc eee2 c7bd aa27 873d 3afd 20bc
00000210: 19e9 04be 9782 babd 8050 63bd 8fa5 ffbb
00000220: b518 003e db87 b6bb 6d61 063d a8da 8abd
00000230: cba1 69bd ce78 5c3e 96ca 8ebc 4212 68be
00000240: 1afa 293e 325a 3b3e e806 ac3c eeaa 0cbe
00000250: 8da1 b1bd 55d1 453e fac7 e73d 7874 67be
00000260: e678 963e 695c eebc cbd6 1c3e 843f 273d
00000270: b53c 883d 5c3b da3d 344d b4bd a593 ac3d
00000280: 196c 96bc cb56 543e 8099 1f3d abc4 143e
00000290: b191 7dbd 27ef d93d 5ba6 683d 175a a5bd
000002a0: 9b43 713a 1ebd 2e3d a507 4ebe c22e 253a
000002b0: ecd2 d93c 6d69 f83d 05fd b43d b1ce 14be
000002c0: 8ea9 e73d 2179 993e 5ba1 9d3d ab84 a63d
000002d0: 75bb 3d3c 8ed2 c73d fbcd 223e 65d4 cb3e
000002e0: 9e43 07bd ff41 e3bd 15c0 153e 8fba 123e
000002f0: 6a1f a83d 7836 52bd f0b9 a23e 8462 083e
00000300: 3d34 07be 589f f6bc d3a4 3dbe 2bfa a93d
00000310: 8d43 273d a136 5b3d e2d7 bbbd 6143 77bd
00000320: 7325 24be ed25 353e 4353 48bc 9805 433d
00000330: b550 a23c 1a3c 913d b1e9 533d f4b6 823e
00000340: 34d3 483e ef87 a2bd 0d64 543d d264 643d
00000350: 3c93 6c3b 7b4a 2fbe 31a7 05bc 5c91 99bd
00000360: 145c 4fbe a7e4 283c 3bda ffbd 5bfd da3d
00000370: 64b8 01bb 876e 4d3e b7f0 67bc 705c 893d
00000380: f16f b83e 0816 013e a4c6 243e 8778 d0bd
00000390: a67d be3c 4581 043d 1955 12bd 4a39 fbbc
000003a0: fd9e 153e a606 4dbe b922 443e ce40 0f3e
000003b0: b7f9 ec3c 05dd 01be 3441 8dbd 3b9e 0b3e
000003c0: d1c0 60be 7039 d43d 9af7 843e e8a3 bbbd
000003d0: 56d6 c13d 7828 bcbc c5c4 0f3d 6b27 823d
000003e0: 5a94 13be 4178 2ebc 4acb 053e 8570 0cbc
000003f0: 1d1e 1dbe 17b0 0e3d 20ec b63d fd2d 333c

encoder.encoder_layers.0.0.bias f4 [64]
-3.3947897e-05 7.718977e-06 3.040244e-05 2.0782725e-05 -1.6338274e-05 9.644174e-06 -1.3875655e-05 2.7188917e-05
7.787228e-05 5.0639765e-06 -8.15382e-05 5.368824e-05 5.0545914e-06 -2.4878038e-05 -9.479968e-06 -5.4961715e-06
-4.94624e-05 1.4146519e-05 -2.6747273e-05 2.450207e-07 -4.1124053e-06 1.2130698e-05 -2.1245225e-05 7.708717e-06
-3.119362e-07 3.845193e-05 5.414131e-05 8.8102615e-06 2.4980467e-05 -3.067157e-05 0.00024033329 -5.272922e-07
-7.865134e-05 0.00011149909 -3.9636966e-06 0.00013230751 -1.47927185e-05 -1.9150693e-06 5.1434738e-05 -2.9466759e-05
-3.6807407e-05 -0.000121357305 4.1157804e-05 -2.3513918e-05 -1.6665499e-05 4.7240614e-05 8.967015e-06 4.3180495e-05
1.4914128e-05 1.5350731e-06 7.102731e-06 5.448395e-06 1.4248829e-05 -3.5372606e-05 7.112173e-05 -2.8964441e-05
9.864447e-06 -1.9940384e-05 -8.9431666e-07 -2.5161666e-05 -1.3983086e-05 -8.824858e-06 -1.3226328e-05 1.4000952e-05
00000000: 4763 0eb8 c180 0137 be08 ff37 9056 ae37
00000010: 2d0e 89b7 69cd 2137 7ccb 68b7 c113 e437
00000020: 5d4f a338 3aeb a936 7dff aab8 4f2f 6138
00000030: 9c9a a936 2eb1 d0b7 270c 1fb7 c16b b8b6
00000040: d975 4fb8 d656 6d37 555f e0b7 638b 8334
00000050: 4bfd 89b6 f484 4b37 c637 b2b7 b054 0137
00000060: 2f78 a7b4 7247 2138 ca15 6338 c9cf 1337
00000070: 258d d137 59a5 00b8 fa01 7c39 3e8b 0db5
00000080: 9ef1 a4b8 9ed4 e938 e5ff 84b6 07bc 0a39
00000090: 3e2e 78b7 a484 00b6 a1bb 5738 622f f7b7
000000a0: a761 1ab8 3581 feb8 dba0 2c38 c13f c5b7
000000b0: e3cc 8bb7 3924 4638 0971 1637 b41c 3538
000000c0: b137 7a37 b608 ce35 ff53 ee36 5bd1 b636
000000d0: 410e 6f37 0c5d 14b8 3027 9538 aaf8 f2b7
000000e0: 7a7f 2537 a645 a7b7 f910 70b5 4412 d3b7
000000f0: e698 6ab7 7a0e 14b7 a5e6 5db7 a2e5 6a37

encoder.encoder_layers.0.1.weight f4 [64]
1.0256865 0.95399064 0.9580243 0.9651265 0.98094696 1.0154923 1.0572478 0.8737388
0.9387042 0.9623774 1.0080814 0.98878634 1.0667615 1.0061623 0.99461436 0.9368052
0.9503053 0.9465937 0.97202533 0.90893745 1.0374211 1.0389886 1.0586933 1.0183568
0.91887367 1.039023 0.97213846 0.99559647 1.0413601 1.0871192 0.86279976 0.9308303
1.0080237 0.9818987 1.0213275 0.8763878 1.0158865 1.0133119 0.9390173 1.045432
0.89948946 0.92330414 0.977306 0.97136223 1.0715839 1.0299952 1.0510769 1.0250636
1.1007512 0.88497144 1.0278746 0.91485864 1.0460649 1.0992423 0.94517344 0.95585245
1.0843259 0.92853886 1.0761176 0.8624542 1.0606017 0.9945731 1.0254478 0.988032
00000000: b249 833f bb38 743f 1541 753f 8812 773f
00000010: 571f 7b3f a7fb 813f e553 873f 59ad 5f3f
00000020: eb4e 703f 5e5e 763f d008 813f 1a21 7d3f
00000030: a48b 883f edc9 803f 0c9f 7e3f 77d2 6f3f
00000040: 3547 733f f753 723f a7d6 783f 20b0 683f
00000050: 37ca 843f 94fd 843f 4383 873f 8459 823f
00000060: 4e3b 6b3f b5fe 843f 11de 783f 69df 7e3f
00000070: 4a4b 853f b926 8b3f 72e0 5c3f e54a 6e3f
00000080: ec06 813f b75d 7b3f dcba 823f f35a 603f
00000090: 9208 823f 34b4 813f 7063 703f b7d0 853f
000000a0: f144 663f a95d 6c3f ba30 7a3f 32ab 783f
000000b0: a929 893f e2d6 833f b089 863f 4935 833f
000000c0: 6ae5 8c3f 7d8d 623f 6591 833f 2d34 6a3f
000000d0: 74e5 853f f9b3 8c3f e3f6 713f bfb2 743f
000000e0: 31cb 8a3f b9b4 6d3f 39be 893f ccc9 5c3f
000000f0: ccc1 873f 589c 7e3f e041 833f aaef 7c3f

encoder.encoder_layers.0.1.bias f4 [64]
-0.24188332 -0.18250664 -0.2388268 -0.049176197 -0.15530774 -0.08263291 0.14452311 -0.14175203
-0.20074186 0.0641492 0.018358244 0.038482774 0.04637562 -0.2770369 0.0041260934 -0.34589383
-0.06548574 -0.25735238 -0.28607818 -0.14723812 -0.0885886 -0.1188177 -0.107487276 -0.09015767
-0.21000217 0.026394233 0.12669297 0.12064522 -0.0059097344 0.1270106 -0.37867108 -0.111767605
0.095475264 -0.091105126 -0.007815304 -0.39250818 0.033276685 0.012652587 -0.05553419 0.017561764
-0.37165108 -0.26525864 -0.13874519 0.055695757 0.031007042 0.037162703 -0.30692095 0.046005387
0.14790982 -0.28040037 -0.00016661531 0.011012244 0.03744474 0.11463265 -0.42224857 -0.20078216
0.045845035 -0.17968242 0.123113744 -0.36457768 -0.09083825 0.03625679 -0.2365119 -0.1353203
00000000: 43b0 77be 05e3 3abe 038f 74be fb6c 49bd
00000010: fe08 1fbe 713b a9bd defd 133e 7227 11be
00000020: 468f 4dbe a860 833d 0764 963c 1da0 1d3d
00000030: 5df4 3d3d c8d7 8dbe 2e34 873b ff18 b1be
00000040: 631d 86bd b1c3 83be d778 92be 97c5 16be
00000050: f16d b5bd b256 f3bd 4a22 dcbd 96a4 b8bd
00000060: cf0a 57be b838 d83c cdbb 013e d714 f73d
00000070: 72a6 c1bb 110f 023e 2de1 c1be 6ae6 e4bd
00000080: 8988 c33d 5395 babd c30b 00bc d5f6 c8be
00000090: 224d 083d cc4c 4f3c d277 63bd b0dd 8f3c
000000a0: 0d49 bebe fbcf 87be 3813 0ebe 3c21 643d
000000b0: 7b02 fe3c eb37 183d be24 9dbe 2570 3c3d
000000c0: ac75 173e a390 8fbe 75b5 2eb9 b36c 343c
000000d0: a85f 193d 86c4 ea3d f730 d8be d799 4dbe
000000e0: 01c8 3b3d abfe 37be 0f23 fc3d eda9 babe
000000f0: 6809 babd 0082 143d 2d30 72be 6891 0abe

encoder.encoder_layers.0.1.running_mean f4 [64]
0.033607673 0.26585138 0.18646452 -0.031921104 0.28298342 0.11435186 0.29368904 0.13100944
0.026522346 0.28604722 0.1626756 -0.28155988 0.40046316 0.015893793 0.29474247 -0.079173796
-0.07412208 0.36836496 0.54455173 0.14820026 0.42467636 0.10571497 0.09394596 0.38528717
0.28456378 0.07645039 0.11136545 0.2020261 0.15050715 0.49913007 -0.351508 -0.17522517
0.106255315 -0.14901096 0.046037283 -0.17557351 0.12306753 0.23384596 -0.0681856 0.45063606
0.22747399 0.014993361 -0.05805036 0.2092161 0.38783363 0.035626724 0.5033255 0.05187339
0.36707318 0.17217508 0.3333901 -0.14698133 0.17393221 0.33505282 0.13789102 0.21649216
0.33121294 0.109693475 0.44588667 -0.019482778 0.04428613 0.26517457 0.42205057 0.31708914
00000000: 33a8 093d ac1d 883e 8ef0 3e3e b4bf 02bd
00000010: 34e3 903e 4f31 ea3d 695e 963e 5727 063e
00000020: 6445 d93c c874 923e 6f94 263e 9e28 90be
00000030: 8209 cd3e b333 823c 7ce8 963e df25 a2bd
00000040: 51cd 97bd 559a bc3e be67 0b3f cfc1 173e
00000050: 2e6f d93e 1781 d83d bd66 c03d 5c44 c53e
00000060: 58b2 913e 0692 9c3d 9213 e43d eedf 4e3e
00000070: 8c1e 1a3e fa8d ff3e dbf8 b3be 3a6e 33be
00000080: 639c d93d 5496 18be 9791 3c3d 8bc9 33be
00000090: d40a fc3d 5175 6f3e e4a4 8bbd c5b9 e63e
000000a0: f1ee 683e b7a6 753c 37c6 6dbd bf3c 563e
000000b0: 2192 c63e 54ed 113d f1d9 003f 3179 543d
000000c0: 04f1 bb3e aa4e 303e 1bb2 aa3e 4682 16be
000000d0: 491b 323e 0b8c ab3e 4e33 0d3e 1fb0 5d3e
000000e0: be94 a93e f9a6 e03d 424b e43e 599a 9fbc
000000f0: 6065 353d f6c4 873e 0317 d83e 8259 a23e

encoder.encoder_layers.0.1.running_var f4 [64]
0.13668287 0.1331673 0.11698538 1.651591 0.8372975 0.7468143 1.1966647 0.09874148
0.58371955 0.7417716 0.16243789 1.8129135 1.1061841 0.1304187 1.5919932 0.06869789
1.4151373 0.9908301 0.73465323 0.16626105 1.19493 0.2327089 0.085458316 1.03366
0.16626927 1.8494476 1.3375869 0.8944244 1.2278956 1.3958052 0.22865692 1.1302785
1.698746 1.4233304 0.91133076 0.10740964 1.2938199 0.8476161 0.5496435 1.4831913
0.43073875 0.07980279 0.73812747 0.99420315 0.8216659 1.1983521 0.70181507 1.0593504
1.081652 0.6559243 0.9939019 1.3668295 1.3188782 1.3739984 0.09739952 0.5552401
1.2378113 0.14102934 1.1858337 0.13379008 1.0118898 1.2235384 0.28045696 0.57435036
00000000: 98f6 0b3e 025d 083e 0896 ef3d 5567 d33f
00000010: 2159 563f 392f 3f3f 4f2c 993f f938 ca3d
00000020: a56e 153f bee4 3d3f 1e56 263e 8d0d e83f
00000030: 7197 8d3f 7b8c 053e 6fc6 cb3f 7bb1 8c3d
00000040: 3823 b53f 0ba7 7d3f 3c12 3c3f 5640 2a3e
00000050: 77f3 983f 3e4b 6e3e c504 af3d f94e 843f
00000060: 7e42 2a3e b3ba ec3f 0c36 ab3f fff8 643f
00000070: af2b 9d3f bfa9 b23f 0a25 6a3e f7ac 903f
00000080: 8270 d93f b12f b63f f94c 693f 96f9 db3d
00000090: e49b a53f 5efd 583f 70b5 0c3f 36d9 bd3f
000000a0: ca89 dc3e a56f a33d ecf5 3c3f 1984 7e3f
000000b0: b258 523f 9a63 993f 27aa 333f cb98 873f
000000c0: 9373 8a3f a8ea 273f 5b70 7e3f 45f4 ae3f
000000d0: 00d1 a83f 2edf af3f 6679 c73d 3724 0e3f
000000e0: 9a70 9e3f ff69 103e 66c9 973f 4400 093e
000000f0: 9b85 813f e89c 9c3f 0e98 8f3e a008 133f

encoder.encoder_layers.1.0.weight f4 [32, 64]
0.12752034 -0.027510317 0.007243383 -0.15297844 0.0060134237 -0.062027637 -0.106507346 -0.12547652
-0.110565364 0.15276016 0.2621647 0.009472977 0.14675961 0.053125225 -0.06447489 0.015442001
-0.14521608 -0.07168471 -0.12681782 0.029676428 -0.13338722 0.25948972 0.07006568 -0.2508765
0.03237273 0.2113577 -0.011268222 0.04876168 -0.11337306 -0.082661204 -0.13140714 0.10662464
-0.06340628 -0.28322735 -0.18084396 -0.17630713 0.15480408 0.13993067 0.23393983 0.32241103
0.049287472 -0.06359701 -0.1080034 0.06773539 0.24057356 -0.045749273 0.046802476 0.0694408
0.29287067 -0.20390143 0.18041526 -0.05562881 0.20856649 -0.013418877 -0.19490463 0.05688993
0.32329974 -0.00959821 0.19618724 0.09787834 -0.23660427 0.14986533 0.06825217 -0.048738863
0.22488673 0.22738071 0.18152753 0.034764897 0.13236107 0.23271322 -0.052659888 -0.020028474
0.17735037 -0.19992253 -0.11161891 0.00048785948 0.07814026 0.09342021 0.0860342 0.17543775
0.12154867 0.25031304 0.28786317 0.09013102 0.17246889 -0.06381566 0.20481756 0.24489978
0.011938829 0.005620746 -0.11604678 -0.12702742 0.22985508 -0.017564738 0.26420146 -0.08632876
-0.00044751642 0.12914954 0.0787248 0.2238467 -0.16781753 -0.21047287 -0.03722124 0.07656399
0.24119818 0.28389683 0.03566722 -0.09064344 -0.08871232 0.2186733 0.35824722 -0.057322294
-0.22208282 -0.036377065 -0.015332784 -0.28196386 -0.13397989 -0.2854778 0.17858025 0.09094267
-0.23284492 0.16265312 -0.27648333 0.06473661 0.22791852 -0.07297401 -0.13131882 -0.016288167
0.13410203 0.1932801 0.3016214 0.20957986 -0.032498647 0.15896402 -0.25147098 0.19997647
0.17960925 -0.18658306 0.043444846 -0.09121307 -0.13427356 0.25634912 -0.09855409 0.13949563
-0.040340085 0.1636956 -0.043372307 -0.045498993 -0.028396716 -0.043273494 0.011525357 -0.06983686
-0.055543054 0.060004864 -0.06105639 -0.17740914 0.22286075 0.010903314 -0.0011513655 -0.11918443
-0.00936221 0.15517874 -0.120420836 0.028804831 -0.1995321 -0.21525314 0.076447405 0.12658454
0.16047914 0.24902464 0.15227509 0.0014637017 -0.23286413 0.21178585 0.2942031 -0.0554499
9.4407515e-05 0.15727621 0.22881465 -0.08458646 -0.06280199 -0.17437086 0.14172065 0.17011398
-0.21582344 0.22686493 -0.0070881476 0.122297905 0.10873241 -0.07874052 0.094430454 -0.16241626
0.19092624 -0.10984209 -0.10218325 -0.28741774 -0.05205649 -0.061093412 0.31866005 0.010087026
0.028010024 0.07073338 0.20038293 0.24025753 0.1867564 0.10722422 -0.09919006 0.24034354
-0.31833553 -0.1752128 -0.1561452 0.089261696 0.018071603 0.07546079 -0.16751537 0.13679655
0.18523203 0.21590528 0.02131387 0.3077153 -0.029869992 0.064994164 -0.24387787 0.24489075
0.08259587 -0.2951731 0.101932436 -0.037341543 0.14576642 0.27488998 0.17721656 -0.011549292
-0.09267955 0.1803682 -0.07441201 -0.04991176 -0.09642271 -0.27940312 -0.021074131 0.30263042
0.2150736 -0.057400033 0.17958161 -0.001057217 0.28328103 0.26911023 -0.10966894 -0.1638417
-0.043426853 -0.011110128 0.2634863 -0.050356477 -0.17547835 0.16850778 -0.12897754 0.14088938
00000000: b194 023e 515d e1bc e759 ed3b 61a6 1cbe
00000010: 410c c53b b110 7ebd 8620 dabd eb7c 00be
00000020: 1870 e2bd 296d 1c3e 743a 863e 8c34 1b3c
00000030: 2748 163e d699 593d 690b 84bd 7200 7d3c
00000040: 86b3 14be 6fcf 92bd 88dc 01be fb1b f33c
00000050: a996 08be d6db 843e 987e 8f3d e272 80be
00000060: 4599 043d 276e 583e 599e 38bc 54ba 473d
00000070: 2330 e8bd 474a a9bd 988f 06be 055e da3d
00000080: 27db 81bd 2d03 91be 292f 39be db89 34be
00000090: f684 1e3e fc49 0f3e ec8d 6f3e 0f13 a53e
000000a0: a9e1 493d 263f 82bd e330 ddbd dab8 8a3d
000000b0: ea58 763e 9763 3bbd f4b3 3f3d fa36 8e3d
000000c0: 25f3 953e 89cb 50be c7be 383e 09db 63bd
000000d0: 7492 553e d9da 5bbc 1495 47be 6a05 693d
000000e0: 8b87 a53e d041 1dbc 4fe5 483e 7074 c83d
000000f0: 6448 72be 4c76 193e cbc7 8b3d 67a2 47bd
00000100: b548 663e 7dd6 683e 5ae2 393e a365 0e3d
00000110: a989 073e 604c 6e3e e5b1 57bd c112 a4bc
00000120: 569b 353e 7eb8 4cbe 7598 e4bd 64c7 ff39
00000130: 0008 a03d 1853 bf3d b332 b03d f4a5 333e
00000140: 82ee f83d 0829 803e cd62 933e 9d96 b83d
00000150: af9b 303e c9b1 82bd b2bb 513e 02c7 7a3e
00000160: 149b 433c 3c2e b83b efa9 edbd 7a13 02be
00000170: 215f 6b3e ede3 8fbc 6a45 873e 22cd b0bd
00000180: a3a0 eab9 c73f 043e 783a a13d 1238 653e
00000190: 5cd8 2bbe 3386 57be 4d75 18bd 95cd 9c3d
000001a0: a8fc 763e ed5a 913e ca17 123d 45a3 b9bd
000001b0: ceae b5bd e5eb 5f3e 2e6c b73e c8ca 6abd
000001c0: ae69 63be 1e00 15bd 5b36 7bbc 915d 90be
000001d0: 0632 09be 252a 92be bedd 363e 2740 ba3d
000001e0: e66e 6ebe 8a8e 263e 398f 8dbe a194 843d
000001f0: 7963 693e 6673 95bd 7178 06be c36e 85bc
00000200: 0b52 093e 38eb 453e 1f6e 9a3e 1a9c 563e
00000210: 4d1d 05bd 77c7 223e cec0 80be a2c6 4c3e
00000220: 7deb 373e a10f 3fbe 39f3 313d ebcd babd
00000230: 027f 09be 3140 833e bad6 c9bd f1d7 0e3e
00000240: a53b 25bd d29f 273e 29a7 31bd 275d 3abd
00000250: 3ba0 e8bc 8c3f 31bd dad4 3c3c a106 8fbd
00000260: 1d81 63bd a9c7 753d 4416 7abd beaa 35be
00000270: 9c35 643e d0a3 323c 6ae9 96ba f716 f4bd
00000280: f463 19bc 2de7 1e3e 339f f6bd 1cf8 eb3c
00000290: 2552 4cbe 526b 5cbe 7590 9c3d 619f 013e
000002a0: a554 243e 5100 7f3e 00ee 1b3e aed9 bf3a
000002b0: ef73 6ebe 64de 583e caa1 963e 6f1f 63bd
000002c0: a6fc c538 040d 213e 634e 6a3e aa3b adbd
000002d0: 549e 80bd 468e 32be 381f 113e 5c32 2e3e
000002e0: d200 5dbe 484f 683e b143 e8bb 5377 fa3d
000002f0: 19af de3d b642 a1bd c164 c13d 7350 26be
00000300: 2b82 433e e4f4 e0bd 7445 d1bd 6b28 93be
00000310: 3039 55bd 163d 7abd 6927 a33e 0e44 253c
00000320: 4775 e53c aadc 903d 2f31 4d3e 1206 763e
00000330: 123d 3f3e 5f98 db3d 2824 cbbd 9e1c 763e
00000340: e0fc a2be fc6a 33be 87e4 1fbe d6ce b63d
00000350: e60a 943c 308b 9a3d 2689 2bbe 6514 0c3e
00000360: 77ad 3d3e 4616 5d3e 6d9a ae3c dc8c 9d3e
00000370: eab1 f4bc a91b 853d 1fbb 79be a4c4 7a3e
00000380: 0628 a93d ee20 97be f4c1 d03d 72f3 18bd
00000390: cb43 153e 61be 8c3e 4278 353e 3e39 3dbc
000003a0: c7ce bdbd 71b2 383e 5365 98bd 4670 4cbd
000003b0: 4579 c5bd ed0d 8fbe a8a3 acbc 60f2 9a3e
000003c0: 413c 5c3e 4c1c 6bbd 3ee4 373e 5192 8aba
000003d0: 360a 913e d1c8 893e 1c9a e0bd 1ec6 27be
000003e0: 5be0 31bd 4107 36bc ade7 863e 9842 4ebd
000003f0: 99b0 33be 4e8d 2c3e b012 04be 4e45 103e

encoder.encoder_layers.1.0.bias f4 [32]
-2.1295966e-05 4.578445e-06 5.8217224e-06 -1.38793675e-05 3.232706e-05 -7.547357e-05 -5.001856e-06 -2.5773163e-05
3.1131312e-06 -5.5622713e-06 -1.7617215e-06 1.229883e-05 9.598129e-06 3.228617e-05 4.183121e-05 -8.85223e-06
1.914193e-05 2.5932855e-05 2.2874483e-06 2.2756061e-05 6.106655e-06 2.0345935e-05 3.695931e-05 1.5120164e-05
6.036679e-05 1.7565e-05 -3.001821e-06 -1.4930395e-05 -2.5452004e-05 2.4755222e-05 6.764538e-06 4.77071e-05
00000000: bda4 b2b7 8ba0 9936 3758 c336 6edb 68b7
00000010: eb96 0738 9047 9eb8 9ed5 a7b6 7233 d8b7
00000020: 30eb 5036 8ca3 bab6 4a74 ecb5 1357 4e37
00000030: a607 2137 036b 0738 eb73 2f38 0a84 14b7
00000040: fb92 a037 628a d937 1082 1936 45e4 be37
00000050: c4e7 cc36 90ac aa37 c204 1b38 9cac 7d37
00000060: 5932 7d38 8d58 9337 e472 49b6 8f7d 7ab7
00000070: c381 d5b7 6fa9 cf37 f0fa e236 1c19 4838

encoder.encoder_layers.1.1.weight f4 [32]
1.1915519 0.9275825 0.880882 1.1506658 1.2776967 1.242372 1.0768099 0.89456534
0.95209265 0.92848206 0.86809283 0.6766279 1.0830324 1.0554693 1.0503898 1.102311
0.7408625 0.78779113 0.78250366 0.7378731 0.9176532 0.98739856 1.0055317 1.1804563
1.2682148 1.0756414 0.78943413 0.7977995 0.950486 1.0205076 0.8188699 1.0836415
00000000: c684 983f 0c76 6d3f 7c81 613f 0449 933f
00000010: 918b a33f 0c06 9f3f e8d4 893f 3c02 653f
00000020: 58bc 733f 00b1 6d3f 553b 5e3f 7c37 2d3f
00000030: cea0 8a3f 9e19 873f 2c73 863f 8718 8d3f
00000040: 2aa9 3d3f aeac 493f 2952 483f 40e5 3c3f
00000050: 52eb 6a3f 27c6 7c3f 43b5 803f 3119 973f
00000060: dd54 a23f 9eae 893f 5b18 4a3f 973c 4c3f
00000070: 0d53 733f fe9f 823f 75a1 513f c4b4 8a3f

encoder.encoder_layers.1.1.bias f4 [32]
0.33889866 -0.024469825 -0.19654013 0.31006637 0.40684754 0.53767806 0.27919415 -0.006116327
0.30607587 0.012262735 -0.030395165 -0.12361931 0.19940676 -0.00870724 0.23098509 0.10769084
-0.38770863 -0.22008823 -0.34502074 -0.21689348 -0.18930586 -0.07031712 -0.026908033 0.3382247
0.47749197 -0.12963104 -0.22922772 -0.2212795 -0.08990407 -0.19397175 -0.19957848 0.3842275
00000000: 2084 ad3e f174 c8bc d141 49be 05c1 9e3e
00000010: 524e d03e 45a5 093f 89f2 8e3e 786b c8bb
00000020: fab5 9c3e a3e9 483c 48ff f8bc 1f2c fdbd
00000030: 4931 4c3e d0a8 0ebc 5b87 6c3e 048d dc3d
00000040: bf81 c6be cf5e 61be 8fa6 b0be 5319 5ebe
00000050: 65d9 41be 6c02 90bd 3c6e dcbc ca2b ad3e
00000060: d479 f43e 00be 04be acba 6abe 1897 62be
00000070: a01f b8bd 88a0 46be 4d5e 4cbe 78b9 c43e

encoder.encoder_layers.1.1.running_mean f4 [32]
0.67824614 0.19631445 0.10103466 1.0298839 1.1420007 1.4340723 1.3618722 -0.39263824
0.58429897 0.73165995 0.61326617 0.17070122 0.8425242 0.5181255 0.30308932 0.8952359
-1.0303571 -0.043577902 0.31391087 -0.2322996 0.3039199 -2.1938162 -1.5036917 0.55421996
1.3374289 -0.93582946 -0.12784322 0.014285856 -0.1973133 0.43505985 0.107512414 0.35621205
00000000: 8aa1 2d3f a806 493e 43eb ce3d 3cd3 833f
00000010: 142d 923f ae8f b73f d451 ae3f e107 c9be
00000020: 9e94 153f 114e 3b3f 03ff 1c3f 4dcc 2e3e
00000030: aaaf 573f dfa3 043f 862e 9b3e 2e2e 653f
00000040: bee2 83bf be7e 32bd edb8 a03e f2df 6dbe
00000050: 649b 9b3e 7c67 0cc0 f878 c0bf 5ce1 0d3f
00000060: df30 ab3f 8592 6fbf 55e9 02be 390f 6a3c
00000070: 7f0c 4abe 2ac0 de3e 782f dc3d 6d61 b63e

encoder.encoder_layers.1.1.running_var f4 [32]
8.689913 11.889011 6.170011 9.492231 10.188557 12.935659 10.019326 3.217294
8.026634 2.6878297 6.3399143 0.63535047 8.839931 9.120994 7.370573 6.592856
3.5740404 4.8358545 5.1182666 4.9487295 6.550458 12.253173 9.261891 8.40781
9.2503395 6.1895494 5.7693887 6.4678674 3.0920856 7.530147 7.6062493 5.572188
00000000: e209 0b41 6439 3e41 bb70 c540 2ee0 1741
00000010: 5404 2341 76f8 4e41 294f 2041 25e8 4d40
00000020: 186d 0041 6705 2c40 94e0 ca40 54a6 223f
00000030: 5b70 0d41 97ef 1141 bcdb eb40 adf8 d240
00000040: 14bd 6440 52bf 9a40 d7c8 a340 fe5b 9e40
00000050: 5a9d d140 ff0c 4441 b530 1441 6486 0641
00000060: 6401 1441 ca10 c640 d59e b840 c5f8 ce40
00000070: bbe4 4540 f7f6 f040 6566 f340 5d4f b240

encoder.encoder_layers.2.0.weight f4 [16, 32]
-0.26491603 0.04810613 0.13652916 -0.29733697 -0.4278615 -0.59214914 -0.037676558 -0.29388353
-0.09951643 -0.25243714 0.016827313 0.1268148 -0.38375875 -0.032901786 -0.2605512 0.06943
0.2424847 0.089182705 -0.07398391 0.115159534 0.031805575 -0.07051406 -0.016828686 -0.505143
-0.54507077 -0.2529068 -0.065106295 0.13381317 -0.37327784 0.11603248 0.10610743 -0.25072467
-0.06285236 -0.61372614 -0.358953 0.12965275 0.08244693 0.1016413 0.16610335 -0.087460585
0.15733647 0.13560782 -0.04873299 0.0190691 -0.064739235 -0.7423789 0.11265537 0.109541096
-0.22391744 -0.47369102 -0.11747877 -0.16972816 -0.1363628 -0.194921 -0.3703265 0.10401815
0.043921728 -0.2696341 -0.17461579 -0.43738636 -0.00704474 -0.28965327 -0.19330035 0.17509466
-0.49761295 0.21792123 -0.15762573 -0.25454068 -0.53332835 -0.47938395 -0.45237234 0.17410877
0.087609686 0.10470225 -0.19740087 -0.25518918 -0.40778118 0.015486524 -0.26591963 -0.5366862
-0.010173811 0.002863624 -0.0959227 0.010020274 0.03464201 -0.06931383 -0.31860957 -0.5250291
-0.15026699 -0.16396429 0.228695 0.0997632 -0.42884275 0.11841657 -0.1725643 -0.11784589
-0.09345646 -0.20859171 -0.067792974 -0.12723349 -0.12021188 -0.19012761 -0.16001534 -0.25493523
-0.10079043 0.04898393 -0.07976861 -0.088462055 -0.22197968 -0.4808481 -0.13794313 -0.1554275
0.065762654 0.15307026 -0.4030808 0.3380705 0.44111195 0.0928472 -0.026895285 -0.1473675
-0.15891784 -0.10041982 0.090540126 0.09573929 -0.104766294 -0.2372458 -0.016487617 -0.12734537
0.050895862 -0.42400858 -0.22242747 -0.034061648 -0.0021925769 -0.022935221 -0.055757273 0.1410238
-0.0034557427 0.053990945 0.06789594 0.12299329 -0.0089954175 -0.46370938 0.029701281 -0.03805545
0.018106127 -0.34094727 0.08259488 -0.3916369 -0.30615804 -0.24228434 -0.2642128 -0.035968535
0.008824301 -0.27862448 -0.26628643 -0.5830566 0.15840888 -0.6029861 -0.586648 -0.06416849
-0.43871045 -0.007508003 0.008596212 -0.29694864 0.055767957 -0.51358676 -0.41923866 -0.4220518
-0.49045625 0.14094499 -0.42054078 -0.026450345 -0.33839673 0.08596123 -0.34755334 0.054610033
-0.009855716 -0.034523346 0.12610085 0.15816404 0.1560011 -0.19625296 -0.23847982 -0.27168107
-0.25165087 -0.24933021 -0.051799748 -0.056566026 0.03716037 0.19943969 0.23763202 -0.29475057
-0.4802313 -0.11815206 0.07014168 -0.5152374 -0.62605417 -0.30506188 -0.43338332 -0.35414013
-0.0431572 -0.16764972 -0.08060296 0.16365252 -0.12346154 -0.024912776 -0.20115407 -0.5059911
0.23345885 -0.038556643 -0.23531163 -0.011765608 0.17453699 -0.21950842 -0.034284282 -0.28383508
-0.6296079 -0.39632615 0.21747461 0.18775767 0.007461895 0.2770194 -0.23166737 -0.49298108
0.002131519 -0.42543182 -0.47695255 0.0048413193 -0.015593298 -0.017841728 -0.002048252 0.11105057
-0.054411788 0.015444974 0.08810913 0.12846291 0.032280304 -0.0720857 -0.030276611 -7.2076495e-05
-0.084422134 -0.11125856 0.07814496 -0.41962722 -0.45533845 -0.29843715 -0.15333398 -0.045479003
-0.013728959 -0.20996694 -0.14910226 -0.63537973 0.100994505 -0.4575301 -0.5351517 -0.033456326
00000000: 13a3 87be ef0a 453d 4dce 0b3e 8d3c 98be
00000010: aa10 dbbe 1697 17bf bc52 1abd e777 96be
00000020: 45cf cbbd 713f 81be 6fd9 893c bddb 013e
00000030: 077c c4be 06c4 06bd f866 85be 5131 8e3d
00000040: e94d 783e 6ca5 b63d e084 97bd c3d8 eb3d
00000050: 9046 023d ad69 90bd 50dc 89bc 0d51 01bf
00000060: c289 0bbf 007d 81be 7356 85bd 5206 093e
00000070: 461e bfbe 70a2 ed3d da4e d93d fc5e 80be
00000080: bdb8 80bd 281d 1dbf b0c8 b7be b1c3 043e
00000090: f0d9 a83d 5029 d03d ff16 2a3e 891e b3bd
000000a0: d01c 213e c7dc 0a3e 3e9c 47bd cd36 9c3c
000000b0: 0196 84bd 8b0c 3ebf dcb7 e63d 1557 e03d
000000c0: 9d4a 65be a187 f2be b698 f0bd 38cd 2dbe
000000d0: b1a2 0bbe 5f99 47be 6f9b bdbe 7807 d53d
000000e0: 45e7 333d 7b0d 8abe 7bce 32be 1bf1 dfbe
000000f0: 90d7 e6bb 6f4d 94be 87f0 45be 044c 333e
00000100: 20c7 febe be26 5f3e a468 21be 2853 82be
00000110: 3588 08bf d071 f5be 599d e7be 9249 323e
00000120: b56c b33d 226e d63d 7423 4abe 28a8 82be
00000130: b2c8 d0be 31bb 7d3c 9e26 88be 4464 09bf
00000140: 0eb0 26bc a3ab 3b3b 1f73 c4bd 132c 243c
00000150: c8e4 0d3d 69f4 8dbd cb20 a3be 4f68 06bf
00000160: 97df 19be 41e6 27be 062f 6a3e a650 cc3d
00000170: 4791 dbbe 6384 f23d b2b4 30be 3059 f1bd
00000180: 1a66 bfbd 1199 55be 0bd7 8abd 7f49 02be
00000190: a531 f6bd d0b0 42be 10db 23be df86 82be
000001a0: 376b cebd 60a3 483d ba5d a3bd 982b b5bd
000001b0: a44e 63be b931 f6be f740 0dbe 6328 1fbe
000001c0: 92ae 863d 73be 1c3e 9b60 cebe 9417 ad3e
000001d0: 6dd9 e13e ac26 be3d 8053 dcbc 82e7 16be
000001e0: 5cbb 22be e8a8 cdbd 1a6d b93d f612 c43d
000001f0: b68f d6bd 90f0 72be 0a11 87bc d366 02be
00000200: 2e78 503d a717 d9be 07c4 63be 3a84 0bbd
00000210: 56b1 0fbb a5e2 bbbc bd61 64bd 8b68 103e
00000220: be79 62bb 9c25 5d3d 070d 8b3d e8e3 fb3d
00000230: 8461 13bc 516b edbe 1a50 f33c 08e0 1bbd
00000240: 4d53 943c a490 aebe 8127 a93d a284 c8be
00000250: bfc0 9cbe 6319 78be e646 87be be53 13bd
00000260: cd93 103c dea7 8ebe b256 88be 3343 15bf
00000270: f035 223e 4c5d 1abf 902e 16bf c56a 83bd
00000280: a89e e0be b205 f6bb 20d7 0c3c a709 98be
00000290: f16c 643d 6c7a 03bf 73a6 d6be 2c17 d8be
000002a0: 151d fbbe e253 103e 1f51 d7be 65ae d8bc
000002b0: 5642 adbe 710c b03d 83f2 b1be c5ae 5f3d
000002c0: de79 21bc 5a68 0dbd 9520 013e c1f5 213e
000002d0: c1be 1f3e 89f6 48be 0e34 74be c819 8bbe
000002e0: 62d8 80be 6b50 7fbe f92b 54bd c7b1 67bd
000002f0: 7935 183d eb39 4c3e cf55 733e 8ce9 96be
00000300: e1e0 f5be b5f9 f1bd 71a6 8f3d 99e6 03bf
00000310: 1645 20bf 1231 9cbe 6be4 ddbe db51 b5be
00000320: 9bc5 30bd 5eac 2bbe 2a13 a5bd 8794 273e
00000330: 67d9 fcbd e115 ccbc 55fb 4dbe a288 01bf
00000340: d60f 6f3e 92ed 1dbd 88f5 70be 89c4 40bc
00000350: d3b9 323e d1c6 60be ad6d 0cbd d552 91be
00000360: fc2d 21bf 43eb cabe aab1 5e3e 8c43 403e
00000370: e982 f43b 7dd5 8d3e 363a 6dbe 0468 fcbe
00000380: f4b0 0b3b 33d2 d9be 2033 f4be eea3 9e3b
00000390: 087b 7fbc d128 92bc f73b 06bb 7b6e e33d
000003a0: e5de 5ebd eb0c 7d3c 8f72 b43d c88b 033e
000003b0: 5a38 043d aba1 93bd a806 f8bc c627 97b8
000003c0: 83e5 acbd 87db e3bd 770a a03d 61d9 d6be
000003d0: 1f22 e9be c1cc 98be 9503 1dbe 3148 3abd
000003e0: 6def 60bc 9301 57be 43ae 18be 3fa8 22bf
000003f0: 35d6 ce3d 6341 eabe b4ff 08bf 8009 09bd

encoder.encoder_layers.2.0.bias f4 [16]
-3.7321955e-05 8.8670065e-05 -5.087704e-05 -3.282223e-05 -3.2063792e-05 -5.2041156e-05 -1.20167215e-05 0.00030413788
-5.5182885e-05 -0.00015804742 0.000109233726 -9.642615e-05 0.0003084273 7.492726e-05 0.00017980732 4.4176304e-05
00000000: 258a 1cb8 61f4 b938 ce64 55b8 9aaa 09b8
00000010: 3c7c 06b8 c446 5ab8 6d9b 49b7 b274 9f39
00000020: 2c74 67b8 88b9 25b9 6914 e538 6538 cab8
00000030: 69b4 a139 4422 9d38 a98a 3c39 f249 3938

encoder.encoder_layers.2.1.weight f4 [16]
0.69172055 0.67509675 0.68048656 0.6565939 0.65980196 0.7326663 0.68428665 0.6410266
0.6396301 0.63712114 0.701763 0.65132314 0.67253494 0.6606449 0.65055156 0.72192854
00000000: 9914 313f 24d3 2c3f 5e34 2e3f 8a16 283f
00000010: c8e8 283f 0590 3b3f 692d 2f3f 521a 243f
00000020: ccbe 233f 5f1a 233f bda6 333f 1dbd 263f
00000030: 402b 2c3f 0620 293f 8c8a 263f 4fd0 383f

encoder.encoder_layers.2.1.bias f4 [16]
-0.21629797 0.13283607 -0.20927411 -0.274931 -0.017011467 -0.0814343 -0.11742746 -0.017382234
-0.27360496 -0.23494065 -0.26735586 -0.28523183 -0.390929 -0.26456654 -0.04952641 -0.14237423
00000000: 377d 5dbe 2e06 083e f44b 56be c2c3 8cbe
00000010: a25b 8bbc 07c7 a6bd cf7d f0bd 3065 8ebc
00000020: f315 8cbe 4894 70be dee2 88be e809 92be
00000030: d927 c8be 4475 87be 34dc 4abd 8dca 11be

encoder.encoder_layers.2.1.running_mean f4 [16]
-2.224908 -0.32006043 -2.3629735 -1.1202766 -0.8983852 -2.0931597 -2.7715554 -0.80248904
-2.2826364 -2.3594975 -1.8679472 -2.1036444 -1.3695939 -2.1750247 -0.84329796 -2.3459039
00000000: e564 0ec0 f6de a3be f53a 17c0 3965 8fbf
00000010: 93fc 65bf 54f6 05c0 2a61 31c0 ec6f 4dbf
00000020: b716 12c0 0202 17c0 e518 efbf 1ca2 06c0
00000030: da4e afbf 9b33 0bc0 60e2 57bf 4a23 16c0

encoder.encoder_layers.2.1.running_var f4 [16]
13.105285 9.371567 14.984828 3.1087105 9.7865925 10.204946 19.487991 7.582338
11.46723 11.602731 7.2098536 9.591802 4.414971 10.525196 8.549923 15.512618
00000000: 3faf 5141 f0f1 1541 dbc1 6f41 1df5 4640
00000010: e295 1c41 7547 2341 68e7 9b41 83a2 f240
00000020: c679 3741 c9a4 3941 1fb7 e640 0578 1941
00000030: 7147 8d40 3467 2841 7ccc 0841 af33 7841

encoder.mu_head.weight f4 [10, 16]
-0.0354046 0.036777522 -0.033088937 -0.004492712 0.030255673 -0.035636924 -0.023548625 0.023603054
-0.0337452 -0.025406975 -0.033695396 -0.03188223 -0.00031720157 -0.03218727 0.026770426 -0.029524785
0.022970907 -0.0020057166 0.0166173 0.0073916093 -0.011837382 0.021853166 0.020572593 -0.014982049
0.019007228 0.01515353 0.016518915 0.01978907 0.017456124 0.01717653 -0.011660112 0.021663724
0.019194517 -0.021591626 0.018731074 0.017632168 -0.017170558 0.023130506 0.015040431 -0.016801389
0.019713476 0.010576995 0.011949327 0.013810273 0.017469227 0.024080835 -0.023169354 0.021675603
0.015473924 0.0004643438 0.009755041 0.010663917 -0.0026634478 0.011996575 0.009643248 0.0039882436
0.005188331 0.0047386247 0.004731323 0.017503258 0.011370167 0.01833172 0.0003981234 0.01986831
-0.008520297 -0.004725924 -0.0042819097 -0.0027618762 0.010704219 -0.004160783 -0.008918702 0.00764253
-0.005852219 0.00027677562 -0.010779737 -0.016259631 -0.014103304 -0.0017573634 0.0063510216 -0.0054194788
-0.014484059 0.01218909 -0.018176245 -0.013235569 0.013117017 -0.0071229637 -0.018144153 0.002501169
-0.011137751 -0.0119861 -0.006084482 -0.00049627636 -0.00152808 -0.018552648 0.009876831 -0.01589782
-0.21679854 0.18612665 -0.20375936 -0.24356066 0.33151343 -0.13247527 -0.17658815 0.33549568
-0.30782685 -0.26693493 -0.24670847 -0.3313093 -0.3901308 -0.24690522 0.38203943 -0.20679787
-0.024364486 0.004765472 -0.0073120934 -0.0014922613 0.009947666 -0.027467249 -0.023588477 0.0014115005
-0.016642217 -0.010808293 0.0017251518 -0.022667443 -0.021542141 -0.022391971 0.0022154206 -0.014044589
0.0006432797 0.014518621 0.0034034802 -0.00046861512 0.00931094 -0.005152025 -0.0014941467 0.010315006
-0.0049519744 -0.0052397936 0.0012374403 -0.003932292 0.008447961 -0.002869151 0.011597222 -0.0032036107
-0.007898151 0.004355489 -0.0039932798 -0.019542882 0.007880216 -0.008403577 -0.01096104 0.0033398452
-0.008210908 -0.0006391521 0.0005109988 -0.012461116 -0.011119437 0.0037476097 -0.0002882109 -0.0056633577
00000000: 6a04 11bd 07a4 163d 4488 07bd 9a37 93bb
00000010: bfda f73c 06f8 11bd 0ce9 c0bc 315b c13c
00000020: 6838 0abd 4a22 d0bc 2f04 0abd f196 02bd
00000030: 134e a6b9 ccd6 03bd a74d db3c f6dd f1bc
00000040: 7c2d bc3c 5772 03bb 0121 883c 5035 f23b
00000050: 94f1 41bc 6905 b33c db87 a83c 4577 75bc
00000060: 0cb5 9b3c 8346 783c ad52 873c b01c a23c
00000070: 2500 8f3c cbb5 8c3c 0e0a 3fbc 1f78 b13c
00000080: d23d 9d3c ece0 b0bc e971 993c 5671 903c
00000090: 45a9 8cbc 307c bd3c 246c 763c 11a3 89bc
000000a0: 287e a13c 224b 2d3c 1cc7 433c 7c44 623c
000000b0: a01b 8f3c 2c45 c53c a8cd bdbc 0991 b13c
000000c0: 5786 7d3c 2b73 f339 9cd3 1f3c b6b7 2e3c
000000d0: 3d8d 2ebb 488d 443c b7fe 1d3c d0af 823b
000000e0: e002 aa3b 7746 9b3b 3709 9b3b fe62 8f3c
000000f0: f049 3a3c 672c 963c 38bb d039 dec2 a23c
00000100: b798 0bbc eddb 9abb 434f 8cbb 9800 35bb
00000110: c060 2f3c 2d57 88bb bf1f 12bc 306e fa3b
00000120: f9c3 bfbb 321c 9139 7e9d 30bc eb32 85bc
00000130: 8b11 67bc 5557 e6ba 3b1c d03b e295 b1bb
00000140: 8c4e 6dbc c0b4 473c 59e6 94bc 00da 58bc
00000150: c2e8 563c c067 e9bb 0ca3 94bc a7ea 233b
00000160: 1d7b 36bc 5961 44bc 5660 c7bb 8b18 02ba
00000170: db49 c8ba b9fb 97bc 6fd2 213c 253c 82bc
00000180: 7000 5ebe fc97 3e3e 4ba6 50be f767 79be
00000190: 21bc a93e 99a7 07be 86d3 34be 17c6 ab3e
000001a0: 7b9b 9dbe b2ab 88be 25a1 7cbe 5fa1 a9be
000001b0: 39bf c7be b9d4 7cbe ac9a c33e d2c2 53be
000001c0: 0898 c7bc ad27 9c3b 499a efbb fb97 c3ba
000001d0: 89fb 223c ff02 e1bc 9f3c c1bc 1902 b93a
000001e0: 4255 88bc 4415 31bc 7d1e e23a 13b1 b9bc
000001f0: 2579 b0bc 5e6f b7bc 9730 113b 471b 66bc
00000200: c5a1 283a 83df 6d3c ec0c 5f3b 75b0 f5b9
00000210: ea8c 183c 51d2 a8bb 3ed7 c3ba 4500 293c
00000220: 2c44 a2bb 93b2 abbb 9b31 a23a 75da 80bb
00000230: 5169 0a3c 5e08 3cbb 4602 3e3c abf3 51bb
00000240: 3f67 01bc 7db8 8e3b 0fda 82bb 6518 a0bc
00000250: 061c 013c 28af 09bc ef95 33bc 4ee1 5a3b
00000260: 0b87 06bc c58c 27ba 8df4 053a b529 4cbc
00000270: 4d2e 36bc 759a 753b 031b 97b9 b093 b9bb
