scripts/abr_clustering/audiometric_deep_clustering/experiments/full_scale_audiometric_clustering_memory_optimized/20250619_164613_evident/checkpoints/joint/best_joint.pt (torch, 764545 bytes, 223 tensors)

encoder.abr_encoder.abr_projection.weight f4 [32, 6]
000000 9b 1a c3 bd fd 5a af 39 11 7d a4 bd 34 68 84 be
       -0.09526559 0.00033446393 -0.08031667 -0.2586075
000010 b9 f4 70 be 22 40 96 be 43 36 8d bc 3f f5 97 bc
       -0.23530854 -0.29345804 -0.017237788 -0.01854956
000020 e4 23 9b bd 42 04 17 bf 17 a0 4e bd 0e 9d 95 3e
       -0.07575205 -0.5899087 -0.050445642 0.29221386
000030 e1 8d 69 be 53 85 4f be 53 3f 28 3e c8 12 90 bd
       -0.22808029 -0.20265703 0.16430406 -0.07034832
000040 2d 44 e0 bb 4a d0 d9 be 8e d8 f2 be 35 06 04 3d
       -0.0068440647 -0.42541724 -0.47430843 0.032232482
000050 55 35 76 3e d7 47 01 be 69 d5 e0 bd fa f5 c6 3d
       0.24043782 -0.12625061 -0.10978205 0.09714885
000060 3a 19 47 3e 8d 7c 25 be 5a 39 88 be f8 a0 34 3e
       0.19443217 -0.16160794 -0.26606256 0.1763953
000070 dd 78 00 bf 8f b8 63 be 52 31 26 be 2f 58 78 3e
       -0.5018442 -0.22238372 -0.16229752 0.2425239
000080 7c cb e2 3d 75 b7 1a 3f 22 19 a2 3d a8 64 28 be
       0.11073968 0.60436183 0.0791495 -0.16444647
000090 35 2b b0 3e ee ce 92 3e 28 49 04 3e 6d 58 a2 3e
       0.34407964 0.286735 0.12918532 0.3170809
0000a0 b6 1a 8b bd e1 f3 04 3e 58 75 b6 3e 3b 20 0e 3e
       -0.06792204 0.12983657 0.356364 0.13879482
0000b0 da c9 49 be f7 e5 f3 3e 24 8c 29 3e df 17 c4 3e
       -0.19705907 0.47636387 0.16557366 0.38299462
0000c0 97 ce e0 3e 38 1f 71 3e 93 95 b9 3e 2c 74 5f 3e
       0.43907616 0.23547065 0.3624693 0.2182166
0000d0 52 43 d6 bb d7 4b 93 bb d7 08 69 be 54 81 4e be
       -0.006538787 -0.004495125 -0.22757278 -0.20166522
0000e0 ea f1 6e be 7f 55 9c be 64 0b dd bc 1c 95 ce bd
       -0.2333447 -0.30533978 -0.02698297 -0.10087034
0000f0 33 98 17 bd 0d 4e 8a be c8 7b 64 bd 67 5b 4c be
       -0.037010383 -0.27012673 -0.05578211 -0.19956742
000100 34 11 f6 bd ac 74 a4 be 50 a4 6b be 0d 6a b2 bd
       -0.12015 -0.32120264 -0.23011899 -0.08711634
000110 15 80 91 be 6d c6 d2 bd bd 4d 0f be 3f 37 b3 be
       -0.2841803 -0.10291753 -0.13994499 -0.35003087
000120 1a d2 50 3d 24 18 b2 bc 87 08 1a 3f eb fb 1c be
       0.05098162 -0.021740027 0.6016926 -0.15330474
000130 94 dc aa bd e4 65 5d be eb bf 93 3d 67 2f c2 3d
       -0.08342853 -0.216209 0.0721434 0.094816975
000140 b0 d5 3e 3e 71 86 81 3d 08 d4 b0 3e 18 90 65 3e
       0.18636203 0.06324471 0.34536767 0.22418249
000150 9c f1 5a 3e 85 5c 50 3e a5 96 83 3e 68 99 69 3e
       0.21381229 0.20347793 0.2570087 0.22812426
000160 f8 a3 5b 3d a9 ee 06 3e c1 e1 23 3f c0 07 b7 3e
       0.05362317 0.13176979 0.6401635 0.357481
000170 0c cf b6 3e ba 7c cc bd d9 4a e2 bd 30 b2 09 bd
       0.3570484 -0.09984727 -0.11049432 -0.0336172
000180 1d 52 ad 3d e6 1e 26 3f 14 6e 21 be 40 21 7b be
       0.084629275 0.648909 -0.15764648 -0.24524403
000190 4c 90 f1 bd 9f 7c 83 3d ff 54 d6 bc 09 64 3a be
       -0.117951006 0.06420254 -0.026163576 -0.18202223
0001a0 62 72 62 be 53 3a 52 be d7 05 3a bd 96 c6 9a be
       -0.22113946 -0.20530061 -0.045415726 -0.30229634
0001b0 b5 6d 7e 3e 16 99 b3 bd 66 4f 35 be 25 1a 0c be
       0.24846537 -0.08769433 -0.1770607 -0.13681848
0001c0 f9 31 82 3e a6 45 6e be de 2e 6b 3d e6 48 6d bc
       0.2542875 -0.23268756 0.057417743 -0.014482712
0001d0 70 3b a0 3c 1a 66 cd 3d 93 01 f2 be 50 64 51 3d
       0.019559592 0.1002924 -0.47266826 0.051121056
0001e0 f9 d9 fc be 4b e2 03 3e 62 57 bc be 2d 4b 1e be
       -0.4938505 0.12879293 -0.36785418 -0.15458365
0001f0 75 50 16 bd f0 eb 14 bb b6 3e be bd 56 2d 5c be
       -0.036697824 -0.0022723638 -0.09289305 -0.2150167
000200 b4 ab 11 be 7c b3 16 be af 35 d5 3e cb 1c ab 3e
       -0.14225656 -0.14716905 0.4164252 0.33420405
000210 2b b0 02 3f a8 4e 52 be 15 47 26 bd 89 a7 17 be
       0.5105006 -0.20537817 -0.040595133 -0.14810003
000220 4c fa a8 3e 16 9c 9e 3e 35 bd 1d be b1 3b b3 bd
       0.3300346 0.3097846 -0.15404208 -0.087516196
000230 9a b5 cc 3e 05 23 42 3d d6 cd f9 3e 74 3f c0 bd
       0.399823 0.04739668 0.48789853 -0.09387103
000240 7f 9a ae be f6 d3 87 be b0 6f 8e be d4 62 a7 3d
       -0.34102246 -0.265289 -0.27819586 0.08173147
000250 f4 24 05 be af dd d7 bd e1 6e 25 bf bc f7 97 3e
       -0.13002378 -0.1054033 -0.6462231 0.29681194
000260 1f 57 18 3a 09 5d 6e bd 53 b5 92 3c 33 6d 9e 3d
       0.0005811322 -0.058194194 0.017908728 0.07735672
000270 c8 fc 54 bd 36 61 5d 3e 09 7f e4 bd 1c 5c f3 3e
       -0.051998883 0.21619114 -0.111570425 0.4753121
000280 3e 16 5d 3e d8 d1 9a 3e fe 5f 4a 3e 72 64 99 bd
       0.21590516 0.30238223 0.1976318 -0.074898615
000290 d2 d0 cc 3d f9 28 30 3e 5b 19 18 3e c0 f8 73 3e
       0.10000767 0.1720313 0.14853422 0.2382536
0002a0 8a 87 01 3d 05 a5 98 be 8f c5 97 bd df e1 19 be
       0.0316234 -0.298134 -0.07410728 -0.15027569
0002b0 50 3c 4f bd 57 b6 ba be d2 c2 0f 3d 39 e8 8e 3d
       -0.050594628 -0.3646724 0.035097905 0.06977887
0002c0 18 b5 de be 8f 82 5a 3d 97 58 08 3d 53 12 7e bb
       -0.4349754 0.053347167 0.03328761 -0.0038768246
0002d0 08 df 8a 3d 46 33 15 bf 4e df ff 3c f9 5e 1c 3e
       0.06780821 -0.5828136 0.03123441 0.15270604
0002e0 c6 15 e9 ba 9e 8f 21 3d 5a d3 8d be 70 0b e0 bd
       -0.0017782978 0.039443605 -0.2770031 -0.109396815
0002f0 62 85 37 bd dc 4f 26 be f4 18 b4 bc 6b f3 1d be
       -0.04480494 -0.16241401 -0.021984555 -0.15424888

encoder.abr_encoder.abr_projection.bias f4 [32]
000000 0e 08 30 b6 16 ad 03 37 e5 81 dd 35 f2 29 bf 37
       -2.6230732e-06 7.848508e-06 1.6503587e-06 2.2788507e-05
000010 50 5c 99 b6 f1 37 1e 36 0d b2 78 b7 f5 90 4e b8
       -4.570502e-06 2.3576397e-06 -1.4823408e-05 -4.924923e-05
000020 f9 b3 0a b8 62 9d 92 b7 f9 ec 08 b7 26 43 9d 36
       -3.3069377e-05 -1.7477843e-05 -8.161406e-06 4.6867817e-06
000030 b7 84 90 b8 f5 09 bb b7 32 1a 2c b7 36 44 8c b7
       -6.891175e-05 -2.2296774e-05 -1.0258098e-05 -1.6721064e-05
000040 50 a3 01 38 98 ae 44 37 e3 55 c1 b8 17 26 e9 37
       3.0908093e-05 1.1723161e-05 -9.218955e-05 2.7793501e-05
000050 9c f9 08 b6 90 24 40 38 de 5d f1 b5 77 c6 4c b6
       -2.041087e-06 4.581042e-05 -1.7983218e-06 -3.051389e-06
000060 ee 88 bf b7 1c 61 06 b8 05 94 0f 36 45 d6 ee b7
       -2.2832737e-05 -3.203853e-05 2.139482e-06 -2.8471588e-05
000070 33 08 9a b7 67 c0 f3 b8 df f8 e4 37 d9 3d 9e 37
       -1.8362049e-05 -0.00011622981 2.7295608e-05 1.8863868e-05

encoder.abr_encoder.abr_norm.weight f4 [32]
000000 b0 41 52 3f 82 72 40 3f 8c 4e 44 3f 03 c4 36 3f
       0.8213148 0.75174725 0.76682353 0.7139284
000010 36 e5 4c 3f c6 22 2f 3f 96 6e 2e 3f 41 9b 4f 3f
       0.8003725 0.68412435 0.6813749 0.81096274
000020 ac 4e 24 3f da 49 69 3f f5 28 47 3f 12 c4 56 3f
       0.64182544 0.91128314 0.7779687 0.8389293
000030 cf 22 32 3f 37 72 2b 3f 8e 1b 27 3f 9d 77 38 3f
       0.69584364 0.66971153 0.6527642 0.72057515
000040 70 9c 37 3f cf 0c 67 3f 6d 96 3e 3f 33 65 43 3f
       0.7172308 0.9025392 0.7444828 0.7632629
000050 ac 3a 54 3f 87 8d 1b 3f 77 6c 23 3f fc ad 26 3f
       0.82902026 0.6076283 0.6383738 0.6510923
000060 01 65 6f 3f 93 1c 3a 3f 43 db 45 3f d9 fd 3f 3f
       0.93513495 0.7269985 0.7728769 0.74996716
000070 fc af 3c 3f d3 ac 42 3f 74 6a 52 3f 10 7c 57 3f
       0.7370603 0.7604496 0.82193685 0.8417368

encoder.abr_encoder.abr_norm.bias f4 [32]
000000 23 ac 98 be 38 cf e8 be 1e e4 0f bf 31 37 fc be
       -0.2981883 -0.45470595 -0.56207454 -0.49260858
000010 de ab a8 be 95 b0 15 bf 45 47 0c bf 73 f5 50 be
       -0.32943624 -0.5847257 -0.5479625 -0.20406131
000020 0e 91 bb bd 84 3b f9 bd 09 4f 06 bf ff 90 6b 3d
       -0.09158526 -0.12169555 -0.5246435 0.057511326
000030 64 d3 af be 23 6e 09 bf 86 fc 83 be 2d e7 f4 be
       -0.34340966 -0.5368368 -0.25778598 -0.47832623
000040 f1 7b 0c bf 48 07 11 be ae e7 f8 be ec a0 1d bf
       -0.5487662 -0.14162934 -0.48614258 -0.6157367
000050 75 92 d7 be cc 97 10 bf 58 c5 0e bf e0 c7 13 bf
       -0.42103925 -0.56481624 -0.5576987 -0.5772686
000060 1c ae 8f bd b3 f7 fe be a3 64 e9 be 6a bd c8 be
       -0.070156306 -0.49798355 -0.45584592 -0.3920701
000070 49 94 c7 be 2c 24 1e bf 1d bf 0d bf 61 5b 83 be
       -0.3898032 -0.61773944 -0.5536974 -0.25655654

encoder.abr_encoder.abr_norm.running_mean f4 [32]
000000 6d 4f 93 be dd b4 07 be 11 ff 6a be 0d 65 cc bd
       -0.28771535 -0.13252588 -0.22948863 -0.099802114
000010 95 39 71 be fc d4 55 3e ce 8d aa 3e 90 72 ca 3e
       -0.23557122 0.20882028 0.33311313 0.3954053
000020 0b 5c b9 3e 29 53 a4 be b9 af 98 be 12 ef b4 be
       0.36203036 -0.32094696 -0.29821566 -0.35338646
000030 16 41 40 3d 2b 7b 96 3e ae 65 a3 3e 34 80 a3 3e
       0.04693707 0.29390845 0.31913513 0.3193375
000040 a8 57 9f 3d e0 ec 94 be dd 15 1d bd 2b 46 a6 bd
       0.07780391 -0.2908697 -0.03835093 -0.08118852
000050 7a 4d 8a be 9f 1b 5f 3d 8c de 68 3e a4 9f 35 3e
       -0.27012235 0.0544697 0.22741145 0.1773668
000060 ad 8a 9b be e8 9f b5 bd 46 81 a0 3e 94 83 6e 3e
       -0.3037924 -0.0886839 0.31348628 0.2329238
000070 3d eb 89 be 6d 23 92 bd 31 e0 ab bd 1b a0 67 be
       -0.26937285 -0.07135663 -0.083923705 -0.22619669

encoder.abr_encoder.abr_norm.running_var f4 [32]
000000 4c 69 e0 3f fc ce ec 3e 73 d6 98 3f bc 1d 91 3e
       1.7532134 0.46251667 1.1940445 0.28342998
000010 54 98 9d 3f 11 9d 84 3f 26 90 1c 40 0d b6 5a 40
       1.2312112 1.0360433 2.4462981 3.4173615
000020 5b 65 38 40 cf ca 0e 40 77 c7 f6 3f 2a 1c 2b 40
       2.8811862 2.2311285 1.9279622 2.673594
000030 02 f7 37 3e c0 b3 e9 3f 1d b4 0c 40 f5 0c 18 40
       0.1796532 1.825798 2.1984932 2.3757908
000040 de e4 89 3e 52 2d ea 3f 09 46 ba 3d 20 ab 37 3e
       0.26932424 1.8295081 0.090953894 0.17936373
000050 6d ce cf 3f 46 43 0c 3e 8f 0e 96 3f 06 9d 36 3f
       1.6234871 0.13697538 1.1723193 0.7133335
000060 b7 8b 01 40 77 fc 90 3e 12 4b 0a 40 3c 86 93 3f
       2.0241525 0.28317615 2.160832 1.152534
000070 63 62 cc 3f 2c 98 27 3e 47 b6 7e 3e d6 6f 8e 3f
       1.5967525 0.16366643 0.24874221 1.112788

encoder.abr_encoder.attention.q_projection.weight f4 [64, 1]
000000 36 65 63 3e 64 6e 1d 3e 10 f0 14 ba 1d 9b 53 3d
       0.22206578 0.15374142 -0.0005681524 0.0516616
000010 f9 1f aa 3b 2b ec 58 bd f0 10 b1 3c 5f 97 eb 3d
       0.0051917997 -0.052959602 0.021614522 0.11503481
000020 1f db 41 3b 1f f2 2e 3e 92 cd 48 37 73 ea 0b be
       0.002958007 0.1708455 1.1968792e-05 -0.13663654
000030 2d c5 98 3d 8a 24 1a bb 33 b0 db 3d 02 d5 28 be
       0.07459483 -0.0023520314 0.10726967 -0.16487506
000040 0e 4d 86 be dd a8 7f bd 1b f5 5b bb 5f 01 b2 bd
       -0.26230663 -0.0624169 -0.0033562842 -0.08691668
000050 4d 88 4d b8 96 b5 3e be b8 c0 46 be 76 68 f9 3c
       -4.900275e-05 -0.18623957 -0.19409454 0.030445319
000060 d1 ed 7d 3b c4 84 27 bb 8c dc 64 3d 0a 4e 15 3a
       0.0038746486 -0.0025561312 0.055874392 0.00056955277
000070 93 ac 56 38 ea 2a 22 bc f9 bc 87 38 ae a2 aa 3c
       5.11823e-05 -0.009897927 6.4725005e-05 0.020829525
000080 e9 ba a7 bb f9 97 26 37 1c 47 ff 39 a0 6e 05 3e
       -0.005118717 9.929755e-06 0.0004869037 0.13030481
000090 d3 2d 43 be 6a b2 05 bc 34 bf 38 bd 16 45 87 be
       -0.1906045 -0.008160213 -0.04510422 -0.26419896
0000a0 eb a5 88 be 20 88 d3 3d 3d 6a 5a be 93 f5 28 be
       -0.26689085 0.10328698 -0.21329589 -0.16499929
0000b0 6e 89 db bc 60 16 82 bd 10 6a 4c b8 14 2e b1 bd
       -0.02679893 -0.06351924 -4.873617e-05 -0.08651367
0000c0 67 b7 be bd cb db f1 ba 5b 6f 32 b9 f6 3b b0 b9
       -0.09312325 -0.0018452344 -0.00017016886 -0.0003361401
0000d0 6a ce b4 37 00 e3 f6 bd b4 1f 02 bd b8 db 9a 3a
       2.1553791e-05 -0.120550156 -0.031768516 0.0011814749
0000e0 ca 07 da bd 29 28 9f b9 9d 82 09 be 92 61 d0 3c
       -0.10646017 -0.00030356765 -0.13428731 0.02543715
0000f0 77 3e 01 be 7e 7b cd 38 aa 9e 65 be 99 a2 5b 38
       -0.12621485 9.798164e-05 -0.22423807 5.23651e-05

encoder.abr_encoder.attention.q_projection.bias f4 [64]
000000 40 71 05 bb 68 17 c1 bc d4 73 bb 39 f3 27 d1 bc
       -0.0020361692 -0.023570731 0.00035753718 -0.025531745
000010 8a 55 93 bc 6e b4 d7 3c 3e 0b cf bc 03 39 f7 3a
       -0.017985124 0.026331153 -0.025273915 0.0018861595
000020 18 60 3f 3b 48 0d 09 3c d2 2d 7c b7 26 57 fc bb
       0.0029201563 0.008364983 -1.5031039e-05 -0.0077008186
000030 1a bb b7 3a f4 ab 09 39 cc 9e d8 bc 75 7c 74 ba
       0.0014017553 0.00013129396 -0.026442908 -0.0009326407
000040 ae 04 0b bd b3 2b 3e 3d dc 27 5b bb 6e cf d2 3b
       -0.03394001 0.046428394 -0.0033440506 0.006433419
000050 b8 13 7e 39 17 64 c8 bc d9 a7 cc bc 32 c4 24 bd
       0.00024230673 -0.024461789 -0.02498238 -0.04022617
000060 fa b9 4c bc 6d f7 4f bb 3e 9f 1a bd 73 c9 d9 38
       -0.012495512 -0.003173317 -0.03774952 0.00010384889
000070 dc b6 81 b9 b8 4d 9f 3c dd 86 e8 b9 4d 36 10 bd
       -0.00024741038 0.019446239 -0.0004435097 -0.035208035
000080 d1 60 2c bc dc 60 23 b8 ff c0 0d bb 20 91 11 3d
       -0.01052113 -3.8952436e-05 -0.0021629927 0.035538793
000090 29 f9 70 3d b7 3e f2 3c 8b 4b 87 3c fb 8a eb bc
       0.058831368 0.02957092 0.016515514 -0.028752794
0000a0 c4 8a 19 bd 39 9c 6b bd 1e 60 16 bd 04 9a 93 bc
       -0.037485853 -0.057522032 -0.03671276 -0.018017776
0000b0 f5 bf 3b 3d 13 fe 02 bd cf ff 4e 38 8c ac 42 3d
       0.04583736 -0.031980585 4.9352468e-05 0.047527835
0000c0 8f de c0 3c bc e9 96 3c 13 72 97 3a e2 8a 39 3b
       0.023543624 0.018422 0.0011554383 0.002831154
0000d0 cf 50 1e b9 66 58 ba 3c 16 fa c4 3c 4a ad 88 3b
       -0.00015098158 0.02274723 0.024045032 0.0041710483
0000e0 c9 9d a8 3c 8b 0e 91 3b 17 1e d8 bb 81 57 c6 bc
       0.02058305 0.0044267825 -0.006595384 -0.024211647
0000f0 10 ff c3 bb 5b 28 3d ba 86 e8 e5 bb 7a 3b 0a ba
       -0.0059813336 -0.0007215791 -0.0070162443 -0.0005273145

encoder.abr_encoder.attention.k_projection.weight f4 [64, 1]
000000 06 9b d0 3d 8a 10 15 be 6e d8 fe b9 86 41 59 bd
       0.101858184 -0.1455709 -0.00048607908 -0.053041004
000010 b7 06 a7 3b bd 22 0f 3d c1 d4 81 bc 06 92 fc 3d
       0.005097236 0.03494524 -0.01584852 0.12332539
000020 72 4b 95 3a b5 53 67 3e e0 99 37 36 13 2d 55 be
       0.0011390282 0.22590525 2.7358692e-06 -0.20817976
000030 8a 05 e3 3d 06 3f 0e bb 5a f7 46 bd 6e f1 f5 bd
       0.11085041 -0.0021705045 -0.048575737 -0.1200894
000040 40 5a 84 3e 2c c5 d7 bd be c8 59 39 6b 85 fa 3c
       0.25850105 -0.105356544 0.00020769515 0.030581197
000050 74 51 95 b8 11 e1 15 3e e4 4d 1a 3e 7e 6c 3a 3d
       -7.1200455e-05 0.14636637 0.15068775 0.045513622
000060 04 b3 18 3b d2 33 19 bb 63 24 a0 3c 54 58 d0 39
       0.002330006 -0.0023376835 0.0195486 0.0003973866
000070 19 3e cd 38 5a fa 11 bc 75 8f 95 38 68 38 d2 3c
       9.786728e-05 -0.008909786 7.1315946e-05 0.025661662
000080 d3 f5 7d 3b 91 51 49 37 e8 1d 17 3a 91 65 63 3e
       0.003875126 1.1999525e-05 0.0005764649 0.22206713
000090 48 06 26 3e e4 08 79 bb 88 2b 8c bc e5 c0 2d be
       0.16213334 -0.0037999684 -0.017110601 -0.16968115
0000a0 28 87 83 be 7b 16 1b be 97 b8 79 be a5 d5 dc bd
       -0.25689054 -0.15145294 -0.24386822 -0.10782937
0000b0 3e d5 ce 3c a0 d6 2e be 4a 4b a5 b7 82 4e d4 3c
       0.025248166 -0.1707406 -1.9704592e-05 0.025916342
0000c0 a5 e3 aa 3d 90 43 63 bb 30 78 4c b9 fc 35 0c ba
       0.08344201 -0.0034677722 -0.0001949973 -0.00053486205
0000d0 ec a1 19 38 ad e2 d0 3d 55 ce 1c 3d 48 f4 bc b8
       3.6628844e-05 0.10199485 0.03828271 -9.0100395e-05
0000e0 63 f8 0e 3e 02 4c 83 ba aa bd 32 be a3 06 85 bc
       0.1396194 -0.0010017159 -0.17455164 -0.016238516
0000f0 64 63 1a be e9 de 07 39 3d 7d 47 be a5 75 af 38
       -0.15076977 0.00012957644 -0.19481368 8.366563e-05

encoder.abr_encoder.attention.k_projection.bias f4 [64]
000000 3b 6c 4f b5 ee 1f 06 b5 cc b0 37 b2 ed f7 fb 33
       -7.7271005e-07 -4.9965354e-07 -1.0692201e-08 1.1733196e-07
000010 f8 a0 3c 31 83 3c 39 34 a8 2d 2e 33 91 56 ab 35
       2.74491e-09 1.7251482e-07 4.0554056e-08 1.2765687e-06
000020 02 64 9d b3 98 6d 0c 35 77 fc 4a 2f db f0 6d b5
       -7.3290735e-08 5.2313544e-07 1.8461487e-10 -8.863987e-07
000030 dd c7 b7 b4 53 9d 9a b2 ba 94 96 35 99 72 c2 b5
       -3.4231826e-07 -1.7999502e-08 1.1219156e-06 -1.4487479e-06
000040 74 6a 66 36 63 fd d8 35 a9 d6 cd 33 ce 76 3a 36
       3.4334635e-06 1.6166999e-06 9.585103e-08 2.7785313e-06
000050 f4 b3 da 30 35 d9 08 37 fe 9a 84 36 27 82 7c b5
       1.5912733e-09 8.156804e-06 3.95195e-06 -9.406671e-07
000060 50 45 fb 31 86 8d 00 34 15 4f 1c b5 b5 d8 93 b2
       7.3129414e-09 1.1972415e-07 -5.822961e-07 -1.72116e-08
000070 47 c7 26 af 73 01 6d 32 4f f5 38 2e ed 5c 95 34
       -1.516841e-10 1.3795545e-08 4.2054634e-11 2.7821025e-07
000080 45 51 6e b4 41 d0 34 30 5a e5 35 32 b7 94 80 36
       -2.2195043e-07 6.5779565e-10 1.0587735e-08 3.83201e-06
000090 8b d1 bd b6 13 49 67 b4 68 87 74 b5 8e 09 08 b7
       -5.657033e-06 -2.1540136e-07 -9.1094125e-07 -8.108456e-06
0000a0 bb 7c 57 b7 ad ad a2 36 c3 d6 8c b6 fe 94 bf b6
       -1.284404e-05 4.8481947e-06 -4.1973267e-06 -5.7095885e-06
0000b0 c4 32 01 b5 b5 63 24 b6 46 ae 35 b0 49 44 fb b5
       -4.813012e-07 -2.4495941e-06 -6.6095074e-10 -1.8720831e-06
0000c0 44 91 46 b6 3d 4f 94 34 10 5b 80 31 3a 52 2a b0
       -2.9588855e-06 2.7624802e-07 3.735643e-09 -6.196249e-10
0000d0 50 7d db 2f ab 23 c3 b5 c6 24 2d b5 06 19 01 34
       3.9924908e-10 -1.4539013e-06 -6.4501035e-07 1.2023165e-07
0000e0 2d 70 d4 b4 bc dd fc 32 ae 79 b9 b5 16 86 25 35
       -3.9569696e-07 2.9437494e-08 -1.3818988e-06 6.166241e-07
0000f0 1b 42 fe b5 31 95 d2 b1 75 eb 55 b6 61 48 00 b1
       -1.8943714e-06 -6.1287655e-09 -3.1876527e-06 -1.8667594e-09

encoder.abr_encoder.attention.v_projection.weight f4 [64, 1]
000000 ed 02 7e bd 25 87 69 3e 4b 95 5f bb c8 48 39 b8
       -0.06201451 0.2280546 -0.0034116085 -4.417522e-05
000010 44 1a 2a be fa 7e 35 3e 5c 5a f2 bd a6 70 d2 b7
       -0.16611582 0.17724219 -0.11833641 -2.5086407e-05
000020 bf b3 96 3d c6 9c 3b be 5f 59 e9 3a 58 50 75 3e
       0.073585026 -0.18321523 0.0017803124 0.2395643
000030 69 56 69 be 34 73 a6 3e 23 17 f2 3c 1e e7 5f 3e
       -0.22786869 0.32509768 0.029552048 0.21865508
000040 64 96 00 be 94 fe 80 3e 16 2d 94 bd 70 11 32 be
       -0.1255737 0.25194228 -0.07235162 -0.17389464
000050 e5 10 87 3e d1 e4 65 be 99 ac 89 3e 11 10 87 bb
       0.26380077 -0.22450568 0.26889494 -0.0041217883
000060 a5 59 43 b9 46 8f 9b 3e d6 39 83 3e 0b 56 19 ba
       -0.00018630044 0.30382746 0.25630063 -0.0005849308
000070 a2 3e a5 be ad 68 b7 ba 9d 4f 21 b8 9c cf be 3c
       -0.32274348 -0.0013992988 -3.8459537e-05 0.023292355
000080 47 b5 38 3d a9 af d3 bc 39 fb b6 be c6 f1 3a be
       0.045094755 -0.025840597 -0.35738543 -0.18256292
000090 d9 56 01 3d 28 f9 96 be 9f fe 63 3d 64 a1 80 be
       0.031576965 -0.29486966 0.055662747 -0.2512313
0000a0 03 c1 f5 bc 8e 69 02 bd cd b1 a8 b8 7a e6 02 bd
       -0.029999262 -0.031838946 -8.043982e-05 -0.03195808
0000b0 30 ad 2c bc 2a 02 38 bd 47 d0 21 3e 95 fb e0 3d
       -0.010539338 -0.04492394 0.15802108 0.109854855
0000c0 f3 50 44 3d ee b1 91 3e 7a d9 a9 3e 86 97 98 3e
       0.04792876 0.28456062 0.33173734 0.29803103
0000d0 b5 32 bf 3d af 5b 4a be 94 a3 e1 39 de 9a 1c bc
       0.093358435 -0.19761537 0.0004303722 -0.009558408
0000e0 30 5d 73 3e 5b 3a d8 3e ce 59 b8 bb 3a c1 0a 3d
       0.23766017 0.42232022 -0.00562594 0.03387568
0000f0 1a 3a f3 bc 3b 18 3d bc 83 57 8a 3e 51 41 dc bc
       -0.02969079 -0.0115414215 0.2701989 -0.026886614

encoder.abr_encoder.attention.v_projection.bias f4 [64]
000000 ad 28 29 ba 97 7f 16 3d 12 e4 36 3a 60 74 9a 36
       -0.00064528995 0.036742773 0.0006976734 4.6031055e-06
000010 69 ce 0f bd a4 29 0d 3d 6b 82 01 bd f5 d9 5a 36
       -0.035108957 0.03446354 -0.031618517 3.26114e-06
000020 85 f8 9e 3c 37 e6 19 bd 77 50 61 b9 d6 32 1e 3d
       0.019405613 -0.037573066 -0.00021487648 0.0386227
000030 c4 f3 1d bd 18 8a 1f 3d c4 a7 d0 bc ac 41 18 3d
       -0.03856255 0.038950056 -0.025470622 0.037172005
000040 ec bf 38 bd b5 85 69 3d 2a 2a ea 3c 23 75 52 bd
       -0.045104906 0.05701228 0.028584559 -0.05138124
000050 23 41 6c 3d 28 17 65 bd 01 e7 6c 3d 76 37 bd ba
       0.057679307 -0.055930287 0.05783749 -0.0014436084
000060 c4 53 70 3a e3 30 72 3d 6b 63 6a 3d 34 2a a6 bb
       0.00091677555 0.059128653 0.05722372 -0.005070949
000070 6d b1 71 bd d8 1e 7f ba 76 b4 a3 39 dc 21 18 3c
       -0.059007097 -0.0009732074 0.00031224237 0.009285416
000080 96 ad b6 3b 63 70 b6 bb 31 31 8d bd 6d 73 84 bd
       0.0055748923 -0.0055675968 -0.06894148 -0.06467328
000090 cd 95 02 3c 9f 4f 8b bd 40 8b 0e 3d 63 a9 8c bd
       0.007970286 -0.06802296 0.034800768 -0.068682455
0000a0 f4 3f a6 bc 74 55 9a 3d 87 1f 11 b7 25 c7 e6 bb
       -0.020294167 0.0753583 -8.650014e-06 -0.007042783
0000b0 e2 11 66 3b ae 88 be bb 60 94 7e 3d f0 47 69 3d
       0.0035105874 -0.0058146333 0.06215322 0.05695337
0000c0 57 79 68 3c 5f af 9e 3d e8 5b ab 3d 43 31 9f 3d
       0.014189086 0.07748293 0.08367139 0.07773068
0000d0 10 37 2b 3d 10 76 93 bd 52 dc 3a 39 fe 82 21 bb
       0.04180056 -0.07200253 0.00017820418 -0.0024644728
0000e0 4f c2 9c 3d 6d 85 a0 3d 00 41 04 3a 71 14 01 3d
       0.07654249 0.07837949 0.0005045086 0.031513635
0000f0 36 93 a3 bb ab 5c 27 bb 1b 94 a0 3d d4 f0 6a bb
       -0.004991914 -0.0025537412 0.07840749 -0.003584911

encoder.abr_encoder.attention.output_projection.weight f4 [1, 64]
000000 be f1 ac 3c bb d2 60 3e b3 98 1a 38 f4 11 d3 b6
       0.021111365 0.21955387 3.6858673e-05 -6.29038e-06
000010 d2 4d d0 bd 1d 37 3b 3e 3c c5 22 bd 16 60 ba b6
       -0.10171093 0.18282743 -0.03973888 -5.554418e-06
000020 20 02 25 3d 88 09 ba bd 04 83 f2 38 89 57 21 3e
       0.04028523 -0.09083849 0.00011563863 0.15756048
000030 e9 69 11 be f9 81 7b 3e 49 60 bd 3c 33 c5 2f 3e
       -0.14200558 0.245613 0.023117201 0.1716507
000040 fa a8 f8 bd 51 9d 16 3e b9 51 91 3d a2 d1 09 be
       -0.12141605 0.14708449 0.070956655 -0.13458875
000050 da 36 9a 3e 77 50 50 be ea 67 12 3e e2 1a 40 b9
       0.30119973 -0.20343195 0.14297453 -0.00018320562
000060 40 7d 32 ba a2 65 25 3e dd 13 06 3e 01 aa 97 3b
       -0.0006808825 0.16152051 0.13093515 0.0046284203
000070 ae a4 93 be 7a 59 b4 39 e0 9b 88 b9 d5 50 56 39
       -0.28836578 0.0003439894 -0.00026056077 0.00020438743
000080 a5 41 92 bb e7 11 51 bc bf b9 9a be 1d 72 85 be
       -0.004463392 -0.012760616 -0.30219838 -0.26063624
000090 f9 04 69 3b 00 f7 97 be a5 41 f3 3c 54 c4 0e be
       0.0035555942 -0.29680634 0.029694388 -0.1394208
0000a0 f8 6c ad bb b0 9c 7b 3d ea 0f 25 b8 7b c5 15 bc
       -0.005292531 0.061428726 -3.9353887e-05 -0.009141321
0000b0 0b e3 7e bb e6 4c 9f 3b f0 15 b9 3d 7e b1 22 3e
       -0.0038892652 0.004861462 0.09037387 0.1588802
0000c0 00 55 46 3a f6 72 77 3e ad 50 29 3e 7d 95 85 3e
       0.00075657666 0.24164948 0.16534682 0.26090613
0000d0 de db 3a 3d 17 46 58 be 0a 42 9a b7 00 84 24 3a
       0.045619838 -0.21120487 -1.8388982e-05 0.0006275773
0000e0 c0 7b 1c 3e b4 93 dc 3e 17 b2 32 bb e9 b7 1a 3d
       0.15281582 0.4308144 -0.0027266794 0.037773047
0000f0 b4 37 63 3b fc 2f 32 3a 96 90 36 3e eb 26 59 3b
       0.0034670653 0.00067973114 0.17828593 0.003313477

encoder.metadata_encoder.metadata_projection.weight f4 [48, 12]
000000 63 d3 32 3d f7 2f bf bc 93 7d 95 bd ec c3 c2 3c
       0.043658625 -0.023338301 -0.07299342 0.023775063
000010 0d 5d a1 be a7 00 c6 be 02 c4 ca be 49 39 7f bd
       -0.31516305 -0.38672373 -0.39602667 -0.06231049
000020 30 7b 05 80 2f 64 03 3e 35 15 ce 3e 74 61 b2 3d
       -5.03369e-40 0.12831186 0.40250555 0.08709994
000030 d4 9e 77 bc 01 5a ee 3c d9 90 da 3d 66 ab a7 3d
       -0.015113551 0.029095652 0.10672159 0.081869885
000040 84 c8 ed 3d c9 65 87 3d 8f 60 e8 3d 45 91 36 3d
       0.11610511 0.06611211 0.11346542 0.044572134
000050 fc 99 b1 3d ce bd 1a 3e 6c 4a b4 be 93 c5 45 bd
       0.08671948 0.15111467 -0.3521303 -0.048284125
000060 68 c7 a7 bd 02 5f aa bc f2 63 d4 3d f4 5f 17 3e
       -0.081923306 -0.020797256 0.103706256 0.14782697
000070 df 4b ee 3b 15 a8 10 3e e0 b8 2a 3e 25 23 9d 3d
       0.007272228 0.14126618 0.16672087 0.07672719
000080 bd 44 ca bc 41 72 84 be f1 06 8e be fd 05 70 3d
       -0.02469098 -0.2586842 -0.2773967 0.05859946
000090 00 39 5a bd 5e 6c 39 3a e4 03 81 3e ee ba 80 3e
       -0.053277016 0.0007073338 0.2519828 0.25142616
0000a0 c2 5d 8b 3d 0e 0c d0 3d 7d 90 0c 3e 7e fc 06 3d
       0.06804992 0.10158549 0.13726993 0.03295564
0000b0 c6 59 95 bc ad 28 a2 3d cf 66 9f be e0 6a ba 3d
       -0.018231284 0.079179145 -0.31133124 0.09102416
0000c0 4c bb 90 bd 42 a9 ea 3c 0d 1c b7 be 30 c6 8d be
       -0.07066974 0.028645162 -0.3576359 -0.27690268
0000d0 1e 6c 49 be 30 54 a5 be 4f 89 a2 be 8d af 09 be
       -0.1967015 -0.32290792 -0.31745383 -0.13445874
0000e0 37 ce 23 3e a5 d1 0f 3e 72 0a d9 be 9e 85 56 bd
       0.15996633 0.14044817 -0.42390782 -0.05237352
0000f0 72 c7 a4 3a 10 71 56 3c 26 58 04 3e 2b ef d2 3d
       0.0012571646 0.01308848 0.12924251 0.10299524
000100 49 fd 71 bc 78 72 e6 3c b0 29 c0 3d 70 58 1d bd
       -0.014769861 0.028130755 0.09382951 -0.03841442
000110 d9 5f 76 bd 3c 60 0e 3d 3f c9 e0 3e 4e 49 16 3d
       -0.06015 0.034759745 0.4390354 0.036691003
000120 db 8c 3d bd 18 b4 4e bd 1e c8 c5 be 96 e8 a8 be
       -0.04627691 -0.05046472 -0.3862924 -0.3298995
000130 00 ac 68 be 58 0e 46 be 2a 2c 0a bf 15 ce 38 bd
       -0.22721863 -0.19341409 -0.5397364 -0.04511841
000140 d9 2b 06 00 20 c2 4a 3e d7 83 d0 3e 07 0d 29 3e
       5.66743e-40 0.19800615 0.40725586 0.16508876
000150 f9 25 da 3b 66 69 e9 bc 2f 2b f5 bd d2 7a 4f bc
       0.0066573587 -0.02849264 -0.11971127 -0.01266356
000160 2b 4e b8 be c7 6d 58 be a7 1b 6a be 7b 6b 18 bd
       -0.35997137 -0.21135627 -0.22862111 -0.037211876
000170 89 49 62 bd 29 b2 0b 3d 8f f3 9f 3e 03 64 ea 3c
       -0.05524591 0.034105454 0.31240508 0.028612142
000180 5e 00 8a bc 6f 71 10 bc c6 14 03 bd 7e 87 ff 3b
       -0.016845878 -0.008816107 -0.032002233 0.0077981343
000190 c7 22 6d bd d7 31 22 be e0 39 e4 bd 99 5a 7c 3a
       -0.057894494 -0.15839325 -0.11143851 0.0009626537
0001a0 75 2b 3f 3c 01 d2 91 3d c7 dd 02 3f e3 bb aa bb
       0.011668076 0.07120133 0.51119655 -0.005210386
0001b0 d7 cb 0b bc 38 69 01 3d cb 2d 50 3e 90 c2 f5 3d
       -0.008532486 0.031594485 0.20329969 0.120000005
0001c0 75 30 06 3e 97 73 31 be 49 ec 3e be ef ad 3d 3d
       0.13104422 -0.1732925 -0.18644823 0.046308454
0001d0 2d a4 43 3b 30 a9 5b 3d 12 aa ba be 5e f1 ef bc
       0.0029852495 0.053628147 -0.36457878 -0.029289898
0001e0 48 18 a3 bc b2 44 fa bc 9b 6a a7 3b 0b 9b 6b be
       -0.01990904 -0.030550335 0.005109144 -0.23008363
0001f0 a7 93 7b bd d7 38 11 be c8 8e 5f be a0 73 0b bd
       -0.06142011 -0.14181839 -0.2183181 -0.034045815
000200 62 24 8e bd 4f 20 05 be d1 a9 ba 3e bf 5a b0 3c
       -0.06940533 -0.13000606 0.36457685 0.021527646
000210 0b 93 8d 3a ef e5 d9 bb e4 83 67 be c6 8b 70 be
       0.0010801269 -0.0066497247 -0.22608906 -0.2349082
000220 0b 31 9b bd 4a c8 07 3e de 0a b1 3d b9 86 86 3c
       -0.075777136 0.13259998 0.08644651 0.016421663
000230 86 69 b8 3c 59 6d 14 3e d7 54 cb 3e 43 3b 97 3c
       0.022511255 0.14494838 0.39713165 0.018460875
000240 2c e8 b5 bd 0a 5d 3c bc ff c0 2d 3e 5b 99 13 3e
       -0.08882174 -0.011496792 0.16968153 0.14413969
000250 2b e2 af bc 92 d3 34 3d 62 de 7f 3d 57 1a bf bd
       -0.02147015 0.04414708 0.06246794 -0.09331196
000260 c0 09 bb bd 4f c0 bf bd 06 80 a1 be 97 e8 25 3d
       -0.09132719 -0.09362852 -0.31542987 0.040505018
000270 64 99 56 bc 0d 17 16 3d 3b 72 65 be 65 76 88 be
       -0.013098095 0.036643077 -0.22406857 -0.26652828
000280 c9 63 d3 be ec 66 08 be 96 4c 83 be bc d9 50 bd
       -0.41287068 -0.13320512 -0.25644368 -0.050988898
000290 d0 cf 2a 2d 3e ca 5b 3e 3f b0 b2 3e f6 c7 72 3d
       9.709525e-12 0.21463868 0.3490009 0.05927273
0002a0 98 92 51 bd b7 1f d0 bb 99 08 7d 3d 1e 1b a3 3d
       -0.051165193 -0.006351437 0.061775777 0.079641566
0002b0 56 fc ac bd 50 84 92 bd b0 92 97 bd 26 e0 86 bc
       -0.08446567 -0.07154143 -0.07401025 -0.016464304
0002c0 6d 3d fa 3d 20 03 41 3e 62 5c 26 bf 2e a1 4e bd
       0.12218747 0.18848848 -0.64984715 -0.05044668
0002d0 07 f0 de bc ba 6a c1 bc b5 61 0f bf bf 9e af be
       -0.027214063 -0.023610462 -0.56008464 -0.343008
0002e0 d6 ce b6 bd 91 e7 fe bd e5 27 ba be 67 0f 45 bd
       -0.089261696 -0.124465115 -0.36358562 -0.048110392
0002f0 ae a9 05 80 4b e8 36 be 46 94 a1 3e 90 06 b6 3d
       -5.20047e-40 -0.1786205 0.31558436 0.088879704
000300 33 8a 91 bd bc bb 9b 3c b4 11 64 be c4 e3 7e be
       -0.071064375 0.019010417 -0.22272378 -0.24891573
000310 bd 50 40 be 30 9c 88 be 65 30 9c be 4d ba 38 bc
       -0.18780799 -0.26681662 -0.30505672 -0.011274886
000320 05 c7 05 00 e3 e8 20 bd d3 31 cf 3e a0 fb f8 3d
       5.30572e-40 -0.039284598 0.404677 0.12157369
000330 96 a8 4e 3c 6a 0e 97 bb 90 a5 3e be c8 7a ab be
       0.012613436 -0.0046098726 -0.18617845 -0.33492112
000340 4c 31 49 be 0d da a2 be 49 a5 1e be ef 56 49 bd
       -0.19647712 -0.31806985 -0.15492739 -0.049155172
000350 4a 24 06 80 15 b5 5c bc cd 09 9d 3e 32 52 be 3d
       -5.64031e-40 -0.013470908 0.3067154 0.09293021
000360 20 c8 6d 3d 40 df 29 bc 94 35 6a 3e 92 fd 75 3e
       0.058052182 -0.010368168 0.22872001 0.2402251
000370 e2 68 3d be 5d c0 76 be 92 08 78 be 64 ec cc bd
       -0.18497041 -0.24096818 -0.2422202 -0.100060254
000380 f4 6c 48 3c d8 09 8a bd 02 83 cb 3e 0d 20 97 3b
       0.012233008 -0.06740159 0.3974839 0.004611975
000390 aa bd 11 b8 27 80 ee 3c 50 d9 1b be 8e d6 95 be
       -3.4747332e-05 0.029113842 -0.15219617 -0.29265255
0003a0 e2 73 1c be 34 b1 4c bd 2f 92 48 3d 6c ab f3 bc
       -0.15278581 -0.04997368 0.048967537 -0.029744826
0003b0 c9 cf d5 3c a2 58 eb bd 61 91 ea 3e ae d6 4d bd
       0.026100056 -0.11491515 0.4581404 -0.050253563
0003c0 bc 1a 34 bd 75 8e b0 3d 96 6b fc bd 3c c7 af be
       -0.04397081 0.086209215 -0.12325208 -0.3433169
0003d0 29 bf 6d be 13 b3 a6 be 72 aa 66 be 14 75 4b bd
       -0.23217453 -0.32558498 -0.22525957 -0.0496722
0003e0 a2 d0 05 00 0e 5f 3b 3e 4c 65 bb 3e 93 7c 02 3e
       5.34021e-40 0.18297979 0.3660072 0.12742834
0003f0 9e fe 77 bc 0b fa 20 3d 69 89 95 bd b7 b4 d7 bd
       -0.015136389 0.03930096 -0.073015995 -0.105325155

encoder.metadata_encoder.metadata_projection.bias f4 [48]
000000 20 73 b3 be be 4e 7c bd fe ac 6e 3d d5 f2 b0 bc
       -0.3504877 -0.061598532 0.058270447 -0.021600166
000010 e8 12 4b be b8 9e 54 be fe 3c 0c bf 43 42 07 be
       -0.19831431 -0.20763671 -0.54780567 -0.1320887
000020 73 8c 79 be 12 02 67 3d 43 67 7d be b1 1c 4e be
       -0.24369983 0.05639846 -0.24746422 -0.20128132
000030 7d fa 01 be d8 40 84 be 6d 79 03 3d 90 68 be be
       -0.1269321 -0.25830722 0.032098223 -0.3718915
000040 d4 9a ff be 05 00 e4 be d5 52 c1 bd bf a2 01 be
       -0.49922812 -0.44531265 -0.09439627 -0.12659739
000050 4a c4 03 bf 3c 3b 56 bd bb bb b3 be ee 21 e9 3c
       -0.5147139 -0.052302584 -0.35104164 0.028458562
000060 c6 d7 87 bd 8b 08 d5 be 44 b4 3e bd 11 af ab be
       -0.066329524 -0.4160808 -0.046558633 -0.33532003
000070 30 41 b6 be 6f 05 20 be f9 d2 a5 be 9d b9 6a be
       -0.3559661 -0.15627073 -0.32387522 -0.22922368
000080 92 95 83 be a6 29 0b be e1 fc c3 bd 7c 47 58 3c
       -0.2570005 -0.13590106 -0.09569717 0.013200637
000090 15 53 f6 be a6 1e 86 bd e6 c8 25 be 78 d1 37 be
       -0.48110262 -0.065488145 -0.16189918 -0.17951
0000a0 bf 03 00 be a6 4e 2d be 2f 91 2c bd d4 f8 70 be
       -0.12501429 -0.16924533 -0.042130645 -0.2353242
0000b0 91 29 88 bc b6 e9 b4 be 62 1f 5f bd 22 81 2f be
       -0.016621383 -0.35334557 -0.05447329 -0.17139104

encoder.encoder_layers.0.0.weight f4 [128, 80]
000000 46 7c de bd a6 9d fd 3b 0b 39 68 bd c2 5a 9e bc
       -0.10863547 0.0077397404 -0.056695025 -0.019330386
000010 ed 53 a9 3d 2f 69 42 3c df 68 ac bd d6 45 12 bb
       0.08267961 0.011865898 -0.0841844 -0.0022319457
000020 ed a2 43 3d 19 e8 eb bd b3 9d ae bd 5b 25 d2 bd
       0.0477628 -0.115188785 -0.085261725 -0.10261031
000030 2a 84 00 3e cb e1 32 3e 24 78 87 3c 0c 5e 09 3e
       0.12550417 0.17468946 0.01653678 0.13414782
000040 2f ab 81 3b d7 5a 9b bd 14 00 f4 bc 4f be 10 bc
       0.0039571743 -0.07585686 -0.029785194 -0.008834436
000050 cd 99 be bd db 48 0c bb 97 59 56 3b b8 5b 88 3d
       -0.09306679 -0.002140573 0.0032707208 0.06658119
000060 54 8a ec bd ca 53 64 bc 79 87 0d 3e 4d 66 5d bc
       -0.115498215 -0.0139359925 0.1382121 -0.01351316
000070 25 1e c4 bd 51 c5 81 bd 4b cf 1c 3e 4c c0 e3 bc
       -0.09576062 -0.06336463 0.15313451 -0.027801655
000080 25 6e cf 3a d3 1e 98 be 6b e5 15 be 97 4e fc bd
       0.0015825672 -0.29711017 -0.14638297 -0.12319677
000090 e4 a3 81 bc 7e 49 80 3d 82 3b 1b 3d 2a 4e ee ba
       -0.01582522 0.062640175 0.037898548 -0.0018181254
0000a0 6e 55 f5 3d 6b 9e 32 be d4 59 46 3e 77 53 2a 3e
       0.11979185 -0.17443244 0.19370204 0.16633402
0000b0 cd 9b 93 be 1e 2c dc 3d 13 00 28 be 3a 32 08 3e
       -0.28829804 0.10750602 -0.16406278 0.1330041
0000c0 8c 25 c2 3d 4c ea 33 3e d9 45 e9 3d 6c 07 4c 3e
       0.09479818 0.17569846 0.113902755 0.19924706
0000d0 69 98 b1 3d bf 4a 0c be 46 5a c4 3d bf c1 d2 bd
       0.08671648 -0.13700388 0.09587531 -0.102908604
0000e0 0d 78 93 bb 03 d3 83 3d 00 35 b5 bd 4a 34 1c 3e
       -0.004500395 0.06436732 -0.088479996 0.15254322
0000f0 08 b3 8a bd b1 61 12 3d 83 c3 25 3e 91 ee 3e bd
       -0.06772429 0.035737697 0.16187863 -0.046614233
000100 77 ec fb 3d 59 fe f0 3c d4 26 2a bc 8b 4a 73 be
       0.123009615 0.029418157 -0.010385234 -0.23758905
000110 2b 0f 63 3d f8 f6 ed bc 2f 8c a0 3c 00 74 54 3e
       0.055434387 -0.029048428 0.019598095 0.20747375
000120 9c f8 0d 3e 9c 89 71 3e c9 ff d3 bd 08 e1 fc 3d
       0.13864368 0.2358765 -0.103515215 0.12347609
000130 68 d9 8c be fe f0 91 3d 3b 44 4e be 9b 33 04 3e
       -0.27509618 0.07126044 -0.20143215 0.12910311
000140 f9 f0 72 3c e4 7a f7 3d f4 ce 8b 3d 41 20 12 3e
       0.01482796 0.120839864 0.068265826 0.14270116
000150 a7 da 0f 3e 50 0d ce bd 51 8f df bc 62 f5 21 bd
       0.14048253 -0.10061133 -0.027290018 -0.039540656
000160 37 55 db bd 00 b0 66 3e 58 97 41 3d 2f 27 4c 3e
       -0.10709613 0.22528076 0.047263473 0.19936822
000170 75 17 15 bc a1 76 6c 3d dd 5d 48 3d 4f d8 4d 3d
       -0.009099831 0.05773032 0.04891764 0.050255116
000180 39 b0 e6 bd 7d 7a 71 3e 58 85 0f 3d 4a fd af 3d
       -0.112640806 0.23581882 0.035039276 0.08593233
000190 ba 63 50 bd 49 86 e5 bd 38 3f 1f 3d 47 ca aa 3d
       -0.050876357 -0.112072535 0.03887865 0.083393626
0001a0 4f bf 27 3e 0a b1 e2 bc 68 37 b2 bd 5c be 00 be
       0.16381572 -0.02767231 -0.08701974 -0.12572616
0001b0 7a cf 6e 3b ab 43 d9 3d 9f 18 2b 3d 69 02 97 3d
       0.0036439584 0.1060861 0.041771527 0.073735066
0001c0 1b bf 89 bd 84 b0 90 3d d2 04 95 3d 69 72 a9 bd
       -0.067259036 0.07064918 0.0727631 -0.08273775
0001d0 b9 00 8f 3d b4 a8 55 bd c9 66 e7 3c 8e 65 14 bc
       0.0698256 -0.05216284 0.028247254 -0.009057416
0001e0 a3 ad 01 be 97 0e b3 3d 73 2a 0e 3d 02 d4 35 bd
       -0.12663893 0.08743017 0.03470845 -0.04439164
0001f0 fe 42 a7 3d 40 9c ad 3c 4c 36 42 3e d6 cb 0c be
       0.081670746 0.02119267 0.18966025 -0.13749632
000200 a5 24 54 bb 41 63 b7 bd 2a 64 00 be 32 18 aa 3c
       -0.0032370475 -0.08954478 -0.1253821 0.02076349
000210 35 fc d0 bd 60 61 61 3e 03 16 06 bd 85 01 80 3e
       -0.10204355 0.22009802 -0.032735836 0.2500116
000220 65 16 b8 bd 99 33 6d 3d be 88 84 3d 50 73 81 bd
       -0.089886464 0.057910535 0.06471394 -0.06320822
000230 29 78 83 bd b1 a0 e4 bd 4c f7 00 be 52 23 f4 bd
       -0.06419403 -0.11163462 -0.12594336 -0.11920799
000240 de fb 0d be cf a1 fe 3c 78 8f 83 3d 65 ff 34 3e
       -0.13865611 0.031083016 0.06423849 0.1767555
000250 1e eb 84 bc 26 dd 83 3e c8 18 e5 bd da bd 8d be
       -0.016225394 0.2575466 -0.11186367 -0.27683908
000260 43 7e 58 bd ea 93 51 ba 29 a6 f8 3d 3e f8 19 be
       -0.052854788 -0.0007994758 0.121410675 -0.15036103
000270 da f8 bc bd 29 28 d3 bd 2e bf 71 3d 93 99 44 bd
       -0.09227152 -0.10310394 0.059020214 -0.047998022
000280 f8 e7 49 3d ef 8c 16 3e 90 6b c1 3c 3b 33 84 3d
       0.04929349 0.147022 0.02361086 0.06455084
000290 13 0c 02 3e 61 e6 ee 3c 70 c5 63 3e ad dd 90 bc
       0.12699918 0.029162588 0.22243285 -0.017683828
0002a0 cf af 63 bd 63 0e 9c 3d 15 aa 45 3d 38 00 b4 3d
       -0.055587586 0.076199315 0.048257906 0.08789104
0002b0 6b 40 eb 3d 38 c5 04 3e 60 54 3d 3d ff 3a c3 3d
       0.11486896 0.12965858 0.046223044 0.09532737
0002c0 c3 b0 25 3e 18 a6 1d bd ed da f4 3d 89 aa 2a 3e
       0.1618071 -0.038488477 0.11955819 0.16666616
0002d0 d8 83 a2 3d fb 6e d1 ba 4c 58 3f 3e f3 e0 80 3d
       0.079353034 -0.0015978509 0.18686026 0.06292906
0002e0 dd db a8 3d 89 ff c7 bd 40 03 cd 3d 99 00 06 be
       0.082450606 -0.09765536 0.100103855 -0.13086165
0002f0 c9 6f 7a 3d 33 6b 98 3d 4d b4 3a 3e e3 2d 09 3d
       0.061141763 0.07442322 0.18232842 0.033491027
000300 75 71 8d 3d be 5d 11 be 6b f6 e4 bd bb a1 2a be
       0.06906406 -0.14195916 -0.11179813 -0.16663258
000310 29 be 1c bc 98 15 08 3e 4e 2a a7 3d fd bf 6e 3e
       -0.009566822 0.13289487 0.08162366 0.23315425
000320 d6 7c 89 3d 29 4e 09 bd a7 9b 6c 3e 5f e8 cc bd
       0.06713264 -0.033521805 0.23106252 -0.10005259
000330 e4 64 ab bd 58 b3 8d 3e 87 b2 79 bd 7a a4 45 3e
       -0.08368853 0.2767589 -0.060961273 0.19301024
000340 f4 11 50 3e 07 fc 7a 3e 6a af d1 3c ed 0a 8b bc
       0.20319349 0.24510203 0.02559634 -0.016972983
000350 cb f8 3e 3e 8c 2a d5 bd 1d 8d 99 3d fc 5e ea 3c
       0.18649594 -0.10408506 0.07497618 0.028609745
000360 d1 ab 61 3b c0 08 2a 3e 32 41 11 bc b2 73 4a 3c
       0.0034434686 0.166049 -0.008865641 0.0123566855
000370 f5 78 72 3e a2 5e 55 3e ba cf 5d 3d c5 41 25 3e
       0.23678954 0.20836881 0.05415318 0.1613837
000380 92 6e 68 3e 6f d8 1d 3d 71 cd 91 bd 9d 68 06 3c
       0.22698429 0.038536485 -0.07119263 0.008203653
000390 e3 43 76 3e 06 a4 9a bb b0 59 2b 3e 81 92 1b bd
       0.24049334 -0.00471926 0.16733432 -0.037981514
0003a0 cb 9b 7a 3c 2b 85 24 bd eb 52 08 be 80 fb 2e 3d
       0.015295933 -0.04016606 -0.1331288 0.042720318
0003b0 0e 9c 79 bd ed e4 32 3c 1b 81 24 bb ae 08 2d 3e
       -0.06093984 0.010918838 -0.0025101367 0.16897842
0003c0 f6 e6 84 bd 0f 9c 5b bd dd 79 cd 3c 5a ff ae 3d
       -0.06489365 -0.053615626 0.025082523 0.08544798
0003d0 94 2b e3 bc 03 1e 25 3e de cf 85 3d 36 f8 f0 3d
       -0.02773074 0.1612473 0.06533788 0.117660925
0003e0 fd df 62 3e 63 0a b1 bd 37 c3 43 3e 90 cc f3 bd
       0.22155757 -0.08644559 0.19117437 -0.119042516
0003f0 be ac 04 3e a3 57 f7 3d 6a aa 8f 3b 8f b9 64 3e
       0.12956521 0.12077262 0.0043843286 0.2233641

encoder.encoder_layers.0.0.bias f4 [128]
000000 54 e5 c3 b6 de a5 f4 36 e5 aa 07 37 d6 1c d2 37
       -5.83815e-06 7.291076e-06 8.0864165e-06 2.5047379e-05
000010 fb 58 8d b7 9f 14 06 38 5e 91 46 37 ab dd 76 35
       -1.6849945e-05 3.1967294e-05 1.1835566e-05 9.196471e-07
000020 49 5c df 37 70 6c 0f b7 15 18 09 b6 a5 21 05 b7
       2.6626645e-05 -8.548712e-06 -2.0428608e-06 -7.935251e-06
000030 63 2f c8 36 05 47 a6 37 ab 6e d9 b6 33 95 5c 37
       5.965981e-06 1.9821813e-05 -6.4799874e-06 1.314776e-05
000040 40 bd ec b5 3b fc 41 36 10 93 7f 33 92 aa 93 b5
       -1.7638449e-06 2.8906059e-06 5.9505567e-08 -1.1001996e-06
000050 c3 55 af 37 cf 45 15 38 7c 31 e6 37 18 9f c0 37
       2.0901562e-05 3.5589383e-05 2.744118e-05 2.2962267e-05
000060 ec 4c 89 37 94 6d 39 b6 56 38 74 36 18 25 6f b5
       1.6367492e-05 -2.763093e-06 3.6391625e-06 -8.9088417e-07
000070 52 ba 94 b6 70 eb 24 38 56 3b 72 b6 8d 58 22 37
       -4.4324343e-06 3.9319915e-05 -3.6095348e-06 9.67657e-06
000080 12 aa 4a 38 77 d6 ca b5 34 df 1e b6 e8 8f fd b7
       4.8318943e-05 -1.511259e-06 -2.3673756e-06 -3.0226962e-05
000090 c9 23 58 37 e5 07 01 b6 87 26 26 b5 bd a0 80 37
       1.2882935e-05 -1.9227093e-06 -6.1895884e-07 1.5333639e-05
0000a0 40 51 22 b7 c0 9a 01 36 77 78 65 b5 d5 0f 92 b6
       -9.67487e-06 1.9312574e-06 -8.548445e-07 -4.352982e-06
0000b0 fc bb 84 b7 95 0a 99 37 89 04 85 b7 1a ff 4e b8
       -1.5823163e-05 1.8243949e-05 -1.5856947e-05 -4.935181e-05
0000c0 92 97 9d 37 a0 3c 38 b6 6e ca f3 b6 a5 4c a0 b7
       1.8786439e-05 -2.7453425e-06 -7.2655303e-06 -1.9109177e-05
0000d0 05 fb 02 b5 35 97 7b 37 ba 30 91 33 92 ad 02 38
       -4.8794055e-07 1.49959715e-05 6.760952e-08 3.1156065e-05
0000e0 31 e1 d6 36 92 bd f5 36 5f f2 00 37 32 48 bf 37
       6.4039127e-06 7.323638e-06 7.685826e-06 2.2802593e-05
0000f0 03 d2 a6 36 3b 87 5b 37 46 15 33 b7 c2 97 85 35
       4.971634e-06 1.3084903e-05 -1.06741845e-05 9.95344e-07
000100 99 1d cf 37 cb 7f cb 37 4b 1c 5d b6 dd 4d 0a b8
       2.4690105e-05 2.4258994e-05 -3.2948035e-06 -3.297428e-05
000110 c7 2f 8f b5 05 12 8c 38 ed 76 18 36 02 36 a4 b7
       -1.0668235e-06 6.6790766e-05 2.271899e-06 -1.9575473e-05
000120 b5 75 85 b5 3a 2d 87 b6 35 df a9 36 ce 1f 1f b5
       -9.94353e-07 -4.0285786e-06 5.062577e-06 -5.92784e-07
000130 ad ed 94 37 db bd 9b b6 2d b4 b5 b7 93 7e ff 36
       1.7753651e-05 -4.641462e-06 -2.1660782e-05 7.6143274e-06
000140 c6 f7 16 b7 1a a8 14 37 35 89 22 38 f3 01 8a 36
       -8.998386e-06 8.860627e-06 3.8751594e-05 4.1129474e-06
000150 8d 67 64 37 fe 9c 88 b5 06 49 2d b6 1b 88 82 b7
       1.3613969e-05 -1.017848e-06 -2.5821514e-06 -1.5560587e-05
000160 9f ec 2a 37 c5 f0 61 b8 82 fe b2 37 de cc 25 b7
       1.0187882e-05 -5.3868414e-05 2.1337768e-05 -9.882466e-06
000170 68 14 22 36 7e 40 8e b6 da b0 44 b7 c3 a9 e2 37
       2.415176e-06 -4.2394377e-06 -1.1723687e-05 2.702035e-05
000180 ad 5c e4 b6 70 92 59 37 60 1e 81 b7 1e a7 d9 37
       -6.8057184e-06 1.2968303e-05 -1.5392143e-05 2.5946236e-05
000190 2a fd 44 b6 96 e5 72 35 86 0f 5c 37 f2 62 ec b5
       -2.9353637e-06 9.0486117e-07 1.3116636e-05 -1.7612167e-06
0001a0 25 04 ad 37 ce 89 21 36 69 d3 e3 37 86 52 aa 37
       2.0625137e-05 2.4071082e-06 2.7158954e-05 2.0304007e-05
0001b0 4d 6e 3e b6 76 3c 0c 36 10 0d 59 b7 2b 7c 1d 35
       -2.837641e-06 2.0896819e-06 -1.2937249e-05 5.8667746e-07
0001c0 b7 9b 02 b7 6f 54 f4 b6 4e 70 d7 b7 b6 a5 84 b6
       -7.784859e-06 -7.281596e-06 -2.5682293e-05 -3.953198e-06
0001d0 c3 b2 5c 37 df 6b 96 37 d5 53 cf 37 68 6c 3e 36
       1.3154643e-05 1.7931625e-05 2.471536e-05 2.8375307e-06
0001e0 35 26 94 b6 1c 6a 68 b8 a5 63 0d 37 e7 2c 11 37
       -4.4151916e-06 -5.5411932e-05 8.427455e-06 8.653128e-06
0001f0 61 9b a5 37 76 72 8c 37 da 7d 88 b7 73 11 68 38
       1.9741887e-05 1.67426e-05 -1.6271068e-05 5.532936e-05

encoder.encoder_layers.0.1.weight f4 [128]
000000 27 8a 80 3f eb 64 78 3f 24 99 67 3f ec ac 74 3f
       1.0042161 0.9702899 0.9046805 0.9557636
000010 f5 26 67 3f 1a 7c 73 3f b3 60 60 3f 50 e3 57 3f
       0.9029382 0.9511124 0.8764755 0.84331226
000020 e5 1f 83 3f 27 d7 4b 3f 7b d7 72 3f c9 c0 76 3f
       1.0244108 0.7962517 0.9486005 0.96387917
000030 12 cb 63 3f 27 95 62 3f 2d 02 82 3f b5 95 63 3f
       0.88981736 0.8850884 1.0156914 0.8890031
000040 bf 12 6c 3f 14 d7 5f 3f 8f 45 8f 3f 26 a2 82 3f
       0.92216104 0.8743756 1.1193103 1.0205734
000050 3a af 79 3f b5 2f 83 3f 73 89 80 3f 2a 65 79 3f
       0.97533 1.0248934 1.0041946 0.9741999
000060 a3 d3 80 3f 08 33 5d 3f 1d 79 87 3f bd 72 6c 3f
       1.0064586 0.8640599 1.0583836 0.92362577
000070 bc 45 7d 3f 75 70 7e 3f 6e a4 70 3f 42 8c 6b 3f
       0.9893453 0.99390346 0.940009 0.9201089
000080 8d 7b 82 3f 6c 5f 65 3f 6c a6 59 3f 9e fd 87 3f
       1.0193955 0.8959873 0.85019565 1.0624273
000090 18 d2 74 3f cc 2a 63 3f d3 56 5a 3f d9 11 72 3f
       0.9563308 0.8873718 0.85288733 0.94558483
0000a0 cf ae 6f 3f df 3e 82 3f 3c 9b 5e 3f e9 3f 7a 3f
       0.9362611 1.0175437 0.8695562 0.9775377
0000b0 86 4c 5b 3f a6 df 8d 3f ac a3 80 3f af d6 87 3f
       0.8566364 1.1083877 1.0049949 1.0612391
0000c0 9e 76 70 3f 34 23 6b 3f e0 d6 6f 3f df 6d 84 3f
       0.93930995 0.9185059 0.9368725 1.034603
0000d0 79 46 6a 3f 06 eb 63 3f 87 d6 73 3f 3c 89 85 3f
       0.9151378 0.8903049 0.9524922 1.0432506
0000e0 22 6d 57 3f 27 3b 60 3f 7e 00 6c 3f 86 4f 88 3f
       0.841509 0.8759026 0.9218825 1.0649269
0000f0 d2 a5 80 3f 26 84 6e 3f 5f c8 88 3f 8f 5b 66 3f
       1.0050604 0.9317039 1.0686148 0.8998346
000100 76 c6 82 3f 88 23 85 3f 3d c3 65 3f fd 87 71 3f
       1.0216815 1.0401468 0.89751035 0.94348127
000110 a6 ae 6c 3f 64 ac 6a 3f 31 0f 82 3f 3a fc 70 3f
       0.9245399 0.916693 1.0160886 0.9413487
000120 31 90 74 3f 92 f9 70 3f 36 ec 6e 3f 14 85 5d 3f
       0.9553252 0.94130814 0.9332918 0.86531186
000130 71 04 76 3f 91 45 7c 3f 5d d6 78 3f 8e c6 6f 3f
       0.9610053 0.9854365 0.9720209 0.93662345
000140 3a c5 76 3f b6 2e 68 3f 99 60 81 3f 62 8d 77 3f
       0.96394694 0.90696275 1.0107604 0.9670011
000150 4a d9 77 3f e4 f4 4a 3f c8 19 51 3f 82 c6 92 3f
       0.9681593 0.79279923 0.81679964 1.146683
000160 64 a6 74 3f a3 18 75 3f 36 63 83 3f ee dd 74 3f
       0.9556639 0.9574072 1.0264652 0.9565114
000170 51 47 72 3f 74 96 62 3f c8 ac 61 3f d7 a4 7f 3f
       0.9464007 0.88510823 0.8815427 0.998609
000180 32 5f 5f 3f 59 a5 56 3f 8a 05 72 3f 4c 18 7d 3f
       0.8725463 0.8384605 0.945397 0.988652
000190 0d cb 55 3f 70 8b 59 3f 18 7f 75 3f 49 c0 5c 3f
       0.83512956 0.8497839 0.95897055 0.86230904
0001a0 56 07 6f 3f bf b6 57 3f 4e 71 84 3f 64 f2 74 3f
       0.9337057 0.84263223 1.0347078 0.9568236
0001b0 27 a7 6f 3f a3 03 60 3f 3a a0 86 3f 06 50 61 3f
       0.9361443 0.8750555 1.0517647 0.8801273
0001c0 f5 4d 5d 3f 59 d8 63 3f fd 47 89 3f 6f f2 60 3f
       0.8644708 0.89001995 1.0725094 0.87869924
0001d0 80 81 54 3f a4 da 58 3f 95 5f 65 3f 24 56 58 3f
       0.830101 0.8470862 0.8959897 0.8450644
0001e0 65 a2 87 3f 6f b8 7f 3f 69 05 64 3f c5 c1 6b 3f
       1.0596434 0.998908 0.89070755 0.92092544
0001f0 ee f8 61 3f 04 9c 5f 3f 04 82 57 3f 1e ec 5f 3f
       0.8827046 0.87347436 0.84182763 0.8746966

encoder.encoder_layers.0.1.bias f4 [128]
000000 83 48 75 bc 1a 78 a5 3d d3 f1 6e be 17 0a 22 be
       -0.014970901 0.08079548 -0.23334436 -0.15824161
000010 ec 69 46 be 67 ac e7 bd 6e af 56 be cf cb e6 3d
       -0.19376343 -0.1131218 -0.20965359 0.11269342
000020 5c 98 0f 3d 0f bc 33 be d2 a0 78 3d be cc 42 bc
       0.03505741 -0.17552207 0.060700245 -0.011889635
000030 5c 2e 23 be 45 64 14 be 31 60 2f 3d 61 b8 55 bc
       -0.15935653 -0.14491375 0.042816345 -0.013044448
000040 8f 0c fb bc 97 c5 b3 bd e2 1e fb bd e6 5e 12 3d
       -0.030645637 -0.08777922 -0.1226175 0.035735033
000050 67 e2 67 3d 26 ed 5f be ca 2d 98 be 6e 0d 60 3d
       0.0566124 -0.21867809 -0.29722434 0.054700308
000060 99 2f 0d 3e 41 98 80 be 4d 41 0a 3e 1a 58 7b 3d
       0.13787688 -0.2511616 0.13501473 0.061363317
000070 b6 5a 09 bb e2 1c 8a bd 11 7b 14 bd fa e1 c5 bd
       -0.002095861 -0.0674379 -0.036250178 -0.09662242
000080 fa 1b 2a be 39 a9 92 be b0 cb d4 bc e0 5a 62 be
       -0.16612235 -0.28644732 -0.025976032 -0.22104979
000090 ce dc a2 bd 6f 9e 3a bb 1f 88 81 bc 26 a2 ca bc
       -0.079522714 -0.0028475781 -0.015811978 -0.024735522
0000a0 f5 01 bb 3d 5b 49 28 be 9d 7f f7 bb 9c 93 fb bd
       0.09131233 -0.16434233 -0.0075530545 -0.12284014
0000b0 b5 03 57 bd 18 af 17 be a7 41 d0 bd e7 55 94 3c
       -0.05249377 -0.14812887 -0.10168772 0.018107368
0000c0 89 1e e2 bd da ad 56 be b1 5c 8c 3b 7e 08 b7 bd
       -0.1104098 -0.20964757 0.0042835106 -0.08937167
0000d0 e5 b4 03 bb a0 12 03 3d 23 c5 b8 bd 53 96 36 bd
       -0.0020096835 0.032000184 -0.09021976 -0.044576954
0000e0 e5 cf 86 bd 2d 06 25 bd 5e 47 37 be bc 8e c0 3d
       -0.065826215 -0.040289093 -0.17898318 0.094022244
0000f0 20 05 53 be 75 1e b0 bd ef 99 1e be 61 9b ce be
       -0.20607424 -0.08599559 -0.15488409 -0.4035292
000100 aa 76 0d bd 7a cd b4 bd 40 35 9b bc eb 41 8b be
       -0.034536995 -0.08828254 -0.01894629 -0.2719873
000110 b2 cb 11 be bb 3b a1 3d 66 ed c4 bd 7c 59 88 bd
       -0.1423786 0.07872721 -0.09615593 -0.06657693
000120 2c 9b f9 bd ea ec ae be 8d 91 8e 3d cb 54 ee bc
       -0.121878 -0.34165126 0.06961355 -0.029093167
000130 d9 94 6b be 05 b7 04 bd 6d b8 03 3e fe 0f 42 3d
       -0.23006 -0.032401104 0.12863322 0.047378533
000140 98 01 36 3b 4a 68 a7 bb ec a7 11 be c8 86 39 bd
       0.0027771946 -0.005108868 -0.14224213 -0.045294553
000150 d4 97 c8 3d 4b 60 20 be f2 25 0a ba e8 ca 6e be
       0.09794584 -0.15661733 -0.00052699365 -0.2331959
000160 06 38 2c bc d0 54 c4 bd 2b 84 11 3e 40 be 96 bd
       -0.010511404 -0.09586489 0.14210574 -0.07360506
000170 7a 0a a7 be 82 62 49 3d 5f 99 61 bc e9 22 b9 bd
       -0.3262518 0.04916621 -0.013769477 -0.09039862
000180 ff fc 9b 3d 2c 09 be be 65 89 f4 bc b5 18 9b bc
       0.076166146 -0.37116373 -0.029850671 -0.01893268
000190 5a c1 45 3e 2a 01 94 bd 9c 5d 55 bd da 80 0e 3c
       0.19312039 -0.072267845 -0.052091226 0.008697713
0001a0 fa df 36 bd c7 26 d3 3d 68 8e da bd 3a 0b 91 3d
       -0.044647194 0.103101306 -0.10671693 0.070822194
0001b0 0c 13 98 bd d6 e7 4a 3d 77 e6 12 3e b6 2d 0d bc
       -0.07425508 0.049537502 0.14345728 -0.008616855
0001c0 38 5c 3a bc 70 ed c0 3c ed 2e ba 3d 81 37 65 3d
       -0.011374526 0.023550719 0.09090982 0.055961136
0001d0 bd 54 70 bd fb 38 61 be 28 87 b5 3c dd 8d 21 be
       -0.058674563 -0.21994393 0.022159174 -0.15776773
0001e0 eb c6 f4 3d 15 62 99 be 4c 77 25 be 74 a4 34 be
       0.11952003 -0.29957643 -0.1615879 -0.17640859
0001f0 d8 3d 2e be 4b 11 a4 bc 67 07 c3 bd b4 3c 9c be
       -0.17015779 -0.020027777 -0.09522896 -0.30515063
