scripts/abr_clustering/audiometric_deep_clustering/experiments/full_scale_audiometric_clustering_memory_optimized/20250619_164613_evident/checkpoints/joint/joint_epoch_0.pt (torch, 760611 bytes, 223 tensors)

encoder.abr_encoder.abr_projection.weight f4 [32, 6]
0	0xbd8aa715	-0.067701496
1	0x3d8265f0	0.06367099
2	0xbd8b774e	-0.06809865
3	0xbe47a388	-0.19495976
4	0xbe9a42ab	-0.3012899
5	0xbea436d7	-0.3207309
6	0xbd24b96e	-0.040215902
7	0x3cc675cb	0.02422609
8	0xbd6e1535	-0.058125693
9	0xbef76980	-0.48322678
10	0xbd8ed0a4	-0.06973389
11	0x3eb8abc8	0.3606856
12	0xbe53362d	-0.20626135
13	0xbe8f2ebd	-0.27965346
14	0x3e37e8b6	0.17959866
15	0xbe108c0d	-0.14115925
16	0xbd8d0daf	-0.068873756
17	0xbea9e18a	-0.33179885
18	0xbebb28e8	-0.36554646
19	0x3d7292af	0.05922192
20	0x3e89b435	0.268953
21	0xbe3a7c0f	-0.18211387
22	0xbddc38fc	-0.107530564
23	0x3de3c93b	0.11122366
24	0x3e263455	0.162309
25	0xbe745abc	-0.23862737
26	0xbe983bc3	-0.29733095
27	0x3e2e0886	0.16995439
28	0xbefaca1b	-0.4898232
29	0xbe8910a5	-0.2677051
30	0xbe1bac15	-0.15202363
31	0x3e98efd7	0.29870483
32	0x3e5fffb6	0.2187489
33	0x3f035a86	0.5131
34	0x3db30208	0.08740622
35	0xbdfb7524	-0.12278202
36	0x3e99f17a	0.30067044
37	0x3ea3272a	0.31865817
38	0x3e0ac5dd	0.13552041
39	0x3e9aaf5e	0.3021192
40	0xbe169df3	-0.1470869
41	0x3d70af19	0.058760736
42	0x3ea38d23	0.31943616
43	0x3dbdbf75	0.09265033
44	0xbe96fa81	-0.29487994
45	0x3ee68472	0.45022923
46	0x3e28c041	0.16479589
47	0x3eccef9d	0.4002656
48	0x3eaa9762	0.3331862
49	0x3e8777e6	0.26458663
50	0x3ecca907	0.39972708
51	0x3e902f17	0.28160927
52	0xbe33904e	-0.17535517
53	0xbc92ab7d	-0.017904038
54	0xbe6b8a60	-0.23002005
55	0xbeaea064	-0.34106743
56	0xbe3f8c5d	-0.18705888
57	0xbe955621	-0.29167274
58	0xbdc82e7f	-0.097744934
59	0xbd6c6041	-0.057708982
60	0x3d39f50f	0.04539972
61	0xbe9e7c91	-0.30954412
62	0xbcda67b9	-0.026660787
63	0xbe4a0eb5	-0.19732173
64	0xbdc3fdfe	-0.095699295
65	0xbea3e23d	-0.32008544
66	0xbe9ad1e3	-0.30238256
67	0x3deca067	0.11554032
68	0xbeb2b3c4	-0.34902775
69	0xbd2dd7d1	-0.042442147
70	0xbde4434c	-0.11145648
71	0xbeae5ebd	-0.34056655
72	0x3de66764	0.11250189
73	0x3de6a2c9	0.112615176
74	0x3f07b049	0.53003365
75	0xbe38ea86	-0.18058214
76	0xbd66f9ab	-0.056390446
77	0xbe657b7b	-0.22410385
78	0xbd864f4b	-0.06558093
79	0x3e176844	0.14785868
80	0x3e43ca92	0.19120243
81	0x3d9e47e3	0.07728555
82	0x3ea736c7	0.3265898
83	0x3e304be8	0.17216456
84	0x3da364d3	0.07978215
85	0x3e4687af	0.19387697
86	0x3ea5aa97	0.32356712
87	0x3e9a2eba	0.30113775
88	0xbcaaa56d	-0.020830834
89	0x3bbbf85f	0.0057363953
90	0x3f12c510	0.57331944
91	0x3ec22892	0.37921578
92	0x3ec2801c	0.37988365
93	0xbdc6f190	-0.09714043
94	0xbe64dc92	-0.22349766
95	0xbdb7c94c	-0.08973941
96	0x3dd445f9	0.10364909
97	0x3f1bde4b	0.6088607
98	0xbe10817a	-0.14111891
99	0xbe569ae1	-0.20957519
100	0xbe22ee16	-0.15911135
101	0x3e2c1b82	0.16807368
102	0xbd63d931	-0.05562705
103	0xbe655ef1	-0.22399499
104	0xbde606d9	-0.11231775
105	0xbe75ef86	-0.24017152
106	0xbdf45a62	-0.11931302
107	0xbeadab53	-0.33919773
108	0x3e8189ae	0.25300354
109	0xbd73921b	-0.05946551
110	0xbe3b82ab	-0.18311565
111	0xbda5827c	-0.080815285
112	0x3e77136a	0.241285
113	0xbe70ce8f	-0.23516296
114	0x3d197e1f	0.037473794
115	0x3cefde68	0.029280856
116	0x3cb8806b	0.022522172
117	0x3db4f9b9	0.08836693
118	0xbede1f70	-0.4338336
119	0x3d8ef096	0.06979482
120	0xbeeb763f	-0.45988652
121	0x3e052adb	0.1300463
122	0xbed09e51	-0.40745786
123	0xbe73e443	-0.23817544
124	0xbda91c7c	-0.08257386
125	0x3cb14d9f	0.021643458
126	0xbd9809c2	-0.07423736
127	0xbe5f4c5b	-0.21806471
128	0xbd941acf	-0.07231676
129	0xbdacb824	-0.084335595
130	0x3eddcbb4	0.43319476
131	0x3eabf48c	0.33585012
132	0x3f001704	0.5003512
133	0xbe1f7827	-0.15573178
134	0x3c941d4c	0.018080376
135	0xbd8dd383	-0.06925108
136	0x3ed09fd6	0.40746945
137	0x3eb453b0	0.35220098
138	0xbe520e93	-0.20513372
139	0xbe0b90a4	-0.13629395
140	0x3ed4d0f4	0.4156567
141	0x3b853d20	0.0040661246
142	0x3eb2a701	0.3489304
143	0xbe39a43b	-0.18129055
144	0xbee37e01	-0.4443207
145	0xbe8d7c77	-0.27634022
146	0xbe40e8f3	-0.18838863
147	0x3e09ecd1	0.13469245
148	0xbe150432	-0.14552382
149	0xbdd8ece8	-0.10592061
150	0xbf15dbd0	-0.5853853
151	0x3ea32e8b	0.31871447
152	0x3c7e1245	0.0155072855
153	0xbdf799bb	-0.12089869
154	0xbc36bfb3	-0.011154103
155	0x3daea6fd	0.08527944
156	0xbd941864	-0.07231215
157	0x3e7be600	0.24599457
158	0xbe1d8aab	-0.15384929
159	0x3ee46870	0.4461093
160	0x3e1ccdb7	0.15312849
161	0x3ea2dba5	0.318082
162	0x3db840bc	0.08996722
163	0xbdf98489	-0.12183482
164	0x3e040f0a	0.12896362
165	0x3e96f076	0.29480332
166	0x3dad8170	0.08471954
167	0x3e07fd36	0.13280186
168	0x3dde77a4	0.108626634
169	0xbea53ed3	-0.32274494
170	0xbd97c205	-0.07410053
171	0xbdc6140c	-0.096717924
172	0xbdc4ef11	-0.09615911
173	0xbeb782af	-0.3584189
174	0x3d7cc723	0.06171335
175	0x3d8fe4fb	0.070260964
176	0xbebe5077	-0.37170765
177	0x3d50e33c	0.050997958
178	0x3d412368	0.047152907
179	0x3c1c6ed3	0.009547907
180	0x3d22953c	0.039693102
181	0xbf09d9fd	-0.5384825
182	0xbc0cf1f0	-0.008602604
183	0x3e3f660d	0.18691273
184	0xbcf3c625	-0.029757569
185	0x3a524a3f	0.0008021928
186	0xbe949e01	-0.29026797
187	0xbe2b9b6c	-0.16758507
188	0xbcc9375d	-0.024562532
189	0xbdf6beb2	-0.12048091
190	0xbc250355	-0.010071595
191	0xbdea81f5	-0.114505686

encoder.abr_encoder.abr_projection.bias f4 [32]
0	0x3683b1dd	3.9248102e-06
1	0xb7949dff	-1.7716548e-05
2	0xb79f86f7	-1.9017125e-05
3	0x383c8fc8	4.49566e-05
4	0xb7f7538f	-2.9483605e-05
5	0xb83bf0c6	-4.4808512e-05
6	0x36a02ee9	4.7738326e-06
7	0x38086c58	3.252583e-05
8	0x37362d6e	1.0858623e-05
9	0xb5963ebc	-1.1194129e-06
10	0x374dcd89	1.2266807e-05
11	0xb6f0e458	-7.17914e-06
12	0x377b03d1	1.4961654e-05
13	0xb6f4fd57	-7.3012593e-06
14	0x376d3db5	1.4140668e-05
15	0xb7816f7e	-1.5429916e-05
16	0x37686647	1.3852091e-05
17	0xb77418cd	-1.4549308e-05
18	0x3877b775	5.9060247e-05
19	0x37fa16bd	2.981291e-05
20	0x378cd7f4	1.6789862e-05
21	0x385a49fa	5.2044146e-05
22	0xb72a180e	-1.013839e-05
23	0x37386eb9	1.0993034e-05
24	0x3878193e	5.9151316e-05
25	0xb8819b33	-6.1801074e-05
26	0xb79e9fd5	-1.8909495e-05
27	0xb8125264	-3.4885845e-05
28	0xb7f55c9f	-2.9249406e-05
29	0xb4a90fe3	-3.1490262e-07
30	0x36beebb9	5.689883e-06
31	0xb7cb2190	-2.4215115e-05

encoder.abr_encoder.abr_norm.weight f4 [32]
0	0x3f57f36d	0.84355813
1	0x3f49dabc	0.7884939
2	0x3f481b26	0.78166425
3	0x3f3fa51e	0.74861324
4	0x3f514f0d	0.81761247
5	0x3f425d88	0.7592397
6	0x3f3dae4f	0.740941
7	0x3f717412	0.94317734
8	0x3f389e27	0.7211632
9	0x3f709152	0.9397174
10	0x3f4cfa23	0.8006918
11	0x3f654411	0.89556986
12	0x3f488a29	0.78335816
13	0x3f4a2dcc	0.7897613
14	0x3f427ece	0.7597474
15	0x3f51d506	0.8196567
16	0x3f4d9570	0.8030615
17	0x3f6cb060	0.92456627
18	0x3f401c34	0.75043035
19	0x3f4a858f	0.79110044
20	0x3f5a29f8	0.8522029
21	0x3f3cfb0a	0.73820555
22	0x3f43c5dd	0.7647379
23	0x3f398a15	0.7247632
24	0x3f79f294	0.9763577
25	0x3f4277f8	0.7596431
26	0x3f65a644	0.89706826
27	0x3f53e6fa	0.8277432
28	0x3f3d1c69	0.73871475
29	0x3f4ab49b	0.7918183
30	0x3f52e26e	0.82376754
31	0x3f63f1c7	0.890408

encoder.abr_encoder.abr_norm.bias f4 [32]
0	0xbe83b147	-0.2572119
1	0xbed629a8	-0.41828656
2	0xbf082c74	-0.5319283
3	0xbef11e08	-0.47093225
4	0xbe92b545	-0.28653923
5	0xbee2ebcf	-0.44320533
6	0xbf03306d	-0.51245767
7	0xbe1ce4c0	-0.15321636
8	0xbe33363d	-0.17501159
9	0xbd987d20	-0.07445741
10	0xbefa5267	-0.48890993
11	0x3d86c2b1	0.06580103
12	0xbe841dc2	-0.25803953
13	0xbedfb6b2	-0.43694073
14	0xbe494a23	-0.19657187
15	0xbecc2f67	-0.39879915
16	0xbedc6042	-0.4304219
17	0xbdeb8aab	-0.11501058
18	0xbedeb8bd	-0.4350032
19	0xbf139d25	-0.5766166
20	0xbebcabe8	-0.36849904
21	0xbec91b90	-0.3927884
22	0xbedc7bcc	-0.430632
23	0xbee9e4a3	-0.45682248
24	0xbd940594	-0.072276264
25	0xbefa4b7f	-0.48885724
26	0xbeafe8fc	-0.3435744
27	0xbeaf38d9	-0.3422306
28	0xbec7a811	-0.38995412
29	0xbf1350cd	-0.5754517
30	0xbf0bd846	-0.5462688
31	0xbe367a0d	-0.17819996

encoder.abr_encoder.abr_norm.running_mean f4 [32]
0	0xbdc22361	-0.09479404
1	0xbd0d32ed	-0.034472395
2	0xbdb445ea	-0.088023975
3	0xbcc7569d	-0.024333293
4	0xbdcdf08c	-0.10055646
5	0x3dc1e681	0.09467793
6	0x3ddec03c	0.108765095
7	0x3df52cd4	0.11971441
8	0x3e000383	0.1250134
9	0xbe086701	-0.13320543
10	0xbdc26ae5	-0.09493045
11	0xbdeab046	-0.11459403
12	0x3d204284	0.039125934
13	0x3db9178b	0.090376936
14	0x3dccf612	0.10007872
15	0x3ddba069	0.10723955
16	0x3d128285	0.035769004
17	0xbdef183e	-0.11674546
18	0xbbf5b7d6	-0.0074987216
19	0xbc87d6c4	-0.0165819
20	0xbdf6f1ed	-0.120578624
21	0x3cf14d10	0.029455692
22	0x3de75048	0.11294609
23	0x3cf65b03	0.030072695
24	0xbde6aeb0	-0.11263788
25	0xbd1c5543	-0.03816725
26	0x3dc85772	0.09782304
27	0x3d8b69b6	0.06807272
28	0xbdb37422	-0.08762385
29	0xbc9ab4d5	-0.018885056
30	0xbd0f6775	-0.035010774
31	0xbda3a90c	-0.079912275

encoder.abr_encoder.abr_norm.running_var f4 [32]
0	0x3f91ca27	1.1389817
1	0x3e2f7a62	0.17136529
2	0x3f87b5af	1.060232
3	0x3dea671b	0.11445447
4	0x3fac023e	1.3438184
5	0x3f88552d	1.0650994
6	0x3fb20135	1.3906618
7	0x3ff5643f	1.9171218
8	0x3fdff842	1.7497637
9	0x4005cd66	2.0906615
10	0x3f966f99	1.1752807
11	0x3fc62dca	1.5482724
12	0x3e493b63	0.1965156
13	0x3f826198	1.0186033
14	0x3f90a8d1	1.1301519
15	0x3fabb232	1.3413756
16	0x3e924183	0.28565606
17	0x3fd8efa9	1.6948138
18	0x3d37273e	0.04471516
19	0x3da297d9	0.07939119
20	0x3fcc078e	1.5939806
21	0x3e5118b5	0.20419581
22	0x3fd37428	1.6519823
23	0x3e16bb53	0.14719896
24	0x3fc534b8	1.5406713
25	0x3e530b58	0.20609796
26	0x3fa5c542	1.2950823
27	0x3f0aff49	0.54295784
28	0x3f83258c	1.0245833
29	0x3d5b5492	0.05354745
30	0x3e673ed5	0.22582562
31	0x3f463fbb	0.77440995

encoder.abr_encoder.attention.q_projection.weight f4 [64, 1]
0	0x3e9280e8	0.28613973
1	0x3e24a855	0.16079839
2	0xbb849ee6	-0.0040472625
3	0x3d88b8a0	0.066758394
4	0x3c0623f5	0.008187284
5	0xbda506be	-0.080579266
6	0x3d3dbfa1	0.04632533
7	0x3e1fd66d	0.1560914
8	0x3b789c4c	0.0037934957
9	0x3e52638e	0.2054579
10	0x3d305659	0.043051098
11	0xbe2e17f0	-0.17001319
12	0x3de4b2a7	0.11166888
13	0x3cbcd9d8	0.023053095
14	0x3e143226	0.14472255
15	0xbe5acd09	-0.21367277
16	0xbe821087	-0.25403234
17	0xbdd2372c	-0.102644295
18	0xbc60a29c	-0.013710644
19	0xbe088a7d	-0.13334079
20	0xbd2ca0e5	-0.04214563
21	0xbe3deeec	-0.18548173
22	0xbe45d5ba	-0.19319811
23	0x3d98595b	0.07438918
24	0x3db9816e	0.0905789
25	0x3c589a56	0.01322039
26	0x3e1758e7	0.14780007
27	0xbcfefad8	-0.031125471
28	0x3c7b4ddd	0.015338388
29	0x3c54ade9	0.012980917
30	0x3d5b72f0	0.05357641
31	0x3d8a5901	0.067552574
32	0xbb3600c5	-0.0027771455
33	0x3c1d4d39	0.009600931
34	0x3d9e9489	0.077431746
35	0x3e1a6b14	0.1507991
36	0xbe536f3b	-0.206479
37	0xbcc4ba59	-0.024014639
38	0xbdf695ed	-0.12040315
39	0xbe98da63	-0.29854116
40	0xbe95aa5f	-0.29231545
41	0x3de82848	0.11335808
42	0xbe72a878	-0.23697078
43	0xbe4fc41b	-0.20289652
44	0xbd48f044	-0.04905726
45	0xbda86571	-0.082224734
46	0x3c94fbce	0.018186476
47	0xbe216545	-0.15761288
48	0xbdf856f5	-0.12125961
49	0xbd283f7a	-0.04107616
50	0x3cf05216	0.029336017
51	0xbb68b7ae	-0.0035509872
52	0xbd058969	-0.032601748
53	0xbe174ce3	-0.14775424
54	0xbd7c051c	-0.06152831
55	0x3b715875	0.0036826406
56	0xbe015c7d	-0.12632938
57	0xbc9f0308	-0.019410625
58	0xbe195f60	-0.14977789
59	0x3d8747db	0.06605502
60	0xbe133488	-0.14375508
61	0x3b742692	0.0037254435
62	0xbe79bcd7	-0.24388443
63	0x3beab4b8	0.0071626566

encoder.abr_encoder.attention.q_projection.bias f4 [64]
0	0x3d0fed5d	0.035138477
1	0xbd38eef2	-0.04514975
2	0xbc589e33	-0.013221311
3	0xbd344f10	-0.044020712
4	0xbd03b5a0	-0.032155633
5	0x3d348ca9	0.044079456
6	0xbd304e7e	-0.043043606
7	0x3d17aec3	0.0370319
8	0x3c565ba1	0.0130833695
9	0x3d232cf1	0.03983778
10	0xbd268762	-0.040656455
11	0xbd21e216	-0.039522253
12	0x3d17023f	0.036867376
13	0xbc84af36	-0.016196828
14	0xbd3891ee	-0.045061044
15	0xbd15d05d	-0.036575664
16	0x3b23594e	0.0024925056
17	0x3be0f081	0.006864608
18	0xbc86e1cc	-0.01646509
19	0x3cef08a4	0.029178925
20	0x3bc95fc9	0.0061454517
21	0x3c04dc25	0.008109127
22	0x3c0034ac	0.007825058
23	0xbbd84fc7	-0.006601307
24	0xbc06b089	-0.0082208
25	0x3c2f0b82	0.010683896
26	0xbc0c3fa6	-0.008560097
27	0x3bb419d5	0.0054962435
28	0xbc47cbb0	-0.012194559
29	0x3c678d3b	0.014132793
30	0xbc3f5a3b	-0.011679227
31	0xbbd5b22d	-0.0065214843
32	0x3c01306c	0.00788508
33	0xbc094c73	-0.008380043
34	0xbd802286	-0.06256585
35	0x3d5904a9	0.05298296
36	0x3d89b387	0.06723695
37	0x3d77452e	0.06036871
38	0xbca5f260	-0.020257175
39	0xbd49b627	-0.04924598
40	0xbd5cfa52	-0.05394966
41	0xbd876c22	-0.066124216
42	0xbd5b5fbc	-0.053558096
43	0xbd316c58	-0.043316215
44	0x3d8272b9	0.06369538
45	0xbd51d330	-0.051226795
46	0xbcf090eb	-0.029365977
47	0x3d8b3bfd	0.06798551
48	0x3ccecbf5	0.025243739
49	0xbc6210e2	-0.0137979705
50	0xbce8cd12	-0.028418098
51	0xbc0c1850	-0.008550718
52	0xbc35cab7	-0.011095694
53	0x3cca6302	0.024705414
54	0x3cd834dd	0.026392395
55	0x3bb3b499	0.0054841754
56	0x3cbeb3c8	0.023279086
57	0x3cdd03c2	0.02697933
58	0xbc88808f	-0.016662864
59	0xbce32af1	-0.027730437
60	0xbc86c1c4	-0.016449817
61	0x3ba56d43	0.0050484254
62	0xbc8a6fb0	-0.01689896
63	0x3a62ef47	0.0008656871

encoder.abr_encoder.attention.k_projection.weight f4 [64, 1]
0	0x3e0af95d	0.13571687
1	0xbe220dc6	-0.15825567
2	0xbbe82ef1	-0.007085674
3	0xbdbed07a	-0.093171075
4	0xbca82069	-0.020523267
5	0x3d83e06e	0.06439291
6	0xbd9c5d55	-0.07634989
7	0x3e338163	0.17529826
8	0x3be169c8	0.006879065
9	0x3e8d9abe	0.2765712
10	0xbd071238	-0.03297636
11	0xbe87bde6	-0.2651207
12	0x3e371992	0.17880848
13	0xbbd8b412	-0.006613263
14	0xbd6e504a	-0.05818204
15	0xbe253bb1	-0.16136052
16	0x3e80de5a	0.2516964
17	0xbe32f89d	-0.17477651
18	0xbc6a42ef	-0.014298185
19	0x3d0c21d4	0.03421195
20	0xbd22e82e	-0.039772205
21	0x3e10aa7b	0.14127533
22	0x3e147b6d	0.14500208
23	0x3e03c824	0.12869316
24	0x3d3e6bd2	0.046489544
25	0x3c5d1f31	0.013496206
26	0x3d7de2f4	0.061984017
27	0xbcae6e64	-0.021292873
28	0xbd8a70c7	-0.06759792
29	0x3c69ae4c	0.014262747
30	0x3c495a3f	0.012289583
31	0x3de0d445	0.10977987
32	0x3b7df95f	0.0038753373
33	0xbb1998ab	-0.0023436944
34	0xbccc6c82	-0.024954084
35	0x3e87360a	0.26408416
36	0x3e36dd8a	0.17857948
37	0x3def200d	0.11676035
38	0xbd522612	-0.051305838
39	0xbe455893	-0.1927207
40	0xbe913429	-0.28360108
41	0xbe4224a0	-0.18959284
42	0xbe8c7fe2	-0.27441317
43	0xbe0a27e9	-0.13491787
44	0x3ddd9324	0.108190805
45	0xbe702a96	-0.23453745
46	0xbbfe06b8	-0.007752266
47	0x3d30388a	0.04302267
48	0x3df1149a	0.117715076
49	0xbcdef1f3	-0.02721498
50	0xbc8fb082	-0.01754022
51	0xbb97c225	-0.004631298
52	0xbd6d5d7f	-0.057950493
53	0x3e06a868	0.1315018
54	0x3dcbe77b	0.09956261
55	0x3b8b2c43	0.00424722
56	0x3e34f429	0.17671265
57	0x3cbbf75e	0.022945102
58	0xbe54abb0	-0.20768619
59	0xbd91c319	-0.0711729
60	0xbe3c0bbe	-0.18363854
61	0x3b88fbeb	0.0041804216
62	0xbe5b97b8	-0.21444595
63	0x3b97b428	0.0046296306

encoder.abr_encoder.attention.k_projection.bias f4 [64]
0	0xb6208548	-2.3919438e-06
1	0xb5f2779c	-1.8065216e-06
2	0x331cf0a4	3.6540442e-08
3	0xb5a879ff	-1.2552481e-06
4	0xb4c66406	-3.695315e-07
5	0x354cecda	7.6340586e-07
6	0xb4fc7bff	-4.7028877e-07
7	0x351f68b7	5.9384496e-07
8	0xb41de398	-1.4704563e-07
9	0x34a696b7	3.102957e-07
10	0xb4fd1542	-4.714039e-07
11	0x3588126c	1.0138151e-06
12	0xb5295108	-6.307532e-07
13	0x33597a86	5.0635684e-08
14	0xb636eb20	-2.7256974e-06
15	0x35d299d0	1.5690985e-06
16	0x35866eee	1.0016063e-06
17	0xb6589b25	-3.2276814e-06
18	0xb5327c6a	-6.6491214e-07
19	0x339cf135	7.3081914e-08
20	0xb574f2d1	-9.125043e-07
21	0xb5f8bd50	-1.8532537e-06
22	0xb6a95f70	-5.047703e-06
23	0x35a420b7	1.2228473e-06
24	0x3594bb37	1.1081346e-06
25	0x3522485d	6.0455005e-07
26	0x36863856	4.0000696e-06
27	0xb4bb0c34	-3.4840343e-07
28	0x34cfd645	3.8712656e-07
29	0xb4975ccb	-2.8193458e-07
30	0x359e4528	1.1792044e-06
31	0xb47271f8	-2.2579468e-07
32	0xb393ca88	-6.882061e-08
33	0xb3ffd986	-1.191393e-07
34	0xb424c233	-1.534434e-07
35	0x363f30c8	2.8489612e-06
36	0x370651d5	8.006075e-06
37	0xb4b6037f	-3.3902685e-07
38	0x356d073a	8.8299896e-07
39	0x3681bcb4	3.8664675e-06
40	0x3727c532	9.999889e-06
41	0xb31b1add	-3.6113182e-08
42	0x366ab8cb	3.497628e-06
43	0x3689e3ac	4.1094227e-06
44	0x34298046	1.5786017e-07
45	0x36444399	2.9245623e-06
46	0xb4b4bc2e	-3.3664531e-07
47	0xb59d4e03	-1.1720116e-06
48	0x36e749b1	6.8929153e-06
49	0x35c098c7	1.4349579e-06
50	0xb57b4923	-9.3611214e-07
51	0x3440d173	1.795759e-07
52	0x35c569cc	1.4708435e-06
53	0x36687069	3.4636125e-06
54	0x36084f4b	2.0311734e-06
55	0xb48c53f8	-2.6138127e-07
56	0x36ab492e	5.1047164e-06
57	0x350985b2	5.123103e-07
58	0x36682d2c	3.4596987e-06
59	0xb66ee4ee	-3.5598018e-06
60	0x36c95eab	6.0012876e-06
61	0xb489ca25	-2.5665318e-07
62	0x36e2ba5d	6.7570204e-06
63	0xb4f2c868	-4.5221827e-07

encoder.abr_encoder.attention.v_projection.weight f4 [64, 1]
0	0xbe2a5a80	-0.16636086
1	0x3e36f5f8	0.17867267
2	0xbdeb2498	-0.11481589
3	0xbc97cd8e	-0.018530633
4	0xbe06c944	-0.13162714
5	0x3e023c11	0.12718226
6	0xbde49187	-0.1116057
7	0x3bbee24e	0.0058253175
8	0x3d1f5150	0.038895905
9	0xbe21d761	-0.15804817
10	0x3b983be6	0.0046458123
11	0x3e4e18cc	0.20126647
12	0xbe447557	-0.19185387
13	0x3e8fa05b	0.2805203
14	0x3cc7571a	0.024333525
15	0x3e3317dc	0.1748957
16	0xbe14bfee	-0.1452634
17	0x3e92c16d	0.28663197
18	0xbdc8ac33	-0.097984694
19	0xbe4cafb7	-0.19988905
20	0x3e8fb316	0.2806632
21	0xbe7c4426	-0.24635372
22	0x3e9d3559	0.30704764
23	0xbcc50cae	-0.024053898
24	0xbcf3c013	-0.029754674
25	0x3eaeb8f8	0.34125495
26	0x3e97ca8d	0.2964672
27	0x3ca649f3	0.020298934
28	0xbeb012ca	-0.34389335
29	0xbd0f654d	-0.035008717
30	0xbc39e295	-0.011345525
31	0x3d9be4aa	0.076119736
32	0xbc41852e	-0.011811538
33	0x3a56dd64	0.0008196442
34	0xbebde136	-0.37085885
35	0xbe410223	-0.18848471
36	0x3d2a7171	0.041612092
37	0xbe9c5909	-0.30536678
38	0x3da9a22e	0.082828864
39	0xbe8eb463	-0.27872
40	0xbd93b518	-0.07212275
41	0xbb696a6a	-0.0035616406
42	0x3b0d1889	0.0021529517
43	0x3bfb4df5	0.0076692053
44	0x3ba21efc	0.0049475413
45	0xbb004843	-0.0019574321
46	0x3e3ee6e7	0.1864277
47	0x3deed70d	0.116621114
48	0x3d063762	0.03276766
49	0x3e7586cf	0.23977207
50	0x3ea049ad	0.3130621
51	0x3e812805	0.25225845
52	0x3d475ba7	0.04867139
53	0xbe15edca	-0.1464149
54	0x3d9b7b61	0.07591892
55	0xbbe15c32	-0.0068774456
56	0x3e51d4ea	0.20491377
57	0x3ebe93b2	0.37222058
58	0xba31d08d	-0.00067830906
59	0xbd20f271	-0.03929371
60	0xbc0afa0d	-0.008482468
61	0xba832808	-0.0010006437
62	0x3e71362a	0.23555818
63	0xba22eb39	-0.00062148605

encoder.abr_encoder.attention.v_projection.bias f4 [64]
0	0x3c85faeb	0.016354999
1	0x3ce3455d	0.027743036
2	0x3bfc87dd	0.007706626
3	0xbb03e728	-0.0020126794
4	0xbccf42fa	-0.025300492
5	0x3cd6b627	0.026209904
6	0xbcb6735e	-0.022271808
7	0xb895ffb9	-7.152506e-05
8	0x3c849621	0.016184868
9	0xbcd6d9e5	-0.026226947
10	0xb903aa31	-0.00012556535
11	0x3ce5b31e	0.028039511
12	0xbce37c18	-0.027769133
13	0x3ceebaad	0.029141748
14	0x3b87720e	0.0041334694
15	0x3ce122c3	0.027482396
16	0xbccc342a	-0.024927218
17	0x3cf730ad	0.030174578
18	0x3ca28418	0.019838378
19	0xbce39e7d	-0.027785534
20	0x3cf60ee9	0.030036407
21	0xbcf12d03	-0.029440409
22	0x3cfa5b3e	0.030561086
23	0xb97c5d06	-0.00024067247
24	0xbc18f0b7	-0.009334735
25	0x3cfe2d23	0.031027382
26	0x3cf8dd45	0.030378947
27	0x3b5b7a44	0.0033489624
28	0xbcfb2af4	-0.03066013
29	0xbc3f0b59	-0.01166042
30	0x3c6e9fc7	0.014564461
31	0x3c866aaf	0.016408293
32	0xbb2e0be9	-0.0026557392
33	0x3caa0fe7	0.020759536
34	0xbd0d9d9b	-0.034574132
35	0xbd059a5b	-0.032617908
36	0x3b9da4b0	0.004810892
37	0xbd0bdd49	-0.03414658
38	0x3cbf89d6	0.023381155
39	0xbd192715	-0.037390787
40	0xbca6e364	-0.0203721
41	0x3c4fad55	0.012675603
42	0x3a8c4300	0.001070112
43	0x3a88f510	0.0010449011
44	0x3b190b27	0.0023352595
45	0xbc4a2837	-0.0123386895
46	0x3d139304	0.036028877
47	0x3cef320b	0.029198667
48	0x3b7800ac	0.0037842197
49	0x3cd2da2f	0.025738804
50	0x3d078530	0.033086002
51	0x3cd08c7d	0.025457615
52	0x3b0bbd18	0.0021322425
53	0xbcc147cc	-0.023593806
54	0xbbd62964	-0.006535696
55	0xbb28edb0	-0.0025776438
56	0x3cf1b2b7	0.029504163
57	0x3cc57a3b	0.024106136
58	0xbb82b246	-0.003988537
59	0x3c3db419	0.011578583
60	0xbb8e0299	-0.0043338058
61	0xbb7948e1	-0.0038037824
62	0x3ceb51ae	0.028725471
63	0x395dabf5	0.00021140261

encoder.abr_encoder.attention.output_projection.weight f4 [1, 64]
0	0x3df4863f	0.11939668
1	0x3e4bcaaa	0.19901529
2	0x3d7758e2	0.0603875
3	0x3bd51bba	0.0065035494
4	0xbdb45a55	-0.08806292
5	0x3e34aae0	0.17643309
6	0xbd077902	-0.033074386
7	0xbb2045f0	-0.0024455748
8	0x3d9ca2a9	0.076482125
9	0xbd8df7d0	-0.06932032
10	0xbb0591dd	-0.002038113
11	0x3e037083	0.12835889
12	0xbde99edd	-0.11407254
13	0x3e54e36f	0.20789884
14	0xbc041c41	-0.008063377
15	0x3e18a346	0.14906034
16	0xbe3905a9	-0.18068565
17	0x3e315d1e	0.17320678
18	0x3dd16280	0.102238655
19	0xbe3424af	-0.17592119
20	0x3eacb3b8	0.33730865
21	0xbe74ffc6	-0.23925695
22	0x3e2a8f49	0.16656221
23	0xbb68f674	-0.0035547288
24	0xbb9514bd	-0.0045495913
25	0x3e3b22ec	0.1827504
26	0x3e1ed37e	0.15510365
27	0x3be4fa52	0.0069878483
28	0xbea18176	-0.31544083
29	0xbd737096	-0.059433542
30	0xbc246021	-0.010032685
31	0x3cbdc3d9	0.023164677
32	0xbb172638	-0.0023063552
33	0xbc92edab	-0.017935595
34	0xbea0c416	-0.31399602
35	0xbe93c227	-0.28859064
36	0x37acded7	2.0607766e-05
37	0xbea032b0	-0.31288671
38	0x3d92b5fc	0.07163617
39	0xbe18acff	-0.14909743
40	0xbd521163	-0.051286113
41	0xbc20be57	-0.009811006
42	0x3a4f4f8e	0.0007908278
43	0x3ad80261	0.0016480201
44	0x3b2e4e81	0.0026597085
45	0x3c2c02cf	0.0104987165
46	0x3dd91d26	0.10601263
47	0x3e482497	0.19545208
48	0xbc1d9dc7	-0.009620137
49	0x3e3827ba	0.17983904
50	0x3dbe7dfb	0.093013726
51	0x3e4c259d	0.19936223
52	0x39c0a1cc	0.00036741642
53	0xbe264c89	-0.16240133
54	0xbcb67020	-0.022270262
55	0xb938afda	-0.00017613117
56	0x3db4d240	0.088291645
57	0x3ebe9863	0.37225637
58	0x3a7c0c7f	0.0009614899
59	0x3d9534a1	0.07285429
60	0xbb6cd9ea	-0.003614063
61	0x3a6b6520	0.00089796074
62	0x3de57e79	0.11205763
63	0x3a3fcbaf	0.0007316423

encoder.metadata_encoder.metadata_projection.weight f4 [48, 12]
0	0x3d7a69d8	0.061136097
1	0xbd7255a2	-0.059163697
2	0xbcaa2e1b	-0.020773938
3	0x3cef3270	0.029198855
4	0xbe92072a	-0.2852109
5	0xbed2193c	-0.41034877
6	0xbeb20142	-0.34766585
7	0xbc8665cc	-0.016405962
8	0xa136dd57	-6.195694e-19
9	0x3de8476f	0.1134175
10	0x3ec7c439	0.39016894
11	0x3dd85be4	0.10564402
12	0x3b175b32	0.0023095128
13	0x3c85737d	0.01629042
14	0x3dac679b	0.08418199
15	0x3da61929	0.08110268
16	0x3d946eb1	0.07247675
17	0x3d53f10e	0.05174356
18	0x3de4525b	0.111485206
19	0xbc38c6f1	-0.0112779
20	0x3e31c03f	0.17358492
21	0x3e059063	0.1304336
22	0xbe9769a6	-0.2957279
23	0xbc863ae9	-0.016385512
24	0xbdc2ba51	-0.09508193
25	0xbd398fdc	-0.04530321
26	0x3d6b22d4	0.05740626
27	0x3e138283	0.14405255
28	0xbd1ab171	-0.037766878
29	0x3e119943	0.14218621
30	0x3e060584	0.13088042
31	0xbd858acf	-0.06520616
32	0x3c5e8183	0.013580683
33	0xbe8ee3ba	-0.27908117
34	0xbe7b91c1	-0.2456732
35	0x3d34e77d	0.044166077
36	0xbcc35c64	-0.023847766
37	0xbd1021bf	-0.035188433
38	0x3e55d4ca	0.20881954
39	0x3e8f7660	0.2802
40	0xbd252fdf	-0.040328857
41	0x3df6e5f7	0.12055581
42	0x3df9263c	0.12165496
43	0x3c199741	0.009374441
44	0x3cc8ee3b	0.02452766
45	0x3d9a9d80	0.07549572
46	0xbe87d3a0	-0.26528645
47	0x3d5295c0	0.051412344
48	0xbcb8e0db	-0.022568157
49	0x3b67de8d	0.0035380453
50	0xbea28a44	-0.31746113
51	0xbe970acb	-0.29500422
52	0xbe861d0c	-0.26194036
53	0xbea39b88	-0.31954598
54	0xbe9bd7fc	-0.3043822
55	0xbcf0ed7a	-0.029410113
56	0x3d055412	0.03255088
57	0x3da56190	0.08075249
58	0xbedfd1f7	-0.43714878
59	0x3c009d2b	0.007849972
60	0x3ce38663	0.027774042
61	0x3cc2099e	0.023686226
62	0x3e172279	0.14759244
63	0x3da5ddb4	0.08098927
64	0xbd820d07	-0.06350141
65	0x3d832346	0.06403212
66	0x3d94559f	0.072428934
67	0x3bae7cc9	0.005324934
68	0xbdcd7062	-0.10031201
69	0xbb41e746	-0.0029587313
70	0x3edcbc0f	0.43112227
71	0x3d3c31d1	0.045945946
72	0xbd4a42ab	-0.049379986
73	0xbc262521	-0.010140688
74	0xbec414b8	-0.38297057
75	0xbe7709fd	-0.24124904
76	0xbe23551b	-0.15950434
77	0xbe409723	-0.18807654
78	0xbef632b8	-0.4808557
79	0xb538b166	-6.880349e-07
80	0x2be6c84a	1.6398074e-12
81	0x3e26cd51	0.1628926
82	0x3eca84ae	0.39554352
83	0x3e0e49f8	0.13895404
84	0xbd33acdd	-0.043866027
85	0x3c90f4b3	0.017694807
86	0xbe449fcb	-0.19201581
87	0xbc11d4cd	-0.008900833
88	0xbebde887	-0.37091467
89	0xbe9c15ff	-0.30485532
90	0xbe6bedbb	-0.23039906
91	0x3b8f0368	0.0043644197
92	0xb5680d6b	-8.644626e-07
93	0x3c746fdb	0.014919247
94	0x3e7f8c56	0.24955878
95	0x3bf1874f	0.0073708664
96	0x3cff5932	0.031170461
97	0x3968fa4e	0.0002221849
98	0xbd825f4b	-0.06365832
99	0x3d9a0160	0.075197935
100	0x3d5d2893	0.053993773
101	0xbe4cbb76	-0.19993386
102	0xbd905443	-0.07047322
103	0x3ba65c00	0.005076885
104	0xbbe7bde2	-0.0070721963
105	0x3d550644	0.05200793
106	0x3ef215e4	0.47282326
107	0x3d2a9991	0.04165036
108	0xbc7ebdb7	-0.015548161
109	0xbb8b4742	-0.004250438
110	0x3e79ecf3	0.24406795
111	0xbc51ec84	-0.012812737
112	0x3e23d64b	0.15999715
113	0xbe4e6a8e	-0.20157835
114	0xbe7805e0	-0.24220991
115	0xbcddeb44	-0.027089722
116	0x3e30a742	0.17251304
117	0x3c497894	0.0122968145
118	0xbea40102	-0.3203202
119	0xbd5ed8fe	-0.05440616
120	0xbd8ab478	-0.06772703
121	0x3cadbb84	0.021207578
122	0x3d4d3c08	0.05010608
123	0xbe4e406b	-0.20141761
124	0x38600a3c	5.3415293e-05
125	0xbdf493e5	-0.11942271
126	0xbe3996fd	-0.18124004
127	0xbc312bdc	-0.01081368
128	0xbd8df07f	-0.069306366
129	0xbe369779	-0.1783122
130	0x3eb1808e	0.34668392
131	0xbd3c60a3	-0.045990597
132	0x3d24c871	0.04023022
133	0xbc879640	-0.016551137
134	0xbe664c5c	-0.22490066
135	0xbe69f029	-0.2284552
136	0xbe241bfa	-0.16026297
137	0x3e1cf1c2	0.15326598
138	0x3dbb7894	0.09153858
139	0x3c5e04d3	0.013550955
140	0x3c9786d2	0.018496905
141	0x3e577415	0.21040376
142	0x3ec38f99	0.38195494
143	0x3c5c287b	0.013437386
144	0xbd394f2a	-0.045241512
145	0x3d2e06b9	0.04248688
146	0x3e2c5926	0.16830882
147	0x3e06ab33	0.13151245
148	0xbdf738a2	-0.12071349
149	0x3cc405c9	0.02392854
150	0x3d8e0632	0.069347754
151	0xbcbbfc7b	-0.02294754
152	0x3c02ad2a	0.007975856
153	0xbdb21156	-0.08694713
154	0xbe84d3c3	-0.2594281
155	0x3d1e888d	0.038704444
156	0x3adacbab	0.0016692778
157	0x3d5077b3	0.050895404
158	0xbe3fa680	-0.18715858
159	0xbe8f70db	-0.2801579
160	0xbebb22a2	-0.3654986
161	0xbe3cd702	-0.18441394
162	0xbe51f331	-0.20502926
163	0x3d1b8e63	0.037977587
164	0x3c3ec0db	0.01164266
165	0x3e1baa86	0.15201768
166	0x3eacc6c8	0.33745408
167	0x3ca27c46	0.019834649
168	0xb8cbdebd	-9.7212825e-05
169	0xbd045b40	-0.032313585
170	0x3c9b5dc7	0.018965615
171	0x3ddad27f	0.1068468
172	0x3cb0dcbe	0.021589633
173	0xbdd9adcb	-0.106288515
174	0xbdacbddd	-0.08434651
175	0xbd689223	-0.05677999
176	0x3e4272fb	0.18989174
177	0x3e32ff4c	0.174802
178	0xbf119e66	-0.5688232
179	0xbdae522d	-0.085117675
180	0xbc9949fc	-0.018712036
181	0xbd94a7d1	-0.07258571
182	0xbef8458f	-0.4849057
183	0xbea00612	-0.3125463
184	0xbd2c38ed	-0.042046476
185	0xbdd59c6b	-0.10430225
186	0xbe8dcc2b	-0.2769483
187	0xb31b94e1	-3.6224154e-08
188	0x32c76f37	2.3217224e-08
189	0xbe2527e0	-0.16128492
190	0x3ea3bd95	0.31980577
191	0x3d6120ae	0.054962806
192	0xbdba7444	-0.09104207
193	0x3d89d73a	0.06730504
194	0xbe3879d2	-0.18015221
195	0xbe13653f	-0.14394091
196	0xbe4feb61	-0.20304634
197	0xbe4e04dc	-0.20119041
198	0xbe6429eb	-0.22281615
199	0x3bc20b12	0.00592173
200	0xb30a1060	-3.2145522e-08
201	0xbdd6768d	-0.104718305
202	0x3ed222a3	0.4104205
203	0x3e640f51	0.22271468
204	0x3c9c09ea	0.019047696
205	0x3d0dd3cb	0.03462581
206	0xbe1713fb	-0.14753716
207	0xbe88f618	-0.26750255
208	0xbded012e	-0.11572491
209	0xbe601aed	-0.21885271
210	0xbe070578	-0.1318568
211	0xbc335e47	-0.01094777
212	0xb00c68b1	-5.108048e-10
213	0xbc739ce9	-0.014868953
214	0x3e9db373	0.3080097
215	0x3dd7d88d	0.10539351
216	0x3d7a09ea	0.06104461
217	0xbc3736a0	-0.011182457
218	0x3e6d5db3	0.23180275
219	0x3e7e2db0	0.24822116
220	0xbe6db5f1	-0.23213936
221	0xbe750d9f	-0.23930977
222	0xbe73b5ed	-0.23799868
223	0x3c80edf3	0.015738463
224	0x3c58f592	0.013242142
225	0x3cb1b51d	0.021692807
226	0x3eb4276d	0.3518633
227	0x3c9a8829	0.018863754
228	0xbcaf13ef	-0.02137181
229	0x3d7ce7e8	0.0617446
230	0xbe4e2057	-0.20129524
231	0xbe9746a5	-0.29546085
232	0xbe514692	-0.20437077
233	0xbdf61924	-0.12016514
234	0x3d4ae7e0	0.04953754
235	0x3b7cc4f7	0.0038569549
236	0x3cc1870e	0.02362397
237	0xbe604187	-0.21899997
238	0x3ed1815a	0.40919
239	0xbd35417f	-0.044251915
240	0xbc6ebc0e	-0.014571203
241	0x3dc2cffc	0.09512326
242	0xbd8290da	-0.063752845
243	0xbeb20953	-0.3477274
244	0xbe2ffbc0	-0.17185879
245	0xbea3733e	-0.3192386
246	0xbe465719	-0.19369163
247	0xbc3224f4	-0.010873068
248	0x355d3820	8.241059e-07
249	0x3df48dee	0.119411334
250	0x3ea9ae24	0.3314067
251	0x3e077674	0.1322878
252	0x3adcdb38	0.001685
253	0x3d963b13	0.07335486
254	0xbd98f76d	-0.07469068
255	0xbe21eae8	-0.15812266

encoder.metadata_encoder.metadata_projection.bias f4 [48]
0	0xbe9d02b3	-0.30666122
1	0xbda40e93	-0.08010592
2	0x3c8f6b3c	0.017507188
3	0xbd093e04	-0.03350641
4	0xbe40a19c	-0.18811649
5	0xbe5618ea	-0.20907941
6	0xbeef85ad	-0.46781674
7	0xbe349650	-0.17635465
8	0xbe59633f	-0.21229266
9	0xb9144640	-0.0001414055
10	0xbe422d14	-0.18962508
11	0xbe43bd0f	-0.19115089
12	0xbe0fa4ba	-0.14027682
13	0xbe707648	-0.2348262
14	0x3cc6ff8b	0.024291774
15	0xbe8bac68	-0.27279973
16	0xbec32f86	-0.38122195
17	0xbeb51000	-0.3536377
18	0xbdb54a3d	-0.088520505
19	0xbe28ac99	-0.16472091
20	0xbeeea56c	-0.46610582
21	0xbdbb5ad2	-0.09148182
22	0xbe966980	-0.29377365
23	0x3c659413	0.014012354
24	0xbda27e96	-0.079343006
25	0xbeccdaab	-0.4001058
26	0xbd9590c0	-0.073029995
27	0xbe9c7440	-0.30557442
28	0xbe929113	-0.28626308
29	0xbe03d391	-0.12873675
30	0xbe6a481d	-0.22879072
31	0xbe822d52	-0.25425202
32	0xbe737d67	-0.23778306
33	0xbdff25f9	-0.124584146
34	0xbdf1a2c4	-0.11798623
35	0x3cda83e4	0.026674218
36	0xbebd20cc	-0.36939085
37	0xbd540883	-0.05176593
38	0xbe1d432b	-0.15357654
39	0xbe0f207a	-0.13977233
40	0xbe35c17e	-0.17749593
41	0xbe1460ba	-0.14490023
42	0xbdc7fd32	-0.0976509
43	0xbe802e22	-0.25035197
44	0xbce338ec	-0.027737103
45	0xbeadf1fd	-0.33973685
46	0xbd3fec52	-0.046856232
47	0xbe11ebd6	-0.1425012

encoder.encoder_layers.0.0.weight f4 [128, 80]
0	0xbd8492f7	-0.06473344
1	0x3b0540dd	0.002033285
2	0xbba33235	-0.0049803504
3	0xbcfefad2	-0.03112546
4	0x3e135824	0.14389092
5	0x3c2c0ae0	0.01050064
6	0xbd21a6c3	-0.039465677
7	0xbb98ec7d	-0.0046668635
8	0x3c489c5f	0.012244313
9	0xbd97415d	-0.07385514
10	0xbd2cc6cf	-0.042181786
11	0xbd3b4f4f	-0.04572993
12	0x3e04cdfc	0.12969202
13	0x3e5a4111	0.21313883
14	0xbd2c8d97	-0.042127218
15	0x3e313524	0.17305428
16	0x3c2772f3	0.010220277
17	0xbd083c3d	-0.033260573
18	0xbd0e4bce	-0.03474026
19	0xbc5f2b36	-0.013621142
20	0xbd7b2219	-0.061311815
21	0xbccf50cd	-0.025307084
22	0x3c4da67d	0.012551901
23	0x3d5086c5	0.050909776
24	0xbd8fc17c	-0.07019326
25	0xbd42e19a	-0.04757843
26	0x3e36b0aa	0.1784083
27	0xbc0607c0	-0.008180559
28	0xbd6933e8	-0.056934267
29	0x3cefce82	0.029273275
30	0x3e500784	0.20315367
31	0x3c327e02	0.0108943
32	0x3a4c5eaa	0.00077960885
33	0xbe660e64	-0.22466427
34	0xbdf3d125	-0.119051255
35	0xbd52ab60	-0.051432967
36	0xbdb9e305	-0.09076504
37	0x3c9028c5	0.017597565
38	0x3d6e5cd3	0.058193993
39	0x3d8f9da3	0.07012489
40	0x3df342d4	0.11877981
41	0xbdfa605b	-0.122254096
42	0x3e51f4f2	0.20503595
43	0x3e3de160	0.18543005
44	0xbe706436	-0.23475727
45	0x3e4f8606	0.2026597
46	0xbdeb5650	-0.11491072
47	0x3e09ae5c	0.13445419
48	0x3d92c363	0.07166173
49	0x3e5cf82f	0.2157905
50	0x3da0fff7	0.078613214
51	0x3e8114f2	0.25211293
52	0x3d862520	0.0655005
53	0xbdd2d76b	-0.10294994
54	0x3e5342d9	0.20630969
55	0xbca570f8	-0.02019547
56	0xbce1ee31	-0.027579399
57	0x3e197f95	0.14990075
58	0xbd83ec0e	-0.06441508
59	0x3e5086dd	0.20363946
60	0xbd812453	-0.063057564
61	0x3c83611a	0.016037513
62	0x3e516b9d	0.20451207
63	0x3c3cbc7c	0.011519548
64	0x3e1c6dfc	0.1527633
65	0x3cea2125	0.028580258
66	0xbd4024d8	-0.046910137
67	0xbe4a57df	-0.19760083
68	0x3d40b50a	0.047047652
69	0xbd01572a	-0.031577267
70	0xbd16c11e	-0.036805265
71	0x3e2b8ec2	0.16753677
72	0x3e09e690	0.13466859
73	0x3e7a20fb	0.24426644
74	0xbca34e4f	-0.019934801
75	0x3dab1aed	0.08354745
76	0xbe750483	-0.23927502
77	0x3df8cdb5	0.121486105
78	0xbe3012aa	-0.1719462
79	0x3dcc6e9c	0.099820346
80	0xbd108868	-0.035286337
81	0x3e0d8e77	0.13823877
82	0x3d6334e3	0.05547036
83	0x3e332130	0.17493129
84	0x3dbc4c8b	0.09194287
85	0xbe05ac09	-0.13053907
86	0xbd7dc495	-0.061955053
87	0xbd78a5f3	-0.060705137
88	0xbdfc6b98	-0.123252094
89	0x3e45097a	0.19241896
90	0x3d069948	0.032861024
91	0x3e39285e	0.18081805
92	0xbcaa36b9	-0.020778047
93	0x3d8661bd	0.06561611
94	0x3d773fa6	0.060363434
95	0x3d38d826	0.04512801
96	0xbe129e42	-0.14318183
97	0x3e2ed39e	0.17072913
98	0xbc4555be	-0.012044368
99	0x3d9a8448	0.07544762
100	0xbdae3006	-0.085052535
101	0xbde6f378	-0.11276907
102	0x3cf3c7c4	0.029758342
103	0x3dbb977f	0.09159755
104	0x3dec1850	0.11528075
105	0xbd76098a	-0.06006769
106	0xbdd3ad20	-0.10335755
107	0xbe13e7b7	-0.14443861
108	0xbd44819a	-0.04797516
109	0x3d962690	0.07331574
110	0x3d0c06c7	0.03418615
111	0x3d20c637	0.039251532
112	0xbd76a955	-0.06022008
113	0x3df48ed6	0.11941306
114	0x3cf3a470	0.029741496
115	0xbd7ac0a9	-0.06121889
116	0x3ddd7d47	0.108149104
117	0xbd4114b2	-0.047138877
118	0x3cd8dc55	0.02647225
119	0xbccafd2f	-0.02477893
120	0xbe0d349c	-0.137896
121	0xbc06cbd4	-0.008227307
122	0x3d5bc7b2	0.05365724
123	0xbd68127e	-0.05665826
124	0x3d642553	0.055699658
125	0x3d60c404	0.054874435
126	0x3e3b36b0	0.1828258
127	0xbe3f9942	-0.18710807
128	0xbcb5272b	-0.022113403
129	0xbdf29c7b	-0.118462525
130	0xbdff1b2e	-0.12456356
131	0x3c54a6f4	0.012979258
132	0xbdd5565b	-0.104168616
133	0x3e142465	0.14467008
134	0xbd96c658	-0.0736205
135	0x3e6d4582	0.23171046
136	0xbc1014cb	-0.00879402
137	0x3d4b4a24	0.049631253
138	0xbbde2599	-0.0067793843
139	0xbdabd0e2	-0.083894506
140	0xbdab3c69	-0.08361132
141	0xbdf84103	-0.12121775
142	0xbe0e7056	-0.1391004
143	0xbdfebade	-0.12437986
144	0xbe28a2f3	-0.1646841
145	0x3cd051b3	0.025429582
146	0x3da15094	0.07876697
147	0x3e53c4e7	0.20680581
148	0x3bc69e7a	0.0060613723
149	0x3e3a1d98	0.18175352
150	0xbdc38eef	-0.09548747
151	0xbe90c84c	-0.28277814
152	0xbd702568	-0.058629423
153	0x3cc7fbcd	0.02441206
154	0x3d9ebdd1	0.07751048
155	0xbe357640	-0.1772089
156	0xbd8c729c	-0.068577975
157	0xbdcfab87	-0.10140138
158	0x3c7622c6	0.015022939
159	0xbd14e00a	-0.036346473
160	0x3d37ff01	0.044920925
161	0x3da65ef8	0.081235826
162	0xbd7294a9	-0.059223805
163	0x3d18af2f	0.037276443
164	0x3df36a8a	0.11885555
165	0x3c7169f9	0.0147347385
166	0x3e330101	0.17480852
167	0xbdb868f2	-0.09004392
168	0xbcaab717	-0.020839257
169	0x3d9c6de5	0.07638148
170	0x3cf5985f	0.029979883
171	0x3da51066	0.080597684
172	0x3d870b6a	0.06593974
173	0x3e22955a	0.15877286
174	0x3d539b79	0.051661942
175	0x3d632ed8	0.055464596
176	0x3de86256	0.11346881
177	0xbd856d85	-0.0651503
178	0x3d9cbab6	0.076528
179	0x3df5a586	0.11994462
180	0x3d983126	0.07431249
181	0xbcda04b7	-0.026613576
182	0x3dea20ee	0.11432062
183	0x3d2c7ca8	0.04211107
184	0x3db2c8d0	0.08729708
185	0xbd5d948d	-0.054096747
186	0x3e133b97	0.143782
187	0xbe06c407	-0.13160716
188	0x3d4da7d6	0.05020889
189	0x3e0db70b	0.13839357
190	0x3ddec996	0.10878293
191	0x3ba048b7	0.004891481
192	0x3d46a463	0.048496615
193	0xbde5006b	-0.1118172
194	0xbda0e5f2	-0.078563586
195	0xbde92478	-0.11383909
196	0xbcf7b87b	-0.030239334
197	0x3e07713a	0.13226786
198	0x3d4063c3	0.04697014
199	0x3e432158	0.19055688
200	0xbc284e0d	-0.010272515
201	0xbaaf0350	-0.0013352428
202	0x3e6fea90	0.23429322
203	0xbdc5c53e	-0.096567616
204	0xbd8ce87d	-0.06880281
205	0x3e809dd3	0.2512041
206	0xbcf604e0	-0.030031621
207	0x3e5159ff	0.20444487
208	0x3e4e97bb	0.20175068
209	0x3e7ca4ce	0.24672243
210	0xbd9cd221	-0.076572664
211	0xbd228271	-0.03967518
212	0x3e393e7e	0.18090245
213	0xbda4b847	-0.080429606
214	0x3d567dcd	0.052366067
215	0x3d97e8f2	0.07417478
216	0xbcdb8635	-0.026797393
217	0x3e6c7f8b	0.23095529
218	0x3c9070b3	0.017631864
219	0x3d92db84	0.071707755
220	0x3e3a604b	0.18200795
221	0x3e215f47	0.15759002
222	0xbca29443	-0.019846087
223	0x3e2a8fae	0.16656372
224	0x3d95e961	0.07319904
225	0x3d7c647f	0.061619278
226	0xbdf3e814	-0.119095
227	0x3d5e2700	0.054236412
228	0x3e79db6d	0.2440011
229	0x3d313f3e	0.043273203
230	0x3e0ce24b	0.13758199
231	0xbda0824b	-0.078373514
232	0x3b4fd185	0.0031710577
233	0xbcb3e308	-0.021958843
234	0xbdfaa172	-0.122378245
235	0x3d481ad7	0.04885372
236	0xbcf8606c	-0.030319415
237	0xbdabae7f	-0.08382892
238	0x3d47bbd0	0.048763096
239	0x3e280d7d	0.16411395
240	0xbd6e7f4d	-0.058226872
241	0xbdf3edd4	-0.119105965
242	0x3d1762a6	0.036959313
243	0x3dbf71ee	0.09347902
244	0xbc0d8ae4	-0.008639071
245	0x3e469405	0.19392402
246	0x3cffaf7b	0.031211605
247	0x3dbbae21	0.09164072
248	0x3e29d0f8	0.16583622
249	0xbd8e142e	-0.06937443
250	0x3e41e10e	0.18933508
251	0xbe0c2707	-0.13686763
252	0x3dba7ac0	0.09105444
253	0x3dcab2b9	0.0989737
254	0xbc3d8836	-0.01156812
255	0x3e48d623	0.19612937

encoder.encoder_layers.0.0.bias f4 [128]
0	0x373debc9	1.1320176e-05
1	0xb73945fa	-1.1043152e-05
2	0xb6751af7	-3.652354e-06
3	0xb593650a	-1.098176e-06
4	0xb6ce136d	-6.14154e-06
5	0xb72ea84c	-1.0410393e-05
6	0x3693f247	4.409146e-06
7	0xb71436b5	-8.834225e-06
8	0xb67d5cfb	-3.775406e-06
9	0xb77d969d	-1.51150425e-05
10	0x361cc508	2.3360499e-06
11	0x376419c1	1.3595855e-05
12	0xb67524ce	-3.6529268e-06
13	0x36cf14c4	6.171498e-06
14	0x373c016b	1.1206003e-05
15	0x35dd133e	1.6471383e-06
16	0x361603ec	2.2354025e-06
17	0x37d94a55	2.590303e-05
18	0x387a4a38	5.9673766e-05
19	0x37d1f0ff	2.5026964e-05
20	0x371955b8	9.139469e-06
21	0xb8e0d258	-0.00010720332
22	0x381fbbf6	3.8083606e-05
23	0x35a13157	1.2009795e-06
24	0x37e4d26a	2.72777e-05
25	0xb5c94076	-1.4994428e-06
26	0x37130fd4	8.765568e-06
27	0xb6f1ee87	-7.210128e-06
28	0xb613a1db	-2.199892e-06
29	0x37fed887	3.0379988e-05
30	0xb7909e02	-1.7239716e-05
31	0x3653f3d9	3.1583388e-06
32	0xb852ba1a	-5.0241222e-05
33	0xb6487704	-2.9871599e-06
34	0x36f14f3c	7.191584e-06
35	0x38708ee4	5.7353536e-05
36	0xb7b20c32	-2.1224932e-05
37	0xb692e807	-4.3781506e-06
38	0x360b30f7	2.0741115e-06
39	0x379cacc9	1.8677109e-05
40	0x35176ea5	5.641289e-07
41	0xb861693e	-5.3742195e-05
42	0xb6f85bf4	-7.4016807e-06
43	0x36ac1021	5.127877e-06
44	0x37e7e8df	2.7645785e-05
45	0x38312c5a	4.2241394e-05
46	0xb6b1bf11	-5.297254e-06
47	0xb6f04a34	-7.1611958e-06
48	0x37a823b1	2.004378e-05
49	0xb6423030	-2.8936302e-06
50	0x376ec2ef	1.4231292e-05
51	0x384d62c7	4.8967802e-05
52	0x377d1ffd	1.5087423e-05
53	0x377e3164	1.5151079e-05
54	0x37e09aea	2.6775018e-05
55	0x3701b019	7.73e-06
56	0x37311972	1.0555947e-05
57	0x37749a5d	1.4579474e-05
58	0xb72f2163	-1.0438586e-05
59	0xb59c49e1	-1.1644407e-06
60	0x37baee9b	2.2284037e-05
61	0x370f8e7a	8.556637e-06
62	0x379e42b9	1.8866138e-05
63	0xb6932601	-4.3853656e-06
64	0xb876cd66	-5.8842263e-05
65	0xb740a862	-1.14832965e-05
66	0xb5efdb72	-1.7870755e-06
67	0xb807dd98	-3.2392883e-05
68	0x372cef7b	1.0307757e-05
69	0x37d8a0bc	2.5824054e-05
70	0xb7a881a3	-2.0087527e-05
71	0xb70a1684	-8.230683e-06
72	0xb6675afc	-3.4474642e-06
73	0xb653c509	-3.155614e-06
74	0xb6749e81	-3.6451095e-06
75	0x36ad30f9	5.161503e-06
76	0xb8233568	-3.8911967e-05
77	0x3751aef4	1.2498105e-05
78	0x3767e4b3	1.3821921e-05
79	0xb79a424f	-1.8389108e-05
80	0xb7b40513	-2.1460035e-05
81	0x36f4f79f	7.3005936e-06
82	0x38608543	5.352987e-05
83	0xb70caff3	-8.385617e-06
84	0x366deef2	3.5454837e-06
85	0xb716476d	-8.957327e-06
86	0xb5b37a19	-1.3372074e-06
87	0xb7aec74e	-2.0835225e-05
88	0xb7312c17	-1.0560288e-05
89	0xb7960498	-1.7883533e-05
90	0x35406046	7.166567e-07
91	0xb7412b33	-1.15137545e-05
92	0xb707cf08	-8.09483e-06
93	0xb6696186	-3.4776472e-06
94	0xb699c143	-4.582254e-06
95	0xb526334a	-6.1914454e-07
96	0xb7811f7e	-1.5392663e-05
97	0x372bf049	1.024834e-05
98	0xb74b9500	-1.2134435e-05
99	0xb70aff4b	-8.284881e-06
100	0x37cba5a2	2.4276615e-05
101	0xb5f0d4e0	-1.7943348e-06
102	0x37b2ee4b	2.1330217e-05
103	0xb724879d	-9.806737e-06
104	0xb7be6f9a	-2.2701734e-05
105	0x35a7f9b4	1.2515143e-06
106	0xb89e5cee	-7.5513366e-05
107	0x380e2b3d	3.3895707e-05
108	0x366736fb	3.4453685e-06
109	0x36e92354	6.948054e-06
110	0xb82de87d	-4.1462936e-05
111	0xb69e15b4	-4.7112935e-06
112	0x36e93f2a	6.9512944e-06
113	0x376cd10f	1.4115371e-05
114	0x376bb47d	1.4049115e-05
115	0x380ba70b	3.3295753e-05
116	0x37469353	1.1836021e-05
117	0x371aeced	9.234279e-06
118	0x36e5324a	6.8305862e-06
119	0xb69447f0	-4.4191183e-06
120	0xb83fd1f1	-4.573347e-05
121	0xb8d284b4	-0.00010038298
122	0x363b046c	2.7867745e-06
123	0xb7a6c640	-1.988106e-05
124	0xb49fc2d7	-2.9757823e-07
125	0xb77d3e13	-1.5094428e-05
126	0x3705fb11	7.985874e-06
127	0xb83b5a7a	-4.4668537e-05

encoder.encoder_layers.0.1.weight f4 [128]
0	0x3f87238d	1.0557724
1	0x3f79a5f4	0.9751885
2	0x3f6a3b7c	0.91497016
3	0x3f6fe23d	0.9370459
4	0x3f68bdc9	0.9091459
5	0x3f7540b2	0.9580184
6	0x3f65939f	0.89678377
7	0x3f785f52	0.9702045
8	0x3f825f2e	1.0185297
9	0x3f5dbdac	0.8661754
10	0x3f720da0	0.9455204
11	0x3f7bc295	0.98343784
12	0x3f7551ae	0.9582776
13	0x3f5f8c9c	0.8732393
14	0x3f827c64	1.0194211
15	0x3f6ebfcf	0.93261427
16	0x3f76d03b	0.96411484
17	0x3f650c8e	0.8947228
18	0x3f8b822b	1.0899099
19	0x3f82d569	1.0221378
20	0x3f78ea0c	0.9723213
21	0x3f6f7157	0.9353232
22	0x3f70a29e	0.93998134
23	0x3f7c8610	0.98642063
24	0x3f8495c0	1.03582
25	0x3f6b6c30	0.91961956
26	0x3f874cd8	1.0570326
27	0x3f767d63	0.96285075
28	0x3f820d3e	1.0160291
29	0x3f7c02a4	0.9844153
30	0x3f7846b1	0.96982867
31	0x3f74b4dc	0.9558847
32	0x3f7f4c0a	0.997254
33	0x3f7ec38d	0.99517137
34	0x3f671cb8	0.90278196
35	0x3f7d6abd	0.98990995
36	0x3f793de0	0.9736004
37	0x3f67170c	0.9026954
38	0x3f6308b0	0.8868513
39	0x3f719116	0.9436201
40	0x3f71ee08	0.9450383
41	0x3f81ab93	1.0130485
42	0x3f674094	0.90332913
43	0x3f7cf12a	0.9880549
44	0x3f6b293d	0.918598
45	0x3f834961	1.0256768
46	0x3f7daee5	0.9909499
47	0x3f850b3c	1.0394053
48	0x3f6ace99	0.91721493
49	0x3f74e4c3	0.9566156
50	0x3f6c66f9	0.92344624
51	0x3f807078	1.0034323
52	0x3f7a7027	0.9782738
53	0x3f60d47d	0.8782423
54	0x3f7caeec	0.9870441
55	0x3f84fc71	1.0389539
56	0x3f56b9ca	0.8387724
57	0x3f6cbfdb	0.9248025
58	0x3f78ca29	0.9718347
59	0x3f8888d5	1.0666758
60	0x3f7c80db	0.9863412
61	0x3f7562ee	0.9585408
62	0x3f80fcdb	1.0077165
63	0x3f6374b7	0.8884997
64	0x3f795b3c	0.9740484
65	0x3f74edf2	0.95675576
66	0x3f78bd09	0.97163445
67	0x3f6db2e6	0.928511
68	0x3f6ef09e	0.933359
69	0x3f6c626f	0.923377
70	0x3f81f585	1.0153052
71	0x3f7c11d8	0.9846473
72	0x3f736ed6	0.95091
73	0x3f7a0d0c	0.9767616
74	0x3f76d999	0.9642578
75	0x3f6be771	0.92150027
76	0x3f6f62cf	0.93510145
77	0x3f7b027c	0.98050666
78	0x3f7fee8e	0.9997338
79	0x3f775590	0.96614933
80	0x3f7f6399	0.9976135
81	0x3f6915e7	0.91049045
82	0x3f6fecee	0.937209
83	0x3f7db4f2	0.99104226
84	0x3f7d9dd6	0.99068964
85	0x3f6e2392	0.93023026
86	0x3f7e7ddb	0.9941079
87	0x3f8b18b4	1.0866914
88	0x3f7e617f	0.9936752
89	0x3f70a776	0.94005525
90	0x3f8593da	1.0435746
91	0x3f835705	1.0260931
92	0x3f7c9f81	0.98680884
93	0x3f72e1af	0.94875616
94	0x3f614a4b	0.8800399
95	0x3f7d4c83	0.9894487
96	0x3f6df2a5	0.9294837
97	0x3f607f29	0.8769403
98	0x3f6ebcf4	0.9325707
99	0x3f74c5ca	0.956143
100	0x3f6e0c6c	0.92987704
101	0x3f7f5309	0.99736077
102	0x3f71d8b1	0.9447127
103	0x3f703ad9	0.93839794
104	0x3f732b03	0.94987506
105	0x3f5bac80	0.8581009
106	0x3f818a01	1.012024
107	0x3f7814ab	0.96906537
108	0x3f7b7bf6	0.98236024
109	0x3f6fe559	0.9370933
110	0x3f87c597	1.0607175
111	0x3f630fed	0.88696176
112	0x3f6996c4	0.91245675
113	0x3f7cb99e	0.9872073
114	0x3f8738cb	1.0564207
115	0x3f6be184	0.92140985
116	0x3f68c335	0.9092286
117	0x3f5e7379	0.8689495
118	0x3f688e8b	0.90842503
119	0x3f69a85d	0.91272527
120	0x3f875700	1.0573425
121	0x3f7ad975	0.97988063
122	0x3f6e5e81	0.9311295
123	0x3f64f8ff	0.8944244
124	0x3f5e7e28	0.8691125
125	0x3f6a541a	0.9153458
126	0x3f731599	0.9495483
127	0x3f662a96	0.8990873

encoder.encoder_layers.0.1.bias f4 [128]
0	0x3c8dcffb	0.017311087
1	0x3d7b3c7d	0.061336983
2	0xbe6abea0	-0.2292428
3	0xbe2ed70f	-0.17074226
4	0xbe642db4	-0.2228306
5	0xbdab1d4f	-0.083551995
6	0xbe4d4f60	-0.2004981
7	0x3d88e035	0.06683389
8	0x3dac955a	0.08426924
9	0xbe58e7a7	-0.21182118
10	0x3dcf9cf6	0.1013736
11	0xbd44f3aa	-0.04808394
12	0xbe1b35b4	-0.15157205
13	0xbe097a97	-0.1342567
14	0x3d5c706b	0.053818148
15	0xbccd6d46	-0.02507652
16	0xbd9259bf	-0.07146024
17	0xbdc68760	-0.096937895
18	0xbde90ea6	-0.11379747
19	0x3d8bc158	0.06823987
20	0x3d73fa98	0.059565157
21	0xbe556d68	-0.20842516
22	0xbe797c3c	-0.24363798
23	0x3d0a31f5	0.03373905
24	0x3e37a8fe	0.17935559
25	0xbe289a96	-0.1646522
26	0x3e1ef0b2	0.15521505
27	0x3dc3979d	0.09550402
28	0x3c976536	0.018480878
29	0xbd8de25b	-0.069279395
30	0xbd200460	-0.039066672
31	0xbdfff802	-0.124984756
32	0xbe335371	-0.17512299
33	0xbe57edb8	-0.21086776
34	0xbc4ce77d	-0.012506363
35	0xbe22eebd	-0.15911384
36	0xbd0a1dd2	-0.033719845
37	0x3d4cdb29	0.050013695
38	0xbd94d28f	-0.07266723
39	0x3c56f8eb	0.01312087
40	0x3d619aef	0.055079397
41	0xbe26be73	-0.16283588
42	0x3d21791c	0.03942214
43	0xbda9b770	-0.08286941
44	0xbd4eba3a	-0.05047057
45	0xbde57024	-0.1120303
46	0xbda56bc4	-0.08077195
47	0x3d5168d3	0.05112536
48	0xbc89b45c	-0.016809635
49	0xbe201bc4	-0.15635592
50	0xbd0cb3e3	-0.03435124
51	0x3cf9047e	0.03039765
52	0xbc1a0f7e	-0.009403108
53	0x3c84a3a8	0.016191319
54	0xbdab1cef	-0.08355128
55	0x3c0099eb	0.007849197
56	0xbdd997ee	-0.106246814
57	0xbda77f71	-0.081786044
58	0xbe2eb540	-0.17061329
59	0x3da7461b	0.081676684
60	0xbe4e250e	-0.20131323
61	0xbd72f120	-0.059311986
62	0xbe1427d0	-0.14468312
63	0xbed06920	-0.40705204
64	0xbd8d3167	-0.068941884
65	0xbdc66879	-0.09687895
66	0xbd69ff42	-0.0571282
67	0xbe790903	-0.24319844
68	0xbe1e5b10	-0.15464425
69	0x3c5999ae	0.013281269
70	0xbd82236b	-0.06354412
71	0xbd4792ae	-0.04872387
72	0xbddb1866	-0.10698013
73	0xbe9cf72a	-0.3065732
74	0x3d1bb8d3	0.03801806
75	0xbd5512d8	-0.052019924
76	0xbe30b316	-0.17255816
77	0xbbfa08bc	-0.0076304357
78	0x3e017614	0.126427
79	0x3c8b1789	0.016978996
80	0x3ccd32dc	0.025048666
81	0xbc5700d0	-0.013122752
82	0xbdb0700a	-0.0861512
83	0xbdd91630	-0.10599935
84	0x3daec8c6	0.08534388
85	0xbdf1cab2	-0.11806239
86	0xbc637980	-0.013883948
87	0xbe34405b	-0.17602675
88	0x3c9a1d70	0.018812865
89	0xbd90f5d2	-0.070781365
90	0x3dfbb5f2	0.12290563
91	0xbdf914a8	-0.12162143
92	0xbeb378d9	-0.35053137
93	0x3c85452a	0.016268332
94	0xbdc5eabb	-0.09663912
95	0xbdcbcd12	-0.099512234
96	0x3d949f0e	0.072569
97	0xbe9d7239	-0.30751207
98	0xbb992043	-0.0046730353
99	0xbda0f061	-0.07858349
100	0x3e48158b	0.19539468
101	0xbda7172d	-0.08158717
102	0xbda6edc1	-0.08150817
103	0xbd2391a5	-0.03993382
104	0xbd8a5f8c	-0.06756505
105	0x3dad03c2	0.08447982
106	0xbdbd752f	-0.092508666
107	0x3d6b34dc	0.057423458
108	0xbe09b1b5	-0.13446696
109	0x3d006ac1	0.03135181
110	0x3e11f7f6	0.14254746
111	0xbcc19d55	-0.023634592
112	0xbd65d779	-0.056113694
113	0x3d300897	0.042976942
114	0x3d776436	0.060398303
115	0x3d52f2d4	0.05150111
116	0xbdc301ce	-0.095218286
117	0xbe5a6c68	-0.21330416
118	0x3d0c585a	0.034263946
119	0xbe3dfa24	-0.18552452
120	0x3dd43f0b	0.10363587
121	0xbe8595f7	-0.26090977
122	0xbe2331d1	-0.15936972
123	0xbe02f463	-0.12788539
124	0xbe8230a9	-0.2542775
125	0xbdcc20d0	-0.09967196
126	0xbdd3d80d	-0.10343943
127	0xbe802a25	-0.25032154

encoder.encoder_layers.0.1.running_mean f4 [128]
0	0xbd9de3ca	-0.07709463
1	0x3e3e4b9d	0.18583532
2	0x3ed063e3	0.40701208
3	0x3db5e907	0.08882337
4	0x3da3cfd1	0.07998622
5	0xbee223ed	-0.44168034
6	0x3f2f0987	0.6837391
7	0x3f230606	0.63681066
8	0xbf3bc72b	-0.7335078
9	0x3f4e2e40	0.8053932
10	0xbe31f638	-0.17379081
11	0x3e61baf0	0.22043967
12	0x3f181e73	0.5942146
13	0xbe539bb1	-0.2066486
14	0xbe1d03bc	-0.15333456
15	0x3e928415	0.28616396
16	0x3f65a874	0.89710164
17	0xbe835a0b	-0.25654635
18	0xbd6c41c9	-0.057679925
19	0xbd7a5ab4	-0.061121657
20	0xbec1862f	-0.37797686
21	0xbd7493ba	-0.059711196
22	0xbdb8e6fc	-0.09028432
23	0x3e5957f2	0.21224955
24	0xbc94d443	-0.01816762
25	0xbe344fe3	-0.176086
26	0xbd0c5a3b	-0.034265738
27	0xbeaa6b6d	-0.33285084
28	0xbd74ebc8	-0.05979517
29	0x3e3509ca	0.17679515
30	0xbe336bf7	-0.17521654
31	0x3f70e8b6	0.9410509
32	0x3db933a9	0.090430565
33	0x3eb8e3f5	0.36111417
34	0x3e2e4a03	0.1702042
35	0xbf5798ca	-0.8421751
36	0xbe9b27b8	-0.3030374
37	0xbd9d1394	-0.0766975
38	0x3ea63c8e	0.32468075
39	0xbeb6e82f	-0.35724017
40	0xbd7523fd	-0.059848774
41	0x3e473c90	0.19456697
42	0xbeb1209e	-0.34595197
43	0xbe7843a5	-0.24244554
44	0xbe3f7420	-0.18696642
45	0xbf41a128	-0.7563653
46	0xbf0d6c3d	-0.55243284
47	0x3ee9df9a	0.45678407
48	0xbf554f1f	-0.83323854
49	0x3dbcd39b	0.09220048
50	0xbebe8690	-0.37212038
51	0xbf352289	-0.7075582
52	0x3d82ff26	0.06396322
53	0xbea3b158	-0.3197124
54	0xbe0e1a51	-0.13877226
55	0xbf154cd7	-0.58320373
56	0x3d7ef3db	0.062244277
57	0x3f36a432	0.7134429
58	0x3e7e6917	0.24844776
59	0x3ef5127b	0.47865662
60	0x3d787534	0.06065865
61	0x3e77cf65	0.24200208
62	0xbf70c5b3	-0.94051665
63	0x3f0e33aa	0.55547583
64	0x3d616db1	0.05503625
65	0xbef18847	-0.47174284
66	0x3f806b6b	1.0032781
67	0x3e9bf6a5	0.30461612
68	0xbe5c3b06	-0.2150689
69	0xbdd25156	-0.1026942
70	0xbe14cd3a	-0.14531413
71	0xbec3b7eb	-0.38226256
72	0xbea98bd1	-0.33114484
73	0x3eff4897	0.4986007
74	0xbd03b58f	-0.03215557
75	0x3ec6c93b	0.38825402
76	0xbdea1b7d	-0.11431024
77	0x3d8210e9	0.063508816
78	0x3dbf74e4	0.09348467
79	0x3f3bf86d	0.7342594
80	0xbbd42215	-0.0064737895
81	0xbe89afd2	-0.26891953
82	0xbd1d69a2	-0.038430817
83	0x3f82655c	1.0187182
84	0xbe42d55f	-0.19026707
85	0x3efcb0d9	0.49353674
86	0x3edea3bd	0.43484297
87	0xbf6d0cac	-0.9259746
88	0x3dac615e	0.08417009
89	0xbd4f9f01	-0.050688747
90	0x3ef55a61	0.47920516
91	0x3f5b1c2e	0.85589874
92	0x3f0bad22	0.54561055
93	0x3f089157	0.5334677
94	0x3f3f46bc	0.7471731
95	0xbcb485a3	-0.02203638
96	0xbca508d0	-0.020145804
97	0x3e16cd8f	0.14726852
98	0xbef0557d	-0.46940222
99	0xbc009ef3	-0.007850396
100	0x3e962de3	0.29331884
101	0x3f552ed9	0.8327461
102	0x3d26ecb7	0.040753093
103	0x3f273230	0.65310955
104	0xbe3417bd	-0.1758718
105	0x3f126e27	0.5719933
106	0xbd4711b9	-0.048600886
107	0xbe5950a6	-0.21222171
108	0x3e9dc417	0.30813667
109	0x3ef214ae	0.47281402
110	0x3e833507	0.25626394
111	0xbe401b02	-0.18760303
112	0x3f81d1d0	1.0142155
113	0x3e8703d6	0.26370114
114	0x3ef9b0fc	0.4876784
115	0xbdc5f681	-0.096661575
116	0x3f1f8947	0.62318844
117	0xbdf88f11	-0.12136663
118	0x3e44f040	0.19232273
119	0x3f2592f9	0.6467739
120	0x3e368319	0.17823447
121	0xbe7440f8	-0.23852909
122	0x3eaaa2e3	0.33327398
123	0xbf5fbfa7	-0.87401813
124	0x3dd1e59d	0.102488734
125	0x3eb0a046	0.3449728
126	0x3f29a31b	0.66264504
127	0x3d4bfd63	0.049802195
