scripts/abr_clustering/audiometric_deep_clustering/experiments/full_scale_audiometric_clustering_memory_optimized/20250619_164613_evident/checkpoints/joint/joint_epoch_25.pt (torch, 765081 bytes, 223 tensors)

encoder.abr_encoder.abr_projection.weight f4 [32, 6]
0	0xbda4d828	-0.08049041
1	0x3d02751a	0.031849958
2	0xbdc47433	-0.09592476
3	0xbe845d1a	-0.2585228
4	0xbe856114	-0.26050627
5	0xbe8ae167	-0.27125093
6	0xbd00467e	-0.031317227
7	0xbcb618b8	-0.022228584
8	0xbd971d79	-0.07378668
9	0xbf14b6c3	-0.5809137
10	0xbd77aaa3	-0.060465466
11	0x3e9848a4	0.2974292
12	0xbe7d5af1	-0.24741723
13	0xbe53a425	-0.20668085
14	0x3e1af2b2	0.15131643
15	0xbdfb39a5	-0.12266854
16	0xbce19965	-0.027538965
17	0xbecca47a	-0.39969236
18	0xbedc34f9	-0.43009165
19	0x3d8320d9	0.064027496
20	0x3e8650ef	0.26233622
21	0xbdf94b16	-0.12172525
22	0xbdae6ee8	-0.085172474
23	0x3e0b0402	0.13575748
24	0x3e61c39d	0.22047277
25	0xbe09e982	-0.13467982
26	0xbe8452ad	-0.25844327
27	0x3e38118a	0.1797544
28	0xbf0228f0	-0.50843716
29	0xbe560edb	-0.20904104
30	0xbe0be660	-0.136621
31	0x3e90354d	0.28165665
32	0x3de0d346	0.10977797
33	0x3f1ae02c	0.6049831
34	0x3d8931ea	0.066989735
35	0xbe150202	-0.14551547
36	0x3ea08745	0.31353202
37	0x3e8f277f	0.2795982
38	0x3de7fb55	0.11327235
39	0x3eb79e22	0.35862833
40	0xbdc9be46	-0.09850745
41	0x3dd200e3	0.102540754
42	0x3eb00ea5	0.34386173
43	0x3df4ff70	0.11962783
44	0xbe6e9d8f	-0.23302291
45	0x3ef49d54	0.47776282
46	0x3e03fdde	0.12889811
47	0x3ec99b44	0.3937627
48	0x3ee7b37f	0.45254132
49	0x3e821319	0.25405195
50	0x3eaa816c	0.33301866
51	0x3e67c537	0.22633825
52	0xbd1bc879	-0.038032982
53	0x3b8e4c09	0.00434256
54	0xbe75e791	-0.24014117
55	0xbe67354d	-0.22578926
56	0xbe5a7cf4	-0.21336728
57	0xbea30de1	-0.31846526
58	0xbcc62860	-0.024189174
59	0xbd929fd9	-0.07159395
60	0xbcf703e0	-0.030153215
61	0xbe878187	-0.2646601
62	0xbd6b4490	-0.057438433
63	0xbe701155	-0.23444112
64	0xbdf55b42	-0.11980297
65	0xbe9b7e5c	-0.30369842
66	0xbe83ff81	-0.25780872
67	0xbd879363	-0.06619909
68	0xbe7f1efe	-0.24914166
69	0xbe0226b7	-0.12710081
70	0xbe292472	-0.16517809
71	0xbeb57276	-0.3543889
72	0x3d82cd64	0.063868314
73	0x3b563ca2	0.0032689949
74	0x3f1985e1	0.5996991
75	0xbe131306	-0.14362726
76	0xbdd8ff87	-0.10595613
77	0xbe55d29a	-0.2088112
78	0x3dbce457	0.0922324
79	0x3df48f03	0.1194134
80	0x3e36724e	0.17817041
81	0x3dc3594e	0.09538518
82	0x3ea56481	0.3230324
83	0x3e631158	0.22174585
84	0x3e5863c8	0.21131814
85	0x3e6159cb	0.2200691
86	0x3e628bd0	0.22123647
87	0x3e896d36	0.26841134
88	0x3cd7fffb	0.026367178
89	0x3ddbce63	0.107327245
90	0x3f2465d6	0.6421789
91	0x3ec002af	0.37502047
92	0x3ead62d9	0.33864477
93	0xbdbec4f7	-0.09314912
94	0xbe019cb1	-0.1265743
95	0xbcff46d7	-0.031161709
96	0x3d9068e5	0.07051257
97	0x3f226ebb	0.6345021
98	0xbe3723c4	-0.17884737
99	0xbe72d3e2	-0.2371364
100	0xbe23d50a	-0.15999237
101	0x3d421305	0.04738142
102	0xbcb331c7	-0.021874322
103	0xbe6079b1	-0.21921422
104	0xbe44793a	-0.1918687
105	0xbe5fbf8d	-0.21850415
106	0xbd9ab481	-0.0755396
107	0xbe90fc04	-0.28317273
108	0x3e682917	0.22671925
109	0xbde0f258	-0.109837234
110	0xbe56d0bd	-0.20978065
111	0xbe0f2625	-0.13979395
112	0x3e6fe4de	0.2342715
113	0xbe73b9d4	-0.23801357
114	0x3d5c543d	0.053791273
115	0xbc599387	-0.013279802
116	0x3c7d9508	0.015477426
117	0x3dac6e7c	0.08419511
118	0xbef2fafb	-0.47457108
119	0x3d6d9c36	0.058010302
120	0xbef2648a	-0.4734233
121	0x3e1156c1	0.1419325
122	0xbebde811	-0.37091115
123	0xbe3e5ea2	-0.18590787
124	0xbccb1f1c	-0.024795108
125	0x3ca45cae	0.020063724
126	0xbdebbad6	-0.115102455
127	0xbe5b2c02	-0.21403506
128	0xbe15d113	-0.14630537
129	0xbe0b6e3e	-0.13616273
130	0x3ed40e2a	0.41417056
131	0x3ea84ee0	0.32872677
132	0x3f1287c1	0.57238394
133	0xbe1eec70	-0.15519881
134	0xbd44f9ae	-0.048089676
135	0xbddba013	-0.10723891
136	0x3e9cf046	0.30652064
137	0x3ea52e54	0.32261908
138	0xbe306259	-0.17225017
139	0xbdab840d	-0.08374796
140	0x3ed56e51	0.41685727
141	0x3d763602	0.0601101
142	0x3eec0323	0.46096143
143	0xbdae4983	-0.08510115
144	0xbeb93ad1	-0.36177686
145	0xbe906185	-0.28199401
146	0xbe86bd72	-0.2631641
147	0x3da828b6	0.0821089
148	0xbdf719f8	-0.120655
149	0xbdbfa592	-0.09357752
150	0xbf1d09a7	-0.61342853
151	0x3ea311c3	0.3184949
152	0x3cf4e652	0.029894982
153	0xbd5e534b	-0.054278653
154	0x3d23defc	0.040007576
155	0x3df093d1	0.11746944
156	0xbd83b7ca	-0.06431539
157	0x3e64bba9	0.22337212
158	0xbe2c7657	-0.16842018
159	0x3ef9245b	0.4866055
160	0x3e339e23	0.17540793
161	0x3e88cf58	0.2672069
162	0x3e43d2dd	0.19123407
163	0xbda74089	-0.08166606
164	0x3d8efe7b	0.06982132
165	0x3e590162	0.21191934
166	0x3e0414be	0.12898538
167	0x3e6a3c60	0.22874594
168	0x3d282484	0.04105045
169	0xbe9b3d48	-0.3032019
170	0xbdd481e9	-0.10376341
171	0xbe2b5733	-0.16732483
172	0xbda84996	-0.082171604
173	0xbea8c072	-0.32959324
174	0x3d24f547	0.040272977
175	0x3d99ee84	0.07516196
176	0xbeda75ae	-0.42667907
177	0x3d4d4418	0.050113767
178	0x3d1b58c3	0.037926447
179	0xbbc742dc	-0.0060809683
180	0x3d987eb0	0.07446039
181	0xbf107920	-0.5643482
182	0x3ce3cae9	0.027806716
183	0x3e299f76	0.16564736
184	0x3c03dcb2	0.008048223
185	0x3d858aa2	0.06520583
186	0xbe841fff	-0.2580566
187	0xbe0cf060	-0.13763571
188	0xbd2c05c6	-0.041997693
189	0xbe30a22f	-0.17249368
190	0xbceea916	-0.02913336
191	0xbe15ada7	-0.14617024

encoder.abr_encoder.abr_projection.bias f4 [32]
0	0x37523cd9	1.2531143e-05
1	0xb6443e58	-2.9242565e-06
2	0x36f65811	7.3416236e-06
3	0x37d3068f	2.5156214e-05
4	0x3851651c	4.992365e-05
5	0xb7e7a9f8	-2.7616494e-05
6	0xb7ad0e3e	-2.062984e-05
7	0xb6c26cb3	-5.794305e-06
8	0xb70d3f39	-8.418975e-06
9	0x37ee7350	2.8425507e-05
10	0x3707df4b	8.0986165e-06
11	0x36fc602b	7.5213807e-06
12	0x37fb0ff9	2.992897e-05
13	0xb6bd6d75	-5.6453814e-06
14	0x379ec37c	1.8926097e-05
15	0x37855d09	1.5898158e-05
16	0xb595a93f	-1.1150622e-06
17	0x379447df	1.7676442e-05
18	0xb780757a	-1.5313493e-05
19	0x37b1ffaa	2.1219097e-05
20	0xb88a0e1b	-6.58298e-05
21	0xb7fa2a94	-2.982215e-05
22	0xb73e2240	-1.1332857e-05
23	0x374bf49a	1.2156694e-05
24	0x36fdba52	7.561678e-06
25	0x3759bb79	1.2977857e-05
26	0x379a3997	1.8385048e-05
27	0xb7dbaa3e	-2.618611e-05
28	0x38272afe	3.9855942e-05
29	0xb7f52d1b	-2.922728e-05
30	0xb940c6a2	-0.00018384543
31	0x367d015c	3.770073e-06

encoder.abr_encoder.abr_norm.weight f4 [32]
0	0x3f531f01	0.82469183
1	0x3f40dfc2	0.7534143
2	0x3f4069de	0.7516154
3	0x3f373512	0.71565354
4	0x3f4ee297	0.808145
5	0x3f310dac	0.69161487
6	0x3f2ad29a	0.667276
7	0x3f51c64f	0.8194322
8	0x3f27efd4	0.65600324
9	0x3f68de6f	0.90964407
10	0x3f450384	0.7695849
11	0x3f566148	0.8374219
12	0x3f2f4a41	0.6847268
13	0x3f36d243	0.71414584
14	0x3f2d8f3e	0.67796695
15	0x3f3b3369	0.7312532
16	0x3f378954	0.7169392
17	0x3f687473	0.9080269
18	0x3f38cf24	0.7219107
19	0x3f417665	0.7557128
20	0x3f536845	0.8258098
21	0x3f1d573a	0.6146122
22	0x3f2b152b	0.66829175
23	0x3f2b62f2	0.66947854
24	0x3f6d7e3f	0.9277076
25	0x3f3e79ce	0.7440461
26	0x3f497e49	0.7870832
27	0x3f42db8a	0.7611624
28	0x3f3a590b	0.7279212
29	0x3f45d957	0.7728476
30	0x3f57d05d	0.8430231
31	0x3f587ea2	0.84568226

encoder.abr_encoder.abr_norm.bias f4 [32]
0	0xbe95f6aa	-0.29289752
1	0xbee9d819	-0.45672682
2	0xbf144376	-0.5791544
3	0xbf00f098	-0.50367117
4	0xbea2dd2b	-0.31809363
5	0xbf0fb56b	-0.56136197
6	0xbf10db65	-0.5658477
7	0xbe53e173	-0.20691471
8	0xbdea4402	-0.11438753
9	0xbe10a5dd	-0.14125772
10	0xbf08c9e8	-0.53433084
11	0x3d979c7f	0.07402896
12	0xbead4f59	-0.338496
13	0xbefe3418	-0.4964912
14	0xbe7c111d	-0.24615903
15	0xbeebce5c	-0.46055877
16	0xbf0aa7e0	-0.54162407
17	0xbe07d532	-0.13264921
18	0xbf00d1da	-0.5032021
19	0xbf20349c	-0.62580276
20	0xbed9163e	-0.42399782
21	0xbf0b3126	-0.5437187
22	0xbf01bda8	-0.5068002
23	0xbf072b65	-0.5280059
24	0xbdb662e8	-0.089055836
25	0xbefafe2d	-0.49022046
26	0xbeddb291	-0.43300298
27	0xbec3f6df	-0.38274285
28	0xbece55a7	-0.40299723
29	0xbf1d4dba	-0.61446726
30	0xbf05d3fb	-0.5227658
31	0xbe754ed9	-0.23955859

encoder.abr_encoder.abr_norm.running_mean f4 [32]
0	0xbe9522e5	-0.29128185
1	0xbe0bcd45	-0.13652523
2	0xbe89973c	-0.26873195
3	0xbd544e00	-0.0518322
4	0xbe681ddf	-0.22667645
5	0x3e6f8cec	0.23393601
6	0x3ea9f50d	0.3319477
7	0x3ec2e8da	0.38068277
8	0x3ec604e2	0.386756
9	0xbeae8ec6	-0.34093302
10	0xbea18778	-0.31548667
11	0xbec53a2a	-0.38520938
12	0x3d92f875	0.07176296
13	0x3ea613e4	0.3243705
14	0x3ea8b518	0.32950664
15	0x3eb46d41	0.35239604
16	0x3d71e8b9	0.059059832
17	0xbea1ef63	-0.3162795
18	0xbd98899d	-0.07448123
19	0xbdaeaca5	-0.08529023
20	0xbe8fd42b	-0.2809156
21	0x3d2c1c7b	0.04201935
22	0x3e91c6bd	0.28471938
23	0x3e3ef3d4	0.186477
24	0xbea97c45	-0.33102623
25	0xbd4d289a	-0.05008755
26	0x3e8ff22e	0.28114456
27	0x3e6f5f80	0.23376274
28	0xbe97f3b8	-0.2967813
29	0xbd96a248	-0.073551714
30	0xbd98226d	-0.07428441
31	0xbe7c3d66	-0.24632797

encoder.abr_encoder.abr_norm.running_var f4 [32]
0	0x3fb4fe6c	1.4140143
1	0x3ed7baf2	0.42134815
2	0x3f9b4a8c	1.2132125
3	0x3dd6f8ed	0.104966976
4	0x3f60c4da	0.8780037
5	0x3f837bf9	1.0272208
6	0x3fed1aac	1.8523765
7	0x401fef20	2.49897
8	0x401dc4c9	2.4651358
9	0x3ff6a4a4	1.9268994
10	0x3fd2a872	1.6457655
11	0x4019b6ae	2.401775
12	0x3e1f4654	0.15554172
13	0x3fdb459d	1.7130619
14	0x3fe4cdb0	1.7875271
15	0x400371a0	2.0538101
16	0x3e17899c	0.14798588
17	0x3fd1daed	1.6394936
18	0x3e0453b9	0.12922563
19	0x3e2269a5	0.15860613
20	0x3faa2bca	1.3294613
21	0x3dc564b7	0.096383505
22	0x3faf1269	1.3677493
23	0x3f20f05b	0.62866753
24	0x3fe20cf3	1.7660202
25	0x3e01438b	0.12623422
26	0x3fb3a036	1.4033267
27	0x3f696f15	0.9118512
28	0x3fb9c7f7	1.451415
29	0x3ded6ba9	0.115928
30	0x3e16c163	0.14722209
31	0x3f8052f5	1.0025316

encoder.abr_encoder.attention.q_projection.weight f4 [64, 1]
0	0x3e502c35	0.20329364
1	0x3e3929b4	0.18082315
2	0x3955aa0e	0.00020376613
3	0x3d9dced9	0.07705469
4	0x3c81ca21	0.015843453
5	0xbda15616	-0.07877748
6	0x3d331b64	0.043727294
7	0x3dc02a49	0.09383065
8	0x3c4d5445	0.012532298
9	0x3e179565	0.14803083
10	0xb7255a65	-9.855813e-06
11	0xbde93d76	-0.11388676
12	0x3d5cc92d	0.053902794
13	0x3a93103e	0.001122005
14	0x3e0ab8d3	0.13547067
15	0xbe13afcc	-0.1442253
16	0xbe8c8a3b	-0.2744921
17	0xbd695447	-0.05696514
18	0x38826377	6.21741e-05
19	0xbdd4e5b2	-0.103953734
20	0xbabfa835	-0.0014622273
21	0xbe4c1648	-0.19930375
22	0xbe5421d2	-0.20716026
23	0x3ce6692d	0.028126324
24	0x3c5c854b	0.013459514
25	0xb9a4843a	-0.00031379034
26	0x3d81ec2d	0.06343875
27	0x3897157f	7.204245e-05
28	0x3a8b1c7b	0.0010613346
29	0x38862734	6.39692e-05
30	0x3a858e67	0.0010189534
31	0x3caa6ea8	0.020804718
32	0xbcb88013	-0.022522008
33	0xbaa5e8fe	-0.0012657938
34	0x3a5ed64b	0.000850056
35	0x3df5c968	0.12001306
36	0xbe537722	-0.20650914
37	0xbc822e05	-0.015891084
38	0xbd42f761	-0.0475992
39	0xbe82fe5e	-0.25584692
40	0xbe83a445	-0.25711265
41	0x3df1d797	0.118086986
42	0xbe503199	-0.2033142
43	0xbe214ec5	-0.15752704
44	0xbd26834b	-0.040652554
45	0xbd5ab73e	-0.05339741
46	0x3b026e64	0.0019902224
47	0xbdde0331	-0.108404525
48	0xbde876db	-0.11350795
49	0xbb07401b	-0.0020637575
50	0xb9c88d08	-0.0003825205
51	0xbadfd1b1	-0.0017076043
52	0xb7598c19	-1.2966827e-05
53	0xbe108c9b	-0.14116137
54	0xbd4dcfd2	-0.05024702
55	0x3beefe79	0.007293519
56	0xbe018e76	-0.12652001
57	0x3adbce23	0.0016769808
58	0xbdf0d1e7	-0.11758786
59	0x3d31558c	0.043294474
60	0xbde11102	-0.10989572
61	0x3980e9e1	0.00024588316
62	0xbe548a78	-0.20755947
63	0x38cf49d7	9.884283e-05

encoder.abr_encoder.attention.q_projection.bias f4 [64]
0	0xbc28e270	-0.010307893
1	0xbc27f414	-0.010251064
2	0xbac15fd5	-0.0014753292
3	0xbc4c53f4	-0.012471188
4	0xbc65c5ac	-0.014024179
5	0x3c54edab	0.012996118
6	0xbc5f0e79	-0.01361429
7	0xbbdce336	-0.006740953
8	0x3ca21e6c	0.019789897
9	0xbb067814	-0.002051835
10	0x38213500	3.843475e-05
11	0x3b213f54	0.0024604397
12	0xbbd4728e	-0.0064833825
13	0xbaa1b7ac	-0.0012338064
14	0xbc4bfb34	-0.012450028
15	0x3bfff7bc	0.0078115147
16	0xbd24a46a	-0.04019586
17	0x3d558963	0.052132975
18	0xb8d70b6f	-0.000102541286
19	0x3999b929	0.0002932039
20	0x3aa66127	0.0012693749
21	0xbcfe0648	-0.031008855
22	0xbd0119ae	-0.03151863
23	0xbd3d2aad	-0.046183277
24	0xbcac3c96	-0.021024983
25	0x39838fa3	0.00025093285
26	0xbd35eba1	-0.044414166
27	0x3b77d4b6	0.0037815995
28	0xba5b3eb8	-0.0008363533
29	0xb894faa0	-7.1038725e-05
30	0xbb0428da	-0.002016595
31	0xbd2a9f01	-0.041655544
32	0xbcfee15e	-0.031113323
33	0xb9cf4446	-0.00039532984
34	0xbb7b12fb	-0.0038310874
35	0x3d03ec71	0.03220791
36	0x3d5d67bc	0.054054007
37	0x3d00599f	0.03133547
38	0x3c7916af	0.015203162
39	0xbcd3ccfc	-0.02585458
40	0xbd0ad279	-0.03389213
41	0xbd58aad6	-0.052897297
42	0xbd0804a9	-0.03320757
43	0xbc8391c4	-0.016060717
44	0x3d344728	0.044013172
45	0xbceeca97	-0.029149337
46	0x3ab7b9a0	0.0014017113
47	0x3d37a050	0.04483062
48	0x3b98fba3	0.0046686693
49	0xbb810a37	-0.0039379853
50	0xbac0c60f	-0.0014707464
51	0x3bf167e5	0.0073671215
52	0x3a13e6e3	0.000564201
53	0x3b613e1f	0.0034369302
54	0x3c0172cd	0.007900906
55	0x3bcce574	0.006252939
56	0x3a814819	0.0009863406
57	0x3bc44e11	0.0059907516
58	0x3c5f0be7	0.013613678
59	0xbc2d2df9	-0.010570043
60	0x3c67189f	0.014104991
61	0x3b437e64	0.0029829973
62	0x3c5e0216	0.013550302
63	0x39ec6b1e	0.00045093236

encoder.abr_encoder.attention.k_projection.weight f4 [64, 1]
0	0x3da2524a	0.07925852
1	0xbe315fb9	-0.17321672
2	0xb93478b7	-0.00017211107
3	0xbda53dcb	-0.08068427
4	0xbb943d48	-0.004523907
5	0x3d7b33e8	0.0613288
6	0xbd2881fb	-0.041139584
7	0x3dd32ad2	0.10310902
8	0xbc358e7d	-0.011081335
9	0x3e51c9bc	0.20487112
10	0x3613f4df	2.204724e-06
11	0xbe4095a3	-0.18807082
12	0x3dbf3a87	0.09337335
13	0x3a19620c	0.0005851097
14	0xbd98e271	-0.07465065
15	0xbdc96362	-0.09833409
16	0x3e8ab66e	0.27092308
17	0xbdda8f7d	-0.106718995
18	0x3741037c	1.1504508e-05
19	0x3d2e0fb0	0.04249543
20	0xba4f2b44	-0.00079028704
21	0x3e229a7f	0.15879248
22	0x3e26f763	0.16305308
23	0x3d576c55	0.052593548
24	0x3b9259df	0.00446628
25	0xb90985a3	-0.00013115122
26	0x3c92a066	0.01789875
27	0x3a7047ab	0.0009165953
28	0x3a3fffc7	0.00073241856
29	0x37b50580	2.1579443e-05
30	0x391ad762	0.00014766821
31	0x3d09aef4	0.033614114
32	0x3cb45416	0.022012752
33	0xba5c731b	-0.0008409486
34	0xb8eb9e4d	-0.00011235159
35	0x3e5c3a8f	0.21506713
36	0x3e36962d	0.17830725
37	0x3c51199a	0.012762452
38	0xbc352d80	-0.011058211
39	0xbe2378e8	-0.15964091
40	0xbe7d459f	-0.2473359
41	0xbe2ea3b2	-0.17054632
42	0xbe709656	-0.23494849
43	0xbdca05b4	-0.09864369
44	0x3d41892b	0.047249954
45	0xbe2ba2d4	-0.16761333
46	0x3ae0c4af	0.001714846
47	0x3d294500	0.04132557
48	0x3dd53ec4	0.10412362
49	0xbb1b328d	-0.0023681254
50	0xba16646b	-0.00057370093
51	0x39c23c45	0.00037047468
52	0x394103ca	0.00018407326
53	0x3dfb223b	0.12262388
54	0x3d71239a	0.058871843
55	0x395c51a8	0.00021011254
56	0x3e24e174	0.16101629
57	0x3aee8903	0.0018198792
58	0xbe235a07	-0.15952311
59	0xbd0e02af	-0.034670528
60	0xbe0b2701	-0.13589098
61	0x3a55e336	0.0008159162
62	0xbe3665f5	-0.17812331
63	0x393ebc99	0.0001819007

encoder.abr_encoder.attention.k_projection.bias f4 [64]
0	0x3567abb6	8.630408e-07
1	0xb6a0f769	-4.797174e-06
2	0xb09dd9a3	-1.148511e-09
3	0xb563fc68	-8.493139e-07
4	0xb456c8ba	-2.0003327e-07
5	0x34daff05	4.0791215e-07
6	0x3560dc4d	8.376708e-07
7	0xb6485e0e	-2.985707e-06
8	0xb4cf5d97	-3.862485e-07
9	0xb5a91ab3	-1.2599252e-06
10	0x2fbb6402	3.4086162e-10
11	0x34b9b490	3.4590312e-07
12	0xb52a7023	-6.3493115e-07
13	0xb1e35098	-6.615732e-09
14	0x35d04ebd	1.5520123e-06
15	0x351d4e4c	5.8600995e-07
16	0x37105b26	8.604291e-06
17	0x3608ab9e	2.0365474e-06
18	0xb101d2d0	-1.8891804e-09
19	0x361e6574	2.3602888e-06
20	0x32c98dcd	2.3463963e-08
21	0x359ac52c	1.1531279e-06
22	0xb59c90e8	-1.1665079e-06
23	0xb56e403a	-8.875537e-07
24	0xb397e508	-7.073146e-08
25	0x308a6188	1.0068542e-09
26	0xb5d45311	-1.5819406e-06
27	0x32c52a08	2.2952932e-08
28	0xb26e98ed	-1.3888195e-08
29	0xb0f0b998	-1.7515047e-09
30	0xb3065f4e	-3.1285985e-08
31	0xb521e1ee	-6.0305945e-07
32	0xb4bba3ec	-3.4950733e-07
33	0xb2ae654f	-2.0302336e-08
34	0x32651a58	1.3335544e-08
35	0xb5a00c95	-1.1924591e-06
36	0xb666eae0	-3.4409386e-06
37	0xb42873fa	-1.5688411e-07
38	0x35247176	6.125987e-07
39	0xb5f37e57	-1.8141681e-06
40	0x36823dbe	3.8814896e-06
41	0xb4ef8718	-4.4615513e-07
42	0xb5a84eb5	-1.2539882e-06
43	0xb47c4365	-2.3493847e-07
44	0xb3b225f1	-8.2956724e-08
45	0x34e7c992	4.3173765e-07
46	0xb13419d9	-2.620814e-09
47	0xb4c8194f	-3.7271317e-07
48	0xb14b484e	-2.9581488e-09
49	0x33c2e7ff	9.076029e-08
50	0x32e6b929	2.6859725e-08
51	0x314ab077	2.9495177e-09
52	0xb2861e33	-1.5613386e-08
53	0x36a5f9e0	4.9464725e-06
54	0x360415f0	1.9682302e-06
55	0xb346d246	-4.629171e-08
56	0x3632a759	2.6621476e-06
57	0xb3a443ad	-7.649155e-08
58	0x3654c566	3.1705363e-06
59	0x34882984	2.536218e-07
60	0x355ff2c6	8.3427256e-07
61	0xb34bfa0c	-4.7492037e-08
62	0x37441b9d	1.168894e-05
63	0xb2459b2b	-1.150219e-08

encoder.abr_encoder.attention.v_projection.weight f4 [64, 1]
0	0xbd95d5bb	-0.073161565
1	0x3e66a6ce	0.22524568
2	0xbc06eb39	-0.008234792
3	0xbb2789c9	-0.0025564304
4	0xbe2943d2	-0.16529778
5	0x3e32923c	0.17438596
6	0xbdf7cc8e	-0.120995626
7	0x3ac80d39	0.001526273
8	0x3d96ed1b	0.07369443
9	0xbe3bda2c	-0.18344945
10	0x3b12b1f2	0.0022383896
11	0x3e73e071	0.23816086
12	0xbe683200	-0.22675323
13	0x3ea550d7	0.32288238
14	0x3d09ffd1	0.03369123
15	0x3e5dc809	0.21658339
16	0xbdd01d49	-0.10161836
17	0x3e69c237	0.22827993
18	0xbdce51bd	-0.10074184
19	0xbe197c2d	-0.14988776
20	0x3e736d96	0.23772272
21	0xbe4c1517	-0.1992992
22	0x3e7b77ab	0.24557368
23	0xbbffe3e9	-0.0078091514
24	0xb98a6399	-0.00026395617
25	0x3e8f79c1	0.28022578
26	0x3e6ef050	0.2333386
27	0x3a0e3d97	0.0005426048
28	0xbe981546	-0.2970373
29	0xbbc7d7f9	-0.006098744
30	0xb8fd3ebc	-0.00012075665
31	0x386fff39	5.7219735e-05
32	0xb88a7d52	-6.6036955e-05
33	0x378d0e86	1.6815273e-05
34	0xbead2f8d	-0.3382534
35	0xbe2688c1	-0.16263105
36	0xb95fe506	-0.00021352255
37	0xbe8cffb3	-0.27538833
38	0x3d36d801	0.04463959
39	0xbe70da92	-0.23520878
40	0xbcf7a977	-0.030232174
41	0xbd6ffe8f	-0.058592375
42	0xba644ec8	-0.0008709249
43	0xb5ab0ee1	-1.2744823e-06
44	0xbb557f4d	-0.0032577098
45	0x37fca2b9	3.0116515e-05
46	0x3e127dfe	0.14305875
47	0x3db99c9d	0.09063075
48	0x3d9167aa	0.070998505
49	0x3e9ec083	0.3100625
50	0x3eb8a748	0.36065125
51	0x3ea58836	0.32330483
52	0x3df8cdf5	0.12148658
53	0xbe63946c	-0.22224587
54	0x3ae2b66f	0.0017296801
55	0xbcc4c9eb	-0.024022063
56	0x3e87c26e	0.26515526
57	0x3ee48fee	0.4464106
58	0xbb0d6866	-0.002157712
59	0x3d56c634	0.052435115
60	0xbd3b2b7f	-0.045695778
61	0xbcd34fe1	-0.025794925
62	0x3e983cf7	0.29734012
63	0xbd2b8960	-0.041879058

encoder.abr_encoder.attention.v_projection.bias f4 [64]
0	0x3b853b49	0.004065905
1	0x3d2fc7cd	0.042915154
2	0xbbc71385	-0.006075325
3	0x3b5e8202	0.0033952002
4	0xbd2bc45c	-0.04193531
5	0x3d26f33f	0.04075932
6	0xbd24ede8	-0.040265948
7	0x3b17afd1	0.0023145566
8	0x3cdd0310	0.026979
9	0xbd368b5f	-0.04456651
10	0xbb118d3a	-0.0022209422
11	0x3d384526	0.04498782
12	0xbd3864d3	-0.04501803
13	0x3d3873ae	0.045032196
14	0xbce2eaee	-0.027699914
15	0x3d322206	0.04348948
16	0xbd78e0a2	-0.0607611
17	0x3d947910	0.07249653
18	0x3d392653	0.045202564
19	0xbd8930ec	-0.06698784
20	0x3d95ba65	0.073109426
21	0xbd924266	-0.07141571
22	0x3d961f60	0.07330203
23	0xbac9bd6d	-0.0015391536
24	0xb93bdecb	-0.00017916707
25	0x3d98af22	0.07455279
26	0x3d94e8d2	0.072709695
27	0x38fad129	0.00011959888
28	0xbd986874	-0.07441798
29	0xbab9f85e	-0.0014188399
30	0xb80b7f00	-3.325846e-05
31	0x3a8f27bd	0.0010921877
32	0xb956a85a	-0.00020471346
33	0xb705cc79	-7.975025e-06
34	0xbd9ac1c1	-0.07556487
35	0xbd92905c	-0.071564406
36	0x397453a6	0.00023300815
37	0xbd990042	-0.07470752
38	0x3d308ff9	0.043106053
39	0xbd9a6ea9	-0.07540638
40	0xbcea3993	-0.028591907
41	0x3db1bf7b	0.086791
42	0xb9eb0e58	-0.0004483338
43	0x39178d34	0.00014453084
44	0xbb0c9775	-0.002145258
45	0x39990a85	0.00029190272
46	0x3d8e12a3	0.069371484
47	0x3d838541	0.064219005
48	0x3caa7833	0.020809269
49	0x3d8ecf82	0.06973173
50	0x3d9be703	0.07612421
51	0x3d8f240a	0.06989296
52	0x3d21cf7c	0.039504513
53	0xbd848782	-0.064711586
54	0x3a3da598	0.0007234453
55	0xbc24647a	-0.010033721
56	0x3d8e3d76	0.069453165
57	0x3d8fb44b	0.0701681
58	0xba041a1c	-0.0005039291
59	0x3cf6a769	0.030109124
60	0xbc6f6f65	-0.014613961
61	0xbc2d72a0	-0.010586411
62	0x3d915bd2	0.070975915
63	0xbc6e758f	-0.014554395

encoder.abr_encoder.attention.output_projection.weight f4 [1, 64]
0	0x3d02d905	0.031945247
1	0x3e63ff35	0.22265323
2	0xb9fc8e7f	-0.00048171353
3	0xbafab261	-0.0019126647
4	0xbdd988ae	-0.10621773
5	0x3e4087e0	0.18801832
6	0xbd3a6b86	-0.0455127
7	0x391a6778	0.0001472513
8	0x3d4b4dba	0.049634673
9	0xbdc13716	-0.09434335
10	0x3ac7c857	0.0015242201
11	0x3e23662b	0.15956943
12	0xbe13bd21	-0.14427616
13	0x3e7be475	0.24598868
14	0x3cd064b7	0.02543865
15	0x3e32c9ff	0.17459868
16	0xbdef71bf	-0.11691617
17	0x3e0389be	0.12845513
18	0x3dcb6080	0.09930515
19	0xbdfb2564	-0.12262991
20	0x3e90eec3	0.2830716
21	0xbe3fb5b8	-0.18721664
22	0x3dfcc347	0.12341934
23	0x38916c1b	6.934275e-05
24	0x383894bd	4.4007542e-05
25	0x3e0fea3e	0.140542
26	0x3de553f1	0.11197651
27	0xb8343d5b	-4.2972486e-05
28	0xbe88e035	-0.26733556
29	0xba14425b	-0.00056556397
30	0x36cd8d31	6.125913e-06
31	0x374a2f08	1.2051089e-05
32	0xb8bf4d76	-9.122018e-05
33	0x3680d6b4	3.839692e-06
34	0xbe92667b	-0.2859381
35	0xbe8162d8	-0.25270724
36	0xb9021d00	-0.0001240857
37	0xbe90a32b	-0.28249487
38	0x3cffbd83	0.031218296
39	0xbe00e8f3	-0.12588863
40	0xbba0d0d8	-0.0049077086
41	0x3d9f9fe2	0.07794167
42	0x39789874	0.00023707916
43	0x37e11708	2.6832815e-05
44	0xba56968f	-0.0008185887
45	0x38bac15c	8.905187e-05
46	0x3da87717	0.082258396
47	0x3e214c1a	0.15751687
48	0x3cfe6303	0.031053072
49	0x3e898672	0.26860386
50	0x3e4356e2	0.19076112
51	0x3e937a2e	0.28804153
52	0x3d9ab927	0.07554846
53	0xbe72fa7f	-0.23728369
54	0xb7c3311e	-2.3268683e-05
55	0xbb2bd6fb	-0.0026220668
56	0x3e368dff	0.17827605
57	0x3eea9d12	0.4582296
58	0x39ef0a2a	0.00045593205
59	0x3d53466c	0.05158083
60	0xbc82b565	-0.015955636
61	0xbb6b8613	-0.0035938069
62	0x3e512b9f	0.20426796
63	0xbc496833	-0.012292909

encoder.metadata_encoder.metadata_projection.weight f4 [48, 12]
0	0x3c3e309d	0.01160827
1	0xbcffd97d	-0.031231636
2	0xbd588730	-0.0528633
3	0x3ba45699	0.005015206
4	0xbe9e9b02	-0.30977637
5	0xbed76238	-0.42067122
6	0xbebfa5b0	-0.37431097
7	0xbd25c614	-0.040472105
8	0x80057b30	-5.03369e-40
9	0x3e027cd6	0.12742934
10	0x3ecde8a6	0.4021656
11	0x3dded466	0.108803555
12	0xbc9633fc	-0.018335335
13	0x3bba44a5	0.0056844526
14	0x3dfa2967	0.12214928
15	0x3dadfb01	0.08495141
16	0x3dd2051e	0.10254882
17	0x3da2de1d	0.07952521
18	0x3dfc303e	0.12313889
19	0x3d081eca	0.033232488
20	0x3de8bb62	0.113638654
21	0x3e30814c	0.17236823
22	0xbeadf815	-0.33978334
23	0xbd92e36f	-0.07172286
24	0xbd9f49c8	-0.077777445
25	0xbc0df885	-0.008665209
26	0x3dc73aae	0.09727989
27	0x3e1c7ba6	0.15281543
28	0xbd4ab236	-0.04948636
29	0x3e1ae767	0.15127335
30	0x3e292505	0.16518028
31	0x3db878af	0.090073936
32	0x3b89a18d	0.0042001666
33	0xbe85f85c	-0.26166046
34	0xbe8c3085	-0.27380767
35	0x3d2d6416	0.042331778
36	0xbd16f49a	-0.036854364
37	0xbc011096	-0.00787749
38	0x3e84b57e	0.25919718
39	0x3e83df44	0.25756276
40	0x3d197b8e	0.037471347
41	0x3de83dd2	0.11339916
42	0x3e139829	0.14413513
43	0x3cdb9f5b	0.026809385
44	0x3c902b91	0.0175989
45	0x3dc000c6	0.093751475
46	0xbe9a1b0d	-0.30098763
47	0x3db7e9da	0.089801505
48	0xbd9719a8	-0.073779404
49	0x3c760894	0.015016694
50	0xbeb9b67a	-0.3627203
51	0xbe8cc480	-0.27493668
52	0xbe5d6889	-0.21621908
53	0xbea0a792	-0.31377846
54	0xbea4a797	-0.3215911
55	0xbe05819f	-0.13037728
56	0x3e22b9cc	0.15891188
57	0x3e03a568	0.12856066
58	0xbed682d2	-0.41896683
59	0xbd0d5f6b	-0.034514826
60	0xbc170e64	-0.00921974
61	0x3c5d55f8	0.013509266
62	0x3e049c0f	0.12950157
63	0x3dba9b0f	0.09111606
64	0x3aa675f9	0.0012699954
65	0x3c5e5126	0.013569152
66	0x3dbc15f2	0.09183873
67	0xbd262c77	-0.04056975
68	0xbd943f3c	-0.072386235
69	0x3c8fb953	0.017544424
70	0x3ee4b483	0.4466897
71	0x3d16728a	0.036730327
72	0xbd42e9ea	-0.04758636
73	0xbcf4aaf4	-0.029866673
74	0xbec36581	-0.3816338
75	0xbea95695	-0.3307387
76	0xbe5ceb4a	-0.2157413
77	0xbe6c18cc	-0.23056334
78	0xbf03de3d	-0.51510984
79	0xbba58c86	-0.005052152
80	0x00062bd9	5.66743e-40
81	0x3e41a1cd	0.18909378
82	0x3ed111db	0.40833935
83	0x3e347a30	0.17624736
84	0xbcd6616b	-0.0261695
85	0xbcbe5f91	-0.023238929
86	0xbdc23954	-0.09483591
87	0xbcd7ae03	-0.026328092
88	0xbeba8520	-0.3642969
89	0xbe553053	-0.20819215
90	0xbe63edb6	-0.22258648
91	0xbbf94e7d	-0.0076082335
92	0xbd1a35cc	-0.03764896
93	0x3d49e81f	0.049293634
94	0x3ea20550	0.31644678
95	0x3cbd80ed	0.023132766
96	0xbc491ad7	-0.0122744655
97	0x3bf25b20	0.007396117
98	0xbd13acb4	-0.036053374
99	0x3c74dad1	0.014944748
100	0xbd499235	-0.0492117
101	0xbe324b6d	-0.17411585
102	0xbdcb9fdc	-0.099426
103	0x3c1b99c4	0.00949711
104	0x3c900756	0.017581623
105	0x3d75e1ed	0.060029913
106	0x3f00947b	0.50226563
107	0x3ced54c5	0.028971085
108	0xbcc325e6	-0.023821782
109	0x3d033847	0.032036092
110	0x3e4c3d4a	0.19945255
111	0x3db96c0d	0.09053812
112	0x3dc912dc	0.0981805
113	0xbe5c3f89	-0.21508612
114	0xbe3838bf	-0.17990397
115	0x3d8cf93e	0.06883477
116	0x3cf0f3b4	0.029413082
117	0x3d82b696	0.06382482
118	0xbeb223f9	-0.3479307
119	0xbd342dc3	-0.043988954
120	0xbcf6385e	-0.030056175
121	0xbcd87ec6	-0.026427638
122	0x3ca40bf2	0.020025227
123	0xbe7359a2	-0.23764661
124	0xbd34ab8f	-0.044108924
125	0xbe295881	-0.16537668
126	0xbe4679ae	-0.19382355
127	0xbb666bbd	-0.0035159432
128	0xbd8b4f2f	-0.068022124
129	0xbe0a2d1b	-0.13493769
130	0x3eb12099	0.34595183
131	0x3bec133e	0.0072044423
132	0x3bea356b	0.007147481
133	0x3bacbb9c	0.005271388
134	0xbe553534	-0.20821077
135	0xbe7f9637	-0.24959646
136	0xbd9a794e	-0.07542668
137	0x3e0afffc	0.13574213
138	0x3db57c0f	0.08861553
139	0x3c737aa6	0.014860785
140	0x3c003196	0.007824322
141	0x3e0c1fb0	0.13683963
142	0x3ecb21cc	0.39674222
143	0x3c8a4f6e	0.016883578
144	0xbd8f0882	-0.069840446
145	0xba1181c1	-0.0005550646
146	0x3e2810cc	0.16412657
147	0x3e1949fa	0.14969626
148	0xbd58a415	-0.052890856
149	0x3d86642e	0.065620765
150	0x3d50bb11	0.05095965
151	0xbdb4e3c5	-0.08832506
152	0xbd81947f	-0.063271515
153	0xbdb21281	-0.086949356
154	0xbe9fd0b5	-0.31213918
155	0x3d24c956	0.04023107
156	0xbc472c24	-0.01215652
157	0x3d8bf413	0.06833663
158	0xbe632e25	-0.22185571
159	0xbe856d02	-0.2605973
160	0xbecdc772	-0.40191227
161	0xbe134085	-0.14380081
162	0xbe7897de	-0.24276683
163	0x3b99d205	0.0046942257
164	0x32a11eb3	1.8756827e-08
165	0x3e47577c	0.19466966
166	0x3eb2c4d8	0.34915805
167	0x3d919837	0.07109111
168	0xbd3a74d7	-0.045521583
169	0xbb1f540e	-0.0024311575
170	0x3d29dd5b	0.041470867
171	0x3dc1b1d7	0.094577484
172	0xbda47e97	-0.080319576
173	0xbd4a6792	-0.04941518
174	0xbdc39269	-0.0954941
175	0xbc8dc9f8	-0.01730822
176	0x3e1b2f34	0.15154725
177	0x3e556cfb	0.20842354
178	0xbf24be05	-0.64352447
179	0xbd85623b	-0.065128766
180	0xbd6aa07a	-0.05728195
181	0x3afd8b44	0.0019343873
182	0xbf0ccb79	-0.54997975
183	0xbeab2e56	-0.3343379
184	0xbd941bb4	-0.072318465
185	0xbe04d7ff	-0.12973021
186	0xbeb0fd20	-0.3456812
187	0xbbdc48c2	-0.0067225406
188	0x8005a9ae	-5.20047e-40
189	0xbe377d81	-0.1791897
190	0x3ea63656	0.3246333
191	0x3dc933c7	0.09824329
192	0xbda0372e	-0.07823025
193	0x3cbc192b	0.02296122
194	0xbe4f70b7	-0.20257841
195	0xbe80f93e	-0.25190157
196	0xbe29c128	-0.1657759
197	0xbe88fa89	-0.26753643
198	0xbe96f2f7	-0.29482242
199	0xbb808137	-0.0039216536
200	0x0005c705	5.30572e-40
201	0xbd31d89e	-0.043419473
202	0x3ed00a45	0.40632835
203	0x3e132153	0.14368181
204	0xbbd7efc7	-0.006589863
205	0xbb20a94e	-0.0024514976
206	0xbe24cbed	-0.16093417
207	0xbeb072be	-0.3446254
208	0xbe49b8a8	-0.19699347
209	0xbeac88ab	-0.3369802
210	0xbe0615c0	-0.13094234
211	0xbba19463	-0.004931019
212	0x8006244a	-5.64031e-40
213	0x3b210d98	0.0024574753
214	0x3e9cdacc	0.3063568
215	0x3dbda048	0.09259087
216	0x3d4d4e5d	0.05012356
217	0x3b074105	0.002063812
218	0x3e7d7d9e	0.2475495
219	0x3e8886de	0.26665395
220	0xbe1d2eca	-0.1534988
221	0xbe7ba979	-0.24576367
222	0xbe51e20d	-0.20496388
223	0xbdb1b3bf	-0.08676862
224	0x3cf483f0	0.029848069
225	0xbd610da4	-0.05494465
226	0x3ed8a185	0.4231073
227	0x3b806872	0.003918701
228	0x3c457825	0.0120525705
229	0x3ca80225	0.020508835
230	0xbe20d394	-0.1570571
231	0xbea33fb5	-0.31884542
232	0xbe2791c3	-0.16364197
233	0xbd8ee5b0	-0.06977403
234	0x3d17c879	0.03705642
235	0xbcdcf75b	-0.026973417
236	0x3cfd6bed	0.030935252
237	0xbe0a9bcc	-0.13535994
238	0x3edb7340	0.42861366
239	0xbcd5421f	-0.026032506
240	0xbd8c3e65	-0.06847838
241	0x3dee7d33	0.116449736
242	0xbde6dd71	-0.11272705
243	0xbea4bba6	-0.32174414
244	0xbe559b97	-0.20860134
245	0xbebc6cec	-0.3680185
246	0xbe371484	-0.1787892
247	0xbbadf3af	-0.0053085904
248	0x0005d0a2	5.34021e-40
249	0x3e4f2f53	0.20232897
250	0x3ec3cea6	0.38243598
251	0x3e09d72a	0.13460985
252	0xbd3a3fbc	-0.045470938
253	0x3d3d93cc	0.04628353
254	0xbd9240bf	-0.071412556
255	0xbdf047c6	-0.1173244

encoder.metadata_encoder.metadata_projection.bias f4 [48]
0	0xbeb307cb	-0.34966883
1	0xbd4360fc	-0.047699913
2	0x3d6b8d49	0.057507787
3	0xbc3f61a2	-0.011680992
4	0xbe4b7c1c	-0.19871563
5	0xbe5e13be	-0.21687219
6	0xbf0b4fb3	-0.54418486
7	0xbdfd790b	-0.12376603
8	0xbe76805b	-0.24072401
9	0x3cfd88a5	0.030948946
10	0xbe73e72f	-0.23818658
11	0xbe4a6c03	-0.19767766
12	0xbe02391b	-0.12717097
13	0xbe809eeb	-0.25121245
14	0x3cefb76b	0.029262265
15	0xbeb5d380	-0.35512924
16	0xbef8d0c7	-0.48596784
17	0xbedcd3e3	-0.43130407
18	0xbd6fbe08	-0.058530837
19	0xbe183074	-0.14862233
20	0xbefa2392	-0.48855263
21	0xbd7426ae	-0.0596072
22	0xbeb54249	-0.35402134
23	0x3d1b5bce	0.03792935
24	0xbd659ec6	-0.05605962
25	0xbed236e7	-0.41057512
26	0xbc9b495a	-0.018955875
27	0xbeac2b57	-0.33626816
28	0xbeaa0ab5	-0.33211294
29	0xbe19920e	-0.14997122
30	0xbe94ee1e	-0.2908792
31	0xbe5bbe52	-0.2145932
32	0xbe903963	-0.28168783
33	0xbe0e485c	-0.1389479
34	0xbdf2e040	-0.118591785
35	0x3d28a2b7	0.041170802
36	0xbefb218c	-0.49049032
37	0xbd374466	-0.044742964
38	0xbe218fb6	-0.15777478
39	0xbe4fa4ce	-0.20277712
40	0xbe11ac3d	-0.1422586
41	0xbe172cd5	-0.14763196
42	0xbd106212	-0.035249777
43	0xbe5e603d	-0.217164
44	0xbca7c28c	-0.02047851
45	0xbea310b2	-0.31848675
46	0xbd96021b	-0.0732462
47	0xbe3097bd	-0.17245384

encoder.encoder_layers.0.0.weight f4 [128, 80]
0	0xbdde8992	-0.10866083
1	0x3abd0a23	0.0014422577
2	0xbd636050	-0.055511773
3	0xbd0b93c7	-0.03407648
4	0x3dac792e	0.08421551
5	0xbcb0894c	-0.021549843
6	0xbdc1f9db	-0.09471484
7	0xbc910975	-0.017704705
8	0x3d71fa82	0.059076793
9	0xbde851da	-0.11343737
10	0xbdaf0099	-0.08545036
11	0xbdc7db67	-0.097586446
12	0x3dcf696e	0.10127531
13	0x3e2ed00d	0.17071553
14	0x3ca26c6f	0.019827096
15	0x3e0b5e10	0.13610101
16	0xbc95e9c9	-0.018299954
17	0xbd99564b	-0.07487162
18	0xbcf95b0d	-0.030438924
19	0xbc12e11b	-0.008964802
20	0xbdc1546a	-0.09439929
21	0xbc67e3bd	-0.014153418
22	0x3b84bf99	0.0040511605
23	0x3d61eefb	0.05515955
24	0xbde94049	-0.113892145
25	0xbd1babbc	-0.038005576
26	0x3e0858b7	0.13315092
27	0xbc14c6d9	-0.009080612
28	0xbdca056d	-0.09864316
29	0xbd12feba	-0.035887457
30	0x3e352e8a	0.17693534
31	0xbcdf0f9d	-0.027229125
32	0xbc021122	-0.007938655
33	0xbe93ebee	-0.28890938
34	0xbe126184	-0.14295012
35	0xbdf7819d	-0.12085269
36	0xbcf5922e	-0.02997693
37	0x3d82ead2	0.06392445
38	0x3d32fdfd	0.043699253
39	0x3ab5c978	0.0013869246
40	0x3df95702	0.121747985
41	0xbe2ae0e9	-0.16687359
42	0x3e2e4e20	0.1702199
43	0x3e29483a	0.16531458
44	0xbe912c99	-0.28354338
45	0x3ded0e95	0.11575047
46	0xbe27742c	-0.1635291
47	0x3e086b3f	0.13322161
48	0x3da22fea	0.07919295
49	0x3e34661c	0.17617077
50	0x3df83a58	0.12120503
51	0x3e442d20	0.19157839
52	0x3dc0528c	0.093907446
53	0xbe0d7f78	-0.13818157
54	0x3ddb9f2a	0.107237175
55	0xbdc52224	-0.096256524
56	0xba5aab89	-0.0008341601
57	0x3da09e64	0.078427106
58	0xbda3fea2	-0.08007552
59	0x3e37e227	0.17957364
60	0xbd953565	-0.07285575
61	0x3d42da7a	0.047571637
62	0x3e2ac126	0.16675243
63	0xbc8efed8	-0.017455503
64	0x3dbf3b26	0.093374535
65	0x3d25922d	0.040422607
66	0xbcd9cae8	-0.026586011
67	0xbe77a6c0	-0.24184704
68	0x3d560d70	0.05225891
69	0xbd15cd44	-0.03657271
70	0xbbce82e1	-0.006302223
71	0x3e495aa5	0.19663484
72	0x3e01b6f3	0.12667446
73	0x3e725b0c	0.23667544
74	0xbdd27212	-0.102756634
75	0x3dfa9fd7	0.12237518
76	0xbe8e20ed	-0.27759495
77	0x3d9d0a69	0.07668001
78	0xbe4f51ce	-0.2024605
79	0x3de51112	0.111848965
80	0x3c9e244c	0.019304417
81	0x3defe068	0.11712724
82	0x3d8740ca	0.066041544
83	0x3e1d13f5	0.15339644
84	0x3e1568f8	0.14590824
85	0xbdcf5b65	-0.10124854
86	0xbd40cfb3	-0.047073077
87	0xbd425489	-0.0474439
88	0xbdec541e	-0.115394816
89	0x3e66bdc3	0.22533326
90	0x3d41ae76	0.04728552
91	0x3e71db58	0.23618829
92	0xbc2ae55a	-0.010430658
93	0x3d72fdaa	0.059323944
94	0x3d4c4384	0.049869075
95	0x3d2ec92c	0.04267232
96	0xbde62eab	-0.1123937
97	0x3e6f9362	0.23396066
98	0x3c57941c	0.013157871
99	0x3dbcb3fa	0.09214015
100	0xbd6d7ffd	-0.057983387
101	0xbdf624a0	-0.120187044
102	0x3d0dc74c	0.034613892
103	0x3d9e3b17	0.07726114
104	0x3e1e5179	0.15460767
105	0xbd0ca8d7	-0.034340706
106	0xbdb8195a	-0.089892104
107	0xbe061ddd	-0.1309733
108	0xbbe53c27	-0.006995696
109	0x3dfef145	0.12448362
110	0x3d239e88	0.03994611
111	0x3d9e6c5f	0.07735514
112	0xbd9ec623	-0.07752635
113	0x3d8d9449	0.06913049
114	0x3d4372cf	0.047716912
115	0xbdb9a39d	-0.0906441
116	0x3d3f2517	0.04666623
117	0xbd74f064	-0.059799567
118	0x3c9a00d9	0.018799232
119	0xbc8b49f8	-0.017003044
120	0xbe0627b8	-0.13101089
121	0x3d378141	0.044801
122	0x3cf03fd8	0.029327318
123	0xbd50b358	-0.050952286
124	0x3daa2870	0.08308494
125	0x3cb7f2bb	0.02245461
126	0x3e3f3966	0.1867424
127	0xbe146092	-0.14489964
128	0xbc217e42	-0.009856762
129	0xbdc0c858	-0.094132125
130	0xbe0196af	-0.12655137
131	0x3cb4007f	0.021972893
132	0xbdc7fe43	-0.097652934
133	0x3e5bf012	0.21478298
134	0xbd2f1ecf	-0.04275399
135	0x3e73402c	0.23754948
136	0xbd846337	-0.06464236
137	0x3d5bf119	0.053696726
138	0x3c45e6da	0.012078965
139	0xbd8f97a3	-0.07011344
140	0xbd920b58	-0.0713107
141	0xbdf326f5	-0.11872665
142	0xbe0262db	-0.12733023
143	0xbdf860fc	-0.12127873
144	0xbe1a0720	-0.1504178
145	0x3cca01b0	0.024659008
146	0x3d4c8fde	0.04994189
147	0x3e1ad799	0.15121306
148	0xbc6d8bd2	-0.014498668
149	0x3e713d1b	0.23558466
150	0xbdeaf0db	-0.11471721
151	0xbe913083	-0.28357324
152	0xbd6df925	-0.05809893
153	0xbbeab4f5	-0.007162685
154	0x3dec3d86	0.11535172
155	0xbe257987	-0.1615964
156	0xbda7c612	-0.08192076
157	0xbdd631ac	-0.10458693
158	0x3d659551	0.056050602
159	0xbd31458c	-0.043279216
160	0x3d30996c	0.043115065
161	0x3e115e3d	0.14196105
162	0x3c0b5d2d	0.008506102
163	0x3dbe2bc0	0.092856884
164	0x3df71fcd	0.120666124
165	0x3bf22c6d	0.00739055
166	0x3e47973e	0.19491288
167	0xbd5ef6b7	-0.054434504
168	0xbcaf6c19	-0.02141385
169	0x3d9540b6	0.07287733
170	0x3d39bea2	0.045347817
171	0x3dac8394	0.08423534
172	0x3d906585	0.07050613
173	0x3e0b1ffe	0.13586423
174	0x3d5ccd1f	0.053906556
175	0x3dbe55b6	0.09293692
176	0x3e0817ec	0.13290375
177	0xbd3b24f9	-0.045689557
178	0x3de3b462	0.1111839
179	0x3e4a0caa	0.19731393
180	0x3d93ae92	0.07211031
181	0xbcf8421f	-0.030304966
182	0x3e339ccf	0.17540286
183	0x3d228d47	0.039685514
184	0x3da269c9	0.07930333
185	0xbd88ccff	-0.06679725
186	0x3da46951	0.080279
187	0xbdf78ba9	-0.12087185
188	0x3d5523d7	0.052036133
189	0x3dbe0f75	0.09280292
190	0x3e2b097d	0.16702838
191	0x3cc02268	0.023453906
192	0x3d782edf	0.060591575
193	0xbe0f17e1	-0.13973953
194	0xbddc6af4	-0.10762587
195	0xbe2621de	-0.16223857
196	0xbb2a13b0	-0.0025951676
197	0x3e22c622	0.15895894
198	0x3dc430c4	0.09579614
199	0x3e6b08b5	0.2295254
200	0x3d0f65df	0.03500926
201	0xbd0e6289	-0.03476194
202	0x3e55f8d6	0.20895705
203	0xbdd74776	-0.10511677
204	0xbda83c22	-0.082145944
205	0x3e9898b1	0.29803994
206	0xbd763227	-0.060106423
207	0x3e6a432a	0.22877184
208	0x3e4c42cf	0.1994736
209	0x3e838932	0.2569061
210	0x3b4b9b34	0.003106785
211	0xbd2241ac	-0.03961341
212	0x3e7009bb	0.23441212
213	0xbddad85a	-0.10685797
214	0x3d9fb057	0.07797306
215	0x3cf8f9f7	0.03039263
216	0x3bec8f37	0.007219221
217	0x3e534c93	0.2063468
218	0xbbbb8237	-0.00572231
219	0x3c9a4e89	0.018836277
220	0x3e7f4616	0.2492908
221	0x3e457b2e	0.1928527
222	0x3d0eea7a	0.034891583
223	0x3e2c17fc	0.16806024
224	0x3e38fd1b	0.18065302
225	0x3cb79dad	0.022414053
226	0xbdaadeb2	-0.08343257
227	0x3c133dc1	0.008986891
228	0x3e84b7e7	0.25921556
229	0xbb23792a	-0.0024944046
230	0x3e11ea9c	0.14249653
231	0xbd782dc8	-0.060590535
232	0x3c1a52f6	0.0094191935
233	0xbcca2c7a	-0.024679411
234	0xbe09d4b9	-0.13460054
235	0x3d97267b	0.073803864
236	0xbd75905b	-0.05995212
237	0x3c2e7fea	0.010650614
238	0x3a9aec6c	0.0011819727
239	0x3e1850c5	0.14874561
240	0xbd79dc29	-0.061000977
241	0xbd449e01	-0.048002247
242	0x3c8e29d5	0.017353931
243	0x3dbe10ae	0.09280525
244	0xbcb968c6	-0.022632968
245	0x3e35d857	0.17758308
246	0x3d68dae9	0.056849394
247	0x3de2383a	0.110458806
248	0x3e591065	0.2119766
249	0xbd90ebaa	-0.07076199
250	0x3e481de8	0.19542658
251	0xbdd41804	-0.10356143
252	0x3dff2063	0.12457349
253	0x3dff8fdd	0.124786116
254	0x3c1c46b4	0.009538341
255	0x3e5df378	0.21674907

encoder.encoder_layers.0.0.bias f4 [128]
0	0xb687af5a	-4.043727e-06
1	0xb5e66ac3	-1.7167407e-06
2	0xb629a26e	-2.527751e-06
3	0x37cec3d1	2.4648298e-05
4	0x3587170c	1.0064991e-06
5	0x36d42222	6.322066e-06
6	0x35c00be2	1.4308573e-06
7	0x35d54068	1.5888481e-06
8	0xb445337b	-1.8365783e-07
9	0xb6115511	-2.16562e-06
10	0xb5d0f14f	-1.5567438e-06
11	0xb79fb6cb	-1.9039397e-05
12	0x35027c96	4.861007e-07
13	0xb6b1dee0	-5.300957e-06
14	0xb79347e0	-1.7557235e-05
15	0x37848aed	1.5800319e-05
16	0xb79d057a	-1.8718409e-05
17	0xb780ac2e	-1.5338966e-05
18	0x36d3672c	6.300301e-06
19	0x37780299	1.4782557e-05
20	0x378160c6	1.5423062e-05
21	0x37a03b68	1.910115e-05
22	0x38373163	4.3676595e-05
23	0xb7d9719d	-2.5921321e-05
24	0x3717220b	9.008228e-06
25	0xb7187852	-9.08792e-06
26	0xb7906d83	-1.7217133e-05
27	0x368f0108	4.261852e-06
28	0x35ff20cc	1.9008526e-06
29	0xb798041d	-1.8121727e-05
30	0xb708e94c	-8.16055e-06
31	0xb74f6d8f	-1.236367e-05
32	0x38ad8a12	8.2750004e-05
33	0x3660e188	3.3509878e-06
34	0xb663baa4	-3.3934275e-06
35	0xb83c8c5e	-4.495342e-05
36	0xb4cbf8c4	-3.7992697e-07
37	0x355ddb96	8.2648455e-07
38	0xb6516ea8	-3.1207837e-06
39	0xb6b63c5d	-5.43105e-06
40	0x3767e38a	1.3821651e-05
41	0x37e74256	2.7568236e-05
42	0xb673bf15	-3.6321046e-06
43	0xb771a02f	-1.4402015e-05
44	0x36372d3c	2.7295455e-06
45	0x37a84551	2.0059439e-05
46	0xb730f0a7	-1.0546449e-05
47	0xb6e8f26f	-6.942362e-06
48	0x36b737b2	5.460309e-06
49	0xb64b3558	-3.0280407e-06
50	0xb785b19d	-1.5937543e-05
51	0xb81d1a52	-3.745623e-05
52	0x368d0b11	4.2034158e-06
53	0xb7473628	-1.18739335e-05
54	0xb72a8ca5	-1.0165536e-05
55	0x35fd6254	1.8878586e-06
56	0x37545910	1.2656921e-05
57	0x36a04f13	4.777577e-06
58	0xb6e7bb2b	-6.9061257e-06
59	0x382f3ced	4.1779993e-05
60	0xb7998267	-1.8299745e-05
61	0x368bf6ed	4.1712688e-06
62	0x3753de63	1.26283585e-05
63	0xb636f018	-2.7259866e-06
64	0xb7de310b	-2.64873e-05
65	0x37f67fd3	2.9385008e-05
66	0x37a2cb01	1.9406436e-05
67	0xb6c38d53	-5.827905e-06
68	0x3730ed17	1.0545619e-05
69	0x38078982	3.2314572e-05
70	0x38220804	3.8631275e-05
71	0x3763e6c7	1.3583986e-05
72	0x3684b36b	3.9547936e-06
73	0x367393b2	3.6295792e-06
74	0xb72319ce	-9.721565e-06
75	0x35cd0446	1.5274934e-06
76	0x375cd159	1.3161764e-05
77	0x37b097e6	2.1051568e-05
78	0x3840a6de	4.5931774e-05
79	0xb58efe6c	-1.0653871e-06
80	0x376d82b6	1.4156734e-05
81	0x37dc1835	2.6237316e-05
82	0x381b6989	3.7053167e-05
83	0x371dab19	9.397766e-06
84	0xb624ba59	-2.4546373e-06
85	0x36d0dcfb	6.2246086e-06
86	0xb624b6ed	-2.4544381e-06
87	0x383e4df2	4.5372122e-05
88	0xb72c7a10	-1.0280419e-05
89	0xb7ec97ac	-2.820402e-05
90	0xb7085245	-8.125387e-06
91	0x367d704c	3.7765303e-06
92	0x3689b4a3	4.103947e-06
93	0x36fc28dc	7.514942e-06
94	0xb6acccd4	-5.1498446e-06
95	0xb85f6f9c	-5.3271287e-05
96	0x35e2fdc8	1.6912172e-06
97	0xb8a24a7f	-7.738638e-05
98	0x36af83b9	5.230741e-06
99	0x382a8eff	4.0664334e-05
100	0xb737eaa2	-1.096228e-05
101	0xb6cf3ce3	-6.176169e-06
102	0x3816d853	3.5964254e-05
103	0x366937fb	3.475229e-06
104	0xb79f2434	-1.8971135e-05
105	0xb5c89ccd	-1.4946796e-06
106	0x37ffee6e	3.0509396e-05
107	0x37de4099	2.6494543e-05
108	0xb6a249c0	-4.836562e-06
109	0xb7995081	-1.8276509e-05
110	0xb667eb57	-3.4558668e-06
111	0x37d3cc5d	2.5248324e-05
112	0x373887b0	1.0998847e-05
113	0x375f7b50	1.3320547e-05
114	0xb7938cda	-1.7589355e-05
115	0x355313cc	7.8632434e-07
116	0xb6e82c7d	-6.919318e-06
117	0xb628095f	-2.5039406e-06
118	0x37e338e9	2.708701e-05
119	0x3552bc91	7.8505497e-07
120	0x37fcd657	3.014055e-05
121	0x3816c72c	3.594828e-05
122	0xb6a3f6b3	-4.886498e-06
123	0x363ed672	2.843703e-06
124	0xb58a9999	-1.0326504e-06
125	0x368f63e9	4.273363e-06
126	0xb70f62b1	-8.546443e-06
127	0x37281659	1.00187835e-05

encoder.encoder_layers.0.1.weight f4 [128]
0	0x3f7f7187	0.99782604
1	0x3f76fa40	0.964756
2	0x3f6879cc	0.9081085
3	0x3f73e9fa	0.95278895
4	0x3f601612	0.87533677
5	0x3f73b647	0.9520001
6	0x3f6155c6	0.88021505
7	0x3f5afef6	0.8554529
8	0x3f83c4d3	1.0294441
9	0x3f4d837b	0.8027875
10	0x3f763444	0.961735
11	0x3f7ad70b	0.9798438
12	0x3f665519	0.899736
13	0x3f61841e	0.8809222
14	0x3f8294db	1.0201677
15	0x3f66f96e	0.9022435
16	0x3f6ec8c0	0.9327507
17	0x3f5ce0b2	0.8628036
18	0x3f8e8826	1.1135299
19	0x3f82b907	1.0212716
20	0x3f79768c	0.97446513
21	0x3f844631	1.0333921
22	0x3f825a20	1.0183754
23	0x3f7aa8e4	0.97913957
24	0x3f81cd91	1.0140859
25	0x3f619e67	0.8813233
26	0x3f87b966	1.0603454
27	0x3f6ca7f4	0.92443776
28	0x3f7f5a28	0.9974694
29	0x3f7fd9a9	0.999415
30	0x3f712849	0.94202095
31	0x3f770509	0.9649206
32	0x3f818597	1.0118893
33	0x3f6a87de	0.91613567
34	0x3f5cf6cf	0.863141
35	0x3f8594c8	1.043603
36	0x3f741b08	0.95353746
37	0x3f6123f3	0.8794548
38	0x3f577675	0.84165126
39	0x3f733d30	0.9501524
40	0x3f703f89	0.93846947
41	0x3f82b206	1.0210578
42	0x3f5d0374	0.86333394
43	0x3f7aee70	0.98020077
44	0x3f5c502b	0.86059827
45	0x3f8c950b	1.0982984
46	0x3f7f2abe	0.99674594
47	0x3f86bc41	1.05262
48	0x3f6ee888	0.93323565
49	0x3f69bfc6	0.9130825
50	0x3f71fac5	0.9452327
51	0x3f84d5ae	1.037771
52	0x3f6d2571	0.92635256
53	0x3f6659a4	0.8998053
54	0x3f7b0bf2	0.980651
55	0x3f846678	1.0343771
56	0x3f50cc77	0.8156199
57	0x3f6366c9	0.8882871
58	0x3f6d366f	0.92661184
59	0x3f889a02	1.0672
60	0x3f80f051	1.0073339
61	0x3f6cbe8d	0.9247826
62	0x3f898cbf	1.0746077
63	0x3f66f132	0.90211785
64	0x3f803178	1.0015097
65	0x3f8409c8	1.0315485
66	0x3f5f080b	0.8712165
67	0x3f694f2a	0.9113642
68	0x3f6c410e	0.92286766
69	0x3f68691f	0.907854
70	0x3f826ea4	1.0190015
71	0x3f736672	0.95078194
72	0x3f73ce6d	0.95236856
73	0x3f7547a2	0.9581243
74	0x3f70f246	0.9411968
75	0x3f605099	0.8762298
76	0x3f6eb07c	0.93238044
77	0x3f7aa4bc	0.97907615
78	0x3f77c47d	0.9678419
79	0x3f6b807e	0.9199294
80	0x3f799c0e	0.97503746
81	0x3f695e2c	0.9115932
82	0x3f815f66	1.0107238
83	0x3f7ac531	0.9795714
84	0x3f78759c	0.9705446
85	0x3f5718f1	0.8402243
86	0x3f5abfc9	0.8544889
87	0x3f917530	1.1363888
88	0x3f7757b4	0.966182
89	0x3f743b05	0.95402557
90	0x3f82ff64	1.0234189
91	0x3f7af65d	0.9803217
92	0x3f71db94	0.94475675
93	0x3f6bccad	0.92109185
94	0x3f623c29	0.8837305
95	0x3f7d83de	0.9902934
96	0x3f5a6fac	0.8532665
97	0x3f580fda	0.8439919
98	0x3f710365	0.94145805
99	0x3f7bd1d7	0.98367065
100	0x3f5a8859	0.853643
101	0x3f607028	0.87671137
102	0x3f742276	0.95365083
103	0x3f604f5d	0.876211
104	0x3f714267	0.94241947
105	0x3f55980d	0.83435136
106	0x3f858260	1.0430412
107	0x3f7439d1	0.9540072
108	0x3f71378c	0.9422538
109	0x3f640f8d	0.8908623
110	0x3f867b0f	1.0506305
111	0x3f624437	0.8838534
112	0x3f5cb2c8	0.862103
113	0x3f6d8028	0.92773676
114	0x3f88cf7e	1.0688322
115	0x3f6008e0	0.8751354
116	0x3f55777b	0.8338544
117	0x3f53dbdd	0.8275736
118	0x3f67db73	0.9056923
119	0x3f500834	0.81262517
120	0x3f880ed4	1.0629525
121	0x3f7b90af	0.98267645
122	0x3f61b9f4	0.88174367
123	0x3f639948	0.88905764
124	0x3f63b0ac	0.88941455
125	0x3f5f9ed8	0.8735175
126	0x3f61feb8	0.88279295
127	0x3f60f77a	0.8787762

encoder.encoder_layers.0.1.bias f4 [128]
0	0xbc54318c	-0.012951266
1	0x3d99b774	0.07505694
2	0xbe732c7c	-0.23747438
3	0xbe2037f6	-0.15646347
4	0xbe440d14	-0.19145614
5	0xbdd81240	-0.10550356
6	0xbe4c5d14	-0.19957381
7	0x3dffbe57	0.12487476
8	0x3cfa880d	0.030582452
9	0xbe47737e	-0.1947765
10	0x3d6b5ac9	0.057459626
11	0xbafb4fd1	-0.0019173567
12	0xbe22476e	-0.15847561
13	0xbe196bf8	-0.14982593
14	0x3ccef169	0.025261598
15	0xba8111d3	-0.0009847231
16	0xbd224f7f	-0.039626595
17	0xbdd2cc31	-0.10292853
18	0xbe05600d	-0.13024922
19	0x3d33e02e	0.043914966
20	0x3d821273	0.06351175
21	0xbe6221db	-0.22083227
22	0xbe804aa7	-0.25056955
23	0x3d861f67	0.06548958
24	0x3e371200	0.1787796
25	0xbe69481f	-0.22781418
26	0x3e12b877	0.1432818
27	0x3d9b7c0c	0.075920194
28	0x3b95b5c0	0.0045687854
29	0xbd58c554	-0.05292256
30	0xbd336a06	-0.043802284
31	0xbdcb2474	-0.09919062
32	0xbe343e98	-0.17602003
33	0xbe8f6b71	-0.2801166
34	0xbcc4d50e	-0.024027374
35	0xbe5f77df	-0.21823071
36	0xbdb1e276	-0.08685772
37	0x3c1b12ce	0.009464933
38	0xbcd3daa0	-0.025861084
39	0xbb98e49e	-0.004665925
40	0x3dcd3176	0.100191996
41	0xbe267d99	-0.16258849
42	0xbcbb3e19	-0.022856759
43	0xbdec34f3	-0.11533537
44	0xbcf4603a	-0.02983104
45	0xbe0dcbea	-0.13847318
46	0xbdf54cac	-0.119775146
47	0x3c6db9e0	0.014509648
48	0xbdd5dfdd	-0.10443089
49	0xbe55607c	-0.20837587
50	0xbb89c292	-0.004204103
51	0xbd936057	-0.0719611
52	0x3b4e81c2	0.0031510447
53	0x3d585bc8	0.052821904
54	0xbda0a5d8	-0.07844132
55	0xbd2143ff	-0.039371487
56	0xbda804a5	-0.08204011
57	0xbd224974	-0.03962083
58	0xbe2b8693	-0.16750555
59	0x3db1760a	0.08665092
60	0xbe45d932	-0.19321135
61	0xbdb4abe5	-0.08821849
62	0xbe0ee785	-0.13955505
63	0xbeca1596	-0.39469594
64	0xbd79ff03	-0.061034214
65	0xbdd4e81b	-0.10395833
66	0xbcd8c1fd	-0.026459688
67	0xbe8f5dbb	-0.28001198
68	0xbe1e3369	-0.15449299
69	0x3d7eb1a3	0.062181126
70	0xbdc78fc7	-0.0974422
71	0xbd137c0b	-0.03600697
72	0xbdf6e0e5	-0.12054614
73	0xbeaf15d9	-0.34196356
74	0x3d93f33d	0.072241284
75	0xbd02310d	-0.03178506
76	0xbe7f4360	-0.24928045
77	0xbc9102ec	-0.017701589
78	0x3e04ed8e	0.12981245
79	0x3d63a6db	0.055579048
80	0x3b0f088a	0.0021825158
81	0x3c00a657	0.0078521585
82	0xbe18621b	-0.14881174
83	0xbd186539	-0.03720591
84	0x3dbfbc06	0.093620345
85	0xbdfbc1c6	-0.12292819
86	0x3a3e2f50	0.0007254975
87	0xbe6bad6a	-0.23015371
88	0xbbaf9891	-0.0053587635
89	0xbdae7aa7	-0.08519488
90	0x3e17f640	0.1484003
91	0xbdb22fc6	-0.08700518
92	0xbeada2dd	-0.33913317
93	0x3d81144c	0.063026994
94	0xbc52cbe9	-0.012865999
95	0xbdcb1ccb	-0.09917601
96	0x3d96c074	0.07360926
97	0xbeb146eb	-0.3462442
98	0xbc8c9985	-0.017163048
99	0xbd0469e9	-0.032327566
100	0x3e565762	0.20931771
101	0xbd9060d7	-0.07049721
102	0xbd51cb1c	-0.05121909
103	0x3c804622	0.015658442
104	0xbd3cbbac	-0.046077415
105	0x3dcdcb3c	0.100485295
106	0xbdba58f6	-0.09098999
107	0x3d59bbbd	0.053157557
108	0xbd9e9e36	-0.0774502
109	0x3d5e34fd	0.054249752
110	0x3e1ab740	0.15108967
111	0xbbf10b54	-0.0073560867
112	0xbc481a5c	-0.012213316
113	0x3cb7a443	0.022417193
114	0x3db1f73e	0.08689736
115	0x3d46cab1	0.048533145
116	0xbd90491c	-0.070451945
117	0xbe63dc13	-0.2225192
118	0x3cbaf20f	0.0228205
119	0xbe39257e	-0.18080708
120	0x3e12d217	0.14337955
121	0xbe99d38e	-0.30044216
122	0xbe1d414f	-0.15356945
123	0xbe3f4dba	-0.18681994
124	0xbe25c10a	-0.1618692
125	0xbd24dd9f	-0.040250417
126	0xbdd12dc3	-0.102138065
127	0xbe938cf7	-0.28818485

encoder.encoder_layers.0.1.running_mean f4 [128]
0	0xbf137ca3	-0.57612056
1	0x3ec3b93e	0.38227266
2	0x3e8cfa09	0.27534512
3	0x3e14da00	0.14536285
4	0xbef997d1	-0.4874864
5	0xbf2ffccd	-0.6874512
6	0x3eb82d68	0.35972142
7	0x3efa1df4	0.48850977
8	0xbf1012b5	-0.56278545
9	0x3f56ffae	0.83983886
10	0x3b6cd3c2	0.003613696
11	0x3d2825f8	0.041051835
12	0x3ecd28b9	0.4007013
13	0xbe80b84b	-0.25140604
14	0xbe8d549c	-0.27603614
15	0x3cb2d62f	0.021830646
16	0x3f744002	0.9541017
17	0xbf1c683a	-0.6109654
18	0xbe9bedc8	-0.3045485
19	0xbebe6ef1	-0.37194017
20	0xbf05e8f0	-0.5230856
21	0x3c641b97	0.013922594
22	0xbd8e87fd	-0.069595315
23	0x3ed01a69	0.4064515
24	0xbdac70d3	-0.08419957
25	0xbf0dcff9	-0.55395466
26	0x3e96c5bf	0.29447743
27	0xbf28ef76	-0.6599039
28	0xbdc60365	-0.09668616
29	0x3de01a75	0.10942546
30	0xbf31878e	-0.69347465
31	0x3f8e9e7f	1.1142119
32	0x3ce90353	0.028443968
33	0xbd887b5f	-0.06664156
34	0xbdd48051	-0.10376037
35	0xbf66d4a5	-0.9016822
36	0xbec3e85e	-0.3826322
37	0xbd00ae38	-0.031416148
38	0x3e6a92a2	0.22907498
39	0xbe9b8b26	-0.303796
40	0x3ca5c083	0.020233398
41	0x3e178c6d	0.14799662
42	0xbedb0cce	-0.42783207
43	0xbef1a089	-0.4719279
44	0xbf740d05	-0.95332366
45	0xbf3762dd	-0.7163523
46	0xbf26a68f	-0.650979
47	0x3f00dc53	0.5033619
48	0xbf5641ce	-0.8369416
49	0xbd8861a0	-0.066592455
50	0xbf26b568	-0.65120554
51	0xbf4a74b1	-0.79084307
52	0xbe593d89	-0.2121488
53	0xbed519d2	-0.41621262
54	0xbee24502	-0.44193274
55	0xbf60a824	-0.8775656
56	0xbe74655c	-0.2386679
57	0x3f578f3b	0.8420293
58	0xbcc0f8db	-0.023556164
59	0x3f291628	0.6604943
60	0x3d1cd29b	0.038286787
61	0xbda2f970	-0.07957733
62	0xbf7f21a4	-0.99660707
63	0x3e998765	0.2998611
64	0x3cbb7828	0.022884443
65	0xbf048607	-0.5176701
66	0x3f972391	1.1807729
67	0x3e04adf3	0.12956981
68	0xbec86a7b	-0.39143738
69	0xbe8072a9	-0.2508748
70	0xbe88c54e	-0.26713032
71	0xbf80d8fb	-1.0066217
72	0xbeeb55b2	-0.45963818
73	0x3e246bf2	0.16056803
74	0xbe8bae0d	-0.27281228
75	0xbe29df39	-0.16589059
76	0xbe833adf	-0.25630853
77	0xbe9d790e	-0.3075642
78	0x3e72ea17	0.2372211
79	0x3f4d9637	0.80307335
80	0xbd9e2b15	-0.07723061
81	0xbf12dfd1	-0.57372767
82	0x3d7b111d	0.061295617
83	0x3f96b8a1	1.1775094
84	0xbeed3963	-0.46332845
85	0x3e93e9ec	0.28889406
86	0x3ec42cc9	0.38315418
87	0xbf3e707b	-0.7439038
88	0xbe4c55ff	-0.1995468
89	0x3cbc740e	0.023004558
90	0x3ee40662	0.4453612
91	0x3f6c9403	0.9241335
92	0x3ece4396	0.4028594
93	0x3e9e6344	0.3093511
94	0x3f72e2da	0.948774
95	0x3dca538a	0.09879215
96	0xbf1dc8cd	-0.6163452
97	0xbe0c9476	-0.13728508
98	0xbf4289c5	-0.7599147
99	0xbe41aa0f	-0.18912528
100	0x3eb0564c	0.3444084
101	0x3f277e41	0.65427023
102	0xbe23ca44	-0.15995127
103	0x3f58ecb1	0.8473616
104	0xbed122d5	-0.40846887
105	0x3efcad64	0.49351037
106	0x3d5317cd	0.05153637
107	0xbed5bd0f	-0.41745803
108	0x3e0bbd08	0.13646328
109	0x3e185cc1	0.14879133
110	0x3f25eb52	0.64812195
111	0xbea51de1	-0.32249358
112	0x3f919906	1.1374824
113	0x3e17bccd	0.14818116
114	0x3f297cb4	0.66205907
115	0xbc844f62	-0.016151134
116	0x3eeae2e6	0.45876235
117	0xbde51501	-0.11185647
118	0x3ea217bc	0.31658733
119	0x3ec7d5b7	0.3903024
120	0x3ec45054	0.38342535
121	0xbe7061bf	-0.23474787
122	0xbead8009	-0.33886746
123	0xbf638772	-0.8887855
124	0xbf1f03dd	-0.6211527
125	0x3daf42b6	0.08557646
126	0x3f5bddbb	0.8588521
127	0xbe448e2a	-0.19194856
